results/ZmianaSzybkosciIObrotu/BoxingAgent/BoxingAgent-35482.onnx (onnx, 409187 bytes, 13 tensors)

network_body.observation_encoder.processors.0.normalizer.running_mean f4 [84]
000000 00 00 00 00 e0 3e 2f 3f 3c 67 81 3e a7 2b 36 3f
       0.0 0.68455315 0.25274074 0.7116036
000010 00 00 00 00 93 9e 2c 3f 45 0f 87 3e f5 22 38 3f
       0.0 0.67429465 0.26378837 0.7192834
000020 00 00 00 00 86 86 31 3f cd 74 79 3e eb 0c 35 3f
       0.0 0.6934589 0.24360962 0.70722836
000030 00 00 00 00 07 c5 29 3f 79 fd 8c 3e 40 77 39 3f
       0.0 0.66316265 0.27537134 0.72447586
000040 00 00 00 00 e4 af 32 3f 93 c0 74 3e 49 b2 34 3f
       0.0 0.6979964 0.23901586 0.7058454
000050 00 00 00 00 90 9a 29 3f c0 33 8e 3e 7d 9d 3a 3f
       0.0 0.6625147 0.27773857 0.7289656
000060 00 00 00 00 61 55 32 3f b6 b4 78 3e 8e ee 34 3f
       0.0 0.6966153 0.24287686 0.70676506
000070 00 00 00 00 19 55 2a 3f 7d 0e 8b 3e 49 e5 3a 3f
       0.0 0.665361 0.2715949 0.7300611
000080 00 00 00 00 e0 97 32 3f 57 be 76 3e d1 0f 35 3f
       0.0 0.6976299 0.24096046 0.7072726
000090 00 00 00 00 a4 27 2b 3f 29 3e 88 3e 4e 25 3b 3f
       0.0 0.6685736 0.26609924 0.731038
0000a0 00 00 00 00 23 3b 34 3f cd 47 73 3e 33 93 35 3f
       0.0 0.70402735 0.23757859 0.70927733
0000b0 00 00 00 00 2b fd 2a 3f a4 05 89 3e 13 73 3b 3f
       0.0 0.66792554 0.26762116 0.73222464
0000c0 00 00 00 00 98 d2 34 3f 83 8c 71 3e 94 4f 36 3f
       0.0 0.7063384 0.23588757 0.71215177
0000d0 00 00 00 00 bc 2b 29 3f 41 87 8c 3e 32 7c 3b 3f
       0.0 0.6608236 0.2744694 0.7323638
0000e0 00 00 00 00 00 d7 35 3f 26 d3 6a 3e 6b 64 36 3f
       0.0 0.7103119 0.22932109 0.71246976
0000f0 00 00 00 00 8b f6 26 3f 88 e6 90 3e 3b ee 3b 3f
       0.0 0.65219945 0.2830088 0.73410386
000100 00 00 00 00 28 6b 34 3f 8d 82 70 3e 07 8e 36 3f
       0.0 0.7047601 0.23487301 0.71310467
000110 00 00 00 00 34 30 25 3f ff 9f 8d 3e 25 6b 39 3f
       0.0 0.6452668 0.2766113 0.72429115
000120 00 00 00 00 f2 3f 33 3f f8 c7 74 3e a1 a9 36 3f
       0.0 0.7001945 0.23904407 0.71352583
000130 00 00 00 00 ed 93 25 3f 6d 52 8d 3e 66 99 39 3f
       0.0 0.6467884 0.27601948 0.7249969
000140 00 00 00 00 37 dc 32 3f 54 be 76 3e 22 1d 37 3f
       0.0 0.6986727 0.24096042 0.7152883

network_body.observation_encoder.processors.2.normalizer.running_mean f4 [37]
000000 ba 93 39 3e e8 83 6d 41 74 c5 68 c1 f4 82 f7 30
       0.1812276 14.844704 -14.548206 1.8008834e-09
000010 3e 79 f6 3e ad 88 7e 31 ae 6b 5f 3e 8c dd dc 38
       0.48139375 3.7039556e-09 0.2181842 0.00010531684
000020 f5 e3 86 3e 5f 2b ec 2f a9 5e f9 3e ec 8c f4 af
       0.26345792 4.2958967e-10 0.48705032 -4.4483472e-10
000030 ce 20 3d 3f 3f 7d 59 3f 8e 31 b1 3e 80 6e 57 3e
       0.7387818 0.84956735 0.3460812 0.21038246
000040 81 48 ad 3e 63 65 27 3f a4 f0 4b 3e 26 15 8c 3d
       0.3384438 0.6538908 0.19916016 0.06839971
000050 00 00 00 00 d4 ad 8f 3b 28 5a 4f 3c bf 40 2e 37
       0.0 0.0043847356 0.012655772 1.0386283e-05
000060 0b 35 05 3d 46 a9 d5 3e 38 b0 00 3f e5 9b fe 3e
       0.03252129 0.41730708 0.5026889 0.49728313
000070 a7 21 fb 3e 52 6d 02 3f cc d2 90 3d d6 fe cd 3d
       0.49049112 0.5094806 0.07071456 0.10058372
000080 3e 66 0e 3f 78 8c 38 3c e8 83 6d 41 20 3b 5c 41
       0.5562476 0.011263959 14.844704 13.764435
000090 12 7f 00 3f
       0.50193894

network_body._body_endoder.seq_layers.0.weight f4 [256, 121]
000000 10 7a 36 bd bf 01 1e 3e 0c 58 a5 3d 1b 7b 3e bd
       -0.04455 0.15430354 0.08073434 -0.04650412
000010 92 cd 92 3b 56 71 b1 3d 7e 0a 21 3d e0 48 cc 3d
       0.0044800723 0.08664195 0.039316647 0.09974837
000020 ee 6f d7 bd 27 19 15 3e b9 d6 3a be 91 86 97 3c
       -0.10519396 0.14560376 -0.18245973 0.018496783
000030 3f ec a3 3c 5f 4b 74 3a 75 d0 c0 bd ad 52 ac bd
       0.020010112 0.00093190925 -0.0941476 -0.08414207
000040 4f 37 df 3d 41 e1 35 3e 59 d3 76 bd 95 e8 f8 bb
       0.10899221 0.17761709 -0.06026015 -0.0075960853
000050 ac df 22 be e1 cf 60 3d 7c d8 a9 bd 71 31 20 be
       -0.15905637 0.05488575 -0.08293244 -0.1564386
000060 ae 99 80 3c 28 80 12 3e c2 a2 b6 bd fa 52 a3 3c
       0.01569828 0.143067 -0.08917762 0.019937027
000070 23 9d f7 3d 78 90 19 be 96 d8 93 3d 21 64 5d bd
       0.12090518 -0.14996517 0.07219045 -0.05405057
000080 d5 02 8e bd 42 50 88 be d9 10 20 bc 46 52 1e 3e
       -0.06934134 -0.26623732 -0.009769642 0.15461072
000090 c5 0c 24 3d 3a c9 e6 bd 6b fb 29 3e 9a 0c 8d bd
       0.04005124 -0.1126885 0.16599815 -0.06887169
0000a0 62 11 8f 3d fd 68 0e 3d 76 a0 26 bd d2 07 be 3d
       0.069857374 0.034768093 -0.04068037 0.09278835
0000b0 ec 98 00 be c2 ba 3c 3d 10 09 b3 bd 63 9f 07 ba
       -0.12558335 0.046076544 -0.08741963 -0.0005173592
0000c0 ec 61 d9 bc ba a2 a4 3c e2 26 c7 bd 1a 51 ad 3d
       -0.02653595 0.020097125 -0.09724213 0.084627345
0000d0 6c 62 06 bd 30 35 0d be 60 90 95 bd 03 36 da bc
       -0.032808706 -0.1378982 -0.07302928 -0.026637083
0000e0 6e 89 15 be c6 a8 5c ba 4e a3 f8 3c 70 52 b7 bc
       -0.14603207 -0.0008417483 0.030351307 -0.022378176
0000f0 e5 09 59 bd f8 b1 33 be b4 3e b0 bd 62 9f 5a 3a
       -0.05298795 -0.17548358 -0.0860571 0.000833979
000100 e8 17 6b be 53 d4 0c 3c 1e 82 3f bd 08 ec 2d ba
       -0.22958338 0.008595544 -0.04675495 -0.00066345977
000110 87 82 05 3e 20 da ab 3c 31 d5 2d be 12 dc 50 bc
       0.13038073 0.020978034 -0.16975857 -0.012747781
000120 2f 13 e8 bc 80 17 6f 3e 84 cd 81 3c 78 dd 03 bd
       -0.02832946 0.23348808 0.015845068 -0.03219363
000130 95 a0 fc 3d 26 49 a9 bd 80 8e 01 3d 69 5b 7a 3b
       0.12335316 -0.08265905 0.03163004 0.0038201457
000140 74 2e 94 3c ee e6 0e 3d 03 be b5 3d b0 ab dd bd
       0.018088557 0.0348882 0.088741325 -0.108237624
000150 da 7e e5 bd df 08 b5 3d dc 93 14 3d a4 31 30 bd
       -0.11205836 0.08839583 0.036273822 -0.04301609
000160 06 c3 11 3e 2e 51 3d 3d a3 cf 08 3e ff 0a 35 bc
       0.14234552 0.046219997 0.13360457 -0.011049985
000170 86 82 bc bc 86 4b 22 be 92 e9 92 3d 1a 5e 8c 3c
       -0.023011457 -0.15849122 0.07173456 0.017134715
000180 61 5d 0d be 52 3b 07 bd 9c 85 f4 bc 82 31 6c bd
       -0.13805152 -0.033015557 -0.029848866 -0.0576644
000190 68 af 9e bc 5f 05 3a 3d 9d b9 3d bd 9b 81 7a bd
       -0.01937075 0.04541528 -0.046319593 -0.061158758
0001a0 06 a1 69 3d 1e 7e 41 3e 5d fe 14 be 80 57 32 3d
       0.05703833 0.18895766 -0.14550157 0.043540478
0001b0 8c 16 eb 3b 79 ec 64 3d c4 bb 00 bd 62 80 8b 3d
       0.0071743187 0.05588958 -0.031429067 0.068115965
0001c0 96 d9 15 3d ad d7 23 be 7e 70 ac bc 3f ea 58 bc
       0.03658446 -0.16000243 -0.021049734 -0.013239442
0001d0 64 9b ee bb 34 3d e5 bb b9 12 ee bc 18 4b ed 3d
       -0.0072817076 -0.0069958214 -0.029061662 0.115865886
0001e0 76 65 f6 3b f5 ca 39 bd 1a 55 e4 bd 34 5f ae 3b
       0.0075194193 -0.04535957 -0.11149044 0.0053214077
0001f0 b2 b4 d3 bd 0f 6e c0 bd d2 dc 80 bd f6 81 3b bd
       -0.10337199 -0.09395992 -0.06292118 -0.045778237
000200 e3 e9 2d bd 9c fd 8b 3c 49 9c 7c 3e 4f 90 c2 bd
       -0.04245938 0.017088704 0.24668993 -0.09500181
000210 10 0c 2d bd 00 cc 08 bb ff ef b3 3c 1c 26 df 3c
       -0.04224783 -0.0020873547 0.021965025 0.027239852
000220 3d 29 1c 3c d8 b0 24 be 2c e7 4c be a0 fa 11 3e
       0.009531316 -0.16083086 -0.2001006 0.14255762
000230 8f cc 45 bd 81 f8 04 be a2 a0 99 bd e6 91 04 bc
       -0.048290785 -0.12985422 -0.075013414 -0.0080914255
000240 25 b9 17 3e cb 1a d6 bd 75 08 30 3e cf d0 7e 3d
       0.14816721 -0.10454329 0.17190726 0.062210854
000250 6a 19 0b be fe 8b 78 bd d7 06 05 3d 2b 69 e2 bd
       -0.13583913 -0.060680382 0.032477226 -0.110552154
000260 2d 47 ad bd 28 d6 e1 bc 12 70 4e bd 4c c6 2d 3d
       -0.08460841 -0.027567938 -0.050399847 0.04242544
000270 8f c8 14 3e ec 5b 50 3e ba 08 65 bd 5a ad 05 bc
       0.14529632 0.20347565 -0.055916525 -0.008159006
000280 14 98 52 3c 3d bd 0c bd d3 0e e5 3c db 8b db 3d
       0.012853641 -0.03436016 0.02796117 0.10720035
000290 c2 8f 1e 3d 49 07 4c 3d 6a 16 07 bd 55 f3 27 bd
       0.038711317 0.049811635 -0.03298036 -0.041003544
0002a0 d7 ce 18 be 18 3f 01 bd 88 20 07 3d 50 c8 48 bd
       -0.14922653 -0.03155431 0.03299001 -0.049019158
0002b0 15 cf 2a bd 0b 7e 7d 3b 77 47 e6 bc 43 b0 68 3d
       -0.041701395 0.0038679864 -0.028110249 0.05680872
0002c0 5a bd 9f 3c bc d3 a6 3d 39 d5 f2 3d b7 c6 e8 3d
       0.01949947 0.08145854 0.11857075 0.11366027
0002d0 97 54 f3 3d 80 31 d3 bd 83 cf f4 3d 60 4c 80 bd
       0.118813686 -0.10312176 0.11953642 -0.062645674
0002e0 9d 93 89 bd e1 2d 04 bd 99 4a 7a bd 62 0c dd bd
       -0.06717608 -0.032270316 -0.061106298 -0.107933775
0002f0 06 53 8a bd e5 28 98 3d 85 fc 40 3d 48 49 a8 3d
       -0.06754117 0.07429675 0.04711582 0.08217102
000300 82 23 bb 3d 62 26 e8 3d 0c d0 ce 3d 4d e1 5e 3d
       0.09137632 0.11335446 0.100982755 0.054414082
000310 16 f1 27 3d c7 46 92 3c 11 9a 9f bd 6e ad bc 3d
       0.0410014 0.017856015 -0.07793058 0.092127666
000320 9f 12 00 3e 5a 16 97 bd 64 3d 5b bd f9 84 71 3d
       0.12507103 -0.0737731 -0.053525344 0.058964703
000330 79 68 28 bd 43 c2 24 ba a3 42 2e bc 71 f4 a8 bc
       -0.041115258 -0.0006285051 -0.010636005 -0.020624371
000340 de 04 af bd 2e aa 07 bc 07 5c 88 bc 68 66 11 bd
       -0.0854585 -0.00828032 -0.016645445 -0.035498053
000350 d0 8e 77 3c 52 a8 69 3c 9d a3 18 be 6e 71 20 3d
       0.015109733 0.014261322 -0.14906164 0.039170675
000360 b7 f0 b9 bc b2 3e cb 3d f1 0f b1 3d b5 bd 62 bd
       -0.02269779 0.099240676 0.08645619 -0.0553567
000370 c3 e9 e5 bc f8 5e da 3c 9d 8d ca bd ce 82 9f bd
       -0.028065568 0.026656613 -0.09890292 -0.07788621
000380 79 4c 84 3d ad ab aa 3c 2b 09 3c bd 99 0e 06 bd
       0.064598985 0.020833815 -0.04590718 -0.032728765
000390 4c 9e 7f 3c ae 77 49 bc 29 15 5e 3d 66 00 84 bb
       0.015601706 -0.0122966 0.0542194 -0.004028368
0003a0 4b f5 a9 3b f8 31 a7 bd d0 9d fd bd 18 12 1c be
       0.005186712 -0.08163828 -0.12383616 -0.15241277
0003b0 fc 92 32 bd e1 b5 9b bc 21 df 6e 3d b8 65 0b 3e
       -0.043597206 -0.019007625 0.05831826 0.13613021
0003c0 1a bf 65 3d 53 d9 0b 3d 95 2b 0e bd 68 73 38 bd
       0.05609045 0.034142803 -0.03470953 -0.045031935
0003d0 d9 79 23 bd 5b 29 15 3e 1f 22 d5 bc 89 75 fe 3c
       -0.039911125 0.14566557 -0.026017247 0.031061905
0003e0 4d 8c 42 3d 1a ca ad 3d b8 ba dc bd 44 ca a7 bd
       0.047497083 0.084858134 -0.10777801 -0.08192876
0003f0 67 8c f3 bd be d0 ca bd 6b c1 da bc ee b3 cd bd
       -0.11892014 -0.09903096 -0.026703557 -0.100440845

network_body._body_endoder.seq_layers.0.bias f4 [256]
000000 af 9a ed 3b d2 3b f8 39 8f 8d c2 3b f1 19 e1 3b
       0.0072511057 0.00047346816 0.0059372853 0.0068695475
000010 b6 8e b3 b8 11 88 86 bb be a6 1e bb 0b 4f d2 3a
       -8.561967e-05 -0.004105576 -0.0024208273 0.0016045285
000020 55 ee 87 3a 59 dc a4 bb b9 73 d2 3b 4c 25 0a 3b
       0.0010370711 -0.0050311503 0.0064224866 0.002107936
000030 d3 18 3f 3b f2 82 60 ba aa 24 01 ba 59 7f bd 3b
       0.0029159083 -0.0008564434 -0.0004926423 0.0057830033
000040 33 2c 8e 3b 3c 85 62 b9 7a d9 fe b7 07 4c fb b8
       0.004338765 -0.00021602673 -3.038043e-05 -0.00011982774
000050 58 75 a8 3a dc 79 ae 3b 09 e2 8c 3b 39 f8 87 3b
       0.0012852354 0.0053245854 0.0042994064 0.0041494635
000060 19 be c9 3a 1d 9f 4a bb fc d0 cf bb 3b 4a 60 3b
       0.0015391737 -0.0030917593 -0.0063420516 0.0034223932
000070 0e 41 83 3b f1 cb 02 bb 93 60 b5 3b 8c c8 00 b8
       0.004005558 -0.0019957984 0.005535194 -3.0704352e-05
000080 15 f9 23 bb 32 c0 43 3b 65 a3 cd 3a 67 77 10 3c
       -0.002502029 0.0029869196 0.0015688954 0.00881753
000090 b6 7d de 3b ec b7 db 3b fa 0e 5b 3b 70 5c b7 3a
       0.0067898883 0.006705275 0.0033425675 0.001398934
0000a0 94 6f 5a bb 5b 03 07 3b 70 52 10 bb 44 ca 5f 3b
       -0.0033330666 0.0020601365 -0.0022021793 0.003414766
0000b0 61 af 7b 3a 0e 82 2c bb 8c 3b 01 3c 6f 93 1c 3b
       0.00096010236 -0.0026322636 0.007887732 0.0023891588
0000c0 92 f3 58 bb e6 6e 34 bb 74 30 5a 38 c8 35 0a bb
       -0.0033104164 -0.002753192 5.2020376e-05 -0.0021089185
0000d0 9d 71 12 3a 79 dc 0f ba 5a 87 db 3b 1c d4 32 3b
       0.00055863877 -0.000548787 0.006699485 0.0027287072
0000e0 39 34 89 bb 13 1f 98 3b 4a f0 33 3b a6 e5 26 bb
       -0.0041871336 0.004642376 0.0027456456 -0.002546647
0000f0 28 32 4a 3a cc 7c 7f 3b b4 2d 42 bb 53 b8 ab ba
       0.00077131623 0.0038984297 -0.0029629292 -0.0013101198
000100 7a 09 a8 ba 99 76 6b ba 39 0c 21 3b 08 e8 96 3b
       -0.0012820207 -0.0008982211 0.0024573936 0.004605297
000110 e9 66 da bb a2 5f 1a bb 9c 01 41 3b 70 23 8b 3b
       -0.0066651 -0.0023555537 0.0029450422 0.004246168
000120 88 d2 56 bb 81 cc 34 3b 5c e6 4c 3b 1c cd 01 3c
       -0.0032779295 0.0027587714 0.0031265235 0.007922437
000130 2e af 56 bb ca 92 10 bb 93 e5 b1 3b 49 31 b6 3b
       -0.0032758224 -0.002206015 0.0054289787 0.0055600745
000140 5d 5a 58 bb c6 65 ee 3b 56 bf b8 3a 4d 01 8b ba
       -0.0033012845 0.007275316 0.0014095108 -0.0010605246
000150 88 b0 95 3b 52 42 18 3b 3a 12 ae 3b b8 13 99 3b
       0.0045681633 0.002323289 0.0053122314 0.00467154
000160 95 11 bc bb ff 7f f5 3b 45 5d bf b9 9e 6c cb 3b
       -0.0057394006 0.007492065 -0.0003649985 0.0062080165
000170 73 01 9b 3b 5e c3 b8 3a 46 4a 56 bb 52 08 ac 3b
       0.0047303974 0.001409631 -0.003269808 0.0052500153
000180 0a 14 87 bb e4 65 f0 ba a7 cb 59 3b 37 36 a8 3b
       -0.004122262 -0.0018340913 0.0033232959 0.005133416
000190 aa 44 f1 bb 9a e2 8c 3b 71 41 03 39 71 47 74 3a
       -0.0073629217 0.004299474 0.00012517512 0.0009318507
0001a0 b8 5a 79 ba 91 63 51 ba 5c 89 08 3b 53 c4 5d ba
       -0.00095121143 -0.0007987554 0.0020833826 -0.00084597355
0001b0 0b 5f 9a 3a c0 d9 f1 38 8a b9 f6 3b c5 2c f9 3b
       0.0011777593 0.000115323346 0.007529442 0.007604214
0001c0 31 18 32 3a de 67 17 3b dc d8 2e 3b 98 db c8 bb
       0.0006793766 0.002310268 0.0026679551 -0.0061296932
0001d0 b7 90 99 3a b2 b1 e4 3b 7b c0 c3 3b b7 9d e1 3b
       0.0011716102 0.0069791907 0.005973873 0.006885256
0001e0 65 4f cc 3b 62 16 33 b9 89 61 b4 3b 40 5a a1 39
       0.0062350505 -0.00017079109 0.005504791 0.00030775554
0001f0 82 47 e4 3b e6 ad ef 3b ed 14 c5 3b bd a7 8b 3b
       0.006966532 0.0073144315 0.0060144574 0.0042619393
000200 bf 9b a0 ba c8 8f d7 ba 6b c0 35 3a 80 4a 8f 3b
       -0.0012253447 -0.0016446048 0.00069332746 0.0043728948
000210 c4 fc 88 ba b3 1e 22 ba a9 8b 9b bb 18 df 2f 3b
       -0.0010451307 -0.0006184384 -0.0047468734 0.0026835855
000220 32 12 e1 bb ae a8 72 3b 39 be 6e ba 42 6f fe 3b
       -0.006868624 0.003702681 -0.0009107325 0.007764728
000230 aa f8 da b9 c1 af 71 3b 74 e6 d2 bb c9 39 c6 ba
       -0.0004176547 0.003687844 -0.0064361636 -0.0015123422
000240 d1 ce a4 3b 3b cd 4f 3b 14 1b 26 b9 68 76 98 bb
       0.0050295372 0.003170802 -0.00015841081 -0.004652787
000250 fa 08 13 3b 68 15 9c 3b 7c ba bf 3b ee 41 8b 3b
       0.002243577 0.004763294 0.005851088 0.004249803
000260 e5 df 6b 38 54 a2 0f ba 41 b0 ce 3b 2f ff 4c bb
       5.6236884e-05 -0.0005479206 0.006307632 -0.003128003
000270 b8 41 ae ba 71 a9 92 3b 08 69 ea 3b 55 66 1f 3b
       -0.0013294732 0.0044757654 0.007153634 0.002432247
000280 25 1f 86 bb 29 53 99 39 49 87 e2 3a 58 60 44 bb
       -0.004093068 0.00029244393 0.001728275 -0.0029964652
000290 d7 b4 fb ba b3 c9 90 3a 41 0a 1f ba c3 42 1b 3b
       -0.0019203675 0.0011046439 -0.00060668966 0.0023690916
0002a0 ce 14 81 3b c1 d8 8e bb f4 74 fa ba 9a 00 9c 3b
       0.0039392477 -0.004359335 -0.0019108341 0.004760814
0002b0 78 15 15 3b 58 6b 75 3b ee e0 40 bb 48 5f 1b 3b
       0.0022748392 0.0037448015 -0.0029430944 0.0023707915
0002c0 5f 27 99 bb 4d 78 28 3b a0 69 bb 3a 0c 58 ec 3a
       -0.004673883 0.002570647 0.0014298446 0.0018031611
0002d0 1e c6 36 bb c0 5e b3 3b 36 c7 f8 b9 76 fc 83 3b
       -0.0027889083 0.0054739416 -0.0004745067 0.0040278984
0002e0 86 4c 03 bb 88 55 fd ba 3e b0 8e bb 80 d6 ae 3b
       -0.0020034625 -0.0019327858 -0.004354506 0.005335629
0002f0 c1 b2 09 bb b9 29 65 b9 b0 02 1b 3b ba 0d 3f ba
       -0.0021011087 -0.00021854685 0.0023652725 -0.0007288117
000300 39 cd 8c bb 22 ac 0d bb 88 3e cf 38 e8 f1 39 bb
       -0.0042969254 -0.0021617492 9.8821765e-05 -0.0028372947
000310 5b c4 b2 b8 24 be 14 3b b3 ce a5 3a 48 ed 20 3b
       -8.5242755e-05 0.002269634 0.0012650102 0.0024555493
000320 01 de 75 ba 68 a5 c4 3b 9f 9a be ba 3d 5b 66 3b
       -0.00093790895 0.0060011633 -0.001454193 0.0035149597
000330 0b 28 c0 3b ac 11 8c bb d5 6a 24 3c 4e a1 98 bb
       0.0058641485 -0.0042745676 0.010035236 -0.004657901
000340 03 08 e0 3b a6 8d a8 3b a0 40 62 3b dd b3 86 3a
       0.0068368926 0.005143839 0.0034523383 0.0010276992
000350 15 9a b5 bb 4e 17 62 b9 ab 3f 9e bb b3 7e 98 ba
       -0.0055420497 -0.00021561721 -0.004829367 -0.0011634439
000360 20 33 90 bb b5 e6 0e 3b e7 9f 75 3b ed af 27 3b
       -0.004400626 0.0021804993 0.0037479342 0.0025587038
000370 73 0c 9c bb e9 76 5d 3b d0 56 05 b9 f3 b7 79 3b
       -0.0047622263 0.00337928 -0.00012716209 0.0038104027
000380 23 b9 2f 3a 20 76 1e bb b2 0b b3 ba 9b 77 b5 3b
       0.0006703308 -0.0024179295 -0.0013660102 0.0055379397
000390 a9 7b 9e bb 58 bc a6 3b 00 8b 0a ba 54 58 a1 3a
       -0.004836519 0.0050883703 -0.0005284995 0.0012309649
0003a0 0f 77 97 ba ad f7 5f 3b a5 23 ea ba e0 e4 95 b8
       -0.0011555868 0.0034174726 -0.0017863406 -7.147505e-05
0003b0 4a a4 f9 3b c0 32 20 bb 63 90 dd ba a7 78 7b b9
       0.0076184617 -0.0024444312 -0.0016903993 -0.00023982172
0003c0 58 a1 63 bb 14 2f 99 3b 3d b4 81 bb 3e 09 37 bb
       -0.003473362 0.0046748016 -0.0039582537 -0.0027929093
0003d0 ba bf 98 3b af e2 c2 ba d8 02 91 3b ac 62 4a b9
       0.0046615275 -0.0014868582 0.004425388 -0.0001930098
0003e0 c4 f3 6a bb 6a 9e cd 3a 73 9d ae b8 2b 10 c6 3a
       -0.0035850862 0.001568747 -8.326294e-05 0.001511102
0003f0 83 61 81 bb 42 0c 43 3b a0 df 8d bb 9a 65 cd 38
       -0.003948392 0.0029761945 -0.0043296367 9.7940865e-05

network_body._body_endoder.seq_layers.2.weight f4 [256, 256]
000000 ac 4c 8b bc 23 f0 93 3d cd e1 81 bd db 92 7a bd
       -0.017004333 0.07223537 -0.06341896 -0.06117521
000010 1d fd 4b 3d 37 de cd 3b 7a 45 ae 3c e4 7d 2c bc
       0.049801935 0.0062825936 0.021273363 -0.010528062
000020 02 a1 d3 bd 27 6b 8f bb 6f 05 b3 3d 4d 89 60 3c
       -0.10333444 -0.004376787 0.08741271 0.01370461
000030 a7 68 a9 bd 84 95 58 bd 1d 0e 1b 3d 2c ee c1 bd
       -0.08271914 -0.052876964 0.037855256 -0.09469256
000040 b4 26 93 bd 1d 17 54 3c d0 27 7a 3d 77 05 79 3d
       -0.071851164 0.012944964 0.061073124 0.060796227
000050 fd 42 04 3d 2c 24 81 3d d9 32 1e bd aa 75 73 bd
       0.032290448 0.06305727 -0.03862271 -0.059438385
000060 26 d0 28 bd ea 5a 85 bd 02 07 93 3d 72 44 46 3b
       -0.04121413 -0.06511481 0.07179071 0.00302532
000070 e2 9c ec bd b9 44 b2 bd cf 39 59 3d 82 d8 98 3d
       -0.115533605 -0.08704514 0.053033646 0.074631706
000080 ac ba 83 bd 79 f8 19 3d c2 b1 26 3c c8 f5 7e bd
       -0.06432089 0.037590478 0.010174217 -0.062246114
000090 4e 5c a0 3d e9 83 42 3d bc e7 d4 3d 15 fd a2 3d
       0.07830106 0.04748908 0.10395762 0.07958428
0000a0 1d 97 de bb f7 d6 53 3a d4 12 a3 3c d5 a1 a1 bc
       -0.0067929165 0.00080810435 0.019906439 -0.019730488
0000b0 27 7b e0 bc 34 b5 1e bd 7e ea 30 3d 63 0a 12 3d
       -0.027402474 -0.038747028 0.04319238 0.035654437
0000c0 7e 8c 13 3d 57 69 39 3d f1 6b 13 3d d2 6e 14 3d
       0.036022656 0.045266476 0.035991613 0.0362385
0000d0 7f 86 f6 3d 92 02 ac 3d 0c 80 03 be 7d be 2e bc
       0.12037372 0.08398928 -0.12841815 -0.010665533
0000e0 26 0c ec 3b 24 81 d2 bc 7c 6f 04 bd 3a 33 0e 3e
       0.0072035966 -0.025696345 -0.032332882 0.13886729
0000f0 8c 19 fc bd 82 ad ea 3c 32 8e 0b be ef 8c 52 3d
       -0.1230956 0.028647188 -0.13628462 0.051403936
000100 11 2e 9a 3d 0c da a7 bc 83 c9 e5 bd 20 d1 ba 3c
       0.07528318 -0.020489715 -0.11220076 0.022804797
000110 86 16 0a 3d 28 31 62 bc b9 a8 ba 3c 3a c6 ff 3d
       0.033712886 -0.013805665 0.022785531 0.124889806
000120 6f 62 43 3d a4 62 05 bd 45 54 9a bd 74 ef c6 bc
       0.047701295 -0.032564774 -0.075356044 -0.024284102
000130 d0 de b5 bd 12 5b 0e 3c 01 9f 60 3d 97 ed 05 bd
       -0.08880389 0.008688705 0.054839138 -0.032697286
000140 1c 21 c9 3d b8 e3 b7 3d fb bc 71 3d e6 f9 2d bd
       0.09820768 0.08978981 0.059018116 -0.04247465
000150 e7 bc 65 3d 3c 14 06 bc e9 31 be bb 04 f3 87 bd
       0.056088354 -0.008183535 -0.0058042896 -0.066381484
000160 b9 36 72 3e 66 c8 c4 bc 5e f5 90 bc 70 af 25 bc
       0.23653688 -0.024021339 -0.017695125 -0.010112628
000170 0b fc 59 3b a7 7f df bc 6c ac 1b bd a7 92 f1 bc
       0.0033261802 -0.027282549 -0.03800623 -0.029488875
000180 6a 97 b2 3d 08 fb bd 3c 33 51 9f bd f3 19 af bc
       0.08720286 0.02319099 -0.077791594 -0.021374678
000190 44 06 3b 3d 49 33 18 3d 4c 19 59 bd a0 ed 30 3b
       0.045660272 0.037158284 -0.05300264 0.0026997104
0001a0 dd fe ae 3d bd 72 b9 3d 27 72 c9 bd 0b 04 1a 3d
       0.08544705 0.09055088 -0.09836226 0.037601512
0001b0 0b ba db bc 79 12 ce 3d d0 71 0b 3c 87 3f 01 bd
       -0.02682211 0.10062117 0.008511022 -0.031554725
0001c0 c4 f7 da bd 18 27 31 3d f5 01 03 be a8 34 e4 bc
       -0.10691789 0.043250173 -0.12793715 -0.02785714
0001d0 b9 25 24 3d 8b ba 92 3d a4 94 5e 3d e7 4f c7 bd
       0.040075038 0.071644865 0.054340973 -0.09732037
0001e0 95 6d 93 3c ab a2 fb 3d 15 86 00 3c 2e 9c 0c bb
       0.017996589 0.12286886 0.007844468 -0.0021455395
0001f0 b5 7a 32 3d ed 26 11 3c d8 d5 ff 3a a7 a7 b6 3d
       0.043574054 0.008859378 0.0019518686 0.08918696
000200 e8 86 67 3d 46 69 91 3c 3c 93 f5 3b d2 79 43 3d
       0.05652514 0.017750394 0.0074943583 0.0477236
000210 98 37 8f 3d 5f d0 be 3d 81 41 1b 3d bc af be bd
       0.069930255 0.093170874 0.037904266 -0.093108624
000220 5b d3 19 3b 6c 75 1c bd dd d1 05 bd d9 fe 0a be
       0.0023471925 -0.03819792 -0.032670844 -0.13573779
000230 90 d1 92 3d 30 ec 03 3d d8 60 65 3d 1e 75 d9 bc
       0.07168877 0.032207668 0.05600056 -0.026545104
000240 a1 d2 be 3c 76 be 7b bd 02 0b 93 3d a8 99 fa bc
       0.023293795 -0.061460935 0.07179834 -0.030590847
000250 e4 58 3a bd c6 fa 21 3d 6a f1 80 3d a8 f8 10 3d
       -0.04549493 0.039545797 0.06296046 0.035393387
000260 b5 41 15 bd 55 95 f4 3c f0 7d d3 ba 20 13 43 3d
       -0.036439616 0.029856363 -0.0016135555 0.04762566
000270 89 f4 7f 3d a6 ae 86 bd 57 5f 9c bd b1 bf 82 bd
       0.062489066 -0.0657628 -0.07635372 -0.063842185
000280 95 2b ba 3d c2 91 5a bb 2d e7 c5 bd 75 7c f5 3c
       0.09090344 -0.0033351039 -0.09663234 0.029966572
000290 f7 2d 91 bc 5f 30 b8 3d 6e 0d 80 bd 17 a9 b6 bd
       -0.017722113 0.08993601 -0.062525615 -0.0891897
0002a0 d3 60 5d 3d e6 ce d4 bd 45 24 19 3d a5 5c fb bc
       0.054047417 -0.10391025 0.037388105 -0.030683825
0002b0 c5 4e f7 3c c4 15 96 3c a1 f3 8e 3d 1b 00 85 3d
       0.030188927 0.018320926 0.06980062 0.06494161
0002c0 3b 0c c9 bd c8 eb 4a bd 75 88 49 bc 05 cc 91 bc
       -0.09816786 -0.049541265 -0.0123006 -0.01779748
0002d0 cb 04 51 3c 92 59 ab 3b 82 6c b3 bc 58 6b 5e 3d
       0.01275749 0.0052291835 -0.021902326 0.05430159
0002e0 03 23 8b ba 33 db 1f bd 54 41 73 bd 6b 44 19 3d
       -0.0010615293 -0.039027404 -0.059388474 0.037418764
0002f0 b3 36 b3 3c 80 9b de 3c 55 42 f8 3c cc fc a3 3d
       0.021876669 0.027173758 0.030305067 0.080072016
000300 dc 57 1f bc 67 75 ea bd 3d 61 0c bd dd 89 5b 3d
       -0.009725537 -0.11448174 -0.03427242 0.053598274
000310 b4 52 07 bd e1 b2 98 3d 2a e6 c1 bc 3b aa 7b 3d
       -0.033037856 0.074559934 -0.023669321 0.06144164
000320 bf e2 94 39 e5 ea 66 bd e7 76 d0 bd 58 05 8f 3d
       0.000283977 -0.056376357 -0.10178929 0.06983441
000330 6e 1c 59 ba cc e1 0c bd b8 47 c6 3c 50 f3 20 bc
       -0.00082821294 -0.034395024 0.02420412 -0.009823635
000340 12 a5 8c bd 60 97 67 bd a7 b3 39 bc 67 d5 b9 bd
       -0.06867422 -0.056540847 -0.011334336 -0.090739064
000350 a2 b0 08 3d 63 cd 03 3d b6 9b 48 bd d3 8f 6c 3a
       0.033371575 0.032178294 -0.048976623 0.0009024117
000360 f0 1f 6a 3c 3a 04 15 be 68 64 cf bc 21 5d b4 3d
       0.014289841 -0.14552394 -0.025316432 0.088068254
000370 2d 2a 64 3d 38 69 59 bd 11 fb 02 3d e6 40 f5 3d
       0.055704284 -0.05307886 0.031977717 0.11975269
000380 8d 2a b7 3d cd 73 6f bd 88 d8 4e 3d b4 66 1d bd
       0.08943663 -0.058460046 0.05049947 -0.038428023
000390 60 21 19 b6 a0 08 8c bc 45 86 42 3c 3f c4 9b 3d
       -2.2818203e-06 -0.017093956 0.011872833 0.0760579
0003a0 ef fa b5 bc f6 0b c2 bd d3 ad 23 bc f6 ff b1 bb
       -0.022214381 -0.094749376 -0.009990173 -0.0054321242
0003b0 1c 8f de bd a7 2a 40 bd e7 24 f8 3d d8 fa b3 bc
       -0.1086714 -0.046915676 0.121164136 -0.021970198
0003c0 df f5 81 3c 3b 71 a0 bc 92 70 87 3b ca 90 0d 3d
       0.01586431 -0.019585242 0.0041332925 0.03456191
0003d0 ae 8a ee bd d1 9a 8b bd 14 5e 17 bd dd 95 6f bd
       -0.11647545 -0.06816638 -0.036954954 -0.05849253
0003e0 45 e7 8c bd 8a ab b0 3c b1 a6 8b bd ea eb 70 3c
       -0.06880049 0.021566171 -0.06818903 0.014704684
0003f0 20 47 83 bc bb 4f 81 bd 69 ee 93 3c 35 e0 0a 3d
       -0.016025126 -0.063140355 0.018058019 0.033905227

network_body._body_endoder.seq_layers.2.bias f4 [256]
000000 23 21 b4 ba aa 2f 6a 3b d8 62 e7 ba 15 1d c3 bb
       -0.0013742786 0.0035733976 -0.0017653359 -0.0059543946
000010 fd 73 ad bb 68 10 29 ba b8 8f 99 3b 06 de 85 3b
       -0.005293368 -0.0006449283 0.004686322 0.004085305
000020 51 36 ed ba d7 a8 50 bb 2a 57 92 3b d2 5a e3 bb
       -0.0018097853 -0.0031838918 0.004465957 -0.006938317
000030 30 2a e8 3b bd e3 bf 3b c8 66 8d bb 74 b9 49 b9
       0.0070851073 0.005856006 -0.004315231 -0.0001923794
000040 b6 e4 a6 ba 3e 47 55 3b 68 ae c1 3b cf cc 38 3b
       -0.0012732956 0.0032543684 0.0059106834 0.0028198247
000050 73 38 d3 3b d4 3f 69 ba 8d d3 83 bb f4 f2 b2 3a
       0.0064459383 -0.0008897756 -0.0040230216 0.0013652728
000060 aa ee 28 3b 00 be 0e 3b f0 7f bb ba 96 21 a0 b9
       0.002577702 0.002178073 -0.0014305096 -0.00030542602
000070 b6 5e 84 3b ba 9c 8b bb fe 97 8c b9 e6 a9 24 3b
       0.0040396107 -0.0042606266 -0.00026816124 0.0025125681
000080 6f 3d 29 3b 9e 8d 5e ba 38 54 11 3c c7 a1 95 3b
       0.002582397 -0.00084897305 0.008870177 0.0045664045
000090 52 16 8d 3b 38 63 c9 3b 3c a4 b8 3b e2 1c 21 3b
       0.0043056393 0.006145861 0.0056348126 0.0024583866
0000a0 4a 27 42 bb 36 f9 d4 ba 1c e3 dd 3b c2 28 de 38
       -0.002962547 -0.0016248587 0.0067714583 0.00010593377
0000b0 ea cd 49 ba f5 12 14 bb 21 d8 f2 3b 52 23 81 3b
       -0.0007698225 -0.0022594307 0.0074110185 0.003940978
0000c0 5b 78 4b bb a3 65 6f 3b 8e ae cd ba fc ac e0 ba
       -0.003104708 0.0036529086 -0.001569228 -0.0017141397
0000d0 12 3d 23 bb 78 7a c3 3b 1d ad 80 b9 9e 23 d8 3b
       -0.0024908227 0.005965527 -0.00024543042 0.006596043
0000e0 3c 91 3d bb b3 33 38 ba bb 34 21 3a 31 1b 8e 3a
       -0.0028925678 -0.0007026747 0.000614952 0.0010841844
0000f0 80 dd 4b 3b e7 3d d1 ba d0 21 a0 ba 21 0b 4e bb
       0.0031107366 -0.0015963883 -0.0012217108 -0.0031439739
000100 5f df b7 ba 62 03 ed 39 c5 6f 5e 3b 50 cd 59 3b
       -0.0014028362 0.00045206683 0.0033941132 0.0033233948
000110 d5 51 c5 ba 94 bf 0a 3b 4f 40 a0 3a 08 46 68 bb
       -0.0015054295 0.0021171318 0.0012226197 -0.0035442133
000120 ae 1c 38 3b e0 d9 a3 37 1d 82 f7 3b b1 cf 9a bb
       0.0028093266 1.953257e-05 0.0075533525 -0.004724466
000130 16 d1 81 3b cd f2 9e 3b f0 53 18 ba f4 7c 07 39
       0.0039616926 0.0048507215 -0.00058108475 0.00012921152
000140 62 07 71 3a a8 de d3 ba 37 78 97 3b 7a a6 11 3b
       0.00091945205 -0.0016164379 0.004622485 0.0022224472
000150 66 c5 80 3b 95 02 99 ba a9 d8 97 3a 3d fa 4c bb
       0.0039297817 -0.0011673743 0.0011584956 -0.0031277083
000160 ec f3 b0 bb 28 72 82 bb 52 54 8d 3b 05 ee 70 ba
       -0.0054001715 -0.0039808936 0.0043130303 -0.0009190741
000170 b1 d4 8c 3b 83 9d e0 3b f0 dd 6e 3a b9 29 f7 3a
       0.0042978157 0.0068547144 0.0009112051 0.0018857039
000180 7a c9 d6 3b 68 42 86 3b 73 34 9e ba 55 8b 6d bb
       0.0065547796 0.0040972717 -0.0012070074 -0.0036246378
000190 36 e1 cf ba d3 bd d5 bb ff fb d0 3b 28 83 47 3b
       -0.0015859965 -0.006522873 0.0063776965 0.0030443165
0001a0 91 99 2a bb 9c 17 ce 3a 09 d1 ee 3b 43 2d 53 bb
       -0.0026031474 0.0015723589 0.0072881025 -0.0032223023
0001b0 db 4f 31 3b 08 eb bc 3b f9 4c e8 3a 5c be 96 bb
       0.0027055654 0.0057653226 0.0017723135 -0.0046003293
0001c0 b5 ca dd ba 54 c0 33 3b 2a 65 f7 3a 9e cc 78 3b
       -0.0016921373 0.002742787 0.0018874754 0.0037963758
0001d0 cd 3e e6 3b f6 35 5c bb 67 6d 87 b9 c2 c9 40 bb
       0.0070265294 -0.00336015 -0.00025830718 -0.0029417132
0001e0 2d 9c d7 3a 57 f1 16 3c 6d dd 48 ba d4 ea 54 bb
       0.0016449742 0.009212813 -0.00076623895 -0.0032488601
0001f0 28 b8 20 bb 6f ea de ba c2 12 d4 3a 0e da 8b 3b
       -0.0024523828 -0.0017007123 0.0016179907 0.0042679375
000200 44 b8 30 bb d1 6b bd bb d7 aa 24 3a a6 43 8a ba
       -0.00269653 -0.005780675 0.00062815606 -0.0010548725
000210 30 d4 2a bb 3e c1 d2 39 af 58 d6 3b b1 b8 8e 3b
       -0.0026066415 0.00040198298 0.0065413336 0.004355513
000220 58 29 8a ba 81 9d c2 3b e8 58 a5 ba ca bc 45 3b
       -0.0010540886 0.005939186 -0.0012614997 0.0030172342
000230 52 cd 4d ba b4 a4 6a 3a 71 e7 d8 bb 65 d2 2f 3b
       -0.00078507245 0.0008950934 -0.006619387 0.0026828286
000240 36 99 f7 3a 6f e1 94 3b c8 41 b4 bb e0 79 79 3a
       0.0018890265 0.0045434753 -0.005501006 0.0009516757
000250 ab 7b 81 ba 33 e9 a3 3a 42 60 11 ba d9 8f 23 3a
       -0.0009878775 0.0012505412 -0.00055456546 0.00062393915
000260 c2 55 3f b7 6c c4 c6 bb 06 f3 87 3b c0 c7 c7 b9
       -1.1404454e-05 -0.006065896 0.0041488437 -0.00038105063
000270 9d 56 43 3b a5 56 d3 bb 5f d1 76 3b b0 83 18 ba
       0.0029806264 -0.006449538 0.0037661416 -0.0005817963
000280 40 81 c4 3b 4e 0b 4a 3b fe 64 af b9 55 6b 92 3b
       0.005996853 0.0030829492 -0.00033453846 0.0044683614
000290 0a 30 9d 3b 22 c4 87 bb b0 25 34 3a 32 23 b5 bb
       0.0047969865 -0.004143254 0.0006872071 -0.0055278772
0002a0 6d d0 16 3a 04 cb 08 bb 22 c2 42 3b 92 05 e2 b9
       0.0005753104 -0.002087296 0.0029717763 -0.0004311023
0002b0 ca bc 2b bb ad 7b 06 3b a3 6e 4d 3b 69 2a 00 3c
       -0.0026205056 0.0020520494 0.0031346462 0.007822611
0002c0 b2 a7 d3 ba 0d 78 15 bb ca 31 3a ba 28 a1 c0 3b
       -0.0016148 -0.0022807152 -0.0007102756 0.0058785863
0002d0 ea ec 0b 3b 31 10 59 bb 2d 87 bc bb f6 47 e7 ba
       0.0021350929 -0.0033121223 -0.005753419 -0.0017645347
0002e0 7b 99 a0 3b c2 51 40 3b 60 eb 12 3b 5c de 9d 39
       0.004901109 0.0029345606 0.0022418126 0.00030111044
0002f0 8d de a1 bb 1d 9f 9a 3b 88 e6 c4 3a 3b 90 56 3a
       -0.00493986 0.004718675 0.0015022317 0.0008184944
000300 22 4f 9e ba e3 7c 3e ba 63 34 07 3b ad 9f ad bb
       -0.0012078027 -0.00072665344 0.002063059 -0.005298576
000310 b4 91 9f bb 52 b9 56 bb 73 ac e2 bb 2d 36 fa ba
       -0.004869664 -0.0032764268 -0.00691753 -0.0019089632
000320 5a b2 fd 38 37 c2 63 bb bd 4a 37 3b ec d1 0f bb
       0.00012097201 -0.0034753212 0.0027968131 -0.0021945192
000330 06 c7 c1 3b 95 e1 e4 ba c8 d0 be 3a 89 a0 d4 3b
       0.005913618 -0.0017462248 0.0014558071 0.006488864
000340 a9 75 6e 3b b4 a9 42 39 8c 3d bb 3a 58 78 a6 39
       0.003638605 0.00018564501 0.001428531 0.0003175165
000350 a6 ba 04 bb 2b 83 f4 3a bf 87 2a 3b 35 86 9a 3a
       -0.0020252853 0.0018654814 0.0026020852 0.0011789264
000360 85 d2 15 bb 6c 7f 74 3b 41 6f 96 ba 4d d9 2d ba
       -0.0022861075 0.0037307395 -0.0011477248 -0.00066318066
000370 14 34 9c 3b de 93 8c 39 fe 03 38 b8 6d e8 70 3b
       0.0047669504 0.0002681305 -4.3872737e-05 0.003675963
000380 ef 7a 1c bb af 79 17 3c 8a 78 09 3b 6b 80 ad ba
       -0.0023876985 0.00924532 0.0020976388 -0.0013237124
000390 87 1e 26 bb df 79 e9 ba 60 a5 6f 37 3d 0a 33 3b
       -0.0025347786 -0.001781281 1.42840145e-05 0.0027319335
0003a0 29 36 d3 ba 4f 68 4a 3b 86 2c db 39 ff 13 a1 3b
       -0.0016114163 0.0030884927 0.00041804108 0.004915714
0003b0 65 6b af ba 81 65 e8 3a ce bb ee 3b 1a 56 98 3b
       -0.0013383446 0.0017730446 0.0072855717 0.004648936
0003c0 fc 7d 2f bb 0a 6f bc 3a 27 ef b0 bb c4 5c 28 bb
       -0.0026777973 0.0014376354 -0.005399603 -0.0025690058
0003d0 7d c6 ef 3a 4e 76 ae 39 5e ff 85 3a 32 5f cc ba
       0.0018293407 0.0003327601 0.00102232 -0.0015592335
0003e0 e2 b4 cb ba 99 0f 45 3b ca 8f 2c 3b 90 63 25 bb
       -0.0015541578 0.0030069111 0.0026330822 -0.0025236346
0003f0 1e 89 0c 3c 40 c5 9e ba ef 33 07 bb c3 cb a3 3a
       0.008577613 -0.0012113228 -0.002063032 0.0012496639

action_model._continuous_distribution.log_sigma f4 [1, 3]
000000 43 b3 43 bb 3a 2a 4e 3a 6c b1 da ba
       -0.0029861487 0.00078645686 -0.0016684956

action_model._continuous_distribution.mu.weight f4 [3, 256]
000000 17 f1 b5 bb 7d 36 04 3b b6 7e 24 3c 96 65 72 3b
       -0.005552422 0.002017408 0.010039976 0.003698682
000010 67 6f 9e 3c ea 4f 10 3b 14 c8 13 3b dc b9 3a bb
       0.01934023 0.0022020289 0.0022549676 -0.0028492128
000020 45 0b dd bb 12 87 56 3c 82 d7 91 3a ae fd 6a bb
       -0.006745728 0.013093727 0.0011126848 -0.0035856771
000030 f6 67 96 3b 10 17 91 bc b6 82 30 3c 99 a9 a7 3c
       0.00459003 -0.017711192 0.010773351 0.020466613
000040 0b 11 2f bc 34 ff 09 3c 7e c3 ac bc 1e d3 8b 3c
       -0.010685216 0.008422662 -0.021089312 0.017068442
000050 f2 1a 04 bc 9a 96 1e 3c c6 0a 21 bb fe 02 b0 3b
       -0.008063065 0.009679461 -0.0024573072 0.0053714504
000060 f3 4a 85 3c 47 62 6d bb ef 4f d0 3b 7b 69 0d 3c
       0.01627109 -0.0036221908 0.006357185 0.008631106
000070 cb a3 31 3c c8 0c a4 3c 5e 43 0e 3c 21 9d 3c bc
       0.010842274 0.020025626 0.008683054 -0.011512072
000080 8f 98 23 39 49 4b 9b 3c 6f 27 33 bc 35 57 74 bc
       0.00015601724 0.018956797 -0.010934695 -0.01491337
000090 3c c1 80 bc f3 99 4a 3c 89 ba 7e 3c b8 e2 ab 3c
       -0.015717141 0.012365806 0.015547403 0.020982131
0000a0 3c 15 99 bc ba 8b 5c bb 18 b0 0d 3c e8 20 ec 3c
       -0.018686883 -0.003365262 0.008647941 0.028824285
0000b0 07 9c 3e bb f2 84 79 3c d4 ee 1b 3c 2f 16 0c bc
       -0.0029084699 0.015229451 0.00951739 -0.008550211
0000c0 6d 80 47 3b 4b 15 56 3b 16 7d 92 bc 56 3f 09 bc
       0.0030441538 0.00326665 -0.017881911 -0.008376917
0000d0 70 a1 b1 3c f3 77 cb 3b 3b cc a0 bc 2c c7 85 bc
       0.021683425 0.0062093674 -0.019628635 -0.016330324
0000e0 19 66 c7 bc 00 f7 7b 39 f7 b5 95 bb b6 53 60 bc
       -0.024340676 0.0002402924 -0.004568811 -0.013691833
0000f0 01 82 91 3b 97 8d 07 3c e6 34 ad 3b 2e 47 93 3c
       0.0044405465 0.008273504 0.005285847 0.017978277
000100 40 2c b4 3c ca f4 9c 38 7f 84 25 bc dd 91 e4 bb
       0.021993756 7.484255e-05 -0.01010239 -0.006975396
000110 f3 df 8b ba cd a7 49 bc 53 e7 df ba 7e 87 b2 3b
       -0.00106716 -0.012308073 -0.001708249 0.005448281
000120 5a 9d ce bc fc 3b 5c bc b7 70 c3 3b 01 6e b5 3c
       -0.025221515 -0.013442036 0.0059643644 0.02214718
000130 7b 83 01 bc 5c 07 a5 3c 64 99 b9 3b f4 6d 0c bc
       -0.007904883 0.02014511 0.0056640375 -0.008571137
000140 f5 61 12 3c 19 8f 4d 3c 1d 94 48 3b 66 88 3e bc
       0.008934488 0.012546324 0.003060586 -0.0116292
000150 65 4c 88 bc 75 5b a6 bb d6 a2 29 3c 9b 11 d3 3b
       -0.01663799 -0.0050768205 0.0103537645 0.0064413077
000160 70 f7 0b 3c 7c 83 e7 3b aa c7 88 3b 8f b5 bd bb
       0.00854288 0.0070652347 0.0041741924 -0.0057894657
000170 3a 65 db 3a c3 35 e0 bc 08 14 0b bc 10 3a 6f bb
       0.0016738542 -0.027369386 -0.008488663 -0.0036503114
000180 1f 3b 2c bb 92 08 d6 3c e3 16 7f 3c 61 56 8a 3c
       -0.0026280356 0.026127134 0.015569421 0.016886892
000190 c0 33 8a 3c f0 3c 13 3c 60 75 2a bc 38 2d e0 bc
       0.01687038 0.008986697 -0.010403961 -0.027365312
0001a0 78 61 2c 3c 94 d9 87 bc 83 d4 15 3c 37 34 a7 3b
       0.010521285 -0.016583242 0.009144905 0.00510266
0001b0 31 52 17 3c a5 1f 92 3a 31 e7 9d 3c f2 0c df 3b
       0.009235905 0.0011148347 0.01927528 0.006806963
0001c0 9c 7b cc bb ee 6f 94 3b fc a0 99 bc f7 84 cd 3b
       -0.0062403213 0.0045299446 -0.018753521 0.006271954
0001d0 60 1e 8b bc 2f 36 e0 bb ef f7 09 bc 43 36 59 3c
       -0.016982257 -0.0068423967 -0.008420928 0.013257566
0001e0 57 d5 8d bc aa 81 6d bc 38 fc b0 3b e1 6f 16 3c
       -0.017313642 -0.014496246 0.0054011606 0.009181947
0001f0 3c a2 6e 3c 5f c9 dd 3a a8 4f b3 bc 07 48 a0 3b
       0.014565047 0.0016920975 -0.021888569 0.004891399
000200 7e d4 8a 3c 62 8e c4 bb 2c f2 15 bc 61 a5 cd 3b
       0.016947027 -0.0059984187 -0.009151977 0.006275818
000210 0f ca d5 3a bc 6d f3 3b 58 e7 b3 bc b4 af 67 bc
       0.0016310829 0.007428853 -0.0219609 -0.014141012
000220 fe 41 fb 3b 9f 79 b0 bc 59 3d c4 bc 59 97 71 3b
       0.007667779 -0.021542368 -0.023955034 0.0036863892
000230 d7 bc 91 3c 3a 1c 77 bb 53 63 d1 ba 58 b3 7b 3c
       0.017790241 -0.0037706033 -0.0015975035 0.015362583
000240 2b 61 c3 bc a0 6e 24 bc da 27 92 3c 40 c8 52 bc
       -0.023850044 -0.010036141 0.017841268 -0.012865126
000250 54 30 a6 3a b1 84 bd 3c 85 53 d6 bb 07 ae 16 3c
       0.0012679198 0.023134561 -0.006540718 0.009196765
000260 bb 1f 07 bc 40 25 30 3a a8 5c 0d bc 37 fc bc 3c
       -0.008247311 0.0006719418 -0.008628048 0.023069484
000270 f3 89 50 3c 1c ca ee 3b 76 b9 39 bc 2f 95 5c 3c
       0.012728202 0.007287277 -0.011335721 0.0134633025
000280 17 13 be b8 1e f3 f4 3b 93 dd 2e bc 24 56 1e bc
       -9.063462e-05 0.007475271 -0.010672945 -0.009664092
000290 24 4e c2 bc ae 4b 4b bc 0d e7 61 3c 3f 35 87 3c
       -0.023718901 -0.01240818 0.013787997 0.016504882
0002a0 d2 fd 45 3c 36 11 b9 3c d5 3a c5 3c c6 49 37 bc
       0.012084441 0.022591215 0.024075905 -0.011187023
0002b0 ab 8f 31 3c ca f5 2f 3c f4 79 da 3b d6 08 96 39
       0.010837476 0.010739753 0.00666737 0.00028616813
0002c0 b9 3a 56 ba 52 e6 cb 3b 55 b8 25 3b 2d b5 9b bc
       -0.00081722025 0.0062225247 0.0025286872 -0.01900729
0002d0 28 36 d3 3c 93 59 5e 3c d9 bf 8e 3c 22 6e b2 3b
       0.02578266 0.013571161 0.017425464 0.0054452578
0002e0 3f 78 d2 3b 22 f3 4c bc 1c d5 17 bd 93 e8 df 39
       0.006423026 -0.012509139 -0.03706847 0.00042707156
0002f0 cc eb 23 3b 91 a2 c2 bc 74 98 a5 bb d4 b0 8b 3c
       0.0025012372 -0.023759158 -0.005053574 0.017052092
000300 98 73 51 3c 06 7f c6 bc 7c b0 81 3b c4 b9 6e 3b
       0.012783907 -0.024230491 0.003957806 0.0036426643
000310 f7 e2 9d 3c ef 78 d3 bb 72 db 90 3b ea 42 b5 3b
       0.019273264 -0.0064536254 0.004420691 0.0055316584
000320 f3 f9 70 ba 86 3d c8 3b 7a 17 9c 3b 2d ea d7 3a
       -0.0009192519 0.00611085 0.004763541 0.0016472988
000330 ef be d8 bb de c1 4e 3b a5 f2 b2 3b 9d 39 14 bb
       -0.006614558 0.003154866 0.0054610544 -0.0022617348
000340 2c a1 41 bc 0e e9 87 bc 51 70 17 3c 9d 13 fa bc
       -0.0118182115 -0.016590621 0.009243087 -0.03052693
000350 37 8f 46 bc cb 5e f2 bb 48 90 a9 3c fc d7 98 bc
       -0.012119106 -0.007396554 0.020698681 -0.018657677
000360 61 11 96 bb 88 d6 ac 3a 89 08 5c 3c b9 56 33 3c
       -0.0045797084 0.0013186494 0.013429769 0.010945969
000370 58 31 11 3c 5c 0c 37 39 33 eb 51 3c c0 c4 e7 3c
       0.008861862 0.00017456844 0.0128124235 0.02829206
000380 dd 9a d2 3a 46 cb 7d bb af a0 81 bb 9f d0 58 bc
       0.0016067881 -0.0038725897 -0.0039559226 -0.013233333
000390 f1 19 3b b9 84 c7 07 bb 15 51 7f bc 1c 15 42 bb
       -0.00017843374 -0.0020718286 -0.015583296 -0.0029614633
0003a0 b2 5a 10 3a 3c 28 b9 bb df 0c 88 bb e2 af a0 3c
       0.0005506679 -0.0056505483 -0.004151925 0.019615117
0003b0 af 1e 57 3c 08 5c 4c 3c 8b c3 09 bc 7b f3 0b bc
       0.013129874 0.012473114 -0.0084084375 -0.008541937
0003c0 ce ce 9b 3b 0b 72 c3 3c e8 8b 12 bc 9a 5a 8f 3b
       0.0047548776 0.02385809 -0.008944489 0.004374814
0003d0 13 97 67 bc 3f 9c 1c bc 87 fd 7c bc 02 7b 26 bc
       -0.01413514 -0.009558736 -0.015441305 -0.010161163
0003e0 2a 90 5a 3c 75 af 08 3a 1d dd dc bb 83 34 34 3c
       0.013340035 0.00052141334 -0.006740226 0.010998848
0003f0 14 03 bd 3a 4a c5 a1 3c 91 c4 74 bc c8 a0 df 3c
       0.0014420473 0.019747395 -0.014939443 0.027298346

action_model._continuous_distribution.mu.bias f4 [3]
000000 75 80 0c bb cf c7 82 bb ac a4 00 b9
       -0.002143887 -0.003991104 -0.00012268376

action_model._discrete_distribution.branches.0.weight f4 [7, 256]
000000 15 a4 b1 ba 9b 7e 6d 3c 22 88 e0 3b a8 04 4e bc
       -0.0013552929 0.014495517 0.006852166 -0.012574352
000010 42 06 83 bb 80 6a 5d bb 63 3b 11 3c 21 d6 83 bb
       -0.0039985487 -0.0033785403 0.008864257 -0.004023329
000020 bf 2e a2 3b eb 14 ba 39 ac cf 87 3b 09 37 bd bb
       0.00494942 0.0003549227 0.0041446295 -0.005774383
000030 31 20 ae 3b 16 cf b6 3b 8b 7a 24 bc 96 76 09 bc
       0.005313896 0.005578886 -0.010038982 -0.0083900895
000040 73 cc 33 ba 43 b0 54 bb b5 72 0d 3b 10 0a c9 ba
       -0.00068587734 -0.0032453693 0.0021583263 -0.0015338082
000050 6c 23 0f 3c e8 48 15 3c e3 70 ab b9 5a d8 67 3c
       0.008736473 0.0091116205 -0.0003269977 0.014150703
000060 6c 29 a1 3c c5 8e 32 bb c9 d6 93 3b 30 bc ee bb
       0.019673072 -0.0027245742 0.0045116884 -0.0072856173
000070 60 29 fb 3b 3c 0a 91 bb af e2 ce bb 92 6e 56 bc
       0.0076648444 -0.004426269 -0.006313644 -0.013087885
000080 3b b7 59 3c 0c 59 23 bc 3b 96 8e 3c c6 12 3e 3c
       0.013288314 -0.009969961 0.01740562 0.011601156
000090 6c c1 1a 3c e9 9e f1 3b 6a 39 a5 bb 82 68 00 3c
       0.009445529 0.00737368 -0.0050422447 0.007837417
0000a0 aa b0 1f 3b c0 90 e4 b9 d3 dc 08 3c a3 2b 0b bc
       0.0024366775 -0.00043595396 0.00835343 -0.0084942905
0000b0 70 09 a3 3a 34 45 04 bc a9 c8 f2 3b 65 99 33 3c
       0.0012438726 -0.00807314 0.0074091745 0.010961865
0000c0 8e ce 31 3a 9e 2c 87 3c 2b d1 5d ba 3a e7 32 3c
       0.0006782793 0.016500767 -0.00084616494 0.0109193865
0000d0 69 1e a2 3a 23 41 7a 3b 5b 49 a9 ba 78 f6 05 3c
       0.0012368682 0.0038185797 -0.0012915538 0.0081764385
0000e0 9e 14 42 3c e0 b7 aa ba 83 66 04 3c 01 2f 9c bb
       0.011845736 -0.001302477 0.008081081 -0.0047663455
0000f0 59 43 69 3c 62 25 0e bc 12 54 ce bb 3a a6 94 bb
       0.014237248 -0.008675905 -0.006296643 -0.0045364173
000100 63 e5 df 39 f6 e7 c3 bb 1c 9c 3f 3b 51 cf 08 bb
       0.0004270478 -0.0059785796 0.0029237336 -0.0020875523
000110 7c 65 50 bb 2f 19 11 3b 3f b7 9f 3b b4 89 f5 ba
       -0.003179877 0.0022140255 0.0048741396 -0.0018733055
000120 50 90 2f bc 39 8b 8c 3b f7 a2 cf 3b 7a 8e 4a bc
       -0.010715559 0.0042890576 0.0063365656 -0.012363071
000130 c7 b2 50 3c 3e f0 09 3c de 93 f2 bb af 5f 7c 3b
       0.012737936 0.008419095 -0.007402881 0.003850918
000140 f1 19 c1 3b db fb af bb 01 26 21 bb ea 95 06 3c
       0.005892985 -0.0053705997 -0.0024589302 0.008214453
000150 4c e2 24 3c a3 ad 22 bc 8c 3d 87 3b 0d af 32 3c
       0.010063719 -0.0099290935 0.00412721 0.010905993
000160 d6 7b bd bb 7e b3 dc ba 64 00 6b bb e6 78 f0 3a
       -0.0057825847 -0.0016838161 -0.0035858387 0.0018346577
000170 ee b5 3c 3c db dc 0f 3c 2d 85 48 bb df d7 64 bb
       0.011517985 0.008780683 -0.0030596957 -0.0034918708
000180 ee 1e ac 3b 9a 6e 13 3b ae bf 54 bb fa cb 2a 3c
       0.0052527105 0.0022496344 -0.0032462883 0.010424608
000190 f5 8d 7d 3a 5b b9 dd bb 78 91 aa bb 4b ca 7b 3b
       0.00096723373 -0.006766481 -0.0052053295 0.0038420137
0001a0 1b b6 10 3c 06 9e cf 3b 6b 6a 05 bb 67 25 87 bb
       0.00883248 0.0063359765 -0.002035762 -0.0041243318
0001b0 06 77 3a 3b 56 1e 23 3c 71 c8 5e 3c 66 2e 18 bc
       0.002845229 0.009955963 0.013597594 -0.009288406
0001c0 7f a8 18 3b 70 50 55 3c f3 f9 cd bb 22 2f 76 3a
       0.002329379 0.013019666 -0.0062859 0.00093911786
0001d0 1b f4 c3 bb 92 52 46 3b d0 83 05 bb 2a 0f 99 3b
       -0.0059800274 0.0030261618 -0.0020372756 0.004670997
0001e0 3e e9 5e bc 1e 12 14 ba 7e 1e b9 3b f6 31 6d 3c
       -0.013605414 -0.00056484516 0.005649387 0.014477244
0001f0 a9 8a 08 3c 8d 34 fa ba 3d ae a5 bb ed f2 f9 b9
       0.00833384 -0.0019089148 -0.005056171 -0.00047673975
000200 a5 cb ad bb c4 96 df bb e6 71 27 b9 52 90 b4 3b
       -0.0053038173 -0.0068233926 -0.00015968792 0.0055103684
000210 1e f9 dc bb 3b 3f 10 3c bb de c5 3b 06 fc b2 38
       -0.0067435643 0.008804138 0.0060385144 8.5346444e-05
000220 8a 14 d9 bb 26 91 9e bb 2e 39 ea bb f6 73 ff bb
       -0.006624763 -0.0048390804 -0.0071479296 -0.007795806
000230 6e 9e 89 bb 8d 10 16 3c 51 fd b6 bb 73 38 28 bb
       -0.0041997945 0.009159219 -0.005584397 -0.0025668412
000240 ea e4 05 3c 35 4a 11 3c ff 18 da ba e2 27 94 3b
       0.008172253 0.00886779 -0.001663953 0.004521356
000250 4e 6e 90 bb 31 84 06 3b 0e d7 bf 3b f3 79 fd bb
       -0.0044076806 0.002052557 0.005854494 -0.0077354847
000260 7d 99 a1 bb cb 57 c7 bb 36 79 37 bb 3c cc 20 bc
       -0.0049316273 -0.006083464 -0.0027995831 -0.009814318
000270 29 39 54 3c 09 d3 aa 3b 56 10 69 3c 96 92 07 ba
       0.012953081 0.0052131456 0.014225086 -0.00051716843
000280 a2 cf 3f 3b 88 4b c0 39 95 c7 23 bc 4e 0b 8a bb
       0.0029268046 0.0003667737 -0.0099963145 -0.0042127734
000290 8f 59 98 3b 89 ab 03 bc 56 25 4a 3c af de 3d 3b
       0.004649348 -0.008036503 0.012338003 0.002897184
0002a0 ee 07 b2 bb 91 d4 ed 3b 9d 67 1d 3c 8b a4 3d 3c
       -0.005433074 0.007258006 0.009607223 0.011574875
0002b0 8c 2c f7 3b 9b 81 4e 3b 3e 8f e6 3a a3 77 08 3c
       0.007543152 0.0031510356 0.0017590297 0.008329305
0002c0 97 6c b8 bb 8d c6 c2 ba a2 ae 23 3c 7e 2a d1 3b
       -0.0056281793 -0.0014860198 0.009990366 0.0063832393
0002d0 a2 c7 91 3c ff d9 ba bb 0d 8a 81 bc a3 f6 18 3a
       0.017795388 -0.0057022567 -0.015812898 0.00058350916
0002e0 df ed 92 bb ea 40 7d bc 93 6d b2 bb 28 66 c1 3b
       -0.004483923 -0.015457371 -0.005445191 0.0059020706
0002f0 88 1e f8 3a 3b 87 46 3b a4 7e 22 3c 78 f5 f7 3b
       0.0018929997 0.0030293006 0.009917889 0.007567104
000300 17 77 5f 3b fa 98 07 3b 1e cc 2c 3a f7 bb 83 ba
       0.0034098083 0.0020690546 0.0006591695 -0.0010050525
000310 3a e9 b3 bb a5 2a 67 3b b5 47 11 bc 52 cb e2 3b
       -0.0054904493 0.003527322 -0.008867194 0.0069212103
000320 6c ad af 3a 7c 96 d4 bb 8c 6f 86 3b ac db 0e 3c
       0.0013403124 -0.0064876657 0.004102653 0.008719366
000330 43 ff b7 3b d2 0d 04 bc 56 16 c9 bb 26 e8 83 3c
       0.0056151464 -0.008059936 -0.006136696 0.016101908
000340 58 94 c2 ba ca da 0e 3b 81 7c aa 3c 4f 24 e4 bb
       -0.0014845235 0.002179789 0.020811321 -0.006962336
000350 24 39 60 3b 74 4b 25 3c ec 83 3e bb eb 6c b9 39
       0.0034213746 0.01008879 -0.002907033 0.000353671
000360 91 0d 4c bb 84 e8 95 3b ed c2 bf 3b e3 28 d2 3b
       -0.0031136016 0.004574837 0.0058520944 0.0064135655
000370 a0 17 6d 3c e9 26 c2 39 dc 56 52 3c 62 4d 23 3c
       0.014470965 0.00037031554 0.012838092 0.00996718
000380 c8 a1 40 bc c5 62 c8 39 61 9f 31 3c f2 d0 50 3b
       -0.011757322 0.00038220562 0.010841222 0.0031862822
000390 7e 9c 17 3b 75 ed 0b 3c 77 b6 e1 bb a7 e9 82 bb
       0.0023134048 0.008540501 -0.0068882066 -0.0039951387
0003a0 52 25 8b bb 6b a5 a6 ba 04 db 1c 3b 58 9d 3b 3c
       -0.0042463923 -0.0012714093 0.0023934254 0.011451088
0003b0 c0 74 a3 bb d3 0e 4b 3c ce 77 06 3c 35 c6 03 bb
       -0.004988283 0.012393671 0.008207275 -0.0020107154
0003c0 e5 04 26 bc bb f7 81 3b 16 ef 1c bc 06 81 6e bb
       -0.010133003 0.0039662994 -0.009578487 -0.0036392822
0003d0 ac 3c 4b 3c 84 d5 52 bc a8 6e 4e bb 7f 45 fa bb
       0.012404602 -0.012868289 -0.0031499062 -0.007637679
0003e0 ec c8 99 3b 4c 6c 05 3b be 50 34 ba ee 65 48 ba
       0.004693141 0.002035874 -0.00068784866 -0.0007644583
0003f0 42 29 1c 3b cd 89 12 3b 9e 92 90 ba 11 75 0a bc
       0.0023828303 0.0022359968 -0.0011030023 -0.008450762

action_model._discrete_distribution.branches.0.bias f4 [7]
000000 64 d6 f2 3b 0f 3d b3 bb cf 69 85 bb 3b 7e ac bb
       0.0074108113 -0.0054699252 -0.0040714513 -0.0052640713
000010 53 4e f3 bb 92 88 d0 3b 18 0d d1 3b
       -0.0074251085 0.0063639367 0.0063797347

onnx::Div_90 f4 [84]
000000 c6 f4 ad 3b 4a f0 ed 3e fd 85 de 3e 81 13 86 3e
       0.0053087203 0.46472389 0.434616 0.26186755
000010 c6 f4 ad 3b 3a f5 ef 3e c6 a5 e1 3e db b5 85 3e
       0.0053087203 0.4686678 0.44071788 0.26115307
000020 c6 f4 ad 3b b0 13 ec 3e 3d cc db 3e f1 fa 85 3e
       0.0053087203 0.4610877 0.4292926 0.26168016
000030 c6 f4 ad 3b 4e 00 f2 3e 28 ba e4 3e 59 a3 85 3e
       0.0053087203 0.47265857 0.44673276 0.26101187
000040 c6 f4 ad 3b b5 16 eb 3e 3e 60 da 3e b8 51 86 3e
       0.0053087203 0.45915762 0.42651552 0.2623422
000050 c6 f4 ad 3b 91 1d f2 3e 27 55 e5 3e b7 fe 84 3e
       0.0053087203 0.47288182 0.4479153 0.25975582
000060 c6 f4 ad 3b 6f 64 eb 3e c6 92 db 3e 1b 47 86 3e
       0.0053087203 0.45975062 0.42885417 0.26226124
000070 c6 f4 ad 3b 1a 9c f1 3e a0 be e3 3e bc 30 84 3e
       0.0053087203 0.4718941 0.44481373 0.2581843
000080 c6 f4 ad 3b 63 2b eb 3e 67 fb da 3e e9 be 85 3e
       0.0053087203 0.4593154 0.4276993 0.26122215
000090 c6 f4 ad 3b ec 06 f1 3e 17 47 e2 3e d4 b8 83 3e
       0.0053087203 0.47075593 0.44194862 0.2572695
0000a0 c6 f4 ad 3b a2 bb e9 3e 86 ec d9 3e e2 db 84 3e
       0.0053087203 0.45650965 0.42563266 0.25949007
0000b0 c6 f4 ad 3b 45 25 f1 3e 3b b0 e2 3e bd db 83 3e
       0.0053087203 0.47098747 0.44275078 0.25753585
0000c0 c6 f4 ad 3b 56 33 e9 3e 46 63 d9 3e fe 33 84 3e
       0.0053087203 0.4554698 0.42458552 0.25820917
0000d0 c6 f4 ad 3b 4c 69 f2 3e 91 7e e4 3e 88 60 84 3e
       0.0053087203 0.4734596 0.44627813 0.25854897
0000e0 c6 f4 ad 3b a1 44 e8 3e 8f 42 d7 3e e5 c5 82 3e
       0.0053087203 0.4536486 0.42042968 0.25541607
0000f0 c6 f4 ad 3b d5 dd f3 3e e0 a6 e6 3e 4f b9 84 3e
       0.0053087203 0.47630182 0.4504919 0.2592263
000100 c6 f4 ad 3b 9d 90 e9 3e 55 10 d9 3e 00 c6 81 3e
       0.0053087203 0.45618144 0.42395273 0.25346375
000110 c6 f4 ad 3b f5 f8 f4 3e 9a 0b e5 3e b4 aa 89 3e
       0.0053087203 0.4784619 0.44735414 0.2688805
000120 c6 f4 ad 3b a5 99 ea 3e 82 62 da 3e fa 75 81 3e
       0.0053087203 0.45820346 0.4265328 0.2528532
000130 c6 f4 ad 3b 0c bc f4 3e ca e4 e4 3e d6 ab 89 3e
       0.0053087203 0.47799718 0.44705802 0.26888913
000140 c6 f4 ad 3b 66 f0 ea 3e 69 fb da 3e 3f 07 81 3e
       0.0053087203 0.45886534 0.42769936 0.2520084

onnx::Div_96 f4 [37]
000000 10 3f ee 40 45 c4 a1 3d 60 0d ed 40 c6 f4 ad 3b
       7.445198 0.078987636 7.4078827 0.0053087203
000010 f3 33 96 3e c6 f4 ad 3b 8d 17 2b 41 d0 0d af 3b
       0.2933651 0.0053087203 10.69325 0.0053422228
000020 5c 33 2a 41 c6 f4 ad 3b a5 52 8f 3e c6 f4 ad 3b
       10.637539 0.0053087203 0.2799274 0.0053087203
000030 dd b6 93 3e 4f 0a 81 3e 63 95 f3 3e e4 b2 d0 3e
       0.2885045 0.25203177 0.4757491 0.40761483
000040 96 48 f2 3e 94 96 f3 3e 12 31 d1 3e b1 b6 21 40
       0.47321004 0.4757582 0.4085775 2.5267756
000050 c6 f4 ad 3b eb e1 2e 40 98 24 34 3f ac f9 ad 3b
       0.0053087203 2.732539 0.7036834 0.005309304
000060 53 ad 35 3f 1a 17 8f 3e 0c 1e 6d 3e f7 1d 6d 3e
       0.70967597 0.27947313 0.23155993 0.23155962
000070 bb 52 6e 3e 0c 53 6e 3e 84 25 47 3e f2 53 7e 3f
       0.23273747 0.23273867 0.19447905 0.9934684
000080 a3 82 8d 3e d5 11 34 3f 44 c4 a1 3d 2d ad c5 40
       0.2763873 0.7033971 0.07898763 6.1773896
000090 6d 0a 94 3e
       0.28914204
