results/NewTest12/BoxingAgent/BoxingAgent-26516.onnx (onnx, 316476 bytes, 11 tensors)

network_body.observation_encoder.processors.0.normalizer.running_mean f4 [33]
00000000: 74d4 5e3f 7680 6d41 b7f9 62c1 b65c 6cb2
00000010: a152 fb3e 6d3e d7b1 4648 19c0 ca64 2539
00000020: 821b 313f a8df e2b1 88fa f23e 0d9e 7631
00000030: 269e 693f ec08 723f 987d b33c be84 a23e
00000040: 8cdc 773f 9a61 7a3f 1edd df38 0000 0000
00000050: 90a8 c2b8 d61d efbd 75b6 5336 0723 aa3c
00000060: b56a ea3e b66c fd3e 2b47 013f f5c9 013f
00000070: 2567 fc3e 01cb 1d3c e91c 163f dea5 d3bd
00000080: 3625 c841
0.8704293 14.843863 -14.185966 -1.3758088e-08 0.49086478 -6.2644205e-09 -2.3950362 0.00015773173
0.691826 -6.6028925e-09 0.47456765 3.5887553e-09 0.9125694 0.94544864 0.021910474 0.317419
0.968209 0.9780518 0.00010674655 0.0 -9.282038e-05 -0.11675613 3.1547654e-06 0.020768655
0.45784536 0.49497002 0.5049922 0.50698787 0.49297443 0.009630919 0.58637863 -0.10334371
25.01817

network_body._body_endoder.seq_layers.0.weight f4 [256, 33]
00000000: 8499 e7bd 6473 db3d 487d b1bb b406 443e
00000010: a344 843e eacb 0cbe b62b 073e d697 593b
00000020: 4b32 29bd 13cd 48be e1f5 63bd a5ae 81be
00000030: 8813 a73e 206f 843d 0b20 dcbc 1193 3dbe
00000040: c37c 9fbe c425 733e fae8 efbd b118 16bd
00000050: 5629 a8bd 13e8 0e3d 75d5 fc3c 1d3f bd3d
00000060: 9461 393e 8a50 cabd 6233 e23b 3658 08bf
00000070: 6f5e 8cbe 10e0 dcbd 5fd9 663d 1fab 67bd
00000080: 0656 86bc 8946 9abd 18b6 983e e956 133e
00000090: 774d 423e d442 7d3e 5149 b13e 418e 58be
000000a0: 6ca5 813e 38a2 20be b66e 2b3e 9719 2b3d
000000b0: fdfa d43e ef78 323e 6638 66bc 5247 873e
000000c0: 1225 98be 49bb 883c d535 503d d4f8 233e
000000d0: 23bd c23d 772d 5c3e c883 61be 01d0 203e
000000e0: 4735 91be ccd0 17be 04d2 c839 542f 8e3e
000000f0: 1f58 a1be c0de acbc 7b14 55bd ea5d 733d
00000100: 1e85 7dbd 1c69 263e 88a8 c63d 0759 1a3e
00000110: f5e3 3e3e d812 903c 53cd 61be a527 ff3e
00000120: 5c51 e83d 81b7 f23d 442a e1bd 4491 b8be
00000130: 888a 3e3e 3293 6c3e 8226 1d3e 81f0 493e
00000140: 942a a53d 9c31 26be eaea dd3d 0494 73be
00000150: 2cf9 32be ac8c eebc 3afa 35be 3d15 413e
00000160: 9272 59be 0f9e 723e 38ac 9abd 8d2d 173e
00000170: dd21 67be a93f 71bd bdee 51bc 9744 afbe
00000180: b652 b6be 6b12 4cbd a6fa 393d 20f0 75bd
00000190: b0d2 713e 2ab6 623e fa90 7f3e 3f6e 253e
000001a0: c8ad a1be 9992 3bbe 3128 04be 6b98 3a3e
000001b0: e6a5 ba3d 06b8 503e bcbb 153e f7fd 563e
000001c0: edaa 833e af8d 2fbe d0ba 0a3e 506c 74bd
000001d0: 5769 2bbd 311b efbe 3dd3 b33d bcb9 cf3d
000001e0: a336 003e 9b30 8b3e 894c ce3e dab9 2cbe
000001f0: 3676 073c 6e4a babb 6288 5abd a203 4dbe
00000200: b057 7dbc 7232 e4bd 9ed1 3a3e 4c5d 3abe
00000210: 71e8 023e 1dcd 763e bb9a 4d39 443c e2bd
00000220: 71f4 85bc 1b45 6a3d 68eb 6cbe 219b 0b3e
00000230: f578 80be f3ef bdbd f1ed b03d 0729 ecbc
00000240: 0ad3 1cbe 730d 583e e21e 88bc 58be 2a3e
00000250: 2e9e 253d bebf 063e efef 6cbc 03ab 2cbe
00000260: 7cb3 30bd c0ac 863d 21cb b23e d131 afbb
00000270: 8f33 993e fd82 a23d 2ac0 5ebe 5489 043d
00000280: 1570 fa3d 5fc9 a13d a9d8 65be c5b0 7e3d
00000290: 4da5 92be 0f15 a83e e333 d83d f955 2d3d
000002a0: fbd0 083d 1913 8b3e 810c 89bc f5fd 7f3e
000002b0: 29bf 2abc 4293 c03e c80f 7abe 34d0 2dbe
000002c0: b12d 4b3d 7c65 123e 9ab3 c33d 7765 633d
000002d0: cc3d d0be 04a9 fe3d 69a8 7c3d 549a a93d
000002e0: d634 e9bd e9e1 75be 0b1b 583e a72a 5dbe
000002f0: 5fd6 01be a61b d83d 448e ca3d 39db 4d3e
00000300: 96d0 01bd 564a 57be fbb3 8abe 7341 0c3e
00000310: 7a30 ca3d 6877 573b 5c93 563e c614 acbd
00000320: 0343 ad3b 7265 3c3d 9d29 afbd d8fc 3cbd
00000330: 8982 b5be 9633 533d 9ed3 30bd 6001 17be
00000340: 4004 b9be 7f84 73bc 66ed 68bd 4153 30be
00000350: 4ab1 ccbc 7484 77bd f65e b7bd afb8 f0bd
00000360: f2f6 6e3d b774 573e 6d46 4c3d 5cbe 70be
00000370: 0506 5ebd 0c33 183e 8365 ae3d 1037 4c3d
00000380: 6f1e 293e 4e77 ea3b 1ec2 e73d db91 12bc
00000390: 46ab 36be e27c f03d fc37 333e 7204 ba3e
000003a0: 8c7a ccbd 99c8 673c 70f5 7b3d ae54 80bc
000003b0: 9e43 013e 1f0f aebd c15e a5be 8deb 6cbd
000003c0: 6edc 553c 0ac8 22be 385f 5d3e 7225 183e
000003d0: fc7d 023e c117 b8bc de50 41be 26db 953e
000003e0: 48d8 923d 3bfa 0e3f bc28 43bc db9f 8b3e
000003f0: a5b6 e1bd 724b 0fbe d2fa 2dbe 3754 b73d
-0.11308578 0.107153684 -0.005416546 0.19143182 0.25833616 -0.13749662 0.13200268 0.0033202074
-0.04130773 -0.1960948 -0.05565441 -0.25328556 0.3263209 0.06466508 -0.026870748 -0.18513133
-0.31149873 0.23744875 -0.11714359 -0.03664464 -0.08211009 0.034889292 0.030863503 0.092405535
0.1810363 -0.09878643 0.006903098 -0.532596 -0.27415797 -0.10784924 0.056359645 -0.05655968
-0.016398441 -0.07532985 0.29826427 0.14388622 0.18974863 0.24732524 0.34626248 -0.21148016
0.2532152 -0.15686882 0.16741452 0.04177245 0.4159774 0.17428945 -0.014051532 0.264216
-0.29715782 0.016690867 0.05083259 0.16012889 0.09508731 0.21501718 -0.22022927 0.15704347
-0.2836096 -0.14825743 0.00038303446 0.27770483 -0.31512544 -0.02110231 -0.052021485 0.059415735
-0.06189453 0.16251034 0.097001135 0.15073024 0.18641646 0.01758711 -0.22050981 0.49834934
0.11343643 0.11851407 -0.1099439 -0.3604833 0.18607533 0.23103026 0.15346721 0.19720651
0.08064762 -0.16229862 0.10835822 -0.23786932 -0.17477864 -0.029119812 -0.17771235 0.18855758
-0.21235111 0.23693107 -0.07552379 0.1476347 -0.22571512 -0.0588986 -0.012813267 -0.34232017
-0.35609978 -0.049822252 0.045405053 -0.060043454 0.23615527 0.22139803 0.24957648 0.16155337
-0.31577897 -0.18317641 -0.12905957 0.18222205 0.09113674 0.203827 0.14622396 0.20995317
0.25716344 -0.17143892 0.13547826 -0.059673607 -0.041848507 -0.46700433 0.08780525 0.10142848
0.12520842 0.2718552 0.40292767 -0.16867772 0.00826793 -0.0056851422 -0.05335272 -0.20020917
-0.015462801 -0.11142434 0.18244025 -0.18199652 0.12783982 0.24101682 0.00019607965 -0.11046651
-0.01635191 0.05719481 -0.23136675 0.13633396 -0.25092283 -0.09274282 0.08639134 -0.028828157
-0.1531488 0.2109888 -0.016616289 0.16674173 0.040434055 0.13159081 -0.0144615015 -0.16862111
-0.04313992 0.06575918 0.349206 -0.0053465148 0.2992215 0.0793514 -0.21752992 0.03235753
0.12228409 0.078997366 -0.2244593 0.0621803 -0.2864174 0.32828566 0.105567716 0.042318318
0.033402424 0.27163008 -0.016729595 0.2499922 -0.010421553 0.3761235 -0.24420083 -0.16973954
0.04960412 0.14296526 0.09555741 0.055516686 -0.40672147 0.12434581 0.061684046 0.08281389
-0.11387031 -0.24011959 0.21104066 -0.21598302 -0.12679432 0.105521485 0.09890416 0.20103158
-0.031693064 -0.2102445 -0.2709044 0.13696842 0.098725274 0.0032877568 0.2095465 -0.084024
0.0052875294 0.045995183 -0.08552859 -0.046139568 -0.35451153 0.051562868 -0.043170564 -0.14746618
-0.36136055 -0.0148631325 -0.056867026 -0.17219259 -0.024986882 -0.06042905 -0.08953659 -0.117539756
0.058340974 0.21040617 0.04987185 -0.23510116 -0.05420496 0.14863223 0.085154556 0.0498572
0.16515516 0.0071553355 0.11316322 -0.0089459075 -0.17838773 0.117425695 0.17501825 0.36331517
-0.099843115 0.014146947 0.061513364 -0.015665378 0.1262345 -0.08498978 -0.32298854 -0.057841826
0.013053043 -0.15896621 0.21618354 0.14858034 0.12743372 -0.022472264 -0.18878505 0.2926876
0.071701586 0.5585057 -0.011911567 0.27270398 -0.11021165 -0.13993624 -0.16990212 0.089516096

network_body._body_endoder.seq_layers.0.bias f4 [256]
00000000: a578 953b 4d93 c63b 1cee 6fbb aa17 8b3b
00000010: 4349 a43b fd90 9d3b 501d b73b ed8a a8bb
00000020: 5fd8 c33b 0026 803b 6312 ba3b 2faf a3bb
00000030: bb9f be3b c595 523b 8a12 253b dfd0 9cbb
00000040: 97ae 593b 353a 3cbb 6680 97bb 1518 93bb
00000050: f02e e83a 1185 67ba 21a0 b73b 06a9 d1bb
00000060: 4875 c13b 2eca c23b f5b7 a43b 02c7 603b
00000070: 5ec4 af3b 6211 933b 0126 ee3a 74d2 2238
00000080: 637b d43a 2c3e d33a 499f 713b 70d7 66b8
00000090: bf7f d8ba 7ac3 a539 d2ef 83bb d1d6 cf3b
000000a0: 7644 c2bb 8d0e 56bb d370 483b 2590 313b
000000b0: 2061 ab3b 2eea a13b d8f2 34bb e4e3 cf3b
000000c0: 7bdc 8fbb 527a e338 945c 9abb f733 59bb
000000d0: 7982 1e3b d112 bc3b 93ee 523b 6069 f73a
000000e0: cb87 723b 88d1 b1b9 c2aa b8bb ad06 84ba
000000f0: f0de c13b e920 6c3a 573b 99ba edd8 763b
00000100: c80f c33b 2025 c23b 92ae a73b 18b5 79ba
00000110: ef50 a2bb 0e7d acbb 95ed 0bbb 47e2 9cbb
00000120: a957 90bb add1 c83b 9e11 993b 75ab a43b
00000130: 2e7e 943b 9aa5 313a ee18 8ebb 7ec5 863b
00000140: 88b0 9d3b 7b66 3a3b 2fa8 283b 7f41 91bb
00000150: 25b7 9c3b 9bc1 2abb 21cc 79bb ad04 073b
00000160: 18cc a03b 4949 5b3b ce6c 25b8 81fa 2dbb
00000170: 9a92 323b 61fa 84bb bc27 89bb 7f7b 76bb
00000180: 59c9 b6bb cff9 a33b ac11 27bb 808b e8ba
00000190: 40e2 413a 576b 9a3a ff62 b73b fadc 60b9
000001a0: 246c 20ba 9dcc 8b3a 90a1 17bb 6d90 c339
000001b0: b2f4 45bb e527 d83b 88bb c43b 6978 d33b
000001c0: 2df8 ffb9 2a16 623b 2967 a03b 0b42 903b
000001d0: 18d6 a1bb 1d4c 663b 49de b6bb f9d8 ac3a
000001e0: b503 a0bb 557b 1a3b ccf3 a7ba 2ee8 b63b
000001f0: 929b 39bb 7392 9f3b f84b 963b 2d1c aaba
00000200: 269d 15bb 0de5 3ebb 3899 933b 4c7f b2bb
00000210: 1866 97bb 31a7 9f3b 42d1 243b b922 433b
00000220: a425 8d3b 66bc 8f3b 2984 403b 9c89 d23b
00000230: 2832 64bb 8a0b 5bbb de19 7fb9 2a65 253b
00000240: aa70 9cba e63f a3bb 576f 8f3b 76d8 32bb
00000250: c531 b43b da77 c53b 3bd4 f6ba 2830 943b
00000260: 8b42 3abb 41f5 1ebb 74b6 e13b 1dbb 6fb9
00000270: 24c2 833b dde8 b1bb f0b8 633b 2d59 e13a
00000280: 8690 313b 2f54 52bb 59c4 92bb 0771 bc3b
00000290: 9241 b73b 181c 3b3b 08f3 b33b 867e 41bb
000002a0: 2800 bb3b 2e64 b83a edb4 4dbb 810b 8c3a
000002b0: 865a 8c3b dd01 af3b d0e5 d3ba fce1 89bb
000002c0: 639c f2ba 5f1c d93a 6e99 afbb 1f1f 913a
000002d0: 817e 893b 3aed c5bb 93b0 66bb 042f c93b
000002e0: f33b aabb 8e11 d539 5896 c23b be6e 60bb
000002f0: 7f3b edba c59d 893b 4bf5 deb9 8f06 82bb
00000300: 7f97 c03b 8510 be3b c0bc 323b 85e8 71bb
00000310: 152e 593b 8d78 86bb 6c38 cc3b 8b09 6d3b
00000320: e466 3bba a1a0 16bb 1585 96bb af8b aa39
00000330: 79b6 b53a e86a 433b 563c ab3b 6db4 02bb
00000340: 4bef 933b 116e 753b 28e8 e73a dbb5 b23b
00000350: cd56 4cbb f1af 8b3b 3955 d039 f72d bc3a
00000360: ff1a 85bb d9c5 d93b e686 c23b 1299 a93b
00000370: e20f 813b a2a4 23bb ef30 a83b b4f1 a13b
00000380: fc50 e23a 039e 9d3b d1b0 983b 6966 b7bb
00000390: 00ff bc3b de38 bbbb 583e 3e3b e816 b13b
000003a0: c287 4fbb d8f1 14bb 9609 b13b 0fd6 b8bb
000003b0: 93e3 023a 27a4 ed3a 4940 923b 6ca6 253a
000003c0: 713b 6c3b 5b8e 95bb bfd2 96bb 0f52 89bb
000003d0: 9e34 203b 389e 8fbb b725 533b 3c99 28ba
000003e0: 5b68 703a 2b50 9fbb 6d17 2eba 6561 e6b8
000003f0: d13f 28bb 21d0 4bbb f7b5 7bbb 4d99 82bb
0.004561501 0.00606004 -0.003661043 0.0042447643 0.0050136163 0.0048085437 0.005588211 -0.0051435144
0.005976721 0.00391078 0.0056784614 -0.0049952487 0.005817381 0.0032132727 0.0025188052 -0.0047856416
0.0033215636 -0.0028721218 -0.0046234606 -0.004488955 0.0017714184 -0.0008831779 0.0056038057 -0.006398323
0.0059038736 0.005944512 0.005026812 0.0034298305 0.005363985 0.004488156 0.0018169285 3.881981e-05
0.0016211089 0.0016116551 0.0036868623 -5.5036915e-05 -0.0016517563 0.00031616894 -0.0040263915 0.006342747
-0.0059285713 -0.0032662482 0.0030584827 0.0027093973 0.005230084 0.0049412465 -0.0027610566 0.0063443054
-0.004390297 0.000108469874 -0.004710743 -0.0033142546 0.0024186654 0.005739548 0.0032185658 0.0018876009
0.0037007208 -0.00033916184 -0.0056355903 -0.001007279 0.005916469 0.00090075895 -0.0011690658 0.003766592
0.005952809 0.005924836 0.005117246 -0.0009525581 -0.0049534957 -0.005263931 -0.0021351327 -0.0047877165
-0.004404981 0.006128511 0.0046712896 0.005025322 0.0045316434 0.0006776691 -0.004336468 0.0041128984
0.004812304 0.002844243 0.002573501 -0.0044328566 0.0047825747 -0.002605534 -0.0038116055 0.0020602152
0.0049071424 0.003346043 -3.9440398e-05 -0.0026547017 0.0027248026 -0.004058168 -0.004185645 -0.003761023
-0.0055782017 0.0050041447 -0.002549271 -0.001774177 0.00073960796 0.0011781257 0.005596518 -0.00021444625
-0.000611963 0.0010665838 -0.002313707 0.00037300904 -0.0030205664 0.0065965527 0.006003801 0.006453563
-0.00048822296 0.0034498074 0.00489511 0.004402404 -0.004938852 0.0035140582 -0.0055806977 0.0013187221
-0.0048832544 0.0023572047 -0.0012813746 0.005581877 -0.0028321487 0.004869753 0.004586693 -0.0012978368
-0.0022829263 -0.0029128224 0.004504349 -0.005447304 -0.004620325 0.0048722257 0.0025149141 0.0029775335
0.0043074656 0.0043864725 0.0029375649 0.0064250957 -0.0034819935 -0.0033423626 -0.00024328331 0.00252373
-0.0011935432 -0.0049819825 0.0043772864 -0.0027289665 0.005499097 0.0060262503 -0.001883156 0.0045223422
-0.002842101 -0.002425507 0.006888205 -0.00022862521 0.004020946 -0.005429371 0.0034747683 0.0017192714
0.00270942 -0.0032093634 -0.004478973 0.0057507786 0.0055925334 0.002855068 0.005491618 -0.0029524877
0.0057068057 0.0014067942 -0.0031388358 0.0010684581 0.004283252 0.0053407983 -0.0016166512 -0.0042078476
-0.0018509742 0.0016564241 -0.0053588664 0.0011071897 0.0041959886 -0.0060402425 -0.0035200461 0.006139638
-0.005195135 0.00040639605 0.0059383325 -0.0034245695 -0.0018099396 0.004199716 -0.00042525897 -0.003968067
0.0058774347 0.005800309 0.0027273148 -0.0036912274 0.003313904 -0.0041037262 0.006232312 0.0036169018
-0.0007148816 -0.0022983926 -0.0045935013 0.00032529 0.0013863585 0.002981836 0.0052256985 -0.0019943968
0.00451461 0.0037449638 0.0017693089 0.005453808 -0.0031179667 0.004262917 0.00039736347 0.001435696
-0.004062056 0.0066458997 0.0059364913 0.005175718 0.003938661 -0.0024969955 0.0051327865 0.0049421433
0.0017266567 0.004810096 0.00465975 -0.005596925 0.005767703 -0.005713566 0.002902886 0.005404342
-0.0031666611 -0.0022727158 0.005402754 -0.005640752 0.00049930176 0.0018130586 0.00446323 0.0006319049
0.0036046172 -0.0045640892 -0.0046027596 -0.0041906903 0.0024445425 -0.004382875 0.0032218525 -0.0006431525
0.00091708236 -0.0048618517 -0.0006641064 -0.00010985396 -0.0025672803 -0.0031099396 -0.003840802 -0.00398556

network_body._body_endoder.seq_layers.2.weight f4 [256, 256]
00000000: ae91 743d 478d 123e 0c53 bbbd 5b79 a2bd
00000010: 5829 3fbd e175 b83c 12b9 203b db42 ed3c
00000020: 03a0 76bd ca2b 9eba 004f 7fbc a5eb 463d
00000030: 39ee d2bd c152 09bd 1d97 b6bb 64ee 533d
00000040: 2eae ffbc 2438 173e e7d2 adbc 002f 89bd
00000050: a15f 04bc fa0b b8bd aaff 833d de14 3e3d
00000060: aa8d 313d cc12 373e 0224 0abd ac93 a43d
00000070: a92b 6cbb f54d 00bc 17f5 2eb9 9713 1b3c
00000080: 72e5 e13c f7f4 23bd 8dd0 58bd 432e d13d
00000090: 6150 8d3d 8335 77bc f213 3e3c d983 86bd
000000a0: 529a 223c 720d 7f3d 0971 363d 5899 79bd
000000b0: 1b65 a63c 6a67 203d 6f02 383d b05a cabd
000000c0: 8a69 ab3d e59e 0a3e 1e34 c8ba a232 eb3d
000000d0: 38b7 bc3b 30ba 94bd ab8d 013d 2926 cd3d
000000e0: c081 07bd c7a3 5a3d 5522 d03d 8066 a13c
000000f0: 05b2 f53c f673 febc c243 3e3d cb57 3e3d
00000100: 49ab 0d3d b605 863d a2cb 01bd c55e 45bd
00000110: 95dd 103d b39a 7b3d feba 8b3b 91d1 c13d
00000120: 66d5 8abd 8aa4 b8bd f96e 09bc 7c99 bf3d
00000130: 14c0 97bb 2084 77bd a228 0e3d 6d6f 26bd
00000140: 80fd f6bd 8670 85bc 3aa0 aa3d 5f69 483b
00000150: 56c6 1cbd a44d 3ebd 3445 89bd dbb1 79bd
00000160: 18ef b0bd 0c0b e73c b579 023c 6823 2cbd
00000170: 9863 cdbd adc9 37bd 1968 5bbd 2a0b 14bc
00000180: 4769 993d 7429 7a3c c079 debc 1f33 d3bc
00000190: 2507 ed3c b21b 003d bba2 183e a385 61bd
000001a0: 4cc9 88bd ef20 153c c1b1 eabc ddd0 2bbd
000001b0: d576 a13d 1669 3f3c 0d58 0cbd a1ff d5ba
000001c0: b387 5fbd 0361 a83c fe18 893d c570 8c3d
000001d0: 8526 7dbd 8ff4 bb3d c324 f9bd eda8 013d
000001e0: db58 2a3d 0852 afbd a2fb f9bc 3909 8dbc
000001f0: 2f6d ab3c 7047 79bd 9dbf 65bd 2b60 86bd
00000200: a1e5 e43c 3a5a e1bc c151 193d 9488 023e
00000210: 2f34 613d d3aa c73c 907d a83c 399a f5bc
00000220: 0431 75bd ecf6 84bc d41d 1c3e 5382 5e3d
00000230: 65e7 6fbd c2aa 213d 2232 483d d0f5 b1bd
00000240: 027c 6abd c7d5 8b3c 17b6 233d 3259 603c
00000250: bc22 13bd da94 20be 0b8d cdbd 7805 99bb
00000260: da5e 98bb 3798 943c 5b56 42bd bf72 213c
00000270: a334 16bd 1847 493c f6cc 3c3d 667d 283a
00000280: 10fd ae3d dcde c83d 4252 b6bd 6e70 643d
00000290: edce e2bc 7308 86bc 0f18 e73d 13ed a4bc
000002a0: 9817 983d ef63 98bd fc98 d93d 5548 35bd
000002b0: 0757 c93d 8bd8 b9bd d7c6 dc3b e7a0 f83c
000002c0: f2bd 60bb 505d 933d 73d3 8bbc 25aa b3bd
000002d0: 2568 87bc ad49 863d 6d20 693d 4ea5 f83c
000002e0: 289c 113d 6ce6 e6bd 63bc 96bc 5083 b23c
000002f0: 23fb 923d 529e 873d 2990 53bc 2412 11bc
00000300: f00d 983d c617 52bd 1506 fdbc 45bb a43d
00000310: 97cf 943d f5ba 7e3d 2e8e 36bd a68b 413d
00000320: 7787 afbd 5b22 c0bd 7f51 d43c 6be4 c63c
00000330: 29a8 7ebd 4be4 ccbd 9f8e 2dbd 8284 ddbd
00000340: 1f87 dcbb ea82 dcbd c2a9 28be d00d 0dbd
00000350: 667c 473d 5efd 2dbd ecb8 afbc 988a 423d
00000360: c5f8 b63d 49df 1d3d 433c dbbb 84a8 e43c
00000370: f859 3e3b 7b92 54bd ff20 11bd 2ed3 8bbd
00000380: d7ea 92bd f08a d43b e6a5 34bd e5e7 243d
00000390: e98f e4bc 7bf6 f8bd 72f4 99bc e8fc aa3c
000003a0: 19ff ddbc dbfb 58bd f757 d43c b964 c8bc
000003b0: ad5d 79bc 3cea 863d c864 a43c 67ee f93d
000003c0: f98b a0bd 5cb9 5b3d 7ab8 24bc 77f1 8e3c
000003d0: 5ba2 ff3d daa8 143c c130 50bd 99ca 783e
000003e0: 1770 983d 5923 a8bc c7bc 8ebc 8dd4 083c
000003f0: 8a06 a03b 359c 07bd 86ec b93c b5c4 a63d
0.059709243 0.14311706 -0.09146699 -0.07933303 -0.046670288 0.022517147 0.0024524373 0.028962543
-0.060211193 -0.0012067494 -0.0155828 0.048564572 -0.102993436 -0.033526186 -0.0055722133 0.05174102
-0.031210985 0.1476751 -0.02121873 -0.06698418 -0.00807944 -0.08986659 0.064452484 0.04640662
0.043347992 0.17878264 -0.033725746 0.08035979 -0.0036036766 -0.007831086 -0.00016685236 0.00946512
0.027575228 -0.04002854 -0.052933265 0.10213902 0.06900097 -0.015088442 0.011601435 -0.06568117
0.009924488 0.06226868 0.044541392 -0.060937256 0.020311883 0.039161123 0.044924196 -0.098805785
0.08369739 0.13537176 -0.0015274321 0.11484267 0.005759146 -0.07262075 0.031629246 0.10017044
-0.033082724 0.053378846 0.10162798 0.019702196 0.029992113 -0.031061154 0.046451338 0.046470445
0.03458718 0.06544058 -0.03168834 -0.048186082 0.035367567 0.06142683 0.0042642346 0.094638
-0.06778984 -0.09015758 -0.008388274 0.09355447 -0.004631052 -0.06042874 0.03470672 -0.040633608
-0.1206007 -0.016289007 0.08331342 0.0030580384 -0.038275085 -0.046460763 -0.067026526 -0.06096063
-0.086393535 0.02820351 0.0079635875 -0.042025954 -0.100287616 -0.044870067 -0.053566072 -0.009035865
0.07490783 0.015268672 -0.027157664 -0.025781212 0.02893407 0.031276412 0.14905827 -0.055059087
-0.06679019 0.00910209 -0.028649213 -0.041947234 0.078839935 0.011682769 -0.03426366 -0.0016326794
-0.054572772 0.020554071 0.0669422 0.068574466 -0.061804313 0.09177505 -0.12165215 0.03165524
0.041588645 -0.08560568 -0.030515496 -0.017216312 0.020926086 -0.060859144 -0.05609094 -0.06561311
0.027941527 -0.027508844 0.037431482 0.12747413 0.054981407 0.024373448 0.020567685 -0.029980766
-0.059861198 -0.016231023 0.15245754 0.054323506 -0.058570284 0.039469488 0.048875935 -0.08689463
-0.05724717 0.01706971 0.039968576 0.013693141 -0.035921797 -0.15681782 -0.100366674 -0.0046698414
-0.004649979 0.018138988 -0.047445636 0.009854018 -0.036671292 0.0122850165 0.046093903 0.0006427377
0.085443616 0.09808132 -0.08902408 0.055771284 -0.02768656 -0.01636145 0.11283886 -0.020132577
0.07426375 -0.07440936 0.106248826 -0.044258434 0.09831052 -0.090745054 0.0067375707 0.030350162
-0.0034292904 0.07195532 -0.0170686 -0.08772687 -0.016529152 0.06557021 0.05691569 0.03035226
0.035549313 -0.11274418 -0.018400377 0.02179113 0.07176807 0.06621994 -0.012912788 -0.008854423
0.07424533 -0.051292203 -0.03088669 0.08043531 0.07266157 0.062190015 -0.044569187 0.04725232
-0.0857076 -0.09381553 0.025917767 0.02427884 -0.06217209 -0.10004481 -0.042372342 -0.108162895
-0.006729975 -0.107671574 -0.16471007 -0.034437 0.04870262 -0.042477958 -0.021450482 0.047495455
0.08934168 0.03854302 -0.0066905334 0.027912386 0.0029045325 -0.051897507 -0.03543186 -0.06827389
-0.071736984 0.006486289 -0.044103526 0.040260214 -0.027900653 -0.121563874 -0.018793318 0.020872548
-0.02709918 -0.052974563 0.025920851 -0.02446209 -0.015220088 0.065876454 0.020067587 0.12203675
-0.07839198 0.05364357 -0.010053748 0.017449124 0.12482139 0.0090734605 -0.050827745 0.24296035
0.074432544 -0.020524668 -0.017424 0.008351457 0.004883592 -0.033107955 0.022695791 0.08142988

network_body._body_endoder.seq_layers.2.bias f4 [256]
00000000: aa0d 8ebb e8ef 713b 978c a0bb 2312 6e3b
00000010: 250f 3bbb bd02 a83b 966a 373b dae4 b93b
00000020: 9303 a2bb d92d bb3b f3d4 9cbb 99a3 10bb
00000030: e893 a93b ff0f b8bb 354b 3c3a c1bf b2bb
00000040: bf61 feba c85c 833b d9c5 bab8 9efa e4b9
00000050: 5559 9fbb 1039 403b a909 873a 2f3d 8eba
00000060: 6ead 51bb ccd4 b63b 72c3 163b 04cd c33b
00000070: 47b5 863b eac5 783b b477 99bb af80 a93b
00000080: dc83 3e3b 7935 cdbb 747a eb39 ec41 0aba
00000090: 255c 97bb eaa5 daba b0aa c23b 42c0 92bb
000000a0: 878f 0bba 69e0 c2ba a9bd 273b 598c adbb
000000b0: 3170 8dbb a2b9 8bba ae23 b43b 8617 b53b
000000c0: 62ae 633b 9cdf 9ebb 0f08 7e3b 10ae 34bb
000000d0: 1a28 af3b 8789 603b 1666 9bbb 6f41 9d3b
000000e0: 0e9b b23b 4c1e aa3b 5e5d 923b 7ecd 85bb
000000f0: d423 96bb 835e 953b 8e58 253b bb31 f23a
00000100: 1a78 9abb 37a1 97bb e0ec a23b c6a3 b23b
00000110: eb3e 3dbb 4b0e b0bb 8209 b1bb e652 b83b
00000120: 29dc 6bbb 5d4b 823b ec26 af3b 3a5f f2ba
00000130: 91b7 dd3a 741b 4fbb 44e7 7c3b 9de2 1fbb
00000140: dde9 90bb 0221 ac3a fb84 a2bb 8fda c1ba
00000150: a2c5 95bb b60e 833b e1dd 04ba f560 2ebb
00000160: ee69 a4bb 8596 9b3b bbdd cfba f9ba 123b
00000170: 2ab0 673b 7c62 a1bb c67e 623b 55f7 d23a
00000180: 0b89 54bb 4db8 47bb f18d 8abb d803 b73b
00000190: cce0 ac3b da7b a6bb b52b fe39 1306 823b
000001a0: fcbe 9b3b b621 e439 2cc8 adbb edc8 aa3b
000001b0: 552c 0e3b 7012 61bb f66b 8dbb 186e 743b
000001c0: 9e51 b0bb e565 b23b 48ed 9ebb 4206 a3b9
000001d0: 64d9 b5bb ec63 8f3a 5303 1abb 1550 91bb
000001e0: 7764 6a3b c1fb a53b 8496 abbb 77a1 ea3a
000001f0: f417 b03b 30c3 6a3b e1d5 283b 061c 57bb
00000200: 2143 a8bb 7209 a3bb 0e4c b33b e985 833b
00000210: b474 0a3b 6358 a13b ad0b b5bb d7ce d33b
00000220: 75bb 03ba 294d 0c3b 52b8 c03b ff1e 1e3b
00000230: 208d 943b 88fb 90ba a836 c639 24af b13b
00000240: f414 b6ba a8b8 6db8 1565 ce3b 6674 7dbb
00000250: 8318 b73b dfb3 ba3a c9ab c93b 598c 39bb
00000260: e2cc bcbb 47a7 aa3b 51ea 9b3b 4e7f b4bb
00000270: 4ac6 84bb cec8 83bb 600d cfbb a0f8 bcbb
00000280: 1e3f 4e3b 0506 933b f1cb 953b 624a b5ba
00000290: 2dc6 b63b b39e 4ebb 5998 763a b7cf 4aba
000002a0: 0e8c c03b 08fb bc3b 52f0 e0ba ee76 603b
000002b0: 3178 383b d1e3 a5bb caeb c43b d109 bf3b
000002c0: 90e1 46b9 05cc b63b 88d9 e73a c20a c03b
000002d0: 9d9c 36bb d0b4 c9ba 5f18 a2bb ae02 babb
000002e0: bb07 bbbb 8f96 cf3b 1538 40b9 53dd 98bb
000002f0: b52a ca3a e766 3c3b c03e 863a 3ccb 05ba
00000300: 3f20 b63b fa0d b1bb d218 c9bb 9b45 9739
00000310: 6b10 96bb 865a c1bb a2cc a1bb 9608 b8bb
00000320: 94e8 a13b 7fdc b2bb 192d af3b 612d bd3b
00000330: 5571 83bb 2377 c93b 7d98 adba fe1f 91bb
00000340: 7e0e 75bb c16a 97bb 1379 8dbb 1f0f b83b
00000350: c6a4 60bb a6e6 053b a339 643a 70b8 033b
00000360: 6d89 aebb b501 95bb 169d aabb 3a50 9f3b
00000370: 50bc 5a3b af4c 6dbb 923c b03b 5003 c63b
00000380: 73cc 19ba 5ee1 883b 6921 5a3b fe4a 963b
00000390: 0172 b83b c403 b9bb a07a c1bb abb5 00bb
000003a0: 6dd2 ab3b 8cb1 053b cefa b0bb 9164 923b
000003b0: 867a 703b 3a1f cabb e9e1 5a3b 6681 14bb
000003c0: dd0e ab3b 6ea2 bf3b c38b a3bb 2c8a 86bb
000003d0: 9500 e73a a23a eeba 422b a7bb 03b1 a7bb
000003e0: 48e8 a23b e501 16bb 3122 ad3b 3348 91bb
000003f0: 6cd4 3dba 100f b53b ddff 853a 6cd7 a93b
-0.004335125 0.0036916677 -0.004899572 0.0036326728 -0.0028542962 0.0051272796 0.0027987114 0.005673033
-0.0049442737 0.0057122526 -0.0047861277 -0.0022070168 0.0051751025 -0.0056171413 0.00071828376 -0.0054549878
-0.0019407793 0.004008863 -8.906023e-05 -0.00043674273 -0.004862944 0.0029330887 0.0010302562 -0.0010851974
-0.0031994241 0.0055795666 0.0023004678 0.0059753675 0.0041109654 0.0037959763 -0.004683459 0.005172811
0.0029070294 -0.006262478 0.00044913928 -0.00052741054 -0.004619139 -0.0016681526 0.0059407577 -0.0044784853
-0.00053238164 -0.0014867905 0.0025595224 -0.0052962718 -0.004316353 -0.0010660181 0.0054974174 0.005526486
0.0034741391 -0.0048484337 0.0038762128 -0.002756957 0.0053453567 0.003426166 -0.004742394 0.00479906
0.005450613 0.0051916 0.0044666966 -0.0040833345 -0.0045819078 0.004558386 0.0025229785 0.0018477956
-0.0047140243 -0.0046273726 0.0049720854 0.005451652 -0.0028876613 -0.0053727976 -0.0054027447 0.0056251166
-0.003598938 0.003976269 0.005345216 -0.0018491514 0.0016915669 -0.0031602057 0.0038589993 -0.0024396547
-0.00442241 0.0013132396 -0.0049597 -0.0014789867 -0.004570679 0.0039995564 -0.0005068463 -0.0026608084
-0.0050175106 0.004748168 -0.0015858928 0.0022389276 0.0035352805 -0.0049250703 0.0034560426 0.0016095439
-0.0032430317 -0.0030474842 -0.0042283465 0.005585175 0.0052758213 -0.005080682 0.0004847922 0.0039680093
0.0047529917 0.00043512665 -0.0053034034 0.0052119405 0.0021693904 -0.0034343265 -0.0043158485 0.0037297066
-0.0053808233 0.0054442757 -0.0048500635 -0.00031094445 -0.0055495966 0.0010939813 -0.0023500517 -0.0044345954
0.0035765448 0.005065412 -0.0052364487 0.0017900903 0.005373949 0.0035821907 0.0025762247 -0.00328231
-0.0051349555 -0.004975491 0.005471713 0.004013766 0.002112669 0.0049238666 -0.0055250735 0.006463866
-0.00050251867 0.0021408296 0.0058813477 0.0024127362 0.004533425 -0.001106129 0.00037806225 0.0054224897
-0.0013891743 -5.6677178e-05 0.006298671 -0.0038674115 0.005587639 0.001424428 0.0061545116 -0.0028312413
-0.0057617286 0.0052079293 0.0047581573 -0.00550834 -0.004051958 -0.0040217405 -0.006318733 -0.005766943
0.0031470726 0.0044868016 0.004571431 -0.0013831372 0.0055778236 -0.0031527698 0.0009406857 -0.00077366404
0.005876071 0.00576723 -0.0017161465 0.0034250575 0.0028147812 -0.005062558 0.0060095536 0.0058300276
-0.0001896678 0.0055785202 0.0017688731 0.0058606574 -0.0027864345 -0.0015388969 -0.004946753 -0.005676589
-0.0057077087 0.0063350867 -0.00018331439 -0.004665056 0.0015424105 0.0028747858 0.001024209 -0.00051038316
0.0055580433 -0.0054032775 -0.006136992 0.00028852824 -0.004579594 -0.005900684 -0.004937724 -0.005616258
0.0049410556 -0.005458414 0.005345952 0.005773232 -0.004011313 0.0061482354 -0.0013244298 -0.0044288626
-0.0037392671 -0.0046208804 -0.0043174117 0.005617037 -0.00342779 0.0020431667 0.00087060983 0.0020098947
-0.005326441 -0.0045473226 -0.0052067144 0.0048618587 0.0033376403 -0.0036209037 0.0053783143 0.0060428753
-0.0005866952 0.0041772565 0.0033284074 0.0045865765 0.0056288247 -0.005646201 -0.0059045106 -0.0019639533
0.0052435906 0.0020400016 -0.005400992 0.004467555 0.0036694123 -0.0061682733 0.0033398813 -0.0022660135
0.0052202777 0.0058482205 -0.004991026 -0.004105827 0.0017624075 -0.0018175433 -0.0051015923 -0.005117537
0.0049715377 -0.0022889313 0.005283617 -0.0044336556 -0.0007241431 0.005525477 0.0010223348 0.005183151

action_model._continuous_distribution.log_sigma f4 [1, 3]
00000000: 03b8 103a 291f 963b 8c2a 54bb
0.0005520584 0.0045813513 -0.0032373993

action_model._continuous_distribution.mu.weight f4 [3, 256]
00000000: c1c1 da3c 391f 213b ce5a e93b 0cff 2bba
00000010: 4f2c 2cbc 454d ee3a 8a23 103c fb84 2f3a
00000020: 082b 9e3a 729f 8c3c 0671 6c3c 2b6a eabc
00000030: 1e6e c3ba f010 d2bc 9f7d b63b c5dc 4cbc
00000040: 0e52 0ebc 6086 c6bb 3b0a 4fbc 4952 89ba
00000050: f8ab ccbb 870f 0e3b 5ec8 803b 2621 553c
00000060: 0840 d1bc a263 b83b c151 23bb c84a 0d3c
00000070: d5a4 3cbc f0c7 413c c46e f63a 547e fa3b
00000080: 12ef 603a 48b2 6239 ec5c 1e3c bd9b 08bc
00000090: c6c5 2abc 9f03 e4bb fada ea3b 997d cd3a
000000a0: a6ef 043c 0d8c 4eba a3e0 6a3c 8093 39bc
000000b0: fa88 123c 7101 21bc 483b 033c 1ecd f83a
000000c0: 69e2 a53c 9816 ef3b 7dc9 ee3b b0d3 31bc
000000d0: b90c 1d3c 3491 613c ee40 9abc 906a b33c
000000e0: da8f ec3b 4cd0 743c 4bc4 393b 5031 f5ba
000000f0: 7dd4 9bbc b55f 283c 02fc b23b 949b b23b
00000100: c1fc ebbb a73f b4bc 9bb8 4b3b 008a b33c
00000110: eb0e 433c 4dee a4bb f853 54bc cfe6 833b
00000120: bd61 86bb 7253 a6bb 01a0 423c c396 703b
00000130: c4d0 48ba a196 2ebc 5844 7dbc 1a1a 90bc
00000140: a21a be3a 3ae6 a43a a30f fbbb 18f2 e6ba
00000150: 40b6 ffba b230 123c cd5c 163c 2bf9 d63b
00000160: 0d69 00bc 89e0 1c3c 90fe 18bb fd64 8e3b
00000170: 7ec9 bf3b cc50 27bb bfd4 6b3c 8537 86ba
00000180: a470 bbbc 9c1d 4d3c a1a9 a5bc 2010 6a3c
00000190: fdbc 223c fba6 9bbc de0e 7a3c 43f9 1f3c
000001a0: a1c7 3bb8 24fd 58ba eff9 81bc 00d8 92bb
000001b0: 5515 853c 802e 7d3c 5acd e83a b560 b43c
000001c0: 13a9 193c 36f8 3d3b e9b0 0fbc 6f9c 81bb
000001d0: d932 43bc 4181 59bc 2ab4 15bc dc11 1b3b
000001e0: e665 d73c ac0f 023c beab a6bc c6c8 c13b
000001f0: ad85 983c d4d6 a1bc e757 e3bb a167 46bb
00000200: c4d6 fdba ffed 85bb dadf f23b 1bb3 99bc
00000210: f637 15bc 78c5 d53c 3487 043b 2e91 1c3b
00000220: fcea e83b cde0 a93c ba70 e73b b477 203b
00000230: ff57 7c3c c99d 823a a904 a3bb 14e0 833c
00000240: 0a93 a13b 0dcc d0bc c630 7c3a 5119 ea39
00000250: 1a63 883b 6734 28bc 1729 003c ad0a a7bb
00000260: ef9b f43a 0309 873c 30b7 cebb ee4b 90bc
00000270: 1c81 91bc 32fe 483c 855e 5fbb 1838 f7bb
00000280: 2e55 53bc 5162 1abb 3984 593b 5524 633b
00000290: 6cdd 723c bb69 19bc ae88 5ebc ab9e 11bb
000002a0: e52b 613c 767f f93b b26b acbc 602e 61bc
000002b0: 5b7e 01bc 36e4 1abc 7849 f83b 3ca4 6d3c
000002c0: 3ce7 8a3b aced c93b 143b 91bb 6fc3 be3b
000002d0: 26c9 ddbb ad40 02bb 212c d33b e78c 30bc
000002e0: 51dd 503b edfc 9a3c f945 bcbb 3b5c 9fbc
000002f0: dcde 9f3c 7cd5 d43c 7b79 90b9 6028 a43c
00000300: 72be 2cbb f457 a03b 3aca e4bb 0862 93bc
00000310: 4707 60bc ab3b 8f3b 972d 50bc a4ba 02bc
00000320: dedc d83c 8de2 a4bc c16b 553b f881 353c
00000330: 58b7 a3bb 3f3a b8bb b398 483a d802 e0bb
00000340: 0e48 66bb 8c5b d73b ad15 8bbc eb89 64ba
00000350: 21cd eebb 143c 5dbc fe35 fb3a 894c 62bb
00000360: 5329 11bc 6738 4c3b 1e6d 35bc 0385 4b3c
00000370: fb81 843c 1503 ff3b 6516 a33c c29b 513b
00000380: c640 333c bd29 3e3c 67af a33b 3129 b7bc
00000390: 9675 fe39 2173 5dbc dc98 f0ba f54f e83b
000003a0: 292e 233c 3796 dd3a a50f b4bc 0102 033c
000003b0: c034 483c eb22 cc3b 2b6d 88bc 2828 2db9
000003c0: 4aa6 0a3c 3ed6 573c 19d7 9ebb 3425 c8bc
000003d0: ff72 cf3b a3c1 d8bc 3c50 e0bb bf64 d539
000003e0: 4d52 96bb f7a1 eabc c64d 163c 8494 593b
000003f0: 13a6 bf3a 1e43 db3b badb 643b 8b01 863c
0.026703717 0.002458526 0.0071214205 -0.0006561137 -0.010508611 0.0018180987 0.008797536 0.0006695536
0.0012067268 0.017165873 0.014431244 -0.028615078 -0.0014910137 -0.025642842 0.0055691744 -0.012503807
-0.008686556 -0.006058499 -0.0126367165 -0.0010476793 -0.006246086 0.0021676735 0.0039301356 0.0130083915
-0.025543228 0.0056271115 -0.0024920555 0.008623786 -0.011513908 0.011827454 0.0018801321 0.007644454
0.0008580546 0.00021619454 0.009665709 -0.008337912 -0.010423129 -0.0069584395 0.0071672173 0.001567769
0.008113777 -0.00078791456 0.014335784 -0.011326671 0.008943791 -0.009827004 0.008009739 0.0018982028
0.020249562 0.0072963946 0.007287203 -0.010853693 0.009585553 0.013767529 -0.018829789 0.021901399
0.007219297 0.01494224 0.002834576 -0.0018706713 -0.01902222 0.010276725 0.0054621706 0.0054506753
-0.0072017615 -0.022003008 0.0031085375 0.02191639 0.011905412 -0.0050332905 -0.012959473 0.0040253173
-0.004101007 -0.0050758654 0.011878968 0.0036710955 -0.0007660503 -0.01065603 -0.015458189 -0.017590571
0.0014503787 0.001258082 -0.007661776 -0.0017619757 -0.0019509271 0.008922743 0.009177399 0.006560465
-0.007837546 0.009575018 -0.002334509 0.004345535 0.005852877 -0.0025530336 0.014393984 -0.0010239935
-0.02288086 0.012519266 -0.020222487 0.014286071 0.009932754 -0.01900052 0.015262334 0.0097640185
-4.4770193e-05 -0.0008277467 -0.015866248 -0.0044813156 0.016245523 0.015452981 0.0017761395 0.02201877
0.009378689 0.0028987057 -0.008770206 -0.003955416 -0.0119139785 -0.013275445 -0.009137193 0.0023661768
0.026293706 0.007938307 -0.020345565 0.0059138266 0.01861843 -0.019755758 -0.006937969 -0.003027417
-0.0019366373 -0.0040872092 0.007411939 -0.018762162 -0.00910758 0.026095137 0.002022219 0.0023890245
0.0071080904 0.020737076 0.0070629986 0.002448541 0.015401839 0.0009965237 -0.004974921 0.01609806
0.0049308585 -0.025487924 0.0009620305 0.0004465082 0.0041622045 -0.0102664 0.007822297 -0.005097708
0.0018662194 0.01648379 -0.0063084587 -0.017614331 -0.01776176 0.012267636 -0.0034083438 -0.0075445287
-0.012898726 -0.0023557136 0.0033190383 0.0034659107 0.014823299 -0.009363587 -0.013582392 -0.0022219818
0.013743375 0.0076140715 -0.021047447 -0.013743967 -0.007903661 -0.009453824 0.0075771175 0.014504489
0.004238991 0.006162366 -0.0044320915 0.0058216373 -0.0067683635 -0.0019874976 0.0064444696 -0.010775781
0.0031870196 0.018919433 -0.005745646 -0.019453159 0.019515447 0.025980704 -0.0002755633 0.020038784
-0.0026358631 0.0048932973 -0.006982115 -0.01799108 -0.01367361 0.0043711266 -0.012706182 -0.007979069
0.026472505 -0.02012756 0.0032565447 0.01107835 -0.0049962215 -0.005622178 0.00076521485 -0.0068362765
-0.0035138163 0.0065721925 -0.01697811 -0.0008718061 -0.007287637 -0.013503093 0.0019165871 -0.0034530482
-0.00885995 0.0031161548 -0.011073379 0.012421849 0.01617526 0.00778235 0.01990814 0.0031983708
0.010940736 0.011606631 0.004995275 -0.022358509 0.00048534264 -0.013516218 -0.0018356103 0.0070896097
0.009959736 0.001690573 -0.021980116 0.007996083 0.012219608 0.0062297485 -0.016653618 -0.00016513525
0.008462498 0.013173638 -0.004847419 -0.024431802 0.0063308473 -0.02645952 -0.006845502 0.00040701588
-0.0045874477 -0.028641684 0.009173816 0.0033200094 0.0014621638 0.0066913506 0.0034921006 0.016358158

action_model._continuous_distribution.mu.bias f4 [3]
00000000: eb32 9f3b b510 6d3b 52be b6bb
0.004858365 0.0036173288 -0.005576887

action_model._discrete_distribution.branches.0.weight f4 [7, 256]
00000000: aae8 8bbb 5241 983b 37eb 44bc 1dd9 a43b
00000010: 1bb5 1abb 96c0 803b 68e9 c13b 6f04 b1bb
00000020: 1b10 aebb 15df bcba 7d2d c1bb 91b9 7839
00000030: cfc8 ee3b d433 10bc 9cba 23bc 9252 14bc
00000040: eccd b13b 39bd 2dbc 78d3 23bc a8ca 133a
00000050: 4097 03ba ff64 5f3c c563 31bc 317d 963a
00000060: 86cf b63b 4613 9039 3cf4 883a f284 c73a
00000070: b322 80bb c039 e0ba a177 5cba 729c efba
00000080: a071 93b8 1e16 553c 0c51 0ebc 56cb f4ba
00000090: b14c ec38 700a 4fba 1961 30bc 84e0 b7ba
000000a0: a674 013c d7a0 c13b 3e3d 54bb 41f1 c1bb
000000b0: 715a cebb 8f77 d03b ce60 5fbc 5ff8 27bc
000000c0: 7d26 fbbb c453 6f3c 48c7 4cbc 70d6 bcba
000000d0: 163c 81bc 05a6 133c f957 c93a 1bad ca3b
000000e0: 59c6 0eba bb44 873b 75a1 283c 0c50 e6bb
000000f0: 3ebd b9bb 91e0 90bb c5fd 113c a096 023a
00000100: 6446 05bc d392 1b3c 8f20 cebb 32ed 19bc
00000110: cd65 23bc 087c a4bc a7bb 0bbc ca8a bb3b
00000120: fc9d 48bb bfc1 92ba f402 2abb a650 dbba
00000130: 1f35 1bbc be8f 80bc 3898 813a de18 4bbb
00000140: 6f0c 56bb ae91 f73a 92a3 0ebc c33a 74bb
00000150: d747 38bc 9748 85bb 0fed 72bb 9f1a a5ba
00000160: 0a86 ea3b 6dec 1739 362f 183c 2295 a13b
00000170: 2ac1 9bbb 7a81 0c3c 9a59 48b9 059c c2bb
00000180: 2734 f53b 6d56 143c 6315 a23b 874b b43a
00000190: 8dc5 473b 4733 113a 83e7 ac3a f3c7 91bb
000001a0: 8b60 3d3c 3749 18bc 6ae4 8b3b 223a 9f3b
000001b0: 6569 83bc 1729 023b 14f3 be3a 4690 27bb
000001c0: e967 96ba 6356 6fbb 26d6 18bc 01dd 8bb9
000001d0: e472 663b 0bb3 893b 47c1 caba 2883 0639
000001e0: 4299 e93a 85f0 47b9 02fb 313b e71c 40bc
000001f0: 6e94 7cbb 9ceb 09bc 84e7 6ebb 26fa 0ebc
00000200: f8a9 77ba e0e0 973b b34c babb 808f 28bb
00000210: 4a62 9ebb 352c 0bbc ea41 3a3b e72a 89bb
00000220: fbfa 8b3a 16ae b93b d924 1dbc 0770 bf3b
00000230: 137b 81bb d40d 95bb 6c7d 493a 3da2 0fbb
00000240: 42f9 5fbb 1ed7 b4ba 17eb 1bbb eb81 51bc
00000250: 770e 48bb bb75 4bbb 2352 7dbb e4b9 163c
00000260: 1292 7d3a 84ca 8eba 474c 133a eb99 ccbb
00000270: 32e0 19ba fd3c 0f3c 99ad 7b3b 1abd a139
00000280: 5f28 a639 7edf b9b9 7cb8 083b edd7 1fbc
00000290: 7e5e f5bb 8b7f 82bc 98ee 08bc d92f 60ba
000002a0: 74bd 8e3b 873f fe3b 21d3 e4bb 4f4b 61bb
000002b0: e480 19ba b0db 3c3c c3be dfba 21ee c83b
000002c0: fdad 053c 8799 d7ba d410 d8b9 dfb8 0ebc
000002d0: 6f8b 0dbb 8a84 a1bb 2ee9 3cba 3b66 8dbb
000002e0: 6cef c7b9 08b5 6d3a 7f8a fdb9 d00e 4239
000002f0: 0a37 513a 93a3 f43b 0cc7 19bb e58a 0fba
00000300: 81e8 553a b182 16bb 8dd0 013c dea4 3fbb
00000310: 1d19 563b 27e1 773b e77d c6bb 4545 613b
00000320: f57a 973b 2859 e13b 73a6 9b3b 4b2c a33a
00000330: ed23 94bb 03fc 8eba 0f56 b63b c031 1e3c
00000340: 3035 bfb6 8506 033c e396 32bc eb65 3f3c
00000350: c5b8 33bc 0a55 1ebc 7ddc 313c 2e45 213b
00000360: e410 9dbb ac34 63b9 bf2f 2dbb 5bea 3bbb
00000370: 7c89 9bbb cdaf a8bc e721 7c3b 632d 1cbc
00000380: 6882 8dbb cda9 bf3b c27e dc39 bbb3 1ebc
00000390: fb4c ffbb c512 4dbb b0a8 9cbb a551 d3ba
000003a0: 50f1 58bb 8fb7 4dbc cc92 b5ba 9bac cd3b
000003b0: a025 29b8 0989 bdba ce2c 5cbc bb1d 5abc
000003c0: 76d8 223b 79e8 b6bb 7bbd 3cbc 56d4 193c
000003d0: ba33 29bc a0a9 89bb 95a2 cab9 95d7 083c
000003e0: e712 773b e7ee 79bb a668 84bb 1127 4dbc
000003f0: 55b3 08ba eb06 2fbb 96f5 fb3b 01b1 f1ba
-0.004269679 0.0046464587 -0.01201897 0.0050307647 -0.0023606482 0.003929208 0.005917717 -0.00540214
-0.0053119785 -0.0014409745 -0.005895315 0.00023720252 0.007287122 -0.008801419 -0.009993222 -0.009052889
0.005426159 -0.010604196 -0.009999149 0.0005637803 -0.00050197914 0.013634919 -0.01082701 0.0011481402
0.005578938 0.0002748018 0.0010448764 0.0015222116 -0.0039103865 -0.0017107055 -0.000841016 -0.0018280877
-7.0306705e-05 0.013005761 -0.008686315 -0.0018676321 0.00011267642 -0.00078979786 -0.010765337 -0.0014028703
0.007901346 0.005909066 -0.0032385136 -0.0059186523 -0.0062974025 0.0063619087 -0.01363392 -0.010252087
-0.0076645003 0.014607374 -0.012498684 -0.0014407169 -0.015775722 0.00901175 0.0015361301 0.0061851866
-0.0005446426 0.0041280664 0.010292401 -0.0070285853 -0.0056683114 -0.0044213017 0.008910601 0.00049815513
-0.008134458 0.009495455 -0.0062905024 -0.009394931 -0.009973002 -0.020078674 -0.0085286265 0.005723332
-0.0030611744 -0.0011196657 -0.0025941702 -0.0016732409 -0.009473114 -0.015693542 0.0009887284 -0.0030990164
-0.003266122 0.001888802 -0.00870599 -0.003726647 -0.011247597 -0.0040674913 -0.0037067567 -0.0012596435
0.007157092 0.00014488558 0.0092886 0.004931108 -0.0047532516 0.0085757915 -0.00019106866 -0.005939009
0.0074830237 0.009053809 0.004946397 0.0013755419 0.003048274 0.0005538952 0.0013191554 -0.0044488846
0.011558662 -0.0092947995 0.0042691724 0.004859225 -0.016041467 0.0019860917 0.0014568293 -0.0025568171
-0.001147506 -0.0036519996 -0.009328401 -0.00026676807 0.0035163695 0.004202252 -0.0015468978 0.00012828095
0.0017822164 -0.0001906772 0.002715767 -0.011725641 -0.003854062 -0.00841799 -0.0036453912 -0.008726632
-0.00094476296 0.0046349615 -0.005685413 -0.0025720298 -0.0048334943 -0.0084944265 0.0028420635 -0.0041860226
0.0010679656 0.0056665046 -0.009591305 0.005842212 -0.003951439 -0.0045487676 0.0007686231 -0.002191677
-0.003417567 -0.001379702 -0.0023791248 -0.0127873225 -0.00305262 -0.0031045515 -0.0038653694 0.009199593
0.000967295 -0.0010894095 0.0005618971 -0.0062439344 -0.00058698945 0.008742568 0.0038403033 0.00030849205
0.00031692066 -0.00035452464 0.0020861914 -0.009756071 -0.007488071 -0.015929958 -0.008357666 -0.0008552052
0.0043560807 0.007759038 -0.0069831763 -0.0034377163 -0.0005855693 0.011526987 -0.0017070401 0.006131903
0.008159158 -0.0016448953 -0.00041211268 -0.008711069 -0.0021598001 -0.00492913 -0.00072063773 -0.0043151653
-0.0003813462 0.0009067808 -0.00048359108 0.000185068 0.0007980919 0.0074657886 -0.0023464588 -0.0005475714
0.0008159951 -0.0022966082 0.007923258 -0.0029242556 0.0032668777 0.003782341 -0.006057489 0.0034373563
0.004622812 0.0068770833 0.004750067 0.0012449113 -0.0045208842 -0.0010908846 0.005564458 0.009655416
-5.6984354e-06 0.00799716 -0.010900232 0.011682014 -0.010969345 -0.00966383 0.010855791 0.0024607885
-0.0047932733 -0.00021668029 -0.0026426164 -0.0028673622 -0.004746614 -0.02059164 0.0038472356 -0.009532305
-0.004318524 0.0058490993 0.00042056112 -0.009686406 -0.007791159 -0.0031291705 -0.0047808513 -0.0016122354
-0.0033102818 -0.012555971 -0.0013852953 0.0062766797 -4.032778e-05 -0.0014460395 -0.013438417 -0.013312752
0.002484826 -0.005581912 -0.011519785 0.009389004 -0.010327274 -0.004201129 -0.00038649575 0.00835218
0.0037700476 -0.0038136782 -0.0040407954 -0.012521521 -0.0005214711 -0.0026707004 0.0076891882 -0.0018439592

action_model._discrete_distribution.branches.0.bias f4 [7]
00000000: 77bf 8ebb 25bd 793b f0f0 173a 7af2 423b
00000010: 2896 5fba 90be c6b7 ed7b e93a
-0.0043563205 0.0038107124 0.00057960954 0.0029746578 -0.000852915 -2.3692177e-05 0.0017813422

onnx::Div_70 f4 [33]
00000000: d359 5c41 6c1f bb3d a761 5741 4a3a c93b
00000010: 3648 953e 4a3a c93b c97c 9e41 30bc cb3b
00000020: 2ef2 9841 4a3a c93b b6f1 943e 4a3a c93b
00000030: 16e2 373e 6d57 113e 5809 163e a757 ee3e
00000040: 82c3 333e 9629 163e 9736 f03b 4a3a c93b
00000050: 3e87 0d3c 94a8 353f 9d40 c93b cccf 313f
00000060: 80c8 903e f6b7 7a3e 2ab8 7a3e ab40 803e
00000070: 8640 803e e330 c53d 387d 923e 497f 333f
00000080: 0927 3c41
13.77193 0.091368526 13.461341 0.006140982 0.29156655 0.006140982 19.81093 0.006217502
19.118252 0.006140982 0.2909066 0.006140982 0.17957339 0.14193507 0.14652002 0.46551248
0.17555049 0.14664301 0.0073307264 0.006140982 0.008638201 0.70960355 0.0061417357 0.694577
0.2827797 0.24484238 0.24484316 0.25049338 0.25049227 0.09628465 0.2861116 0.70116097
11.75953
