results/UwU/BoxingAgent/BoxingAgent-296089.onnx (onnx, 409187 bytes, 13 tensors)

network_body.observation_encoder.processors.0.normalizer.running_mean f4 [84]
000000 00 00 00 00 4d f8 02 3f 6f a8 ee 3e dc 37 3a 3f
       0.0 0.51160127 0.4661288 0.72741485
000010 00 00 00 00 4c 7d 00 3f d2 51 f3 3e 9c 3f 3a 3f
       0.0 0.5019119 0.4752336 0.7275331
000020 00 00 00 00 06 1f 05 3f dd 86 ea 3e 26 b6 3a 3f
       0.0 0.52000463 0.45806018 0.72934186
000030 00 00 00 00 2f 9f fb 3e 02 98 f8 3e cf c4 3a 3f
       0.0 0.49144885 0.48553473 0.72956556
000040 00 00 00 00 40 46 06 3f 7c 42 e8 3e df d3 3b 3f
       0.0 0.52450943 0.45363224 0.73370165
000050 00 00 00 00 76 1a f7 3e a4 df fc 3e 09 b8 3b 3f
       0.0 0.48262376 0.49389374 0.7332769
000060 00 00 00 00 18 00 06 3f 73 f8 e8 3e 8c 9a 3d 3f
       0.0 0.52343893 0.45502052 0.74063945
000070 00 00 00 00 95 3c f3 3e f0 83 00 3f 8a 53 3d 3f
       0.0 0.47507158 0.5020132 0.73955595
000080 00 00 00 00 9c 98 04 3f 48 d7 eb 3e 53 0b 40 3f
       0.0 0.51795363 0.46062684 0.7501728
000090 00 00 00 00 41 eb ee 3e df a6 02 3f 0f 68 3f 3f
       0.0 0.4666386 0.51035875 0.74768156
0000a0 00 00 00 00 ba 5b 01 3f 15 e5 f1 3e f8 e2 42 3f
       0.0 0.5053059 0.47245088 0.76127577
0000b0 00 00 00 00 52 7b ea 3e 0d 0b 05 3f 24 fb 41 3f
       0.0 0.4579721 0.5196999 0.75773835
0000c0 00 00 00 00 13 dc f9 3e fe 01 fb 3e 6e 56 46 3f
       0.0 0.48800716 0.49024957 0.7747563
0000d0 00 00 00 00 ef 8b e5 3e 3a b9 07 3f e9 ed 44 3f
       0.0 0.44833323 0.5301701 0.7692552
0000e0 00 00 00 00 60 cf ee 3e 1c 11 03 3f 25 c2 49 3f
       0.0 0.4664259 0.5119798 0.78811866
0000f0 00 00 00 00 72 56 e1 3e a9 e3 09 3f a1 e4 47 3f
       0.0 0.44011265 0.53863007 0.78083235
000100 00 00 00 00 be 73 e4 3e 1d 9a 08 3f dd d8 4c 3f
       0.0 0.44619554 0.5336016 0.8001841
000110 00 00 00 00 df f9 da 3e ec 2c 0a 3f 67 b9 48 3f
       0.0 0.42768762 0.53974795 0.784079
000120 00 00 00 00 83 12 dc 3e 6c d8 0c 3f 51 45 4f 3f
       0.0 0.42982873 0.55017734 0.80965143
000130 00 00 00 00 cf fa d6 3e 62 e3 0b 3f 0c 0c 4b 3f
       0.0 0.41988227 0.54643834 0.7931526
000140 00 00 00 00 56 d0 d6 3e 3e 6c 0f 3f 9d 0a 51 3f
       0.0 0.41955823 0.5602454 0.8165682

network_body.observation_encoder.processors.2.normalizer.running_mean f4 [37]
000000 c8 dd 6f 3e 13 82 6d 41 b0 bd 5d c1 29 78 8d b0
       0.23424447 14.844256 -13.85881 -1.0293252e-09
000010 b8 59 04 3f b4 b3 a0 b0 9b 55 80 3f f4 dc 28 38
       0.516994 -1.1692607e-09 1.0026125 4.02601e-05
000020 15 36 e5 bf dc 28 35 30 a0 77 05 3f 9c 5d 83 b0
       -1.790713 6.590548e-10 0.5213566 -9.55811e-10
000030 d6 bb 61 3f b8 b7 69 3f 0d 13 85 3e 9c d3 05 3f
       0.8817724 0.9129596 0.25991097 0.52276015
000040 00 00 00 00 47 76 3d 3f 00 00 00 00 1e cd 2c 3c
       0.0 0.740086 0.0 0.010546951
000050 00 00 00 00 5d f3 a4 bc 13 fb bc 3c 27 6c a1 36
       0.0 -0.020135576 0.02306894 4.8107645e-06
000060 38 3a 49 bd 85 93 f9 3e ee d9 fa 3e cc 92 02 3f
       -0.049127787 0.4874536 0.48994392 0.51005244
000070 dd db fd 3e dc 11 01 3f 8c dd 3f 3d 8b 57 c2 3e
       0.49581805 0.50417876 0.046842143 0.37957415
000080 c9 e7 2e 3f e1 2f b8 bd 13 82 6d 41 88 ec e7 41
       0.68322426 -0.08993507 14.844256 28.990494
000090 ee ce ff 3e
       0.49962562

network_body._body_endoder.seq_layers.0.weight f4 [256, 121]
000000 28 45 b4 bc f4 5a 3e 3e db 76 a8 bd 8e 4a 04 be
       -0.022005633 0.18589383 -0.08225795 -0.12919065
000010 6d 64 06 bd 2d 34 58 bd eb cd 39 3a 7e 43 ca bd
       -0.032810617 -0.052784134 0.0007087874 -0.09876154
000020 88 53 b4 3c ae 29 1f bd 80 ac 7b bc 7d f9 17 be
       0.022012487 -0.03885811 -0.015360951 -0.14841266
000030 1f c1 1a bd 11 76 1a 3c c8 34 a3 bd ab fe 0b be
       -0.03778183 0.009427563 -0.079690516 -0.13671367
000040 0c 96 99 bd a4 ca f2 3d 53 24 8c 3c 1e b2 aa 3d
       -0.07499322 0.11855057 0.017107164 0.083347544
000050 af 92 04 bd 03 3e 12 be e1 8b f9 bb 14 e9 71 bd
       -0.03236645 -0.14281468 -0.007615552 -0.05906017
000060 3e 47 73 3d 8a c4 25 bc a2 80 e5 3b db d4 13 3e
       0.059394114 -0.010117659 0.0070038596 0.14436667
000070 16 da 48 3d 46 b1 c4 3d fc bf 04 3d ad f5 b4 bd
       0.049036108 0.09604125 0.032409653 -0.088359214
000080 f8 a1 76 bc 97 22 db 3c c7 55 3f bd 78 8e f4 bc
       -0.015053265 0.026749892 -0.046712663 -0.02985309
000090 fa cb ab bd 74 54 d2 bd 51 84 d2 3d 00 e8 c3 3c
       -0.08388515 -0.102700144 0.102791436 0.023914337
0000a0 7b 9f 43 3d 39 95 a9 bd 68 e9 95 3c cd a0 44 3d
       0.047759514 -0.08280415 0.018299773 0.048004914
0000b0 e0 26 ee 3c 29 4e d6 3d a1 4c 15 bd 87 db c0 bd
       0.029071271 0.104641266 -0.036450032 -0.094168715
0000c0 93 e1 a9 bc b8 20 ca bd d9 06 8d bd 6f 16 74 3d
       -0.020737445 -0.09869522 -0.06886072 0.059591707
0000d0 ca f8 87 bc 71 ad 63 3e ad 64 73 3d 54 ac 4c bc
       -0.016598124 0.22234131 0.059422184 -0.012492258
0000e0 0c 04 62 3d 4f 11 05 be a2 7c a0 3d a2 59 c7 bd
       0.05517964 -0.12994884 0.07836272 -0.09733893
0000f0 13 e6 d9 b9 aa 9f 9c 3d c5 a8 e1 bc 28 84 4f bd
       -0.00041560884 0.07647641 -0.027546296 -0.050663143
000100 f5 e8 d8 3d 51 7c 55 bd a0 1d 5f bd 5f 20 84 bc
       0.10591308 -0.05212051 -0.054471612 -0.016128717
000110 e5 93 f2 bc 9f 52 19 bc 6f e0 f2 bd fb 05 06 3e
       -0.029611537 -0.009358077 -0.118592136 0.13088219
000120 df ef 2c 3d f4 38 84 3d 1e 99 e7 3d 81 c3 36 bc
       0.042220946 0.064561754 0.11308502 -0.01115501
000130 19 11 53 bd 6a 58 db 3d 51 ac d9 3d d9 61 56 be
       -0.051529977 0.10710223 0.1062857 -0.20935763
000140 30 d8 45 3c 2c 4f ba bd cc 44 91 bd b3 b8 2c bd
       0.012075469 -0.09097132 -0.070932 -0.04216833
000150 ba 47 fd bc ad b8 17 3e c2 cb 07 3e 3f 44 60 3b
       -0.030917991 0.14816542 0.13261321 0.0034220365
000160 1f 80 e4 3d b1 e2 e6 bd 75 fd 5d 3d 41 46 7f bd
       0.1115725 -0.11273707 0.054196794 -0.06232286
000170 6a 39 65 bd 86 52 fd ba 1e fd 20 bd 2d f8 51 bd
       -0.055962957 -0.0019326962 -0.03930389 -0.05126207
000180 56 8b ce bd b8 95 93 3d 43 89 9b bd e1 da fa bd
       -0.1008517 0.07206291 -0.0759454 -0.12248779
000190 f5 dd d4 bc ef e3 99 3d 70 dc 98 bd 28 87 81 3c
       -0.025984744 0.07514178 -0.0746392 0.015811518
0001a0 c5 2b d9 bc cb 4a a2 3d ec 2b 6a 3d 59 57 36 bc
       -0.026510129 0.07924422 0.057170793 -0.011129224
0001b0 73 58 ad bd 1a f8 cf 3d 87 c8 70 bc 4a 5f 14 bd
       -0.08464136 0.101547435 -0.014696247 -0.036223687
0001c0 72 08 ee 3d c8 39 ea 3d e0 63 e6 bd 5c 60 30 3d
       0.116227046 0.11436802 -0.112495184 0.043060645
0001d0 16 81 35 bd e2 f1 ed 3a 41 63 d3 3c 45 e9 ab 3d
       -0.04431256 0.0018153752 0.025804164 0.08394102
0001e0 70 50 83 bd c7 48 94 3d 3c 0b ec bd 62 b1 b3 bb
       -0.064118266 0.07240444 -0.1152558 -0.005483792
0001f0 2e 95 fe bc 50 8e 9a 3c 06 89 63 3d b7 1a 09 be
       -0.031076994 0.018866688 0.055550598 -0.13389097
000200 22 55 01 be 92 97 4c bb 1c be 29 3d e4 15 8b 3a
       -0.12630132 -0.0031218273 0.041441068 0.0010611382
000210 e1 37 47 be 69 98 68 3d 77 07 37 be b0 c0 c3 bc
       -0.1945491 0.056785975 -0.17873941 -0.023895591
000220 90 3c 3f 3d a8 1e 41 bd 95 37 d3 3c 19 29 6d 3d
       0.046688616 -0.047148377 0.02578334 0.057900522
000230 29 97 9d bc f8 82 4a 3c 97 a8 09 3e 01 60 4b bc
       -0.019237118 0.012360327 0.13443218 -0.012413026
000240 8d f1 3b 3b 0a 7b a4 bd 6e 29 52 3d f0 c4 98 bd
       0.002867791 -0.0803128 0.05130904 -0.07459438
000250 7f 34 81 bd 03 06 f3 bb 33 d3 06 bc 95 e1 06 3d
       -0.06308841 -0.007416488 -0.008229065 0.032929976
000260 b5 48 28 3e f2 7f fd 3d bb 0c a0 3c fa 21 10 bd
       0.16433986 0.12377919 0.01953732 -0.035188653
000270 85 3d 18 bc 12 06 3e bd 20 64 2d 3c 07 c7 fe bd
       -0.009292011 -0.046392508 0.010582954 -0.12440305
000280 0b 69 c0 bd 07 76 95 bd 9b 2e 94 3d 54 a5 8e 3b
       -0.09395035 -0.072979026 0.07235452 0.0043532047
000290 91 1a 98 3d 0a 98 89 3d f2 2f fa 3d 16 7e 7e bd
       0.07426942 0.06718452 0.12216176 -0.062131964
0002a0 35 76 d4 bb 1a 20 9a 3d d8 d4 91 3d 91 9e 88 bd
       -0.006483818 0.07525654 0.07120675 -0.06670869
0002b0 8a 54 81 bc d3 4a 57 3e 0d 71 0c bd 2e f3 15 3e
       -0.015787382 0.21024637 -0.0342875 0.14643547
0002c0 5f 42 c9 bc 47 c8 97 3e 3e c0 11 3e c6 19 71 3d
       -0.024567781 0.29644987 0.14233491 0.05886247
0002d0 87 a7 0d 3e c2 fc 49 be cb 06 99 bd 4a 39 c2 3b
       0.13833438 -0.19725326 -0.07471999 0.0059272395
0002e0 b0 02 1e bd 74 74 84 bd 99 74 de bd ff 41 8a 3d
       -0.03857678 -0.06467524 -0.10862083 0.06750869
0002f0 28 f6 23 3c 92 e3 ff 3c 1d 35 57 3b 12 0b 12 3b
       0.010007419 0.031236444 0.0032838054 0.002228443
000300 6b b3 c8 bd c8 62 0e bd e3 a2 8b bd 6d dd c3 3c
       -0.09799846 -0.034762174 -0.068181776 0.023909295
000310 ac 14 5e bd 99 ca 93 bd 36 8c 4f bd 5c 71 ca 3c
       -0.054218933 -0.07216377 -0.050670825 0.024712257
000320 eb 56 a3 bc c8 b5 42 be f1 50 f4 bd e2 4d cb 3b
       -0.019938907 -0.19014657 -0.11929501 0.0062043527
000330 2d e2 44 3d b0 41 09 3d 38 8e e3 3d 4b 59 3f 3d
       0.04806726 0.03350991 0.111111104 0.046716016
000340 0e 35 08 3d 77 90 12 3e da 17 b2 3d bb ca 77 3d
       0.033253722 0.14312921 0.086959556 0.060496073
000350 a0 37 2b bd c8 d6 6b 3c 01 ae 39 3e b6 b2 a5 bd
       -0.041801095 0.01439447 0.18132783 -0.08090727
000360 45 a4 c8 bd d9 42 89 bd eb d1 cb bd 0d a9 ab 3d
       -0.09796957 -0.06702203 -0.09952148 0.08381853
000370 ba 61 e7 bd 0c 70 1b be 33 ad 4c 3d e0 b3 9c bd
       -0.11297937 -0.15179461 0.049969863 -0.07651496
000380 a5 0c 32 bd 60 63 90 bd 70 03 f8 bc 3c 16 69 bd
       -0.04346909 -0.07050204 -0.030275077 -0.05690597
000390 14 fe 5e bd 8c e1 10 be ad d7 c8 bd 97 be 24 bd
       -0.054441527 -0.1414854 -0.09806762 -0.040220823
0003a0 0f 9b a5 3d ba f0 00 bd 37 a2 f3 bb ea 78 b4 bc
       0.08086216 -0.031479575 -0.007435109 -0.022030313
0003b0 ac cb 04 3c 07 36 1b 3c 08 e9 76 3d 6a 47 66 be
       0.0081052 0.00947333 0.06028083 -0.2248818
0003c0 a0 c4 a3 3d 58 39 ae bd e3 f2 e0 bd bd 53 ff 3b
       0.079964876 -0.08507031 -0.10983827 0.007791965
0003d0 cf 79 1e bc 3a 4a 64 bc eb 34 89 3d a5 4d db 3d
       -0.009672596 -0.013933713 0.066995464 0.10708169
0003e0 19 73 76 3d 33 e9 ba bd 05 74 1e be 1b dc 37 bd
       0.06016836 -0.091265105 -0.15473945 -0.044887643
0003f0 04 3b 35 be ae 30 bd bd 05 65 a6 bc 64 9c 16 be
       -0.17698294 -0.092378005 -0.020311842 -0.14708096

network_body._body_endoder.seq_layers.0.bias f4 [256]
000000 e2 4e 96 3c b4 02 6f 3c db ff 02 bc b8 c6 d4 b9
       0.018348161 0.014588047 -0.007995571 -0.00040583848
000010 c7 92 99 3c d8 e3 9d 3c ac 02 91 bb 05 72 39 3c
       0.018746747 0.019273683 -0.0044253673 0.011318688
000020 08 ee ea 3c 6b b6 93 3c 83 b6 40 3c d8 c9 bc ba
       0.028677955 0.01803132 0.011762264 -0.0014403416
000030 72 07 2a 3b 05 72 e9 3c 1e c6 ba 3b 1f 70 bb 3c
       0.002594438 0.028496752 0.005699887 0.022880612
000040 4a ac e3 3c e8 58 86 3c 17 36 b1 3c d8 24 9c 3b
       0.027792115 0.016399816 0.021632237 0.0047651343
000050 9d ad 66 3c 7c 3e d6 3c 7e a9 87 3c 02 f9 85 3c
       0.014079479 0.026152842 0.016560312 0.016354088
000060 63 87 6f 3b ff 78 ce 3c 72 1d 4a 3b b5 61 b7 3c
       0.0036549203 0.02520418 0.0030840305 0.022385458
000070 37 67 c9 3c 4b 98 09 3b 11 8a 8a 3c ce a6 eb 3b
       0.02458535 0.0020995315 0.016911538 0.0071915155
000080 68 8a fb 3c 08 88 7a bc 84 9f 4a 3c a3 1e de 3c
       0.030705646 -0.015291221 0.012367133 0.027114218
000090 d3 44 00 3d f9 84 95 bb fa 1b d9 39 b4 6f cf 3b
       0.031315636 -0.0045629707 0.0004141031 0.0063304547
0000a0 7d ad e2 3c a4 6b c8 3c 5d 58 c3 3c d0 77 19 3d
       0.027670616 0.02446539 0.023845846 0.037467778
0000b0 49 13 e2 3c be dc f2 3c 2d 3b e6 3c e1 9e 21 3c
       0.027597087 0.029646274 0.02810439 0.00986454
0000c0 85 de 37 3c b1 32 99 3c cb 5f 88 bc 50 73 9a 3c
       0.011222486 0.01870093 -0.01664724 0.018853813
0000d0 d2 cd 0d 3b 8b 0b 22 3d 97 5d d0 3c 25 6b fa 3b
       0.002163757 0.03956179 0.025435252 0.007642167
0000e0 4b d6 e1 3b 32 12 58 3c 4e 2e 71 bb 43 26 96 3c
       0.006892001 0.013187932 -0.0036801281 0.018328791
0000f0 57 88 d5 3c f3 75 d7 3c b6 47 8d bb 33 ca a2 bc
       0.026065988 0.02630136 -0.004311527 -0.019871807
000100 70 8a f4 3c 37 7b 89 3c 46 7b af 3c ef d1 81 3c
       0.029851168 0.016782386 0.021421086 0.015847174
000110 92 fc 7b 3c d0 cd 42 3c 16 2d 68 3c 23 2f ab 3c
       0.015380042 0.01188989 0.014170906 0.0208965
000120 f6 ef 07 3c c8 50 e0 3c ee 7f 59 3c 20 af f4 3c
       0.008296957 0.02738227 0.01327513 0.029868662
000130 3f 7d 86 3c dd e5 4c 3c a7 ba 22 3c 85 fa 50 3c
       0.016417144 0.012505976 0.009932197 0.012755041
000140 96 3a ac 3c 00 bb 18 3d ee 79 27 3c a4 7b 84 b9
       0.02102403 0.037287712 0.010221941 -0.0002526912
000150 b4 7e e8 3b 38 f8 c4 3c f8 c3 ac bb 4e 3b 89 3c
       0.0070951823 0.024044141 -0.0052723847 0.016751911
000160 00 19 9a 3b ff 52 b0 3c fd c1 94 ba 34 15 60 3c
       0.0047026873 0.02152395 -0.0011349317 0.01367693
000170 ff 2f 37 bb 20 1b 6a 3a 5d 91 2e 3c 60 30 82 3b
       -0.0027952192 0.00089304335 0.0106547745 0.003973052
000180 5a 27 b3 3c 3e 56 a5 3c 27 2f 79 3c 5e 2b 65 3c
       0.02186935 0.020182725 0.015208996 0.01398739
000190 dc bc 45 3a 86 f6 8a 3c 90 fd 6d 3c b1 3c b3 3c
       0.0007543096 0.016963255 0.014525786 0.021879526
0001a0 b6 d4 5d 3c ea 00 43 3c 94 b6 99 3c 25 21 9e 3a
       0.013539484 0.011902073 0.018763818 0.0012064321
0001b0 9b 92 68 3c aa c9 ba 3c ba 2a 55 3c 4b 24 7a 3c
       0.01419511 0.022801239 0.013010675 0.015267442
0001c0 e6 02 9f 3c 4f 29 87 3b 5c c6 1e bc 69 41 ba 3b
       0.019410562 0.0041247974 -0.009690847 0.005684067
0001d0 5d 3f 30 3c e0 7d 75 3b e0 e7 bd 3c 03 07 c2 3b
       0.0107572945 0.003745906 0.023181856 0.005921246
0001e0 1d d6 4c 3c 86 ec e2 3c 2c bc e7 3c de 3f 65 3b
       0.01250222 0.027700674 0.02828797 0.0034980695
0001f0 fa e5 e7 3b e3 ba cc 3c 5c ed ae 3c 5a a3 7f 3b
       0.007076976 0.024991458 0.021353416 0.0039007277
000200 8e 88 48 3c 03 47 c7 bc 5f e8 d1 3c 95 c5 bf 3c
       0.012239588 -0.024325853 0.025623498 0.023409644
000210 ee dd 7f 3c 47 00 a0 3c 9e 08 a3 3a 9a 3e cf 3b
       0.015616877 0.019531382 0.0012438481 0.0063246014
000220 8b 66 de 3b 55 17 bd 3c 71 8b 0c 3c 0a 9c ba 3a
       0.0067871264 0.023082415 0.008578167 0.0014237177
000230 b4 e5 28 3c 1e b9 fa 3b f7 fe 3a 3c 28 9e 63 bb
       0.010308672 0.007651462 0.011413327 -0.003473172
000240 1a c2 ed 3b 4f de 13 3c 7c 1a 1e 3c e3 e7 8c bc
       0.0072558047 0.0090251705 0.009649869 -0.017200416
000250 1a bc 97 3c 9d e9 2f 3b 4b 0d 9c 3c 76 5b 9a 3b
       0.018522311 0.0026842125 0.019049307 0.00471061
000260 74 e8 04 3c c4 04 75 3c fa ab 8d 3b f2 df 01 bc
       0.008112062 0.0149547495 0.0043234797 -0.007926928
000270 87 05 b7 3c 64 44 d9 3c 50 55 f9 3b 73 52 df 3c
       0.022341503 0.026521869 0.007609047 0.027260995
000280 56 4c bf bb 4f 3e 40 3c e3 b2 04 3d b3 7e 0e 3c
       -0.0058379574 0.0117336055 0.032397162 0.0086972
000290 34 36 8b 3c 64 0c ac b8 70 3f f8 3c d3 87 ec 3b
       0.01699362 -8.203907e-05 0.030303687 0.00721834
0002a0 fb f8 89 3b 6c b0 9e 3c 91 57 8c ba 95 86 37 3c
       0.004210589 0.019371234 -0.0010707249 0.01120152
0002b0 6f 8e f9 ba d1 d4 db 3c 7f 7f ce 3c 6e c6 85 bb
       -0.0019039641 0.026834877 0.02520728 -0.0040824926
0002c0 e7 d9 6a 3c 73 9f c3 3c aa ce 19 3c f0 ea 86 3c
       0.0143341785 0.023879742 0.009387651 0.016469449
0002d0 92 db f0 3b c4 a1 71 3c 9b af ae 3c 11 86 c6 3c
       0.0073503936 0.014748041 0.02132397 0.02423385
0002e0 9b 2d 21 3c a5 1e 75 3c e1 31 e5 3c 6e e0 76 3b
       0.009837533 0.0149609195 0.027977886 0.0037670392
0002f0 16 ed 0a 3d 90 e0 99 3c 3c 2d 88 3c d8 64 30 3c
       0.03391751 0.018783838 0.016623132 0.0107662305
000300 7c fe 5c 3c f1 10 8e 3c da c5 3a bb 29 4f 8c 3c
       0.013488408 0.017342063 -0.0028499276 0.01712759
000310 4d 80 09 3d 3a 07 32 bc af 60 ec 3b d7 a4 e6 3b
       0.033569623 -0.010865981 0.007213674 0.0070386934
000320 44 c8 c5 3c e3 18 12 3d 10 b5 9e bb 22 5b 59 3c
       0.024143346 0.035668265 -0.0048433617 0.013266357
000330 5a 2b 7f 37 e3 f7 43 3b 9a f3 1c bb c8 7f ca 3c
       1.5209278e-05 0.002990239 -0.0023948909 0.024719134
000340 ff 98 94 3c da 08 c6 39 9b 63 8b 3c a5 30 ba 3a
       0.01813936 0.00037772098 0.017015269 0.0014205171
000350 50 bf 98 3c 7a 38 5b 3c c8 1d 57 bc 9f 90 18 3a
       0.018645912 0.013380164 -0.013129659 0.000581989
000360 6d ce dd 3c c9 c3 28 3c 32 ec 1b 3b 69 ee 5f 3c
       0.02707597 0.010300585 0.0023791906 0.013667681
000370 15 a4 09 3c 5f 92 a3 3c ee 0c e9 bb 8b 61 0d 3a
       0.008400937 0.019967256 -0.007112137 0.0005393258
000380 1a cf a3 3c 85 35 db 3c 77 bb 4e 3c 35 c4 0d 3c
       0.019996215 0.026758919 0.012617937 0.008652736
000390 af c2 83 3b 02 5c ac 3c 8f af b2 3c f6 23 37 bc
       0.004021011 0.021039966 0.021812228 -0.011178007
0003a0 e5 84 0d 3d 3a 9e 80 3c d3 db 8a 3c 91 04 9d 3a
       0.034550566 0.015700448 0.016950523 0.001197951
0003b0 ea 34 6d 3b b8 d4 54 3c 6e 5e 15 bc 2e 36 27 3c
       0.003619487 0.012990169 -0.009116752 0.010205789
0003c0 1c 67 21 3a db 10 15 bc fb ec bd 3b 38 6a 2f 3c
       0.0006157027 -0.009098257 0.0057960725 0.010706477
0003d0 c3 47 41 bc 1d ef b4 3c 59 cd ef 3c 41 b7 a6 3c
       -0.0117968945 0.022086674 0.029272722 0.020351054
0003e0 de 5f d3 3c fc 53 87 3c bd 9f be 3c f8 41 20 3d
       0.025802549 0.016519539 0.023269529 0.039125413
0003f0 c7 5f a1 bb 56 4f a6 3b 8a 24 07 3d 0d 96 a7 3c
       -0.0049247476 0.0050753755 0.03299383 0.020457292

network_body._body_endoder.seq_layers.2.weight f4 [256, 256]
000000 f9 14 95 bc 68 08 0a 3c 9b 77 46 bd 02 ae 19 3d
       -0.018198477 0.008424856 -0.04845391 0.037519462
000010 d4 7f 41 3d f0 fd c4 bc 2f 3d 33 bd 66 bd b1 3d
       0.047241047 -0.024046868 -0.04375952 0.08678703
000020 b0 a4 d9 3d 9a 9e 43 3d 5e e1 b3 3b 0c 44 9b 3d
       0.10627115 0.047758676 0.0054895123 0.07581338
000030 ac a7 4c 3d e8 d3 b5 3c d4 fd a8 3b 84 44 0c bd
       0.04996459 0.022195771 0.005157212 -0.03424503
000040 25 9c 86 bd 6a 54 a4 3d 90 d7 19 bc f9 71 d8 bd
       -0.06572751 0.08023913 -0.009389773 -0.105686136
000050 62 e9 64 3c f7 a3 ac bd 62 e4 57 3c 0d d3 6e bd
       0.013971658 -0.08429711 0.013177009 -0.058306742
000060 6a d9 4c bd 04 57 86 bd 8e 65 b4 bc f8 a6 6b bd
       -0.05001203 -0.06559566 -0.022021081 -0.05753228
000070 a3 55 f6 3c a3 f0 14 bd d4 a6 1d 3d 5e 23 82 bd
       0.030070132 -0.0363623 0.038489178 -0.06354402
000080 0b a9 dd 3c e5 81 bb 3d 8d 4d db bc c4 b7 98 3c
       0.027058145 0.09155635 -0.026770378 0.018642314
000090 cc 15 28 be 62 0e 95 3b fc 82 d5 3d 3c 45 7c bd
       -0.16414565 0.0045488337 0.10425374 -0.061589465
0000a0 e1 4f f2 3c 89 33 cb 3d 2b 5b d3 3c eb 7a a2 bd
       0.029579105 0.09921939 0.025800308 -0.07933601
0000b0 ee 8a eb bb 24 93 2f 3b 68 bd 2b bc a4 20 ea bd
       -0.0071881926 0.0026790584 -0.01048217 -0.11432007
0000c0 66 b7 d4 bd 9f db 32 bd a1 a4 1a 3d 17 c1 e0 bc
       -0.10386543 -0.04366648 0.03775466 -0.027435822
0000d0 3e bc 36 bd e7 e1 d9 bd 3e ec de bd ad db 6e bc
       -0.044613115 -0.106387906 -0.10884903 -0.014578742
0000e0 15 20 2c bd b8 5a c2 bc 10 72 94 bc ff 45 0c bc
       -0.042022783 -0.023724899 -0.018120795 -0.00856161
0000f0 bf 17 ae 3d 26 90 08 3e bc b4 b8 bd 17 43 6d bd
       0.08500623 0.13336238 -0.09018847 -0.05792531
000100 e3 90 90 3d ff 92 34 3c 40 7e 1c be e9 da db bc
       0.07058885 0.011021375 -0.15282536 -0.026837783
000110 c7 82 1c bd 55 69 7d bd 0e f2 33 3d 3f 6e 16 3e
       -0.038210656 -0.06186803 0.043932013 0.14690493
000120 8f 2b 20 3d cd 7d 98 bd e3 cf 18 3e 84 ee 8e 3c
       0.03910404 -0.074458696 0.14923052 0.017447717
000130 a1 63 55 3d 1b ea 5a 3d dc 0e 18 bd ce 3b 0e 3b
       0.052096967 0.053445917 -0.037123546 0.0021703127
000140 4a b2 f2 bd 81 4c 69 bc 94 59 55 bd 31 b9 52 bd
       -0.11850412 -0.014239431 -0.05208738 -0.051446144
000150 15 90 5e bd e5 65 cc 3c ba c7 1b bd e1 f5 a2 bc
       -0.054336626 0.02495093 -0.03803227 -0.019892635
000160 95 e8 36 3b 42 2d c3 ba 04 85 b1 3c d8 a4 2f 3d
       0.0027909626 -0.0014890807 0.021669872 0.042881817
000170 d8 66 33 bd 7c 53 88 3d f8 e3 fd bc 69 59 79 bd
       -0.04379925 0.066565484 -0.030992493 -0.060876284
000180 34 99 9b 3c 6a aa ac bd 1e 6f a2 bd 1c ff 18 3d
       0.018993951 -0.084309414 -0.0793135 0.037352666
000190 2a 24 da b8 99 a9 12 bd c7 60 95 3d 44 31 07 bc
       -0.00010401786 -0.035806272 0.072938494 -0.008251492
0001a0 7b 81 58 bd 3a dc 68 bd 45 8d 34 be d7 29 f8 bd
       -0.052857857 -0.05685065 -0.17632015 -0.12117355
0001b0 f4 26 dd 3d d2 56 f9 bc 81 31 c6 bc 92 af 86 bd
       0.10798445 -0.030436907 -0.024193527 -0.06576456
0001c0 c9 db 7f bc 69 1c cb ba 8b 25 87 bc 92 09 93 3c
       -0.015616366 -0.0015496138 -0.016497394 0.0179489
0001d0 8b dd 86 bd ec b5 a9 3d eb ae 3c be ce 55 b7 3d
       -0.06585225 0.08286652 -0.18426101 0.08951913
0001e0 66 15 df bc 64 c9 19 3a 82 7f 26 3d 9a 56 70 3c
       -0.027231883 0.00058664964 0.040648945 0.014669085
0001f0 59 0e 23 bd 5e b8 08 be 78 fb 50 3d 38 54 9e 3d
       -0.039808605 -0.1335158 0.05102107 0.07730907
000200 6b 99 75 3d 21 89 8f bc 00 b2 30 bd ee 0b 56 3d
       0.059960764 -0.017521443 -0.043138504 0.05225747
000210 9c 23 80 3d f4 22 df 3d 00 e8 a9 39 0c 9e ac 3d
       0.06256792 0.10895339 0.00032407045 0.084285825
000220 29 2f d8 bc ac df 54 bd 10 6e b0 3d 7c 9b c7 bc
       -0.026389675 -0.051971123 0.08614743 -0.024366133
000230 4a 27 b3 3d c2 1e d6 bc 0e 1a 8d 3d 74 ef b1 bc
       0.08747728 -0.026137713 0.06889735 -0.021720625
000240 a7 e8 57 3d 8b ee 5a 3c 42 10 55 bd 0f 4c 07 3e
       0.05271211 0.013362537 -0.052017458 0.13212608
000250 a5 db 05 3d 48 88 12 bd 79 32 23 3d 03 c7 58 ba
       0.032680172 -0.0357745 0.039843056 -0.0008269401
000260 86 5a 61 bd ab 26 20 3d d3 e6 da 3d 10 31 2a bd
       -0.05501797 0.039099377 0.106885575 -0.041550696
000270 21 76 f0 3d 07 df 81 bc 24 d7 82 3c d0 20 db 3d
       0.11741281 -0.015853418 0.015971728 0.10699618
000280 da 21 4b 3d 83 80 49 3c 9b db e0 3a 4e 6c d3 3c
       0.04959283 0.012298706 0.0017155291 0.02580848
000290 3a 2f d5 bd c3 9f f0 bd 01 30 bb 3d 0b c8 00 3d
       -0.104093984 -0.11749222 0.091400154 0.031440776
0002a0 f8 9e 9a 3c d3 8b 5b be 76 58 c6 3d 8b c8 93 bd
       0.01887463 -0.21440057 0.09684841 -0.07215985
0002b0 bd cc e9 bc f0 67 77 bc a5 d3 23 bd 3f 4b 04 bd
       -0.02854001 -0.015100464 -0.03999676 -0.032298323
0002c0 8f 9a 22 bc d8 0f 02 bb be dc cd bd ac 9d 05 bd
       -0.009924545 -0.001984587 -0.10051869 -0.03262107
0002d0 18 35 bb 39 c2 ec c2 3d a9 4a e5 3c 3b b8 6a bd
       0.00035706977 0.09517814 0.027989702 -0.057304602
0002e0 84 be 0c be 83 f2 93 bd fa 51 cd bd 10 5b c2 bd
       -0.13744551 -0.0722399 -0.100254014 -0.09490025
0002f0 e2 5f 88 3d 89 0d ef bc 8e 76 87 bc f8 00 fa bd
       0.06658913 -0.029181259 -0.016536023 -0.12207216
000300 7d 68 c8 3d d1 aa f5 3d 41 f5 36 bd 70 72 6b 3d
       0.097855546 0.11995471 -0.044667486 0.057482183
000310 4c 70 17 3d d5 13 6c bd 45 e1 95 bc cb 87 84 3d
       0.03697233 -0.0576361 -0.018295893 0.06471213
000320 c5 39 be bb f9 ca 2b bd 6e be 06 3e 9a 81 f0 bb
       -0.0058052265 -0.041941617 0.1315858 -0.0073396685
000330 72 72 d0 bb 21 77 8c ba 5d 72 e4 bc 12 a5 bd 3d
       -0.006361299 -0.0010716656 -0.027886564 0.0926
000340 0a 22 9f 3d 92 d6 bb 3c 39 90 39 3d ab 81 11 bd
       0.07770164 0.022929464 0.045303557 -0.03552405
000350 04 0a 7c bb d0 bf 8d 3d 8b 2c 81 bc 04 90 e4 3d
       -0.0038458118 0.06921351 -0.01576831 0.11160281
000360 d7 23 ca 3d 9a 6d 2c ba f1 87 57 3d e6 01 56 3d
       0.09870117 -0.0006577611 0.05261988 0.052247904
000370 60 50 c1 3d 7e 4d ac 3d bb 5e 0b 3c f0 b0 b0 3c
       0.094391584 0.08413218 0.008506472 0.021568745
000380 fc cc 3e 3d d0 03 c6 ba e1 59 c5 3d dd 8f 70 3d
       0.046582207 -0.0015107337 0.09636284 0.05873095
000390 56 27 25 3d 05 de 70 3d 56 0b fc ba a4 96 5f 3d
       0.040320717 0.058805484 -0.0019229453 0.05458702
0003a0 08 fa be 3d cf 86 a0 38 71 f3 06 3d ed c0 83 b9
       0.093250334 7.6545046e-05 0.032947008 -0.00025130008
0003b0 7d 78 63 3d 5f 2a 07 3d 20 19 70 bd 69 7b 9a 3b
       0.05553483 0.032999393 -0.05861771 0.0047144187
0003c0 6d 73 56 3d 39 57 08 bd 96 f4 2b 3c 2f 27 08 bd
       0.052356172 -0.033286307 0.010495326 -0.033240493
0003d0 e2 5e 60 3d 81 29 d4 3d ce 4f f7 3b a5 17 cd 3d
       0.054777987 0.10359479 0.0075473553 0.100142755
0003e0 c7 21 2b 3d 25 ce 9d 3c 9c 09 f2 bc 39 bd 07 bd
       0.04178026 0.019263336 -0.029545598 -0.03313944
0003f0 b4 d1 ce 3c 31 32 ca bd ba 9b 50 bc 93 eb 4c bc
       0.025246479 -0.098728545 -0.012732441 -0.012507337

network_body._body_endoder.seq_layers.2.bias f4 [256]
000000 7d 68 88 3b 15 11 96 3b b2 ac 96 3b f1 36 70 3b
       0.0041628466 0.004579673 0.0045982236 0.0036653841
000010 0f 9b c7 3c 24 07 bf 3c 97 a6 7d 3b c1 94 db 3b
       0.02436593 0.023318835 0.0038704032 0.0067010825
000020 e9 24 8e 3c 69 38 39 3c 62 7e b1 3c 05 53 12 3d
       0.017351585 0.011304953 0.02166671 0.035723705
000030 3d e6 0f 3c d3 3f 43 3c c4 5a 42 3c 0c 37 09 3d
       0.00878292 0.011917072 0.0118624605 0.033499762
000040 6a 5c d7 bb aa 4d b4 3c 3d be 0c ba 8e 42 e2 3c
       -0.006572296 0.02200969 -0.0005368924 0.027619626
000050 17 cf 12 3c a0 8f a4 3c cb 5c 18 bc a5 69 0b bc
       0.008960507 0.020088017 -0.009299467 -0.008509074
000060 8a 81 0c 3c d5 cf 44 bc ff e9 4c 3c 91 bc 5c 3c
       0.008575806 -0.012012442 0.012506961 0.013472692
000070 e9 d1 91 bc b9 55 c7 3c 8b 83 66 3c fe ef 6c 3c
       -0.017800288 0.024332868 0.014069448 0.0144615155
000080 7a ea 4c 3c 75 dc d3 3b 68 48 9a bc 18 60 f2 3b
       0.012507075 0.0064654895 -0.018833354 0.007396709
000090 8f f0 c5 3c 8f 39 68 3b 49 59 d9 3c d1 13 95 3c
       0.024162559 0.0035434698 0.026531832 0.018197926
0000a0 b1 e9 0f 3d 26 82 b9 bc 98 36 63 3b 3d e8 d2 3b
       0.035134975 -0.022645067 0.0034669992 0.0064363764
0000b0 0e f1 7f 3c 8c 8f b1 3c 1f c8 52 3c 54 5c 61 bc
       0.015621437 0.021674894 0.012865095 -0.013754923
0000c0 9f dc c0 3b 1a 9c 13 3c 73 57 c6 bb 06 27 45 bb
       0.005885675 0.0090093855 -0.006052905 -0.0030083074
0000d0 be a2 a0 3c 6e ca 87 3c 04 4e a1 3b 48 58 86 bc
       0.019608852 0.016576018 0.0049226303 -0.016399518
0000e0 c6 d0 d8 3b 8b 7c 43 3b 5a 29 0b ba 20 cf 8f 3c
       0.0066166846 0.0029828872 -0.0005308591 0.01755482
0000f0 2e cc 3a 3c e9 a9 f8 3b be 39 ae bc 78 c2 7d 3c
       0.011401219 0.0075886142 -0.021267768 0.0154882595
000100 b3 ab 97 bb 51 82 db 3b 90 6a 06 3d 28 ec a4 ba
       -0.0046286224 0.0066988845 0.03281647 -0.0012582587
000110 c0 80 09 3c 92 89 b4 3c 67 d1 0e 3c 1c 6e 0a bc
       0.008392513 0.022038255 0.008716918 -0.008449104
000120 bf 5f a0 bb 16 a5 b1 3c c0 0f 42 3c d7 a1 aa 3b
       -0.0048942263 0.021685164 0.011844575 0.005207281
000130 a4 bd a0 3c 14 75 ca ba eb 77 c1 3c 72 f6 bb 3c
       0.019621678 -0.0015446269 0.023616752 0.022944663
000140 5a 79 88 3c db ee 9d 3c ee d1 a4 3c 1d 14 0b 3c
       0.016659427 0.019278934 0.020119634 0.008488682
000150 5f 75 ab 3c 3b d5 48 bc 4f 6b 98 bb bf e1 1f bc
       0.02092999 -0.012257869 -0.004651464 -0.009758412
000160 d6 ec 7b 3c b2 32 0e bb bc ac a6 3c d5 d9 9c 39
       0.01537629 -0.0021697697 0.020346038 0.00029916936
000170 61 65 73 3a f4 03 e0 3c 63 51 84 3b e9 84 19 bc
       0.0009284821 0.027345635 0.0040380224 -0.009370067
000180 a9 6b 25 3b bb 1d 84 bc 7f fc 8b 3b da 61 80 3c
       0.0025241172 -0.016127458 0.0042720432 0.01567166
000190 dc 15 90 bc 89 c2 8f 3c ea 56 d4 3c 1c e4 d6 3c
       -0.017588548 0.017548816 0.02592035 0.026231818
0001a0 df 5d 91 3c 64 84 de 3c ee 18 da 3c f6 e8 46 bc
       0.017744957 0.027162738 0.026623216 -0.012140503
0001b0 65 eb aa 3c 8e 7a 54 3c af 7b 96 3c 2e cf 68 3c
       0.020864198 0.012968672 0.018369524 0.014209552
0001c0 53 6c ae 3b fa 60 02 3b ef 21 a2 bc 63 35 57 3c
       0.005322972 0.0019894228 -0.019791571 0.013135287
0001d0 c6 31 b4 3b 02 31 a5 3c df 25 99 3a bd d7 77 bc
       0.0054990975 0.02016497 0.001168426 -0.01512712
0001e0 4d ab ad 3c f7 c5 9a bb e5 73 94 3b 5a da 20 3c
       0.021199847 -0.0047233063 0.0045304173 0.009817684
0001f0 50 6f 89 3c d1 90 8b bb 68 35 c9 3b 44 b8 a2 3a
       0.01677671 -0.004259207 0.0061403997 0.0012414535
000200 df b5 53 bc 1f f5 a1 bc 59 d0 89 3b 99 6a 29 3c
       -0.012921779 -0.019770203 0.004205745 0.010340356
000210 bd 8c a7 3c 34 51 f7 3a 5f 08 5f 3b 9c 73 74 bc
       0.020452851 0.0018868805 0.003403209 -0.014920142
000220 b3 ae 6b 3b 7b 8c 05 3c 5c 2d 2b 3b 5b d4 c2 bc
       0.0035962283 0.008151169 0.0026119566 -0.0237829
000230 c2 00 d5 bc e4 13 6b 3c 57 df 80 b9 f2 ad 4b bb
       -0.026001338 0.014348004 -0.00024580464 -0.0031079021
000240 91 80 9b bb be 5d f8 3a 40 7f da 3c c6 24 d9 3b
       -0.004745551 0.0018948836 0.026672006 0.006626698
000250 74 dc b3 3b 0f ea 2b 3b 94 e6 9c 3c ac ea 94 3c
       0.0054889265 0.002623204 0.019152917 0.018178307
000260 ec 1c 64 3c 0c 3a 5c 3c b5 9e a4 b9 8c a5 73 3c
       0.013922911 0.013441574 -0.00031398764 0.014871012
000270 14 af 89 bc fd 7e a8 bb c9 ec e7 3b a3 d5 f0 3b
       -0.016807117 -0.0051420913 0.0070777875 0.007349686
000280 a8 d5 9c 3c 70 46 36 3c 34 a2 7b 3b 1e 2c a7 3a
       0.019144848 0.011125192 0.003839624 0.0012754237
000290 e1 54 2d bb 68 c7 4f 3c bb bf 7e 3b 76 df 3c bc
       -0.0026448297 0.0126818195 0.0038871604 -0.011527887
0002a0 b2 ea a6 3c 60 ab 45 bc 62 38 3a 3c 2b 4f a0 3b
       0.020375583 -0.012064785 0.011365982 0.00489225
0002b0 6f b6 03 bc 45 54 a0 3c 72 97 c1 3c 9c 5a b4 bc
       -0.008039101 0.019571433 0.023631785 -0.022015862
0002c0 01 20 25 bc 75 57 91 bb fb db b3 3b 4b 6c 05 3c
       -0.010078431 -0.0044354745 0.00548887 0.008143495
0002d0 36 3e 68 3b dc c7 ef 3b 29 7a 91 3c e7 e5 2f bc
       0.0035437471 0.0073175263 0.017758446 -0.010735965
0002e0 33 7c f0 3a fc 46 44 bc a5 9c 7a bb cb 3e ba 3b
       0.0018347561 -0.011979815 -0.003824034 0.005683755
0002f0 00 5b 8d bc 95 08 c1 3c 5f 9c d5 3b 33 71 dc 3c
       -0.017255306 0.023563663 0.006518885 0.026909446
000300 a3 aa 01 3c 69 3b 00 ba af c8 8b 3b 32 32 a7 bc
       0.007914218 -0.00048916653 0.0042658667 -0.020409677
000310 c3 3b 52 bc 74 69 ea bb 90 4a 08 3b 06 3d a8 bc
       -0.012831631 -0.0071536843 0.0020796396 -0.02053691
000320 f1 f7 8f bc 31 86 c1 3c 48 df 61 bb 12 0e 40 3c
       -0.017574282 0.023623558 -0.0034465361 0.011722105
000330 c0 e3 28 3c 56 95 1a bc 3f 41 88 3c 1c 9f 23 3c
       0.010308206 -0.0094350185 0.016632674 0.009986665
000340 fe a0 2b 3c 3a b7 1e 3c 3d 3b eb 3b ba 88 9f ba
       0.010475395 0.009687239 0.0071786926 -0.0012171485
000350 52 27 da 3c 4e 63 43 3c d6 50 a2 3b e0 67 e5 3c
       0.026630078 0.011925532 0.004953484 0.028003633
000360 b2 42 82 3c d0 f5 33 3c 04 f6 c3 39 da 44 c1 3c
       0.015900943 0.010983899 0.00037376594 0.023592401
000370 2c dd 4f 3c 80 a3 90 3b 54 fe 25 3d fe fd 9e 3c
       0.012687009 0.004414022 0.04052575 0.019408222
000380 9d bb 01 3d 29 1a 88 3b ca 3d 8b 3c b1 0b 30 3c
       0.031673063 0.004153509 0.016997237 0.010744975
000390 8d 3d 6b 3c 1d 3c 53 3c 15 fc 8e 3b 68 7f 83 ba
       0.014357937 0.01289275 0.0043635466 -0.0010032477
0003a0 d7 d2 fa 3b e4 36 ff bb 62 90 e0 38 99 4f 10 bc
       0.0076545286 -0.007788526 0.00010708046 -0.00880804
0003b0 8b 71 d3 3c 46 e2 9f bc 51 f6 c0 3c 90 52 16 3c
       0.025810977 -0.019517075 0.023554953 0.009174958
0003c0 63 ee 2f 3c 78 bd 97 3c 67 55 89 b9 a9 63 f9 3b
       0.010737988 0.018522963 -0.00026194306 0.0076107574
0003d0 d5 9a fe 3c 0e 50 8c bb f9 84 ec 3a 92 93 24 3c
       0.031079689 -0.004282004 0.0018045 0.010044949
0003e0 f2 96 a4 bc 74 94 d1 3c d8 fc e3 3c b8 e4 d8 3b
       -0.020091508 0.025583483 0.027830526 0.0066190623
0003f0 4f ff c0 3b e6 c2 9c 3c 0c de 25 3b 07 64 ad 3c
       0.00588981 0.019135904 0.0025309352 0.02116586

action_model._continuous_distribution.log_sigma f4 [1, 3]
000000 26 eb 95 3b 52 9f f4 bb dc 42 80 3b
       0.004575151 -0.0074652815 0.0039142203

action_model._continuous_distribution.mu.weight f4 [3, 256]
000000 63 4f 63 3c 76 b0 70 3c 1c 2f 4e bc 4b f9 b1 3b
       0.013873908 0.014690509 -0.012584474 0.0054313294
000010 0a ef 97 3b c0 f6 65 bb e5 7c 77 3b 98 70 0a 3c
       0.00463665 -0.0035089701 0.0037763652 0.008449696
000020 39 32 09 bb 77 48 17 bc a6 5c 55 bc a0 0a cb 3a
       -0.0020934476 -0.009233586 -0.013022577 0.0015490837
000030 c9 40 ee bb 09 f4 f6 3b 82 c3 af 3c 6c 08 b7 bb
       -0.0072709066 0.0075364155 0.02145553 -0.0055857208
000040 8c 13 8e bc 3a a1 21 3c 74 86 ca bb af e2 37 3c
       -0.017343305 0.0098651 -0.006180579 0.011223479
000050 41 3d 8c 3b 02 44 95 bb fe 01 8f bc 4a f0 90 3b
       0.004279763 -0.0045552263 -0.017457005 0.004423176
000060 54 e2 0e 3c 24 de be 3c 04 88 16 bc 05 29 d5 3b
       0.008720953 0.023299284 -0.009187702 0.006505134
000070 83 2e dc 3b 29 11 31 3c 8c 94 54 3b a1 17 73 bc
       0.006719412 0.010807314 0.0032437174 -0.014837177
000080 29 46 6b 3b 11 cc bf bb a7 91 f7 3b 90 ef 81 bc
       0.0035899973 -0.005853184 0.007555205 -0.015861303
000090 ee 55 3c bc 6d 1f 10 bd 30 ed b3 3b 59 76 98 bc
       -0.011495097 -0.03518622 0.0054909214 -0.01861112
0000a0 0a ba dc 3b bc 91 1b 3b 39 0c b2 3b f9 21 83 3a
       0.006736045 0.0023737988 0.005433586 0.0010004631
0000b0 00 07 fe bb 1f 27 d9 bb bd 05 13 bc 87 0f 66 bc
       -0.0077522993 -0.006626978 -0.008973536 -0.014041788
0000c0 49 32 fc bb 14 8e 3d 3c f9 9c 7a bc 59 6a 45 bb
       -0.007696424 0.011569519 -0.015296214 -0.0030123203
0000d0 d7 25 03 3c 51 80 7a bc 16 2b e2 3b 96 9e c2 3c
       0.008004627 -0.015289382 0.006902109 0.02375726
0000e0 0b a9 56 3b 83 44 47 bc 1b 69 28 3c f0 5a db 3b
       0.0032754566 -0.012162331 0.010278965 0.00669419
0000f0 ea d1 3b bc 24 b0 e5 3c ff de a7 3b 20 62 23 3c
       -0.011463622 0.028038092 0.0051230188 0.009972125
000100 d1 6d 88 3b 73 0a 19 bc 37 b5 b2 bb 11 33 e9 bc
       0.0041634818 -0.00934087 -0.0054537314 -0.028466733
000110 5e a5 11 3b 06 be 94 3b ef eb e5 bc cf 1b e9 3b
       0.002222381 0.004539254 -0.028066603 0.0071139107
000120 5f 3f c7 3c 4d 07 e1 3b d7 6a 9c bc 76 1d 0c 3c
       0.02432221 0.0068673254 -0.019093914 0.008551946
000130 3c 6a 69 3c 8a c8 f2 3c 66 88 71 3b f3 e3 87 ba
       0.01424652 0.02963664 0.0036854981 -0.0010367617
000140 2d 8a 17 bc 58 5a 98 bb 83 2f 03 3b 5e 17 8b bb
       -0.009249252 -0.0046494417 0.0020017333 -0.004244729
000150 4a b3 72 bc 0b 2f 75 ba 01 52 74 3b 61 ef 34 3c
       -0.014813254 -0.0009353018 0.0037280323 0.0110434005
000160 82 97 bf bc 33 c1 06 bc 3a 7a e1 3a 21 04 61 bc
       -0.023387674 -0.008224773 0.0017202564 -0.013733895
000170 06 bb 76 bb 52 50 72 3a 08 41 90 bc ec f6 20 3c
       -0.0037648096 0.0009243536 -0.017609134 0.009824496
000180 41 06 12 3c 1f 7a 10 3c 42 9b 42 bc e6 b0 3a bb
       0.008912624 0.008818178 -0.011877837 -0.0028486787
000190 79 4b 70 3c a1 30 b6 bb b5 7b 7a 3c 41 c1 a7 3c
       0.014666432 -0.0055599962 0.015288283 0.020477893
0001a0 79 40 c8 bc 0a 1a c8 bb 48 dd a2 bb d2 c9 27 bc
       -0.024444805 -0.0061066197 -0.0049702264 -0.010240989
0001b0 96 f5 4e 3b 48 b1 3f bc 86 6e 68 3c 01 92 0a 3b
       0.0031579486 -0.011699982 0.014186507 0.0021144154
0001c0 a7 bd ee bc 5c 00 39 bc 12 cb 0c bb 64 09 93 3b
       -0.029143168 -0.01129159 -0.0021483344 0.0044872034
0001d0 95 dd 5e bc ce de 32 ba 84 1d a4 3b c7 63 ba 3b
       -0.013602634 -0.00068233616 0.0050084013 0.005688164
0001e0 87 a5 b9 3b 14 80 68 bb 53 d0 d5 3b 0d 13 86 bb
       0.0056654844 -0.003547673 0.0065250783 -0.0040916265
0001f0 7d 5d 17 bc f5 8b 8f bb 61 47 b7 3c 26 1d 2a bc
       -0.009238598 -0.004380698 0.022372903 -0.010382926
000200 06 1c 94 3c 79 71 a1 3b 53 4c 5b bc 33 10 04 3d
       0.018079769 0.004926857 -0.013384896 0.03224201
000210 cb 28 2a bc bf 26 8a 3c a6 1a 1f bc 8a 1f 87 3b
       -0.010385702 0.016864179 -0.009710943 0.004123633
000220 3a 2a 45 bc f2 e7 04 3c 47 df 0b bc 7c bc bb bb
       -0.012033993 0.008111941 -0.00853712 -0.005729256
000230 3a bb 71 bb 47 2a d5 3c ba af c7 3c 5b de 0e 3c
       -0.0036885277 0.026021136 0.024375785 0.008720006
000240 b9 d5 3b 3c 22 bb 92 3c 7f f6 a3 ba 2a 9a 90 3c
       0.01146453 0.017911498 -0.0012509375 0.017651636
000250 66 86 21 3a cc cf 77 bb bb 3e b0 bb ff 12 b3 ba
       0.00061616895 -0.0037813066 -0.005378572 -0.0013662277
000260 d2 aa b6 bb 59 c6 42 bc e5 b8 cd bc 4b 58 8a bc
       -0.0055745626 -0.01188811 -0.025112579 -0.016887804
000270 f7 40 03 3c 88 a5 b4 3c 47 7e 27 3c 43 ac 50 3c
       0.008011094 0.022051588 0.010222978 0.012736383
000280 b9 9f 91 bc b4 4a e8 bb 44 da fb 3c 91 4a 4f bc
       -0.017776357 -0.0070889834 0.030743726 -0.012652055
000290 4a 94 d3 bc cd 89 18 bd 9c 12 9c 3c 54 ad 38 39
       -0.025827546 -0.037240792 0.019051842 0.00017612177
0002a0 4d 56 19 3c f8 e3 d6 3b 03 b0 97 bc a2 9e 1f 3b
       0.009358955 0.0065579377 -0.018516546 0.0024356027
0002b0 72 b4 ca bc 4f e4 20 bc 16 93 e5 3b 71 02 ca ba
       -0.024744246 -0.009820058 0.0070060594 -0.0015412105
0002c0 0e 8c 87 3b 13 97 b4 bc 03 6f 7b bc be 09 41 3c
       0.004136569 -0.022044694 -0.0153462915 0.011782108
0002d0 94 d4 a8 3c d4 20 94 3c 0e da 2c 3c 8e e3 fa bb
       0.020609178 0.01808206 0.010550035 -0.007656521
0002e0 14 75 c4 bb c9 89 1a bc 88 6c 7d 3c d9 37 ed bb
       -0.005995402 -0.009432265 0.01546777 -0.0072393236
0002f0 3e c5 50 3b a0 29 a8 3c 2a d2 82 bc c7 6b b4 ba
       0.0031855847 0.02052766 -0.015969355 -0.001376503
000300 20 18 53 3c 4c fc c6 3b 8b c4 b0 3b 70 e1 30 bb
       0.01288417 0.0060725566 0.0053945235 -0.002698984
000310 92 4e f7 bb 47 95 bf bc 4f 26 0c bc e2 c5 60 bc
       -0.007547208 -0.02338661 -0.008554055 -0.013719054
000320 6e 6a e5 3b 7f d0 50 3b 08 50 48 bc c0 22 0e bc
       0.007001213 0.0031862555 -0.012226112 -0.008675277
000330 51 e5 85 3b ab 81 91 bc c7 82 fa 3b 65 6f 88 3c
       0.0040861745 -0.017762026 0.0076449844 0.01665468
000340 e6 87 d3 3a b3 82 72 3c 2e b8 1e bb 8b 07 d0 bc
       0.0016138523 0.014801669 -0.0024218666 -0.025394222
000350 89 80 3d 3c 27 eb 99 3c cb b8 04 3b 99 93 05 3c
       0.01156629 0.018788887 0.0020251747 0.008152866
000360 d2 2a b9 bb 3b 4f 88 3b 15 51 cb ba 92 5b 27 3c
       -0.0056508565 0.0041598356 -0.0015511835 0.010214703
000370 c5 8a 14 bc 03 e0 06 3d 46 74 08 3b 5f 0a d9 ba
       -0.009066288 0.032928478 0.0020821257 -0.0016558877
000380 05 0a d9 3a f9 3f 33 3c bb 01 99 3b ef 7f a8 bb
       0.0016558772 0.010940545 0.0046693957 -0.005142204
000390 0f e6 25 bc 4a f0 80 3c 8e 0b ff 3b df af 2a bc
       -0.010125651 0.015739579 0.00778336 -0.0104179075
0003a0 3e b9 6e bc a9 7f 0c bc e3 83 12 bc c6 95 0c bb
       -0.014570532 -0.008575358 -0.008942577 -0.0021451577
0003b0 9f 34 1f bb 3e 50 03 3c 6a bc ab bb b3 92 10 ba
       -0.002429284 0.008014737 -0.0052409666 -0.0005515024
0003c0 d1 b1 b2 bc 2b ea 49 bb 3d 03 24 bc c2 72 35 bc
       -0.021813305 -0.003080974 -0.010010538 -0.011074724
0003d0 10 0b cb bb 71 82 7a 3c 4c ee a3 ba a3 92 e7 bc
       -0.006196387 0.015289889 -0.0012506931 -0.028268164
0003e0 0d 33 2f 3a a2 e1 0b 3c c3 33 fc 3b d4 26 0b 3c
       0.00066833274 0.008537682 0.0076966 0.008493144
0003f0 65 5e a1 3c ba 8b 57 bb 8c f9 24 bc 28 7d 22 bc
       0.019698331 -0.003288968 -0.010069262 -0.009917535

action_model._continuous_distribution.mu.bias f4 [3]
000000 1e 5f e4 3a ec bb 1e 3b 04 76 40 bb
       0.0017423367 0.0024220897 -0.0029367218

action_model._discrete_distribution.branches.0.weight f4 [7, 256]
000000 e9 97 40 ba 79 03 63 bb 19 d2 44 bc d7 3a a8 3b
       -0.0007346855 -0.003463952 -0.012012982 0.0051339674
000010 7d ff ef bb 8a 1a 45 bc 9f fa b3 bb c3 22 40 bb
       -0.0073241577 -0.012030253 -0.005492523 -0.0029317595
000020 a8 c1 ad bb 36 59 50 bc 87 9a 51 bc fc 05 b0 bc
       -0.0053026266 -0.012716582 -0.01279319 -0.021487229
000030 64 44 c7 ba 82 aa 6b bc 31 d4 78 bc af c7 8a bc
       -0.0015202877 -0.014383914 -0.015187309 -0.01694092
000040 43 0c 25 3a 2e ab ff bb 36 01 5a bc 50 2e c7 bb
       0.00062960776 -0.0078023886 -0.013305953 -0.006078519
000050 0c ab a7 bc ca ee 8f bb ed 4a 30 3c 18 a2 73 3c
       -0.020467304 -0.0043924795 0.010760051 0.014870189
000060 f6 21 3a bc 3c 96 0d 3c 0f 34 9e bc 87 ff 4e bc
       -0.011360636 0.008641776 -0.019311933 -0.012634165
000070 50 d3 b6 3c 37 5e 85 bc ff 5e 13 bb ee 87 aa bb
       0.022317559 -0.016280277 -0.0022487042 -0.0052041924
000080 83 71 c9 bc cb b5 d1 bb b9 5e bd 3c e8 8a 53 bc
       -0.02459026 -0.0063998452 0.023116456 -0.012911536
000090 03 55 94 bc de 64 6d bc c0 90 81 bc 0f 7a e2 bc
       -0.018106943 -0.014489381 -0.015816092 -0.027646093
0000a0 48 5b 83 bc 64 d4 90 3c 2f 11 19 3c 4f f6 97 bb
       -0.016034737 0.0176794 0.009342476 -0.0046375166
0000b0 87 9a 97 bc 06 b1 4d bc 46 5d 69 bc ea e8 b5 3c
       -0.018506302 -0.012554413 -0.0142434295 0.022205789
0000c0 8c c3 66 bc 5f 65 ab b8 3b 75 e0 3b a9 01 b9 3b
       -0.014084708 -8.172797e-05 0.0068499125 0.00564595
0000d0 94 aa 86 bc 75 b7 63 bb c8 f7 ff 3b 3f e5 b2 3c
       -0.01643876 -0.00347468 0.0078115202 0.021837829
0000e0 73 35 32 bc 3f b3 dd bb 4b ef f5 3a 1a c0 3c bc
       -0.010877001 -0.0067657526 0.0018763331 -0.01152041
0000f0 cf a0 dc bb fc 1d fa bb a0 b5 af 3c f0 cd be bc
       -0.006733037 -0.007632969 0.02144891 -0.023291558
000100 67 27 2c bc cc fb 12 bc 29 20 8b bb 95 d2 90 bc
       -0.010507441 -0.008971166 -0.004245777 -0.017678538
000110 63 24 6c ba 10 0d 1c bc 28 85 60 bc c5 a2 02 3c
       -0.00090081076 -0.009524599 -0.013703622 0.007973378
000120 a1 28 a1 3c b9 30 2a bc 59 60 49 bc cc fd 89 3b
       0.019672694 -0.010387593 -0.0122910375 0.004211163
000130 9c b5 59 bc 3e 4c 94 bb 61 95 b7 bc e2 5f 3c bc
       -0.013287928 -0.0045256903 -0.022410097 -0.01149747
000140 75 86 81 bb ca 3b 41 bc 4f 43 94 ba 0b c0 2e bc
       -0.003952796 -0.01179404 -0.0011311563 -0.010665904
000150 44 57 f3 bc 8c ce 5e 3c 6e 99 4b 3c 85 f6 1c 3c
       -0.029704697 0.013599049 0.012426717 0.009580259
000160 b5 6e 5a bb 3a 95 1b bb 20 48 99 bc 0b f6 83 bb
       -0.0033330147 -0.002374007 -0.01871115 -0.0040271333
000170 20 15 e1 bb 6f 40 b5 bc 52 20 5b 3a 04 bf 4b 3c
       -0.0068689734 -0.02212545 0.0008359003 0.012435678
000180 3a ce 0c bc 34 c6 44 3c b3 b0 0c bc 66 a9 94 bc
       -0.00859409 0.012010146 -0.00858705 -0.018147182
000190 88 88 06 3d 30 0a 00 bc 6c 82 8d bc 56 5e a0 bc
       0.03284505 -0.007814929 -0.017274104 -0.019576233
0001a0 85 46 a0 bc b3 57 ee bc 67 97 b3 bc f7 80 37 3b
       -0.019564876 -0.029094553 -0.02192278 0.0028000453
0001b0 20 91 e0 bc 3d 98 1f bc 50 db 89 bc e5 62 ea bc
       -0.027412951 -0.009740886 -0.01682821 -0.02861161
0001c0 c5 bd ce 3c 95 83 b0 3a e6 2b a7 3c 1d a1 f7 bb
       0.025236974 0.0013466949 0.020406675 -0.007557048
0001d0 45 40 8d bc 2e 89 9d bc af aa 7e 3c 04 7a c9 3c
       -0.01724256 -0.019230451 0.015543624 0.024594314
0001e0 04 18 b5 bc 26 fe b4 3b 6e de fb bb db a3 10 bb
       -0.022106178 0.005523461 -0.007686428 -0.0022070322
0001f0 78 ef 83 bc 8f ad 5c bc d6 1e 43 bc 6b 1d 1f 3c
       -0.016105399 -0.013469114 -0.011909207 0.009711604
000200 f9 3e cb 3c 20 d6 79 3c 76 71 53 bc b8 ea 21 bc
       0.024810301 0.015248805 -0.012905469 -0.0098826215
000210 80 29 07 bd 52 5b cc 3b 54 53 ce bb 21 ba b0 3b
       -0.03299856 0.006236472 -0.0062965546 0.005393282
000220 79 63 6a bc 84 6f 63 3a 93 a3 85 bc 89 56 af 3c
       -0.014305943 0.000867598 -0.01631335 0.021403568
000230 42 08 a4 3c e0 0a 08 bc 57 e1 e6 3b de 29 9c bb
       0.020023469 -0.008303374 0.0070459056 -0.004765733
000240 e8 8d f9 3a f1 37 73 bc 8f 40 ad bc bb 30 9b bc
       0.0019039484 -0.01484488 -0.021148948 -0.018944135
000250 20 09 b3 bc 30 8f a5 3b 06 dd 8d bc a9 85 f6 bb
       -0.021854937 0.0050524697 -0.017317306 -0.0075232578
000260 35 6e 2c bc 39 fd d0 bb 68 fb 39 bc 0c bd ce bc
       -0.010524322 -0.0063778427 -0.011351444 -0.025236629
000270 f6 4f d8 3c 08 2c fd bb a0 a9 3e bc cd 90 e0 bb
       0.026405316 -0.007726196 -0.011637121 -0.006853199
000280 42 04 de bc c1 23 aa bb c2 55 17 3b e3 5b e5 3a
       -0.02710164 -0.0051922505 0.0023091887 0.0017498698
000290 89 22 41 3b c4 c0 d4 bb 60 6f 97 bb 6e 03 91 3c
       0.0029470047 -0.006492706 -0.004621431 0.01770183
0002a0 81 cd aa bc 3c 9a 45 3b 2f b8 8e bc 5e 3b 8e bb
       -0.020849945 0.0030151745 -0.01742181 -0.004340573
0002b0 ec 64 9b 3c ee f6 bf bc c6 c2 c1 bc 81 3e 8f 3c
       0.018969022 -0.023433175 -0.023652446 0.017485859
0002c0 6d d2 bc 3b db d4 2d 3c ae 9e ac bc e0 fb f7 bb
       0.0057623894 0.010609831 -0.021071758 -0.0075678676
0002d0 d4 80 6b bb d6 06 53 bc e5 79 76 bc c0 9f ff 3b
       -0.0035934942 -0.012880048 -0.01504371 0.007801026
0002e0 32 4f 41 bb 68 d1 33 ba ef d4 64 3c 04 e0 30 ba
       -0.0029496667 -0.0006859512 0.013966783 -0.0006747248
0002f0 0d d1 3a 3c 41 3c db bc 33 8d 45 3b f9 d7 8e bc
       0.011402381 -0.02676213 0.0030143976 -0.017436968
000300 82 9b 37 bb 8c 79 ac 3b 19 17 aa bb 67 4b 72 3c
       -0.0028016274 0.005263513 -0.0051907417 0.014788485
000310 9e c0 5e 3c 06 61 b9 3b bd b7 46 bc 91 27 15 3d
       0.013595728 0.005657318 -0.012128768 0.036414687
000320 54 48 f3 3b ee 52 89 bc 28 69 9c 3c 77 93 8f bc
       0.0074243937 -0.016763177 0.019093111 -0.017526371
000330 22 3d 95 ba 3f fe c8 3b 6e 71 4f bc 8c 85 b6 ba
       -0.0011386017 0.006133824 -0.012661321 -0.0013925298
000340 2c 45 74 bc 7a 88 f5 bb e3 bf ec bb 7c 5c 68 3b
       -0.01490907 -0.007493076 -0.007225023 0.0035455516
000350 10 1f b7 bc 45 27 c1 3a 0c b0 89 ba 2a 14 ef bb
       -0.022353679 0.0014736435 -0.0010504737 -0.007296105
000360 f3 a2 1d bb ab f8 65 bb f1 c5 9d bb bd 4c b7 bc
       -0.0024053424 -0.0035090845 -0.004814856 -0.022375459
000370 bd c3 b9 bc 56 5c 9c bb cf fa b7 bc 15 a1 b6 bc
       -0.022676343 -0.0047717495 -0.022458462 -0.022293607
000380 e9 ce 9b bc f4 c8 a4 bb 3f 46 03 bb 39 3d b5 bc
       -0.01901956 -0.0050288383 -0.0020030884 -0.02212392
000390 8e 90 0e 3c 7c 9d 82 bb c3 cb 9b bc 28 96 2d bc
       0.008701457 -0.0039860588 -0.01901806 -0.010594882
0003a0 c3 52 93 bb 81 0a 60 3c c9 1a 42 bb d1 23 e3 3c
       -0.00449595 0.013674379 -0.0029618016 0.02772704
0003b0 fb 28 18 bd 08 96 2a 3b 15 3b 0e bc 17 7b 79 bc
       -0.037148457 0.0026029367 -0.008681078 -0.015227101
0003c0 d8 84 b6 bc 6e d3 f3 bc 2f 80 cc 39 4d f9 98 3b
       -0.022280142 -0.029763903 0.00039005416 0.004668391
0003d0 6d 47 df bc a4 e7 f1 3a d0 6e a8 bc 32 5a d4 bb
       -0.027255738 0.0018455875 -0.020560652 -0.0064804787
0003e0 b8 37 5d 3c d6 52 d2 bc 08 32 9e bc 5b ae 39 bc
       0.013502054 -0.025674265 -0.019310966 -0.0113330735
0003f0 e2 33 4a 3a 27 9b 0a bc c3 88 e6 bb a8 b6 54 bc
       0.00077134196 -0.008459843 -0.0070353462 -0.012983002

action_model._discrete_distribution.branches.0.bias f4 [7]
000000 5c be ac bc 63 7f 55 bc 19 d3 45 bc ca 2b 7d bc
       -0.021086864 -0.01303086 -0.012074255 -0.015452335
000010 3e 8e 96 bc 49 c9 cf 3c 5c a4 c0 3c
       -0.018378373 0.025364535 0.023515873

onnx::Div_90 f4 [84]
000000 e6 e0 f0 3a c4 ee ff 3e e6 69 ff 3e 65 ac a1 3e
       0.0018377572 0.4998685 0.49885482 0.3157684
000010 e6 e0 f0 3a fb ff ff 3e fe af ff 3e 7f 12 a3 3e
       0.0018377572 0.49999985 0.4993896 0.3185005
000020 e6 e0 f0 3a fe cb ff 3e 7b 19 ff 3e b1 c0 9f 3e
       0.0018377572 0.4996032 0.49824128 0.312017
000030 e6 e0 f0 3a dc f6 ff 3e 06 e5 ff 3e 7c d6 a3 3e
       0.0018377572 0.49993026 0.4997942 0.31999576
000040 e6 e0 f0 3a ac b1 ff 3e 06 e6 fe 3e 69 6e 9d 3e
       0.0018377572 0.4994024 0.4978487 0.307483
000050 e6 e0 f0 3a df d8 ff 3e 8b fb ff 3e 2d ac a3 3e
       0.0018377572 0.49970147 0.499966 0.31967297
000060 e6 e0 f0 3a 69 b8 ff 3e bf f6 fe 3e c7 d9 9a 3e
       0.0018377572 0.4994538 0.49797627 0.30244276
000070 e6 e0 f0 3a ed ae ff 3e eb ff ff 3e 3d 75 a2 3e
       0.0018377572 0.49938145 0.49999937 0.3173007
000080 e6 e0 f0 3a 2e d6 ff 3e f4 34 ff 3e b1 3c 98 3e
       0.0018377572 0.49968094 0.49845088 0.29733804
000090 e6 e0 f0 3a 66 6e ff 3e 61 f2 ff 3e 6c 76 a0 3e
       0.0018377572 0.49888915 0.49989608 0.3134035
0000a0 e6 e0 f0 3a c0 fc ff 3e e6 9c ff 3e 20 70 95 3e
       0.0018377572 0.4999752 0.49924392 0.29187107
0000b0 e6 e0 f0 3a 80 18 ff 3e 8e cd ff 3e 01 b9 9d 3e
       0.0018377572 0.4982338 0.49961513 0.3080521
0000c0 e6 e0 f0 3a 98 ed ff 3e fa f3 ff 3e 32 b6 92 3e
       0.0018377572 0.49985957 0.49990827 0.2865463
0000d0 e6 e0 f0 3a 9a a1 fe 3e 09 89 ff 3e 4b 3c 9a 3e
       0.0018377572 0.49732667 0.49909237 0.30124125
0000e0 e6 e0 f0 3a 87 6c ff 3e a5 ed ff 3e 4a 1a 90 3e
       0.0018377572 0.49887487 0.49985996 0.28145057
0000f0 e6 e0 f0 3a a7 28 fe 3e 8b 3c ff 3e ba 46 96 3e
       0.0018377572 0.4964039 0.49850878 0.29350835
000100 e6 e0 f0 3a e3 83 fe 3e 4b 6c ff 3e 6d 81 8d 3e
       0.0018377572 0.49709997 0.49887308 0.27637807
000110 e6 e0 f0 3a 70 4f fd 3e 09 31 ff 3e 93 62 96 3e
       0.0018377572 0.49474669 0.49842098 0.2937208
000120 e6 e0 f0 3a d9 77 fd 3e 9e b5 fe 3e 57 4d 8b 3e
       0.0018377572 0.495055 0.49747938 0.27207443
000130 e6 e0 f0 3a a4 b1 fc 3e 2a e5 fe 3e 27 94 93 3e
       0.0018377572 0.4935428 0.49784213 0.2882397
000140 e6 e0 f0 3a b6 aa fc 3e fd 22 fe 3e b2 51 89 3e
       0.0018377572 0.49348992 0.4963607 0.2682014

onnx::Div_96 f4 [37]
000000 e2 55 7c 41 c8 44 e0 3c 9d be 7e 41 e6 e0 f0 3a
       15.7709675 0.027376547 15.921536 0.0018377572
000010 06 02 96 3e e6 e0 f0 3a c9 b1 b6 41 70 e8 1b 3b
       0.2929842 0.0018377572 22.83681 0.0023789667
000020 cb aa b2 41 e6 e0 f0 3a 13 29 94 3e e6 e0 f0 3a
       22.333395 0.0018377572 0.28937587 0.0018377572
000030 e6 31 50 3e 99 aa 37 3e c6 8e e0 3e 85 bc ff 3e
       0.20331535 0.17936172 0.43858927 0.49948516
000040 e6 e0 f0 3a 03 8f e0 3e e6 e0 f0 3a cb 14 a7 3f
       0.0018377572 0.4385911 0.0018377572 1.305322
000050 e6 e0 f0 3a dd c7 a3 3f 8b 37 36 3f bc 75 f1 3a
       0.0018377572 1.2795368 0.711785 0.0018421928
000060 d1 46 33 3f 83 4b 93 3e 1d de 87 3e 23 de 87 3e
       0.7002993 0.28768548 0.26536646 0.26536664
000070 41 95 86 3e 43 95 86 3e 9f d7 0b 3e ed b6 6c 3f
       0.26285747 0.26285753 0.13656472 0.9246662
000080 ad c2 92 3e a4 3b 34 3f d2 41 e0 3c 4f 12 59 41
       0.2866415 0.70403504 0.027375136 13.56697
000090 d5 d8 93 3e
       0.28876367
