results/UwU/BoxingAgent/BoxingAgent-216447.onnx (onnx, 409187 bytes, 13 tensors)

network_body.observation_encoder.processors.0.normalizer.running_mean f4 [84]
000000 00 00 00 00 2c 6b 06 3f 2b 68 e8 3e 77 11 38 3f
       0.0 0.5250728 0.45391974 0.7190165
000010 00 00 00 00 ad 80 04 3f 69 d7 eb 3e c8 e8 37 3f
       0.0 0.51758844 0.46062782 0.7183957
000020 00 00 00 00 db c2 07 3f f7 ad e5 3e 00 af 38 3f
       0.0 0.530317 0.44859287 0.7214203
000030 00 00 00 00 3d 5a 02 3f 17 20 f0 3e 63 45 38 3f
       0.0 0.5091894 0.46899483 0.71980876
000040 00 00 00 00 27 5b 08 3f ac a1 e4 3e 3e e3 39 3f
       0.0 0.5326409 0.44654596 0.7261237
000050 00 00 00 00 19 c2 00 3f 16 2f f3 3e 6b ee 38 3f
       0.0 0.5029617 0.4749686 0.72238797
000060 00 00 00 00 a6 a3 07 3f d7 22 e6 3e 66 b7 3b 3f
       0.0 0.5298408 0.44948456 0.7332672
000070 00 00 00 00 e6 1c ff 3e 46 11 f6 3e b8 2c 3a 3f
       0.0 0.49826735 0.48060054 0.72724485
000080 00 00 00 00 fe f5 05 3f c6 70 e9 3e 01 25 3e 3f
       0.0 0.5232848 0.45593852 0.74275213
000090 00 00 00 00 1e 0c fc 3e d9 1d f9 3e c1 d2 3b 3f
       0.0 0.49227995 0.48655584 0.7336846
0000a0 00 00 00 00 02 63 02 3f 2a fe ef 3e 88 00 41 3f
       0.0 0.50932324 0.468736 0.75391436
0000b0 00 00 00 00 90 02 f9 3e db 5d fc 3e 7a ff 3d 3f
       0.0 0.48634768 0.49290356 0.7421795
0000c0 00 00 00 00 87 48 fb 3e 8a d6 f9 3e d7 85 44 3f
       0.0 0.4907877 0.48796493 0.76766723
0000d0 00 00 00 00 01 84 f4 3e ad 94 00 3f 48 c1 40 3f
       0.0 0.4775696 0.5022686 0.75294924
0000e0 00 00 00 00 e9 0a f0 3e 36 a0 02 3f ab fc 47 3f
       0.0 0.46883324 0.5102571 0.78119916
0000f0 00 00 00 00 6c 95 ef 3e 04 1f 03 3f 54 cb 43 3f
       0.0 0.46793687 0.512192 0.7648213
000100 00 00 00 00 f3 54 e5 3e aa 3b 08 3f e9 21 4b 3f
       0.0 0.44791374 0.5321604 0.7934862
000110 00 00 00 00 f5 1f e7 3e 0f 31 04 3f b5 c2 44 3f
       0.0 0.4514157 0.5163736 0.768596
000120 00 00 00 00 b6 f8 db 3e 46 e1 0c 3f 6c a0 4d 3f
       0.0 0.4296319 0.5503124 0.8032291
000130 00 00 00 00 2c 99 e0 3e d6 20 07 3f 8c 99 47 3f
       0.0 0.4386686 0.5278448 0.7796867
000140 00 00 00 00 5f 09 d6 3e a0 c1 0f 3f 2e 88 4f 3f
       0.0 0.41804025 0.56154823 0.8106717

network_body.observation_encoder.processors.2.normalizer.running_mean f4 [37]
000000 5d 1a c7 3e e6 82 6d 41 1f 63 5c c1 dd ef 37 b1
       0.388873 14.844458 -13.7741995 -2.6766351e-09
000010 8d df 03 3f 64 32 1b 2f dd 91 24 3f b3 7f b5 b7
       0.51512986 1.411507e-10 0.6428507 -2.1636346e-05
000020 dd 1b c3 bf 49 bc 60 2f e0 47 04 3f b2 7c e0 af
       -1.5242878 2.0439574e-10 0.5167217 -4.0833964e-10
000030 00 44 64 3f d9 9b 69 3f 3a 06 85 3e 46 e1 f4 3e
       0.8916626 0.9125343 0.25981313 0.4782812
000040 00 00 00 00 9a 7c 3d 3f 00 00 00 00 28 17 cc 38
       0.0 0.7401825 0.0 9.731791e-05
000050 00 00 00 00 e9 c8 c0 bc 58 70 62 3c a4 a1 16 35
       0.0 -0.023533301 0.01382073 5.611457e-07
000060 70 03 1a bd 46 ba f9 3e 11 21 fa 3e 28 ef 02 3f
       -0.037600935 0.48774928 0.48853353 0.51146173
000070 94 2d ff 3e e9 68 00 3f 87 28 3f 3d d7 82 b8 3e
       0.4983946 0.5016008 0.04666951 0.36037323
000080 79 22 2a 3f 32 b0 d3 bd e6 82 6d 41 9f e0 ea 41
       0.6645885 -0.10336341 14.844458 29.359678
000090 80 1c 00 3f
       0.5004349

network_body._body_endoder.seq_layers.0.weight f4 [256, 121]
000000 28 45 b4 bc 6f cb 3c 3e 00 cd a3 bd c2 e8 01 be
       -0.022005633 0.18436979 -0.07998085 -0.12686446
000010 6d 64 06 bd 65 96 62 bd 2d 18 87 3b d6 fd c3 bd
       -0.032810617 -0.05531921 0.004122755 -0.095699
000020 88 53 b4 3c 9d aa 25 bd 41 bc 6c bc 48 39 17 be
       0.022012487 -0.040445913 -0.01444918 -0.14767945
000030 1f c1 1a bd 43 48 ee 3b 87 4a a1 bd 24 2b 0a be
       -0.03778183 0.007271798 -0.07875543 -0.1349302
000040 0c 96 99 bd 9d a5 f0 3d 1b ea 8e 3c 08 26 a9 3d
       -0.07499322 0.11750338 0.017445615 0.08259207
000050 af 92 04 bd f9 49 15 be f7 cc f7 bb 4e 8a 70 bd
       -0.03236645 -0.14579 -0.0075622755 -0.058725648
000060 3e 47 73 3d 02 90 0a bc 64 a1 8b 3b f7 a2 12 3e
       0.059394114 -0.008457186 0.0042611826 0.14319979
000070 16 da 48 3d ee 06 bd 3d 3a 2a 07 3d 9d d6 b3 bd
       0.049036108 0.09229837 0.032999255 -0.087811686
000080 f8 a1 76 bc 82 b8 e2 3c 59 b7 45 bd 4a 3b f5 bc
       -0.015053265 0.02767587 -0.048270557 -0.029935498
000090 fa cb ab bd 26 54 df bd bb bf d6 3d 52 d6 c8 3c
       -0.08388515 -0.10904722 0.104857884 0.024516258
0000a0 7b 9f 43 3d c6 80 a7 bd f2 10 8c 3c 75 e1 42 3d
       0.047759514 -0.081788585 0.017097924 0.047578294
0000b0 e0 26 ee 3c 94 20 ca 3d c5 c5 0a bd 10 35 c0 bd
       0.029071271 0.09869495 -0.033880014 -0.09385121
0000c0 93 e1 a9 bc a7 2e c8 bd 31 a2 8d bd 14 6c 73 3d
       -0.020737445 -0.09774523 -0.06915701 0.059429243
0000d0 ca f8 87 bc 70 7d 5d 3e 7b 4b 7c 3d 90 50 53 bc
       -0.016598124 0.21629882 0.06159542 -0.012897626
0000e0 0c 04 62 3d 69 1e 03 be 8c 58 9d 3d 40 51 cd bd
       0.05517964 -0.1280457 0.076829046 -0.10025263
0000f0 13 e6 d9 b9 9e bc 8f 3d 9f a0 cc bc 48 0b 52 bd
       -0.00041560884 0.07018398 -0.024978934 -0.05128029
000100 f5 e8 d8 3d 68 e6 3d bd 46 ae 6d bd 56 a0 8a bc
       0.10591308 -0.04636231 -0.05802753 -0.016922157
000110 e5 93 f2 bc 01 c2 40 bc fc e6 f7 bd f2 78 03 3e
       -0.029611537 -0.011765004 -0.12104604 0.12839106
000120 df ef 2c 3d a4 95 8d 3d 50 7d e2 3d 69 49 2c bc
       0.042220946 0.06913307 0.11059058 -0.010515549
000130 19 11 53 bd 27 4f d2 3d ee 0f df 3d 73 fe 55 be
       -0.051529977 0.10269003 0.1089171 -0.20897846
000140 30 d8 45 3c 84 62 b3 bd 2f 3b 91 bd 13 b5 22 bd
       0.012075469 -0.08759025 -0.070913665 -0.039723467
000150 dc 76 e9 bc 92 c5 1a 3e 6c 84 07 3e 2a 1d 72 3b
       -0.02849906 0.1511443 0.13234109 0.0036943653
000160 46 72 e3 3d c9 8d e6 bd 57 53 55 3d 72 8b 86 bd
       0.1110578 -0.11257512 0.052081432 -0.06569566
000170 e7 86 6a bd 51 35 70 bb a1 64 21 bd 27 18 4e bd
       -0.05725756 -0.0036652873 -0.039402608 -0.050316002
000180 f6 20 d0 bd 34 0d 94 3d 54 5b 9d bd 79 ce 00 be
       -0.10162537 0.07229081 -0.07683435 -0.12578763
000190 f5 dd d4 bc fe b5 9b 3d 70 dc 98 bd 32 bc 7f 3c
       -0.025984744 0.07603072 -0.0746392 0.015608834
0001a0 c5 2b d9 bc 1b a5 a2 3d 93 f7 69 3d 41 2d 1d bc
       -0.026510129 0.079416476 0.05712087 -0.009593309
0001b0 15 24 b0 bd c0 64 cf 3d 05 53 6c bc b2 7c 15 bd
       -0.08600632 0.101266384 -0.01442409 -0.03649587
0001c0 b9 fc f2 3d 7d 45 e5 3d 03 9a e1 bd 85 7f 31 3d
       0.11864609 0.111948945 -0.110157035 0.043334503
0001d0 98 a3 3c bd 9f e0 6b 3b 77 ca eb 3c f7 c8 ad 3d
       -0.046054453 0.003599204 0.028783066 0.084855966
0001e0 13 1a 82 bd c7 48 94 3d e7 9d f0 bd 9c 1f b5 bb
       -0.063526295 0.07240444 -0.117488675 -0.00552745
0001f0 7d 6e 03 bd 50 8e 9a 3c 5c 97 53 3d ec 61 07 be
       -0.03208779 0.018866688 0.05165802 -0.13220948
000200 67 07 02 be 92 97 4c bb 2d 2c 1c 3d a3 a2 f9 3a
       -0.12698136 -0.0031218273 0.038128067 0.0019045662
000210 8b 0d 48 be 69 98 68 3d 20 63 3a be 4d a2 be bc
       -0.19536416 0.056785975 -0.18201876 -0.02327075
000220 17 38 39 3d a8 1e 41 bd d3 f7 ae 3c 8f b5 72 3d
       0.045219507 -0.047148377 0.021358406 0.05925518
000230 69 e6 a8 bc f8 82 4a 3c 3f 1c 07 3e f3 68 4d bc
       -0.02061768 0.012360327 0.13194369 -0.012537229
000240 1e cb 90 3a 0a 7b a4 bd a9 7d 43 3d 2f 2d 98 bd
       0.0011046862 -0.0803128 0.04772726 -0.07430493
000250 e0 df 83 bd 03 06 f3 bb cb c6 29 bc dc 4b 02 3d
       -0.06439185 -0.007416488 -0.010362337 0.031810626
000260 bc f9 25 3e f2 7f fd 3d fa c0 80 3c 68 93 04 bd
       0.16208547 0.12377919 0.015717018 -0.03236714
000270 44 54 0e bc 12 06 3e bd 11 d5 f8 3b ad a4 01 be
       -0.008687083 -0.046392508 0.007593759 -0.12660475
000280 b2 cb c7 bd 07 76 95 bd 7b 53 8d 3d 6f 88 d5 3b
       -0.09755649 -0.072979026 0.06900688 0.0065165083
000290 06 5c 98 3d 0a 98 89 3d 47 15 f9 3d d5 d8 83 bd
       0.07439427 0.06718452 0.121622615 -0.06437842
0002a0 d6 e9 1c bc 1a 20 9a 3d 9b ad 8a 3d 8a 75 82 bd
       -0.009577235 0.07525654 0.06771394 -0.06370075
0002b0 05 d4 83 bc d3 4a 57 3e 84 4f 09 bd 61 0f 12 3e
       -0.01609231 0.21024637 -0.033523098 0.14263679
0002c0 e6 90 e8 bc 47 c8 97 3e 0f 99 0f 3e db a4 74 3d
       -0.028389405 0.29644987 0.14023231 0.05972753
0002d0 b0 2d 09 3e c2 fc 49 be 92 93 96 bd 6e 7b d9 3a
       0.13396335 -0.19725326 -0.073523656 0.0016592571
0002e0 b9 c3 2f bd 74 74 84 bd 98 33 da bd 12 9c 85 3d
       -0.042911265 -0.06467524 -0.10654372 0.06523909
0002f0 1b 85 d0 3b 92 e3 ff 3c f2 49 d2 3b 1d 14 90 bb
       0.0063635237 0.031236444 0.0064175064 -0.004396929
000300 2d a6 d2 bd c8 62 0e bd ed dc 87 bd 15 b8 b3 3c
       -0.10285602 -0.034762174 -0.06633935 0.021938363
000310 61 6b 67 bd 99 ca 93 bd 0c 17 4c bd 41 b1 c2 3c
       -0.05649889 -0.07216377 -0.049826667 0.023766162
000320 17 56 af bc c8 b5 42 be 86 d9 f3 bd 95 5c de 3b
       -0.021403356 -0.19014657 -0.11906724 0.006785939
000330 16 33 44 3d c1 29 09 3d 87 15 ec 3d cd 62 41 3d
       0.04790028 0.033487085 0.115275435 0.047213364
000340 49 b3 08 3d 74 1d 10 3e da e6 b2 3d e0 79 76 3d
       0.033374105 0.14073735 0.08735438 0.060174823
000350 0d 76 2c bd da ac 49 3c 4f a3 38 3e bf 61 a4 bd
       -0.04210477 0.012309277 0.18031047 -0.08026456
000360 ac 25 c7 bd b2 89 89 bd d7 8c cc bd 91 7d a9 3d
       -0.09723982 -0.067157164 -0.099878006 0.08275903
000370 e8 c9 ec bd 0c 70 1b be 29 04 51 3d e0 b3 9c bd
       -0.11561948 -0.15179461 0.051029358 -0.07651496
000380 c3 d3 37 bd 60 63 90 bd 94 0f 03 bd 11 fe 64 bd
       -0.044879686 -0.07050204 -0.03199728 -0.05590636
000390 b9 66 58 bd 54 eb 11 be 09 61 cc bd 27 c8 26 bd
       -0.05283234 -0.14249927 -0.099794455 -0.040718224
0003a0 d5 9f a6 3d 9d 08 01 bd 0e e3 f2 bb 07 0e a9 bc
       0.08135954 -0.031502355 -0.007412321 -0.020636572
0003b0 34 33 05 3c fd 1e 13 3c 80 69 81 3d c8 03 62 be
       0.008129884 0.008979556 0.06318951 -0.22071755
0003c0 c5 33 a4 3d 04 31 a8 bd e3 f2 e0 bd 03 46 ad 3b
       0.08017687 -0.08212474 -0.10983827 0.005287887
0003d0 b5 28 fb bb 2a c1 4c bc eb 34 89 3d cf 27 d6 3d
       -0.0076647648 -0.012497226 0.066995464 0.10456812
0003e0 bf e9 78 3d 67 84 b9 bd 05 74 1e be c8 c3 3e bd
       0.060769793 -0.09058457 -0.15473945 -0.04657343
0003f0 ba 43 35 be a8 4e bc bd 05 65 a6 bc 09 79 18 be
       -0.17701617 -0.0919469 -0.020311842 -0.14889921

network_body._body_endoder.seq_layers.0.bias f4 [256]
000000 0e 20 80 3c 7e 99 5b 3c c5 4f 25 bc 53 88 61 ba
       0.015640285 0.013403295 -0.010089819 -0.0008603383
000010 01 1a 85 3c de 3d a2 3c 0c 36 de bb 1e b3 4d 3c
       0.016247751 0.019804891 -0.0067813452 0.012554912
000020 56 fc e2 3c ff 82 88 3c b7 db 55 3c 88 8c aa ba
       0.027708214 0.016664026 0.013052872 -0.0013011852
000030 b7 35 57 3b 11 ec e0 3c ec 62 05 3c 69 4d a9 3c
       0.0032838413 0.027456315 0.008141261 0.020666795
000040 f6 be d7 3c 3b 33 5f 3c 34 c0 b1 3c ad 18 bb 3b
       0.026336174 0.013623054 0.021698095 0.0057097287
000050 47 8e 4d 3c f8 19 d4 3c ff 63 7a 3c 84 82 8f 3c
       0.012546129 0.02589129 0.01528263 0.01751829
000060 7b 26 89 3b a3 f2 ae 3c 22 a6 e2 3b be dd a2 3c
       0.0041854954 0.021355933 0.006916777 0.019881126
000070 f9 81 ca 3c 0f 3a 05 3b a0 03 99 3c d6 cb d7 3b
       0.024720179 0.0020328795 0.018678486 0.0065855784
000080 26 51 fd 3c 22 7e 83 bc f5 1a 79 3c 4e 27 de 3c
       0.030922484 -0.016051356 0.015204181 0.027118351
000090 f0 2e 03 3d 72 88 8b bb 5a 5c c6 3a 81 d0 b9 3b
       0.032027185 -0.004258209 0.0015133724 0.0056706076
0000a0 ee 64 de 3c 8e 34 e2 3c 1a 18 c6 3c 16 4f 0e 3d
       0.027147736 0.02761295 0.024181414 0.03474339
0000b0 c1 42 de 3c 8b 65 ee 3c 04 79 e4 3c df be 38 3c
       0.02713144 0.029101154 0.027889736 0.011275976
0000c0 b2 e7 5f 3c 2e fa 8d 3c ed 9c 9d bc 5f b4 89 3c
       0.01366608 0.017331209 -0.019239867 0.01680964
0000d0 38 9f f1 3a 0b db 1c 3d 81 88 c6 3c b7 7e 15 3c
       0.0018434292 0.038294833 0.024235012 0.009124449
0000e0 4d 38 b7 3b 0e 73 51 3c 7a 6c b3 bb b4 17 7e 3c
       0.0055914284 0.012783779 -0.005475578 0.015508581
0000f0 06 c5 d6 3c 84 18 d9 3c bf e2 47 bb 16 98 ab bc
       0.026216995 0.026500948 -0.0030500141 -0.020946544
000100 10 d1 f9 3c 4c a2 99 3c 6b 7f a4 3c ea 7b 65 3c
       0.030495197 0.018754147 0.020080289 0.014006594
000110 86 68 85 3c 7a a3 31 3c b8 5b 62 3c 07 dd a5 3c
       0.016285192 0.0108421985 0.013815813 0.020246996
000120 a6 d3 23 3c 20 40 e5 3c bc c9 69 3c e7 34 fe 3c
       0.009999191 0.027984679 0.014269289 0.031031085
000130 e7 92 87 3c d0 04 3b 3c 02 0b 41 3c 25 83 7c 3c
       0.01654954 0.011414722 0.01178241 0.015412127
000140 3e 19 a0 3c e1 ab 17 3d 61 71 0e 3c ef 89 29 3a
       0.019543286 0.03702915 0.008694024 0.0006467392
000150 af 74 77 3b 73 2c ce 3c 10 f9 a2 bb 5f 2b 77 3c
       0.0037758758 0.02516768 -0.004973538 0.015086024
000160 03 8f b2 3b 45 a7 a9 3c 34 e6 65 bb 53 2b 50 3c
       0.005449177 0.020709643 -0.0035079839 0.012705642
000170 c5 94 21 bb 01 fc 0a ba 1f ec 6e 3c c4 16 30 3b
       -0.0024655324 -0.0005301834 0.014582663 0.0026869038
000180 33 d4 b6 3c 76 8a a9 3c a3 77 5d 3c ad 49 75 3c
       0.022317981 0.020695906 0.013517293 0.014971179
000190 d1 3e 16 3b 32 cc 84 3c 1b 96 87 3c 74 d1 be 3c
       0.0022925625 0.01621065 0.016551068 0.023293234
0001a0 93 c6 4c 3c 74 cc 53 3c 61 42 88 3c a7 3d a3 3a
       0.012498516 0.012927163 0.016633214 0.0012454287
0001b0 c1 7d 79 3c fc e7 c8 3c fe 35 3b 3c fc 7f 55 3c
       0.015227736 0.024524681 0.011426447 0.013031002
0001c0 09 01 89 3c 30 43 35 3b 97 a6 2c bc d5 cf 1a 3c
       0.016724126 0.0027658455 -0.010537765 0.009448965
0001d0 b0 7c 34 3c b8 fd 98 3b 6f 63 bc 3c 96 c5 b6 3b
       0.011016056 0.0046689175 0.022996632 0.0055777533
0001e0 48 28 5b 3c 38 c3 d1 3c 90 16 e3 3c 80 7b 94 39
       0.013376303 0.025605783 0.02772072 0.00028320774
0001f0 ed bd bd 3b 60 ed c7 3c 77 60 9a 3c f7 c9 75 b9
       0.005790463 0.024405181 0.018844826 -0.00023440259
000200 b3 d4 33 3c 38 d9 ce bc 99 85 c5 3c 88 98 b5 3c
       0.010976004 -0.025250062 0.024111556 0.02216746
000210 cf 63 6e 3c 29 b0 8e 3c af cd 95 3a 5b 08 b2 3b
       0.014550163 0.017417984 0.0011429096 0.005433125
000220 83 35 c0 3b 20 2f af 3c 82 4c 24 3c ba 91 5a ba
       0.005865754 0.021384776 0.0100280065 -0.0008337755
000230 c1 10 46 3c 35 70 c2 3b cd 7c 41 3c 0a 58 f2 bb
       0.012088955 0.0059337863 0.01180954 -0.007395749
000240 2d 20 d9 3b fd 25 07 3c bf 51 08 3c ee 3a 8d bc
       0.00662615 0.008248803 0.008320271 -0.017240014
000250 25 80 a3 3c 75 12 5f 3b 1b 29 88 3c 82 33 4f 3b
       0.019958565 0.00340381 0.016621163 0.0031616394
000260 70 77 40 3c fd fa 87 3c cd ce 18 3c 94 68 30 bc
       0.011747226 0.016599173 0.009326649 -0.010767121
000270 34 3b 92 3c b5 ca e6 3c de 27 e8 3b f1 1d d3 3c
       0.017850496 0.02817283 0.0070848307 0.025771113
000280 32 28 82 bb 61 e6 6b 3c b2 e4 f7 3c c6 6f 07 3c
       -0.003972077 0.014398188 0.030260418 0.008266395
000290 e2 2e 86 3c 8f 1e 28 bb b6 c7 e6 3c 92 97 07 3b
       0.016379777 -0.002565298 0.028171401 0.0020689708
0002a0 8f 76 8b 3b 45 11 91 3c 9a bc c6 38 45 5f 34 3c
       0.0042560766 0.01770843 9.4765055e-05 0.011009042
0002b0 15 35 01 bb a3 19 d8 3c 52 f8 ab 3c a8 60 ca bb
       -0.0019715477 0.026379412 0.020992432 -0.006176073
0002c0 61 01 5d 3c d7 ed cb 3c 48 ba f2 3b 94 0d 84 3c
       0.013489098 0.024893684 0.0074074604 0.016119756
0002d0 f2 65 28 3c 6b d8 64 3c 00 4a 9b 3c 40 86 d6 3c
       0.010278212 0.013967614 0.018956184 0.026187062
0002e0 ec d9 2d 3c 2f 65 4e 3c 3d 50 eb 3c 3a 64 b8 3b
       0.010611039 0.012597366 0.028724784 0.0056271823
0002f0 74 aa 00 3d 00 00 89 3c 4b 80 6c 3c 22 2b 48 3c
       0.031412557 0.016723633 0.014434884 0.012217315
000300 0b f6 5b 3c 57 00 85 3c 0b 98 03 bb 09 52 89 3c
       0.01342536 0.016235514 -0.0020079638 0.01676275
000310 49 98 08 3d 04 fb 56 bc 72 91 e1 3b 97 93 81 3b
       0.033348355 -0.01312137 0.0068837935 0.0039543617
000320 5a fe b5 3c 5f ba 10 3d bd 9c c7 bb 06 3a 5d 3c
       0.02221601 0.035333987 -0.0060916827 0.013502603
000330 84 2f 20 3a 45 4f 29 3b 39 e9 00 bb 33 aa b3 3c
       0.0006110596 0.0025834602 -0.0019670262 0.021931743
000340 9a e3 9b 3c 8e 05 10 b8 d5 1b 76 3c 58 e3 0c 3a
       0.019029427 -3.433745e-05 0.015021284 0.0005374453
000350 42 24 98 3c d7 44 35 3c 63 11 50 bc f2 4d 61 b9
       0.018571977 0.011063776 -0.012699458 -0.00021486709
000360 ee 56 c9 3c 60 26 4a 3c 5c 99 9f 3a df 41 47 3c
       0.024577584 0.012338251 0.0012176442 0.012161701
000370 25 6d 21 3c 6f aa 9b 3c 7a e7 9c bb ea 06 ab 3a
       0.009852682 0.019002168 -0.0047883363 0.0013048325
000380 e6 d5 9b 3c 39 36 c2 3c f6 85 50 3c b9 f8 cb 3b
       0.019022893 0.023707496 0.012727251 0.0062247184
000390 e8 10 8d 3b b8 5c ae 3c e3 3b c0 3c 1f 91 21 bc
       0.004304994 0.021284446 0.023466056 -0.00986126
0003a0 d5 4b 08 3d e6 9a 6e 3c a4 aa 81 3c 2d 8e 2d b9
       0.033275444 0.014563298 0.015828438 -0.0001655153
0003b0 67 11 fa 3a 50 c6 7a 3c b1 4d 1a bc 6e 86 33 3c
       0.0019078673 0.01530607 -0.009417937 0.0109573435
0003c0 9e 1f 33 3b fc 78 31 bc 74 f7 49 3b 3b 98 f6 3b
       0.0027332078 -0.010832068 0.003081766 0.0075254715
0003d0 e8 d1 72 bc ee 3b c9 3c 67 89 02 3d f2 2f ab 3c
       -0.014820553 0.02456471 0.03186932 0.020896886
0003e0 18 5c eb 3c b5 48 93 3c d7 97 b8 3c 74 8c 10 3d
       0.028730437 0.017979005 0.02253334 0.035290197
0003f0 8c 70 66 bb 23 67 bd 3b 7e f6 07 3d c7 ac a9 3c
       -0.0035162298 0.005780117 0.033194058 0.02071227

network_body._body_endoder.seq_layers.2.weight f4 [256, 256]
000000 bc f1 7f bc b7 79 1d 3c 6a ae 4f bd 64 a8 1d 3d
       -0.015621599 0.009611539 -0.050703444 0.038490668
000010 dd 4a 49 3d 2e 1e bc bc 04 94 32 bd 40 4b b1 3d
       0.04914366 -0.02296361 -0.04359819 0.08656931
000020 34 42 d8 3d fd d7 3e 3d bd 90 58 3b b4 5b a0 3d
       0.10559502 0.0465927 0.0033045255 0.07829991
000030 bc da 58 3d 18 ef a3 3c 5c 29 1f 3b 3f cb 08 bd
       0.052942976 0.02001147 0.0024286127 -0.033396956
000040 5b a5 83 bd 20 de a7 3d bc 5c 03 bc b5 db d1 bd
       -0.064280234 0.08196664 -0.008017715 -0.10246984
000050 7f 40 85 3c cb fb a9 bd 37 1e 85 3c c7 77 6a bd
       0.016266106 -0.08299979 0.01624976 -0.057243135
000060 08 cf 49 bd b6 b7 8b bd d8 ef 94 bc a8 94 65 bd
       -0.049269706 -0.068221495 -0.018180773 -0.056049973
000070 77 3d fd 3c 1f 2f 10 bd 6f 57 21 3d 3c f5 81 bd
       0.030913098 -0.03520119 0.039390024 -0.06345603
000080 b2 a9 e0 3c eb 4a c6 3d 64 1a d7 bc d9 da a6 3c
       0.027424667 0.09682258 -0.026257701 0.020368027
000090 79 77 28 be ee f1 df 3b 2a 56 d6 3d 4a 2b 7c bd
       -0.16451825 0.00683426 0.10465653 -0.06156472
0000a0 90 3f f2 3c a9 30 cb 3d 8a 66 bf 3c c3 f9 a0 bd
       0.029571325 0.099213906 0.023364324 -0.07860138
0000b0 b6 13 dc bb 6c a0 a4 3b 83 dc 67 bc 8b f1 e9 bd
       -0.006716217 0.0050240066 -0.014151695 -0.11423024
0000c0 3d a5 d4 bd 1f 5a 32 bd f1 8f 08 3d bb cc d5 bc
       -0.10383079 -0.043542977 0.0333404 -0.0260986
0000d0 57 16 2c bd 34 b3 dd bd a8 f4 e3 bd 17 63 51 bc
       -0.042013492 -0.10825196 -0.11130649 -0.0127799725
0000e0 77 f3 1f bd 8b 69 b9 bc 5e 2c 6b bc b0 b8 42 bc
       -0.039050546 -0.022633335 -0.01435384 -0.011884853
0000f0 bc 74 aa 3d f5 14 03 3e d2 6b ba bd ed 1f 6f bd
       0.083230466 0.12800963 -0.09102596 -0.058380056
000100 b9 25 8f 3d a3 35 00 3c 7a c5 1b be af 5b e7 bc
       0.06989617 0.007825288 -0.1521205 -0.02824196
000110 d0 bb 17 bd f4 49 68 bd e3 6a 31 3d 0f 0c 18 3e
       -0.037044346 -0.056711152 0.043314826 0.1484835
000120 2f 51 1e 3d 90 c9 91 bd 56 c2 1a 3e b7 b0 8c 3c
       0.03865164 -0.07118523 0.15113196 0.017174108
000130 ff 80 47 3d 30 49 57 3d c3 ff 14 bd 78 e6 23 3b
       0.048707005 0.05256003 -0.036376726 0.0025009196
000140 d9 eb f5 bd 69 55 86 bc 36 b1 50 bd 63 92 45 bd
       -0.12007875 -0.016398149 -0.05095025 -0.04823531
000150 e8 35 59 bd f5 6d cb 3c 87 11 13 bd 21 98 a1 bc
       -0.053029925 0.024832705 -0.035905387 -0.019725861
000160 a7 8d b3 3b 6b be 60 bb 7d b4 be 3c c9 ef 37 3d
       0.0054795328 -0.0034293185 0.023279423 0.04490641
000170 68 fc 33 bd f8 a6 90 3d c4 f2 de bc 39 11 8b bd
       -0.043941885 0.07063097 -0.027215369 -0.06790394
000180 19 24 a3 3c 2b ae a9 bd 3a 39 a7 bd bb fd 24 3d
       0.019914674 -0.08285173 -0.08165212 0.04028104
000190 85 a3 75 3b 5f af 0b bd b1 12 a1 3d 4f f9 d4 bb
       0.0037481498 -0.034102794 0.07864893 -0.0064994465
0001a0 98 f5 68 bd 2f 64 62 bd e6 fa 31 be d3 5b f7 bd
       -0.05687484 -0.055271324 -0.17380866 -0.12078061
0001b0 ae df dc 3d 1f d3 f1 bc 34 4e c4 bc 7d 79 83 bd
       0.10784851 -0.029519616 -0.023963071 -0.064196564
0001c0 b4 9d 3d bc 85 13 8e bb a0 05 8e bc 01 aa 8d 3c
       -0.011573244 -0.004335823 -0.017336667 0.017292978
0001d0 c9 30 82 bd 2f 9f a5 3d b6 f6 3c be e6 b8 bb 3d
       -0.06356961 0.080870025 -0.18453488 0.09166126
0001e0 34 84 c6 bc 5f 3a 03 ba b7 c1 1e 3d e3 be 63 3c
       -0.024232961 -0.00050059514 0.03875896 0.013900491
0001f0 d7 f9 13 bd 21 0d 08 be 95 6b 50 3d 86 72 9e 3d
       -0.036126938 -0.13286258 0.05088385 0.07736687
000200 07 b8 78 3d 04 ad a2 bc 2b da 2a bd 7d 31 63 3d
       0.060722377 -0.01985789 -0.041711967 0.055467118
000210 65 bd 81 3d 4e 82 de 3d 8a 46 7d 3b 63 f1 b2 3d
       0.06334952 0.108646974 0.003864678 0.08737447
000220 12 32 ce bc 41 dc 51 bd ae ca b2 3d 3c c0 9b bc
       -0.02517036 -0.05123544 0.08730064 -0.019012563
000230 6c 12 b3 3d ca 34 bd bc f3 2b 8f 3d 95 2a ae bc
       0.08743748 -0.02309646 0.069908045 -0.02126054
000240 50 ab 5c 3d e7 02 5f 3c 82 64 49 bd 0c f2 06 3e
       0.053874314 0.013611532 -0.049168117 0.13178271
000250 ba 47 03 3d ca 35 05 bd 02 c8 1b 3d 23 11 16 3a
       0.032050826 -0.032522 0.03803254 0.00057245995
000260 fe 88 61 bd b6 a3 27 3d a2 dd db 3d ee 65 1d bd
       -0.055062287 0.04092761 0.107356325 -0.038427286
000270 f7 d5 f1 3d 14 92 7b bc 05 3a 3a 3c f6 0c dc 3d
       0.11808389 -0.015354652 0.011366372 0.107446596
000280 1f 74 4c 3d ca b5 95 3c 04 e5 7f 38 cf 0b 00 3d
       0.04991543 0.01827516 6.1010025e-05 0.03126126
000290 44 a8 d5 bd 19 37 fb bd c2 ff b3 3d 04 6c 07 3d
       -0.10432485 -0.122663684 0.08789016 0.033061996
0002a0 09 23 97 3c 66 3d 5d be 20 25 c5 3d e8 11 90 bd
       0.018449323 -0.21605453 0.09626222 -0.07034665
0002b0 59 08 cd bc fd ce 76 bc 26 f4 1f bd 27 1a e7 bc
       -0.025028395 -0.015063998 -0.039051197 -0.028210713
0002c0 26 30 1c bc cc 28 95 bb ed b8 c9 bd a2 c2 f7 bc
       -0.009532964 -0.0045519825 -0.09849725 -0.030244175
0002d0 d3 ef 39 bb 2f 69 ba 3d 61 00 ef 3c 80 a9 65 bd
       -0.0028371706 0.091020934 0.029174985 -0.05606985
0002e0 5d 4b 0a be 3e 46 94 bd ae ab ce bd f4 19 bd bd
       -0.13505311 -0.0723996 -0.10091339 -0.09233466
0002f0 2d 2e 81 3d 71 00 e3 bc 91 78 95 bc bc 60 fc bd
       0.063076355 -0.027710171 -0.018245967 -0.12323138
000300 b6 1b ca 3d 25 7a f0 3d 0f 0d 33 bd ea aa 6c 3d
       0.09868567 0.11742047 -0.043713626 0.057780184
000310 39 31 16 3d ed a7 6b bd 71 47 9e bc e8 06 8f 3d
       0.036668036 -0.057533193 -0.019321175 0.06983739
000320 aa 41 95 bb 95 01 2a bd e8 d1 09 3e 92 ee e8 bb
       -0.004554947 -0.041505415 0.13458979 -0.007108518
000330 ef 4a 7f bb 52 96 f1 ba 0b 2b f3 bc 93 7a c0 3d
       -0.0038954576 -0.001843164 -0.02968361 0.09398379
000340 a7 f6 a2 3d 17 01 ac 3c 6b 8e 38 3d b6 04 11 bd
       0.079572015 0.020996613 0.045057695 -0.035404883
000350 45 93 5a bb 6e a7 89 3d f6 76 75 bc 99 5c e6 3d
       -0.003335194 0.06721388 -0.014981976 0.1124813
000360 f1 b5 c5 3d e5 b8 44 3b cd 3b 63 3d e8 0b 68 3d
       0.09653843 0.0030017432 0.055476952 0.05665198
000370 49 f0 c3 3d 22 cf ad 3d c4 de 16 3c c7 39 ae 3c
       0.09567315 0.08486773 0.009208385 0.021267785
000380 15 b4 37 3d f6 ea 92 ba d6 cb c7 3d 9c 1e 7a 3d
       0.044849474 -0.001120894 0.097556755 0.061064348
000390 46 b8 33 3d 1f fa 7c 3d e9 93 2f ba 58 ad 64 3d
       0.04387691 0.06176197 -0.00066977605 0.055829376
0003a0 97 0d c3 3d 32 e4 c8 ba 67 e9 fa 3c 5b 0e a9 39
       0.095240764 -0.0015326797 0.030628873 0.00032244888
0003b0 40 49 72 3d 64 f2 11 3d ee a8 7b bd 1d 38 72 3b
       0.059151888 0.035631552 -0.0614404 0.0036959716
0003c0 fa b2 51 3d 9f e3 f8 bc b3 3d 24 3c 46 a0 0a bd
       0.051196076 -0.030381976 0.010024476 -0.033844255
0003d0 3e b3 5b 3d 46 08 d3 3d 31 20 e3 3b f3 de c9 3d
       0.053637736 0.103043124 0.0069313277 0.09856977
0003e0 f0 ca 26 3d 56 98 8c 3c 9b 04 09 bd 90 f6 00 bd
       0.04072088 0.017162483 -0.033451658 -0.03148514
0003f0 06 c5 e6 3c 11 e2 c7 bd 09 69 36 bc cd 94 38 bc
       0.02817012 -0.097599156 -0.011133441 -0.011265946

network_body._body_endoder.seq_layers.2.bias f4 [256]
000000 ef fe ad 3b eb 3b ab 3b 60 97 4f 3b ec 56 49 3b
       0.0053099315 0.0052256486 0.003167592 0.0030721975
000010 8b e1 d5 3c 78 07 c2 3c 24 62 62 3b b6 c3 ff 3b
       0.026108524 0.023685202 0.003454336 0.007805313
000020 55 68 95 3c 6f 91 29 3c 52 c0 9e 3c 1f da 0d 3d
       0.018238226 0.0103496155 0.019378815 0.034631845
000030 8d 18 0d 3c c3 13 50 3c 32 53 42 3c 1a ca 08 3d
       0.00861181 0.012700024 0.011860656 0.033395864
000040 35 84 c9 bb 38 85 b0 3c f4 cd 0e bb 0c 92 f1 3c
       -0.0061497935 0.021547899 -0.0021790238 0.029488586
000050 ed 54 2e 3c 61 1d a8 3c ac 53 15 bc 88 d3 1f bc
       0.010640365 0.020521821 -0.009114187 -0.009755023
000060 7d 48 3a 3c 71 b2 42 bc c2 ad 33 3c 62 05 5a 3c
       0.011369822 -0.011883364 0.01096672 0.013306947
000070 1c 21 9a bc f0 30 d3 3c a2 60 6a 3c 41 1d 66 3c
       -0.018814616 0.025780171 0.014305266 0.014045061
000080 ea bb 60 3c f9 39 b1 3b 4b e9 90 bc e6 f3 d1 3b
       0.013716677 0.005408522 -0.017689368 0.006407249
000090 25 ac c7 3c f2 4b b7 3a eb 93 e3 3c ed 21 95 3c
       0.024374077 0.0013984425 0.027780494 0.018204654
0000a0 50 7a 10 3d 63 8b b5 bc fc 69 dc 3b 97 d7 d6 3b
       0.035272896 -0.022161191 0.0067265015 0.006556462
0000b0 df ab 59 3c 9d e4 a8 3c f2 b1 15 3c 49 03 8d bc
       0.013285606 0.020616824 0.009136664 -0.01721348
0000c0 70 29 71 3b 8c 7a 40 3c 6e d8 12 bc d1 96 3c bb
       0.003679838 0.011747967 -0.008962734 -0.0028776417
0000d0 8c ef a3 3c 0d 27 7b 3c b0 c5 b0 3b 99 b7 7e bc
       0.020011686 0.015329135 0.00539466 -0.015546703
0000e0 d7 e1 ef 3b 84 1f ec 3a 56 ee 43 3a 04 f7 a2 3c
       0.0073206234 0.0018014763 0.00074741745 0.019893177
0000f0 23 6d 33 3c 25 d8 e8 3b 26 c0 b6 bc b7 f7 66 3c
       0.010951313 0.0071058446 -0.02230842 0.014097146
000100 1d 14 c6 bb 0b 5b a8 3b 3e 4c 0a 3d 76 4c 98 bb
       -0.006044878 0.0051378063 0.033764116 -0.0046477867
000110 68 99 20 3c de c0 b1 3c d8 2a f5 3b fa b1 27 bc
       0.0098022 0.021698412 0.007481914 -0.010235304
000120 d5 e9 d9 bb c7 13 bf 3c 8f a8 3f 3c 96 c4 ab 3b
       -0.0066501894 0.02332486 0.011697902 0.0052419407
000130 f5 91 a6 3c 07 7a ac 39 0b 0c b8 3c 38 8d ae 3c
       0.02033327 0.00032897314 0.02246668 0.021307573
000140 89 7c 71 3c b3 3e 9c 3c d4 d2 ad 3c b3 5a c2 3b
       0.014739164 0.019072866 0.021218695 0.0059312223
000150 bc a9 95 3c e6 e3 4a bc 4a 87 4f bb ca a6 41 bc
       0.018269412 -0.012383437 -0.0031666332 -0.011819551
000160 e5 8c 6d 3c e2 9e 5c bb 3e 77 a2 3c dc 2d b0 ba
       0.014498924 -0.0033664037 0.01983225 -0.0013441402
000170 c7 76 4f 3b bf 43 de 3c 7b be c4 38 28 64 28 bc
       0.003165649 0.027131913 9.381488e-05 -0.010277785
000180 77 1c 54 3b e6 64 9c bc 2c ba 7e 3b 2a 81 8b 3c
       0.00323656 -0.01909108 0.0038868291 0.017029364
000190 5c a3 83 bc f2 9d 4d 3c 91 66 df 3c f2 6b de 3c
       -0.016069107 0.012549864 0.027270587 0.027151082
0001a0 d5 28 8d 3c 95 16 dc 3c ec 84 d9 3c 3c 59 31 bc
       0.017231384 0.026866237 0.02655264 -0.010824498
0001b0 bd bc ac 3c f7 5a 4e 3c ba 29 a9 3c 25 e1 6b 3c
       0.021086091 0.01259493 0.02064978 0.01439694
0001c0 02 bd 14 3b 15 0c d4 b9 e5 20 a5 bc 9e f3 5a 3c
       0.0022695665 -0.00040444793 -0.020157287 0.013363747
0001d0 48 74 95 3b 1f 36 a4 3c 5a ab 92 3a 56 fa 85 bc
       0.004560981 0.020045338 0.0011189983 -0.016354721
0001e0 db f2 b1 3c 97 bd 6a bb 7a cb 73 3b e5 09 21 3c
       0.021722248 -0.003581857 0.003720014 0.009829019
0001f0 4d e1 78 3c f9 4a 6e bb e8 95 d2 3b 7c dd 9a bb
       0.015190435 -0.0036360605 0.0064265616 -0.00472611
000200 01 1c 55 bc 0f 83 9d bc c9 ac 11 3b 32 d8 2b 3c
       -0.013007165 -0.019227533 0.0022228232 0.010488557
000210 c6 d7 a1 3c 48 4f 89 3b 0e 4f 50 3a 6c eb 4e bc
       0.01975621 0.0041903593 0.00079463504 -0.012629371
000220 7e 21 46 3b 69 3b 0c 3c e3 76 16 3b f3 c5 bf bc
       0.0030232365 0.008559086 0.0022959046 -0.02340982
000230 02 6e df bc 39 25 57 3c 7a 83 eb b8 64 e6 77 bb
       -0.027274136 0.013131433 -0.000112301626 -0.0037826532
000240 79 3e bb bb eb 03 35 3b e6 39 dd 3c a7 4f bd 3b
       -0.0057142344 0.0027620743 0.027005147 0.0057773176
000250 bc ed 84 3b b0 ff 10 3b d7 c4 9c 3c 0e 1a 92 3c
       0.0040566605 0.0022125058 0.01913683 0.01783469
000260 16 dc 4f 3c 72 66 3b 3c 68 c7 e3 ba bc 88 60 3c
       0.01268675 0.011437999 -0.0017378153 0.013704475
000270 d6 1c 90 bc d8 c0 ae bb 82 39 0d 3c 5d 9e af 3b
       -0.017591875 -0.0053330474 0.008619668 0.0053594545
000280 e7 34 87 3c 5f 94 42 3c 4c cd a0 3b ee 30 c5 ba
       0.016504718 0.011876195 0.004907286 -0.0015044489
000290 23 d5 90 bb 0b 18 38 3c c7 18 94 3b 09 a3 46 bc
       -0.004419939 0.011236201 0.0045195553 -0.012123832
0002a0 53 90 b5 3c 87 50 2e bc 45 65 53 3c af 6f 82 3b
       0.022163546 -0.010639316 0.0129025625 0.003980599
0002b0 31 bf 11 bc db c9 9a 3c 33 d4 c0 3c a9 e7 bc bc
       -0.008895681 0.01889508 0.023538684 -0.023059683
0002c0 a4 7e 3d bc b7 87 95 bb 15 74 65 3b 60 bc 19 3c
       -0.011565838 -0.0045632976 0.0035011817 0.009383291
0002d0 e0 7d 95 3b ef 70 22 3c 25 dc a9 3c 56 22 46 bc
       0.0045621246 0.009914621 0.020734856 -0.012093147
0002e0 f0 61 6f 3a 9e b0 80 bc 92 7b 9c bb 62 32 dd 3a
       0.000913172 -0.015709218 -0.004775473 0.0016875977
0002f0 7c 35 a0 bc 71 62 cb 3c fe 69 9b 3b 09 cd df 3c
       -0.019556753 0.024827214 0.00474286 0.027319448
000300 91 65 1a 3c 1e c1 28 bb 77 58 0f 3b 31 d4 aa bc
       0.009423629 -0.0025749872 0.0021872798 -0.020853134
000310 6b ad 5c bc e4 d3 43 bc be ae 24 39 95 f6 b3 bc
       -0.01346908 -0.011952374 0.00015705355 -0.021968165
000320 3c c6 9b bc b0 55 bb 3c 76 e4 d8 bb 87 a2 31 3c
       -0.019015424 0.022868007 -0.0066190315 0.010841972
000330 8d ff 24 3c 60 b4 1d bc ce 51 83 3c 68 4e 25 3c
       0.010070694 -0.009625524 0.016030218 0.010089494
000340 53 ff 23 3c e1 a4 07 3c 3f 72 c2 3b a3 a7 63 bb
       0.0100096045 0.008279056 0.0059340294 -0.003473737
000350 d0 32 e3 3c 3b ff 1b 3c ac 8a a5 3b 0f cf ea 3c
       0.02773419 0.009521301 0.0050519314 0.028663186
000360 6a 94 5a 3c 56 45 4c 3c 9a 64 2e b9 96 2b ca 3c
       0.013341049 0.012467703 -0.0001663141 0.024678987
000370 0f 42 43 3c 01 d7 8c 3b 07 12 20 3d 07 49 99 3c
       0.011917605 0.0042980914 0.039079692 0.01871158
000380 3a 87 07 3d bd 5d d8 3b c2 de 9f 3c 90 2a fb 3b
       0.033087946 0.0066029713 0.019515399 0.007664986
000390 76 86 64 3c a7 65 78 3c 8d 77 b0 3b 3c 9f 37 ba
       0.013948074 0.015160955 0.0053853453 -0.0007004624
0003a0 73 a0 01 3c 03 a5 06 bc 36 d0 5e bb ae ff 07 bc
       0.007911789 -0.008218053 -0.0033998615 -0.008300705
0003b0 9a 64 d4 3c 71 ed 9c bc f0 dc c3 3c ed ee 42 3c
       0.025926877 -0.01915619 0.023909062 0.011897785
0003c0 1b 7e 16 3c 20 bc 84 3c 0c 24 f7 ba 9e 8c a2 3b
       0.009185339 0.016202986 -0.0018855347 0.0049606105
0003d0 6a 3a f6 3c e6 29 d8 bb 2f 32 b8 3a e4 2a 1f 3c
       0.03005715 -0.0065967916 0.0014053042 0.009714816
0003e0 2e 07 9c bc ee da d3 3c cb 30 e7 3c 53 7d ef 3b
       -0.019046392 0.02586123 0.028221508 0.007308641
0003f0 e4 f2 d6 3b be bc 9d 3c ee b6 37 3a fe 87 a8 3c
       0.0065597165 0.019255038 0.00070081546 0.020572659

action_model._continuous_distribution.log_sigma f4 [1, 3]
000000 fe dc a8 ba f7 99 f0 bb 39 70 d0 3a
       -0.0012883244 -0.007342573 0.0015902586

action_model._continuous_distribution.mu.weight f4 [3, 256]
000000 af 54 4e 3c 08 bb 68 3c da 40 53 bc 69 c2 f8 3b
       0.012593432 0.014204748 -0.01289388 0.007591535
000010 fe 6c b9 3b 9b f2 02 bb ee 7c 89 3b f3 a4 f9 3b
       0.005658745 -0.001998103 0.004195801 0.0076185404
000020 01 4f 58 bb 6d fb 0b bc 92 23 47 bc 65 81 57 3b
       -0.0033006074 -0.008543831 -0.012154477 0.0032883522
000030 72 33 96 bb 82 d3 f1 3b 0b 3d a9 3c 58 6a e1 bb
       -0.0045837695 0.00737995 0.02065899 -0.0068791322
000040 bd d6 7f bc fc 93 30 3c 84 ae 18 bc cb fe 3b 3c
       -0.015615162 0.01077747 -0.0093189515 0.011474322
000050 db 85 aa 3b b4 66 3a bb e7 04 89 bc 9d 40 1d 3b
       0.005203945 -0.0028442563 -0.01672597 0.0023994811
000060 98 95 23 3c dd 45 a4 3c 62 c5 e5 bb 72 24 04 3c
       0.009984396 0.020052845 -0.0070120553 0.00806533
000070 20 1d 1b 3c 1f 05 45 3c a0 1c aa 3b 4c 07 6f bc
       0.009467393 0.012025147 0.0051914006 -0.014589142
000080 66 25 d0 3b 20 12 1a bb 2a b4 c6 3b 14 08 86 bc
       0.0063521145 -0.0023509338 0.0060639577 -0.016361274
000090 58 46 20 bc 88 89 01 bd e2 63 cb 3b 1a c4 87 bc
       -0.009782396 -0.0316253 0.0062069753 -0.016573
0000a0 4c 46 ce 3b 26 68 11 3b 5c a5 bc 3b b6 d1 2b bb
       0.006295001 0.0022187321 0.005757017 -0.0026217527
0000b0 76 dd a9 bb 81 e8 bf bb 6e 6c 09 bc 95 a1 55 bc
       -0.005183871 -0.005856574 -0.008387668 -0.013039012
0000c0 2d a0 cb bb 92 5e 53 3c 63 ce 86 bc e3 e2 31 bb
       -0.006214163 0.012900965 -0.016455835 -0.0027143292
0000d0 5f 9b 0e 3c 6d 96 54 bc cd 2c 21 3c a9 7e b5 3c
       0.008704036 -0.012975317 0.0098373415 0.022155123
0000e0 c8 13 8c 3b 59 35 59 bc 3f c3 3b 3c 4b 35 e7 3b
       0.004274819 -0.013257348 0.0114601245 0.0070559136
0000f0 00 dc 15 bc 48 10 e3 3c ef 6d 89 3b 5f dd 24 3c
       -0.00914669 0.027717724 0.0041940133 0.010062545
000100 90 6f 97 3b bc 7f 0f bc 87 02 a9 bb 17 c9 cb bc
       0.0046214536 -0.008758482 -0.005157772 -0.02487616
000110 be c3 f0 3b 39 9b 3c 3b 4d 7f e0 bc 47 e1 f7 3b
       0.007347553 0.0028779043 -0.027404452 0.007564697
000120 e6 1c a9 3c a4 dd ce 3b 76 f7 8b bc 6f 14 ec 3b
       0.020643663 0.0063130427 -0.017085772 0.0072045843
000130 b5 70 4b 3c cf b4 01 3d 38 4a 89 3b ec 4e 64 3a
       0.012417008 0.031666573 0.004189756 0.000870927
000140 a4 10 01 bc ef 70 a2 ba 15 e3 f4 3a be e6 03 bb
       -0.007877503 -0.0012393276 0.0018683398 -0.0020126547
000150 f2 d2 66 bc f1 9b 0f bb f5 c0 0f 3c 5c d9 4f 3c
       -0.014088379 -0.0021913017 0.008774032 0.0126861
000160 64 cf ac bc 9e eb e7 bb 20 19 7a 3b a0 45 79 bc
       -0.021094985 -0.0070776483 0.0038161948 -0.015214354
000170 b5 1d b9 b9 5c af 2f 3a 51 b1 48 bc 6f 87 36 3c
       -0.00035308083 0.0006701851 -0.012249307 0.011140688
000180 45 98 cb 3b 0c 14 f4 3b 18 7d 3c bc df 97 0d bb
       0.0062132203 0.007448679 -0.011504434 -0.0021605415
000190 d1 7b 6f 3c c9 e2 d8 bb 93 8b 81 3c a4 2e 94 3c
       0.0146169225 -0.006618832 0.015813624 0.018088646
0001a0 24 93 c8 bc 4d 25 94 bb 1e 9e bd bb ac 88 02 bc
       -0.024484225 -0.004521048 -0.0057866713 -0.007967155
0001b0 67 43 8c 3b 10 ce 35 bc fc ae 8e 3c d9 d0 fe 3a
       0.004280496 -0.011096492 0.017417423 0.0019440904
0001c0 01 76 c2 bc ad 0e af bb 27 e4 49 bb ec 93 e2 3b
       -0.02373791 -0.0053423257 -0.0030806155 0.0069146063
0001d0 37 6c 41 bc 3f b4 85 39 6b d3 66 3b e8 72 cf 3b
       -0.011805586 0.0002550203 0.003522123 0.0063308366
0001e0 7a ef cb 3b 1a 58 bc bb f7 46 e1 3b d3 00 9a bb
       0.006223616 -0.005747807 0.0068749147 -0.0046998053
0001f0 ee 53 11 bc dd c1 ee bb 5a e1 a1 3c 96 a4 28 bc
       -0.008870108 -0.007286294 0.019760776 -0.010293147
000200 72 e6 62 3c d5 65 8b 3b d5 3d 43 bc 4a 7c 05 3d
       0.013848888 0.0042540827 -0.011916597 0.032589234
000210 ad 58 0c bc d0 06 69 3c 8f 64 ba bb 72 d9 dd 3b
       -0.008566064 0.014222816 -0.005688257 0.0067703063
000220 6a db 7a bc 32 2f ee 3b 6f a1 b1 bb 3a 79 f8 bb
       -0.015311101 0.0072688097 -0.0054208557 -0.0075828107
000230 07 54 99 bb 79 ab ac 3c 60 9a a6 3c b4 3e 19 3b
       -0.0046792063 0.021077858 0.020337284 0.0023383321
000240 ff ee 2d 3c d3 23 92 3c 68 81 07 3a e5 0b 88 3c
       0.010616063 0.017839348 0.00051691243 0.016607234
000250 50 c5 2b 3a 19 f6 92 bb 78 17 87 bb e2 43 e4 ba
       0.0006552534 -0.0044849035 -0.0041226707 -0.001741525
000260 38 d2 cd bb 21 43 21 bc 17 06 bd bc 9a 2f 8f bc
       -0.0062811635 -0.009842665 -0.023074193 -0.017478753
000270 16 bc 00 3c 5e 42 ab 3c 36 60 27 3c 51 ce 0f 3c
       0.007857343 0.02090567 0.01021581 0.008777217
000280 f3 19 7e bc 49 82 02 bc 5f 78 f7 3c 8f f4 4d bc
       -0.015509116 -0.007965633 0.030208765 -0.012570514
000290 79 98 ad bc e1 38 0c bd 1f 47 92 3c a4 5d e9 3a
       -0.021190869 -0.03423393 0.017856179 0.0017804396
0002a0 a7 33 12 3c 6d 36 c5 3b b9 42 84 bc da 14 74 ba
       0.008923448 0.006018451 -0.016145097 -0.00093109685
0002b0 a1 b4 d1 bc cf 2f 07 bc d2 3a d8 3b 0e 90 06 bb
       -0.025598826 -0.008251145 0.006598809 -0.002053264
0002c0 26 be 91 3b 38 f4 af bc 14 76 7d bc 85 48 6a 3c
       0.0044477163 -0.021478757 -0.015470047 0.014299517
0002d0 bb c4 ae 3c 23 05 9c 3c 5d 74 2f 3c b2 03 07 bc
       0.021334043 0.019045418 0.0107088955 -0.008240627
0002e0 20 9c c2 bb fd ef bf bb 13 d1 73 3c ca 1a 1b bc
       -0.0059390217 -0.0058574663 0.01488139 -0.009466836
0002f0 fc 10 46 3a 86 c3 90 3c 24 79 80 bc 92 7b 41 ba
       0.00075556315 0.017671358 -0.015682764 -0.0007380779
000300 51 41 79 3c d7 3d 88 3b 4a fb cd 3b 41 f2 85 bb
       0.015213327 0.0041577625 0.0062860595 -0.004087717
000310 d8 78 24 bc 05 58 90 bc ab a0 54 bc 9a d2 67 bc
       -0.010038577 -0.017620096 -0.012977759 -0.014149332
000320 13 8d d1 3b 5a 52 22 3b ea 70 22 bc 49 31 cf bb
       0.006394991 0.0024768324 -0.009914616 -0.006323014
000330 6e ec 8c 3b ad 87 ab bc a2 3c fd 3b e5 2e 73 3c
       0.0043006456 -0.020938719 0.0077281753 0.0148427235
000340 ac fc a7 3a e1 fb 54 3c 1e 5b a8 bb a0 51 c6 bc
       0.0012816391 0.012999506 -0.005137815 -0.024208844
000350 7a 06 11 3c 9a 32 8e 3c 22 3f 05 3b ae d7 0e 3c
       0.008851642 0.017358113 0.002033182 0.008718414
000360 f4 c9 c9 3a 5b 99 cb 3b 5c 92 ba ba 31 9f 42 3c
       0.001539527 0.0062133498 -0.0014234292 0.0118787745
000370 16 7e d6 bb eb 67 f9 3c 93 3c e3 38 2c 21 91 ba
       -0.0065457923 0.03044506 0.00010835486 -0.0011072508
000380 e6 2e 44 3b a1 9a 36 3c 4f 6b ac 3b e5 6c bd bb
       0.002993518 0.011145265 0.0052618156 -0.0057808035
000390 bb d4 27 bc 41 e3 99 3c a9 7c 36 3c 0d 32 26 bc
       -0.01024359 0.01878512 0.01113812 -0.010143769
0003a0 ce 31 53 bc 20 1c 0e bc ed 79 e4 bb 72 2b 70 bb
       -0.012890292 -0.008673698 -0.0069725425 -0.003664699
0003b0 c7 3b 2a bb df 8b 0e 3c 91 4f 6b bb ce bb 5e 3b
       -0.0025975571 0.00870034 -0.003590558 0.0033986452
0003c0 5c 75 a8 bc 79 e3 58 bb ba c5 bb bb 90 36 c2 bb
       -0.020563774 -0.0033094569 -0.005730358 -0.0059269145
0003d0 d1 5d be bb 56 52 55 3c 63 da d8 ba 69 26 fa bc
       -0.0058095236 0.013020119 -0.0016544577 -0.030535894
0003e0 12 79 90 3a 7d 84 19 3c 03 b7 06 3c 5a f4 f8 3b
       0.001102241 0.009369967 0.008222344 0.0075974884
0003f0 8f 6c 9f 3c 05 c7 66 bb 73 13 35 bc 64 6f 23 bc
       0.019460944 -0.003521384 -0.011052 -0.009975288

action_model._continuous_distribution.mu.bias f4 [3]
000000 98 02 54 3b d6 4f 4d 3b d3 63 4f bb
       0.0032350179 0.0031328104 -0.0031645193

action_model._discrete_distribution.branches.0.weight f4 [7, 256]
000000 f7 83 08 38 3e 38 18 bb 86 44 e0 bb 0d f2 ae 3b
       3.254783e-05 -0.0023226882 -0.006844106 0.0053389133
000010 34 11 05 bc 9c 1b 2d bc 32 a4 3f bb 7e 56 2c ba
       -0.008121777 -0.010565665 -0.0029242155 -0.00065741676
000020 e1 7a ee bb db 0e 26 bc 0a 6c 2f bc c4 43 a3 bc
       -0.007277832 -0.010135378 -0.010706911 -0.019929774
000030 30 1d b2 b9 c2 1a 46 bc 95 8b 57 bc b3 16 65 bc
       -0.00033972552 -0.0120913405 -0.013155838 -0.013982463
000040 8a 85 08 ba 54 f4 c8 bb bc ef 4f bc e8 57 b6 bb
       -0.0005207887 -0.006132642 -0.0126914345 -0.0055646785
000050 51 41 92 bc 1a 55 38 bb bc 7f 13 3c 64 98 55 3c
       -0.01785341 -0.0028126896 0.009002622 0.013036821
000060 d6 52 51 bc c4 e2 fe 3b f9 9e a2 bc 08 9f 20 bc
       -0.012776097 0.0077784974 -0.019851195 -0.009803541
000070 7f c5 99 3c 4a 68 60 bc dc f2 9f ba e9 c2 39 bb
       0.018770931 -0.013696739 -0.0012203115 -0.0028344935
000080 f5 e0 cc bc 42 0c 62 bb 8c 2b aa 3c 7c 07 17 bc
       -0.025009612 -0.003449217 0.020772718 -0.009218093
000090 10 72 96 bc 7c 1f 4f bc 17 a6 5a bc 40 c8 cf bc
       -0.018364936 -0.012641784 -0.013345263 -0.025364041
0000a0 3f bd 7c bc bd 4b 71 3c c4 d5 d3 3b 46 b4 86 bb
       -0.015425979 0.01472753 0.006464692 -0.0041108457
0000b0 d8 85 7f bc 89 74 0d bc 20 da 53 bc 53 d0 a6 3c
       -0.015595876 -0.008633741 -0.012930423 0.020363009
0000c0 18 56 39 bc 73 52 bb 39 98 af c5 3b 31 69 08 3b
       -0.01131203 0.0003572885 0.0060328953 0.0020814652
0000d0 02 e5 5d bc 19 4c 27 bb b0 48 de 3b 7c d6 9a 3c
       -0.013543369 -0.0025527535 0.0067835674 0.018901102
0000e0 87 9e 1c bc 9c ce c4 bb a0 78 1c 3b f2 29 22 bc
       -0.00955928 -0.006006075 0.002387561 -0.009897696
0000f0 79 25 1f bb f7 af b9 bb 9b 28 99 3c fd fb 9f bc
       -0.002428381 -0.0056667286 0.01869612 -0.019529337
000100 88 0f 33 bc c4 ec 9f bb cc 8f 3d bb 29 fa 51 bc
       -0.010928996 -0.0048805196 -0.002892482 -0.0128159905
000110 45 1b f3 3a e3 63 42 bc 3a 63 32 bc 32 7f ba 3b
       0.0018547556 -0.011864635 -0.010887915 0.0056914324
000120 48 98 84 3c 8b 69 f7 bb 74 50 fe bb 4b f8 e0 3b
       0.016185895 -0.0075504235 -0.0077610556 0.0068655363
000130 42 70 5f bc 05 87 29 bb 78 8c 96 bc e9 cf 0e bc
       -0.013637604 -0.0025867831 -0.018377528 -0.008716562
000140 6d b7 26 ba 3b da 0f bc d5 20 57 bb 96 a6 e3 bb
       -0.000635973 -0.008780058 -0.0032825966 -0.006947349
000150 6a 79 d9 bc 2f 89 4a 3c 67 b5 76 3c 60 61 17 3c
       -0.026547153 0.012361809 0.015057898 0.009239525
000160 4a 6b f4 39 f4 05 81 ba 9b f2 82 bc 65 ac f4 ba
       0.00046619243 -0.0009843693 -0.015984824 -0.00186671
000170 23 5c ed bb d7 b7 9d bc 83 34 8e 39 cc 0b 1c 3c
       -0.0072436496 -0.0192527 0.00027123475 0.009524297
000180 23 50 f1 bb 82 7a 23 3c 44 eb 09 bb e1 68 94 bc
       -0.0073642894 0.009977939 -0.002104477 -0.018116416
000190 69 ee ee 3c 62 75 aa bb 84 f8 70 bc dc 32 94 bc
       0.029166417 -0.0052019814 -0.014707688 -0.018090658
0001a0 ea ef 9c bc 63 3b d1 bc 14 8a a9 bc 7f bf 15 ba
       -0.019157369 -0.025541013 -0.020695724 -0.0005712434
0001b0 71 fc ca bc 9a f0 20 bc db c3 82 bc 42 75 c4 bc
       -0.024778577 -0.009822989 -0.015962532 -0.023981694
0001c0 72 2f d3 3c 17 ef 7f bb f6 2c 94 3c 06 aa 81 bb
       0.02577946 -0.003905242 0.018087845 -0.003957036
0001d0 0c 14 80 bc 81 a8 83 bc d8 80 6e 3c 7e 98 bf 3c
       -0.01563456 -0.01607156 0.014557086 0.023388144
0001e0 aa 17 98 bc c0 35 48 3b b4 03 84 bb 13 2d 0b bb
       -0.018565971 0.0030549616 -0.0040287618 -0.0021236583
0001f0 0f ac 12 bc 2b 6b 1c bc 8c ce 45 bc 7f 3e d5 3b
       -0.008952155 -0.009547035 -0.01207317 0.0065076943
000200 57 c5 b4 3c 2a 28 5d 3c 5e 31 2c bc 6e 94 13 bc
       0.022066755 0.013498345 -0.010509817 -0.009007556
000210 87 66 fe bc b1 40 f8 3b 55 a0 11 bc 70 88 97 3b
       -0.031054748 0.007576071 -0.008888324 0.004624419
000220 bc 3f 3d bc 23 8e d5 3a b1 72 70 bc 5e c9 99 3c
       -0.01155084 0.001629297 -0.014675782 0.018772777
000230 3d fa 8c 3c 1d 44 15 bb 35 49 a6 3b 2b dd f6 ba
       0.017209167 -0.0022776194 0.005074645 -0.0018834224
000240 86 18 02 3a e0 aa 50 bc e0 e7 a1 bc 4a e5 75 bc
       0.0004962761 -0.012736052 -0.019763887 -0.01500828
000250 ec 16 a3 bc 94 8f cd 3b 52 50 88 bc b4 64 a3 bb
       -0.019908391 0.0062732194 -0.016639862 -0.00498637
000260 a8 62 13 bc 3b 07 13 bb 06 7a 32 bc f8 4d ad bc
       -0.008995689 -0.002243473 -0.0108933505 -0.021155342
000270 53 d9 b2 3c f8 91 84 bb ec 45 3d bc 19 5b c4 bb
       0.021832144 -0.004045721 -0.011552315 -0.005992305
000280 e7 3c b0 bc 02 8d 0f bb 0a bd 96 3a 9d ba 60 3a
       -0.021513416 -0.0021904116 0.001150043 0.00085727294
000290 a4 b1 83 3b 3e 82 aa bb 12 52 a6 bb 80 dd 80 3c
       0.004018979 -0.0052035144 -0.0050757015 0.01573062
0002a0 fc 47 aa bc a2 f0 c0 39 86 4d 7c bc 00 59 02 bb
       -0.020786278 0.0003680038 -0.015399342 -0.0019889474
0002b0 49 d8 96 3c 2c 8f 9e bc 8c aa c5 bc b6 de 8c 3c
       0.01841368 -0.019355379 -0.024129175 0.01719604
0002c0 cb e9 84 3b 8b 03 31 3c 70 02 a4 bc da 84 59 bb
       0.0040561906 0.010804067 -0.020020694 -0.0033190758
0002d0 f7 ea 2c bb 54 8c 4c bc 6e 84 7e bc 86 ce 8a 3b
       -0.0026385167 -0.012484629 -0.015534503 0.0042360453
0002e0 77 4e 9e bb 24 9d 18 3b 77 10 55 3c 1d 6b 50 3a
       -0.004831131 0.0023287022 0.013004414 0.00079505314
0002f0 ea 14 28 3c 32 b2 cc bc df db 56 3b 86 91 7a bc
       0.010258893 -0.024987314 0.0032784862 -0.015293485
000300 75 1a 84 bb cd ce d2 3b 87 40 86 bb e6 24 62 3c
       -0.0040314742 0.006433344 -0.0040970477 0.013802743
000310 24 ee 34 3c 1b c6 0a 3c 8b fa ec bb 93 ad 0a 3d
       0.011043105 0.008470084 -0.0072320155 0.03385694
000320 13 2f e2 3b 23 a5 33 bc c1 22 83 3c 07 2e 7d bc
       0.0069025843 -0.010964665 0.016007783 -0.015452868
000330 81 4e c2 3a 05 27 e0 3b 70 8c 4e bc 0c 87 5d 38
       0.0014824421 0.006840589 -0.012606725 5.281628e-05
000340 be 71 44 bc 36 4f b1 ba cf dc 94 bb b3 f2 b9 3b
       -0.011990009 -0.0013527635 -0.004542924 0.005674684
000350 42 a5 b8 bc 97 88 bf 3a ed ce c2 39 9a 41 9f bb
       -0.022539739 0.001461285 0.00037156735 -0.0048601152
000360 8f 9d c4 ba 70 1b 8b ba 74 a0 48 bb d6 65 a3 bc
       -0.0015000569 -0.0010613035 -0.0030613216 -0.01994602
000370 93 3c 91 bc 18 d9 8b ba a1 20 97 bc e9 a1 9e bc
       -0.01772908 -0.0010669557 -0.018448176 -0.019364314
000380 96 a1 74 bc fd ee b8 bb e5 14 b7 ba e7 2d 92 bc
       -0.014931103 -0.005643724 -0.0013968019 -0.017844154
000390 db 23 43 3c d3 3a b0 bb bd 35 9c bc d0 97 2f bc
       0.011910404 -0.005378106 -0.019068593 -0.010717347
0003a0 a3 28 56 bb 7e 28 56 3c 8c 93 bb ba 00 7f d9 3c
       -0.003267803 0.0130711775 -0.001431094 0.026549816
0003b0 72 84 06 bd f2 8e ae ba 6b 9b c9 bb 4e 5d 67 bc
       -0.032841153 -0.0013317748 -0.0061525605 -0.014121367
0003c0 63 09 b4 bc 69 d1 dc bc 34 3d 0d 3b 03 94 eb 3b
       -0.021977132 -0.026955323 0.0021551372 0.007189275
0003d0 7a 55 cb bc df 0c 53 3b 5d 0c 82 bc a4 67 88 bb
       -0.024821032 0.0032203717 -0.015875036 -0.0041627456
0003e0 10 01 43 3c 38 e3 b5 bc 87 b1 89 bc 1e 45 22 bc
       0.011902109 -0.022203073 -0.016808284 -0.009904174
0003f0 d2 e7 9f 3a 35 bb 98 bb 0f e6 fc bb 1b eb 3a bc
       0.0012199825 -0.0046609887 -0.007717855 -0.011408593

action_model._discrete_distribution.branches.0.bias f4 [7]
000000 33 6c 9b bc 54 08 83 bc 8d 2c 64 bc ed aa 49 bc
       -0.018972492 -0.015995182 -0.013926637 -0.012308818
000010 f8 5a a6 bc ef 01 dc 3c 97 30 ba 3c
       -0.02030705 0.02685639 0.022728248

onnx::Div_90 f4 [84]
000000 71 dd 0c 3b 23 ae ff 3e b3 e9 fe 3e eb 9c a3 3e
       0.0021494294 0.49937543 0.49787673 0.31955656
000010 71 dd 0c 3b 10 d8 ff 3e 1b 35 ff 3e cd ee a4 3e
       0.0021494294 0.4996953 0.49845204 0.3221344
000020 71 dd 0c 3b 0d 88 ff 3e 4f a5 fe 3e a5 d8 a1 3e
       0.0021494294 0.49908486 0.49735495 0.316106
000030 71 dd 0c 3b 88 f5 ff 3e 7e 82 ff 3e 3f b1 a5 3e
       0.0021494294 0.49992013 0.49904245 0.3236179
000040 71 dd 0c 3b d3 74 ff 3e 02 89 fe 3e e1 b1 9f 3e
       0.0021494294 0.49893817 0.49713904 0.31190398
000050 71 dd 0c 3b 74 ff ff 3e 6d ae ff 3e 17 93 a5 3e
       0.0021494294 0.49999583 0.49937764 0.32338783
000060 71 dd 0c 3b ca 8b ff 3e 48 b1 fe 3e e5 43 9d 3e
       0.0021494294 0.49911338 0.4974463 0.30715862
000070 71 dd 0c 3b 1a 00 00 3f 46 cf ff 3e 20 8d a4 3e
       0.0021494294 0.50000155 0.49962825 0.3213892
000080 71 dd 0c 3b 82 b9 ff 3e a8 01 ff 3e 86 cd 9a 3e
       0.0021494294 0.4994622 0.4980595 0.30234927
000090 71 dd 0c 3b c6 f8 ff 3e ea e8 ff 3e 09 c3 a2 3e
       0.0021494294 0.49994487 0.49982387 0.31789425
0000a0 71 dd 0c 3b 35 f5 ff 3e 61 80 ff 3e 8d 2e 98 3e
       0.0021494294 0.49991766 0.49902633 0.29723015
0000b0 71 dd 0c 3b 2c e8 ff 3e ff f9 ff 3e 9b 46 a0 3e
       0.0021494294 0.4998182 0.4999542 0.31303868
0000c0 71 dd 0c 3b 7c f5 ff 3e a0 ed ff 3e 46 91 95 3e
       0.0021494294 0.49991977 0.4998598 0.29212397
0000d0 71 dd 0c 3b 9d be ff 3e ee ff ff 3e 08 1d 9d 3e
       0.0021494294 0.49950114 0.49999946 0.30686212
0000e0 71 dd 0c 3b 27 81 ff 3e d4 f2 ff 3e 26 fb 92 3e
       0.0021494294 0.49903223 0.4998995 0.28707236
0000f0 71 dd 0c 3b b6 79 ff 3e 1b ed ff 3e 7b 75 99 3e
       0.0021494294 0.49897546 0.49985585 0.29972443
000100 71 dd 0c 3b 0a 9c fe 3e e8 78 ff 3e 5e 62 90 3e
       0.0021494294 0.49728423 0.49896932 0.28200048
000110 71 dd 0c 3b 7b ca fe 3e 78 dd ff 3e a7 fe 99 3e
       0.0021494294 0.49763855 0.49973655 0.30077097
000120 71 dd 0c 3b 5f 74 fd 3e fd b3 fe 3e 57 2d 8e 3e
       0.0021494294 0.49502847 0.49746695 0.27768967
000130 71 dd 0c 3b b3 11 fe 3e e4 9a ff 3e 5d 43 97 3e
       0.0021494294 0.49622878 0.4992286 0.29543582
000140 71 dd 0c 3b 25 8a fc 3e 30 0e fe 3e c6 1c 8c 3e
       0.0021494294 0.49324146 0.496202 0.27365702

onnx::Div_96 f4 [37]
000000 95 c8 80 41 d1 11 03 3d 2f 19 82 41 71 dd 0c 3b
       16.09794 0.031999413 16.262297 0.0021494294
000010 5e 73 95 3e 71 dd 0c 3b 5c 72 b8 41 fe 1f 28 3b
       0.2918958 0.0021494294 23.05584 0.0025653834
000020 77 32 b5 41 71 dd 0c 3b 5a 41 94 3e 71 dd 0c 3b
       22.649641 0.0021494294 0.2895611 0.0021494294
000030 fd af 3c 3e eb 4a 37 3e f0 87 e0 3e c1 c2 ff 3e
       0.18426509 0.17899673 0.43853712 0.49953273
000040 71 dd 0c 3b 43 88 e0 3e 71 dd 0c 3b 50 83 9a 3f
       0.0021494294 0.4385396 0.0021494294 1.2071323
000050 71 dd 0c 3b 67 7c 8e 3f 74 2a 35 3f 69 07 0d 3b
       0.0021494294 1.1131715 0.70767903 0.002151931
000060 25 95 34 3f 8e 21 93 3e d9 c6 8a 3e e1 c6 8a 3e
       0.70540076 0.28736538 0.27104834 0.27104858
000070 e4 5f 89 3e e8 5f 89 3e 90 2c 0b 3e 32 ac 6e 3f
       0.2683097 0.26830983 0.13591218 0.932315
000080 e4 83 93 3e bb 9b 34 3f 16 10 03 3d 51 d0 59 41
       0.28811562 0.70550126 0.031997763 13.6133585
000090 aa de 93 3e
       0.28880817
