results/NewTest2/BoxingAgent.onnx (onnx, 320604 bytes, 11 tensors)

network_body.observation_encoder.processors.0.normalizer.running_mean f4 [37]
00000000: e933 05bf a086 6d41 1a20 71c1 0000 0000
00000010: 1987 063f 0000 0000 ea87 563e 0000 0000
00000020: 1e1c 0b3e 0000 0000 e1eb 053f 0000 0000
00000030: b816 783f 2079 783f d2d8 993e e716 833e
00000040: 15f5 b03e 6113 333f acbb df3e 6d29 93bc
00000050: 0000 0000 c624 3abe 9d83 8b3b 0000 0000
00000060: 99f6 9aba aa07 813e acd4 023f 2056 fa3e
00000070: c5a3 f63e e8ad 043f f0cc 833d 21cc 573e
00000080: ec18 123f 2c4e f2bc a086 6d41 9728 a041
00000090: 095e 003f
-0.52032334 14.845367 -15.070337 0.0 0.5254989 0.0 0.20950285 0.0
0.13584945 0.0 0.5231305 0.0 0.96909666 0.9705982 0.30048233 0.2560341
0.34561983 0.69951445 0.4369787 -0.01796409 0.0 -0.1817809 0.004257633 0.0
-0.0011822759 0.2520116 0.5110576 0.48893833 0.4817182 0.5182786 0.06435573 0.21073963
0.5706928 -0.02957829 14.845367 20.01982 0.50143486

network_body._body_endoder.seq_layers.0.weight f4 [256, 37]
00000000: 08aa 4abd 87e6 60be 8359 ab3d db19 c13c
00000010: e953 40bd 7372 b43c e33d b2bd 89b3 af3e
00000020: 21fb 61be bc34 65be 2800 a6bd 95a5 3bbd
00000030: 582a 49bc 6d61 7f3c 2f43 2e3d f29a 793e
00000040: 4576 32be d6a0 183e 2ee0 133e ddb4 0f3e
00000050: 4811 023e 1611 15bd a8e3 8abe c8c3 91be
00000060: 4816 d63d f144 9b3c 3298 65bb d9c5 babd
00000070: 9189 873d b732 903c b3a5 88bd 4c09 59be
00000080: 1656 4a3d 1ce4 203e c74b 73be d49b 9c3c
00000090: 246b 28bd 78e9 23be 981b 433d 9ffa 72bc
000000a0: 25ba 343e e0ca 933d 12ce 063c 7b43 b13c
000000b0: 71a4 f4bd 594f 90bc 2c92 0dbc 9e0c eabd
000000c0: 9f1c a93e de4c 533e 7ac1 98bd 05c7 9abe
000000d0: 22b1 21bb 303e c33c b393 643e 49d7 3bbd
000000e0: 1d46 85bd 88b5 96bd 9665 b03e 5f14 e3bb
000000f0: 3091 b13d 62b1 933d f571 bebd 15e9 a3bd
00000100: e793 fa3d f703 e1bd dc05 1e3e 2c6a 5fbe
00000110: 3630 3f3e d42d 7f3e c1d6 99bb 1dcf e63d
00000120: daf9 abbe ec04 ed3d e6e7 f33d 557d f23d
00000130: 1c3d 30bd 358c 9b3d 5717 aebd 1737 91bd
00000140: a878 c63c 3d2d 67be 294e aebd 444a d13c
00000150: b057 af3e 7e34 173e d04d 063d b859 5b3e
00000160: 08d2 61bd b1cb 0e3e 2045 623d 1e82 973e
00000170: 966d 4c3d 23ad d1bd 9e9d e53b 6e91 44be
00000180: d45b fdbe defa 13be 391b edbd e2a2 133d
00000190: f608 24be 5a82 37be da14 80bd 8076 c1bd
000001a0: e9e9 9c3d 5209 61be 8ac1 bebe 0de1 2abe
000001b0: ddec 1bbe b290 9bbe 9525 11bd df03 ad3c
000001c0: 69cf a43c 0c08 7e3e 7c72 41be 9c98 4bbc
000001d0: 2cd0 27bc c8b3 003f 4939 9abe a229 413e
000001e0: a681 c83e ef31 8cbd b6b8 5bbe 09a3 96bc
000001f0: 520b 8a3d 316a 273d b1d7 e03d 057a 133e
00000200: a58a 50be e3d3 1cbe f294 c5bd c82f 50be
00000210: 8cf3 183d f03b 4cbc d382 33bc 95e7 ef3d
00000220: 9f2b 44bd cd0a d2ba e61d b0bd b99c f03d
00000230: ca55 6cbe 8d9d 70bd af5f 683e 1706 cd3d
00000240: 3a9d 953e a6e5 44be 1caf 16be 8b9b 673e
00000250: d179 4e3e 3071 19be 0a41 55bc 3214 c83e
00000260: c57c 0b3d b31e 273e dc54 ab3d 761d 3d3d
00000270: eb85 1ebe 56ad 913e 6871 d3bc b8c1 69be
00000280: e683 6ebe b393 803e 4265 a83c afb0 0a3d
00000290: 5de7 bebe e405 063c 8a38 513d 936b 2d3e
000002a0: 3f9f e03d 6a88 873e 6a09 c13c 177b 903d
000002b0: 9d7f 973e 579b dcbd ab4f 043e 42e2 52be
000002c0: 271e b33d 725a 9b3e c0f2 32bd 6a03 82be
000002d0: f131 4d3d ce0a 413e 2692 a73d 3e33 98bd
000002e0: 0565 a7bc 7634 163e d74a 6cbd e082 983e
000002f0: 8f91 d83d 2d67 13be 6d83 84bd 2cb4 debd
00000300: 53e1 733e 19ef 80be 8f11 6b3d c4a4 74be
00000310: eb52 8cbd 90bd 55be 22df 013d 984f 48be
00000320: 46cd c13d 8045 e7bd e17d 0f3e cad0 9abe
00000330: 4434 88bd 7d86 a43e 9cef 653e 0e63 1dbe
00000340: a5ef 0dbc 3466 573e 158b 16bc ec5c 7cbb
00000350: 24ef 63be 7a24 ca3b 42fb d5bd 52d0 583e
00000360: 05d4 a7bc 1117 163c 417a cbbe c2dc 063d
00000370: e2be 2abd f490 763d 9cdd 6a3e fb17 b13e
00000380: fe8c c33c bbfb da3d 5458 92be 85d9 723e
00000390: 13f3 473e f42e 30be 56b6 f5bd 835e 16be
000003a0: db4a 263d d3be 5dbd 98ee c63d c55a 833e
000003b0: 07f8 9f3e 621a 2a3d 8904 17be f05e c9be
000003c0: 4d5a 0c3c 1758 813e 6e3f debd d026 34be
000003d0: d5f7 1f3e af4b b03d b6a1 313e c548 3bbe
000003e0: 84b4 01be 2971 a43d b281 d7bd ee2f 403d
000003f0: 4bef 8e3c acfc d23c fa39 853d 03dc 143e
-0.04947856 -0.21962939 0.083666824 0.0235719 -0.046955023 0.02202723 -0.0870321 0.34316662
-0.22068454 -0.22383398 -0.081054986 -0.04581221 -0.012278162 0.015587193 0.04254454 0.24375513
-0.17427929 0.14905104 0.14440987 0.14033838 0.12701905 -0.036393248 -0.27126813 -0.28469682
0.104534686 0.018953772 -0.0035033342 -0.09119768 0.066180356 0.017602308 -0.066722296 -0.21194953
0.049398504 0.15712017 -0.23759376 0.019117273 -0.041117802 -0.1600703 0.047633737 -0.014830261
0.17649134 0.0721643 0.008227842 0.021638623 -0.11945427 -0.01761596 -0.008640807 -0.11428188
0.3302965 0.20634791 -0.07458778 -0.30229965 -0.002467223 0.023833364 0.22321968 -0.04585961
-0.06507514 -0.07358843 0.34452504 -0.0069299187 0.086702704 0.072115675 -0.09299079 -0.08003441
0.122352414 -0.10987084 0.15431923 -0.21817845 0.18670735 0.24919826 -0.00469479 0.112699725
-0.3358906 0.115732044 0.119094655 0.118403114 -0.04302703 0.07595102 -0.085005455 -0.07090586
0.024227455 -0.22575851 -0.085110016 0.025548108 0.34246588 0.14766118 0.03278905 0.21420944
-0.055131942 0.1394489 0.055241704 0.2959146 0.049909197 -0.10238101 0.007007315 -0.19196102
-0.49484122 -0.14451167 -0.11577458 0.03604401 -0.16019043 -0.17920819 -0.06253977 -0.0944643
0.07661802 -0.21976212 -0.37257034 -0.16687413 -0.15227075 -0.3038383 -0.03543623 0.02112001
0.020118432 0.24807757 -0.18891329 -0.012426522 -0.010242503 0.50274324 -0.3012183 0.18863538
0.39161414 -0.068454616 -0.2145718 -0.018388288 0.067404404 0.040872756 0.1097864 0.14402016
-0.20365389 -0.15315203 -0.0964755 -0.20330727 0.03734164 -0.012465462 -0.010956484 0.11714093
-0.047893163 -0.0016024947 -0.08599453 0.117486425 -0.23079601 -0.058744002 0.2269275 0.10010927
0.29221517 -0.19228229 -0.14715236 0.22617929 0.20163657 -0.14984584 -0.013015995 0.39077908
0.034054536 0.16320305 0.08365795 0.046170674 -0.15480773 0.28452557 -0.025810912 -0.22827804
-0.23292503 0.25112686 0.020556096 0.033859905 -0.3728589 0.008180115 0.05107931 0.16935568
0.10967874 0.26471263 0.02356406 0.070547275 0.2958955 -0.10771816 0.12921016 -0.20594123
0.087459855 0.30342442 -0.043688536 -0.2539323 0.050096456 0.18851778 0.081821725 -0.07431649
-0.020433912 0.1466845 -0.05768856 0.2978735 0.10574638 -0.14394827 -0.0647038 -0.10874209
0.23816423 -0.25182417 0.057389792 -0.23890978 -0.06851753 -0.20873094 0.031706937 -0.19561613
0.09462981 -0.11292553 0.14012863 -0.30237418 -0.06650594 0.32133856 0.22454685 -0.15369818
-0.008663093 0.21035081 -0.009188433 -0.0038507534 -0.22259194 0.006168899 -0.10448314 0.21173218
-0.020486841 0.009160773 -0.3974171 0.032925375 -0.041685946 0.06019683 0.229361 0.34588608
0.023870941 0.10692545 -0.28583014 0.2371579 0.19526319 -0.17205411 -0.119976684 -0.14684491
0.04059873 -0.054137062 0.09713477 0.2565519 0.31243917 0.041529067 -0.14747824 -0.39330244
0.008566451 0.2526252 -0.10851942 -0.17592931 0.15621884 0.086081855 0.17346844 -0.18289478
-0.12666517 0.08029396 -0.10522784 0.04692071 0.017448088 0.025755249 0.06505199 0.14537053

network_body._body_endoder.seq_layers.0.bias f4 [256]
00000000: 4991 8abc c4e3 b83c 2f74 043d f881 bd3c
00000010: 2d13 a13b 2ae7 e03c a833 a03c abfa 6f3c
00000020: 8039 d03c fa1d 29bc d937 8dba a284 1c3c
00000030: ae57 803c 4500 6d3c 7f5d a43c 9087 9f3b
00000040: d56f d7bb e2cd 913c 9eab e03c 4249 3bbc
00000050: 073d 2a3c 65ac a33b 5c5c 3e3c d786 ed3c
00000060: a5f1 ce3c 6412 77ba fbee 04bc e801 95bc
00000070: 7248 523b f7e9 9f3c 5836 613c e446 063b
00000080: 150e 193c bff5 953c bea6 2ebb 9fa3 923b
00000090: 1f24 803c 8b44 003d 3110 853c dce5 823c
000000a0: 8d67 8b3c 27c7 153d e565 ceb9 e969 b33c
000000b0: a1b5 f63b 1708 8e3c acf6 13bc d833 05bc
000000c0: 293c 42bb 3582 833b 96f0 043d 9083 4ebc
000000d0: 4a00 bc3c 5af2 2c3c bea2 873b d370 913c
000000e0: 83c5 e23a c486 4c3c 94cc 213c fb6c 88bb
000000f0: 9ccf 4e3c 03d5 db3c 6e0f 0f3a a4ab a2bc
00000100: 2183 ff3c e40f 9e3c 8d6c b23a b631 9cbc
00000110: b6b4 01bc be1a b6bb 5ea2 f6ba 1370 4a3c
00000120: 3c9f ba3c 04db 0b3d 2bc9 6939 323f 073d
00000130: f5cd 0c3c f4ed 1d3a cea8 91bb 8cd9 a83c
00000140: 0375 bd3c 3e8b a93c f2fb aa3c 9095 753c
00000150: 6a7a 553c 433c 543c f493 d63c 5c93 6f3c
00000160: e970 99bc 29a4 8b3c 1fa8 993c 3124 e53c
00000170: 4c9c 9c3c 3e78 5abc db7e 503c 6561 90ba
00000180: 3df1 14bc 1d6d b43c 5cf0 d03c e59e a63b
00000190: 1dd1 7e3c d2e1 f33c fdf9 5eba cb08 dd3c
000001a0: 1ca1 b43b 4aa7 203c b63f 973c cf00 7b3c
000001b0: 04aa c23c 429f 13bc 2584 c43b a882 4f3c
000001c0: 5ce4 db3c ecf7 5a3c 207b 6a3b c2ca b73b
000001d0: 8a1b 84bb ad8a 033c f7a4 bc3c 5aa7 9a3b
000001e0: a0cc 473c 6e8e ba3c 037e 213c 9336 ba3b
000001f0: f123 8e3c 0ac4 8c3c bbc9 733c 06ad 0cbc
00000200: 1af8 a1bb f8f1 003c c898 86bc 0d99 f63c
00000210: ae7e b63c 3748 c3b9 2a6c c03a 3156 f83b
00000220: 0279 d83c 2712 c23c e827 9e3b c39f c33c
00000230: c3df e13c ccec 943c 4191 933b 965d b93c
00000240: e8bf 87bc 5167 77bb e7fe 103c 20c6 a93c
00000250: 9324 cd3b c205 393c e59b 8a3b 1448 3e3c
00000260: d6af a13c c2d6 ac3c b70c 8b38 7584 653b
00000270: 6b70 633c 560f a23c c363 cc3a 48ef 873c
00000280: 3672 2e3c e848 1d3c b244 0c3c ba99 aa3c
00000290: 922a 1cbc 3bee 903c 60f7 6a3a 340c 0f3d
000002a0: a242 05bb 3810 c53c f60d d33c 0437 6c3c
000002b0: 2c54 a33c 9fe0 103d adb7 07bc 42a2 6c3c
000002c0: bef8 a53b 6d36 55bb 7f34 ab3c ae4c 443c
000002d0: 728d 19bc 6ce5 0f3d 9d30 48bc 948e ba3c
000002e0: fe4c cb3c 4c7f d13c da5a bd3a 98cf d83c
000002f0: 2e1d c93b 1ed5 ec3c bd71 b23c bb2f fb3b
00000300: e7c8 d73c 24f0 5fbc 8dbe 93bc afa1 3b3c
00000310: c0ca b03c 6462 0b3c 906e 943c 8662 a53c
00000320: d190 d43c b96b df3c c407 db3c 0519 87bb
00000330: fa79 b9bb 26de c93c cafd 86ba d851 78bc
00000340: 7ae0 8f3c b860 80ba cbbe f93b 4b85 f83c
00000350: ee21 01b9 9d9f 833c dbbb 783c b9cf 853c
00000360: 28dc 833c 99ad 38bc bfdd 973a e31e 6b3c
00000370: c34e c63c e301 9e3c 4293 043c 4fe0 88bb
00000380: 708b d23c 967e 4e3b d4ee 943b bcac ca3c
00000390: 726a 9f3c 818d ca3c edca 013b 4790 f1bb
000003a0: 7971 4d3c ec22 2abc c15b 2e3c 8daa 2f3a
000003b0: 68b8 723c be91 28ba 0f6e f6bb da89 413c
000003c0: 8c6d 78bb 74e0 3dbb ff34 e23a d2be 563c
000003d0: 29bf d43c eef9 973c 6edf 293c edb1 fcbb
000003e0: c62b 9abb caaa 113b bcf3 7e3c 2ad0 253b
000003f0: ae39 abbc cb40 11bc 694a 4c3c afc6 25bb
-0.01691498 0.022569545 0.032337364 0.023133263 0.004915616 0.027453978 0.019555882 0.014647166
0.025418043 -0.010322088 -0.001077409 0.0095531065 0.015666809 0.014465396 0.020064114 0.004868455
-0.0065746107 0.017798368 0.027425583 -0.01143104 0.010390527 0.0049949163 0.0116187 0.02899496
0.02526171 -0.00094250427 -0.008113618 -0.018189386 0.0032086638 0.019520743 0.013745867 0.0020489031
0.009341736 0.018305657 -0.002664968 0.0044750716 0.015642224 0.031315368 0.016243072 0.015978746
0.01701715 0.03656688 -0.000393673 0.021901088 0.007528976 0.017337842 -0.009030979 -0.008130036
-0.002963791 0.0040133246 0.032456003 -0.012604609 0.022949357 0.010555828 0.0041392734 0.017753994
0.0017301295 0.0124833025 0.009875435 -0.004163382 0.01262274 0.02683497 0.00054573163 -0.019857235
0.031190457 0.019294687 0.0013612673 -0.019066673 -0.00791662 -0.005557387 -0.00188167 0.012355822
0.022781007 0.034144416 0.00022295552 0.033019252 0.008594026 0.00060245325 -0.004445172 0.020611547
0.023127085 0.020696279 0.02087209 0.014989272 0.013029674 0.012953821 0.026193596 0.014622536
-0.018730598 0.017046051 0.018756924 0.027971359 0.019117497 -0.013334332 0.012725557 -0.0011015354
-0.009090719 0.022024686 0.025505237 0.0050848597 0.015552786 0.029770765 -0.0008505879 0.026981732
0.00551237 0.00980551 0.018462997 0.015320017 0.02376271 -0.009010138 0.005997198 0.012665428
0.026842289 0.013364773 0.0035778955 0.0056088874 -0.004031603 0.008028668 0.02302788 0.004719657
0.0121947825 0.022772994 0.009856704 0.0056827753 0.017351123 0.017183322 0.014879639 -0.008586174
-0.004942906 0.00787019 -0.016430274 0.030102277 0.022277202 -0.00037247103 0.0014680673 0.007578634
0.026424889 0.023690296 0.0048265345 0.023879891 0.027572518 0.01817932 0.0045033996 0.022627633
-0.016571 -0.003775079 0.008849836 0.020724356 0.0062604635 0.011292877 0.00423001 0.011613864
0.019737165 0.021098498 6.630405e-05 0.0035021577 0.013881783 0.019782703 0.0015593696 0.01659359
0.010647347 0.009599902 0.0085613 0.020825256 -0.009531634 0.017691722 0.00089632533 0.034923747
-0.0020333906 0.024055585 0.025763493 0.014417414 0.019937597 0.035370465 -0.008283538 0.014442982
0.005065053 -0.003253366 0.020899056 0.0119811725 -0.009372102 0.035130903 -0.012218622 0.022773065
0.024816986 0.025573395 0.0014446632 0.026466176 0.0061375117 0.028910216 0.02178275 0.007665602
0.026340915 -0.013668094 -0.018035198 0.011452123 0.021581054 0.008507345 0.018119127 0.020188581
0.02594796 0.027273046 0.026737101 -0.0041228556 -0.0056602927 0.024642061 -0.0010299024 -0.015156232
0.017563093 -0.000979445 0.0076216212 0.030336997 -0.00012315038 0.01606732 0.015181507 0.016334401
0.01609619 -0.011271858 0.0011586471 0.014350626 0.024207478 0.019288009 0.00809175 -0.0041771303
0.025701255 0.0031508557 0.004545072 0.02474057 0.019459937 0.024725677 0.001980479 -0.0073719355
0.012539261 -0.010384303 0.010641993 0.0006701134 0.014814474 -0.00064304087 -0.007520444 0.0118126515
-0.0037907092 -0.0028972896 0.0017258226 0.013107019 0.025970059 0.018551793 0.010368211 -0.00771164
-0.004704925 0.0022227042 0.0155610405 0.0025301077 -0.020901527 -0.0088655455 0.012468913 -0.0025295427

network_body._body_endoder.seq_layers.2.weight f4 [256, 256]
00000000: 24cc 20bd 5996 17bd d8ac 8bbc 8fb7 26bd
00000010: 04c6 013d c91f 6f3c cd93 b0bd 6f73 08be
00000020: 5f66 40bc d0af 70bd 0f0a 97bb bc8e 553d
00000030: 67b3 afbd 5f2c 80bd b873 043e 6fed a5bd
00000040: f564 d73d df54 8fbb cc48 163d 0386 c83d
00000050: 999a d63c 3477 debd 956b 2d3c 510b 8a3d
00000060: 65c7 313d afda 953a 40d9 cd3d f948 1e3d
00000070: b85b 79bd 61c2 053d c079 933d 6e26 36bc
00000080: 8e56 853d 3a64 bd3c a200 0f3e 5a35 93bc
00000090: dd8d 803d fe47 9a3a ba99 b4bd 119e c73d
000000a0: 5d07 493d 997b af3d a05f 7e3d 57be d9bb
000000b0: 9884 813d c01b 9f3d a3e3 10bc 1080 1a3c
000000c0: 4264 c4bc 14dc 3a3d 84f0 543d ea7d 4f3c
000000d0: fe46 59bd b825 c5bd 6f8d 80bd baee 80bd
000000e0: 181d 7cbd 9e4f 5e3c 5731 83bc 5d33 443d
000000f0: 52aa 963d d451 6d3d 0a5f e23b 5e58 123e
00000100: e9cf 8e3d 73bf 4bbd f479 c3bd f124 aebc
00000110: 4baa 1b3d b726 c53d 5ee3 4b3d 1dab 87bc
00000120: 4cab 7f3c 6423 e1bc bc5a 9ebc 0612 e8bc
00000130: 2547 8f3d 05a5 ce3d 7bc5 313b 2769 383d
00000140: 7d85 07bd 5952 e5bd 92a8 ef3c 8194 a93c
00000150: 1dea 10bd d368 b2bc 8c2f 7fbd 682c 01bd
00000160: 54c1 d8bd 0470 45ba 7d4f 89bc 8fae 0abd
00000170: ce37 a13c 39b7 4a3d d16f 233d b5f1 053c
00000180: 2f61 acbb 87f0 9a3d 62a2 d63d 9037 e7bd
00000190: 75b5 6c3d 64f3 8b3c 31e2 9fbd 6d6e bf3d
000001a0: 01cb 85bc 1bf4 643d b611 233d ba63 a3bd
000001b0: 280a 3a3d aeb2 acbb 79b2 803d 3fd0 4cbb
000001c0: c868 2ebd aeb1 2bbe af0a 203c 3f57 d7bc
000001d0: 4bfb 193d 0c9d 30bc 390e 943d b4e1 1dbd
000001e0: c4ca c33d 73cf a9bc 0760 b83d aa6a c73d
000001f0: b704 143e cb08 cdba 9a56 0dbd be91 90bb
00000200: 5a20 3f3d c289 b7bd 71e5 713d 1b3a 91bc
00000210: be07 e7bd ef6a c63c cd38 16bc f2c8 6e3d
00000220: 1bde 21bd f4da a4bd 239a 253d 8886 9a3d
00000230: 9f38 5a3d 79de 55ba c1b3 d93c 8841 be3d
00000240: 3cee 8bbc 8f8a 98bd 0d82 1c3d 9cb1 ef3c
00000250: f58b 37bc fa4e 39be 558e be3c 2f85 4bbc
00000260: 8d62 d83d 4804 8c3d dcae 25bb 5257 cb3c
00000270: eb5b 003a c562 c1bb eda1 34bd 3698 5abd
00000280: f197 5cbd fd61 15bd a976 e53d 0ef0 b33d
00000290: c4a1 8d3c 1c0c 2dbd 82c5 02be 048c 673d
000002a0: 17dd 2b3c 05ca 4b3d 7ae1 cbbc 009e 19be
000002b0: 1243 123d ef9a 15bc 03b2 ee3d 354c c7bb
000002c0: 08e7 82bc 789f 843d 2a6f 613d 0165 0fbd
000002d0: 7161 8c3c be82 1e3e 990a dbbc 08d9 003c
000002e0: ecab 943d 5708 d3bd 3908 bcbd 3860 a73b
000002f0: 4f92 c1bd 6a1d 17bd 5355 29bb ba16 9e3d
00000300: 437c 11bd 6875 c3bc 8955 afbc b247 74bd
00000310: 8974 5e3d 8838 533d 3ec1 08bd a319 9c3d
00000320: 641e c0bd 0463 403d 2655 303b d9e8 413c
00000330: b941 923d fc9a d03d 94c1 25bd 1c75 c3bd
00000340: c985 193d 948d aeba cd90 32bd 293c 61bd
00000350: 2ee8 c2bc 2193 b03c 7161 5a3d 072e d7bc
00000360: 24d9 c63d 3656 773d f25c 53bd 7793 823d
00000370: 7cf2 f8bd 90e6 eabd 1ded f7bd e663 c4bd
00000380: 389b 0d3d 6e95 e1bc 91fe 81bd 8a14 c5bc
00000390: f155 3abe 952a ce3d b97f a53b e7cb f7bc
000003a0: eab2 933c ff6f e4bc dc44 f33c 7440 0f3e
000003b0: c066 a0bd 1e26 99bd 0e5c 143d b836 16be
000003c0: ef7b 8a3d 594a bdbc 821f 583c 024f 793c
000003d0: 9446 a93d 0f45 fabd 88a5 003e ef3b 7e3c
000003e0: a551 60be 181a 65bd bb62 893b 4bb3 bebd
000003f0: 2917 963c 276e 59bc cc5b 1c3e de4d 07bc
-0.039257184 -0.037008617 -0.017050192 -0.0407024 0.031682983 0.0145949805 -0.08621941 -0.13325284
-0.011743157 -0.058761418 -0.0046093534 0.052138075 -0.0857914 -0.06258463 0.12934768 -0.081019275
0.10517303 -0.004374131 0.03669052 0.09791186 0.026196765 -0.1086258 0.010584732 0.0674044
0.043403048 0.0011432971 0.10051203 0.03864381 -0.060878485 0.032656077 0.07200956 -0.011117561
0.065106496 0.02311908 0.13965085 -0.017969776 0.06277058 0.0011770723 -0.088183835 0.09746946
0.049079288 0.08568496 0.062102914 -0.0066450047 0.063241184 0.07768965 -0.008843335 0.009429947
-0.023973588 0.04562004 0.051987186 0.012664298 -0.05304622 -0.09626335 -0.06276976 -0.062955335
-0.061551183 0.013568787 -0.016014738 0.047900546 0.07356705 0.057939366 0.006908302 0.14291522
0.069732495 -0.049743127 -0.09544745 -0.02125785 0.0380042 0.09626525 0.04977738 -0.016561085
0.015604805 -0.027482696 -0.019330375 -0.028328907 0.069959916 0.10090069 0.0027125764 0.045022156
-0.03308629 -0.11197347 0.029255185 0.020700695 -0.035379518 -0.0217785 -0.062301204 -0.03153649
-0.105837494 -0.0007531645 -0.016761536 -0.03385788 0.01967993 0.04949114 0.03990156 0.008175303
-0.0052606086 0.07565408 0.10480191 -0.112898946 0.05779024 0.017083831 -0.078068145 0.09347234
-0.016332151 0.05589686 0.039811812 -0.07978006 0.045419842 -0.0052703237 0.06284041 -0.0031252054
-0.042580396 -0.16766998 0.009768172 -0.02628672 0.037593167 -0.01077963 0.07229275 -0.038545325
0.09560159 -0.020728802 0.09002691 0.097371414 0.14454924 -0.0015642879 -0.034506418 -0.004411905
0.046661712 -0.08961822 0.059056703 -0.017727902 -0.112807736 0.024220912 -0.009168816 0.058297105
-0.039518457 -0.080495745 0.0404302 0.07545191 0.053276654 -0.0008158456 0.026574971 0.09289843
-0.017081372 -0.07448303 0.038209964 0.029259495 -0.011202802 -0.18096533 0.023261229 -0.01242189
0.10565672 0.06836754 -0.0025281226 0.024821911 0.00048965093 -0.005901667 -0.044099737 -0.053367816
-0.05385584 -0.036470402 0.11204273 0.08786021 0.01728905 -0.042247877 -0.12770656 0.056530014
0.010489724 0.049753208 -0.024887789 -0.15001678 0.035708494 -0.009131177 0.11655047 -0.0060820826
-0.015979305 0.06475729 0.055037655 -0.035008434 0.017136307 0.15479562 -0.026738452 0.007864244
0.07259354 -0.10304325 -0.09181256 0.0051079057 -0.09451734 -0.036893286 -0.002583821 0.077191785
-0.035518896 -0.023859695 -0.021403091 -0.059638686 0.054310355 0.051567584 -0.033387415 0.07622077
-0.093807966 0.04696943 0.0026906221 0.0118353 0.07141442 0.10185811 -0.040467814 -0.09543821
0.037481103 -0.001331734 -0.043595124 -0.054989014 -0.023792353 0.021554532 0.053315584 -0.026267065
0.09709385 0.06038495 -0.05160231 0.06375783 -0.12155625 -0.114697576 -0.12105773 -0.095893666
0.034571856 -0.027537074 -0.06347383 -0.024057645 -0.18196847 0.10066716 0.005050626 -0.030248595
0.018029649 -0.027885435 0.02969592 0.1398943 -0.07832098 -0.074779734 0.036220603 -0.14669311
0.0676192 -0.02310674 0.013191106 0.015216591 0.08265415 -0.12220203 0.12563145 0.015517219
-0.21906145 -0.055933088 0.004192678 -0.09311541 0.01832159 -0.013270891 0.15269393 -0.008258311

network_body._body_endoder.seq_layers.2.bias f4 [256]
00000000: b3bf dc3a 9898 a23c dfc4 9b3c 72e5 733b
00000010: e403 5a3c b9fd 33bb ff86 85bc f7f2 7f3c
00000020: 2425 f93b e512 403c bba1 3c3c e74a 2b3c
00000030: c9c2 28bc c3d1 2fbc abf1 8cbc ff8d 70bc
00000040: 1266 bd3c efcc 923c 4008 a53c 7a43 883b
00000050: 28fd 933c ed78 a13c f813 2e3a 31a4 a33c
00000060: 4d7b 943c 1d61 0ebb 0235 503c 9241 08bb
00000070: ef1b 7c3c 71ee 74bc 7333 9e3c 68ac 673c
00000080: 9176 cbbb 64e8 85bc d66c 45bb 4554 143c
00000090: 3d00 733c 3dba 19bc 2195 6dbc 8115 bc3b
000000a0: e169 82bb 8135 2fbc 6bae 4d3c 8157 1f3c
000000b0: 4539 063c 60a8 a1bc 8d2a e5ba 82ae 8bbc
000000c0: 858d 013c 24dd 9cbc 7dda a5bb 4e4c 8f3c
000000d0: 57eb a8bb 5814 ea3b b326 283c 7f69 833c
000000e0: 2120 b03c aa0d e4bb 6a0c efbb 09f6 853c
000000f0: 6992 83bc 6d74 c73b c4a0 6fbc 5891 a93c
00000100: d9cc bcbb d6e4 8a3c c923 11bb 6e60 dd3b
00000110: 40c6 203c 95e2 3f3c f167 f8ba c00d 87bb
00000120: 842e 8dbb 9c5a 3a3c fca8 43bb f009 393c
00000130: d58e 9b3b 0e4a 8ebc 5600 7c3c 5f39 af3c
00000140: 1901 853c 3064 713c d5a5 01bb 21a9 e93c
00000150: 6a74 093b 3361 c9ba c4a5 3c3c 5c5b 9a3c
00000160: 0bf8 433c fc72 a23c f5dc b63c 3895 62b9
00000170: 200a 063c 5846 d73c 1817 5dbc 1d13 6e3b
00000180: fbcb 903c ba91 bfbb b385 213c 2569 4cbc
00000190: d9aa 923c 5b5b 19bc 3951 293c 012f 353c
000001a0: 3f4e 5b3b d2c8 703c 3c8b 183c 3c8f febb
000001b0: a1ff 8d3c af25 c1bb 8f55 10bc 52d0 7e3c
000001c0: d7fd 0f3c 9a86 d23c ac73 133c fdfe 3c3c
000001d0: cd49 183b baf6 963c af98 d139 56ef 9e3c
000001e0: eba6 b03c 1635 433c 7728 ea3c 90df b03b
000001f0: 5741 8f3c 9e18 11bc 321d a03c f653 bb3a
00000200: d03a 5c3c 3304 ec3a 5a53 aa3a 5627 a2bc
00000210: 418a 3f3c e44a 3bbc c14a 463c 0fd2 1e3c
00000220: c454 963c ce4c dc3b 5732 b93c 50b1 48bc
00000230: 2620 f5bb f87b 9c3b bde8 8e3c 3f75 9a3b
00000240: 6405 56bc f886 69bc 939a 243c 4a01 5d3c
00000250: b567 7c3c 6dbb 4dbc 9469 033d bed9 afbb
00000260: a249 a83c bb7e 3b3c 7ac6 ab3c 0eac a73b
00000270: ef79 4f3b 3a0e 873c 1152 3d3c bffd 7e3c
00000280: 16af 7cbc ab86 353c a3b8 ce3a 791c 873c
00000290: 99e5 55bc 13be 96bc 9898 e33c be78 aabb
000002a0: ce1a 9bbc e184 d1ba ae1f 5e3c 7e95 a63c
000002b0: 2ea8 be3c 19a0 ecbb a0ba 473c ab46 10ba
000002c0: 433a 1e3c 5624 c03c b145 9e3c 5423 d43c
000002d0: 7486 b13b 643a a53a 8fab 84bc c8e8 863c
000002e0: 90b1 15b7 24b2 d43b 7536 a03c 9e6b 033c
000002f0: 5502 34bc 890c b53c 0646 60bb a266 3e3c
00000300: 4bfb 0a3c 1727 653c 09c3 de3c f767 913c
00000310: 1716 8b3c 14c8 643b 96ee b4bb 406e 1ebc
00000320: 6cca 96bb 5159 8ebb 16db d43c fb73 443c
00000330: 625f 093d 78cc 56bb 5ef2 de3b a807 bb3b
00000340: c299 d03c 0495 4ebc 2560 c93c b576 5c3c
00000350: e2d2 55bc 8a45 bd3c 9809 2dbc 30f2 573b
00000360: 1b6b 823c d72c 13bc c579 b03b 0797 89bc
00000370: 39f0 9fbb a7c1 813c ab1a 823c fd8c 863b
00000380: bf4c 38bb fec7 e83c e970 adbc 12a7 44bb
00000390: 2dbf 8c3c 6698 973c ef63 473c f91d 8ebc
000003a0: 4b06 2abc e682 c63c 1bbe bb3c aa4a 133c
000003b0: 7933 a7ba 5683 a5bb 2d36 b33c b02d 443c
000003c0: 2618 b53c 4b05 903c 8175 2ebb de36 2abc
000003d0: e3e3 513c 3a03 433c bfcd 003c b5d0 a03b
000003e0: 682e e43c 6456 6f3a d288 dc3b c422 aabc
000003f0: 60ef 6fbb 3e6a b53c 051a bb3b 7fc9 893c
0.0016841799 0.019848153 0.019014774 0.0037215617 0.013306592 -0.0027464463 -0.016299723 0.015621892
0.0076033045 0.011723255 0.011513169 0.01045487 -0.010300347 -0.010731163 -0.01720508 -0.014682292
0.02311996 0.017919986 0.020145535 0.0041584345 0.01806505 0.019710982 0.0006640549 0.019975754
0.0181252 -0.0021725364 0.012707951 -0.0020791036 0.015387519 -0.014949427 0.019311642 0.014140226
-0.0062092026 -0.016346164 -0.0030124686 0.009053295 0.0148316 -0.009382782 -0.014500887 0.005739868
-0.003979907 -0.010693909 0.0125537915 0.009725452 0.008192365 -0.019733608 -0.0017483995 -0.017050985
0.007907276 -0.019148417 -0.005061446 0.01749244 -0.005155008 0.0071435384 0.010263133 0.016041515
0.021499695 -0.0069596367 -0.007295181 0.01635267 -0.016061025 0.006086877 -0.014625732 0.020699188
-0.0057617244 0.01695482 -0.0022146574 0.00675588 0.0098128915 0.011711736 -0.0018951875 -0.004121512
-0.0043085236 0.011374142 -0.0029855361 0.011293873 0.0047472515 -0.017369296 0.0153809395 0.021389661
0.016235875 0.014733359 -0.0019782681 0.02852303 0.002097393 -0.0015364051 0.011514131 0.018842392
0.0119609935 0.01983022 0.022322157 -0.00021608628 0.008181125 0.02627866 -0.0134942755 0.003632731
0.01767539 -0.0058462294 0.0098585365 -0.01247624 0.017903732 -0.00936016 0.010334306 0.01105857
0.0033463386 0.014696317 0.00931054 -0.0077685397 0.017333807 -0.005894385 -0.008809461 0.015552597
0.0087885475 0.025698949 0.008999746 0.011535403 0.0023237348 0.018428195 0.00039977345 0.019401234
0.021563968 0.011914512 0.028583748 0.0053977445 0.017487211 -0.008855967 0.019545171 0.001429199
0.013441756 0.0018006623 0.0012994811 -0.019794147 0.011690677 -0.01143143 0.012102784 0.009693637
0.018350966 0.006723023 0.022607012 -0.012249306 -0.007480639 0.0047755204 0.017444963 0.004713684
-0.013062809 -0.01425337 0.010046619 0.013489077 0.015405585 -0.012556893 0.03208311 -0.005366533
0.020542923 0.011443789 0.020968664 0.005116946 0.0031658371 0.016486276 0.011555211 0.0155634275
-0.015422603 0.011079471 0.0015771579 0.016493069 -0.013055229 -0.018401181 0.027782723 -0.005202382
-0.01893368 -0.0015985036 0.013557358 0.020334955 0.023273554 -0.0072212336 0.012190491 -0.00055036944
0.009657445 0.023454826 0.01932034 0.025895752 0.0054176394 0.0012605903 -0.016195087 0.01646842
-8.922434e-06 0.0064909626 0.019557217 0.008021263 -0.010986884 0.022100704 -0.0034221425 0.011621149
0.0084827645 0.0139863705 0.02719261 0.01774977 0.016978307 0.0034909295 -0.0055216057 -0.00966984
-0.0046017673 -0.0043441434 0.025983375 0.0119905425 0.03353823 -0.0032775681 0.0068037948 0.0057077
0.025463942 -0.01260877 0.024581978 0.013456036 -0.013050767 0.023104448 -0.010561369 0.0032950751
0.015920212 -0.008982859 0.00538561 -0.016795648 -0.0048809317 0.015839411 0.015881857 0.0041061626
-0.0028121916 0.028415676 -0.021172004 -0.0030006808 0.017181003 0.018505286 0.012169822 -0.017348276
-0.010377477 0.02423234 0.022917798 0.008989969 -0.0012756429 -0.005051057 0.021876419 0.011973783
0.022106241 0.017580649 -0.002662033 -0.010389058 0.01281068 0.011902625 0.007861554 0.0049076923
0.02785416 0.00091299997 0.0067301774 -0.02076853 -0.0036611184 0.022145387 0.005709889 0.016819714

action_model._continuous_distribution.log_sigma f4 [1, 3]
00000000: 1d5f 153b 8a54 633c 9db6 473c
0.0022792288 0.013875136 0.0121895345

action_model._continuous_distribution.mu.weight f4 [3, 256]
00000000: 3863 cbbb d84c 283d 4f93 343c ba5e 313b
00000010: 6a07 be3c e53a 973a 4b84 8ebc 139f cc3c
00000020: ea4a a83c ee3d d9bb a22e 193d 4246 c0ba
00000030: af60 b5ba b41b 983a e90b a3bc 676d 93bc
00000040: 19a8 db3c c65f a43b e1bd 0e3d 9555 ddba
00000050: 2a19 6e3c 6987 aa3b 6fab 053c 49ae c63c
00000060: 9e33 023d 4378 16bc b6c4 8c3c fcc2 8bbc
00000070: 8017 2e3c 1240 f9bb 16cd 3f3c 1332 a53c
00000080: 71e6 933a fec4 90bc abea 43bb 6768 ff3b
00000090: 11da fe3c 0977 11bc 55e5 6dbb b904 843b
000000a0: cab4 38bc 53b2 62bc 4d93 853b 8398 b23b
000000b0: 3dfb c9bb 0d94 9cbc 1e04 eebc 457d 42bc
000000c0: 8f09 8a3b f0de 91bc 62f7 883b 6088 003d
000000d0: 0fb2 ccbc 2678 133a 21f4 5b3c 7a6c 343a
000000e0: e203 963c ee32 d5bc 4aaf a3bb 4386 9b3c
000000f0: caa7 9bbc 855f d13c bf6c 4ebb ee24 bb3c
00000100: 649c c3ba 66cb ec3c 1e35 263c 6d81 3abb
00000110: b99a a13c 8132 f33c b266 f0ba 16ba 8a3b
00000120: 8c1c 08bc 032f 883c f453 76bc 2aa0 81ba
00000130: 5ee9 e93b 9507 e2bc 2e88 bb3c 9603 923c
00000140: a2b0 a73c 9c7c 8c3c 313f 06bc e514 a03c
00000150: fbc8 663b 2a9f b2bb 11b7 433b b5f8 20bb
00000160: 0311 5c3c 4575 093c b0d7 793b db9f d139
00000170: e267 9ebb f5fc f63c 6271 24bd 7123 56bc
00000180: 541e 7d3c 2a7c c1bc e397 303c a27a 59bc
00000190: 00ea 4d3c 6edf c3bc 9a8e 853b 20c9 543a
000001a0: 9372 063c a450 553c 783c 133c 20ed e93b
000001b0: a4ca 863c ef5d a13b 0a00 59bc 83c4 c93b
000001c0: b56b c6bb 8a5f 9a3c 8814 493c fbc5 083c
000001d0: 3351 9fbb df14 703c 30d2 28b9 690a bd3c
000001e0: 6b85 2b3c b903 393c 7a83 fe3c ce2d 3cbc
000001f0: b933 023d 83fc f8bc 0e70 9c3c 6856 07bd
00000200: 4ddc db3c 9602 11bc 7864 bc3b 2fe7 aabc
00000210: 3133 cc3c 538d 1fbc 87d7 a23c 350d 9f3b
00000220: e4d6 8b3c 05b5 0f3b dd2b cd3c 63df 5bbc
00000230: 1f80 ebbb f923 8d3b a0d3 d93c 61ee 013c
00000240: f7cb 13bd e6a1 e0bc 88e1 6a3b 48fa 9d3b
00000250: f1ed 823c 507d 33bc dd16 923b 2c88 b3bc
00000260: 9849 9c3c ec76 4c3b f068 953c 4032 c03b
00000270: 3824 bbbb 7b1d ad3c d1d5 1e3c 7a84 8839
00000280: d61e adbc b10f 8b3c f554 a1bb d7ef 953c
00000290: 3419 edbc 75d5 00bd 9f20 843c 5e3a 8b3b
000002a0: d7da a4bc e5d8 413b 63f0 8fb9 852a fd3b
000002b0: c763 393c 23c8 adba baea 2139 e714 de3b
000002c0: 9c57 f73c 3e09 743c 6af2 873c 8af6 db3c
000002d0: 8fe1 163c 9a8a ab3b 7ebf f7bc 57ce 9b3c
000002e0: 7a04 493c c381 9bbc 9a08 5e3c e7a9 c03c
000002f0: ba03 00bd 5318 ed3b e832 7d3a 9e1c 60bc
00000300: 28e8 143c fc8d 1d3c bf3d 063c 0ccd 1f3c
00000310: 2966 873c 1b57 f6bc b5a8 d03b 8739 b3bc
00000320: c09a 9abc 1164 e2ba 1514 b83c b162 e43b
00000330: 7532 033c 7ad9 31bc 45f1 2aba faf0 763a
00000340: f300 533b 9e4c 99bc efdf 093d 1a44 cdbb
00000350: 81b9 85bc 5445 a33c 2bba 9fbc efdf 713c
00000360: 9f12 173c 3c60 afba 98a6 33bc 025a 0ebc
00000370: 8f32 98bc b49a 523d 2a05 ff3c f698 033c
00000380: 9ee1 04bc f82b 283d 5bd7 0ebd 6534 8abc
00000390: e107 c33c fe4b af3b b47b a3ba 7c13 6cbc
000003a0: 12c8 e2bc 1fe0 173d 8710 f93c f52f 103c
000003b0: 99cd 04bc c659 51bc 61f9 aa3b 0866 7abb
000003c0: 2bf7 2b3d 97dd 953b 1dcd 1a3c a6e6 3fbb
000003d0: fb43 163c c40e 853c 75d1 563c 1ae9 dabb
000003e0: 371e b73c 7524 583b f83d 9f3c f666 2dbc
000003f0: 3fbd d73b 8e31 a53c 8b1c 9d3c 6c90 d03b
-0.006206896 0.04108891 0.011021449 0.0027064518 0.023196895 0.0011537938 -0.017397067 0.024978196
0.020543534 -0.006629697 0.03739799 -0.0014669376 -0.0013838018 0.0011604936 -0.01990314 -0.017996503
0.026813554 0.0050163 0.03484905 -0.0016886467 0.014532367 0.0052041304 0.008158549 0.024253028
0.031787507 -0.009183946 0.017183643 -0.01706075 0.01062572 -0.0076065147 0.011706611 0.020165479
0.0011283887 -0.017672058 -0.0029894512 0.007794428 0.031109842 -0.008878478 -0.0036300023 0.0040288833
-0.011273572 -0.013836461 0.0040763975 0.0054503097 -0.006163983 -0.019113565 -0.029054698 -0.011870687
0.0042125653 -0.0178065 0.004179881 0.031380057 -0.024987249 0.00056255085 0.013424904 0.00068826193
0.018312398 -0.026025262 -0.0049952613 0.01898492 -0.019000906 0.025558243 -0.0031497923 0.022844758
-0.0014923927 0.028905582 0.0101445 -0.0028458491 0.019727098 0.029687168 -0.0018341152 0.004233609
-0.008307587 0.01662398 -0.015034664 -0.0009889652 0.0071384152 -0.027591506 0.022892084 0.017823976
0.020469967 0.017149262 -0.008193777 0.019541213 0.0035215009 -0.0054511027 0.0029863755 -0.0024562303
0.01343179 0.008389776 0.0038122945 0.00039982688 -0.004834161 0.030149916 -0.040147193 -0.013069973
0.015449125 -0.023618776 0.0107784 -0.013273867 0.012567997 -0.02391025 0.0040758373 0.0008117128
0.008206028 0.0130197145 0.008986585 0.007138863 0.016454048 0.004924528 -0.013244638 0.006157459
-0.00605532 0.018844385 0.012272961 0.0083479835 -0.0048619746 0.014653414 -0.0001610003 0.023076253
0.010468821 0.011292391 0.031068552 -0.01148553 0.031787608 -0.030393844 0.0190964 -0.033041388
0.026838446 -0.008850714 0.0057492815 -0.02086219 0.024926754 -0.009738284 0.019878162 0.0048538693
0.017070241 0.0021927964 0.02504533 -0.013419959 -0.007186904 0.004307267 0.026590168 0.007930369
-0.036083188 -0.02742095 0.0035839994 0.0048210956 0.0159826 -0.01095517 0.004458292 -0.021915518
0.019078061 0.0031198813 0.018238515 0.0058653653 -0.0057111047 0.021132221 0.0096945325 0.00026038644
-0.021132868 0.016975256 -0.0049234577 0.018302841 -0.028942682 -0.03145357 0.016128836 0.0042489013
-0.020123882 0.0029578742 -0.00027454188 0.007726016 0.011315293 -0.0013258498 0.00015441599 0.006777394
0.030193143 0.014894782 0.016595084 0.026850957 0.009209051 0.0052350285 -0.030242678 0.019019289
0.012269134 -0.018982774 0.013551855 0.023518516 -0.031253554 0.0072355657 0.00096587697 -0.013678698
0.0090885535 0.009616371 0.008193432 0.009753477 0.016528206 -0.030070832 0.0063677677 -0.021878017
-0.018872619 -0.0017272254 0.022470513 0.0069697727 0.008007635 -0.010855073 -0.00065209373 0.00094200636
0.003219661 -0.018713292 0.033660825 -0.006264222 -0.016323807 0.01993052 -0.019497951 0.014762863
0.009220748 -0.001338012 -0.010965012 -0.008688452 -0.018578796 0.051417068 0.031130392 0.008032074
-0.008110432 0.041057557 -0.034873348 -0.016870687 0.023807468 0.005349635 -0.001247278 -0.014408942
-0.027683292 0.037078973 0.030403389 0.008800496 -0.008105659 -0.012777751 0.0052177166 -0.0038207788
0.041983765 0.0045735347 0.009448317 -0.0029281764 0.009171481 0.016242392 0.013111462 -0.00668062
0.022353275 0.0032980714 0.019438729 -0.01058363 0.006583839 0.020165231 0.01917865 0.0063648727

action_model._continuous_distribution.mu.bias f4 [3]
00000000: d7dc 7c3c 13c4 bdbb f14a e7bb
0.015433512 -0.005791196 -0.0070584943

action_model._discrete_distribution.branches.0.weight f4 [7, 256]
00000000: 1f6b 0abb be89 3fbc 0baa 29bc b2e6 88bc
00000010: 403d 0f3c d524 61bc c7a6 5b3b c58e ecbb
00000020: d4a7 b1bc fa01 24bc 9f0d 273c a810 4a3c
00000030: 87aa 91bb 7dd5 dfbb d0e1 a7ba 0e4e 883b
00000040: b2e5 913a c9b5 ac3b cc4f 673b aed0 1abc
00000050: d093 19bc 4c2e b5bb d8c0 ddbb 8a19 bdbb
00000060: 96d3 f4bc c8c0 d6b9 6869 6cbc ded2 67bb
00000070: a55f 9d3c 3b84 0cbc d442 9dbc 48b2 4cbc
00000080: 0004 943c 282f 7abc 00ca ccbc fdc7 d6bc
00000090: 2ae8 3dbc 50aa d2bb 79fc 1bbc f38b ad3b
000000a0: 0078 f7ba 264f 8e3b 0cac b3bc 1e4f 4fba
000000b0: 1cf5 4638 c6b6 2f38 8ba5 5e3b 2202 273b
000000c0: 96de 7e3b ff10 ae3c 81b1 d3bb 8d8c afbc
000000d0: 1719 353c 1f2b 4ebb 2c7d 143c 2c50 c0bc
000000e0: ee9c 073c 4600 7b3b 1446 cf3b 5829 e43a
000000f0: fbeb b93b 53b4 b3bc 20e6 b3bc 00b1 bfb8
00000100: 9e9b 42bc 208d c5bc 4511 aabc d0cd e4bb
00000110: 2790 683b 9f65 343b 4fda 9bbb bfd4 e6bb
00000120: 8725 20bc eba6 5c3c 2ae1 ea39 a578 fbbb
00000130: 1b3f f7bb 3c50 023c bbcf 43bc f5e7 0bbb
00000140: c932 05bc 83a2 d9bb adcf 88bc ce14 75bc
00000150: 4f31 80bb ea69 b33b a0cc 4fbc ee5c 6ebc
00000160: 1263 53bc 2695 13bc c94c a53b a9e9 5ebb
00000170: 870e 28bc 31cc 413c efa6 b8bb 84d2 aabb
00000180: ca0c ecbc f6b7 2f3c 301d 5c3c 49bd fdbb
00000190: 06e6 143b 06c3 973b ca1a 02bb 2449 a1bc
000001a0: c6eb ebbc 0b7e 42bb 731e d9bb 7f79 de3b
000001b0: c630 6abb 1637 41bc f2dc e53b acf2 8abc
000001c0: 7abd da39 1c9d 5bbc b5b8 bebb d26d f7bb
000001d0: e247 7dbb 7212 d0ba bdb2 5dbb 403c 97bb
000001e0: d200 45bc fa04 47bc 31ab 7fbb 39fb 193b
000001f0: 1f1a babb ec58 64bc 5210 55bc 0727 87bc
00000200: 0627 3dbc b359 32bc 800d aebc 20f0 353c
00000210: 2c4a 5abc f5c9 cc3b 8510 653c d3d5 9ebc
00000220: 8b3e d1ba 965e f2ba db42 85bc 7b37 7a3c
00000230: 3dd7 bdbb 72a5 283b 22eb ff3b a2e8 3cbb
00000240: 6634 a03a 6b8f d6bb 5e3e 9fbc d1f7 56ba
00000250: 5677 a73b 8fa0 983b b25e ec3a a387 6b3b
00000260: 95f1 d1bc 4b24 cdbc 24cc 94bc 2060 75bc
00000270: bbe1 18ba a48e fe3b 522d 953a 9f86 9e3b
00000280: 9f3d 16bc e9cd 46bb d95e 32bc a6f7 e3bc
00000290: cf95 213c aa3c 8bbc bbda 71bc 94d0 1dbb
000002a0: f315 8d3c f8bf aabb c8f8 d8bb 88f5 9aba
000002b0: 7c79 9e3b acff 9e3a b47d 1dbc ca31 f13a
000002c0: 9138 41bc 4815 a2bc 4ea8 503b 0690 8e3c
000002d0: 846a a13a 525d f1bc 53d3 5e3c daca e23b
000002e0: 96b4 abbb 0ad1 cfbc 0646 71bc 2e6e 3dbc
000002f0: 405b e33b 4775 533c 24f8 1abc 5ed9 873c
00000300: f566 dd3a ac3b 0bbc 91b8 b5bb f360 47bc
00000310: a865 27bc b002 b83b 29b9 843a 0913 a33b
00000320: 86ab 81bc da5e c5bc 8c3a 02bb 27da 9b3a
00000330: 9dcd b4bc 28ba a6bc fa61 a63b 19a5 c5bc
00000340: 0139 1bbc f716 d3ba 54ae c6bc 2deb b5bb
00000350: fc09 41bb 0ac3 ccb9 8485 26bc 6ff5 7ab9
00000360: f091 0c3c 66da a7bb 210a 05bd 503b 903c
00000370: 2aef 173c 7e0a a7bb 821a 8a3b ad46 c3bc
00000380: 16e4 bfbc e4fa f23b 977b 763c db98 49bb
00000390: ea37 adbc 7e90 b3bc 13b7 d73b cf08 dd3b
000003a0: edf5 6fbc 76b2 40bc 171e 0ebc 8980 e2bc
000003b0: 05a5 adbb 413a a83a 5c81 643b f5e5 ba3c
000003c0: 2b1a a9bc 1923 9abc b2df 8cbc bcac 34bc
000003d0: 41f6 853b a352 d23b 5380 e0bb 1269 adbc
000003e0: 8d02 583c 1513 91bc 0fff 4f3c 3cc0 0b3c
000003f0: 4881 c8bc f1b1 3cbb e692 d03c 0389 093b
-0.0021120978 -0.011690555 -0.010355483 -0.016711567 0.0087426305 -0.013741692 0.0033516155 -0.007219168
-0.021686472 -0.010010237 0.010196119 0.012333073 -0.0044453773 -0.0068308697 -0.0012808386 0.0041596955
0.0011131077 0.005270694 0.0035295365 -0.009449167 -0.00937362 -0.0055292007 -0.0067673735 -0.0057708668
-0.029886048 -0.00040960894 -0.014429428 -0.003537349 0.019210646 -0.008576448 -0.019196905 -0.012493677
0.018068314 -0.015270032 -0.024998665 -0.026218409 -0.011590997 -0.0064289942 -0.009520643 0.0052962243
-0.0018880367 0.0043429313 -0.021932624 -0.0007908213 4.7435155e-05 4.1893472e-05 0.0033973183 0.002548345
0.0038889996 0.021248339 -0.006460369 -0.021429325 0.011053345 -0.0031458808 0.009063046 -0.023475729
0.008277161 0.0038299724 0.0063254926 0.0017407341 0.005673883 -0.021936571 -0.021960318 -9.1405585e-05
-0.011877922 -0.024115145 -0.020760188 -0.0069825426 0.0035486312 0.0027526391 -0.004756249 -0.0070444043
-0.009774572 0.013467531 0.00044799718 -0.007674294 -0.0075453646 0.0079537 -0.011951382 -0.0021347974
-0.008129784 -0.0066416874 -0.01670059 -0.0149585735 -0.003912128 0.0054752724 -0.012683064 -0.014548523
-0.012902038 -0.009007728 0.005044554 -0.0034013784 -0.01025737 0.011828468 -0.0056351344 -0.0052130837
-0.028814692 0.010725012 0.013434693 -0.007743512 0.0022720112 0.004631403 -0.0019852393 -0.019688196
-0.028798949 -0.0029677178 -0.0066259443 0.006789386 -0.0035734638 -0.011792919 0.007014864 -0.016961418
0.0004172137 -0.013404157 -0.0058203586 -0.0075509334 -0.0038647582 -0.0015874638 -0.003382846 -0.0046153367
-0.012024121 -0.012147183 -0.003901195 0.0023495688 -0.0056793834 -0.013937216 -0.013004379 -0.016498102
-0.011544948 -0.010885644 -0.021246672 0.011104614 -0.013323348 0.006249661 0.013980989 -0.019389069
-0.0015964074 -0.0018491324 -0.01626723 0.015272017 -0.0057934807 0.0025733379 0.0078100124 -0.0028825183
0.0012222647 -0.0065478585 -0.019438919 -0.00082003797 0.0051106615 0.004657812 0.0018033592 0.0035939
-0.02562789 -0.02504172 -0.018163748 -0.014976531 -0.00058319763 0.007768469 0.0011381304 0.0048378254
-0.009169965 -0.0030335134 -0.010886871 -0.027828049 0.009862377 -0.0169967 -0.014761622 -0.002408062
0.01722238 -0.0052108727 -0.006621454 -0.0011822442 0.0048362594 0.001213064 -0.0096124895 0.0018401679
-0.011793272 -0.019785538 0.0031838599 0.01740266 0.0012315069 -0.029463444 0.013600188 0.0069211544
-0.0052400334 -0.025368232 -0.014726168 -0.011561913 0.006938368 0.012906379 -0.009458575 0.016583141
0.0016891646 -0.008498114 -0.0055456837 -0.012169111 -0.010217108 0.0056155547 0.0010125983 0.0049766344
-0.015828859 -0.02409308 -0.0019871322 0.0011890576 -0.0220707 -0.020352438 0.0050775977 -0.024126576
-0.00947404 -0.0016104867 -0.024253048 -0.005551717 -0.0029455414 -0.00039055228 -0.010163669 -0.00023933289
0.008579716 -0.0051224707 -0.032480363 0.017606407 0.00927333 -0.0050976863 0.0042145858 -0.023837412
-0.02342419 0.0074151624 0.015044115 -0.0030761275 -0.021144826 -0.021919485 0.0065831034 0.006745435
-0.014646036 -0.011761298 -0.008674166 -0.027649181 -0.005299213 0.0012834744 0.0034867143 0.02281473
-0.02064236 -0.018815564 -0.01719651 -0.011027511 0.0040881936 0.0064185425 -0.006851235 -0.021168265
0.013184202 -0.017709294 0.012695088 0.008529719 -0.024475709 -0.0028792585 0.025460672 0.0020986206

action_model._discrete_distribution.branches.0.bias f4 [7]
00000000: 097e 2abc 6252 ddbb e73b a2bc 5fdd 6bbb
00000010: 7981 a0ba b0b6 6a3c 69bd 863c
-0.010406026 -0.0067542056 -0.019803954 -0.0035990102 -0.0012245617 0.014325783 0.01644774

onnx::Div_70 f4 [37]
00000000: 7ec2 4c41 56a0 e13c 8f6e 4d41 db9f f23a
00000010: b405 943e db9f f23a bfeb 8441 db9f f23a
00000020: 0645 8241 db9f f23a 66f9 963e db9f f23a
00000030: 4ca2 f53d 2fd2 e83d c6bc ea3e b275 df3e
00000040: 587e f33e f5bc ea3e 8c43 553f 5b09 bc40
00000050: db9f f23a d375 bc40 152c 373f db9f f23a
00000060: 6ed6 323f ce86 803e 8c0e 6f3e 7d0e 6f3e
00000070: 6e46 6e3e 8146 6e3e d2b3 243e b146 793f
00000080: 481f 8f3e 5489 2b3f 55a0 e13c 4ea5 3d41
00000090: 10d3 933e
12.797483 0.027542274 12.839492 0.0018510775 0.289106 0.0018510775 16.61511 0.0018510775
16.283703 0.0018510775 0.2948715 0.0018510775 0.11993846 0.11368214 0.45847148 0.43644482
0.4755733 0.45847288 0.83306193 5.876142 0.0018510775 5.889383 0.7155164 0.0018510775
0.69858444 0.25102848 0.23345393 0.2334537 0.23269054 0.23269083 0.16084221 0.9737349
0.27953553 0.6700642 0.027542273 11.852858 0.28871965
