results/Xdddd/BoxingAgent/BoxingAgent-62778.onnx (onnx, 409187 bytes, 13 tensors)

network_body.observation_encoder.processors.0.normalizer.running_mean f4 [84]
00000000: 0000 0000 fde2 bd3e 3f5e 1b3f e7c8 563f
00000010: 0000 0000 7533 c23e cebf 193f 14b0 553f
00000020: 0000 0000 01fd b93e 556b 1d3f 6493 573f
00000030: 0000 0000 05a9 c83e 3da2 163f 55db 533f
00000040: 0000 0000 11ee b63e cc0a 1f3f fce7 573f
00000050: 0000 0000 71ce cd3e 34c0 133f c98f 513f
00000060: 0000 0000 f50f b53e 8309 203f 32bc 573f
00000070: 0000 0000 4b45 d33e fac1 103f 1258 4f3f
00000080: 0000 0000 b173 b73e c7da 1e3f fa1d 573f
00000090: 0000 0000 f6f9 d73e bf22 0e3f 9296 4d3f
000000a0: 0000 0000 f36c b93e c433 1e3f cd32 563f
000000b0: 0000 0000 aa01 df3e 857e 0a3f e0b0 4b3f
000000c0: 0000 0000 54a9 be3e 5a19 1b3f 76bd 543f
000000d0: 0000 0000 187b e23e 093e 093f a459 4a3f
000000e0: 0000 0000 c9c4 c13e 82fa 183f 8516 533f
000000f0: 0000 0000 4b7e e63e 0303 073f 25a4 483f
00000100: 0000 0000 1304 c83e f97d 153f d157 513f
00000110: 0000 0000 7bb7 e73e 3309 033f ef79 443f
00000120: 0000 0000 472f cf3e 76a3 113f cf96 4f3f
00000130: 0000 0000 843f eb3e 4e8f 013f b275 433f
00000140: 0000 0000 33ba d33e 8022 0f3f e412 4e3f
0.0 0.3708724 0.60690683 0.839003 0.0 0.37929884 0.60058296 0.834718
0.0 0.3632584 0.614919 0.84209275 0.0 0.39191452 0.58841306 0.8275655
0.0 0.35728505 0.6212585 0.84338355 0.0 0.40196565 0.57715154 0.81860024
0.0 0.35363737 0.62514514 0.8427154 0.0 0.41263804 0.56545985 0.8099376
0.0 0.35830453 0.6205258 0.84030116 0.0 0.42182893 0.5552177 0.8030788
0.0 0.36215934 0.6179774 0.83671266 0.0 0.43555957 0.54099303 0.79566765
0.0 0.37238562 0.6058556 0.83101594 0.0 0.44234538 0.53610283 0.7904303
0.0 0.37845448 0.59757245 0.8245624 0.0 0.4501823 0.5273897 0.78375465
0.0 0.39065608 0.58395344 0.8177462 0.0 0.45257172 0.5118591 0.76748556
0.0 0.40465757 0.56890047 0.8108949 0.0 0.45946896 0.5060929 0.76351464
0.0 0.41352996 0.5591202 0.80497575

network_body.observation_encoder.processors.2.normalizer.running_mean f4 [37]
00000000: 1c3b 79be 2a83 6d41 d27a 62c1 59b3 aeb0
00000010: a4c9 fb3e 1551 00b0 21e9 c5be 18b3 26b9
00000020: 7aed 45be 958e 92b1 a107 fe3e 134d 5530
00000030: 007b 5f3f 47a7 5d3f bf64 9a3e 52a5 9f3e
00000040: 0000 0000 95cc 323f 0000 0000 5c0e 2bbd
00000050: 0000 0000 e337 263d 5e32 6abc d2e8 b5b6
00000060: e9c8 abbc 0a8d f23e 8160 fd3e b54e 013f
00000070: a1c7 f93e 281b 033f ed6c 6d3d 83c1 283e
00000080: 335e 193f 3fb6 493d 2a83 6d41 99bf e041
00000090: 0bc1 003f
-0.24338955 14.844522 -14.154985 -1.271114e-09 0.49177277 -4.6681353e-10 -0.38654426 -0.00015897711
-0.19328871 -4.265369e-09 0.49615195 7.759848e-10 0.8729706 0.8658337 0.30154988 0.31180817
0.0 0.6984342 0.0 -0.04176174 0.0 0.04058064 -0.014294235 -5.421324e-06
-0.020969825 0.4737323 0.4948769 0.5051072 0.48785117 0.5121331 0.057965208 0.16480069
0.5990936 0.04924607 14.844522 28.093554 0.5029456

network_body._body_endoder.seq_layers.0.weight f4 [256, 121]
00000000: 567c f9bd 67c8 cfba 33ff 9f3d ad73 4a3d
00000010: 2ed3 a53d 263c e4bc 0dae 143c 6941 473d
00000020: 0615 bf3d 38b1 653e d5b1 ec3d 27ef f9bb
00000030: ca73 87bc 1b30 093d a54c 08bc 9550 b3bd
00000040: 4c39 463d b5f3 db3d 313c 1f3d a320 adbd
00000050: 9f38 863d 0c75 bc3d 1cac ae3c 229a 523c
00000060: a620 f53d 7957 6c3a df74 a7bd 9bda 0d3e
00000070: 2675 073d e78d 573d e683 1e3e b5c6 083d
00000080: 760b 613e 0ecb e83c 32ba 74bd cb63 453c
00000090: 7b9c e03d 702c 74bd 4854 a6bd dd2c debc
000000a0: 233a b7bb 3f29 07bd 6ba4 87be dbfb 363d
000000b0: 0f2c b1bd fcb3 8bbd 970f a33d 3490 b13d
000000c0: dc69 d93d 52c8 8dbe 72cc d6bc 0107 33be
000000d0: e72e 82bd 52bf ba3d a3f2 a13c 1022 1d3d
000000e0: 3821 3dbd d1cf 52bd d608 993d c667 07be
000000f0: acec dbbc 9c8f b9bd 386e 71bd 7758 c63c
00000100: 252c 8f3d 9cb1 9d39 6502 a33d 1d30 d3bc
00000110: 4d24 cdbd 7ad8 1b3e b74b 7b3d 04d5 a43d
00000120: 3a64 b33d 3a6e b63d d12d 723e 9c39 5fbc
00000130: 8f09 c3bc 7c48 1e3d 9c67 743d b7f1 64bd
00000140: de2f 2d3d c743 9c3d c1b5 25bd b3f5 ccbd
00000150: 9cad 78bc 49da 25be 029e 99bb 10ba b8bb
00000160: 70b8 153e 7fd2 a73c 219a b7bc 031c b6bd
00000170: 2e37 07be ceaa 093e 84d2 5d3d 485d e2bc
00000180: 4d11 24be eccf a1bd 1dcb 9a3d fc62 19bd
00000190: 3c87 253e 186d 8d3d 5055 0ebd acf7 debd
000001a0: e473 8abc 75af 4fbc 714a 57bd de90 ccbd
000001b0: 77dd 923c 2efa 7fbe 5ae0 1c3d 6282 bcbd
000001c0: cd4e 7b3d 643b 4f3d e3f5 c93c 3dfa 363b
000001d0: 6045 1dbc 68d0 cb3d 2de2 d73d 56b6 bbbd
000001e0: e9e5 0e3e 7269 183e 4eec ebbc 637d 793d
000001f0: d453 083e ad92 b2bd 2a25 bb3d 4644 753e
00000200: 5bbb 00bd cddd 9cbd e823 82bd 3fd8 743d
00000210: 3bf3 c93c 2882 e9bb e9cb 4bbe 7687 e23d
00000220: 7919 91bd 3208 073e 672a 80bd f9cd 943d
00000230: 4bf3 31bd b090 8c3d ad06 0abe 5ff5 bd3d
00000240: 309f 473d 5d4e 1a3e 9d4b 91be d5f4 bf3c
00000250: 8d08 2e3d 60ac ec3d ad5a b0bc 2993 de3c
00000260: 0559 d33d dcaa b83d 5afe 133d 7bbe e83d
00000270: 9678 b53c 2001 0bbd 94e6 4abe 9251 0f3e
00000280: 5ac6 dc3d e0c6 17be 8927 913d 1221 bdbc
00000290: eca1 9fbb cc90 c43d f0aa 593b 81e8 0dbe
000002a0: 48d8 edbb 7c3c cdbc cf30 90be 69c1 533d
000002b0: 2558 953d b8e1 1abd 3a82 393e 7d49 d4bd
000002c0: 8c23 c1bd 764f 7e3d 1712 b73c a6ac 883d
000002d0: f1e1 9d3d df91 ab3d f93f 8bbd 06e3 42be
000002e0: c32b f0bd 0330 5abb 682b aabd 8a48 afbd
000002f0: bb86 87be 9857 de3d 0376 81bd 0e0a 013e
00000300: 076e 4b3d cc27 1ebe 513e 6fbc 1c9c e1bd
00000310: baec 453e 6047 30bd 5340 13bd 2ec6 213e
00000320: c371 01bc d5e6 40bb cb05 ee3d 4085 d1bd
00000330: 680c 023e e3e7 343d 2645 e4ba e358 f4bc
00000340: 652b c3bd ee68 2f3e b971 c33d 4f59 c5bd
00000350: 53f5 e2bb bcf6 a23c 63a9 f23d dc31 aebd
00000360: f68e 43bd 89d5 ac3d be36 0a3d 6863 babd
00000370: 390d 403e cbd0 5dbe 3c31 38bd 0ca4 0a3c
00000380: 5dfa a63c 1e63 783c 4eed 50bd c268 ca3d
00000390: ad30 613d 2e6f 7e3d 4346 60bd 1ac8 2e3e
000003a0: 8ef4 1ebe 44f1 ba3d e60d 8bbb d52a 3c3d
000003b0: 74a7 3ebc 5045 ec3d 08bf 0ebe 9eb3 3a3e
000003c0: d75d e33d 6fe7 1ebc b1d2 2bbc 17c7 673e
000003d0: 718a 08be 43e3 653d 00e8 c3bd ca33 6f3d
000003e0: 354a 38bc 11d3 f7bc 7e01 da3c a9ef 943d
000003f0: 94c4 15be 433d 08be c0ff 883d d4d0 4c3e
-0.12181918 -0.0015852571 0.07812347 0.049426723 0.0809692 -0.027860712 0.0090747 0.048646364
0.09330182 0.22430885 0.11557356 -0.007627386 -0.016534705 0.033493143 -0.008319055 -0.08755604
0.048394486 0.10739843 0.038875762 -0.084534906 0.06553768 0.092020124 0.021322303 0.012854131
0.11969118 0.000901572 -0.08176588 0.13852923 0.033070706 0.052625563 0.15480003 0.033392627
0.21977028 0.028417137 -0.059747882 0.012047718 0.10967346 -0.05961269 -0.08121544 -0.027121002
-0.0055916472 -0.03299832 -0.26492628 0.04467378 -0.08650982 -0.06821439 0.07961958 0.08670083
0.10615894 -0.27691895 -0.026220534 -0.1748314 -0.06356602 0.09118523 0.019769019 0.038362563
-0.046174258 -0.05146772 0.074723884 -0.1322318 -0.026846252 -0.090605944 -0.058943003 0.024212105
0.06990842 0.00030077703 0.07959441 -0.025779778 -0.100166894 0.15219298 0.061351504 0.08048442
0.08759351 0.08907743 0.2365029 -0.013624575 -0.023808269 0.038643345 0.059669122 -0.05589458
0.042281978 0.07630115 -0.040456537 -0.10007801 -0.01517811 -0.1619655 -0.0046880255 -0.0056374148
0.14621139 0.020486115 -0.022412362 -0.088920616 -0.13204643 0.13444063 0.05415584 -0.02763237
-0.16022225 -0.07900986 0.07558272 -0.037447914 0.16164869 0.069055736 -0.03474933 -0.108870834
-0.016900964 -0.01267611 -0.052561227 -0.09988569 0.017927868 -0.2499778 0.038299896 -0.09204556
0.061354447 0.05059375 0.02465338 0.002792015 -0.00959906 0.0995186 0.105411865 -0.09165637
0.13954891 0.14883974 -0.028799202 0.060910594 0.13313228 -0.087193824 0.09137948 0.23951825
-0.031428676 -0.07659493 -0.06354505 0.05977654 0.024652114 -0.0071261115 -0.19902004 0.110609934
-0.07084937 0.1318672 -0.062580876 0.07265849 -0.043444913 0.068635345 -0.13479109 0.092753164
0.048735797 0.15068956 -0.28378 0.023432175 0.042488623 0.115563154 -0.021527613 0.02716978
0.103197135 0.09016964 0.03613124 0.11364456 0.022152226 -0.03393662 -0.19814521 0.1399596
0.1078002 -0.14821959 0.07087619 -0.023087058 -0.0048715975 0.0959793 0.003321346 -0.13858224
-0.0072584487 -0.025053255 -0.28162238 0.051698122 0.07292203 -0.03781292 0.18116084 -0.10365579
-0.09430608 0.0620875 0.022347493 0.06673555 0.077091105 0.08377432 -0.06799311 -0.19031915
-0.11727097 -0.0033292777 -0.0830906 -0.085587576 -0.2646998 0.10856551 -0.06321337 0.12601492
0.049665477 -0.15444869 -0.01460226 -0.110161036 0.19328585 -0.04303682 -0.035950016 0.15798256
-0.007900658 -0.0029434462 0.11622199 -0.102304935 0.12700045 0.044166457 -0.0017415627 -0.02982754
-0.09529761 0.17129871 0.09543175 -0.09636175 -0.0069262176 0.019893043 0.11848714 -0.08505604
-0.04774376 0.08439166 0.033743612 -0.091009915 0.18755044 -0.2166168 -0.04496883 0.008461963
0.020383054 0.01516035 -0.05100756 0.09883262 0.05497806 0.062117748 -0.054754507 0.1706852
-0.15522978 0.09128049 -0.0042436 0.045939285 -0.011636604 0.11536658 -0.1394006 0.18232581
0.11101883 -0.009698733 -0.010487244 0.2263454 -0.13334061 0.056124937 -0.09565735 0.058399
-0.011248161 -0.030252011 0.02661204 0.07272274 -0.1462577 -0.1330462 0.066894054 0.20001537

network_body._body_endoder.seq_layers.0.bias f4 [256]
00000000: 31b1 63bc cb1a 3e3c 8468 12bc 44cd 4e3c
00000010: 15e9 783c c583 8f3c 84df c13b 81c1 b13b
00000020: c9d7 cf39 4681 093c a752 84bb 54aa 503b
00000030: c704 8a3c 82e2 903b ed90 fb3b 72d4 643c
00000040: 765e 5d3b 798e 8c3b 409a 3f3c 5ee4 653c
00000050: 5633 923c b733 183c d0ae 8f3b b23d 2e3c
00000060: 121a 803c 73e4 223c c122 293b 3328 3d3c
00000070: b379 003c 9ff5 d43b ace9 893c 9165 8a3c
00000080: dafa 8fbb 196e 29bc 9c66 13bc c1f6 9e3c
00000090: b602 673c 7bfd f53b bd8b 8c3b 1b73 c03a
000000a0: d7c2 3ebc 4afd 983c bba0 0b3c 5a48 173c
000000b0: a54b 1c3c c79f 7a3b 8af3 25bb 7f54 733c
000000c0: 2673 253c ff89 a93b 3ee9 06bc e041 a23c
000000d0: 8a8b 963c 6f2e 1c3c e343 5b3c d4df fc3b
000000e0: de7b 4a3c df56 93ba f231 aa3c d6ea 173c
000000f0: f801 203c f720 ab3b cc93 3938 8d69 023c
00000100: 5101 9c3c 8d8a 853c e46e 963c b4bc 623c
00000110: 7cd5 6d3c f32a a23c 6e3c 483c 5f9b 383c
00000120: 316c 453c 170c 96bb cd3f c53b 719d aa3b
00000130: 4f6d 503c b09e 4a3c 894b a4bb 5253 6b3c
00000140: 3156 6abc 726c a73b 1c71 953c 38e7 64bb
00000150: 1084 7c3c fac5 043c 6fd0 693b f624 b93a
00000160: 7a23 bb3b f581 57bc d5de 793c 5fd9 903c
00000170: 9499 663c 83a3 333c 70a7 6ebc 40c0 903c
00000180: 3ddd 393c e3f2 843c 23af 613c f389 6b3c
00000190: 396f bc3b dafa 60bc 4b24 823c dcc0 8b3c
000001a0: 7cab 69bb 3d7e ab3a 1f95 413c 44f7 3b3b
000001b0: bc97 38bc 9ec9 6bbc 2de0 4a3b a53a 94bb
000001c0: 9b9c 00bb dc52 5b3c fb0e 5b3b 7db1 833c
000001d0: 9a5e 693c 0a3a c8bb 3827 6c3c f775 173b
000001e0: 2c17 3b3c 04cb 4b3a e2fc be3b b3a4 a43c
000001f0: 8ab6 373b f2ad 5eba 5590 833c ccd0 893b
00000200: a530 863c bcdf 723c a54a 443c 29f5 043c
00000210: 543a 8b3b d35f 573c 0228 c13b 7ce5 5cbc
00000220: 5968 6c3b be21 363c 924a 823b 065c 31bb
00000230: ab94 273c f876 013c af81 5f3c 5f7c a43c
00000240: 0674 eabb 471d c13b 68cd 493c a2cd a7bb
00000250: 7c76 093c 204d 063c 4101 463c d496 c43a
00000260: 4183 51bb b798 353c c0c9 9a3b 4785 183c
00000270: 0dd4 9c3c 9b94 313c 3370 273c 796f 3a3c
00000280: 159a 5c3c c3b2 16bc d6bc a63b e37c 7f3b
00000290: 0b57 ae3c 19fe a9bb 1f32 613a cd56 163c
000002a0: 43c6 883c 7abc acbb a16d 343c 5279 9a3b
000002b0: 2137 953b d81a 1c3c 26dc 873c 8df1 9f3c
000002c0: 4434 813c 70f2 51bc 21e0 243b faa2 303c
000002d0: 1d6f 263c e5fe a33c a51a 683c cb74 55bc
000002e0: 5f7a ab3b 63d8 b53a 7775 983c bebf 1b3c
000002f0: 4b1d 3b3c fed3 2e3c 06cd f1bb 43fd 8e3c
00000300: caab 323c f28e 1cba 710a 333c 45d2 953b
00000310: 06fd 3abb 9f02 313c afba 753c be91 6b3c
00000320: 4292 a73c cc66 283c 92e0 8b3c 5918 553c
00000330: cd2b 0f3b d2c9 f33a ffe2 623c 6281 c33a
00000340: 69b1 13bb b56e 75bb 061f 673c 35ed 62bc
00000350: 8044 fbba b1d8 463c f90f 913c f291 c83a
00000360: 5ef9 553c 829e 893b 4f09 23bc f12a 123c
00000370: 646e 883c 403e 283c bc1c 643c 060a 563c
00000380: 1a8c 21bc c58a 8f3c ade8 583c 854b c7bb
00000390: 22c4 213a 60ae 893b c9f4 c93b 2def 6d3a
000003a0: 29db 8f3a 6188 303c 1b5f 8e3c 2549 a13c
000003b0: 4348 d43b 636e 663c cd69 7e3c d410 3e3c
000003c0: ed6b 593c 4010 40bb bfb4 933b 96e7 f73b
000003d0: 46be 0f3c 3429 6f3c 6e77 933b 030a d1bb
000003e0: 7a94 323c 8c63 9e3c e7ed 9c3c a71e 3539
000003f0: 353a 883c 4d3e 173c a2cd 7a3c d641 823c
-0.013897226 0.011603068 -0.008936051 0.012622181 0.01519229 0.017518887 0.0059165377 0.005424679
0.0003964289 0.008392638 -0.0040381732 0.0031839805 0.016847981 0.004421533 0.0076771886 0.013966667
0.0033778227 0.004289445 0.011694491 0.014031498 0.017846745 0.0092896735 0.004384853 0.0106348265
0.015637431 0.009942162 0.0025808068 0.011545229 0.007841515 0.006499007 0.016835056 0.016894134
-0.0043939175 -0.010341191 -0.008996632 0.01940477 0.014099767 0.007507024 0.004289119 0.0014682742
-0.011643133 0.018675465 0.008522208 0.009233559 0.009539519 0.0038242207 -0.0025322163 0.014851688
0.010098254 0.005173921 -0.00823432 0.019806802 0.018377084 0.009532555 0.013382885 0.007717112
0.012358634 -0.00112411 0.020775769 0.009272298 0.009766094 0.0052224356 4.4245084e-05 0.007959736
0.019043596 0.016301418 0.018363424 0.013838936 0.014516231 0.01979587 0.012221439 0.011267512
0.012049721 -0.004579078 0.0060195685 0.0052067568 0.012721374 0.012366936 -0.0050138873 0.014363127
-0.014302776 0.0051093632 0.018242411 -0.0034927856 0.0154123455 0.008103842 0.0035677215 0.0014125395
0.0057110162 -0.013153543 0.015250881 0.017681776 0.014074702 0.010964277 -0.014566287 0.017669797
0.011344251 0.016229099 0.013774666 0.014376151 0.0057505635 -0.013731683 0.015886446 0.017059736
-0.0035655191 0.0013083887 0.011815338 0.0028681317 -0.011266645 -0.014391331 0.0030956373 -0.0045235925
-0.0019624594 0.013386454 0.0033425677 0.016075844 0.014243746 -0.0061104344 0.014413647 0.0023111084
0.011419099 0.0007774087 0.005828486 0.020098066 0.0028032386 -0.0008494548 0.016060034 0.0042057987
0.016380617 0.01482385 0.011980687 0.008115091 0.0042488966 0.013145405 0.005894662 -0.013482448
0.0036072938 0.011116443 0.0039761746 -0.0027062907 0.010228316 0.0079018995 0.013641759 0.020078836
-0.0071549444 0.0058933827 0.012317039 -0.005120949 0.008390065 0.008197099 0.01208526 0.0014998564
-0.0031969103 0.011083773 0.0047237575 0.00930912 0.019144082 0.010838653 0.0102196215 0.011379116
0.01346447 -0.009197894 0.005088429 0.003898435 0.02128174 -0.0051877615 0.00085905375 0.009175968
0.016696101 -0.0052714916 0.011012466 0.0047141695 0.004553691 0.009527884 0.016584467 0.01952436
0.015771993 -0.012814149 0.0025158005 0.010781044 0.010158327 0.020019004 0.014166509 -0.013028334
0.0052330936 0.0013873692 0.0186107 0.009506164 0.011420558 0.01067066 -0.007379177 0.017454749
0.0109052155 -0.0005972228 0.010927782 0.004572185 -0.0028532161 0.010803848 0.014998122 0.014378009
0.020455483 0.010278415 0.017074857 0.013006293 0.0021846176 0.0018599576 0.013848065 0.0014915878
-0.0022536165 -0.003745002 0.014106518 -0.0138505 -0.0019170195 0.012136624 0.017707812 0.0015302284
0.013059942 0.004199804 -0.00995095 0.008921371 0.0166542 0.010268748 0.013922866 0.013063913
-0.009860063 0.017522225 0.013239068 -0.0060820007 0.00061708887 0.0042016953 0.006163214 0.00090764725
0.0010975349 0.010774703 0.017379334 0.019688198 0.006478341 0.014064404 0.015528155 0.011600692
0.01327036 -0.002930656 0.0045076306 0.007565449 0.008773392 0.014597226 0.004500321 -0.0063793673
0.010899657 0.019334577 0.01915641 0.00017272924 0.016629318 0.009231162 0.015307816 0.015900534

network_body._body_endoder.seq_layers.2.weight f4 [256, 256]
00000000: 5ad2 dcbc 6a12 11be dcb6 e9bc 880e 49bc
00000010: 80da 933d 526d 25bd 0666 e0bd c6ff c43a
00000020: 7223 babd 057f d93c 8cf3 60bc 1721 063d
00000030: c154 8b3d 490e 8a3b 989e f33d 47cf 89bc
00000040: 44f0 a9bb 8c31 c53c 93fa fd3d d74a a9bc
00000050: 533f be3b 3158 6a3c 30aa 4dbd db21 053c
00000060: f6d5 b6bb 8539 32bc 018e 51bd 26e8 c5bc
00000070: 281e 7ebd d7f2 083e 6593 acbc 105c 9cbd
00000080: a8b9 52bd 660b 863d 23cd 093c 8a34 03bd
00000090: 2736 6f3d 0a53 f9bd 37b5 fc37 0216 173d
000000a0: 495e 403c 1439 cb3d 301c 15bc da9a c6bc
000000b0: 6920 6c3c 06bf 953d 70c7 b8bd 9b0e 8aba
000000c0: 9ab4 09bd 78a7 62bc e794 8fbc e091 e5bb
000000d0: 27ed 12bd 0648 44bc d822 0a3e 3dd0 73bc
000000e0: 65c5 d33d 8adc cd3b b4b2 07be 8da2 203d
000000f0: 26ff 183d 223c 13bc 94c5 d7bd 4163 d03c
00000100: c086 3f3d f88c b2bb 6725 943d 885d 953d
00000110: 34ae 8f3d 577a 1cbd 93f7 b63d 475e 4cbd
00000120: bf26 b9bd 3d0d b53d 0531 453d 94b6 39bd
00000130: f3c9 da3c ea5d 313d 6b09 64bd ffeb 8c3b
00000140: 37c4 7dbd fe99 093e 7ccb adbd 1233 74bd
00000150: bb80 ba3d e0a6 f5bc b755 42bd 4333 1c3d
00000160: e004 273d a4ea b9bd 1e3b c9bc 52b2 9f3d
00000170: 4599 97ba 9db5 eb3c 3972 493d 0501 223d
00000180: 5fa3 153d 7f28 5b3d d34f 9b3d 06a1 f0ba
00000190: 133d 73bd 80a7 0e3b 7ecd 37bd cc64 12be
000001a0: 2374 7b3b 4627 2c3d 6a6f 0ebe f206 92ba
000001b0: 2a32 87bc 4d35 2e3d 9393 273e ea74 9a3d
000001c0: 070c 473d 91e3 07bb 9d07 833d 8354 4b3d
000001d0: 1492 d5bd 9fcf 3e3c 6ec9 fdbc cf83 b03d
000001e0: 91c4 633c 2c7d 793a 2901 b33d 3f48 58bd
000001f0: f976 643c 5116 cc3c 6812 29bc 9cef 59bd
00000200: 7d7a 88bc 46ca 0b3d 8c95 abbd 42b3 48bd
00000210: 115e 0c3d 5675 be3b 5e12 f33c 27aa b13c
00000220: 376c 45bd a1fa 70bd b43b 1bbd 74dc 79bd
00000230: a08b adbc 7346 5bbb 27ab 1ebb d294 2dbd
00000240: 9b90 d93c fa3d 04bd 6160 36bd b7ba 323d
00000250: d3a9 2ebd 3fa7 133b 6edf b93c 5ccf 68bd
00000260: 6934 de3d 4e7b a6bd 5555 753c 39a6 45bc
00000270: 81c9 e23d 46bb a43d 9c5a 163d a773 393d
00000280: 0101 63bc fa82 c93b ce1b 0d3d 3339 2dbd
00000290: b4ec 1b3d 1ec9 093c 1985 a5bd 5f2d 70bc
000002a0: fe2a d23d bf36 893d 19e9 91bd 106d 42bd
000002b0: 51cd 54bd 20eb bd3c ae84 87bd 8718 bebd
000002c0: 98ff d4bc 12e2 503d 4782 45bd d4e1 8dbb
000002d0: b86e 1cbc 18f2 f738 0250 8c3d 4714 d4bc
000002e0: 2305 a5bc 3210 9abc 297e 9a3d 3cee ad3d
000002f0: 982b fcbc 1024 7ebd 8c58 abbd 9a0d 843d
00000300: 2c76 31bd b12a ba3b d244 c73c 5e2f bf3c
00000310: 14ff acbc dd6f cb3d c29b c53c 4e34 e8bd
00000320: ca2f 933b f347 903d 37a0 babc 47c1 423d
00000330: ba6e 69bd 3082 e5bd 4378 e13c 82ee a2bd
00000340: 4517 8dbd 497f a1bd ae12 acbd a22a fabc
00000350: b87c 783d 9b5a ce3d 06d0 093d 9a65 81bd
00000360: 32e0 04bd 281a 36bc 54fb 2f3d cf72 b73d
00000370: a877 2e3e e9b2 21bc 6041 53bd a3aa 5b3a
00000380: 29e9 89bd 1662 0dbd d187 7a3c ff5a c7bd
00000390: 3115 c1bd 4ff3 7dbd 6c72 e2bd 4db2 953d
000003a0: 8965 9cbd 0120 643d 6150 c1bd d7c3 32be
000003b0: c5ac cdbd 8f11 073c 876f 75bd 0b39 03be
000003c0: 35a2 c13b ee4f ca3d d12c 87bd 083d c63d
000003d0: 61f9 f53d 8ea7 073e d9f9 473d 4991 e1bc
000003e0: 590d d53d 716a fd39 4a0a d3b8 0ebb 91bc
000003f0: 1f99 3fbd 1f73 8b3d d884 ecbd aef2 bcbd
-0.026955772 -0.1416718 -0.028529577 -0.012271531 0.0721941 -0.04038746 -0.109569594 0.001502984
-0.09088792 0.026549825 -0.013729941 0.0327464 0.06803275 0.0042131287 0.11895484 -0.01682247
-0.0051861126 0.024071477 0.12401309 -0.02066557 0.0058058887 0.014303253 -0.05021113 0.008125748
-0.0055797054 -0.010877972 -0.051160816 -0.024158549 -0.062040478 0.13373886 -0.021066377 -0.07634747
-0.051446587 0.06545143 0.008410725 -0.032032527 0.058401253 -0.121740416 3.0125126e-05 0.036886223
0.011741229 0.09922996 -0.009100959 -0.02424376 0.014412024 0.073118255 -0.09022415 -0.0010532917
-0.0336195 -0.013833873 -0.017527057 -0.007005915 -0.035870697 -0.011980062 0.13489854 -0.014881191
0.103403844 0.006282394 -0.13251764 0.03921752 0.037352704 -0.008986505 -0.10535732 0.025437953
0.046759367 -0.0054489337 0.072336964 0.0729323 0.070156485 -0.03820261 0.0893394 -0.049894597
-0.09040593 0.088404156 0.04814245 -0.045340136 0.026707625 0.043302454 -0.055673044 0.004300594
-0.061954703 0.1343765 -0.08486077 -0.059619017 0.09106585 -0.029986799 -0.047445025 0.038134824
0.040776134 -0.09077957 -0.024564322 0.07797684 -0.0011566064 0.028773123 0.049181197 0.039551754
0.036532756 0.053505417 0.07583585 -0.0018358536 -0.059384417 0.0021767318 -0.044873707 -0.14296263
0.0038368783 0.04202964 -0.13909689 -0.0011140986 -0.016503412 0.0425313 0.16364889 0.07541831
0.048595455 -0.0020735005 0.063979365 0.049641144 -0.10428253 0.01164618 -0.030979838 0.086188905
0.013901846 0.0009517248 0.08740456 -0.052803274 0.013944381 0.024912985 -0.01031933 -0.053207025
-0.01665997 0.03412845 -0.08378133 -0.04899908 0.034269396 0.0058123274 0.029671844 0.02168758
-0.048198905 -0.05883277 -0.037898734 -0.061001256 -0.021184742 -0.003345874 -0.0024210901 -0.042378254
0.026558211 -0.032285668 -0.044525508 0.043635096 -0.042642426 0.0022530106 0.022689547 -0.05683838
0.1084984 -0.08128987 0.014973958 -0.012063556 0.1107359 0.08043532 0.036707506 0.04527631
-0.01385522 0.006149647 0.034450345 -0.042290878 0.038067535 0.0084097665 -0.08082027 -0.014659255
0.10262106 0.06699895 -0.07124538 -0.04746729 -0.051953617 0.023183405 -0.066171035 -0.09282022
-0.026000783 0.050996847 -0.048219945 -0.0043298993 -0.009547882 0.00011822971 0.06851198 -0.025888575
-0.020144051 -0.01880655 0.075435944 0.08492705 -0.030782506 -0.06204611 -0.08366498 0.06447907
-0.043325588 0.0056813587 0.024324808 0.023338016 -0.021117724 0.099334456 0.024122123 -0.11338101
0.004491781 0.07044973 -0.022781475 0.047547605 -0.056990363 -0.11206472 0.027523166 -0.07955648
-0.06889204 -0.07885606 -0.08402 -0.030537907 0.060665816 0.10075875 0.033645652 -0.06318207
-0.03244037 -0.011114635 0.042964295 0.08957445 0.17037833 -0.009869316 -0.05157602 0.0008379614
-0.06733925 -0.03451737 0.01529117 -0.09734153 -0.0942787 -0.061999615 -0.110569805 0.07309399
-0.07636554 0.055694584 -0.09439159 -0.1745752 -0.10042719 0.008243932 -0.059920814 -0.12814729
0.005909229 0.09878527 -0.06600345 0.096796095 0.12010456 0.13247511 0.048822258 -0.027535098
0.104029365 0.00048335225 -0.000100631805 -0.01778939 -0.046776887 0.06809067 -0.115487754 -0.09225975

network_body._body_endoder.seq_layers.2.bias f4 [256]
00000000: b783 98bb a36c 1c3a 598f ed3b 008d 823b
00000010: 3c8c 713c 286c bfbb 7459 813b b835 9cbb
00000020: c51d 50bc 38a5 4a3c bb02 8d3c 221f cdbb
00000030: 5d8e c339 8974 8b3b 7984 f9bb ae41 2c3b
00000040: 1613 193c 0bb3 febb bf99 18bc 167f 80bb
00000050: 0a9f b33b 8c65 493c 0554 2f3c 29ef 203c
00000060: f714 9d3c c273 9e3c e1a2 71bc 73b4 923b
00000070: d55a c23a 09d5 683c dbec 35bc bc97 943b
00000080: 21cb d93b f92f 513c a698 543c 339c 9c3b
00000090: 298c 023c 1883 b43a 7809 143c 0351 1cba
000000a0: 7ee4 963b 8522 1a3c 72aa 27bc da4d 3a3c
000000b0: 0b55 233c e971 993b 5292 453c e18e 64bc
000000c0: a7ad b43b 9f9c 67bb 03fa 3b3b 4023 0a3c
000000d0: ab7e 603c 2b76 0c3c 7ee1 adbb 25c8 dfbb
000000e0: 2d35 203a 40a3 2f3b e1b2 803b eed8 53bc
000000f0: c8cd 873c 4032 df3b e9d2 c4b9 5dd4 a6ba
00000100: 0d5f 903a 28d9 21bc 2447 96bb e7bb bf3b
00000110: b721 8e3c 37d1 0fba d49a 8eba 6731 63ba
00000120: 3b91 53ba 1db9 cc3b 2323 1abb e36c 6f3c
00000130: 495b 1b3b 4493 173a 3256 8eba a60d 3839
00000140: cd48 bdbb 7841 5a3c b941 62ba 40a5 12bc
00000150: dab7 aa3c c0c2 d1bb f09d 843c dc0b 3cbc
00000160: f50d 5b3c 12b3 e9bb 8afa ce3a 8681 f13b
00000170: 85f5 44bc 313d 853c bc04 8f3a 1b81 ebbb
00000180: 1c8d c33b c2cd 033b 6e90 2cbc 7306 213b
00000190: 24f5 0dbc be72 d7bb ba70 513c a677 2fbc
000001a0: 174e f83a bda4 563c 511e 8b3c a917 033c
000001b0: 4de2 3d3c 1c83 943a fa55 783c 7076 193c
000001c0: 2397 273c 8e89 a63c 3e81 4d3c 711c 803a
000001d0: 4198 993c 2318 73bc be9e 2cba bfb6 463a
000001e0: 7b23 ab3c cdc3 563c 9073 a4bb 0ebe 22bb
000001f0: 1a9c ffbb 7402 93ba 4e53 88bb c90b 0dbc
00000200: 8d51 3d3c 74e5 1cbc 5619 0abc d8c7 54bb
00000210: 9eed f43a 80fb 633c 8a18 a73c 1b05 523c
00000220: b91d 13bc 3e23 013c 9c94 473c e12e 593c
00000230: 4ec3 063c a395 a3bb 8828 57bb 5601 ffbb
00000240: 161f a33c 99fc 953b e32a 773c 69f3 d03b
00000250: 8a32 c83b 1750 1e3c dd6a 4f3b 1f49 be3a
00000260: b31f 8bb9 bfe6 803c 2816 4d3c 7995 a83b
00000270: ac10 483c 33b0 523c 17ba 22bb 9152 4c3b
00000280: 783d 06bc 307d ea3b bd11 e53b 3112 c43b
00000290: 1e8f 3c3c 0e4e 6a3c d451 893c 36bb e4bb
000002a0: d788 113c da95 253c ce38 5b3c 46aa ebbb
000002b0: a3e2 8ebb 60bf 2136 cc84 19bc 5e7a 72bc
000002c0: b236 e7bb 0746 9eba 9c40 8b3b 861a 903c
000002d0: 6e79 033c 8f0b 983b 08f1 03bb f4c1 57bc
000002e0: 1baa 043b e8db b5bb 0c4d cb3a e403 513b
000002f0: 79f5 bf3a 98aa 4d3b 5df0 c43b e200 223c
00000300: b6d2 39bb 9157 103c 243e 4bbb 5243 5bbc
00000310: 3079 783c 8ac8 933c e12b 9a3c eaef 2b3c
00000320: 1690 c53a ea5c 10bb 42a1 f23b 4b62 773c
00000330: 9e66 ac3a de9d 40ba f3b3 84bc e9c7 fdba
00000340: df55 a93b a629 0ebc 2cca 073c 2880 223c
00000350: 0b05 b9bb ddd6 4d3c 5763 b5bb a35f 9d3b
00000360: 0910 683c 9ae2 6d3c 8f39 f43b d866 8a3c
00000370: 444b 26bc 58a3 a43c 2ca6 b4bb 6444 393c
00000380: e7a5 dcbb 88f8 e43b bbd6 d9b9 e914 06bc
00000390: 1b21 e33b ee2d 05bc 4dba 62bc c676 3b3c
000003a0: 4d8d a33b 1b6f 393c 0225 823c 2289 2ebc
000003b0: 226a db3b 03b8 8c3c 72ff 843c c9b0 25b9
000003c0: d2d6 733c 232a 9f3c 505f acbb 79d7 653a
000003d0: d79d 28bc 74a8 953b 1819 93ba 92d0 f53b
000003e0: ddb6 84bb 5f22 cabb 0e2c 9b3c 17c7 df3b
000003f0: cadf b83b 7555 923b e3c5 5cbb b90e 25bc
-0.0046543735 0.0005967116 0.0072497544 0.0039840937 0.014742907 -0.0058417507 0.003947431 -0.004767146
-0.01270241 0.012368493 0.017213216 -0.006259815 0.00037299367 0.0042558354 -0.007614669 0.0026284265
0.009342929 -0.0077728084 -0.009314 -0.0039214 0.0054816054 0.012292277 0.010701184 0.009822645
0.019175036 0.019342307 -0.014748306 0.0044770776 0.0014828095 0.014210948 -0.011103834 0.0045346897
0.0066465293 0.012767785 0.012975847 0.0047793626 0.007967987 0.0013771979 0.009035461 -0.00059629994
0.004604875 0.009407644 -0.010233508 0.0113711 0.009969006 0.0046827686 0.012058811 -0.013950081
0.005513865 -0.0035341156 0.0028682954 0.008431256 0.013702075 0.008573095 -0.005306422 -0.006829279
0.00061114394 0.0026800185 0.003927574 -0.012930138 0.016577616 0.00681141 -0.00037541174 -0.0012728084
0.0011014655 -0.009878434 -0.0045861173 0.005851257 0.01735006 -0.00054861925 -0.0010879883 -0.00086667243
-0.0008070652 0.006247653 -0.0023519478 0.014613363 0.0023705533 0.0005782137 -0.0010859428 0.00017552692
-0.005776501 0.013321273 -0.0008631009 -0.0089505315 0.02083962 -0.00640139 0.016188592 -0.011477437
0.013370027 -0.0071319425 0.0015791219 0.0073701767 -0.012021427 0.01626453 0.0010911445 -0.0071870214
0.0059677493 0.0020111655 -0.010532482 0.0024570494 -0.008664403 -0.0065749576 0.012783224 -0.010709679
0.0018944171 0.0131008 0.01698223 0.0080012465 0.011589599 0.0011330578 0.015157217 0.009366617
0.010228905 0.020329263 0.012543021 0.0009774101 0.018749358 -0.014837298 -0.0006584934 0.0007580332
0.020890942 0.013108206 -0.005018659 -0.002483252 -0.007800591 -0.0011215941 -0.0041603213 -0.008608767
0.011555088 -0.00957619 -0.008428892 -0.003246775 0.0018686538 0.013914943 0.020397443 0.0128186
-0.008979254 0.007881938 0.012181427 0.013255806 0.008225275 -0.0049922033 -0.0032830555 -0.0077821417
0.019912284 0.004577231 0.015085909 0.006376673 0.0061095404 0.00966265 0.003164939 0.0014517641
-0.00026535764 0.015735028 0.0125174895 0.0051447717 0.012211006 0.012859392 -0.0024830156 0.0031177143
-0.008193366 0.007156037 0.00699064 0.005983614 0.011508731 0.014300836 0.016762652 -0.006980325
0.008882723 0.010106528 0.0133802425 -0.007191929 -0.0043605133 2.4102264e-06 -0.00937004 -0.014799682
-0.0070560807 -0.0012075313 0.0042496454 0.017590772 0.008024557 0.0046400498 -0.002013268 -0.013168801
0.0020242992 -0.0055498965 0.0015510633 0.0031893188 0.00146453 0.00313822 0.006010099 0.009887906
-0.0028354353 0.00880994 -0.003101238 -0.01338275 0.015165612 0.01803996 0.018819751 0.010494212
0.0015072848 -0.0022028037 0.0074044773 0.015099118 0.0013153141 -0.0007347743 -0.016199088 -0.0019361946
0.0051677073 -0.008676922 0.008287948 0.00991825 -0.005646353 0.012563434 -0.005535524 0.0048026606
0.014163979 0.014519358 0.0074531506 0.016894743 -0.010149781 0.02009742 -0.0055129733 0.0113078095
-0.0067336443 0.006987635 -0.00041549452 -0.008183696 0.0069314367 -0.008128626 -0.013838363 0.011441892
0.0049912096 0.0113179935 0.015886787 -0.010652812 0.0066960016 0.017177587 0.016235087 -0.00015801484
0.01488276 0.019429272 -0.0052603856 0.00087677647 -0.010291538 0.0045672003 -0.0011222688 0.00750167
-0.0040501193 -0.006168648 0.018941905 0.0068291533 0.005641912 0.0044657537 -0.0033687286 -0.010074311

action_model._continuous_distribution.log_sigma f4 [1, 3]
00000000: 4780 273b 6e08 4f3b f6e0 61bb
0.0025558637 0.0031590718 -0.0034466363

action_model._continuous_distribution.mu.weight f4 [3, 256]
00000000: e209 71bc c006 203c 5b45 e9bb c73e 4bbc
00000010: a62a 0eba b158 5439 c5f4 3a3c d082 143b
00000020: bc0d 1239 d5fb ea3a 615d 20bc feb8 a339
00000030: 1d76 42bc 27e9 d8bc 9e99 963c d425 83bc
00000040: 3a4b b63c 61b9 58bc b3ea 39bc 9238 ebbc
00000050: 0ead 42bc 2cc4 e33b b13f 353c 7749 583c
00000060: 412f 663a 7be4 a8ba c8df 3bbc 6cfc d1bc
00000070: eca4 833b a704 36bb 69b4 94ba 5840 e53b
00000080: 5c5a 41bc a97e 4abb 6d65 abbc d8af c93a
00000090: 8481 3fbc 5159 6e3c 8edd 9cba ab37 65bb
000000a0: ae39 b7bb d6d5 d03c ba23 35bc 0169 9abb
000000b0: 555d 40bc bd49 9a3b 8ded 49bb a332 e0bb
000000c0: 460f d6bb 7bca 8b3c a54b 713c 9c8b 11b8
000000d0: 12e4 9e3b fdd0 b5bb 553e 5d3b cc89 403c
000000e0: 15fb ccbb 7580 6a3c 44da dbba 887e 41bc
000000f0: fe03 5c3a 4d69 853a a599 f83b 198f 8cbc
00000100: 3b06 9f3b 3b89 e0bb 0be3 45bc 0bde 5cbc
00000110: fe8c d83b 2514 9ebc b164 ee3b c07b b2bc
00000120: 127c d9ba 4d7d 993c 3fef c03c 9c82 063c
00000130: 3fea aabc 74d5 6dbc db55 60bc cd96 ce3c
00000140: 8d6d 92bc b303 73bc f680 d43b 9b31 81bb
00000150: b4f6 003c c17c b0bc 1bb2 40bc a8cb 0d3c
00000160: 71e2 2fbb e5e3 fcb9 f8cd 4cbc 7ee3 503c
00000170: f5de b7bc 2258 043c c1db 3c3b 9a39 ddbb
00000180: cc4e 8d3c ef3c 8cbb daf3 d6b8 16be b3bc
00000190: d202 91bc d123 d93c ef0a 4bba 4a75 97bb
000001a0: 1f2b f13c 830f 8dbc d554 873b 6745 9bbc
000001b0: b402 003c 88cf c2bc be10 90ba 66b3 14bc
000001c0: 434e 52bb 1096 a53b a11e 8bbb 640c 963c
000001d0: 2e99 efbb 7328 6b3a d049 e5bb 8ffb a43b
000001e0: 99fc 4ebb fd17 c83b 0b6e 933b 451a 2dbb
000001f0: 136e 413b 4bd4 a13b 7d36 493c 1b3d 05bc
00000200: 93fb 393c 787a 67bb 187b 043d a820 ebbb
00000210: d7e9 0dbd 47a1 66bc 27d3 37bc 757d 2abc
00000220: b6a6 0ebc 5c7d 16bc e5d2 0bbc 437f 46bb
00000230: 2929 16bc befc d13b 4fe6 303c 086a b5bb
00000240: ccf5 fabb 755f 6a3c 6a96 a23c 7f88 c83c
00000250: 4403 40bc dae7 abba a268 1abc d105 9ab9
00000260: e042 e1bb 8123 b53b 790f a4bb ec5c fdbb
00000270: dfc6 2e3c dd96 96bc 6119 4ebc 8aa6 a43c
00000280: 175a a43a 150a 763c 8edd 2f3c 8743 0bbb
00000290: c37a 543b 0e33 343c 73e0 773a 989d a1bc
000002a0: 8cf7 5f3c 2142 a73b 5add 1d3c deaf 203c
000002b0: ec9d 153c db7a 52bc eb70 a6bc e842 283c
000002c0: 7ed6 31bc f780 dcbb c4e0 f7ba 9ab2 10bb
000002d0: 4146 4f3c 77d6 6c3b 3799 ea3b b700 a43c
000002e0: 2921 2ebc 3ae9 9838 821e 253b 1774 1c3c
000002f0: 949a f9ba a698 923c c75b d53c 1d1c dbbb
00000300: 1755 22bc 1b00 c7ba a5e8 ea38 dfc8 9d3c
00000310: 75b5 abbb 6e23 40bc 7850 76bc 2327 5ebc
00000320: 89a1 683c 4e15 c73c ee11 2dbc 454a a73b
00000330: dff5 a23c 3e22 003c 2439 8c39 d4ea ef3b
00000340: b694 b8bc 0e88 95bc d2b2 273c 6e8a 453b
00000350: 5690 013b d7a3 37bc 0f7c d63c 28f7 13bb
00000360: fdc1 e3bc e4ec 553c 8d7c c6bc fedb 663c
00000370: cc8e b93b f86d f3bb 6526 81bc f70e b23c
00000380: c356 c6bc 0e6f dfbb d8b7 f7bb c92c 58bc
00000390: 635d 8c3c 9166 883b 8367 59ba fd58 acbc
000003a0: 7009 1c3c 7931 9fbc 59d9 f9bb 665a 03bb
000003b0: c716 0b3c db79 b7bb c650 f4bb 3421 9f3c
000003c0: f0f2 0d3c 953b 8039 f4ed 3c3c 9411 be3b
000003d0: 50ab 03bc c7de c4bb e9fe 053c 6a74 2e3c
000003e0: a375 a1bb 01c7 c7bc 0c02 9e3b 7c99 993c
000003f0: 1eeb 12bc e723 52bc 3432 123b d4f8 16bb
-0.014711829 0.009767234 -0.0071188635 -0.012405104 -0.0005423225 0.00020250936 0.011410897 0.0022660978
0.00013928761 0.0017927835 -0.009787888 0.00031227613 -0.011868981 -0.026478363 0.018383797 -0.016009249
0.022252668 -0.0132277915 -0.011347461 -0.028713498 -0.01188208 0.0069508757 0.0110625485 0.013201109
0.0008780845 -0.0012885475 -0.011466928 -0.02563306 0.004017463 -0.002777377 -0.001134527 0.0069961958
-0.0118013285 -0.003089825 -0.020922387 0.0015387489 -0.011688594 0.014547662 -0.0011967884 -0.0034975808
-0.0055915928 0.02549259 -0.011055881 -0.0047122245 -0.011741002 0.0047084973 -0.0030811757 -0.006841974
-0.0065325825 0.017064324 0.014727508 -3.4700715e-05 0.0048489654 -0.005548595 0.0033759077 0.011751603
-0.0062555172 0.014312853 -0.0016773422 -0.011809953 0.0008392929 0.0010178477 0.007586675 -0.017158078
0.0048530377 -0.0068522966 -0.012078057 -0.013480674 0.0066086045 -0.019296715 0.007275187 -0.021787524
-0.0016592762 0.018736506 0.023551581 0.008209851 -0.02086365 -0.014516223 -0.013692345 0.025218392
-0.017874504 -0.014832425 0.0064851 -0.003942681 0.007871319 -0.021543862 -0.011761214 0.008654512
-0.002683785 -0.0004823498 -0.012500279 0.012749551 -0.022445181 0.008077653 0.0028817507 -0.0067512514
0.017249487 -0.004279725 -0.00010249736 -0.021941226 -0.01770154 0.026506336 -0.00077454647 -0.0046221362
0.029439507 -0.01721931 0.004129986 -0.018953992 0.0078131445 -0.0237806 -0.0010991318 -0.009075975
-0.0032090105 0.0050532892 -0.0042455946 0.018316455 -0.0073119616 0.0008970566 -0.0069973245 0.005034871
-0.0031583665 0.0061063753 0.004499202 -0.0026413363 0.0029515072 0.0049386374 0.012281057 -0.008132244
0.011351484 -0.00353208 0.032343954 -0.007175524 -0.034646835 -0.014076537 -0.011219776 -0.010405888
-0.008706739 -0.009185161 -0.008534168 -0.0030288256 -0.009165087 0.006408303 0.010797097 -0.0055363216
-0.007658696 0.014304985 0.019847114 0.024479149 -0.011719529 -0.0013115362 -0.0094243605 -0.00029377503
-0.006874427 0.005527914 -0.0050067273 -0.0077320244 0.010667532 -0.018382484 -0.012579293 0.020098943
0.0012539056 0.015017052 0.010733975 -0.0021249966 0.0032421804 0.0109985005 0.0009455748 -0.019728467
0.01366986 0.0051043187 0.009635294 0.009807555 0.00913189 -0.012846674 -0.020317515 0.010269858
-0.010854362 -0.006729241 -0.001891159 -0.002207911 0.012651027 0.0036138573 0.007159378 0.020019872
-0.010628023 7.291367e-05 0.0025195186 0.009549162 -0.001904326 0.017895054 0.02604474 -0.006686701
-0.009907982 -0.0015182527 0.00011201323 0.019260822 -0.005240137 -0.011727197 -0.015033834 -0.013559136
0.014198669 0.024302151 -0.010563357 0.005105289 0.019892631 0.007820664 0.00026745454 0.007321695
-0.022531848 -0.018253352 0.010235505 0.0030142325 0.0019769869 -0.011208496 0.026182203 -0.0022577737
-0.027802462 0.013056967 -0.024229312 0.014090536 0.0056627747 -0.007428881 -0.015765378 0.021735651
-0.024211293 -0.0068186587 -0.0075597577 -0.013194271 0.017134374 0.0041626175 -0.00082933175 -0.021038527
0.009523734 -0.01943277 -0.007624787 -0.0020042895 0.008489317 -0.005599243 -0.007455918 0.019425012
0.008663878 0.00024458455 0.011531342 0.0058004353 -0.00803645 -0.0060080024 0.008178451 0.010647872
-0.0049273535 -0.024386885 0.0048220214 0.018749945 -0.008967189 -0.012825943 0.0022307755 -0.0023036497

action_model._continuous_distribution.mu.bias f4 [3]
00000000: 808a d9ba b1eb 89ba 336e 57ba
-0.0016597062 -0.0010522512 -0.000821802

action_model._discrete_distribution.branches.0.weight f4 [7, 256]
00000000: 778b 4ebc b63f 953b d3dc 02bc 3244 82ba
00000010: 2c1c d13b f5f3 cb3b 3971 88ba f2ae 0b3c
00000020: 5fef 6d3b a912 ccbb 847c 483a 3404 423b
00000030: 8512 8a3b 7885 8eba 2b27 68bb 1db6 9c3b
00000040: 14d9 46b8 6ff7 a7bb d016 2dbc 8b27 733b
00000050: 6d9f 193b 9093 cebb a967 983b ba00 293c
00000060: 1274 743b 49da a3ba f880 a1ba 4918 8d3b
00000070: 42b0 a3b9 ab44 e5b9 9c34 cf3b 7acc 07bc
00000080: 79e3 32bc 21a4 e63a 97aa 913b e524 1cbc
00000090: 1ad0 f7b9 de4d 54ba 17be b3bb ea8b f3ba
000000a0: 88f9 a2bb 63d7 613c 4eb7 9839 f85c ee3b
000000b0: 202a 0db9 7f4d 9339 14b4 353c 6fb4 01bb
000000c0: 071d 793b 2ab6 45bb 6c9c 803b 30cf f13b
000000d0: dabb e13b c75e fc3b ead6 4dbc 81f8 373c
000000e0: 82ab 9b3a 57c0 9abc a9da a5bb 5bdc fcbb
000000f0: 3d49 d13b ea40 263a 7e49 3fbc 708d ca3b
00000100: 9fc8 2f3c b695 24ba 52b4 b13b c995 e8bb
00000110: 61ca a5bb 9985 33bc ccdf f439 d221 9aba
00000120: c2e3 80bb 3120 33bb f0a1 6a3b 4987 46bb
00000130: 3b55 17bc 39d5 803b d741 823c 0899 4e3b
00000140: 593d dc3b 896c 9eba d05e c5bb 7e38 173c
00000150: 9c30 d2bb d6aa 533b efe3 4c3c 6829 643c
00000160: cab8 cb3b 181e 29bc f224 cb3b 64c5 42bc
00000170: e62e 21bc 6b01 e4ba 4a6b 7d3b 6e27 1bbc
00000180: 2805 6abc 7583 243c 80fb 84bb e0ca a33a
00000190: 139a a2bb e7bf d1bb e84e 363c 3d2a 6d3b
000001a0: aa2a c9bb d56c 6f3b 12f8 d1bb cef3 833b
000001b0: 3981 063c 9541 b7ba eb9e 033b 1579 5e3a
000001c0: 041d 93bb 5907 8d3a 4e25 2c3c 2aaf 15bb
000001d0: 5dee 043c b12b 803b 06e3 85b9 2708 773a
000001e0: 3563 8bbb 97c8 fdba 3280 b33b 93f3 68bc
000001f0: ef08 28bb a187 663a bed4 53bb 7577 d9bb
00000200: b855 2bbc bd57 6abb f43e b73b 16ce 5d3b
00000210: a172 a03b f41e f63b 84b0 bcba 4178 14bc
00000220: af2a b3ba ddd5 c2bb 0064 68b4 2151 46bb
00000230: cd34 de3a 3aa4 0fbc eada fcba 1ec0 28bc
00000240: e2fc f3bb dc09 3c3c 7818 acbb cb91 323b
00000250: f3de 623b 4197 8e3c 4cce 47bb 14d6 4cbc
00000260: e7cf 793b 9868 66ba 2a01 bc3b 112f 073c
00000270: 0520 803a da49 363b e050 caba 7db0 8b3c
00000280: add6 63bb 6b3a 713c e2a4 c33b 9369 cf3b
00000290: 9d04 cf3a d317 983b 3c95 693c 01bb 9abb
000002a0: f815 9abb 1dd5 98bb 3051 77bb c5df ed3b
000002b0: 8b16 8f3b 8559 bebb 37c6 3aba e42e eaba
000002c0: 09a4 5ebc c42f 91bb 2ee6 adbb 5668 4f3b
000002d0: abce 1abc 8cde e0ba 9cb8 e3bb aaf6 08ba
000002e0: fac5 3d3c ccaf 8d3a 926e fdba efce 5dbb
000002f0: fe86 4aba fa70 4abb a320 0abc 0bf2 893a
00000300: cd5f 51bc 46a0 173c b933 733b f15b a8bc
00000310: 0a40 763b ea6d d73b c2f5 9bbb d6b9 d63a
00000320: 90f5 4bb8 1969 8ab9 461e 9e3c 4483 453c
00000330: 1bf7 aaba 7235 43bc 353b 24bc f6d1 77bb
00000340: 8b10 bd3b c02a d5bb f99e ba3b 387f 243c
00000350: 2d99 f53b 6386 2cbb d2e6 3cbb 81be 323b
00000360: b6cf ab3b bce3 4d3b e9d0 f0bb 9a96 8a3a
00000370: 2757 febb d539 423c b603 343b f70f 11ba
00000380: 57ee 8bbc 094c a33b 0c95 183a 02d1 ecba
00000390: 6870 dfba df9d 95bb 5ed3 39bc 0206 f8bb
000003a0: cd3c cebb b975 0639 478d 89bb 06ad 7dbc
000003b0: e602 4dbc 9cf3 f8bb 0c4e bc3b 663e ecbb
000003c0: 891f a73b 0751 bfba 7d6f 08bb 6815 9b3a
000003d0: 4b27 ca39 65f5 b43b 5e7b 193c 2ee4 f73b
000003e0: c0e8 f439 ca72 fb3b e90d 54bb 18ef 5f3c
000003f0: 9864 95bb 56dd a3bb d644 5c3b 6f95 5ebc
-0.012606493 0.004554714 -0.007987219 -0.0009938537 0.006381532 0.0062241503 -0.001040972 0.008525597
0.0036306006 -0.0062278104 0.0007647949 0.0029604556 0.0042136335 -0.0010873517 -0.0035423737 0.004782452
-4.740905e-05 -0.005125932 -0.010564521 0.0037102427 0.0023440972 -0.006304212 0.004651029 0.010315115
0.0037300629 -0.0012500967 -0.0012321761 0.0043058735 -0.00031221105 -0.00043729445 0.00632341 -0.008288497
-0.0109184915 0.0017596522 0.0044453847 -0.009530281 -0.0004726656 -0.00080987613 -0.005485307 -0.0018581126
-0.004973594 0.013784262 0.00029128272 0.0072742663 -0.000134625 0.00028095764 0.011090297 -0.0019791385
0.0038011686 -0.0030168393 0.003924897 0.007379435 0.0068888487 0.007701728 -0.012563447 0.011228682
0.0011876675 -0.018890543 -0.0050614667 -0.007716698 0.0063869045 0.00063420704 -0.011675237 0.0061814114
0.010728984 -0.0006278412 0.005423107 -0.007097934 -0.005059526 -0.010957145 0.00046706048 -0.0011759347
-0.003933401 -0.002733242 0.0035802089 -0.0030293039 -0.009236629 0.003931668 0.015900536 0.003152432
0.0067211804 -0.0012086789 -0.0060232654 0.009229777 -0.006414486 0.003229787 0.0125055155 0.013925888
0.006217097 -0.010322116 0.0061994726 -0.011887882 -0.009837842 -0.0017395442 0.0038668686 -0.00946985
-0.014283456 0.010041107 -0.0040583014 0.0012496375 -0.0049622147 -0.0064010504 0.011127211 0.0036188506
-0.006139119 0.0036533375 -0.006407746 0.0040268665 0.00820952 -0.0013981337 0.0020083736 0.00084866706
-0.004489543 0.0010759636 0.010506941 -0.0022840002 0.008113471 0.0039114584 -0.00025536882 0.0009423517
-0.0042537698 -0.0019362149 0.0054779286 -0.014218229 -0.002564009 0.0008794014 -0.003232285 -0.006636555
-0.010457449 -0.0035757862 0.0055922214 0.003384476 0.0048964773 0.007511014 -0.0014395867 -0.009061874
-0.0013669337 -0.0059459046 -2.1643064e-07 -0.003026076 0.0016952992 -0.008767182 -0.0019291316 -0.010299711
-0.0074459175 0.01147696 -0.0052519403 0.0027247544 0.0034617751 0.017406108 -0.0030487953 -0.012502212
0.0038118304 -0.00087893894 0.0057374435 0.008250968 0.0009775168 0.0027815015 -0.001543548 0.01705193
-0.0034765408 0.014723401 0.0059705833 0.006329724 0.0015794222 0.004641512 0.014256772 -0.0047219996
-0.004702326 -0.004664077 -0.00377376 0.0072593414 0.004366701 -0.0058090114 -0.0007124873 -0.0017866758
-0.013588914 -0.004430743 -0.0053069806 0.0031647882 -0.009448688 -0.0017156168 -0.0069494974 -0.0005224744
0.011582846 0.0010809838 -0.0019335321 -0.0033845266 -0.0007725804 -0.0030890093 -0.008430633 0.0010524405
-0.012779188 0.009254521 0.0037109687 -0.020551654 0.0037574791 0.006574382 -0.004759521 0.0016382288
-4.862767e-05 -0.00026399715 0.019301545 0.012055222 -0.0013043614 -0.011914598 -0.010023882 -0.0037814355
0.0057697943 -0.0065053403 0.0056952205 0.010040097 0.0074950666 -0.0026325218 -0.0028824103 0.0027274194
0.005243267 0.0031416258 -0.007349123 0.0010573447 -0.007761854 0.011854609 0.0027468032 -0.000553369
-0.017081423 0.0049834293 0.00058205496 -0.001806766 -0.001704705 -0.004565939 -0.011341898 -0.0075690756
-0.006293869 0.00012823091 -0.00419775 -0.0154831465 -0.012512898 -0.0075974 0.0057466086 -0.007209587
0.005100195 -0.0014596292 -0.0020818405 0.0011831941 0.00038557718 0.0055224174 0.009367792 0.007565043
0.0004671272 0.007673596 -0.0032356924 0.013667844 -0.004559111 -0.0050007505 0.0033610365 -0.013585432

action_model._discrete_distribution.branches.0.bias f4 [7]
00000000: 3f25 683b cddf 6abc 2a2c 2ebc 952a 7bbc
00000010: 16eb 66bc 848d 8f3c ef36 8c3c
0.003542259 -0.014335585 -0.010630647 -0.015329977 -0.014094135 0.017523535 0.017116038

onnx::Div_90 f4 [84]
00000000: cac7 823b f852 f73e 9616 fa3e f90c 843e
00000010: cac7 823b ee6f f83e 63c6 fa3e c112 853e
00000020: cac7 823b ba3f f63e ac27 f93e 0589 833e
00000030: cac7 823b 93f4 f93e 69f9 fb3e 9225 873e
00000040: cac7 823b da5b f53e b55d f83e 75d4 833e
00000050: cac7 823b 160a fb3e 3bf1 fc3e 73f8 893e
00000060: cac7 823b 7acb f43e 31dc f73e 0a9b 843e
00000070: cac7 823b 0312 fc3e 09ce fd3e 0fa4 8c3e
00000080: cac7 823b 7f83 f53e a475 f83e ba79 853e
00000090: cac7 823b 35dc fc3e 3f71 fe3e 2dca 8e3e
000000a0: cac7 823b 9716 f63e aec7 f83e 4c0d 873e
000000b0: cac7 823b 8ddf fd3e 7725 ff3e 67ad 903e
000000c0: cac7 823b a887 f73e 9634 fa3e 5ac9 883e
000000d0: cac7 823b f54c fe3e 0857 ff3e d1a2 923e
000000e0: cac7 823b 4e54 f83e 2716 fb3e f59e 8a3e
000000f0: cac7 823b fdbb fe3e b19f ff3e 8f70 943e
00000100: cac7 823b d4cf f93e b25f fc3e 0981 8c3e
00000110: cac7 823b 97da fe3e a9ef ff3e d4e8 9a3e
00000120: cac7 823b a04f fb3e e390 fd3e 3007 8e3e
00000130: cac7 823b 6a2a ff3e 3bfd ff3e 9084 9c3e
00000140: cac7 823b a726 fc3e 5e36 fe3e f1ad 8f3e
0.003991102 0.48305488 0.48845357 0.25791147 0.003991102 0.48522896 0.48979482 0.2599087
0.003991102 0.48095495 0.4866308 0.25690475 0.003991102 0.48819408 0.49213722 0.2639585
0.003991102 0.4792164 0.48508993 0.2574803 0.003991102 0.49031132 0.49402794 0.26947364
0.003991102 0.4781149 0.4841018 0.25899535 0.003991102 0.49232492 0.49571255 0.27468917
0.003991102 0.47951886 0.48527253 0.26069432 0.003991102 0.49386755 0.49695775 0.27888623
0.003991102 0.4806411 0.48589844 0.26377332 0.003991102 0.49584618 0.4983327 0.28257295
0.003991102 0.48345685 0.48868245 0.2671612 0.003991102 0.4966809 0.49871087 0.28639844
0.003991102 0.4850182 0.49040338 0.270744 0.003991102 0.497528 0.49926522 0.28992125
0.003991102 0.48791373 0.4929176 0.27442196 0.003991102 0.49776146 0.49987534 0.3025576
0.003991102 0.49084187 0.49524602 0.2773986 0.003991102 0.49837047 0.49997887 0.30569887
0.003991102 0.4924824 0.49650854 0.28062394

onnx::Div_96 f4 [37]
00000000: 8194 7141 063f 733d e1b9 7641 cac7 823b
00000010: b442 903e cac7 823b 5c29 ac41 4377 893b
00000020: 133c b041 cac7 823b 498e 8f3e cac7 823b
00000030: 9b21 623e 44cf 5b3e 42fb ea3e fc2e ed3e
00000040: cac7 823b 29fc ea3e cac7 823b c2e3 8b3f
00000050: cac7 823b 0048 a43f f3b4 343f 68d0 823b
00000060: bd37 353f 597b 913e 2a9b 833e 359b 833e
00000070: dddc 803e f7dc 803e 82f2 133e e65b 7c3f
00000080: 6f56 943e c41b 333f 063f 733d 54f9 4941
00000090: d2fa 933e
15.098756 0.059386276 15.420381 0.003991102 0.2817589 0.003991102 21.520195 0.0041951253
22.029333 0.003991102 0.28038242 0.003991102 0.22083132 0.21465784 0.4589482 0.4632491
0.003991102 0.45895508 0.003991102 1.0928881 0.003991102 1.2834473 0.70588607 0.003992129
0.70788175 0.2841442 0.25704318 0.2570435 0.25168505 0.25168583 0.14447978 0.98577726
0.28972194 0.6996424 0.059386276 12.623371 0.28902298
