results/test3/BoxingAgent.onnx (onnx, 392675 bytes, 13 tensors)

network_body.observation_encoder.processors.0.normalizer.running_mean f4 [68]
0.0 0.9334302 0.0016201187 0.4881879 0.0 0.9445533 0.0011365009 0.47837996
0.0 0.9142546 0.0037963977 0.4982405 0.0 0.9308671 0.0012815864 0.4584586
0.0 0.89418447 0.0044251005 0.50899863 0.0 0.9328739 0.00091887324 0.44663703
0.0 0.9052836 0.0032644179 0.5213844 0.0 0.95833635 0.00094305456 0.4519544
0.0 0.92944026 0.0019586505 0.53194106 0.0 0.953621 0.0013541288 0.45108512
0.0 0.93466324 0.0029500662 0.5275564 0.0 0.9432475 0.0016442991 0.46015185
0.0 0.93384117 0.0030226093 0.5157082 0.0 0.9345908 0.0014266716 0.47626713
0.0 0.9334302 0.002635715 0.5017044 0.0 0.9360656 0.003022609 0.49036464
0.0 0.9360656 0.003022609 0.49036464
00000000: 0000 0000 48f5 6e3f 2a5a d43a c4f3 f93e
00000010: 0000 0000 3fce 713f a4f6 943a 38ee f43e
00000020: 0000 0000 970c 6a3f fccc 783b 6119 ff3e
00000030: 0000 0000 4e4d 6e3f e7fa a73a 16bb ea3e
00000040: 0000 0000 46e9 643f 6f00 913b bc4d 023f
00000050: 0000 0000 d3d0 6e3f 8ae0 703a 9cad e43e
00000060: 0000 0000 aac0 673f d8ef 553b 7379 053f
00000070: 0000 0000 8855 753f 5237 773a 9166 e73e
00000080: 0000 0000 ccef 6d3f b45c 003b 4a2d 083f
00000090: 0000 0000 8120 743f 067d b13a a1f4 e63e
000000a0: 0000 0000 1746 6f3f e655 413b f00d 073f
000000b0: 0000 0000 ab78 713f 8685 d73a 0699 eb3e
000000c0: 0000 0000 3710 6f3f f816 463b 7405 043f
000000d0: 0000 0000 5841 6f3f 28ff ba3a 49d9 f33e
000000e0: 0000 0000 48f5 6e3f f6bb 2c3b b36f 003f
000000f0: 0000 0000 ffa1 6f3f f716 463b 1311 fb3e
00000100: 0000 0000 ffa1 6f3f f716 463b 1311 fb3e

network_body.observation_encoder.processors.2.normalizer.running_mean f4 [37]
0.30745128 14.844118 -14.211753 1.571427e-08 0.50139433 5.141195e-09 0.51159316 -0.00016346446
-0.43660593 2.0697748e-08 0.49314973 -5.2788947e-09 0.9413457 0.96681434 0.22691335 0.21871597
0.440648 0.77306235 0.59744483 0.0040013166 0.0 0.012198755 0.043560397 -1.8185085e-05
-0.011400968 0.49022603 0.49217477 0.5078012 0.49443763 0.5055382 0.038595855 0.32075962
0.5431468 -0.013885829 -0.0010128432 13.047792 0.50448626
00000000: 416a 9d3e 8281 6d41 5763 63c1 0cfc 8632
00000010: 615b 003f 6ea6 b031 c5f7 023f a867 2bb9
00000020: d08a dfbe d4ca b132 1f7e fc3e a661 b5b1
00000030: 08fc 703f 2581 773f f95b 683e 14f7 5f3e
00000040: 9d9c e13e 6ae7 453f 25f2 183f 7a1d 833b
00000050: 0000 0000 49dd 473c 636c 323d 2c8c 98b7
00000060: 20cb 3abc e8fe fa3e 55fe fb3e 42ff 013f
00000070: ee26 fd3e f46a 013f b016 1e3d 9b3a a43e
00000080: ab0b 0b3f 6381 63bc 61c1 84ba c2c3 5041
00000090: 0326 013f

network_body._body_endoder.seq_layers.0.weight f4 [256, 105]
0.18945324 0.0616679 0.028390976 -0.098140284 -0.070049554 -0.042426057 0.13145497 -0.025267063
-0.077321455 0.11996712 -0.058849055 0.08959989 0.07161064 0.059456933 -0.0052078883 -0.18105209
0.023612743 -0.13514248 0.072865024 -0.032358974 -0.17175013 -0.1297962 0.07523702 0.07656793
-0.16490425 -0.009870244 -0.03419461 0.008132171 -0.1076684 0.18199356 0.022875397 0.08326414
0.113461696 0.0714466 0.12954465 0.09997728 -0.032078855 0.09036485 0.15756679 0.12692642
-0.13234618 0.20151362 0.059492026 -0.009328541 0.15515205 -0.06591164 0.08537825 0.017543605
-0.17757292 0.03064821 -0.06614198 0.042452894 -0.08921815 -0.12231398 -0.097869314 0.037879135
-0.048611432 0.010260062 -0.09540705 0.2266543 0.030270508 -0.083930075 0.086979106 0.027129425
0.073445685 0.02057286 -0.071987465 -0.0147519205 -0.14490142 -0.017602371 0.008716954 -0.07865461
0.01789339 0.10820668 -0.017792014 0.06473814 -0.00022785421 -0.024858626 -0.083267525 0.09020739
0.06107674 -0.07292253 0.037930902 -0.017398259 -0.08496965 0.16908924 0.038331836 -0.019905597
0.20542856 -0.0053943894 -0.023700232 -0.048842743 -0.0014473383 -0.19456476 -0.008016013 0.12750253
-0.08596057 0.12194687 0.082260035 0.07660237 -0.011243889 0.008824147 0.051150132 -0.09434755
0.00860553 -0.039951127 -0.031959742 0.04015514 0.04433472 -0.006024177 0.013305661 -0.07376261
0.0006588495 0.19185328 0.011950344 0.0048617045 0.052548643 0.16599013 0.26174974 0.01514499
0.010388053 0.003177084 0.002329488 -0.003261368 -0.2949541 -0.008741558 0.14957348 -0.0554934
0.012954983 -0.094882496 0.08654089 0.0034805315 -0.054675445 -0.1423211 -0.054187085 0.19110246
0.079750374 -0.1054466 0.07059824 0.13818161 -0.18072063 0.01782522 -0.07619647 0.10036134
-0.10726109 -0.12837799 -0.092610046 0.05536454 -0.012064885 0.3015446 0.026632108 0.17248781
-0.08726947 -0.0038919924 -0.011010948 -0.042085942 -0.13045692 -0.062360484 0.0070703556 -0.07866297
0.00438021 -0.111202404 0.02750131 -0.20528315 0.02315711 -0.15568028 0.20515624 0.017291646
0.013212024 0.2024413 -0.020217422 0.027232006 0.12361712 -0.09778067 -0.01822317 -0.009164901
-0.035235528 0.13457172 0.07291048 -0.09604904 -0.033857506 -0.01487828 0.05652552 -0.021851182
0.00038825348 0.11346361 -0.15180023 0.081609175 0.0623547 -0.19885269 -0.025608527 -0.033935767
0.108573735 -0.068971574 -0.019413758 0.05481799 -0.08099336 -0.046084955 0.0011460757 0.04876903
-0.11371711 0.08877722 0.017872011 -0.04897197 -0.07326212 0.117914476 0.23891492 0.07664044
-0.0373976 -0.071855344 0.0009779742 -0.15476573 -0.041026004 0.009191545 0.010752233 -0.09320665
-0.10846539 -0.08666585 -0.11200401 0.16832569 0.0034994448 0.088866696 -0.16216837 -0.09207279
0.11240481 -0.08773841 0.18567221 -0.081862986 -0.08452235 0.06775075 0.15218264 -0.18289001
0.16916235 0.1081349 0.018716902 -0.12862235 -0.08100834 0.02951267 -0.07171491 -0.10641832
-0.06220599 0.13151516 -0.02606616 0.07634914 0.011583741 0.053066734 -0.0224225 -0.010286437
0.014741818 -0.022538792 -0.08094428 0.09037616 -0.009141254 0.061345913 -0.0686618 -0.11497275
00000000: 0800 423e 7b97 7c3d 3194 e83c c6fd c8bd
00000010: 2476 8fbd f2c6 2dbd 229c 063e dffc cebc
00000020: b65a 9ebd 52b1 f53d b50b 71bd 2680 b73d
00000030: 99a8 923d 1d89 733d efa6 aabb b865 39be
00000040: 836f c13c ca62 0abe 423a 953d d88a 04bd
00000050: 44df 2fbe 4ce9 04be de15 9a3d a6cf 9c3d
00000060: a9dc 28be ceb6 21bc a60f 0cbd cc3c 053c
00000070: 4081 dcbd 855c 3a3e 2f65 bb3c 6486 aa3d
00000080: 9b5e e83d 9852 923d 5aa7 043e e3c0 cc3d
00000090: 1e65 03bd 3511 b93d 3059 213e 00f9 013e
000000a0: c285 07be 9659 4e3e e9ad 733d bdd6 18bc
000000b0: 2ee0 1e3e affc 86bd cbda ae3d 9bb7 8f3c
000000c0: add5 35be f411 fb3c 7275 87bd 16e3 2d3d
000000d0: 01b8 b6bd c07f fabd b56f c8bd 2727 1b3d
000000e0: c81c 47bd d219 283c c564 c3bd 1118 683e
000000f0: dbf9 f73c 88e3 abbd 1a22 b23d 873e de3c
00000100: b16a 963d 6a88 a83c 2a6e 93bd 0ab2 71bc
00000110: 0a61 14be d932 90bc 8ed1 0e3c ab15 a1bd
00000120: 2995 923c 779b dd3d 8fc0 91bc 6e95 843d
00000130: 26ec 6eb9 51a4 cbbc 2a88 aabd a7be b83d
00000140: 9b2b 7a3d 6858 95bd 6f5d 1b3d cb86 8ebc
00000150: 9104 aebd bb25 2d3e d801 1d3d 1011 a3bc
00000160: dd5b 523e 6bc3 b0bb fd26 c2bc 540f 48bd
00000170: 9db4 bdba fc3b 47be 9855 03bc 0690 023e
00000180: 180c b0bd 48bf f93d f377 a83d b4e1 9c3d
00000190: 4a38 38bc 2893 103c cd82 513d 4a39 c1bd
000001a0: 35fe 0c3c cba3 23bd 38e8 02bd b779 243d
000001b0: 5398 353d 7666 c5bb fdff 593c da10 97bd
000001c0: a4b6 2c3a 3075 443e 60cb 433c ef4e 9f3b
000001d0: 3f3d 573d 51f9 293e 1004 863e b122 783c
000001e0: a732 2a3c a036 503b 53aa 183b adbc 55bb
000001f0: 3904 97be c038 0fbc ca29 193e 0c4d 63bd
00000200: 2341 543c c151 c2bd 5a3c b13d a119 643b
00000210: 5cf3 5fbd 9fbc 11be 47f3 5dbd 5db0 433e
00000220: 2a54 a33d 63f4 d7bd cf95 903d 7b7f 0d3e
00000230: d40e 39be 3206 923c e50c 9cbd 3f8a cd3d
00000240: b4ab dbbd 8575 03be 56aa bdbd eec5 623d
00000250: ccab 45bc 0e64 9a3e 942b da3c a5a0 303e
00000260: 56ba b2bd cc10 7fbb 4367 34bc 4f62 2cbd
00000270: 8096 05be b56d 7fbd 71ae e73b 0d1a a1bd
00000280: dd87 8f3b 16be e3bd 6d4a e13c bf35 52be
00000290: fbb3 bd3c a76a 1fbe 7a14 523e 36a7 8d3c
000002a0: 3f77 583c c64c 4f3e 029f a5bc a815 df3c
000002b0: f92a fd3d 3b41 c8bd c248 95bc 6228 16bc
000002c0: 2153 10bd 2bcd 093e 1752 953d 5cb5 c4bd
000002d0: 2bae 0abd 08c4 73bc 4e87 673d 4001 b3bc
000002e0: 808e cb39 9c5f e83d 8571 1bbe b622 a73d
000002f0: a467 7f3d 0aa0 4bbe f9c8 d1bc 3b00 0bbd
00000300: e85b de3d f840 8dbd 9a09 9fbc d488 603d
00000310: d9df a5bd 94c3 3cbd eb37 963a 09c2 473d
00000320: 84e4 e8bd d5d0 b53d 5368 923c d596 48bd
00000330: 730a 96bd 257d f13d 1da6 743e aaf5 9c3d
00000340: 3a2e 19bd e528 93bd 5e2f 803a e87a 1ebe
00000350: e20a 28bd 2298 163c 222a 303c 21e3 bebd
00000360: 1a23 debd dd7d b1bd 5c62 e5bd 925d 2c3e
00000370: f156 653b beff b53d 770f 26be a990 bcbd
00000380: 7e34 e63d 32b0 b3bd db20 3e3e c8a7 a7bd
00000390: 0e1a adbd e8c0 8a3d c4d5 1b3e 8547 3bbe
000003a0: e538 2d3e d575 dd3d 3054 993c 94b5 03be
000003b0: b3e7 a5bd 8ec4 f13c 44df 92bd d9f1 d9bd
000003c0: b5cb 7ebd e9ab 063e b388 d5bc f05c 9c3d
000003d0: bbc9 3d3c 815c 593d 64af b7bc 7288 28bc
000003e0: ab87 713c 46a3 b8bc 1dc6 a5bd 2317 b93d
000003f0: 33c5 15bc da45 7b3d 8f9e 8cbd d576 ebbd

network_body._body_endoder.seq_layers.0.bias f4 [256]
0.0019931807 0.0116272215 -0.0007316298 0.0046832035 -0.0004093432 0.012162754 -0.0013646453 0.012134592
-0.006337171 0.0054124556 0.0011803029 0.004391822 0.0014969371 0.010203395 -0.00023071335 -0.00038321
-0.00048029269 0.0020370495 0.009616047 0.00056671025 0.013932468 0.0046630297 0.0012641409 -0.00044801526
-0.00029076444 -0.0015788235 0.0056991004 -0.0030954832 0.0037494295 0.0007757901 0.0077327373 -0.00080012775
-0.0007677819 0.0034877434 0.00739446 -0.010199197 0.0016356135 0.0041479934 -0.0003229244 -0.00093985593
0.009754706 -0.00081266597 0.0075478884 0.0050732084 0.007052081 0.0069797244 0.010322827 0.003237506
0.008787183 0.0076969527 0.007894069 0.012738946 0.0066817775 0.003045623 0.0058929184 -0.0027274417
0.0014873178 -0.004559312 0.0055099735 -0.0004805358 0.006342131 0.009445108 -0.0023348646 0.00080577633
0.0110408515 -0.004666057 0.014388052 0.006101396 0.009636751 -0.0033835105 0.008146297 0.0018600004
0.009798451 -0.0017684114 0.0017560531 -0.0013625651 -0.000766027 0.00040710508 -0.0036898386 -0.007819548
-0.00048223382 0.0024538476 0.009651471 -0.0011426012 -0.0030056133 0.0052653584 0.010473254 -0.00049025024
0.0023465464 0.011219231 0.012172081 -0.001788746 0.0040856674 0.007540161 0.0071707196 0.0006675576
-0.0030861022 -0.0014544874 0.007678613 0.00096094486 0.008358773 -0.0016392982 0.003725768 -0.0066041723
0.004672194 0.0021125183 -0.005212753 0.004080491 0.005929322 0.015673274 0.0039054295 0.004924579
0.0073676286 0.0028763753 0.0020510224 -0.003467141 0.0038734418 0.0068115476 0.00083636836 0.0056065526
0.0003376669 0.00050303555 0.0048976634 0.011867389 0.003467061 0.0019860906 0.0053816056 0.0042133573
0.004741096 0.00033492307 0.0014371878 0.006361446 0.0032245473 0.011314112 0.007517019 0.009291236
0.0076585724 -0.0009930717 0.0030998292 0.0036732063 0.0072464906 0.0006429072 0.0029975737 0.010130754
0.004945241 0.004216666 0.015507797 0.0064405184 0.01033059 -0.0010279596 0.0030948478 0.0018548516
0.0030519264 0.0040146452 0.0070702275 -0.010097245 -0.005996105 -0.003478197 -0.002484495 0.008938833
0.0084903035 0.0075680763 0.000436243 -0.0027083163 0.0040252237 -0.0066344356 0.00499584 -0.0022436597
-4.0302417e-05 0.0045889732 0.0057060234 -0.0024735553 0.0026847678 0.0122309495 0.006047236 0.006848733
0.008854025 -0.0038334732 0.0029824327 0.009806235 0.0004550281 0.001208134 -0.0053496403 0.004289407
-0.0019122856 -0.003202547 0.0033178802 0.0045224326 0.0021900192 0.0023004506 -0.003945906 0.0068459697
0.0006718909 0.0033845955 0.00083832815 0.0001010961 0.0066059143 -0.0048371996 0.012227364 0.004383071
0.0068149376 0.0024613352 -0.0015481598 -0.0022525874 0.009222312 0.011850521 0.0038429915 0.0025022698
0.0026940003 0.009106956 0.0015868688 -0.004102032 0.006136229 0.005005186 0.0033476371 0.011607762
-0.0073377783 0.0031283079 0.0016736179 -0.0032675213 -0.0017371692 0.0089314105 0.011330546 0.011714293
0.007229256 -0.0012399335 0.0009934134 -0.003921107 0.0026367183 0.006890987 0.0045709014 -0.00015384903
0.009849713 0.010635536 -0.0026988725 -0.015133519 0.0027804489 0.009656849 0.0048890905 0.014877749
-0.00046319258 -0.002494382 0.011846244 0.016192388 0.0054695085 -0.0038076937 -0.0029080084 0.0017486132
0.0026181615 0.0022317625 0.0022656955 0.0049176593 0.0013671682 -0.00030696 -0.0034126681 0.000665065
00000000: 06a0 023b 1a80 3e3c d8ca 3fba 8f75 993b
00000010: 1d9d d6b9 4a46 473c e6dd b2ba 2bd0 463c
00000020: 0ba8 cfbb f85a b13b 65b4 9a3a 46e9 8f3b
00000030: e034 c43a 242c 273c a5eb 71b9 93e9 c8b9
00000040: cbcf fbb9 0580 053b a08c 1d3c 488f 143a
00000050: 0245 643c 54cc 983b 88b1 a53a 97e3 eab9
00000060: be71 98b9 87f0 ceba 85bf ba3b 97dd 4abb
00000070: fdb8 753b 645e 4b3a e762 fd3b aabf 51ba
00000080: f944 49ba a092 643b 3a4d f23b 881a 27bc
00000090: 1562 d63a e4eb 873b 2e4e a9b9 aa60 76ba
000000a0: 34d2 1f3c 1709 55ba 4754 f73b 283d a63b
000000b0: 2515 e73b 2cb6 e43b 1321 293c 562c 543b
000000c0: 1ef8 0f3c b836 fc3b 2056 013c 03b7 503c
000000d0: d0f2 da3b 1399 473b 6219 c13b e1be 32bb
000000e0: 1bf2 c23a 4866 95bb 028d b43b 6cf0 fbb9
000000f0: a7d1 cf3b a7bf 1a3c 8704 19bb bc3a 533a
00000100: b0e4 343c b9e5 98bb ddbb 6b3c 38ee c73b
00000110: 77e3 1d3c e3bd 5dbb 0c78 053c 42cb f33a
00000120: af89 203c 0aca e7ba 5d2b e63a 1998 b2ba
00000130: 34cf 48ba b870 d539 38d1 71bb 901d 00bc
00000140: 54d4 fcb9 bbd0 203b 3421 1e3c 56c3 95ba
00000150: d3f9 44bb 0789 ac3b 0398 2b3c 2384 00ba
00000160: 84c8 193b ded0 373c 686d 473c 5b74 eaba
00000170: 10e1 853b 7413 f73b 5bf8 ea3b 08ff 2e3a
00000180: 3440 4abb 80a4 beba e09c fb3b ebe7 7b3a
00000190: 3cf3 083c b8dd d6ba 042c 743b d067 d8bb
000001a0: 3419 993b 2d72 0a3b becf aabb a4b5 853b
000001b0: c24a c23b 3d65 803c 3cf2 7f3b 5d5e a13b
000001c0: 266c f13b 9281 3c3b 726a 063b f938 63bb
000001d0: 92d9 7d3b 6733 df3b bb3f 5b3a 2cb7 b73b
000001e0: e208 b139 25de 033a 947c a03b 706f 423c
000001f0: a237 633b 1229 023b 2e58 b03b 3410 8a3b
00000200: 325b 9b3b 9d98 af39 0560 bc3a ad73 d03b
00000210: ed52 533b d35e 393c 5351 f63b 453a 183c
00000220: c3f4 fa3b f529 82ba 8126 4b3b 2dba 703b
00000230: f873 ed3b c688 283a f172 443b 76fb 253c
00000240: b00b a23b f52b 8a3b 6a14 7e3c fc0a d33b
00000250: a341 293c 9abc 86ba eed2 4a3b 7e1e f33a
00000260: d402 483b 498d 833b 5ead e73b ea6e 25bc
00000270: f97a c4bb 76f2 63bb e9d2 22bb 2f74 123c
00000280: ea1a 0b3c a0fd f73b 8bb7 e439 027e 31bb
00000290: 06e6 833b ae65 d9bb 25b4 a33b 5d0a 13bb
000002a0: 640a 29b8 195f 963b 98f9 ba3b 5f1b 22bb
000002b0: eef2 2f3b 5264 483c e427 c63b 566b e03b
000002c0: 7910 113c 023b 7bbb eb74 433b 55aa 203c
000002d0: d690 ee39 405a 9e3a 094c afbb 278e 8c3b
000002e0: a8a5 faba d3e1 51bb cb70 593b ea30 943b
000002f0: 6d86 0f3b 28c3 163b a94c 81bb 2854 e03b
00000300: d621 303a 17d0 5d3b 40c3 5b3a 8e03 d438
00000310: 6d76 d83b 5f81 9ebb 4855 483c dd9f 8f3b
00000320: d74f df3b 5a4e 213b 9feb caba 25a0 13bb
00000330: 2e19 173c b028 423c b3da 7b3b 1ffd 233b
00000340: d38d 303b 5835 153c 7bfe cf3a 576a 86bb
00000350: 6b12 c93b 8b02 a43b 0864 5b3b 7c2e 3e3c
00000360: bf71 f0bb 4c04 4d3b 4c5d db3a e923 56bb
00000370: bab1 e3ba 0d55 123c c1a3 393c 4eed 3f3c
00000380: 65e3 ec3b 4485 a2ba 6c35 823a a17c 80bb
00000390: cbcc 2c3b cacd e13b 80c7 953b 8952 21b9
000003a0: b160 213c ac40 2e3c 91df 30bb 94f2 77bc
000003b0: 3138 363b c337 1e3c aa34 a03b cdc1 733c
000003c0: a8d8 f2b9 c978 23bb c016 423c e6a5 843c
000003d0: 9039 b33b 808a 79bb 4994 3ebb b931 e53a
000003e0: 7695 2b3b c342 123b 107c 143b 5124 a13b
000003f0: 8d32 b33a 79ef a0b9 12a7 5fbb c257 2e3a

network_body._body_endoder.seq_layers.2.weight f4 [256, 256]
0.09394889 -0.1521348 0.022402808 0.005912085 -0.017804487 0.02227513 -0.2035688 -0.01846893
0.041864716 0.07346183 0.056677006 -0.008028377 0.0669942 0.042656373 -0.15459839 0.050986066
-0.034279905 0.09561551 -0.009604484 -0.018904218 0.09763208 0.036750183 0.034108013 -0.052404504
0.018130437 0.08160315 -0.16556868 0.028655306 -0.0991578 -0.007068682 -0.012392803 -0.11673509
-0.05485797 -0.049977653 -0.0901617 -0.10251734 0.024719756 0.049407393 -0.0019127706 -0.010473985
-0.085549675 0.015335276 0.05007604 0.075308755 0.0158733 -0.09222224 0.021121638 0.02510012
0.012215446 0.07544577 -0.117020555 -0.0005856688 0.07392359 0.024446348 0.09256636 -0.04442119
0.008189887 -0.008607961 -0.089167 -0.04682087 -0.0483258 -0.016521277 -0.0654698 0.12706274
0.085700184 0.14390135 0.0051712315 0.08540165 0.10598149 -0.020865573 0.004247676 -0.043852273
-0.049523517 0.02843218 0.050846867 -0.0058650086 -0.007868878 0.0010251718 -0.0025969613 -0.04451274
-0.03643294 -0.030625008 0.005602404 -0.03375527 -0.1583698 -0.034667525 -0.08326017 -0.03437768
0.1075933 0.06347238 0.07652441 0.06264007 -0.0114021525 -0.06439312 0.14586455 0.021753222
-0.06555813 -0.09657916 -0.11398764 -0.022935087 0.06127202 -0.07545165 0.008149745 -0.006898037
-0.060431622 -0.06743371 0.060985416 0.040703908 -0.006643269 0.023893554 0.09741447 -0.0090324
-0.0005267393 0.06365296 0.0002628846 -0.035240274 -0.11235959 -0.053166248 -0.08432607 0.05985399
0.016224002 -0.047140084 -0.076004796 -0.07179893 0.06558065 -0.0335948 -0.053655196 -0.06415626
-0.082605734 0.08826784 -0.054959077 -0.0053143054 -0.054778542 -0.06395928 0.077025294 0.03175859
-0.027408952 0.034925755 0.030603671 0.054895498 -0.04129417 -0.020967806 -0.01323672 0.029223045
-0.06976928 0.025880566 0.032106526 -0.0152874 -0.08408027 0.03496275 -0.0122263385 -0.028548079
-0.026445094 0.046464864 0.05411258 -0.026469655 0.09940267 -0.070276365 -0.03649089 0.10105336
0.049673975 0.124869704 0.029651128 0.038462434 -0.020691339 0.04652686 -0.00056942133 0.010291764
0.0019398774 -0.07325826 0.04443928 0.07965013 -0.08058262 -0.0066507375 0.056130886 0.06967107
0.03866355 0.011376932 -0.16033565 0.09671524 0.03256372 -0.03261239 0.04298719 -0.073625915
0.07481207 0.055568215 0.11096805 -0.045525897 -0.069493294 -0.06375387 0.027058018 -0.009933419
-0.09355433 -0.012247137 0.022416765 0.01422723 0.114621095 0.057237033 -0.041186094 0.057605132
0.018181046 0.03909309 -0.06634126 -0.11093789 -0.018436085 -0.030101988 -0.021635564 0.028269505
0.06590852 -0.017587978 0.043629088 -0.11035134 0.081423104 0.033445165 -0.06689681 -0.016490513
0.019621048 -0.060312424 0.016170437 -0.023972522 0.0027516664 0.10880139 0.05425018 0.003204087
-0.030213678 0.035338487 -0.018640619 -0.017059773 0.014859257 -0.04292239 -0.06992165 0.038465526
0.01215926 0.09173553 0.0935439 -0.043391325 -0.058901276 -0.038420495 0.085195184 0.13805972
0.010687748 0.041750584 0.040917773 -0.028265681 -0.059397332 -0.110335544 0.06456116 -0.0095825475
-0.049525738 0.0034552554 0.017846161 0.00015774064 0.0015441851 0.033693206 0.11171229 0.049699076
00000000: 4768 c03d 3ac9 1bbe 1886 b73c 2aba c13b
00000010: b7da 91bc 557a b63c 5774 50be 274c 97bc
00000020: 567a 2b3d 2873 963d 2626 683d 7489 03bc
00000030: 4134 893d 73b8 2e3d 0a4f 1ebe c4d6 503d
00000040: 1669 0cbd 11d2 c33d 205c 1dbc 05dd 9abc
00000050: 54f3 c73d 5c87 163d d8b4 0b3d 1ba6 56bd
00000060: 4886 943c 8d1f a73d d68a 29be 88be ea3c
00000070: 3f13 cbbd 67a0 e7bb 2f0b 4bbc cf12 efbd
00000080: c0b2 60bd 5eb5 4cbd b3a6 b8bd 9cf4 d1bd
00000090: 1681 ca3c 685f 4a3d eeb5 faba 149b 2bbc
000000a0: ab34 afbd cf40 7b3c 891c 4d3d 7a3b 9a3d
000000b0: b908 823c 04df bcbd 4907 ad3c c49e cd3c
000000c0: 4b23 483c 5083 9a3d 79a8 efbd 9187 19ba
000000d0: 4065 973d b543 c83c 6f93 bd3d fef2 35bd
000000e0: e02e 063c 6808 0dbc 309d b6bd 3ec7 3fbd
000000f0: 46f1 45bd a157 87bc 0815 86bd bc1c 023e
00000100: 9483 af3d e05a 133e 6f73 a93b 0fe7 ae3d
00000110: d30c d93d 47ee aabc 1730 8b3b 719e 33bd
00000120: 2cd9 4abd 9aea e83c ce44 503d 422f c0bb
00000130: 77ec 00bc 0f5f 863a c831 2abb fe52 36bd
00000140: b53a 15bd 4ce1 fabc 5f94 b73b f742 0abd
00000150: b12b 22be 89ff 0dbd 4f84 aabd 9ccf 0cbd
00000160: e059 dc3d cffd 813d d4b8 9c3d 7049 803d
00000170: 18d0 3abc 8ae0 83bd 845d 153e d033 b23c
00000180: 5743 86bd 4bcb c5bd 5a72 e9bd 5de2 bbbc
00000190: 5ff8 7a3d 6586 9abd 8286 053c ee08 e2bb
000001a0: 2687 77bd af1a 8abd d8cb 793d 24b9 263d
000001b0: c8af d9bb 6abc c33c 3d81 c73d a2fc 13bc
000001c0: e014 0aba 7c5c 823d c6d3 8939 1b58 10bd
000001d0: c91c e6bd dac4 59bd 26b3 acbd 7529 753d
000001e0: 33e8 843c f615 41bd 67a8 9bbd 510b 93bd
000001f0: 264f 863d b39a 09bd 8dc5 5bbd 5b64 83bd
00000200: 322d a9bd c5c5 b43d c51c 61bd a023 aebb
00000210: 775f 60bd 15fd 82bd 70bf 9d3d 4c15 023d
00000220: bd88 e0bc 4f0e 0f3d 8db4 fa3c 1ada 603d
00000230: 1324 29bd adc4 abbc d4de 58bc 2b65 ef3c
00000240: 32e3 8ebd 7b03 d43c 2282 033d 0178 7abc
00000250: 4732 acbd 1a35 0f3d fb50 48bc a9dd e9bc
00000260: 62a3 d8bc f151 3e3d 27a5 5d3d e4d6 d8bc
00000270: a193 cb3d 0eed 8fbd 7977 15bd 10f5 ce3d
00000280: f076 4b3d b0bb ff3d ece6 f23c c98a 1d3d
00000290: e280 a9bc f392 3e3d 3845 15ba c99e 283c
000002a0: 7c43 fe3a 6d08 96bd f605 363d 9b1f a33d
000002b0: 8008 a5bd 6eee d9bb 80e9 653d b5af 8e3d
000002c0: ac5d 1e3d 5066 3a3c 072f 24be a412 c63d
000002d0: 8961 053d 9294 05bd 5613 303d 2fc9 96bd
000002e0: 1237 993d 7f9b 633d 3843 e33d 5d79 3abd
000002f0: 8052 8ebd 6491 82bd c7a8 dd3c c7bf 22bc
00000300: 6a99 bfbd 37a8 48bc 5da3 b73c 5419 693c
00000310: 77be ea3d 6171 6a3d c0b2 28bd 5cf3 6b3d
00000320: 6bf0 943c 1320 203d eddd 87bd 6833 e3bd
00000330: 4607 97bc 7298 f6bc 113d b1bc 7395 e73c
00000340: 0cfb 863d aa14 90bc 6ab4 323d e2ff e1bd
00000350: 28c1 a63d ccfd 083d 3201 89bd 1d17 87bc
00000360: 52bc a03c 290a 77bd dd77 843c 0662 c4bc
00000370: 4d55 343b 43d3 de3d 7035 5e3d a9fb 513b
00000380: ad82 f7bc 17bf 103d 36b4 98bc f0c0 8bbc
00000390: 3e74 733c 63cf 2fbd 1533 8fbd 078e 1d3d
000003a0: a237 473c d6df bb3d f293 bf3d 1abb 31bd
000003b0: 7742 71bd cf5e 1dbd d07a ae3d 875f 0d3e
000003c0: aa1b 2f3c a902 2b3d 6599 273d 6e8d e7bc
000003d0: 9e4a 73bd 9af7 e1bd a438 843d 1e00 1dbc
000003e0: 80db 4abd 9171 623b 1d32 923c 2e67 2539
000003f0: 4166 ca3a e301 0a3d 6ac9 e43d 4291 4b3d

network_body._body_endoder.seq_layers.2.bias f4 [256]
0.0021242783 0.006905054 0.0052341903 -0.0004709036 0.0020839288 -0.0005972389 0.0027976912 0.019323356
0.00402629 0.00640762 -0.002993951 0.0014464357 0.007642301 -0.006408277 0.0022204018 -0.005363722
0.008126147 0.008938742 -0.0042901505 0.00058074837 0.001674176 0.0013540837 0.003369615 0.006905228
-0.0061794654 0.0043974975 -0.011838054 0.0028917769 0.004159676 -0.0013209537 -0.008901433 -0.0030642368
0.0019353564 -0.0021705749 0.0006120312 -0.00088370487 0.009763215 0.004322892 -0.00010830282 0.0045256587
0.00041005597 -0.0018323448 -0.010550493 -0.0023372038 0.0049654925 0.00079490955 -0.0010744168 0.002711293
0.0010150333 -0.0009717027 0.014991883 0.00681888 0.005903726 -0.0016720543 0.002231245 0.000118555996
-0.0020998514 -0.0009687903 0.0076848757 0.0032597177 0.0043842066 0.0040848902 0.0065070805 0.00399994
0.00020772862 0.0017732623 -0.0020624336 -0.003736211 -0.0074599083 0.0016054797 0.010309359 -0.009014785
-0.00023314593 0.0041285404 0.006713948 0.0013377054 0.015387308 0.0015406936 0.007442304 -0.005311133
-0.0009609253 -0.0029005886 -0.0009925019 -0.008132382 0.0022941427 0.003851677 0.005501208 0.0086561255
0.004761556 -0.000335117 0.0060005514 -0.011138638 0.010816939 -0.0016291388 0.0061526196 -0.0041735354
0.008673119 0.0057495395 0.005342989 0.012231227 0.008130715 -0.007508108 0.0035066467 0.014354049
0.008139064 0.002381143 0.014353286 0.0036625653 -0.0033540316 0.0072803753 -0.0011394506 0.0028792096
0.0019117605 -0.0057945214 0.0056910533 -0.00047190505 0.0039130533 0.0051716934 0.002702645 -0.008071242
0.0034748155 -0.0021532692 0.005442307 0.00063105545 0.0041874284 0.00096459413 -0.0015444615 -0.0008665191
-0.0064186933 -0.0068895007 -0.0020305412 0.005115487 0.00742817 0.0049218265 0.0042743757 -0.0008315725
-0.0020491155 0.0048941276 -0.002627314 0.0041176756 -0.0074342964 0.00020135046 0.002478563 -0.002272588
-2.7180511e-05 0.004989152 0.00024245118 -0.012139903 -0.002970065 0.0053452095 0.0020517644 0.0028950912
0.0032743837 0.007853299 0.002320198 0.004123065 -0.0026911078 0.008595942 0.0135805495 0.004728209
0.0055456227 -0.0022836644 0.0073716366 0.0013070969 -0.0054409495 0.004638425 0.0030762907 -0.0010021315
-0.005424056 0.0010816767 -0.0010951841 -0.0027806254 0.0009761145 0.0037097102 -0.0014864627 0.0032961497
0.00017056054 -0.002675139 0.0034446989 0.0073531293 0.0035061631 0.0008946725 0.003949222 -0.00028602398
0.0013898333 0.0024038637 0.002813783 -0.0016286398 0.0045988658 0.002218706 0.0039444957 0.0028455933
-0.0071252766 -0.0032109327 0.0055088885 0.001243076 -0.0008228176 0.013242966 -0.0094067855 0.006813607
-0.004988037 0.00025081387 0.0037141165 -0.0005873352 -0.0017591555 0.005527935 0.016570954 0.0065502957
-0.0072178785 0.004431257 0.001067989 0.018630944 0.0050629983 -0.008635543 0.006521949 0.0032484832
0.005170088 0.0023893702 -0.0011283372 -0.0030391777 0.002257018 0.005759416 0.005797265 0.008797717
0.0056266957 -0.0009689142 0.0046512717 0.0041835466 0.0027293055 0.004867447 -0.0027073545 0.004789137
0.00893823 0.009664537 -0.0035442219 -1.2287201e-06 0.011658728 0.0012981101 0.0037894628 -0.0006955538
0.00734026 -0.007362472 0.003536363 0.0020356204 0.002452418 -0.0022731824 0.0035942805 0.008166646
0.0041972976 0.002479025 -0.0017229061 5.5277917e-05 0.003673721 0.003208698 -0.0019109425 0.00016841234
00000000: 7a37 0b3b cb43 e23b 9283 ab3b 9ce3 f6b9
00000010: 8692 083b 0690 1cba 7859 373b 044c 9e3c
00000020: f8ee 833b 03f7 d13b 2a36 44bb 5496 bd3a
00000030: 446c fa3b 86fc d1bb 2984 113b 29c2 afbb
00000040: 8823 053c cd73 123c 6494 8cbb 5d3d 183a
00000050: 0670 db3a 827b b13a c2d4 5c3b 4045 e23b
00000060: 1d7d cabb e218 903b 66f4 41bc f783 3d3b
00000070: e44d 883b da23 adba 51d7 11bc 5dd1 48bb
00000080: c9ab fd3a 3440 0ebb b870 203a 6ea8 67ba
00000090: e4f5 1f3c 0ca7 8d3b a220 e3b8 fa4b 943b
000000a0: c8fc d639 4a2b f0ba fadb 2cbc c62b 19bb
000000b0: 92b5 a23b 7a61 503a 72d3 8cba f3af 313b
000000c0: de0a 853a ddb9 7eba 84a0 753c e970 df3b
000000d0: 0b74 c13b d528 dbba 143a 123b 44a1 f838
000000e0: a99d 09bb 6bf6 7dba 69d1 fb3b fda0 553b
000000f0: 64a9 8f3b 8bda 853b 5939 d53b ee11 833b
00000100: bad1 5939 cf6c e83a e529 07bb 38db 74bb
00000110: 3f72 f4bb f66e d23a 96e8 283c c0b2 13bc
00000120: a278 74b9 b548 873b ae00 dc3b f255 af3a
00000130: 0c1b 7c3c 19f1 c93a 92de f33b 0309 aebb
00000140: 9be6 7bba cd17 3ebb d616 82ba af3d 05bc
00000150: 5459 163b 6b6c 7c3b 7a43 b43b 6cd2 0d3c
00000160: d406 9c3b a4b2 afb9 46a0 c43b d57e 36bc
00000170: 8839 313c d488 d5ba ea9b c93b 27c2 88bb
00000180: b319 0e3c a266 bc3b 3e14 af3b 7c65 483c
00000190: b136 053c 9306 f6bb c5cf 653b 3f2d 6b3c
000001a0: b559 053c f30c 1c3b 0b2a 6b3c a607 703b
000001b0: 50cf 5bbb 3790 ee3b 9e59 95ba 1fb1 3c3b
000001c0: 0a94 fa3a f8df bdbb 047c ba3b 066a f7b9
000001d0: 1239 803b 4f77 a93b dc1e 313b 3e3d 04bc
000001e0: bbb9 633b dd1d 0dbb 6155 b23b 6a6d 253a
000001f0: b236 893b d1dc 7c3a 876f caba 1d27 63ba
00000200: e753 d2bb 52c1 e1bb d412 05bb d19f a73b
00000210: 0268 f33b 4647 a13b 1010 8c3b e3fd 59ba
00000220: 744a 06bb eb5e a03b 042f 2cbb 91ed 863b
00000230: 669b f3bb 9a21 5339 636f 223b b3ef 14bb
00000240: b401 e4b7 0a7c a33b 7e3a 7e39 72e6 46bc
00000250: 6ca5 42bb de26 af3b e576 063b 92bb 3d3b
00000260: 0b97 563b 20ab 003c 770e 183b c71a 873b
00000270: 4c5d 30bb fed5 0c3c f480 5e3c 18ef 9a3b
00000280: 0eb8 b53b 88a9 15bb c58d f13b e552 ab3a
00000290: fe49 b2bb eefd 973b 989b 493b f459 83ba
000002a0: 48bc b1bb 0cc7 8d3a 488c 8fba 273b 36bb
000002b0: efe1 7f3a 9c1e 733b 69d5 c2ba 3704 583b
000002c0: 7fd8 3239 6351 2fbb 75c0 613b 85f2 f03b
000002d0: a8c7 653b 7588 6a3a 7a68 813b 7df5 95b9
000002e0: 112b b63a 248a 1d3b 7267 383b 1578 d5ba
000002f0: 15b2 963b b667 113b d440 813b 227d 3a3b
00000300: 277b e9bb 836e 52bb e883 b43b b6ee a23a
00000310: 5bb2 57ba 06f9 583c eb1e 1abc ae44 df3b
00000320: b072 a3bb ab7f 8339 8968 733b 66f7 19ba
00000330: 7793 e6ba ae23 b53b cfbf 873c dda3 d63b
00000340: f483 ecbb 1434 913b c4fb 8b3a ec9f 983c
00000350: 82e7 a53b 187c 0dbc 13b6 d53b 81e4 543b
00000360: d769 a93b fb96 1c3b b7e4 93ba f12c 47bb
00000370: 7aea 133b 7cb9 bc3b fcf6 bd3b 4d24 103c
00000380: 2560 b83b bbfe 7dba b269 983b 2216 893b
00000390: 26de 323b 1b7f 9f3b df6d 31bb 31ee 9c3b
000003a0: a771 123c 0258 1e3c 2d46 68bb 80ea a4b5
000003b0: 4004 3f3c 5925 aa3a a358 783b d355 36ba
000003c0: 9086 f03b e440 f1bb 53c2 673b 0b68 053b
000003d0: bfb8 203b acf9 14bb 058e 6b3b 65cd 053c
000003e0: 7c89 893b 2377 223b 23d3 e1ba 36da 6738
000003f0: d0c2 703b 0549 523b 9778 faba d897 3039

action_model._continuous_distribution.log_sigma f4 [1, 3]
-0.0010688275 0.0020919049 0.0047584353
00000000: e617 8cba 5718 093b a6ec 9b3b

action_model._continuous_distribution.mu.weight f4 [3, 256]
0.0127582 0.0076317 -0.0034216149 -0.02951208 -0.020325005 0.0109373005 -0.0034631665 0.007199098
0.014798986 0.0059860996 -0.025517821 -0.0041934894 -0.030905204 -0.000304087 -0.024053574 -0.012653177
-0.0057648188 -0.011231007 -0.008087534 -0.019085234 -0.035342716 0.01692436 0.004515336 0.009213744
-0.010282984 0.016891448 -0.0018780177 0.004473317 -0.005115699 -0.00054405484 -0.00014835584 0.0055445936
-0.0014933831 -0.012013683 -0.01883387 -0.027914451 0.0043593165 0.007151289 -0.031772748 0.0010078896
0.0020003296 -0.009832936 -0.008675167 0.014060155 -0.0006780867 0.029355794 0.012174732 -0.0107078785
0.018683994 -0.022621581 0.00262328 0.017329067 0.009970577 -0.0067791026 0.006853482 0.00806231
0.01460024 0.015881475 -0.013958184 0.010788466 0.021488616 0.028009461 0.006302802 0.0048102317
-0.01144906 -0.008578834 0.005025619 0.003148526 -0.0143261235 -0.0033674466 -0.021376753 -0.0021285054
0.015486027 0.0037163792 0.011900982 -0.0010857659 0.008685994 0.025565423 0.010600501 -0.009749548
0.019610329 -0.005122435 -0.012450099 0.004712737 0.00039725754 0.021811882 -0.017621871 0.00040757927
0.0053946488 -0.008637381 -0.025874887 -0.020041076 -0.009855046 0.022944054 -0.0035578236 -4.3172462e-05
-0.013373415 -0.0063971383 -0.012430688 -0.018029384 0.017893132 -0.016462853 0.021208102 -0.0061061173
-0.020365762 -0.008365473 -0.0028177393 0.008852856 0.003895073 0.0047408617 -0.012325659 0.008282882
-0.004531108 -0.014073443 0.005669033 -0.0030895085 0.0037930154 -0.0058536828 0.001790096 -0.0017003824
0.0018950744 0.0022445063 -0.005608779 0.006272643 -0.01230719 -0.009910159 -0.00446354 0.005877384
-0.008450835 0.0070995344 -0.020349367 0.025365472 -0.013459299 -0.009763333 -0.0004297221 0.0048426525
-0.0014292566 -0.019525941 -0.0057723103 -0.014682191 -0.0015762665 -0.025323626 -0.027165497 -0.010180622
0.0074762367 0.0031670295 0.011603331 -0.0033875129 -0.015128003 -0.015480307 -0.013900765 -0.016166653
-0.0067584002 -0.026507176 -0.021678168 0.012086601 0.0019042131 0.010221355 -0.011777017 -0.006864809
-0.017591374 -0.0042373063 -0.011951074 0.0054615526 -0.021784568 -0.01683637 -0.0058567156 -0.0031835022
-0.039205022 -0.0107228905 0.010877639 -0.017650653 0.023310056 0.020765187 0.0045571327 -0.0023486533
0.0015962883 -0.00013346909 0.0048851287 -0.025957845 0.011701878 -0.0049774465 0.012821831 -0.0103693055
-0.002743659 0.009736431 0.0075660436 0.011726317 0.0036808637 -0.0092023825 -9.509415e-05 -0.026609974
-0.004314733 -0.046147723 0.009277703 0.0009891508 -0.015171876 -0.0031176985 -0.0048839822 0.007690102
-0.010560081 0.0034264228 -0.029832708 0.016338836 0.00036514548 0.0076849675 0.009754711 -0.022798695
-0.0024002087 0.0064638443 0.010344415 0.027525835 0.014340987 -0.0026885709 0.030190028 0.0013836004
-0.0062853307 -0.009325374 0.021650461 -0.014871674 -0.0044465954 0.024491107 0.0031414274 -0.015933542
-0.005848919 -0.030255554 -0.023485951 -0.017993752 0.0050888984 0.009384667 0.010398761 -0.001007706
0.012867214 0.012233894 -0.029053874 -0.012487848 0.0033888712 -0.0058893384 0.023867259 -0.021769678
-0.0020748014 0.0048370613 0.035869453 -0.011259929 0.009875389 0.0022847943 0.020700295 0.007475595
-0.01370138 -0.02876088 -0.02997617 -0.007867875 0.0108742975 0.017279878 0.005267143 0.0061044698
00000000: c507 513c 5713 fa3b 2c3d 60bb 51c3 f1bc
00000010: a080 a6bc 5d32 333c 4bf6 62bb 69e6 eb3b
00000020: 7277 723c 0b27 c43b c00a d1bc 8a69 89bb
00000030: e92c fdbc de6d 9fb9 000c c5bc 454f 4fbc
00000040: cee6 bcbb 4202 38bc 9481 04bc a358 9cbc
00000050: 86c3 10bd f5a4 8a3c 62f5 933b 3ef5 163c
00000060: f679 28bc ef5f 8a3c d127 f6ba e794 923b
00000070: 98a1 a7bb e79e 0eba f88f 1bb9 6caf b53b
00000080: 9fbd c3ba 0ad5 44bc 7d49 9abc d9ac e4bc
00000090: 99d8 8e3b 5c55 ea3b 2424 02bd 2a1b 843a
000000a0: f617 033b 531a 21bc 4a22 0ebc 905c 663c
000000b0: a1c1 31ba 907b f03c 8778 473c 1970 2fbc
000000c0: 2d0f 993c e550 b9bc 56eb 2b3b b0f5 8d3c
000000d0: a25b 233c 3c23 debb 2d93 e03b c717 043c
000000e0: d835 6f3c de19 823c deb0 64bc 1bc2 303c
000000f0: e508 b03c 1974 e53c bc87 ce3b 269f 9d3b
00000100: d794 3bbc 3d8e 0cbc f3ad a43b 8057 4e3b
00000110: 1eb8 6abc 61b0 5cbb 4d1e afbc 657e 0bbb
00000120: 1bb9 7d3c 7f8e 733b 56fc 423c 4250 8eba
00000130: b34f 0e3c 946e d13c b9ad 2d3c 91bc 1fbc
00000140: d7a5 a03c 19da a7bb 80fb 4bbc 4e6d 9a3b
00000150: 0147 d039 d5ae b23c be5b 90bc 5db0 d539
00000160: 98c5 b03b cd83 0dbc 92f7 d3bc 2f2d a4bc
00000170: 0f77 21bc 2bf5 bb3c 602a 69bb 1414 35b8
00000180: 2b1c 5bbc 169f d1bb 16aa 4bbc 5cb2 93bc
00000190: 9e94 923c 1bdd 86bc 9dbc ad3c d315 c8bb
000001a0: 19d6 a6bc 560f 09bc d2a9 38bb 920b 113c
000001b0: 7b44 7f3b 3b59 9b3b 90f1 49bc edb4 073c
000001c0: b079 94bb 4c94 66bc 4cc3 b93b 5a79 4abb
000001d0: 3d94 783b 40d0 bfbb a8a1 ea3a 5edf deba
000001e0: 2564 f83a 9118 133b d9c9 b7bb be8a cd3b
000001f0: 19a4 49bc 385e 22bc e342 92bb 1297 c03b
00000200: 5f75 0abc 36a3 e83b b7b3 a6bc 40cb cf3c
00000210: 6484 5cbc 63f6 1fbc 534c e1b9 1daf 9e3b
00000220: e555 bbba def4 9fbc a625 bdbb 938d 70bc
00000230: ba9a ceba 7e73 cfbc 2d8a debc a0cc 26bc
00000240: 38fb f43b f08d 4f3b e61b 3e3c 0901 5ebb
00000250: 72db 77bc 1da1 7dbc 09c0 63bc ee6f 84bc
00000260: 9275 ddbb 9425 d9bc 6a96 b1bc e106 463c
00000270: ca96 f93a 7877 273c 64f4 40bc 31f2 e0bb
00000280: c91b 90bc 1ad9 8abb 70ce 43bc d3f6 b23b
00000290: 8d75 b2bc 6dec 89bc b1e9 bfbb 4ea2 50bb
000002a0: 7295 20bd 10af 2fbc 2038 323c 1a98 90bc
000002b0: bbf4 be3c c11b aa3c 0054 953b ddeb 19bb
000002c0: 8c3a d13a d6f3 0bb9 6e13 a03b 8ca5 d4bc
000002d0: 3cb9 3f3c d919 a3bb a812 523c 05e4 29bc
000002e0: f6ce 33bb 8d85 1f3c 93ec f73b bd1f 403c
000002f0: a53a 713b 97c5 16bc 486d c7b8 29fd d9bc
00000300: 9b62 8dbb 6505 3dbd 8201 183c 65a6 813a
00000310: 7693 78bc 4d52 4cbb d009 a0bb 40fd fb3b
00000320: 3104 2dbc d68d 603b b963 f4bc 06d9 853c
00000330: ff70 bf39 2ed2 fb3b 39d2 1f3c 54c4 babc
00000340: d24c 1dbb a8ce d33b 9f7b 293c dc7d e13c
00000350: 76f6 6a3c bc32 30bb 1451 f73c ed59 b53a
00000360: 2df5 cdbb 74c9 18bc 4f5c b13c 52a8 73bc
00000370: bfb4 91bb 93a1 c83c 68e0 4d3b 0f87 82bc
00000380: 4aa8 bfbb 7fda f7bc 9c65 c0bc a267 93bc
00000390: c6c0 a63b 25c2 193c 915f 2a3c 0115 84ba
000003a0: 02d1 523c ac70 483c 6402 eebc d599 4cbc
000003b0: d317 5e3b 5afb c0bb 4585 c33c 5356 b2bc
000003c0: 64f9 07bb 3680 9e3b d9eb 123d 917b 38bc
000003d0: 62cc 213c 7dbc 153b aa93 a93c d6f5 f43b
000003e0: c17b 60bc f09b ebbc 9690 f5bc 42e8 00bc
000003f0: 1c2a 323c 888e 8d3c ff97 ac3b 0108 c83b

action_model._continuous_distribution.mu.bias f4 [3]
0.0023869849 0.0003871261 -0.00069668255
00000000: f66e 1c3b 30f7 ca39 93a1 36ba

action_model._discrete_distribution.branches.0.weight f4 [7, 256]
-0.013385868 -0.0011043191 0.005893533 -0.0112997405 -0.004321027 -0.0090011 0.00091271725 0.0012945163
0.012753201 -0.01179085 0.0040427526 0.0011337355 0.0046874327 -0.010720648 0.0015100283 0.012619062
-0.015217529 -0.006422861 -0.0055255424 -0.00431153 -0.0042282287 -0.014150438 -0.00046316342 -0.0028209796
-0.000259261 -0.012705696 -0.00037018827 -0.009302877 0.010349439 0.000891268 0.0087570585 0.017733436
-0.006016887 0.0029723863 0.018714761 0.00011967957 -0.0009672224 0.006028668 -0.00015115719 -0.008085242
0.0010784954 -0.00637769 0.0011905106 0.007003114 -0.017296549 0.003643666 -0.007686912 -0.011952401
0.0005065615 -0.0036352968 -0.013074508 -0.0024697236 -0.0048900438 0.0027997536 -0.0065504448 -0.009595669
-0.002770482 -0.0015393198 0.00085145026 0.0015869762 -0.011275762 0.0074216975 0.0055240993 -0.0008229196
-0.010799551 0.00023344063 0.010995554 -0.003365639 0.00020196727 -0.0010822816 0.0048145116 0.001415858
0.0010153266 0.0066364137 0.009384018 -0.005917924 0.0063991453 0.006057593 0.0083433585 -0.0037930887
-0.0029381318 0.0018268917 0.0064306436 0.014433605 -0.01065555 0.009395159 0.0040688463 -0.0055609993
-0.008059417 -0.0064150193 -0.013389165 0.002110198 -0.0099243615 0.0024192154 -0.0036388852 -0.0029003108
-0.004883816 0.0030487468 -0.0072587994 0.001393397 -0.007425028 -0.0003306707 -0.0071712066 -0.011125107
-0.0005573197 -0.013546263 -0.0018711281 -0.005135528 -0.0008338436 -0.004615981 -0.019166125 -0.0037242342
-0.01504029 0.016598867 -0.0018910499 -0.0027487706 0.0020631193 -0.0054519516 0.0029575252 -0.005167206
0.00076306396 -0.0056290138 0.004738968 -0.012334213 0.0050062677 -0.0052327053 0.007993072 -0.004720675
0.0035312045 0.008997536 -0.00654203 -0.0030987365 -0.0054914705 -0.005073082 -0.00041821843 -0.005742385
-0.008485959 0.01850531 -0.005853465 0.012753234 0.0011162119 -0.005108099 -0.007834928 0.0023275435
-0.0028150945 -0.014433196 -0.0074588456 0.004454606 0.002690571 -0.0031667477 -0.004494929 -0.003135914
0.00010051012 -0.0058742855 -0.001949161 -0.008414009 -0.0020739327 -0.0074533154 -0.0012908687 -0.0025370985
-0.014981084 -0.006764716 0.0060694427 -0.005011792 0.0049765576 -0.012579484 0.004430351 -0.0012142009
-0.002874636 -0.022070477 -0.006966415 -0.0024313282 0.01251266 0.017876262 -0.0014015588 0.0011997077
0.0032444282 0.011104863 0.013903977 -0.005555074 -0.011593712 -0.0072716824 -0.0017057925 0.010714159
-0.0074615157 -0.0017385375 -0.0008810659 0.00051612075 0.006900542 -0.010111878 0.005298299 -0.008089222
-0.018323231 0.006697263 0.01043065 -0.012109742 -0.004674088 -0.0056753797 -0.00042313512 -0.018649217
0.01212819 -0.00066094 -0.0015177338 0.00055797887 -0.0010339054 0.009860411 -0.013946204 -0.016198112
0.008742633 0.005890201 -0.0012351909 0.004782315 -0.0024954146 0.0052792006 -0.012104901 0.014047818
-0.002697724 0.004082356 -0.0011951406 0.011078928 -0.007781867 0.0085126 -0.0035593852 -0.0006713554
-0.016848467 0.008785421 -0.017497161 -0.007163394 -0.0049972623 -0.0150530115 0.0027057372 -0.011871315
0.0043319785 0.017721388 0.004416419 0.0006716198 -0.0071724076 -0.009834775 -0.0053058323 -0.0075486465
-0.00049109076 0.012971855 0.006109718 -0.016834337 7.8582714e-05 0.002210125 0.0002476381 -0.007250503
-0.008022452 -0.0050271004 -0.0004752412 -0.0049339 -0.0004955344 -0.0055282493 0.0014703157 -0.006239808
00000000: 6650 5bbc cdbe 90ba 8a1e c13b 8c22 39bc
00000010: 6797 8dbb 5a79 13bc 6b43 6f3a c2ac a93a
00000020: cdf2 503c 692e 41bc 1179 843b da99 943a
00000030: 0999 993b a8a5 2fbc 24ec c53a 2fc0 4e3c
00000040: f152 79bc dd76 d2bb 9c0f b5bb bc47 8dbb
00000050: f48c 8abb 3dd7 67bc bed4 f2b9 2fe0 38bb
00000060: 6ced 87b9 8d2b 50bc d415 c2b9 186b 18bc
00000070: b290 293c fca3 693a c479 0f3c b645 913c
00000080: 4e29 c5bb 5ecc 423b b34f 993c 7bfc fa38
00000090: 328d 7dba 228c c53b f37f 1eb9 f677 04bc
000000a0: 4d5c 8d3a f1fb d0bb e80a 9c3a 617a e53b
000000b0: 7eb1 8dbc 92ca 6e3b 7ee2 fbbb 01d4 43bc
000000c0: c4ca 043a 293e 6ebb 7636 56bc 16db 21bb
000000d0: a93c a0bb 127c 373b 1da5 d6bb 2737 1dbc
000000e0: fa90 35bb 00c3 c9ba dc33 5f3a 1602 d03a
000000f0: f9bd 38bc b631 f33b 8103 b53b 33b9 57ba
00000100: 9af0 30bc bec7 7439 b226 343c 0d92 5cbb
00000110: 2dc7 5339 58db 8dba 0dc3 9d3b 5094 b93a
00000120: b514 853a 4676 d93b 6dbf 193c 25eb c1bb
00000130: ecaf d13b c67e c63b 95b2 083c 7895 78bb
00000140: ac8d 40bb 5074 ef3a 26b8 d23b ed7a 6c3c
00000150: 9e94 2ebc 27ee 193c f553 853b 0b39 b6bb
00000160: a50b 04bc 1535 d2bb 3a5e 5bbc 3f4b 0a3b
00000170: ca99 22bc b38b 1e3b 5d7a 6ebb 2413 3ebb
00000180: 6b08 a0bb 7ccd 473b 39db edbb a5a2 b63a
00000190: a64d f3bb df5d adb9 71fc eabb 1546 36bc
000001a0: 1819 12ba 25f1 5dbc a440 f5ba ee47 a8bb
000001b0: 4c96 5aba a841 97bb 4702 9dbc 4812 74bb
000001c0: 8c6b 76bc 59fa 873c 1bdd f7ba b824 34bb
000001d0: 6635 073b 49a6 b2bb 0ad3 413b aa51 a9bb
000001e0: 5b08 483a 9773 b8bb 5849 9b3b 7015 4abc
000001f0: 9e0b a43b 1d77 abbb 60f5 023c e4af 9abb
00000200: c86b 673b 676a 133c 865e d6bb 2c14 4bbb
00000210: cbf1 b3bb 193c a6bb 5444 dbb9 9e2a bcbb
00000220: b108 0bbc 7398 973c 6cce bfbb f1f2 503c
00000230: db4d 923a d761 a7bb 125e 00bc b389 183b
00000240: 737d 38bb 3679 6cbc 5569 f4bb f2f7 913b
00000250: 4a54 303b 3689 4fbb 334a 93bb e883 4dbb
00000260: f6c8 d238 147d c0bb fd7a ffba e9da 09bc
00000270: d1ea 07bb f13a f4bb 5e32 a9ba 7345 26bb
00000280: 3873 75bc 8daa ddbb 2de2 c63b f539 a4bb
00000290: 6412 a33b 2e1a 4ebc 7a2c 913b d225 9fba
000002a0: 6464 3cbb 25cd b4bc 8646 e4bb eb56 1fbb
000002b0: e601 4d3c 3d71 923c 82b4 b7ba 833f 9d3a
000002c0: 79a0 543b 2cf1 353c 82cd 633c 5707 b6bb
000002d0: 8df3 3dbc 4b47 eebb e694 dfba 718a 2f3c
000002e0: bb7f f4bb a3df e3ba 55f7 66ba 474c 073a
000002f0: f11d e23b 4aac 25bc 5a9d ad3b a888 04bc
00000300: 9a1a 96bc b774 db3b 51e5 2a3c f067 46bc
00000310: 1829 99bb 89f8 b9bb 3cd8 ddb9 3ec6 98bc
00000320: 51b5 463c ef42 2dba b2ee c6ba 5445 123a
00000330: 1c84 87ba 908d 213c 9f7e 64bc e7b1 84bc
00000340: 433d 0f3c 9602 c13b 21e6 a1ba f7b4 9c3b
00000350: 1c8a 23bb 25fd ac3b a253 46bc d228 663c
00000360: 4ccc 30bb 49c5 853b 44a6 9cba 6484 353c
00000370: 08ff febb 6f78 0b3c 9344 69bb e6fd 2fba
00000380: cc05 8abc baf0 0f3c 3556 8fbc e7ba eabb
00000390: 13c0 a3bb e8a0 76bc bd52 313b e77f 42bc
000003a0: 45f3 8d3b 722c 913c 9cb7 903b a40f 303a
000003b0: 8406 ebbb 0922 21bc 8cdc adbb a35a f7bb
000003c0: 8bbc 00ba e787 543c 0734 c83b 2ae8 89bc
000003d0: c6cc a438 bfd7 103b 6cd5 8139 a195 edbb
000003e0: 9a70 03bc 60ba a4bb cb29 f9b9 8eac a1bb
000003f0: c0e6 01ba 5126 b5bb 9cb7 c03a 4e77 ccbb

action_model._discrete_distribution.branches.0.bias f4 [7]
-0.0061003068 0.012219113 0.00694653 0.00461591 0.013531921 -0.013469195 -0.016165748
00000000: 15e5 c7bb ad32 483c b89f e33b 0f41 973b
00000010: feb4 5d3c e6ad 5cbc 086e 84bc

onnx::Div_90 f4 [68]
0.004917405 0.24932426 0.040517583 0.19145122 0.004917405 0.22890298 0.034049828 0.17947942
0.004917405 0.28003088 0.06169413 0.20059885 0.004917405 0.253728 0.036112666 0.18187426
0.004917405 0.30764058 0.06655598 0.21003067 0.004917405 0.25028858 0.030695444 0.179681
0.004917405 0.29286417 0.057253316 0.20356241 0.004917405 0.19987988 0.031086102 0.1754387
0.004917405 0.25613528 0.044485893 0.18768097 0.004917405 0.21036181 0.037100896 0.18276429
0.004917405 0.24716799 0.054456808 0.18550348 0.004917405 0.23142137 0.04081392 0.18822797
0.004917405 0.24860826 0.055114914 0.18551022 0.004917405 0.24729547 0.03806332 0.19014645
0.004917405 0.24932425 0.051506784 0.18621258 0.004917405 0.24468513 0.055114914 0.18768466
0.004917405 0.24468514 0.055114914 0.18768466
00000000: 2f22 a13b dc4e 7f3e c4f5 253d ca0b 443e
00000010: 2f22 a13b 8b65 6a3e d577 0b3d 74c9 373e
00000020: 2f22 a13b 3560 8f3e fcb2 7c3d c969 4d3e
00000030: 2f22 a13b a3e8 813e e0ea 133d 3f3d 3a3e
00000040: 2f22 a13b 1183 9d3e 804e 883d 4812 573e
00000050: 2f22 a13b d325 803e 0375 fb3c 4cfe 373e
00000060: 2f22 a13b 4bf2 953e 7482 6a3d aa72 503e
00000070: 2f22 a13b 50ad 4c3e 48a8 fe3c 34a6 333e
00000080: 2f22 a13b 2a24 833e d736 363d 712f 403e
00000090: 2f22 a13b 1669 573e 1cf7 173d 9026 3b3e
000000a0: 2f22 a13b 9b19 7d3e 1a0e 5f3d a0f4 3d3e
000000b0: 2f22 a13b b9f9 6c3e 7f2c 273d d5be 403e
000000c0: 2f22 a13b 2a93 7e3e 2dc0 613d 64f6 3d3e
000000d0: 2f22 a13b 063b 7d3e 49e8 1b3d c0b5 423e
000000e0: 2f22 a13b db4e 7f3e c7f8 523d 83ae 3e3e
000000f0: 2f22 a13b bd8e 7a3e 2dc0 613d 6830 403e
00000100: 2f22 a13b be8e 7a3e 2dc0 613d 6830 403e

onnx::Div_96 f4 [37]
6.4242 0.07316744 7.0117292 0.004917405 0.29669532 0.004917405 9.287756 0.0050576134
10.568512 0.004917405 0.29955396 0.004917405 0.17183028 0.112208 0.41886494 0.41340473
0.4964892 0.41888067 1.2152166 0.82862145 0.004917405 0.9460656 0.66967577 0.0049192864
0.7413036 0.28720298 0.21917413 0.219175 0.20083109 0.20083176 0.13083495 0.94610023
0.2739225 0.7216608 0.005019411 5.306911 0.28858435
00000000: 0c93 cd40 d0d8 953d 1660 e040 2f22 a13b
00000010: 73e8 973e 2f22 a13b a69a 1441 56ba a53b
00000020: a018 2941 2f22 a13b 235f 993e 2f22 a13b
00000030: 47f4 2f3e 4fcd e53d 7775 d63e c9a9 d33e
00000040: d533 fe3e 8777 d63e 388c 9b3f 8920 543f
00000050: 2f22 a13b 5b31 723f df6f 2b3f f731 a13b
00000060: 13c6 3d3f 450c 933e 2f6f 603e 696f 603e
00000070: aaa6 4d3e d7a6 4d3e 99f9 053e a033 723f
00000080: 923f 8c3e c3be 383f df79 a43b 37d2 a940
00000090: 54c1 933e
