results/NewTest4/BoxingAgent/BoxingAgent-140824.onnx (onnx, 319572 bytes, 11 tensors)

network_body.observation_encoder.processors.0.normalizer.running_mean f4 [36]
0	0x3f903351	1.126566
1	0x416d7ec6	14.843451
2	0xc15e9516	-13.911398
3	0x30f133ff	1.7549836e-09
4	0x3f06d3f2	0.5266715
5	0xb07a16c4	-9.098182e-10
6	0xbf9bb9cc	-1.2166076
7	0x398e722b	0.00027169412
8	0xbf30387b	-0.6883618
9	0xb15baa26	-3.1965413e-09
10	0x3f022177	0.50832313
11	0x31b4b9fc	5.2598335e-09
12	0x3f77ca41	0.9679299
13	0x3f76066f	0.96103567
14	0x3e8d1ed0	0.2756257
15	0x3ea6e3ee	0.32595772
16	0x3e9cc877	0.30621693
17	0x3f397022	0.72436726
18	0x3f3fa320	0.74858284
19	0xbbecd06d	-0.0072269947
20	0x00000000	0.0
21	0xbc01848b	-0.007905136
22	0xbd4e3055	-0.05033906
23	0x376c9b4d	1.4102855e-05
24	0xbd0c8f0b	-0.034316104
25	0x3efadf56	0.48998517
26	0x3f028fdd	0.5100077
27	0x3f02fc29	0.51166016
28	0x3efa06c7	0.48833296
29	0x3d4cbc52	0.049984284
30	0x3e87db24	0.2653438
31	0x3f1c57ed	0.61071664
32	0xbd9a4881	-0.0753336
33	0x416d7ec6	14.843451
34	0x41c0cd88	24.100357
35	0x3f001efb	0.5004727

network_body._body_endoder.seq_layers.0.weight f4 [256, 36]
0	0x3e3c717b	0.18402664
1	0x3e50ab2b	0.20377795
2	0x3e23d81a	0.16000405
3	0x3d864378	0.065558374
4	0x3e49c685	0.19704635
5	0x3dd3d0b7	0.103425436
6	0xbd3fa0a0	-0.046784043
7	0xbd930294	-0.07178226
8	0x3de0ee5e	0.10982965
9	0x3c322f8a	0.010875592
10	0x3be622a3	0.007023172
11	0x3e8705bf	0.2637157
12	0x3c9972dd	0.018731529
13	0xbcae2071	-0.021255704
14	0xbda180f9	-0.07885928
15	0x3de4381e	0.11143516
16	0x3de0021e	0.10937904
17	0xbd0f1368	-0.034930617
18	0x3e9ad31f	0.30239198
19	0xbe255298	-0.16144788
20	0x3d22c0b8	0.039734572
21	0xbd96b84c	-0.073593706
22	0x3dcaee6a	0.09908755
23	0x3e05a471	0.1305101
24	0xbdda0912	-0.10646261
25	0x3d54dc11	0.051967684
26	0xbe38caff	-0.18046187
27	0x3e352411	0.1768954
28	0xbcdeffb1	-0.027221533
29	0xbe29669b	-0.16543047
30	0x3e8f87af	0.28033206
31	0xbe81408d	-0.2524456
32	0x3e691657	0.22762428
33	0x3c0fe196	0.008781811
34	0x3c5b60cc	0.013389777
35	0xbe5c7fb7	-0.21533094
36	0xbced2c50	-0.028951794
37	0xbe665fdb	-0.22497503
38	0xbde930d0	-0.11386263
39	0x3da3c187	0.07995897
40	0x3ee14308	0.43996453
41	0x3dfacb41	0.12245799
42	0x3c55e36b	0.013054709
43	0x3d96e5a3	0.073680185
44	0xbe515943	-0.20444207
45	0x3b3add36	0.00285132
46	0xbeabf500	-0.33585358
47	0xbd0c754b	-0.034291547
48	0xbde74f16	-0.11294381
49	0xbd971c9b	-0.07378503
50	0x3db2f219	0.08737583
51	0x3ea7898d	0.3272213
52	0xbe2d6e98	-0.1693672
53	0x3d1c5b05	0.03817274
54	0x3e26bffd	0.16284175
55	0x3e26b374	0.16279393
56	0x3cf2e958	0.029652283
57	0xbd8eb8c5	-0.06968836
58	0x3db7ccd9	0.089746185
59	0xbc5ad568	-0.013356544
60	0xbd3a2a2d	-0.04545038
61	0xbe9a4d23	-0.30136976
62	0xbe1d3f63	-0.15356211
63	0xbd52977b	-0.051413994
64	0xbe612f94	-0.21990806
65	0xbe23c62f	-0.1599357
66	0x3dc61d87	0.09673601
67	0x3e54c05e	0.20776507
68	0xbeccae68	-0.3997681
69	0x3e1f2216	0.15540347
70	0x3b0856db	0.0020803723
71	0xbd8f55ca	-0.06998785
72	0x3dc5a6c8	0.096509516
73	0x3e026827	0.12735043
74	0xbd7ef60c	-0.062246367
75	0xbd9a6246	-0.075382754
76	0xbd8e0981	-0.069354065
77	0xbdd5060e	-0.104015455
78	0x3ea2dfb1	0.31811288
79	0xbd90b36d	-0.07065473
80	0x3db6cbca	0.089255884
81	0x3ec7b6e8	0.39006734
82	0x3c8a207a	0.01686119
83	0xbe303b7f	-0.17210196
84	0xbdbc798b	-0.0920287
85	0x3d39a438	0.045322627
86	0xbe3703b5	-0.17872508
87	0xbda49ad8	-0.080373466
88	0x3d7bd380	0.061481
89	0x3e401c7b	0.18760864
90	0x3e900eea	0.2813638
91	0xbdad8ed7	-0.0847451
92	0x3d32ca02	0.04364968
93	0xbcf3ad77	-0.0297458
94	0xbca75ea5	-0.020430872
95	0xbdd716bc	-0.10502383
96	0xbd93133f	-0.07181405
97	0x3e9be780	0.30450058
98	0x3da6e387	0.08148866
99	0x3e654c21	0.22392322
100	0x3d9f9b43	0.07793286
101	0x3da8d167	0.08243065
102	0x3e25a0e5	0.16174658
103	0xbdc9ba39	-0.09849972
104	0xbeabe622	-0.33574015
105	0xbdcf9635	-0.101360716
106	0x3d737a1a	0.059442617
107	0xbea5df5f	-0.3239698
108	0x3e1d0758	0.15334833
109	0xbc414fd9	-0.011798822
110	0x3e64c94f	0.22342418
111	0x3edf77e1	0.43646148
112	0xbc92d8f7	-0.017925723
113	0xbe4cacfb	-0.19987862
114	0xbbf53cda	-0.0074840607
115	0x3d7042d4	0.058657482
116	0xbe341b65	-0.17588575
117	0x3c8595ef	0.016306845
118	0xbd0886b2	-0.03333158
119	0xbe616d3b	-0.22014324
120	0x3ea796ee	0.32732338
121	0x3e51f8ca	0.20505062
122	0x3d6a5efb	0.057219487
123	0x3dd5f19e	0.104464754
124	0x3e132b87	0.14372073
125	0x3bfe61d7	0.0077631283
126	0xbe7a16a8	-0.24422705
127	0xbdbaf3e2	-0.09128548
128	0xbe71e070	-0.23620772
129	0xbe3de42e	-0.18544075
130	0x3e7a41fe	0.24439237
131	0x3e176d59	0.14787807
132	0x3e1ebcca	0.15501705
133	0xbd4b2f69	-0.04960576
134	0xbe494110	-0.19653726
135	0x3dc64edd	0.09683011
136	0xbdee2fe8	-0.11630231
137	0xbd3e4bda	-0.046459056
138	0x3d148b5f	0.036265727
139	0x3d663faf	0.056213077
140	0xbd6068a1	-0.054787282
141	0xbe5418b4	-0.20712548
142	0xbda7e069	-0.081971
143	0x3e0bc75a	0.13650265
144	0x3c4be1e2	0.012443991
145	0x3e1136fc	0.14181131
146	0x3e8daa2b	0.2766889
147	0x3ec571c7	0.38563368
148	0xbe72863d	-0.2368402
149	0x3d5ead51	0.054364506
150	0xbcf484e3	-0.029848522
151	0xbdf2682a	-0.11836274
152	0x3e91d038	0.2847917
153	0x3da155f4	0.078777224
154	0xbe3cad03	-0.18425374
155	0xbdc5097f	-0.09620952
156	0x3d88ead2	0.066854134
157	0xbce06d5f	-0.027395902
158	0xbe3e0914	-0.1855815
159	0xbe03b085	-0.12860306
160	0xbe8bfa2d	-0.27339306
161	0xbcede23f	-0.029038547
162	0x3dbdb2f4	0.09262648
163	0xbe1a4eb8	-0.15069091
164	0xbe838522	-0.2568751
165	0xbdcf0c93	-0.1010982
166	0x3e0c61ad	0.13709135
167	0x3e8d04d8	0.27542758
168	0xbe39aa90	-0.1813147
169	0xbddf2bec	-0.10897049
170	0xbe0a33a2	-0.13496259
171	0xbe5c18df	-0.21493863
172	0xbe96fab4	-0.29488146
173	0x3e4661d3	0.19373254
174	0x3dd7e6dc	0.1054208
175	0x3e5f9999	0.21835937
176	0xbe513ac8	-0.2043258
177	0xbdb11997	-0.08647459
178	0xbe681906	-0.22665796
179	0x3e012c3b	0.12614529
180	0x3db2cd84	0.08730605
181	0xbdf8e2f3	-0.12152662
182	0x3d45c9dc	0.04828821
183	0x3d80f648	0.062969744
184	0xbca6753f	-0.02031958
185	0x3d333304	0.043749824
186	0xbe12a70f	-0.1432154
187	0x3c12dcf3	0.008963811
188	0x3d0fa2af	0.035067257
189	0xbaa373e0	-0.0012470447
190	0xbdb07f47	-0.08618026
191	0xbdad5e21	-0.08465219
192	0xba90d0b7	-0.001104853
193	0x3d76bfa0	0.06024134
194	0xbdd8de45	-0.105892695
195	0x3df6563f	0.12028169
196	0xbdd480cb	-0.10376128
197	0x3d218eb3	0.03944273
198	0x3ce44673	0.027865624
199	0x3c9c0653	0.019045984
200	0xbdbec646	-0.093151614
201	0xbe6394c2	-0.22224715
202	0xbde6bf9d	-0.11267016
203	0x3c433ad2	0.011915879
204	0x3d7880f4	0.060669854
205	0x3d471632	0.04860515
206	0x3d92b385	0.07163147
207	0x3dfb9f56	0.1228625
208	0xbe4422da	-0.1915392
209	0xbdcbe1f8	-0.099552095
210	0xbcaeeca8	-0.02135308
211	0x3c410dbb	0.011783059
212	0x3ca1d970	0.019757003
213	0xbe0dbebf	-0.13842295
214	0x3dd9ac8f	0.10628616
215	0xbdcfe03a	-0.1015019
216	0xbe027c7d	-0.12742801
217	0x3e028403	0.12745671
218	0x3e32f716	0.17477068
219	0x3ebfb802	0.37445074
220	0xbe28589e	-0.16440055
221	0xbe80b5e0	-0.2513876
222	0x3e413d8c	0.18871135
223	0x3e898713	0.26860866
224	0xbe7532ef	-0.23945211
225	0xbe24b01d	-0.16082807
226	0xbc313e26	-0.01081804
227	0x3da7f8e3	0.08201768
228	0x3e984a0c	0.29743993
229	0x3e908cea	0.2823251
230	0x3d465b18	0.048426718
231	0x3bcdd464	0.0062814225
232	0x3e0403d0	0.1289208
233	0x3e5bc8a9	0.21463265
234	0xbe7c4421	-0.24635364
235	0x3db5e131	0.088808425
236	0xbe59742a	-0.2123572
237	0xbcef3998	-0.029202268
238	0x3e4a3704	0.1974755
239	0x3dd0e50f	0.101999395
240	0x3e82ede4	0.2557212
241	0xbc829670	-0.015940875
242	0x3e1c1020	0.15240526
243	0x3d900523	0.0703223
244	0xbe02db2c	-0.1277892
245	0x3e771388	0.24128544
246	0x3da6ecb7	0.081506185
247	0x3de88958	0.11354321
248	0x3dc5406e	0.096314296
249	0xbdb1b5be	-0.08677243
250	0xbe312012	-0.1729739
251	0xbd0fd8e9	-0.03511897
252	0x3ce9597f	0.028485058
253	0xbb8d2704	-0.0043076295
254	0x3e772426	0.24134883
255	0x3db9f274	0.090794474

network_body._body_endoder.seq_layers.0.bias f4 [256]
0	0x3c89ee1c	0.016837172
1	0x3c4339df	0.011915653
2	0x3c663f93	0.014053243
3	0x3cff7b8b	0.03118684
4	0x3c2f89c4	0.010713998
5	0x3bf01432	0.007326626
6	0x3bfef33e	0.0077804616
7	0x3c9d0019	0.019165086
8	0x3c557b3f	0.013029872
9	0x3cb21164	0.021736808
10	0x3c975a1f	0.01847559
11	0xbb6578b0	-0.0035014562
12	0x3bb8496b	0.0056239865
13	0x3c861e1a	0.016371775
14	0x3c9644ec	0.018343411
15	0x3ca96870	0.020679682
16	0xbc086b62	-0.008326383
17	0x3c52aae0	0.012858123
18	0x3c02da71	0.007986651
19	0x3cc690f1	0.024239035
20	0x3cc96648	0.024584904
21	0x3bdcfb2e	0.00674381
22	0x3c2943ca	0.010331104
23	0x3c2a9d00	0.010413408
24	0x3b8605b0	0.0040900335
25	0x3c5d4557	0.013505301
26	0xbb79500e	-0.00380421
27	0x3cbc7431	0.023004623
28	0xbb2d5fab	-0.0026454728
29	0x3bd9825f	0.006637856
30	0x3cce4f6f	0.025184361
31	0x3c97647d	0.018480534
32	0x3c9aa086	0.018875372
33	0x3c24afa5	0.010051643
34	0x3b9b8bfd	0.0047469125
35	0x3cd71fd1	0.026260288
36	0x3ba20a8b	0.0049451045
37	0x393d0be7	0.00018028879
38	0x3c6cce08	0.014453419
39	0x3ca437fd	0.020046229
40	0x3b53f501	0.0032342079
41	0x39caca65	0.00038679238
42	0x3c83afc8	0.01607503
43	0x3c59ab9b	0.013285543
44	0x3cdf93ca	0.027292151
45	0x3c6da547	0.014504737
46	0x3c73bb6d	0.014876229
47	0x3c90983b	0.017650714
48	0x3c4d8c04	0.012545589
49	0x3cd728ab	0.02626451
50	0x3bffb410	0.0078034475
51	0x3cfa6eaa	0.030570347
52	0x3b90d09d	0.0044194
53	0x3c8c7610	0.01714614
54	0x3d110bb8	0.035411566
55	0x3b540a9b	0.0032354954
56	0xbb891164	-0.0041829813
57	0x3b934777	0.0044946033
58	0xbb2cff58	-0.0026397314
59	0x3d0d8814	0.034553602
60	0x3ca3fabb	0.020017019
61	0x3cb10ac3	0.021611577
62	0xbc899fbd	-0.016799802
63	0x3cd2626d	0.025681699
64	0x3c871c43	0.016492968
65	0x3cc2e330	0.023789972
66	0x3ce49c34	0.027906515
67	0xbbde6a34	-0.0067875627
68	0x3b8665ea	0.0041015046
69	0x3b9113a8	0.004427392
70	0x3bb7877b	0.0056008673
71	0x3c9a13f6	0.018808346
72	0x3c214c38	0.009844832
73	0x3d0d8ab3	0.034556102
74	0x3c789fcd	0.015174818
75	0x3cc7ff7c	0.024413817
76	0xbb534532	-0.0032237289
77	0x3c73eec3	0.014888468
78	0x3ca8e656	0.020617645
79	0x3cccfadd	0.025021965
80	0x3c80e3cd	0.015733624
81	0x3c35835b	0.011078681
82	0x3c9b3f38	0.018951043
83	0xbb61ff18	-0.0034484323
84	0x3c9601ee	0.018311467
85	0x3b081ce7	0.002076918
86	0xbc7d5a0c	-0.015463363
87	0xbb44082c	-0.0029912097
88	0x3be3b962	0.0069495896
89	0x3c6588af	0.014009639
90	0x3c1881dd	0.009308306
91	0xbb0698af	-0.0020537784
92	0xbc0cd527	-0.008595741
93	0x3c4f27df	0.012643783
94	0x3ba74116	0.0051041944
95	0x3c8151a5	0.015786001
96	0x3bc87c0d	0.0061183036
97	0x3cc2ccca	0.023779292
98	0x3b41eabe	0.002958938
99	0xbb2fa159	-0.0026799052
100	0x3c0125f9	0.007882589
101	0xb9d23a92	-0.0004009796
102	0x3c991e74	0.018691279
103	0x3c16eda9	0.009211936
104	0x3cfab000	0.030601501
105	0x3c0d02d6	0.008606633
106	0x3c127a23	0.0089402525
107	0xbb7cb6c4	-0.0038561085
108	0x3c85fbeb	0.016355475
109	0x3c82ca66	0.015965652
110	0x3c2fb296	0.010723731
111	0x3ac90eb5	0.0015339466
112	0xbba18df0	-0.0049302503
113	0x3c19381c	0.009351756
114	0x3c64d50d	0.013966811
115	0x3cabb4ef	0.0209603
116	0xbb1ef08f	-0.002425227
117	0x3cb5f918	0.022213504
118	0x3c1639b6	0.009169033
119	0x3c6ea719	0.014566206
120	0x3cb0eefb	0.02159833
121	0x3c9301cc	0.017945193
122	0xbb0c5146	-0.0021410747
123	0x3cab6d95	0.020926276
124	0x3b9660fd	0.0045891986
125	0x3c889a3c	0.016675107
126	0x3c047509	0.008084544
127	0xbb8cec72	-0.0043006474
128	0x3cff5475	0.031168202
129	0x3c9c68ce	0.019092944
130	0x3c20173c	0.0097711645
131	0x3c802074	0.015640475
132	0xbabb96c6	-0.0014311902
133	0x3cb74a2b	0.022374233
134	0x3b84d11f	0.0040532495
135	0x3b937fb0	0.0045013055
136	0x3aaabf84	0.0013027047
137	0x3c15737b	0.009121771
138	0x3c639dcd	0.013892603
139	0x3cc9df4d	0.02464261
140	0x3cab6c53	0.020925676
141	0x3d0f4a50	0.03498298
142	0x3c08e8d9	0.008356296
143	0x3c09d318	0.008412145
144	0x3c689239	0.014195018
145	0x3c67f1ff	0.014156817
146	0x3c851737	0.016246421
147	0x3cbef5d0	0.023310572
148	0xbb9ab57b	-0.004721341
149	0x3cb8174a	0.022472043
150	0x3c01bbad	0.007918281
151	0x3cc4eb62	0.02403802
152	0x3c530dd2	0.012881713
153	0x3c3d9351	0.0115707675
154	0x3c83a583	0.016070133
155	0xbbb146a4	-0.0054100323
156	0x3cccd2ce	0.025002863
157	0xbc245e52	-0.010032253
158	0x3ce3dd99	0.027815627
159	0x3c8121ef	0.015763251
160	0x3c05fae3	0.008177492
161	0xbc12e577	-0.0089658415
162	0x3c3063de	0.010765998
163	0x3cb4e469	0.02208157
164	0x3d0019f4	0.03127475
165	0x3c016491	0.007897512
166	0x3c8ef01e	0.017448481
167	0x3c82fa90	0.015988618
168	0x3b514f83	0.0031938262
169	0x3c3e208b	0.011604439
170	0x3b76e32f	0.0037672033
171	0xbb970b5a	-0.0046095075
172	0xbcc230c6	-0.023704898
173	0x3b92f4e4	0.0044847596
174	0xbccf452d	-0.02530154
175	0x3c486c61	0.012232871
176	0xbc56b040	-0.013103545
177	0x3cb23602	0.021754269
178	0x3cc3af60	0.023887336
179	0x3c73cc76	0.01488029
180	0x3c6a187b	0.014288063
181	0x3c1a338e	0.009411706
182	0xbaf4f8d5	-0.001868988
183	0x3bb1beff	0.00542438
184	0x3c2608d6	0.010133943
185	0x3bdf9168	0.0068227537
186	0x3c97d8ab	0.018535933
187	0x3b452538	0.0030081999
188	0x3c448353	0.011994201
189	0x3cb56b03	0.022145754
190	0x3c29687b	0.0103398515
191	0x3c68e798	0.0142153725
192	0x3c5b9575	0.013402333
193	0x3c7ee619	0.015557789
194	0x3b8c4320	0.004280463
195	0x3c1bac62	0.0095015485
196	0x3c2d3c70	0.010573491
197	0x3c6e5d69	0.014548638
198	0x3c97533f	0.018472312
199	0x3cc4fa8d	0.024045253
200	0xbbf565d6	-0.0074889464
201	0x3d041d25	0.032254357
202	0x3c5ac21a	0.0133519415
203	0x3c5bc148	0.013412781
204	0xbb4d02f0	-0.0031282268
205	0x3ccd20db	0.02504008
206	0x3cde8dc2	0.027167205
207	0x3be751c8	0.0070593096
208	0x3bcd1f6f	0.0062598507
209	0x3c50fdff	0.01275587
210	0x3c2f5ff2	0.0107040275
211	0xbbc439b3	-0.0059883236
212	0x3c7b5192	0.015339272
213	0x3c6d0ae5	0.0144679295
214	0xbc09a9f4	-0.008402336
215	0xbbf07ad0	-0.007338859
216	0xbbf49abf	-0.0074647362
217	0x3cb3dd7b	0.021956196
218	0xba39d45a	-0.0007088833
219	0x3a5f4405	0.00085169106
220	0x3c464fcb	0.012103985
221	0x3c976935	0.018482784
222	0x3ca861a3	0.02055437
223	0x3c9ee9d8	0.019398615
224	0x3bb2657f	0.005444228
225	0x3c0af0c9	0.008480259
226	0x3cc693b6	0.024240356
227	0xbb9dca8d	-0.0048154057
228	0x3ca22d04	0.019796856
229	0x3c692597	0.0142301535
230	0xbc55b3e2	-0.013043376
231	0xbb91866c	-0.004441073
232	0x3c165f48	0.00917799
233	0x3c780e4b	0.015140126
234	0x3c25dfda	0.010124171
235	0x3c410a2c	0.01178221
236	0x3c70c891	0.014696256
237	0x3c5b6a77	0.013392082
238	0x3ce930dc	0.02846568
239	0x3c2dc0cf	0.010605051
240	0x3afe7ae4	0.0019415286
241	0x3bfa006a	0.007629444
242	0x3ce4f94a	0.027950902
243	0x3c95b1f4	0.018273331
244	0x3c1de38a	0.009636769
245	0x3c378a67	0.011202431
246	0x3a99f730	0.0011746641
247	0x3c34c0f7	0.0110323345
248	0xbb6064e9	-0.0034239835
249	0x3c13900d	0.009006512
250	0x3c495cc9	0.012290188
251	0xb93495b8	-0.00017221912
252	0x3d0443d9	0.032291267
253	0x3c85d117	0.016335053
254	0x3c855152	0.016274128
255	0x3c34f9e4	0.011045907

network_body._body_endoder.seq_layers.2.weight f4 [256, 256]
0	0xbc776999	-0.01510086
1	0xbd6c8881	-0.057747368
2	0xbbaa1ef1	-0.005191677
3	0xbd77774f	-0.060416516
4	0xbe04bd6a	-0.1296288
5	0xbd0dd88d	-0.034630347
6	0xbda99396	-0.08280103
7	0xbd16043a	-0.036625125
8	0x3df1e12c	0.11810526
9	0xbca1c7d6	-0.01974861
10	0xbd17accc	-0.037030026
11	0xbd373d02	-0.044735916
12	0x3cb751e3	0.022377914
13	0x3d84cdc6	0.06484561
14	0xbce0cf3a	-0.027442563
15	0xbd96eac9	-0.073690005
16	0x3da968bc	0.082719296
17	0xbc511b80	-0.012762904
18	0xbddd4e8e	-0.10805999
19	0xbd295c73	-0.041347932
20	0x3dddf5c9	0.108378954
21	0xbc9a4e27	-0.018836094
22	0xbd6c4e5d	-0.05769192
23	0xbd363b85	-0.044490356
24	0xbda62413	-0.08112349
25	0x3d8fe635	0.070263304
26	0x3d3bb2ce	0.04582482
27	0xbd2ecb97	-0.042674627
28	0x3d97aee9	0.07406408
29	0x3bece690	0.0072296336
30	0xbda47810	-0.080307126
31	0x3d2642fe	0.040591232
32	0xbcfe9656	-0.031077545
33	0x3cf077d2	0.02935401
34	0x3c968756	0.01837508
35	0xbdb252ed	-0.08707223
36	0x3d5dc919	0.05414686
37	0x3dabe5ff	0.08393478
38	0xbca060d5	-0.019577423
39	0x3a31abcc	0.0006777614
40	0x3ba1c5d9	0.0049369154
41	0xbc96c8e5	-0.01840634
42	0x3d675886	0.056480907
43	0x3c77d72e	0.015126986
44	0xbce31510	-0.027720004
45	0xbdc9f354	-0.09860864
46	0xbb60904f	-0.0034265702
47	0xbcde3c6e	-0.027128424
48	0x3df0a708	0.11750609
49	0xbdb52024	-0.08844021
50	0x3ddeb81a	0.10874958
51	0xbdb35a13	-0.08757415
52	0xbd1dca38	-0.03852293
53	0xbe19d410	-0.15022302
54	0xbde1baad	-0.11021934
55	0x3cba0101	0.022705557
56	0xbc81b801	-0.01583481
57	0xbba3b7eb	-0.00499629
58	0x3d74c8fc	0.059761986
59	0xbd9f5066	-0.07779007
60	0x3d162f9f	0.03666651
61	0xbc8f569a	-0.01749735
62	0xbd90110f	-0.07034504
63	0x3d31f58c	0.043447062
64	0xbd855c2f	-0.06511723
65	0xbb68c926	-0.0035520284
66	0xbe225cbf	-0.15855692
67	0x3c7645fb	0.015031333
68	0xbbfd05bf	-0.0077216323
69	0xbe224b67	-0.15849076
70	0xbe01d90b	-0.12680452
71	0x3d7a11b6	0.061052047
72	0xbd6784ee	-0.056523256
73	0xbdfd3cb7	-0.12365096
74	0xbe2bcd9d	-0.16777654
75	0xbdb7b697	-0.08970373
76	0xbd22262d	-0.03958719
77	0x3d078ee0	0.03309524
78	0xbd1dd45f	-0.03853261
79	0xbdac5044	-0.08413747
80	0xbd0f01e6	-0.03491392
81	0xbd13ae0d	-0.03605466
82	0xbd5108d0	-0.051033795
83	0x3a42184a	0.0007404132
84	0xbdba6550	-0.09101355
85	0x3d36f144	0.044663683
86	0x3aecbe9d	0.0018062178
87	0x3d5d0f9e	0.05396997
88	0xbdd6b60c	-0.104839414
89	0xbd452de9	-0.048139486
90	0x3c1c5697	0.009542129
91	0x3d820e36	0.06350367
92	0x3d1261d4	0.035737827
93	0x3d57c717	0.0526801
94	0xbb1dc79c	-0.0024075275
95	0xbc8cf998	-0.01720886
96	0x3d15d08b	0.036575835
97	0x3d2e0079	0.04248092
98	0x3d20bf5b	0.03924499
99	0xbc3780a5	-0.011200105
100	0x3d5f470c	0.054511115
101	0xbc2232db	-0.00989982
102	0xbd50c2ee	-0.05096715
103	0x3c41e049	0.011833259
104	0xbd15985b	-0.03652225
105	0xbd73e790	-0.059547007
106	0x3dd54cf1	0.10415066
107	0x3d5f19b9	0.05446789
108	0x3e0182c7	0.12647544
109	0xbd859ddf	-0.06524252
110	0xbd14ae90	-0.03629929
111	0xbcc56ad8	-0.024098799
112	0xb973c01a	-0.0002324585
113	0x3c1f35b9	0.009717398
114	0x3ca98436	0.020692926
115	0xbd0b02c9	-0.033938203
116	0xba9ef189	-0.0012126426
117	0x3cbfdf18	0.02342181
118	0xbd3c42dd	-0.045962203
119	0xbd3ae07f	-0.045624252
120	0xbcd14767	-0.025546743
121	0xbc6b0b7f	-0.014346003
122	0x3c4ffd94	0.012694735
123	0xbd4781e7	-0.04870787
124	0xbdb5d591	-0.08878625
125	0x3c956e17	0.018240971
126	0x3e254f39	0.16143502
127	0xbd8a8fca	-0.06765707
128	0xbc87d5be	-0.016581412
129	0x3e17e235	0.14832385
130	0x3cbb2a02	0.02284718
131	0xbdb83ec6	-0.08996348
132	0x3d860b47	0.0654512
133	0xbd0e5df0	-0.034757555
134	0xbd1c4d2b	-0.03815953
135	0x3d22e123	0.03976549
136	0xbbb5882b	-0.005539914
137	0xbcdff8a3	-0.027340239
138	0x3b99f95d	0.004698916
139	0xba8b774c	-0.0010640412
140	0x3dc32d52	0.095301285
141	0x3a9160b0	0.0011091437
142	0xbc9f0921	-0.019413533
143	0x3c6cbc6b	0.014449219
144	0x3d07d1b7	0.033158984
145	0x3d1b36d2	0.037894078
146	0xbcd90bd8	-0.026494905
147	0xbd87367c	-0.06602189
148	0xbc059eb0	-0.00815551
149	0x3b7b798c	0.0038372008
150	0xbd3cc2ab	-0.046084087
151	0xbc21ab9f	-0.009867578
152	0xbd798565	-0.06091823
153	0x3d78095e	0.06055581
154	0xbdbcf63c	-0.09226653
155	0xbdeffd36	-0.11718218
156	0x3d072ed7	0.033003654
157	0x3cd37132	0.025810812
158	0x3cc972e5	0.024590919
159	0x3c5d0852	0.013490753
160	0x3d0fc132	0.035096355
161	0x3e0eb7f3	0.13937359
162	0x3d8b22d7	0.067937545
163	0x3d1c454b	0.03815202
164	0x3dafbc01	0.08580781
165	0x3cf9e1f8	0.030503258
166	0xbd1104a8	-0.03540483
167	0xbcec906d	-0.028877461
168	0x3e012827	0.12612973
169	0x3d5a1a87	0.053247955
170	0x3d2c907b	0.042129975
171	0xbde2271c	-0.11042616
172	0x3cbbd9cc	0.022931002
173	0xbd29e7f9	-0.041480992
174	0xbd3556ed	-0.044272352
175	0x3da33e78	0.07970899
176	0xbcffae29	-0.031210976
177	0xbcd8ead8	-0.02647917
178	0xbdd121d1	-0.10211528
179	0xbb501282	-0.0031749313
180	0x3d8e1aa2	0.069386736
181	0xbc3983ac	-0.011322897
182	0x3d8b4fbc	0.068023175
183	0xbbe4a45f	-0.0069776024
184	0x3a00b913	0.00049103907
185	0xbd474f96	-0.048659883
186	0x3cf58cfc	0.029974453
187	0xbc067d00	-0.008208513
188	0x3df71b04	0.120657
189	0xbdc62cd0	-0.09676516
190	0x3d248ef1	0.040175382
191	0x3d92972a	0.071577385
192	0x3d176d78	0.036969632
193	0xbd6dfb03	-0.05810071
194	0xbd229a82	-0.03969813
195	0x3cdd13fb	0.026987066
196	0xbda93f65	-0.08264045
197	0xbd196201	-0.03744698
198	0xbe050e5d	-0.1299376
199	0x3e097441	0.13423254
200	0x3d8eb9e6	0.06969051
201	0xbe02781b	-0.12741129
202	0xbc991bde	-0.018690046
203	0x3d320529	0.043461952
204	0x3d86ec9f	0.06588101
205	0xbd89cbec	-0.06728348
206	0x3d69ca93	0.057077955
207	0xbe00a3ce	-0.12562487
208	0x3d369a05	0.04458048
209	0xbb78742b	-0.0037911038
210	0xbd8fe27a	-0.07025619
211	0x3c108fe9	0.008823373
212	0x3db022d3	0.08600392
213	0xbd88f527	-0.06687384
214	0x3d99257e	0.07477854
215	0xbc35a3a4	-0.011086378
216	0x3d0d69df	0.034524795
217	0xbdaf085b	-0.085465156
218	0x3cb3d501	0.021952154
219	0x3e110537	0.14162146
220	0x3d2139b3	0.039361667
221	0x3d587af8	0.052851647
222	0xbc80365c	-0.01565092
223	0x3c564c65	0.013079737
224	0xbc8d25ff	-0.017230032
225	0xbd80972b	-0.06278833
226	0x3e186bff	0.14884947
227	0xbd8c2e4f	-0.0684477
228	0xbe0c7752	-0.13717392
229	0xbd0d45a4	-0.034490243
230	0x3d34ec2b	0.04417054
231	0x3d15292e	0.036416225
232	0xbd3aebc3	-0.045634996
233	0x3ce0b6a8	0.027430847
234	0x3dcd352b	0.100199066
235	0xbcd42c5e	-0.025900062
236	0x3d3a5c79	0.045498345
237	0xbd0dc35a	-0.03461013
238	0xbd87b549	-0.06626374
239	0x3d281c99	0.041042898
240	0x3d123f5a	0.035704948
241	0x3cc77ce5	0.024351547
242	0xbd59dc57	-0.053188648
243	0x3d8e85b8	0.069590986
244	0xbddcfe00	-0.10790634
245	0xba002949	-0.00048889645
246	0xbde03a44	-0.10948613
247	0x3b633e60	0.003467463
248	0xbca6e638	-0.020373449
249	0x3d612bca	0.0549734
250	0xbdbc563f	-0.09196138
251	0xbcf6429c	-0.030061059
252	0xbbbb77c9	-0.0057210666
253	0xbda04afe	-0.078268036
254	0x3d3df212	0.046373434
255	0x3d8d879c	0.06910631

network_body._body_endoder.seq_layers.2.bias f4 [256]
0	0xbcabc29b	-0.020966819
1	0x3c8f5acf	0.017499356
2	0xbac38a37	-0.001491851
3	0x3c8956e8	0.016765073
4	0x3c7bba01	0.015364171
5	0x3a136778	0.0005623023
6	0xbb8b55ac	-0.0042521562
7	0x3b66ac90	0.003519807
8	0x3c0846e1	0.00831768
9	0x3bee7ce5	0.007278072
10	0xbba38d32	-0.004991197
11	0x3c0d29b7	0.008615903
12	0x3be42161	0.006961987
13	0xbc5c0abb	-0.013430293
14	0x3bcb8769	0.0062112105
15	0x3cbad91c	0.022808604
16	0x38d8b675	0.00010333668
17	0x3b319f25	0.0027102914
18	0x3c1d0dbc	0.009585794
19	0xbcae2295	-0.021256724
20	0x3ca2fae0	0.019895017
21	0xbc0ebffc	-0.008712765
22	0x3c90e0a5	0.017685244
23	0x3c44e9b0	0.012018606
24	0xbc995c21	-0.018720688
25	0xb7531798	-1.2582073e-05
26	0x3c7def8c	0.015499007
27	0x3cfa66ab	0.030566534
28	0x3c09dddf	0.008414715
29	0x3ca10b0c	0.019658588
30	0x3c0511f2	0.008121954
31	0xbbb49b39	-0.005511668
32	0x3c23b8f4	0.009992827
33	0xbbcfb164	-0.0063382853
34	0x3c5fb7f3	0.013654697
35	0x3cb9a694	0.022662438
36	0x3beceae2	0.0072301487
37	0xbb8580b6	-0.0040741814
38	0x3c9670a8	0.018364266
39	0x384753b8	4.7523266e-05
40	0x3c738044	0.014862124
41	0x3bbf5b97	0.005839776
42	0xbc04905e	-0.00809106
43	0x3c6127cd	0.013742399
44	0xbc0319da	-0.008001769
45	0x3c372b35	0.011179735
46	0x3c1e398d	0.009657276
47	0x3c4b70e0	0.012417048
48	0x3c75f59a	0.015012169
49	0xbbe3ddc0	-0.006953925
50	0x3c59d6e3	0.013295862
51	0xbc9ad5ad	-0.018900717
52	0x3c6e84e1	0.014558048
53	0xbc47d01f	-0.012195616
54	0xbc167119	-0.009182238
55	0x3c4ed4e9	0.012624004
56	0xbc49c6e1	-0.012315483
57	0x3c22dc23	0.00994018
58	0x3acfefde	0.0015864333
59	0x3a536ef0	0.0008065542
60	0x3c1b9b38	0.009497456
61	0x3caf88b8	0.021427497
62	0x3c1cb3dd	0.009564367
63	0x3c1841ca	0.009293029
64	0x3c86f7a3	0.016475504
65	0x3be28d31	0.006913804
66	0x39900271	0.0002746764
67	0x3b253a4b	0.0025211747
68	0x3bad9083	0.005296768
69	0x3bddd880	0.0067701936
70	0xbbd59123	-0.006517546
71	0x3ca85f28	0.020553187
72	0x3a6c403f	0.0009012259
73	0xbbfbb872	-0.0076818997
74	0x3c318475	0.010834803
75	0xbc367d2a	-0.01113824
76	0xbbb84d44	-0.005624445
77	0xbbf896a6	-0.007586318
78	0x3c7518f6	0.014959564
79	0x3b869fdd	0.0041084127
80	0x3bd518aa	0.0065031843
81	0x3ce5fed4	0.028075613
82	0x3c10c1b4	0.008835245
83	0xbcbd254e	-0.023089077
84	0x3c8ebed4	0.017424978
85	0x3c2bfde3	0.010497543
86	0x3c911c09	0.017713564
87	0x3c3d6ed4	0.011562068
88	0x3ba5eb67	0.0050634625
89	0xbbb1dae1	-0.0054277037
90	0x3bd88fd0	0.0066089407
91	0x3ccb1d4f	0.024794249
92	0x3c4928c7	0.0122777885
93	0x3be967aa	0.0071229534
94	0xbc3e8f22	-0.011630805
95	0xbc503586	-0.0127080735
96	0xbabf8d58	-0.0014614267
97	0xbc8c6bea	-0.017141301
98	0x3c6a8a8c	0.014315259
99	0x3c656326	0.01400069
100	0xbca84a24	-0.020543166
101	0x3c457cdc	0.012053695
102	0xbcc5ac67	-0.02413006
103	0xbc3d8b1b	-0.01156881
104	0x3c7c8cd7	0.015414438
105	0x3bdecc20	0.006799236
106	0x3c7f5802	0.015584948
107	0x3bddebcb	0.0067724935
108	0xbcd02881	-0.025409939
109	0xbd016964	-0.03159465
110	0x3c892aa2	0.016743962
111	0xbc06d348	-0.008229084
112	0x3afc7ee6	0.0019263893
113	0x3ca7ed22	0.020498816
114	0xbb9c6902	-0.00477326
115	0x3c44c239	0.012009197
116	0xba9aa986	-0.001179979
117	0xbc8330d9	-0.016014503
118	0x3c9bddbb	0.019026628
119	0x3be90b07	0.0071119103
120	0x3cdc78ca	0.026913065
121	0x3c7d0d15	0.0154450135
122	0xbc98442f	-0.0185872
123	0x3c3a8212	0.01138355
124	0xbb26e69c	-0.0025467044
125	0x3c332798	0.010934733
126	0x3c1f0f36	0.009708216
127	0x3c98423d	0.018586272
128	0x3c810224	0.015748091
129	0x3ca7020c	0.020386718
130	0x3be9d229	0.0071356487
131	0x3c2d1452	0.010563927
132	0xbc5cec61	-0.0134840915
133	0xbc5ed07e	-0.013599513
134	0xbc3c8730	-0.011506841
135	0x3c87bc14	0.016569175
136	0xbaac4e90	-0.0013145972
137	0xbcdff715	-0.027339498
138	0x3b5f964a	0.003411668
139	0x3b8bbd4f	0.0042645107
140	0x3c267094	0.010158677
141	0x3b681242	0.0035411273
142	0xbc231651	-0.009954051
143	0x3acd830f	0.0015679317
144	0x3c90c59a	0.017672349
145	0xbbdfcf3f	-0.0068301256
146	0xbc775449	-0.015095779
147	0x3c625df1	0.013816343
148	0x3cbd781a	0.023128558
149	0xbb362a64	-0.0027796263
150	0x3cd026ae	0.025409069
151	0xbc26e867	-0.010187245
152	0x37efa7a6	2.8569088e-05
153	0xbbcae67c	-0.0061920267
154	0xbc112538	-0.008858971
155	0x3c7bb652	0.015363293
156	0xbc1272bf	-0.00893849
157	0x3d01b591	0.031667296
158	0x3c4853a0	0.012226969
159	0x3c9722a8	0.018449143
160	0xbb40d701	-0.0029425027
161	0x3c4bfd94	0.012450594
162	0x3b821acb	0.003970479
163	0xbb7ac61f	-0.0038265062
164	0x3b1a717d	0.002356618
165	0x3c4fcba0	0.012682825
166	0x3ca1a814	0.019733466
167	0x3c0b8f9c	0.008518126
168	0x3bbdcf4d	0.0057925344
169	0x3ccf5252	0.025307808
170	0x3be1f5b1	0.006895744
171	0x3c124b48	0.008929081
172	0x3c06a94f	0.008219077
173	0x3c735171	0.01485096
174	0x3bed6c4c	0.007245576
175	0x3a618c2a	0.0008603955
176	0xbb0b4b5c	-0.0021254634
177	0xbb988017	-0.0046539414
178	0x3c753ae2	0.014967652
179	0xbcd938a5	-0.026516268
180	0x3baac308	0.005211238
181	0xbadbcfb5	-0.0016770276
182	0xbbd246f4	-0.0064171497
183	0xbc1f0f4a	-0.009708235
184	0xbc8f8852	-0.017521057
185	0xbc83f6b0	-0.01610884
186	0xbad9013c	-0.0016556154
187	0x3ca69b75	0.0203378
188	0xbb91775d	-0.004439278
189	0x3c5da2ac	0.0135275535
190	0xbb4d3ffe	-0.003131866
191	0x3cb44aba	0.022008289
192	0xbb83b552	-0.004019418
193	0x3c8ffe9c	0.017577462
194	0xbbe28fe8	-0.0069141276
195	0x3b4180b5	0.0029526178
196	0xbcd1425a	-0.025544334
197	0x3c92ddc0	0.017928004
198	0x3bf8e157	0.007595222
199	0xbc0be684	-0.008538846
200	0xba8d5240	-0.0010781959
201	0x3cb79bcd	0.022413159
202	0xbc867666	-0.016413879
203	0x3c5f16cb	0.013616274
204	0xbc78338b	-0.015149008
205	0xbcaefe1b	-0.021361401
206	0x3c4260e8	0.011863925
207	0xb9891b02	-0.000261508
208	0x3cbb2925	0.022846768
209	0xba74a76e	-0.00093328103
210	0x3ce10f37	0.027473075
211	0xba83c006	-0.0010051734
212	0xbc8e89d1	-0.0173997
213	0x3c211be9	0.009833314
214	0x3c1eb8fe	0.00968766
215	0xbc543619	-0.012952351
216	0x3b238c93	0.0024955615
217	0xbb8adcae	-0.004237733
218	0x3c6999e9	0.014257886
219	0x3c47f413	0.012204188
220	0xbb98cbfb	-0.0046629882
221	0xbc1a72f2	-0.009426819
222	0x3c6524bd	0.01398581
223	0xbbeda73b	-0.0072526014
224	0xbbee4be2	-0.0072722295
225	0x3c620216	0.013794443
226	0x3c197cc3	0.009368124
227	0x3caff9ae	0.021481361
228	0xbc80529e	-0.015664395
229	0x3ad19d81	0.0015992374
230	0xbc262906	-0.010141617
231	0x3cde36ff	0.027125834
232	0x3c4b3c2f	0.012404486
233	0xbab867e8	-0.0014069052
234	0xbcdfbd8e	-0.027312066
235	0x3bd93433	0.006628537
236	0x3c8de617	0.01732163
237	0x3c632c5b	0.013865556
238	0x3c8996a6	0.016795468
239	0xbc9b1c99	-0.018934535
240	0xbc6dada9	-0.014506736
241	0x3bd74aab	0.0065701804
242	0xba9206b8	-0.0011140918
243	0xbc1d8e17	-0.009616396
244	0x3c8b46e2	0.017001573
245	0xba0a7d09	-0.0005282914
246	0x3bd27797	0.0064229476
247	0x3c68147b	0.014165039
248	0x3b81f6a0	0.0039661676
249	0x3c0df589	0.008664497
250	0xbc78dbd4	-0.01518913
251	0x3c881ec9	0.016616242
252	0xbb63cdb2	-0.0034760055
253	0xbc2c3d99	-0.010512733
254	0x3bebc577	0.0071951705
255	0x3ca4c552	0.02011362

action_model._continuous_distribution.log_sigma f4 [1, 3]
0	0x3ba83469	0.005133201
1	0x3bc41df5	0.0059850165
2	0x3c4757ba	0.012166912

action_model._continuous_distribution.mu.weight f4 [3, 256]
0	0xbc58aed7	-0.013225279
1	0xbc62362f	-0.013806864
2	0x3c849f3e	0.016189214
3	0x3b6617ec	0.0035109473
4	0xbc3a0301	-0.011353255
5	0x3c7032d7	0.014660559
6	0x3c96b560	0.018397033
7	0x3d163b1e	0.036677472
8	0x3c95db65	0.018293092
9	0x3cfc5d75	0.030806283
10	0xbca75261	-0.020425024
11	0xbaa722a6	-0.0012751415
12	0xbcb85c37	-0.022504909
13	0x3b153b5f	0.0022770984
14	0xbc815680	-0.015788317
15	0x3bc14d1e	0.0058990857
16	0x3c6bca8b	0.014391552
17	0x3b7e21e8	0.0038777534
18	0xba93ab7f	-0.001126632
19	0xbb87f531	-0.004149102
20	0xbaad0a69	-0.0013201955
21	0x39937842	0.00028127624
22	0xbc0f9288	-0.008762963
23	0xbc239e60	-0.00998649
24	0xbb051bd0	-0.0020310767
25	0x3c160f7a	0.009158963
26	0xbaf7a426	-0.0018893525
27	0x3b8f5219	0.0043738005
28	0x3b17a033	0.0023136258
29	0xbc453b84	-0.012038115
30	0x3c313ce2	0.010817738
31	0xbbd18b14	-0.006394753
32	0xb98da33e	-0.0002701524
33	0xbc2e6d43	-0.010646167
34	0xbc2f90d6	-0.010715684
35	0xbbc66f49	-0.0060557467
36	0x3c077612	0.008267896
37	0xbc5f4df6	-0.013629427
38	0x3c0633f1	0.008191095
39	0xbbdd7b7d	-0.0067591057
40	0x3c807e1a	0.01568513
41	0xbc2b0385	-0.010437851
42	0x3a2e4242	0.00066474464
43	0xbc7258cb	-0.014791678
44	0xbaf5ebd0	-0.0018762294
45	0xbcb4b781	-0.022060158
46	0x3c9429ed	0.018086398
47	0xbcb94f04	-0.022620685
48	0x3c46fef5	0.012145747
49	0x3c882e34	0.016623594
50	0x3c2c1e5f	0.010505288
51	0xbb6fc458	-0.0036585536
52	0xbaacb8fa	-0.0013177686
53	0x3bf8f71c	0.007597817
54	0x3a5d97e7	0.0008453116
55	0xbc7162b5	-0.014733006
56	0xbcc53581	-0.024073364
57	0x3c79457e	0.015214322
58	0xbbef9745	-0.007311734
59	0xbcb5ee46	-0.022208344
60	0xbadedd87	-0.0017003276
61	0xbc95fd04	-0.018309124
62	0x3b9f0d9d	0.0048539178
63	0xbc0068ff	-0.007837533
64	0x3a771fb1	0.00094270246
65	0xb9aa01ad	-0.00032426175
66	0x3c88d645	0.016703734
67	0xbc790faf	-0.015201493
68	0xbc0e6791	-0.008691684
69	0xbc211bb1	-0.009833262
70	0x3be2595c	0.006907625
71	0x3b93584d	0.0044966103
72	0x3c59591d	0.013265875
73	0x3bb80bc6	0.005616638
74	0x3c6435b5	0.01392882
75	0xb9f9e80e	-0.00047665875
76	0x3b8ff931	0.0043937196
77	0x3d139324	0.036028996
78	0x3c030fab	0.007999341
79	0x3c7c015e	0.015381185
80	0x3ccbdeb4	0.024886467
81	0xbab63e58	-0.0013904078
82	0x3c842581	0.016131165
83	0x3c557a83	0.013029697
84	0x3ca3d3f5	0.01999853
85	0xbc1fa539	-0.009743982
86	0x3c41088c	0.011781823
87	0x3aaa7c06	0.0013006933
88	0xbccace1f	-0.02475649
89	0xbc04ebd2	-0.008112865
90	0x3b283712	0.002566759
91	0xbbd1e55a	-0.0064055147
92	0x3aa6205d	0.001267444
93	0xbba31f51	-0.0049780984
94	0x3bc19e8d	0.0059087933
95	0x3c3abcc2	0.011397542
96	0xbc8f73b9	-0.017511236
97	0x3bc7bde4	0.006095635
98	0x3d04a5c0	0.032384634
99	0x3c2bd1aa	0.0104869995
100	0xbc159b8d	-0.0091313245
101	0xbb9bc379	-0.0047535268
102	0xbc33ec98	-0.010981701
103	0xbb8a2ae3	-0.0042165383
104	0xbbdaa53f	-0.006672531
105	0xbb47e182	-0.0030499403
106	0xbbd865db	-0.006603939
107	0xbc72a370	-0.014809474
108	0x3bc3878a	0.0059670852
109	0x3b3f852e	0.0029223668
110	0xbd146bdd	-0.03623568
111	0x3cd661c5	0.026169667
112	0xbb33026d	-0.0027314678
113	0xbc629d5c	-0.013831463
114	0x3c72ead2	0.014826493
115	0x3c993b00	0.018704891
116	0xbc14d70b	-0.009084473
117	0x3bcd6a6e	0.006268791
118	0x3b8e48a8	0.0043421574
119	0xbd074ca0	-0.03303206
120	0x3c72f21a	0.014828229
121	0xbc19ccc3	-0.009387198
122	0xbaf2ff65	-0.0018539248
123	0xbcd9653a	-0.026537526
124	0x3c51d12d	0.012806219
125	0x3c015515	0.00789382
126	0xbbbaf0fc	-0.005704997
127	0x3b553ee9	0.0032538718
128	0xbc37509e	-0.011188654
129	0x3ca946ce	0.020663645
130	0xbc2bf4d7	-0.010495386
131	0xba3442a3	-0.0006876385
132	0xba00f43e	-0.00049192074
133	0x3aa74589	0.0012761812
134	0x3c71305a	0.014721001
135	0xba7107bb	-0.00091945723
136	0xbca934f8	-0.02065514
137	0x3c66f46e	0.0140963625
138	0xbba67bc9	-0.0050806743
139	0xbb818108	-0.0039521493
140	0xbc5782c3	-0.013153735
141	0xbbac78c6	-0.0052634208
142	0x3c2ae474	0.010430444
143	0xbbd3ebaf	-0.0064673047
144	0x3af5daab	0.0018757185
145	0x3ca6d7dc	0.020366602
146	0xb798bd07	-1.8207835e-05
147	0x3b1ecd6b	0.0024231325
148	0xbbd583d5	-0.0065159597
149	0x3c078ff5	0.008274068
150	0x3b9ed30c	0.004846936
151	0xbc441392	-0.011967557
152	0xbc84ef96	-0.016227525
153	0xbbf42a96	-0.0074513657
154	0xb9fa47a0	-0.0004773708
155	0x3bf591cb	0.0074941865
156	0xbb8b594d	-0.004252589
157	0xbb5ab09c	-0.0033369428
158	0xbb41ca6c	-0.0029570116
159	0x3a89c9aa	0.0010512371
160	0x3c6ca09e	0.014442591
161	0xbc574b8e	-0.013140572
162	0xbcb0e02a	-0.021591265
163	0xbc986edd	-0.018607551
164	0x3b61302f	0.0034360995
165	0xbb7fbce2	-0.0039022495
166	0xbc3b284d	-0.011423183
167	0x3c3a3757	0.011365733
168	0x3b860243	0.004089625
169	0xbc53d3a5	-0.012928878
170	0xbd1a8dc4	-0.037732854
171	0x3ca86df7	0.020560248
172	0xbc330a7a	-0.010927791
173	0xbc877299	-0.016534137
174	0x3cc517f5	0.024059275
175	0xbd02cc63	-0.0319332
176	0x3c803b80	0.015653372
177	0xbc66c1f2	-0.014084326
178	0x3c83a7c4	0.016071208
179	0x3b8ea103	0.00435269
180	0x3bb00deb	0.005372753
181	0x3bdc8ea4	0.0067308713
182	0x3be30d41	0.00692907
183	0x3b6c9aa9	0.0036102927
184	0x3cb635ca	0.022242445
185	0xbbbca521	-0.0057569896
186	0x3c889b26	0.016675543
187	0x3c539470	0.012913808
188	0x3cd153e1	0.025552692
189	0x3bccba58	0.0062478
190	0xbc207bec	-0.00979517
191	0x3b56aac2	0.0032755588
192	0xbb4bc5d9	-0.0031093268
193	0xbb8f36c5	-0.0043705427
194	0xba3d826e	-0.00072292134
195	0x3c527559	0.012845361
196	0x3b80e007	0.003932956
197	0x3b6b94fc	0.0035946956
198	0xbc76d0ac	-0.0150644
199	0xbb269206	-0.0025416627
200	0xbb714f91	-0.0036821107
201	0x3ba93cba	0.00516471
202	0xbbc978a8	-0.0061484165
203	0xbcca0948	-0.024662629
204	0x3c010658	0.007875048
205	0xbc55b61f	-0.013043909
206	0xbc91345e	-0.017725166
207	0xbc197a92	-0.009367602
208	0xbc904a84	-0.017613657
209	0x3b847acf	0.0040429602
210	0xbb9e548b	-0.0048318557
211	0xbc3b28b3	-0.011423278
212	0x3bb9721d	0.0056593553
213	0xbb53922f	-0.0032283177
214	0x3ccf2786	0.0252874
215	0x3c386ec6	0.011256879
216	0x3ca9402a	0.020660479
217	0x3c169ef5	0.009193172
218	0xbbc783f6	-0.006088729
219	0x3c036405	0.008019452
220	0xbc270738	-0.010194592
221	0xbbc51dbb	-0.006015507
222	0xbc501697	-0.012700698
223	0x3b9b1d76	0.0047337366
224	0xbb84611e	-0.0040398976
225	0x3c4343e7	0.011918045
226	0x3c2c8bf1	0.0105314115
227	0x398add6f	0.00026486392
228	0xbba14e26	-0.004922646
229	0xbc634795	-0.013872047
230	0x3be2a016	0.0069160564
231	0x3a0fff49	0.00054930575
232	0xbbe2b038	-0.0069179796
233	0x3ca8a977	0.02058862
234	0x3c1c1103	0.00952554
235	0x3cdd3dad	0.027006948
236	0xbc368c37	-0.011141828
237	0xb85a0930	-5.1983807e-05
238	0xb98b5018	-0.0002657182
239	0x3c32a876	0.010904422
240	0x3b56cdcc	0.0032776473
241	0xbc188c99	-0.009310865
242	0xbbd235f9	-0.0064151254
243	0xbcd669f9	-0.026173579
244	0xb7ec4e1e	-2.8169768e-05
245	0x3c04caaa	0.0081049595
246	0x3b0762cc	0.0020658253
247	0x3bd50a8f	0.006501503
248	0xbd05a881	-0.0326314
249	0xbd018117	-0.03161725
250	0xbc7a934a	-0.0152939055
251	0xbc489a5f	-0.012243836
252	0xbc8dc4fa	-0.01730584
253	0xbb1feffe	-0.002440452
254	0xbc5cab49	-0.013468572
255	0x3c360aab	0.011110942

action_model._continuous_distribution.mu.bias f4 [3]
0	0x3a9e68f4	0.0012085722
1	0xbb107e8a	-0.002204808
2	0x3bf09901	0.0073424582

action_model._discrete_distribution.branches.0.weight f4 [7, 256]
0	0xbb9e6ce0	-0.0048347563
1	0xbc53faaa	-0.012938181
2	0x3baa5f7e	0.005199372
3	0xbbd6eb98	-0.0065588467
4	0xbc3bd60c	-0.011464607
5	0x3ac7ecda	0.0015253082
6	0xbbf44368	-0.0074543245
7	0xbb882b43	-0.004155548
8	0xbac98a24	-0.0015376252
9	0xbba17cf8	-0.0049282275
10	0x3b127b70	0.0022351407
11	0xbbd75627	-0.0065715495
12	0x3c12648b	0.008935104
13	0x3c918824	0.017765112
14	0xbbf9b2a3	-0.007620172
15	0x3a8a129d	0.0010534112
16	0x3b595190	0.0033160187
17	0xbc0a4bde	-0.00844094
18	0x3a88c4c5	0.0010434618
19	0x3cbea854	0.023273624
20	0xbc27ad45	-0.010234182
21	0x3c8338fb	0.016018381
22	0xbc78f56e	-0.015195234
23	0xbb5fc02b	-0.003414164
24	0x3c776af9	0.015101188
25	0xbb85f8f8	-0.0040885173
26	0xbcbcced7	-0.023047848
27	0xbc704691	-0.014665262
28	0xbbf3006d	-0.0074158222
29	0xbc6cb43c	-0.014447268
30	0xbc4ee689	-0.012628206
31	0x3b8e1b8c	0.00433678
32	0xbbe718e4	-0.0070525277
33	0xbb16f5e1	-0.002303474
34	0xbc7bbfc7	-0.0153655475
35	0xbc8c169a	-0.017100621
36	0x3b5a960c	0.0033353595
37	0xbb0ff555	-0.0021966298
38	0xbc047adc	-0.008085933
39	0xbba2b8a7	-0.00496586
40	0xba870505	-0.0010301179
41	0xbbb9cd61	-0.005670235
42	0x3b9ac7f6	0.004723544
43	0xbc7dd5d0	-0.015492871
44	0x3b510e10	0.003189925
45	0x3a859f00	0.001019448
46	0x3ad337ff	0.0016114711
47	0xbbed8192	-0.007248112
48	0x3bcaa940	0.006184727
49	0xba36696a	-0.0006958457
50	0xbc7a1405	-0.015263562
51	0x3b9e78fb	0.0048361993
52	0xbb66fd32	-0.003524613
53	0xbb843668	-0.004034806
54	0xb984ceca	-0.00025331072
55	0x3b3db56d	0.002894725
56	0x3cb4670e	0.022021797
57	0xbbb321c5	-0.005466672
58	0xba4a20c2	-0.000771057
59	0xbbf4a6b8	-0.0074661635
60	0xbbb97c12	-0.0056605423
61	0xbc177e78	-0.009246461
62	0xbbc67e52	-0.006057539
63	0xbaf379fd	-0.0018575784
64	0x3bbb80b6	0.0057221306
65	0x3c76f479	0.015072935
66	0xbbebe77a	-0.007199225
67	0xbc433cae	-0.011916323
68	0xbba37fe4	-0.004989611
69	0xbc291e2e	-0.010322137
70	0x3bc90ad7	0.0061353254
71	0xbc87c520	-0.016573489
72	0x3aab1ba9	0.0013054508
73	0x3bf14938	0.0073634647
74	0xbbc16e8f	-0.005903072
75	0xbb3a887b	-0.0028462696
76	0x3ba8a797	0.0051469314
77	0xbb971709	-0.0046109003
78	0x3b9c7b2b	0.004775425
79	0x3c758a83	0.014986637
80	0x3ab41621	0.0013739505
81	0x3c1a2feb	0.009410839
82	0xba63496d	-0.0008670304
83	0x3c387f8b	0.011260877
84	0xbc34589a	-0.011007452
85	0xbabbcb34	-0.0014327527
86	0xbc0df485	-0.008664255
87	0xba536a1d	-0.00080648233
88	0xbc09d744	-0.00841314
89	0xbbd9c219	-0.0066454527
90	0x3a7d7e21	0.0009669979
91	0xbcba93a5	-0.02277548
92	0xba8c7591	-0.001071619
93	0xbbf7c86c	-0.007561734
94	0x3c0498a9	0.008093038
95	0x3c84ebdd	0.01622575
96	0xbc3c1a42	-0.01148087
97	0x3c70f306	0.014706379
98	0xbc444901	-0.011980296
99	0xbbf9dc52	-0.007625141
100	0x3c9623ed	0.018327678
101	0x3a5bef32	0.000838983
102	0x3c44b3f2	0.012005793
103	0x3be9ecb1	0.0071388115
104	0x3b1bf6b9	0.0023798181
105	0xbc53820b	-0.012909423
106	0xbbf1d91e	-0.0073806187
107	0xbb8edead	-0.004360041
108	0x3c27061f	0.0101943305
109	0x3c8cd733	0.017192459
110	0xbb2d7bc9	-0.0026471487
111	0x3cd39040	0.02582562
112	0xbbe540d1	-0.006996252
113	0xbc0269ac	-0.007959764
114	0x3bd69e06	0.0065495996
115	0xbbc2c3a2	-0.0059437314
116	0x3beb936d	0.0071892054
117	0x3beefed6	0.0072935624
118	0xbc9b6a4e	-0.018971588
119	0xb94cf07b	-0.00019544542
120	0xbcb3fe11	-0.021971734
121	0xbbf71e12	-0.0075414265
122	0x3c351642	0.01105267
123	0xbcb38c8a	-0.0219176
124	0x3c75bd30	0.014998719
125	0xbbcbbf3c	-0.0062178653
126	0xbbebbd46	-0.007194194
127	0xbc6778a1	-0.014127881
128	0xbb8290a9	-0.00398453
129	0xbc5902f3	-0.013245332
130	0x3bd4c8dd	0.0064936713
131	0xbc409713	-0.011754769
132	0x3c437bfc	0.011931416
133	0x3aea5f11	0.0017881115
134	0x3b50c245	0.0031854075
135	0xbc65e3de	-0.014031379
136	0xbbb2143b	-0.0054345406
137	0x3c5df950	0.01354821
138	0xbb81ddbe	-0.0039632013
139	0xbbcc68b9	-0.00623807
140	0xbac47aa3	-0.0014990162
141	0x3c0c364e	0.008557869
142	0x3c1d6713	0.009607094
143	0x3b969774	0.0045956913
144	0xbc5e4b91	-0.013567821
145	0x3d0f4f40	0.034987688
146	0x3c9dee2b	0.019278606
147	0xbbaf7e97	-0.005355667
148	0xbc8677f9	-0.01641463
149	0x3af9d015	0.0019059206
150	0xbb6ef40d	-0.0036461384
151	0x3b9d5d57	0.0048023867
152	0xbbc46860	-0.005993888
153	0x3ca64000	0.02029419
154	0x3c010307	0.007874257
155	0xbbb39910	-0.005480893
156	0x3c4286c6	0.011872953
157	0xbc648f94	-0.013950247
158	0xbc650009	-0.013977059
159	0xbc31554f	-0.010823562
160	0x3b56faee	0.0032803374
161	0xbb505562	-0.0031789173
162	0xbbf7654c	-0.0075499173
163	0x3c664da0	0.014056593
164	0xbbb5b568	-0.005545307
165	0xbbbc2424	-0.005741613
166	0xbc2c9a4e	-0.010534836
167	0xbbcd0331	-0.006256484
168	0xbb520266	-0.0032044887
169	0xbc1c468c	-0.009538304
170	0xbc017220	-0.007900745
171	0xbc5e8851	-0.013582305
172	0x3c885187	0.016640438
173	0xbc64c967	-0.013964034
174	0x3c3b2862	0.011423202
175	0x3b5b8c65	0.003350043
176	0x3c59a2a9	0.01328341
177	0x3c7f32a7	0.015576041
178	0x3c2f32f2	0.010693299
179	0x3c9316b3	0.01795516
180	0xbb50f2ee	-0.0031883079
181	0xbc057b89	-0.008147129
182	0x3c5ebe30	0.013595149
183	0xbb39b201	-0.0028334858
184	0x3cf6bdfb	0.030119887
185	0x3be0c290	0.006859131
186	0x3c160941	0.00915748
187	0xbbd6170c	-0.006533509
188	0xb9f121a0	-0.00045992155
189	0xbbd40c82	-0.0064712176
190	0xbb55f3e1	-0.0032646584
191	0xbbc806e5	-0.0061043375
192	0x3c5b351a	0.01337936
193	0xbc9f09e1	-0.01941389
194	0xbb2f5b91	-0.0026757459
195	0x3b8f65c4	0.004376145
196	0x3c19df83	0.009391668
197	0xbbfa6b2d	-0.007642171
198	0xba13f195	-0.00056436035
199	0x3b7cc5fe	0.003857016
200	0xbbe238bd	-0.0069037364
201	0xbc929b39	-0.017896282
202	0xbaf39a7a	-0.0018585466
203	0xb7ef6740	-2.85391e-05
204	0x3c1187c8	0.00888247
205	0x3c1c0865	0.009523486
206	0x381e3fb8	3.772948e-05
207	0xbc14b41a	-0.009076143
208	0xbc29f35a	-0.010372961
209	0x3b25bdac	0.0025290055
210	0xbb7841f0	-0.0037881099
211	0xbbe917e4	-0.0071134437
212	0x3ccee582	0.025255922
213	0x3b409c3e	0.0029390003
214	0x3b7a1925	0.003816196
215	0x3c0fdac2	0.008780183
216	0x3bb9332b	0.0056518517
217	0x3bcc5d08	0.006236676
218	0xbb3f2e32	-0.0029171822
219	0x3c35c1c4	0.011093561
220	0x3b322910	0.002718512
221	0x3bb92faf	0.0056514363
222	0xbc14d4c7	-0.009083933
223	0x3b9226a8	0.0044601746
224	0x3a398d71	0.00070782664
225	0xbb01978c	-0.0019774167
226	0xbb8bf5fb	-0.0042712665
227	0xbc0e0243	-0.008667531
228	0x3c9ff8e8	0.019527867
229	0x3bb4c3c7	0.0055165025
230	0x3c444e30	0.011981532
231	0x390bc905	0.00013330959
232	0xba1d86d9	-0.00060091686
233	0xbb9e1b78	-0.004825052
234	0x3c1ba2fe	0.00949931
235	0x3c04a4cc	0.008095931
236	0xbc9b13fd	-0.01893043
237	0x3b4a5f6b	0.0030879627
238	0x3bbe5160	0.0058080405
239	0x3cd5ac6c	0.026083194
240	0x3c33a911	0.010965602
241	0xbbd1f15a	-0.006406945
242	0x3c550ded	0.013003808
243	0x3c1b422b	0.009476225
244	0xbc83634c	-0.01603856
245	0x3b3b6043	0.0028591312
246	0xbc6a33cd	-0.014294577
247	0xbc486a33	-0.012232351
248	0xbc6ffe76	-0.014648071
249	0xbc1ebc99	-0.00968852
250	0x3c0f356a	0.008740762
251	0xbbaccc6e	-0.0052733934
252	0x3bf83ec8	0.0075758435
253	0x3b5acf75	0.0033387814
254	0x3b5e7e8b	0.0033949937
255	0xbc965bcc	-0.018354319

action_model._discrete_distribution.branches.0.bias f4 [7]
0	0xbc84d4df	-0.016214786
1	0xbca8044b	-0.02050986
2	0xbc793517	-0.0152104115
3	0xbc855802	-0.016277317
4	0xbc888061	-0.016662778
5	0x3cb34a3c	0.021885984
6	0x3cea17f6	0.028575879

onnx::Div_70 f4 [36]
0	0x415481a4	13.281651
1	0x3d228cb5	0.03968497
2	0x414bec9e	12.745268
3	0x3b2ea376	0.0026647723
4	0x3e8c1f12	0.27367455
5	0x3b2ea376	0.0026647723
6	0x419b6675	19.425028
7	0x3b5bd312	0.0033542556
8	0x41918f79	18.195055
9	0x3b2ea376	0.0026647723
10	0x3e8e9f63	0.27855977
11	0x3b2ea376	0.0026647723
12	0x3d6152f5	0.055010755
13	0x3d82195a	0.06352492
14	0x3ee4c7d2	0.446837
15	0x3eeffe93	0.46873912
16	0x3eebfed4	0.46092856
17	0x3ee4c84e	0.4468407
18	0x3fba0cb5	1.4535128
19	0x3ed52b81	0.41634753
20	0x3b2ea376	0.0026647723
21	0x3eba27c2	0.36358458
22	0x3f38a8e6	0.7213272
23	0x3b2f0cb3	0.002671045
24	0x3f309e42	0.6899148
25	0x3e6d4fe6	0.2317501
26	0x3e6d4ffd	0.23175044
27	0x3e774c94	0.24150306
28	0x3e774c7d	0.24150272
29	0x3e0b817d	0.13623615
30	0x3f76b137	0.9636416
31	0x3e924cbe	0.28574175
32	0x3f336b76	0.7008585
33	0x3d228e09	0.039686237
34	0x4136170f	11.38063
35	0x3e93d645	0.28874412
