results/NewTest7/BoxingAgent/BoxingAgent-19200.onnx (onnx, 320604 bytes, 11 tensors)

network_body.observation_encoder.processors.0.normalizer.running_mean f4 [37]
0	0xbfd9b781	-1.7009126
1	0x416d7de1	14.843232
2	0xc177923e	-15.473204
3	0x31148456	2.1612059e-09
4	0x3f03263f	0.51230234
5	0xb0684bae	-8.4508656e-10
6	0x40042ed2	2.0653577
7	0x397acf49	0.00023919078
8	0x4082c723	4.0868087
9	0xb00e485c	-5.176213e-10
10	0x3f039809	0.5140386
11	0xb129ef14	-2.4728637e-09
12	0x3f7d59cf	0.9896516
13	0x3f7da5c7	0.9908108
14	0x00000000	0.0
15	0x3a81b32f	0.000989532
16	0x3afc92d2	0.001926983
17	0x3f7ffc96	0.9999479
18	0x00000000	0.0
19	0x33867ed0	6.262928e-08
20	0x00000000	0.0
21	0x34397026	1.7270267e-07
22	0x3ce056dd	0.02738517
23	0xb7061f0a	-7.994249e-06
24	0x3e09ae1d	0.13445325
25	0x3eff9079	0.4991491
26	0x3f04b3f6	0.518371
27	0x3ef69142	0.48157698
28	0x3eeba328	0.46022916
29	0x3f0a2b03	0.5397188
30	0x00000000	0.0
31	0x3f3a9df1	0.7289725
32	0x3f114d24	0.5675833
33	0x3bb29272	0.0054495865
34	0x416d7de1	14.843232
35	0x41ce44ce	25.783596
36	0x3f012a5e	0.5045527

network_body._body_endoder.seq_layers.0.weight f4 [256, 37]
0	0xbde84237	-0.113407545
1	0xbdc7c50c	-0.097543806
2	0xbe48d65a	-0.19613019
3	0x3e28abb5	0.16471751
4	0x3cb8b089	0.022545116
5	0xbe67353d	-0.22578903
6	0x3dc5af8b	0.09652623
7	0x3e962948	0.2932837
8	0xbde4e6a1	-0.111768015
9	0x3b98d81f	0.0046644355
10	0xbe496fb0	-0.19671512
11	0xbd612150	-0.05496341
12	0x3e2ecb6c	0.17069787
13	0xbed93bfc	-0.42428577
14	0x3e8d48eb	0.27594694
15	0x3d57bc2f	0.0526697
16	0xbe846543	-0.25858507
17	0xbeb69640	-0.35661507
18	0xbdd314cd	-0.10306702
19	0x3dcbc36b	0.099493824
20	0x3decb069	0.11557085
21	0x3cc555bb	0.024088731
22	0x3d160141	0.03662229
23	0x3e54c795	0.2077926
24	0xbaa35f95	-0.0012464399
25	0xbd94b60d	-0.07261286
26	0xbd6ffea4	-0.058592454
27	0x3e05467f	0.13015173
28	0xba6e9c18	-0.0009102239
29	0xbcbfcdd0	-0.023413569
30	0xbaa15830	-0.0012309607
31	0x3d512d36	0.051068507
32	0xbeab1898	-0.334172
33	0xbeae645b	-0.3406094
34	0xbddaf8ae	-0.10691963
35	0x3df7b5ef	0.12095248
36	0x3e7013cf	0.23445056
37	0x3dbdd757	0.092695884
38	0xbec773e9	-0.3895562
39	0x3ddcfa72	0.10789956
40	0x3e02d88b	0.12777917
41	0xbe1019ad	-0.14072295
42	0xbe82c411	-0.25540212
43	0x3de5df25	0.11224202
44	0xbd35fd07	-0.04443076
45	0x3dc59fd4	0.096496254
46	0xbed538f4	-0.41645014
47	0xbe75f34f	-0.24018596
48	0xbe33924f	-0.17536281
49	0xbe1d373a	-0.15353099
50	0x3eb5c0e8	0.35498738
51	0x3ddfa044	0.1091924
52	0xbca597d4	-0.020213999
53	0x3d197b3a	0.037471034
54	0x3d909b61	0.07060886
55	0xbd298965	-0.041390795
56	0x3d984f96	0.07437055
57	0xbd69121f	-0.056902047
58	0xbe9b568c	-0.30339468
59	0xbe627c74	-0.22117788
60	0xbe2b2498	-0.16713178
61	0xbe22fdf7	-0.15917192
62	0xbe84139a	-0.25796205
63	0xbdad2c96	-0.0845577
64	0xbdc75ea4	-0.09734848
65	0x3de05238	0.10953182
66	0xbdd1cfc8	-0.10244709
67	0x3d7640a8	0.060120255
68	0x3c7857b1	0.015157626
69	0xbe89062d	-0.26762524
70	0xbe2d6be8	-0.16935694
71	0x3e1673dd	0.14692636
72	0x3cc4ab8c	0.024007581
73	0x3c2e04a5	0.0106212245
74	0x3d8f1081	0.0698557
75	0xbe4b32f9	-0.19843663
76	0x3c199aa3	0.009375247
77	0x3e493afb	0.19651406
78	0xbe9dd650	-0.3082757
79	0x3aa3eee8	0.0012507113
80	0xbda299a3	-0.0793946
81	0x3da88163	0.082278036
82	0xbe85bdb2	-0.2612129
83	0xbcc18b69	-0.023626046
84	0x3d38488e	0.04499107
85	0x3c9802ed	0.018556083
86	0x3cbf6ac5	0.023366341
87	0xbe39db99	-0.18150176
88	0xbcfaefac	-0.030631863
89	0xbcc5ccb7	-0.024145467
90	0x3cf43999	0.029812621
91	0x3e812602	0.2522431
92	0x3e85f064	0.26159966
93	0x3dfdb2ce	0.1238762
94	0xbe1ab11e	-0.15106627
95	0x3d57243c	0.05252479
96	0xbd2cea1c	-0.04221545
97	0xbd72cb82	-0.05927611
98	0xbebc6f16	-0.36803502
99	0xbe8b3696	-0.27190083
100	0xbd6c0f7c	-0.057631955
101	0xbcd429f1	-0.025898905
102	0x3e0e0f6e	0.13873073
103	0xbd53b7b3	-0.05168886
104	0x3d92caaf	0.07167565
105	0xbcc329a4	-0.023823567
106	0x3e323286	0.17402086
107	0x3e3a63a9	0.1820208
108	0x3ea308ac	0.31842554
109	0x3d9ac44f	0.07556974
110	0xbc3ece97	-0.011645935
111	0x3d37cd2f	0.044873413
112	0xbc4aee02	-0.012385847
113	0x3dcc30c3	0.09970238
114	0x3e0b7a51	0.13620879
115	0xbe336596	-0.1751922
116	0x3e10444f	0.14088558
117	0x3decec10	0.11568463
118	0xbc279743	-0.010228935
119	0xbd4cebab	-0.050029438
120	0x3d4e7f06	0.050414108
121	0x3ecf9cfa	0.4054945
122	0x3d0859d0	0.033288777
123	0xbe592528	-0.2120558
124	0xbe46744e	-0.19380304
125	0x3c88b940	0.016689897
126	0x3eed768c	0.46379507
127	0xbd1cb5ac	-0.038259193
128	0x3d6a1392	0.05714757
129	0xbdcfaee3	-0.10140779
130	0x3dff624e	0.12469922
131	0xbe894e12	-0.26817375
132	0x3e47da8b	0.19516961
133	0x3d2643d8	0.040592045
134	0x3e709031	0.23492505
135	0x3da3a90d	0.07991228
136	0xbdd1ba0d	-0.102405645
137	0x3ef3e2ab	0.4763387
138	0x3e78e192	0.24304798
139	0x3e04b465	0.1295944
140	0xbc73123f	-0.014835893
141	0xbdc44810	-0.09584057
142	0xbea12c14	-0.3147894
143	0xbe04f31c	-0.12983364
144	0xbe8b9dee	-0.27268928
145	0xbe38b21a	-0.1803669
146	0x3ed83e06	0.4223482
147	0xbe15affd	-0.14617915
148	0xbc40d4bf	-0.011769473
149	0xbe6bad7e	-0.23015401
150	0x3da5294a	0.08064516
151	0xbd4110dc	-0.04713522
152	0x3d7304ec	0.059330866
153	0xbdd128c5	-0.10212854
154	0x3e283829	0.16427673
155	0xbe45edef	-0.19329046
156	0xbc9fd8f7	-0.019512637
157	0x3e4dc1e9	0.20093502
158	0x3e140cf9	0.14458074
159	0xbd25206c	-0.040314123
160	0xbe96678e	-0.2937588
161	0x3e5bd255	0.21466954
162	0xbcf939e4	-0.030423112
163	0xbc6d393b	-0.014478977
164	0xbae1aad2	-0.0017217046
165	0x3dc276bb	0.09495302
166	0x3daa4e08	0.083156645
167	0xbc241d9b	-0.010016824
168	0x3e14e304	0.14539725
169	0xbe392d10	-0.18083596
170	0x3ebd9e44	0.3703481
171	0x3da518f3	0.08061399
172	0x3dfed0fa	0.12442203
173	0xbe59789c	-0.21237415
174	0xbe9f1817	-0.31073067
175	0xbe32fed6	-0.17480025
176	0x3e0321c9	0.12805857
177	0x3de1c106	0.110231444
178	0x3e7265ec	0.23671693
179	0x3d79cb92	0.060985155
180	0x3e044552	0.12917069
181	0xbe04b760	-0.12960577
182	0xbe1a8264	-0.15088803
183	0x3d823cb5	0.06359235
184	0xbe56e90f	-0.20987342
185	0xbcb27927	-0.021786286
186	0x3da12623	0.07868602
187	0x3e1a0b22	0.1504331
188	0xbe44388a	-0.19162193
189	0x3df56158	0.119814575
190	0x3d3908d0	0.04517442
191	0xbd9ef6da	-0.07761927
192	0x3d93813d	0.072023846
193	0x3d7edbbc	0.062221274
194	0xbdc35738	-0.0953812
195	0x3e8a955e	0.27067083
196	0x3e524a00	0.20536041
197	0xbe2c827f	-0.16846655
198	0xbd668dba	-0.056287505
199	0x3db96d8a	0.09054096
200	0xbda464ec	-0.08027062
201	0x3e7b7895	0.24557717
202	0xbdf9a4e2	-0.12189652
203	0xbe7abda1	-0.244864
204	0xbd82258c	-0.06354818
205	0x3e836517	0.25663063
206	0x3ea1b734	0.31585085
207	0x3e80eefc	0.2518233
208	0xbeea9e94	-0.4582411
209	0x3e777c22	0.24168447
210	0xbee6b46d	-0.4505953
211	0x3c49462a	0.012284795
212	0x3e679960	0.22617102
213	0x3ed76bd3	0.4207445
214	0x3deac2cd	0.114629366
215	0xbdee5a8b	-0.116383635
216	0x3c367e86	0.011138564
217	0x3e2185cc	0.15773696
218	0x3ddb9c42	0.10723163
219	0x3c73d17f	0.014881491
220	0xbe3199c8	-0.17343819
221	0xbc5c3bd8	-0.013442002
222	0xbde2c6c4	-0.11073068
223	0xbe4170d1	-0.18890692
224	0xbe228250	-0.15870023
225	0xbe3aec8b	-0.18254296
226	0xbe154f74	-0.1458109
227	0xbe2136bd	-0.15743537
228	0x3d4865aa	0.04892508
229	0xbe502d23	-0.20329718
230	0xbe91034c	-0.28322828
231	0x3dbea4ba	0.09308763
232	0x3e70ca33	0.23514633
233	0xbdb8e0a7	-0.09027224
234	0xbd93ec43	-0.07222798
235	0xbd30580d	-0.04305272
236	0xbd8c413f	-0.06848382
237	0x3e38f99c	0.18063968
238	0x3da0980c	0.07841501
239	0x3df4b5bf	0.11948728
240	0x3e309d87	0.17247592
241	0xbde45bf7	-0.111503534
242	0x3ea99c7b	0.33127198
243	0xbd778357	-0.06042799
244	0xbda5fc73	-0.081047915
245	0x3dadfc02	0.08495332
246	0xbe17741b	-0.14790384
247	0x3e026ed0	0.12737584
248	0x3e2333e2	0.1593776
249	0xbd5b3413	-0.05351646
250	0x3e90aa0b	0.28254732
251	0xbd571188	-0.052506953
252	0xb94ecd24	-0.00019722112
253	0x3d835fd6	0.06414764
254	0x3d17245d	0.036899913
255	0xbec59e4a	-0.38597327

network_body._body_endoder.seq_layers.0.bias f4 [256]
0	0xba990cb7	-0.0011676763
1	0xbb4ed39c	-0.0031559234
2	0x3bb893d8	0.0056328587
3	0x3b1dc6f7	0.002407489
4	0x3b9d0e6e	0.00479298
5	0xbb9cfec9	-0.004791115
6	0xbb9f859b	-0.004868222
7	0x3b1499af	0.002267461
8	0xbba769ee	-0.0051090633
9	0x3b138c82	0.002251417
10	0x3b9da621	0.004811064
11	0x3b7d9152	0.0038691354
12	0xbb804b36	-0.003915216
13	0x3ba53dc0	0.0050427616
14	0x3b97a35a	0.0046276273
15	0x3bbb35b8	0.005713191
16	0x3bb359de	0.0054733595
17	0x3b8cce74	0.004297072
18	0x3b74ad1a	0.0037334622
19	0x3ba9044f	0.0051579843
20	0xbbaf7e94	-0.0053556655
21	0x3bb0dc22	0.0053973356
22	0x3bb3ed64	0.0054909457
23	0xbb782944	-0.0037866393
24	0x3bb33924	0.005469458
25	0x3b843e39	0.004035738
26	0x3bbeac07	0.005818847
27	0x3bb8b3a5	0.0056366497
28	0xbb655928	-0.0034995768
29	0x3b7c2337	0.0038473138
30	0xbb5e5ab0	-0.0033928566
31	0x3bb1b770	0.005423479
32	0x3b961f50	0.0045813695
33	0x3b1f885d	0.0024342753
34	0x3bb414fe	0.0054956665
35	0x3bb32278	0.0054667555
36	0xbb921191	-0.0044576605
37	0x3bb47a5c	0.0055077504
38	0x3ba2221e	0.0049479147
39	0x3baa7465	0.0052018636
40	0x3af6b60a	0.0018822562
41	0xbb347d77	-0.0027540603
42	0xbb8e0514	-0.0043341015
43	0xbb7eae19	-0.0038861095
44	0xbb72f330	-0.003707122
45	0x3bb43458	0.005499404
46	0xbb969f41	-0.0045966213
47	0x3bb3fd89	0.00549287
48	0x3bab1e66	0.0052221296
49	0x3bb14a03	0.005410434
50	0x3bb6b492	0.005575725
51	0x3bbb26ba	0.0057114037
52	0x3bb51bc5	0.005526992
53	0x3baf0629	0.0053413105
54	0xbae06901	-0.0017121137
55	0x39250598	0.0001573771
56	0x3baca593	0.0052687614
57	0xbbae3860	-0.005316779
58	0x3bbd613e	0.0057794144
59	0xbb8e5594	-0.004343698
60	0x3baf95ff	0.005358457
61	0xbb9709dd	-0.00460933
62	0x3bbcf189	0.005766098
63	0xbba73db2	-0.00510379
64	0xbadbf6f1	-0.0016781968
65	0x3b863402	0.0040955553
66	0xbb781395	-0.0037853469
67	0xbb8e3ae0	-0.0043405145
68	0x3bb01b45	0.0053743445
69	0x3b952ed3	0.004552701
70	0x3b9eb13d	0.004842906
71	0x3bb7b3e9	0.0056061638
72	0x3bba92d6	0.0056937737
73	0x3b8ea90b	0.0043536476
74	0x3bb02c05	0.0053763413
75	0x3923c206	0.0001561717
76	0xbba0a24d	-0.0049021603
77	0xbbb2bd46	-0.005454692
78	0x3bad6a56	0.0052922172
79	0x3bb5c80f	0.0055475305
80	0xbb4555a9	-0.0030110872
81	0xbb9c3f83	-0.0047683134
82	0x3bab6199	0.0052301404
83	0x3bab2f9b	0.005224181
84	0x3bb509d2	0.0055248523
85	0xbba32285	-0.0049784803
86	0xbba77d66	-0.005111384
87	0xbb940b72	-0.004517966
88	0xbb46ad51	-0.0030315707
89	0x3ac2ae3c	0.0014852951
90	0x3abfa4bc	0.0014621238
91	0xbacf1198	-0.001579809
92	0x3bb9336a	0.005651881
93	0xbb8227b0	-0.0039720163
94	0x3b6a9c91	0.0035798887
95	0x3990990c	0.0002757985
96	0xbb1a9f3f	-0.0023593453
97	0xbb875a61	-0.004130647
98	0xbb7c3f50	-0.0038489886
99	0xbb60e79c	-0.0034317737
100	0xbba74193	-0.0051042526
101	0xbb8fab1e	-0.0043844124
102	0xbba1a1a9	-0.0049326015
103	0x3bb76f73	0.0055980026
104	0x3bafc95c	0.00536458
105	0xbb46607f	-0.0030269918
106	0x3b8f0724	0.004364865
107	0x3bb2ea4e	0.00546006
108	0x3bb31ab7	0.005465831
109	0x3bb3f89a	0.005492282
110	0x3ba04c2e	0.004891894
111	0x3bb2b120	0.005453244
112	0x3ba6c465	0.00508933
113	0x3bb6b16e	0.0055753505
114	0x3b99ccb5	0.0046935924
115	0x3b7cc150	0.0038567372
116	0xbb84c5f9	-0.0040519205
117	0x3b9da172	0.0048105055
118	0x3bb7d569	0.0056101573
119	0xbb98c34f	-0.0046619545
120	0x3b15b348	0.0022842456
121	0xbb8d812c	-0.004318377
122	0xbb3ecfce	-0.002911556
123	0x3babfeee	0.005248896
124	0x3ba9f8c0	0.005187124
125	0x3bbad2de	0.005701407
126	0xbb9d6ed5	-0.004804472
127	0x3aad8d19	0.0013240903
128	0x3bb91180	0.005647838
129	0xbb91cd16	-0.004449497
130	0x3a92ba47	0.0011194431
131	0xbb8458a0	-0.0040388852
132	0x3baa4952	0.0051967287
133	0x3b598aa4	0.0033194209
134	0xbba20fae	-0.004945717
135	0x3bb3706e	0.005476049
136	0xbab5faa8	-0.0013883905
137	0x3bb1ed92	0.005429932
138	0x3aeda4b6	0.0018130753
139	0x3bb69795	0.005572269
140	0x3bbc5a6f	0.005748085
141	0x3bb8a8d8	0.005635362
142	0x3bb52e4f	0.005529202
143	0x3a715aea	0.00092069677
144	0x3b845182	0.004038037
145	0x3b95af59	0.004568022
146	0xbba08e77	-0.0048997956
147	0x3b3e2fd3	0.0029020205
148	0xbbae5cb2	-0.0053211087
149	0xbae17542	-0.0017201083
150	0x3bae3b24	0.0053171087
151	0x3bb10819	0.0054025766
152	0x3a913580	0.0011078566
153	0xbb931f3a	-0.0044898065
154	0xbba20534	-0.004944468
155	0xbb86b35e	-0.0041107377
156	0xb9f3e20e	-0.00046516996
157	0x3bbc44dc	0.0057455134
158	0xbb95bc9c	-0.004569603
159	0x3bacac86	0.00526959
160	0xbb844d82	-0.00403756
161	0x3bb69340	0.005571753
162	0xbb8218a9	-0.003970225
163	0xbb80a99f	-0.0039264704
164	0xbb961053	-0.0045795827
165	0x3ba648f0	0.005074613
166	0x3baeec1d	0.0053382055
167	0x3ba0f996	0.0049125655
168	0x3bbadd05	0.005702617
169	0x3a964981	0.0011465998
170	0x3ba9d85e	0.0051832637
171	0xba9382d3	-0.0011254199
172	0x3bacaaa1	0.005269364
173	0x3ba85402	0.0051369676
174	0x3ba728a7	0.0051012817
175	0xbb62a529	-0.0034583306
176	0x3a55e7b2	0.00081598305
177	0x3ba82917	0.0051318514
178	0xbab59f25	-0.0013856633
179	0xbb0ab939	-0.002116753
180	0x3baf64bf	0.005352586
181	0x3bb7095d	0.005585833
182	0x3bb14fb2	0.0054111117
183	0x3bbb712f	0.0057202796
184	0xbba0bbc4	-0.004905196
185	0x3931d9be	0.0001696115
186	0x3bb817c8	0.0056180693
187	0x3a9aae64	0.001180124
188	0xbb30f42a	-0.0027001002
189	0x3b973b51	0.0046152254
190	0x3b9bc456	0.0047536297
191	0xbb8e24e6	-0.0043378947
192	0xbb692bea	-0.0035579153
193	0xbb9b50ef	-0.0047398726
194	0x3bab7f83	0.0052337064
195	0xb8f48858	-0.00011660223
196	0x3bac500e	0.0052585667
197	0x3b88d9f6	0.0041763736
198	0xbb3de2d5	-0.0028974314
199	0x3a14e864	0.0005680381
200	0xba69d20e	-0.0008919545
201	0x3bb05926	0.005381721
202	0xbba14a0e	-0.004922158
203	0x3bb8076e	0.00561612
204	0xbba90cf8	-0.0051590167
205	0x3bc09f6e	0.0058783805
206	0x3b9e2359	0.004825991
207	0xbad3e814	-0.0016167187
208	0xba4f3282	-0.00079039496
209	0x3ba72dbc	0.0051018875
210	0x3baae7f6	0.00521564
211	0xbbad174a	-0.0052823173
212	0x3b9d6100	0.004802823
213	0x3b97aaa1	0.004628495
214	0x3bb00647	0.005371842
215	0x3bbe76ca	0.0058125006
216	0x3a1861cd	0.00058129133
217	0xbb7e1584	-0.0038770149
218	0x3afd4c7c	0.0019325162
219	0x3ba8fe07	0.0051572355
220	0xbb2716be	-0.0025495733
221	0xbb849896	-0.00404651
222	0xbb935605	-0.0044963383
223	0xbb3155c3	-0.0027059175
224	0x3b9d4aa8	0.0048001595
225	0x3bbaca03	0.005700351
226	0xbb999277	-0.0046866494
227	0xb9f93ea8	-0.00047539664
228	0x3bbef0af	0.0058270316
229	0x3bb08109	0.005386476
230	0x3bb65f66	0.0055655716
231	0xbb9bd4a9	-0.0047555757
232	0xbb6b94e9	-0.0035946912
233	0x3bc169a5	0.0059024864
234	0x3bacbbca	0.0052714096
235	0x3bb9f48c	0.005674904
236	0x3bb49cda	0.005511862
237	0xbb91442b	-0.004433175
238	0x3b45a19b	0.0030156139
239	0x3bb9fd0a	0.0056759166
240	0x3ba87fdd	0.0051421956
241	0xb934d665	-0.00017246006
242	0x3b8da324	0.0043224264
243	0xbb1b9ae5	-0.0023743447
244	0x3b13337c	0.0022461107
245	0x3b8764dc	0.0041318964
246	0xbbae5ddd	-0.005321248
247	0x3bbc3bf6	0.0057444526
248	0x3b948d78	0.004533466
249	0x3b9dfa10	0.0048210695
250	0xbb4db514	-0.0031388449
251	0x3ba87014	0.005140314
252	0x3bb88c07	0.005631927
253	0x3bb20699	0.0054329154
254	0xbb92de41	-0.004482061
255	0x3ba7788f	0.0051108073

network_body._body_endoder.seq_layers.2.weight f4 [256, 256]
0	0x3c26b7a9	0.010175624
1	0x3bd63d3e	0.0065380624
2	0x3ce89d9e	0.02839547
3	0x3d00b06f	0.03141826
4	0x3da3e49c	0.08002588
5	0xbd123a79	-0.035700295
6	0x3cbd96f7	0.023143275
7	0xbce04d8b	-0.027380725
8	0xbd1b37bc	-0.03789495
9	0x3d5dcf91	0.05415303
10	0xbd298478	-0.041386098
11	0x3d66fd98	0.05639419
12	0x3dece0a9	0.11566288
13	0x3e3afb31	0.18259884
14	0x3ccd2ce2	0.025045816
15	0x3e03970d	0.1285059
16	0x3ce5ab34	0.028035738
17	0x3d05679f	0.032569524
18	0xbd92cc06	-0.07167821
19	0x3d4bf18b	0.0497909
20	0xbda8a733	-0.08235016
21	0x3bc77635	0.0060870894
22	0xbcdd97ae	-0.027049866
23	0xbd7e4cc7	-0.06208494
24	0x3c02a067	0.007972813
25	0x3cd6c636	0.026217561
26	0xbd08bcb9	-0.033383105
27	0x3cd5ccdf	0.026098667
28	0x3d141b32	0.036158748
29	0x3d6a1ee6	0.057158373
30	0x3d83caeb	0.06435188
31	0xbdb60241	-0.08887149
32	0xbcfe1e8d	-0.031020427
33	0xbd15b76e	-0.036551885
34	0x3d9714e7	0.07377034
35	0x3d978c4f	0.073998086
36	0x3d20042c	0.03906648
37	0x3d3aa8d0	0.04557115
38	0x3da3cf72	0.079985514
39	0x3e144c7b	0.144823
40	0x3d36f32e	0.044665508
41	0x3d05d9a6	0.03267827
42	0xbd28b7d3	-0.041190933
43	0x3b4227ee	0.002962585
44	0xbd3ac3f4	-0.04559703
45	0xbd264aa3	-0.040598523
46	0xbd952eb2	-0.07284297
47	0xbccc5cfc	-0.024946682
48	0x3c95ae93	0.01827172
49	0xbdd9f5cd	-0.10642586
50	0xbd78cc34	-0.06074162
51	0xbcdcc799	-0.026950644
52	0x3d23e627	0.040014412
53	0xbdc765a1	-0.09736181
54	0x3d00d067	0.031448748
55	0x3c99b19e	0.018761452
56	0x3e5f5324	0.2180906
57	0xbde8176c	-0.11332592
58	0xbdd54188	-0.1041289
59	0xbb87f39c	-0.0041489135
60	0x3e0f6ecf	0.14007114
61	0x3c5038c1	0.012708844
62	0xbd93b897	-0.07212942
63	0xbd6def08	-0.058089286
64	0x3d039be7	0.032131102
65	0x3db75618	0.08951968
66	0x3d3dedf0	0.046369493
67	0x3d557aff	0.05211925
68	0x3d78dfca	0.060760297
69	0x3cc08e96	0.02350549
70	0x3e28482e	0.16433784
71	0x3cb603a1	0.022218527
72	0x3c97daad	0.01853689
73	0xbae83e25	-0.0017718716
74	0x3d4dae18	0.050214857
75	0xbd8d07ff	-0.06886291
76	0xbd520fcd	-0.0512846
77	0xbdb7115d	-0.08938859
78	0xbd23595c	-0.03988014
79	0xbd571895	-0.052513678
80	0xbd15aaea	-0.03653995
81	0x3d37b6dc	0.044852123
82	0xbc8e29f2	-0.017353985
83	0x3d212ca2	0.039349206
84	0x3d9bee62	0.07613827
85	0xbd86ce49	-0.065823145
86	0x3bb190bb	0.0054188645
87	0x3c602517	0.013680718
88	0x3d436101	0.047699932
89	0xbd2e9019	-0.04261789
90	0x3d2b7f1f	0.04186928
91	0x3c22f0a8	0.009945072
92	0x3c956b94	0.018239774
93	0xbdcd7655	-0.10032336
94	0xbc8fa44a	-0.017534394
95	0xbd09d3a2	-0.033649094
96	0xbd238c2b	-0.039928596
97	0xbbbbc75d	-0.005730553
98	0x3bb87d8b	0.0056302003
99	0x3c29e900	0.010370493
100	0x3d9f9847	0.077927165
101	0xbc620d10	-0.01379706
102	0xbd13e8da	-0.036110736
103	0x3d43cd4d	0.047803212
104	0x3c983215	0.018578568
105	0x3d09b677	0.033621278
106	0x3cbd4edd	0.023108894
107	0xbdec594a	-0.11540468
108	0xbcfdd2dc	-0.030984335
109	0x3db2f1f0	0.08737552
110	0x3c36d691	0.011159555
111	0x3d40af7e	0.047042362
112	0xbd832d09	-0.06405074
113	0xba307ac4	-0.00067321607
114	0x3df982b4	0.12183133
115	0x3d230615	0.039800722
116	0xbdb18def	-0.0866965
117	0x3d7310e3	0.059342276
118	0x3cd1d957	0.025616331
119	0xbd249048	-0.04017666
120	0xbe0a9fe0	-0.1353755
121	0xbe504a30	-0.203408
122	0x3cb14417	0.021638913
123	0xbba82877	-0.005131777
124	0xbc270cfb	-0.010195966
125	0xbdea5310	-0.11441624
126	0xbd809e06	-0.062801406
127	0xbbed2fcb	-0.0072383634
128	0x3be26a03	0.0069096102
129	0x3de3afc7	0.11117511
130	0x3dead1f1	0.114658244
131	0x3da633f5	0.08115379
132	0xbd49ceaf	-0.049269374
133	0x3cad1677	0.021128876
134	0x3ceb6ef6	0.028739434
135	0x3cbbdb72	0.022931788
136	0xbba4af70	-0.0050257966
137	0x3d784fd6	0.060623012
138	0x3dd93d0d	0.10607348
139	0xbd2bda11	-0.04195601
140	0x3ca60e93	0.020270621
141	0x3d83c547	0.06434112
142	0xbd14ab21	-0.036296014
143	0xbc819e48	-0.015822545
144	0x3c1a8559	0.009431207
145	0xbd4b2557	-0.049596157
146	0x3c3a37d9	0.011365854
147	0xbd942b35	-0.072348036
148	0xbd47ca4c	-0.04877691
149	0xbddad52e	-0.10685192
150	0xbcd5b040	-0.02608502
151	0x3cd1ae90	0.025595933
152	0x3da5d0fc	0.08096501
153	0x3d001bae	0.031276397
154	0xbdccad37	-0.099939756
155	0xbbbc9117	-0.0057546007
156	0x3beb6ca5	0.0071845823
157	0x3d18b26b	0.037279528
158	0x3c5b461b	0.013383414
159	0x3e325a8a	0.1741735
160	0xbc09f418	-0.008420013
161	0x3d1d5b5e	0.038417213
162	0xbd47fe8d	-0.048826743
163	0x3d1c3b84	0.038142696
164	0xbb4894ea	-0.0030606338
165	0xbc4473ee	-0.01199053
166	0xbd915b93	-0.070975445
167	0x3c252dc8	0.010081716
168	0x3c56348c	0.013074052
169	0xbd076163	-0.03305186
170	0xbd94d93f	-0.07267999
171	0xbcc3c956	-0.023899715
172	0xbd9df596	-0.077128574
173	0xbc9ddf5f	-0.01927155
174	0xb9c58a43	-0.0003767778
175	0x3bf145a4	0.007363038
176	0xbd98b1bf	-0.074557774
177	0x3d0cecaa	0.034405388
178	0xbd922dc2	-0.07137634
179	0x3d5adc9e	0.053433053
180	0xbd068b58	-0.032847732
181	0x3c5a478f	0.013322725
182	0x3e2ec5ed	0.1706769
183	0x3dee92fe	0.1164913
184	0xbd8a236c	-0.067450374
185	0xbd583724	-0.05278696
186	0xbdd07baf	-0.10179841
187	0x3dd43182	0.10361005
188	0xbc8f2cb3	-0.017477369
189	0xbd0ec141	-0.03485227
190	0x3b757b8e	0.0037457678
191	0x3d9dd6ac	0.07706961
192	0x3c706f52	0.014674978
193	0x3c1e1369	0.009648182
194	0xbc483afc	-0.012221094
195	0x3d5b396d	0.053521562
196	0x3decd69c	0.11564371
197	0xbb559270	-0.0032588504
198	0xbcacb280	-0.02108121
199	0x3d8f2228	0.06988937
200	0xbd0e3d04	-0.034726158
201	0xbd061332	-0.03273315
202	0x3c30cfb7	0.010791711
203	0x3d2bd1ad	0.04194801
204	0xbd69d84f	-0.057091054
205	0x3ddd6e67	0.10812073
206	0x3d341fe2	0.04397572
207	0x3b8204f2	0.0039678747
208	0x3b94693b	0.004529146
209	0x3d34d2e9	0.044146452
210	0x3db40928	0.08790809
211	0xbdb00025	-0.085937776
212	0xbc234ceb	-0.009967069
213	0xbb90c1a5	-0.0044176155
214	0xbd9281e1	-0.07153679
215	0xbd9712fb	-0.07376667
216	0x3dbb5cda	0.091485694
217	0x3c02cf76	0.007984033
218	0xbc1d1630	-0.009587809
219	0xbc9ee253	-0.01939503
220	0xbe083dd8	-0.13304842
221	0xbd4b3966	-0.049615286
222	0x3d8b4875	0.068009295
223	0x3babbd4e	0.0052410727
224	0xbd2dbe53	-0.042417835
225	0x3db945a9	0.0904649
226	0xbdbf6214	-0.09344879
227	0xbd4bd3bf	-0.049762484
228	0xbd00a7ed	-0.031410147
229	0xbc804167	-0.015656186
230	0x3d9529a7	0.07283335
231	0x3d1c17b0	0.038108528
232	0xbc6ebb7b	-0.014571066
233	0xbd4e7c8a	-0.05041174
234	0x3dfd07fa	0.12355037
235	0x3ddb0362	0.106940046
236	0x3dd2d44b	0.10294398
237	0xbdce45df	-0.100719206
238	0x3b3028b3	0.0026879727
239	0xbdda7738	-0.106672704
240	0x3ce826a4	0.028338738
241	0x3d88bdae	0.066768035
242	0x3d6dd76b	0.058066767
243	0x3d0f702d	0.03501909
244	0x3d611f72	0.05496163
245	0xbdc8510f	-0.09781086
246	0xbd6028b6	-0.054726325
247	0x3bb21e92	0.005435773
248	0x3dc01496	0.093789265
249	0xbde1987b	-0.110154115
250	0xba73a29e	-0.0009293946
251	0xbce2e988	-0.027699247
252	0x3bdf7412	0.0068192566
253	0xbd3faf1a	-0.04679785
254	0xbd7c6d2c	-0.061627552
255	0xbdcef925	-0.10106114

network_body._body_endoder.seq_layers.2.bias f4 [256]
0	0x3bae1bdf	0.005313381
1	0x3ba73bd5	0.005103568
2	0xbbb1131c	-0.0054038893
3	0x3badcf53	0.005304256
4	0x3ba9a70d	0.0051773847
5	0xbba258e5	-0.0049544447
6	0xbbb2cfc5	-0.005456897
7	0xbba03ff8	-0.004890438
8	0x3ba2f19d	0.00497265
9	0x3b95c4ac	0.0045705643
10	0x3bb4e075	0.0055199214
11	0x3aa6048c	0.001266615
12	0xbb41363e	-0.0029481794
13	0xba53a546	-0.0008073639
14	0x3ad24ff6	0.0016045559
15	0x3abb7ad0	0.0014303569
16	0x3adcf8b4	0.0016858787
17	0x3bb29eff	0.0054510827
18	0xbb25fb82	-0.0025326912
19	0x3baaf58a	0.005217259
20	0xbb74b584	-0.0037339637
21	0xbb92fb30	-0.0044855103
22	0xbbad1ad4	-0.005282739
23	0x3bb256a0	0.0054424554
24	0xbbb10eaf	-0.0054033617
25	0x3b9e3255	0.0048277774
26	0xb9f2d686	-0.0004631767
27	0xbba2a63a	-0.0049636634
28	0x3baea405	0.0053296112
29	0xbb9f8aa2	-0.0048688212
30	0x3ba56550	0.005047478
31	0xbba4e8aa	-0.0050326185
32	0x3bb30e79	0.0054643718
33	0xbba30a64	-0.004975604
34	0xbbae427e	-0.005317985
35	0xbba1fb94	-0.0049433205
36	0xbb2694ef	-0.0025418361
37	0x3a829344	0.0009962101
38	0x3b2b4593	0.0026133999
39	0xbb526b12	-0.0032107276
40	0x3babba3a	0.005240706
41	0x3bae28a5	0.005314904
42	0x3ba8ca69	0.0051510823
43	0x3baa7131	0.0052014817
44	0x3b9fa62e	0.004872105
45	0xbba35312	-0.004984268
46	0xbba04619	-0.004891169
47	0xbba5853a	-0.0050512822
48	0x3bb2928a	0.0054495977
49	0x3bba76c7	0.005690429
50	0xbbb50fd9	-0.005525571
51	0x3ba7c080	0.0051193833
52	0x3baddd16	0.0053058965
53	0x3bb04e69	0.005380441
54	0x3bb1a4df	0.0054212655
55	0x3b9cd09b	0.00478561
56	0x3bb251f7	0.0054419
57	0xbb8fe5bb	-0.0043913997
58	0x3b90bdea	0.004417171
59	0x3b9533c3	0.0045532896
60	0x3baa80f7	0.005203362
61	0x3ba4fc95	0.005034993
62	0x3baf7d6c	0.0053555276
63	0x3bade172	0.005306416
64	0x3bb719c6	0.005587789
65	0xb98face7	-0.00027403908
66	0xbb9f3b25	-0.0048593455
67	0x3bade5d3	0.005306938
68	0x3bb10e21	0.0054032956
69	0xbb9463de	-0.0045285067
70	0xbb03de4f	-0.002012152
71	0x3b9a0584	0.0047003645
72	0x3b94b5a9	0.004538257
73	0x3b1b6da1	0.0023716467
74	0xbb9f282d	-0.0048570842
75	0x3bac01ac	0.0052492227
76	0x3bafc7d8	0.0053643994
77	0x3b5fa035	0.003412259
78	0x3bb09b9b	0.0053896434
79	0x3bb48db1	0.005510055
80	0xbb9b2619	-0.004734766
81	0xbb5a74d3	-0.0033333793
82	0x3bb29641	0.0054500406
83	0xbb9f9637	-0.004870202
84	0xbb29f76c	-0.0025934828
85	0x3ba81dae	0.005130491
86	0x3b97f545	0.0046373927
87	0xbba303bf	-0.004974812
88	0x3b9badc7	0.0047509405
89	0x3b5e7dba	0.003394945
90	0x3b95749e	0.004561021
91	0x3ba20e86	0.004945579
92	0xbb8bb736	-0.004263784
93	0x3bb115b2	0.0054041976
94	0x3ba7739c	0.0051102173
95	0x3bace2c0	0.005276054
96	0x3baedb36	0.0053361906
97	0x3bb1e3c7	0.0054287645
98	0xbb93f5a6	-0.0045153676
99	0x3baa21c4	0.0051920135
100	0xbb939b1c	-0.0045045745
101	0xbb22ae98	-0.0024823304
102	0x3a59081c	0.00082791015
103	0x3badd609	0.005305056
104	0xbb9f64ac	-0.004864296
105	0xbba1af62	-0.0049342373
106	0xbab1edb4	-0.0013574869
107	0x3bb3a6c0	0.0054825246
108	0xbadffc5f	-0.0017088762
109	0x3bafe16f	0.00536745
110	0x3aac3cab	0.0013140639
111	0xbb99bc3d	-0.004691629
112	0x3b8e380e	0.0043401783
113	0xbb766c89	-0.0037601313
114	0xbbb09959	-0.005389374
115	0x3bab5d38	0.0052296184
116	0x3baaf0d2	0.0052166963
117	0xbbaa1908	-0.0051909722
118	0xbbb13e20	-0.005409017
119	0x3ba92561	0.0051619266
120	0xbbac2971	-0.0052539636
121	0x3ba7dce3	0.0051227673
122	0xbb75d6f1	-0.0037512148
123	0xbb7c1ba5	-0.0038468626
124	0x3ba9a3b9	0.005176988
125	0xbbadbaab	-0.0053017936
126	0x3badce20	0.005304113
127	0x3b885d53	0.0041615157
128	0x3ba0ee8c	0.0049112495
129	0xbb9052b9	-0.0044043926
130	0x3bab1312	0.005220779
131	0x3bacf276	0.005277927
132	0xbb8546fd	-0.0040673004
133	0x3aa67357	0.0012699169
134	0xbb97a090	-0.004627295
135	0x3aeae98e	0.0017922388
136	0xbb81a1e1	-0.003956065
137	0x3ba18f9b	0.004930449
138	0x3ba23fa0	0.0049514323
139	0xbb66dae5	-0.0035225686
140	0x3bb82210	0.005619295
141	0x3b90fcf2	0.0044246847
142	0xbb749945	-0.00373228
143	0xbba955fb	-0.0051677204
144	0xbbaeba40	-0.0053322613
145	0x3ba39849	0.004992519
146	0xbb8ad371	-0.0042366316
147	0x3bb04112	0.0053788507
148	0x3b4fcc8a	0.0031707608
149	0x3b7aa207	0.0038243548
150	0xba2aa31e	-0.00065092917
151	0x3ba3612f	0.0049859504
152	0x3bb2b2a8	0.0054534264
153	0x3b626180	0.0034542978
154	0x3bb6a360	0.005573675
155	0x3b57524a	0.0032855445
156	0x3ba1d946	0.004939231
157	0x3bb05e1f	0.005382314
158	0xbb9cd763	-0.0047864183
159	0x3baeb127	0.005331177
160	0x3b821d7f	0.0039708014
161	0x3b6129b1	0.0034357125
162	0xbba1f95d	-0.0049430565
163	0x3ba43d52	0.0050121928
164	0x3b9f564e	0.0048625832
165	0x3baf9433	0.005358243
166	0xbb86e4dd	-0.004116638
167	0x3ba588c8	0.005051706
168	0x3bb463e2	0.005505071
169	0xba7e4532	-0.0009699642
170	0xbb941797	-0.0045194137
171	0x3b69c4ec	0.0035670353
172	0xbb90657b	-0.0044066287
173	0xbbb7cd50	-0.005609192
174	0xbbabf0c5	-0.005247208
175	0xbb9965b5	-0.004681314
176	0x3bb473dc	0.0055069756
177	0x3bae1765	0.0053128474
178	0xbba48f1f	-0.005021944
179	0x3b9928ab	0.0046740375
180	0x3baeac07	0.005330566
181	0xbb8841b5	-0.0041582235
182	0xbbaf3a1c	-0.0053475033
183	0x3badf929	0.005309243
184	0x3baac95a	0.0052119913
185	0xbae3c644	-0.0017377813
186	0x3ba72bb0	0.0051016435
187	0xbb999e08	-0.0046880282
188	0x3b97c9fe	0.0046322336
189	0xbba660e2	-0.0050774673
190	0xbb602df1	-0.003420707
191	0x3bb1b1c0	0.005422801
192	0xbb934380	-0.0044941306
193	0xbb58ac9d	-0.003306187
194	0x3b96feac	0.004607996
195	0x3bb2279a	0.00543685
196	0xbba752bd	-0.0051062987
197	0x3a477480	0.00076086074
198	0xbb52ebc9	-0.0032183996
199	0x3bb1e3af	0.0054287533
200	0x3ba9a476	0.005177076
201	0xbb8c8665	-0.004288482
202	0x3ba9a8f2	0.0051776106
203	0xbb494a7c	-0.0030714562
204	0xbba547e6	-0.0050439714
205	0x3b5403d6	0.003235092
206	0xbb7aee21	-0.0038288909
207	0x3b8ededb	0.0043600625
208	0x3ba33716	0.004980932
209	0x3ba8ddf8	0.005153414
210	0x3bb4d6ec	0.0055187847
211	0x3af3bdd4	0.0018596002
212	0xbbab7b23	-0.005233185
213	0xbb85a866	-0.0040789125
214	0xbb92a88f	-0.00447566
215	0x3b3f1b58	0.0029160585
216	0xbb7d5675	-0.0038656269
217	0xbb86da6e	-0.0041153943
218	0xbb971bd9	-0.004611474
219	0x3b933c4c	0.004493272
220	0x3bb5183c	0.0055265706
221	0xbbb6c0a2	-0.005577163
222	0x3b23c1d7	0.0024987364
223	0x3ba83664	0.005133437
224	0x3ac1eb51	0.0014794861
225	0x3bb72902	0.0055896053
226	0xbbaad07d	-0.005212842
227	0x3ba9f1ee	0.005186311
228	0x3b870bec	0.0041212942
229	0xbb9a9f5c	-0.004718704
230	0xba5f028d	-0.0008507155
231	0xbba7daee	-0.005122534
232	0x3bacc6fc	0.005272744
233	0xbb576e52	-0.0032872153
234	0x3bada8a0	0.0052996427
235	0x3b5c8c36	0.0033652908
236	0xbbabc964	-0.0052425135
237	0x3bb92da7	0.005651194
238	0x3ba397ab	0.0049924455
239	0xbb970d5b	-0.0046097464
240	0xbb9d8082	-0.004806579
241	0x3bb58d0e	0.0055404967
242	0x3ba50b8a	0.005036776
243	0x3b174978	0.0023084562
244	0x3a7cab56	0.0009638568
245	0x3b20278b	0.0024437632
246	0xbba9e052	-0.005184212
247	0x3badb14d	0.005300677
248	0xbbabbdc8	-0.0052411295
249	0xbbb04751	-0.0053795953
250	0x3ba0114c	0.0048848744
251	0x3bafc2c5	0.0053637945
252	0xbb90e5c2	-0.0044219205
253	0x3bb685f7	0.005570169
254	0xbb7c16aa	-0.0038465657
255	0x3b507b14	0.0031811642

action_model._continuous_distribution.log_sigma f4 [1, 3]
0	0xbade76f0	-0.0016972702
1	0x3b527520	0.003211327
2	0x3aebfd4a	0.0018004563

action_model._continuous_distribution.mu.weight f4 [3, 256]
0	0x3c946837	0.0181161
1	0xbc21629e	-0.009850172
2	0x3aa12b7d	0.0012296286
3	0x3bf414ae	0.0074487543
4	0xbc1ca135	-0.009559919
5	0xbc829b6b	-0.01594325
6	0x3bc7731d	0.0060867206
7	0x3b4063fb	0.0029356468
8	0x3bfc9eb4	0.0077093486
9	0xbcdc4ffc	-0.026893608
10	0x3bbbed70	0.005735092
11	0x3cc92563	0.02455396
12	0x3c6f7d55	0.014617284
13	0x3bc705f8	0.0060737096
14	0xbc85a0fe	-0.016312119
15	0xbc44c507	-0.012009866
16	0x3c4831e1	0.012218923
17	0x3c285c78	0.0102759525
18	0xbb89e97a	-0.004208741
19	0xbbcc86ba	-0.0062416466
20	0x3cee3e27	0.02908237
21	0xbbc0a28f	-0.0058787535
22	0x3c22deab	0.0099407835
23	0xbb7d97d1	-0.0038695226
24	0x39689ce4	0.0002218369
25	0xbc5157a1	-0.01277724
26	0x3b54ff38	0.0032500755
27	0xbc89d8ce	-0.016827013
28	0xbc5bf153	-0.013424235
29	0x3bfd26b8	0.007725563
30	0xbb012032	-0.0019703028
31	0x3ac5fc89	0.0015105169
32	0x3c0832a6	0.008312857
33	0x3c4a432c	0.012345117
34	0x3b214125	0.002460548
35	0xbb27682a	-0.0025544264
36	0x3bb061ef	0.0053827683
37	0xbc9c5a31	-0.019085975
38	0x3c6b0b36	0.014345935
39	0x3a53f360	0.0008085277
40	0x3c5db1d0	0.013531163
41	0xbc835d08	-0.016035572
42	0x3b67268c	0.0035270778
43	0xbc9777ff	-0.018489836
44	0x3b022b17	0.001986211
45	0xbbe4597b	-0.0069686747
46	0xbb9193af	-0.004442654
47	0x3b430ca1	0.0029762166
48	0xbbe863b9	-0.007091966
49	0xba95b730	-0.0011422392
50	0x3b2c18ca	0.0026259893
51	0xbb9264f9	-0.0044676033
52	0x3c3730eb	0.011181097
53	0xbc43968b	-0.011937748
54	0x3bf55a4c	0.007487571
55	0xbce1ecca	-0.02757873
56	0x3af87439	0.0018955535
57	0xbc307667	-0.010770417
58	0xbc3f4152	-0.011673288
59	0x3c8c87e6	0.017154645
60	0x3c0f1473	0.008732903
61	0xbcba09d0	-0.022709757
62	0xbb01e8fd	-0.001982271
63	0x3b8231e3	0.003973232
64	0x3b994d9d	0.0046784417
65	0x3ca8d471	0.020609112
66	0xbb983893	-0.004645416
67	0xbc1f32bd	-0.009716687
68	0x3c97e024	0.018539496
69	0x3c699089	0.014255651
70	0xb590b600	-1.0781805e-06
71	0xbc67bb82	-0.014143826
72	0x3cf35656	0.029704254
73	0xbcf51857	-0.029918833
74	0xbc05a24f	-0.008156373
75	0x3cc446d8	0.023959562
76	0xbba132de	-0.004919394
77	0x3b9b32bc	0.0047362726
78	0x3c904b73	0.017614102
79	0xb9faaef0	-0.00047814054
80	0x3c847008	0.016166702
81	0x3b5b6cea	0.0033481666
82	0xbc3054ba	-0.010762388
83	0xbb48967f	-0.003060728
84	0x3b7bdcba	0.0038431124
85	0xbc8195fb	-0.015818587
86	0xbafd27da	-0.0019314245
87	0xbc68584a	-0.014181206
88	0xba265408	-0.0006344919
89	0xba84c946	-0.0010130785
90	0xbab9ad26	-0.0014165982
91	0xbc15face	-0.009154035
92	0xbc8d2e2f	-0.017233936
93	0x3b120cca	0.0022285455
94	0xbc6ca636	-0.014443925
95	0x3beebb2b	0.0072854958
96	0xbbfad190	-0.0076543763
97	0x3acfbe92	0.0015849641
98	0x3ac4d10b	0.0015015913
99	0xbc329f78	-0.010902278
100	0xbc8201bf	-0.015869973
101	0xbcc65601	-0.024210932
102	0xbc939e68	-0.01801987
103	0x3cec8c42	0.028875474
104	0x3c854d93	0.016272342
105	0x3c245006	0.010028845
106	0x3b98c0e9	0.0046616686
107	0x3c392036	0.011299184
108	0xbcbda23b	-0.023148647
109	0xbc0beaac	-0.008539837
110	0xb9aee0f0	-0.00033355458
111	0x3bb4f5b3	0.0055224537
112	0xbc7f7754	-0.015592415
113	0xb9d0bdd7	-0.00039814293
114	0x3b993d5e	0.004676505
115	0x3c19c9c4	0.009386484
116	0x3c52b02f	0.012859388
117	0xbc45784b	-0.012052606
118	0xbb6a7dbd	-0.0035780512
119	0xbbb54a02	-0.005532504
120	0xba2647c6	-0.00063430925
121	0xba755994	-0.00093593565
122	0xbcffbd12	-0.031218085
123	0x3c797b63	0.015227172
124	0x3c7a2318	0.015267156
125	0xbabc8188	-0.0014381865
126	0xbc233f3a	-0.009963805
127	0xbc1a48d3	-0.009416777
128	0xbbec76d7	-0.0072163153
129	0xbcc9b433	-0.024622058
130	0x3ca62fb5	0.02028642
131	0x39c31990	0.00037212344
132	0x3b6cc1d8	0.0036126282
133	0xbc7b26a9	-0.0153290415
134	0x3c243f48	0.010024853
135	0xbbf3f4d4	-0.0074449573
136	0x3ceb21d5	0.028702656
137	0xbc93e257	-0.018052263
138	0xbc90ad01	-0.01766062
139	0xbcc648f3	-0.024204707
140	0x3c11a228	0.008888759
141	0x3b3beb86	0.0028674318
142	0x3ba5a876	0.0050554825
143	0x3bd31cdc	0.0064426493
144	0xbcf6f7be	-0.03014743
145	0x3c5dee0a	0.0135455225
146	0xbcd9accf	-0.02657166
147	0xb9f7195d	-0.00047130408
148	0x3b4fda3e	0.0031715776
149	0x3c1198ea	0.008886555
150	0x3cdb0c69	0.026739316
151	0x3bd6cd21	0.006555215
152	0x3ae47f8c	0.0017433031
153	0xbc755a00	-0.014975071
154	0x3c22b642	0.009931149
155	0xbc8a304e	-0.016868737
156	0xbbf53aeb	-0.00748383
157	0xbc05d9d0	-0.008169606
158	0xbb972e94	-0.004613707
159	0x3c86ab2b	0.016439041
160	0x3c5d9bf8	0.013525955
161	0x3c478425	0.012177502
162	0x3bcab657	0.0061862874
163	0xbc3d3263	-0.011547658
164	0xbcd03843	-0.025417453
165	0x3c968348	0.018373147
166	0x3c4a0812	0.012331026
167	0xbc7fbd3b	-0.015609081
168	0x3c03d4be	0.008046327
169	0xbb91153a	-0.004427579
170	0x3c0b0c12	0.0084867645
171	0x3c46ecc1	0.0121414075
172	0x3c7c4019	0.015396141
173	0x3b2a62de	0.002599887
174	0x3b2f7608	0.0026773233
175	0xbc8c5e1c	-0.017134719
176	0x3bec927a	0.00721961
177	0xbc4a4dd6	-0.012347659
178	0x3c0c4464	0.0085612275
179	0xbc5aaaa5	-0.013346349
180	0x3ba4c873	0.005028778
181	0xbb81aa0e	-0.0039570397
182	0xb92bbf68	-0.00016379135
183	0x3c083ba1	0.008314998
184	0x3b1be4aa	0.0023787417
185	0x3b3a1e39	0.0028399362
186	0x3c5cca3c	0.013475951
187	0xbb23c16e	-0.002498712
188	0xbc9ee3d2	-0.019395743
189	0x3cf8532b	0.030313095
190	0x3c8d3eef	0.017241923
191	0x3aed60dc	0.0018110531
192	0xbbe64cc0	-0.0070281923
193	0x3cb61586	0.02222706
194	0xbc0bb385	-0.0085266875
195	0x3bbce46c	0.0057645347
196	0x3c89defa	0.016829956
197	0x3d017d2e	0.03161352
198	0x3c8f8f4f	0.01752439
199	0xbc3ce470	-0.011529073
200	0x3c28e433	0.010308313
201	0x3c3ac38e	0.011399163
202	0x3ad9df4d	0.0016622335
203	0x3bde3cf0	0.0067821667
204	0xbc86a734	-0.01643715
205	0x3b215c52	0.0024621678
206	0x3cb454aa	0.022013027
207	0x3b11d95a	0.0022254796
208	0x3ca93e0f	0.020659475
209	0x3bf63ad8	0.007514339
210	0x3c1a55bd	0.009419856
211	0x3cbd6a9a	0.02312212
212	0x3ca34afd	0.019933218
213	0xbcfa3fb0	-0.030547947
214	0x3c6417f9	0.013921731
215	0x3b1058af	0.0022025516
216	0x3bd8a9c1	0.006612033
217	0x3c3d9382	0.011570813
218	0xbb8326ac	-0.004002413
219	0xbc34da08	-0.011038311
220	0x3b3b7d0e	0.0028608474
221	0xba31a1c1	-0.00067761174
222	0x3bc78556	0.006088893
223	0xbc626f32	-0.013820456
224	0x3bb8c934	0.0056392197
225	0x3be014a6	0.006838399
226	0x3c59b601	0.013288022
227	0x3c6e8664	0.014558408
228	0xbc73f7d6	-0.014890632
229	0x3c83f25a	0.016106773
230	0x39906c19	0.0002754636
231	0xbbf190e0	-0.007372007
232	0xbc0bf053	-0.0085411845
233	0x3b67ef05	0.003539027
234	0xbc72eac6	-0.014826482
235	0x3ca3ea62	0.020009223
236	0x3b26b189	0.002543541
237	0x3b130c15	0.0022437621
238	0xbcac1352	-0.021005306
239	0x3c33f184	0.010982875
240	0xbc8090b4	-0.015694
241	0xba61cb8e	-0.0008613401
242	0xbc25c038	-0.010116629
243	0x3c9f981d	0.019481713
244	0xbb0f6f2e	-0.0021886337
245	0xbce64439	-0.028108703
246	0xbbfeb72f	-0.007773302
247	0x3b7752e0	0.0037738606
248	0xb9709ceb	-0.0002294664
249	0xbc296ab4	-0.010340381
250	0xbc1f035e	-0.009705393
251	0x3b831c39	0.004001167
252	0x3a9af812	0.0011823198
253	0xb9d903ce	-0.000413923
254	0xbc841231	-0.016121956
255	0x3c312022	0.010810884

action_model._continuous_distribution.mu.bias f4 [3]
0	0xbb488e02	-0.0030602221
1	0xbb2c150c	-0.0026257662
2	0x3babc045	0.005241426

action_model._discrete_distribution.branches.0.weight f4 [7, 256]
0	0xbb9dd539	-0.004816678
1	0xbc0a0122	-0.008423122
2	0x3c327bc7	0.010893769
3	0xbbb935fc	-0.0056521874
4	0xbb90a10f	-0.004413731
5	0xbb415ea9	-0.0029505885
6	0xbb0036e2	-0.0019563963
7	0xbc12e686	-0.008966094
8	0xbc4052c1	-0.01173848
9	0xba106d67	-0.0005509466
10	0xbb9b6cba	-0.004743186
11	0x3ba8e75e	0.0051545342
12	0x3bf4ca37	0.007470395
13	0x3bc62ae9	0.0060475958
14	0x3b095f1b	0.0020961228
15	0x3bac83ee	0.0052647507
16	0x3bf6f529	0.0075365496
17	0xbb33f868	-0.0027461294
18	0xba640bb6	-0.0008699255
19	0xbc33011c	-0.010925557
20	0x3a8ec628	0.0010892795
21	0x3c16ce32	0.009204434
22	0x3b8d6f6c	0.004316261
23	0x3b897b84	0.0041956324
24	0xbbafb1d7	-0.0053617763
25	0xbbff4a55	-0.0077908435
26	0x3cca5f29	0.024703579
27	0xbaf8e28a	-0.0018988412
28	0x3b9401af	0.0045168023
29	0xbc1a02e0	-0.0094000995
30	0xbc034dd2	-0.008014159
31	0xbbe753d8	-0.0070595555
32	0xb92b38dc	-0.00016329013
33	0x3a20eafd	0.00061385316
34	0xbb64bf35	-0.0034904007
35	0xbc86a24d	-0.016434813
36	0xbc235ae4	-0.0099704005
37	0x3c7bac90	0.015360966
38	0x3a9bf1cb	0.0011897621
39	0x3b91632f	0.0044368724
40	0xbbea8a18	-0.0071575753
41	0xbb1cb633	-0.002391231
42	0x3c2cdf06	0.01055122
43	0xb95906b7	-0.00020697234
44	0x3b5409fc	0.0032354584
45	0xbb89ba9e	-0.0042031547
46	0xba77c6df	-0.00094519363
47	0xbac255bb	-0.0014826575
48	0xba5a4d7f	-0.0008327588
49	0xbbaba4cd	-0.0052381516
50	0xbbfa414c	-0.0076371785
51	0x3af29022	0.001850609
52	0xbbdaf11c	-0.0066815745
53	0xbba1c0d6	-0.004936318
54	0xbc7ed0f5	-0.015552749
55	0x3b3f2358	0.0029165354
56	0x3bdf0b37	0.006806757
57	0xbb170f98	-0.0023050066
58	0xbb60f361	-0.0034324753
59	0x3beb87e9	0.0071878326
60	0x3c25c24f	0.010117128
61	0xbc02012f	-0.0079348525
62	0xba724a94	-0.00092426804
63	0x3c702d62	0.014659258
64	0x39960e01	0.00028620663
65	0xbbfc4c2d	-0.0076995105
66	0xbbce59e3	-0.0062973364
67	0x3be86567	0.007092166
68	0x3b5cd6c9	0.0033697358
69	0xb99af1cc	-0.00029553322
70	0x3bd91b24	0.00662555
71	0xbba43f9b	-0.005012465
72	0xbbadbd0e	-0.005302078
73	0xbc29ba0e	-0.0103593
74	0x3c14734c	0.009060692
75	0x3a59a31e	0.00083021994
76	0xbc3a4c20	-0.011370689
77	0x3b9c9a30	0.004779123
78	0xbb8b3e1d	-0.004249348
79	0x3bc56ecd	0.0060251714
80	0xba180377	-0.0005798856
81	0x3c20bfb8	0.009811334
82	0x3b976401	0.0046200757
83	0xba07f312	-0.00051860616
84	0xbc57246f	-0.013131245
85	0xbc2c488f	-0.010515346
86	0xbbb1fd0e	-0.005431778
87	0x3bf54309	0.007484798
88	0xbb81273e	-0.0039414456
89	0xba3c342e	-0.0007179406
90	0xbc728f61	-0.014804692
91	0x3ab49f23	0.0013780337
92	0xba7a2f4f	-0.00095437927
93	0x3bdd0c00	0.0067458153
94	0x3c3563d3	0.011071163
95	0xbc5f05a1	-0.013612182
96	0xbbea845d	-0.007156892
97	0x3a5139db	0.00079813384
98	0xbc240998	-0.010012053
99	0x3ae457bb	0.0017421165
100	0x3b1cf848	0.0023951698
101	0x39ec94e8	0.00045124372
102	0x3b0c0ba1	0.0021369236
103	0xb9e29a5e	-0.00043221092
104	0x3b90943c	0.004412202
105	0x3a2a2f1e	0.00064920064
106	0x3ba418d9	0.005007845
107	0xbb7081cd	-0.003669846
108	0xbba94dfc	-0.005166767
109	0xba67fd0d	-0.0008849658
110	0x3b91950a	0.0044428157
111	0xbc1ae5ab	-0.009454171
112	0x3bdf776c	0.006819656
113	0xbb35db91	-0.002774928
114	0x3ba67e61	0.0050809835
115	0xbbcd6c63	-0.006269024
116	0xbb842e58	-0.004033845
117	0x3c09e507	0.008416421
118	0xbb3dd040	-0.0028963238
119	0x3c73d858	0.014883123
120	0x3bf98529	0.007614751
121	0x3acc1705	0.0015570825
122	0xbad2d1b9	-0.0016084231
123	0xbab8b367	-0.0014091552
124	0xba9f7354	-0.0012165108
125	0xbb8821c1	-0.0041544144
126	0x3bc8e1cc	0.0061304327
127	0x3be6d39e	0.0070442697
128	0x3b8673ec	0.0041031744
129	0x3c110860	0.008852094
130	0xbbaeaaf8	-0.0053304397
131	0x3bcc14de	0.0062280735
132	0xbabf03c6	-0.0014573268
133	0xba0bc5ae	-0.0005331886
134	0x3b7f6e86	0.003897579
135	0x3be65140	0.0070287287
136	0x3adcab84	0.0016835784
137	0xbc3d2b3c	-0.011545952
138	0xbb626d63	-0.0034550063
139	0x3bb1f6e9	0.0054310453
140	0xba5fbd86	-0.0008535016
141	0xbb588daf	-0.0033043434
142	0x3bea5804	0.0071516056
143	0x3bc2cb94	0.0059446786
144	0x3c0f7648	0.008756228
145	0xbbd8f289	-0.0066207093
146	0xbc143174	-0.009044994
147	0xbba383f1	-0.004990094
148	0xbad7a153	-0.0016451277
149	0xbb476c72	-0.0030429629
150	0xbc41a096	-0.011818072
151	0x3991e463	0.00027826717
152	0xbbcec346	-0.0063098995
153	0xbc2a042e	-0.010376973
154	0x3c1913f7	0.009343139
155	0x3c31979f	0.010839372
156	0xbb577c48	-0.0032880474
157	0x3a80d6a4	0.0009829593
158	0xbad96d77	-0.0016588409
159	0x3a33271a	0.00068341347
160	0xba661bac	-0.0008777927
161	0xba694a5d	-0.00088993256
162	0x3bcb0186	0.00619525
163	0xb9b935b9	-0.00035325976
164	0x3b620708	0.0034489054
165	0xbc0abadf	-0.008467405
166	0xbc02ca0f	-0.007982745
167	0xbc51c3db	-0.012803043
168	0xbab003fe	-0.0013428924
169	0x3acea019	0.0015764266
170	0x3c0a6363	0.008446547
171	0x39e0cc8e	0.00042877014
172	0x3bf20bed	0.0073866756
173	0xbb7736c5	-0.0037721854
174	0x3bc7364f	0.006079472
175	0x3b69519e	0.0035601626
176	0x3c02f01a	0.007991815
177	0x3bdc253f	0.0067183073
178	0xbc69d8cb	-0.014272879
179	0x3c17c842	0.009264054
180	0x3b621909	0.0034499785
181	0xbb8b95fb	-0.0042598224
182	0xbabfbfe0	-0.0014629327
183	0xba446e3a	-0.00074932317
184	0x3a2674a6	0.00063497794
185	0x3c0f832b	0.0087593
186	0x3b9fc2b6	0.0048755063
187	0x3c18882d	0.009309811
188	0x3bb89682	0.0056331763
189	0x3b95477d	0.004555641
190	0x3c098af8	0.008394949
191	0x3bfe5202	0.007761241
192	0x3b5ea78a	0.0033974373
193	0xbbb994c4	-0.005663486
194	0x3a7cd3c5	0.0009644593
195	0x3b90b665	0.0044162744
196	0xba7780fa	-0.0009441521
197	0xbbe9293e	-0.007115512
198	0xba49fd70	-0.00077053066
199	0xbac7ac49	-0.001523384
200	0xbad6f6ea	-0.001640049
201	0xbc036a40	-0.008020937
202	0xbba6d810	-0.0050916746
203	0xbbaf656e	-0.0053526675
204	0x3ba775cb	0.0051104776
205	0xbb1c8e59	-0.0023888557
206	0xba852a03	-0.0010159615
207	0xbb28171b	-0.0025648538
208	0xbc1227f9	-0.008920663
209	0xbc450fad	-0.012027663
210	0x3b0fb26f	0.0021926423
211	0xbc1e2a31	-0.009653614
212	0x3bc1310a	0.0058957385
213	0x3c26d606	0.010182863
214	0x3a769e9f	0.00094077917
215	0xbc3b2426	-0.011422193
216	0xbc29b063	-0.010356995
217	0xbbb2cf54	-0.0054568443
218	0x3a3c333a	0.0007179264
219	0xba90e6a6	-0.0011055067
220	0xbc23706b	-0.009975533
221	0x3ba47f47	0.0050200555
222	0xba8be3a8	-0.0010672705
223	0x3bc3525c	0.0059607457
224	0xbc225d53	-0.009909946
225	0x3a3c8073	0.0007190771
226	0x3c238310	0.009979978
227	0x3c861add	0.016370231
228	0xbbef827f	-0.0073092575
229	0xbbb54b56	-0.0055326624
230	0x3a0ba28a	0.00053266494
231	0x3ab99886	0.0014159835
232	0x3b8527b0	0.004063569
233	0xbb89916e	-0.004198245
234	0xbb71dadc	-0.0036904132
235	0x3a7f3ac6	0.0009736236
236	0xbc7b1892	-0.015325682
237	0x3beede1f	0.0072896625
238	0xbc1e4be7	-0.009661651
239	0xba913015	-0.0011076952
240	0x3bb50452	0.0055241967
241	0xbb6bb2cf	-0.0035964733
242	0xb9a15c16	-0.00030776922
243	0xbaaad8af	-0.0013034547
244	0xbb07258b	-0.0020621743
245	0x39501b89	0.00019846683
246	0xba6b2372	-0.00089698203
247	0x3abeb8b6	0.0014550898
248	0x3b845c02	0.0040392885
249	0x3b884da7	0.0041596475
250	0x3b54610b	0.0032406475
251	0xb9f952c3	-0.00047554643
252	0xbb8e5a8b	-0.0043442897
253	0xbad6cee6	-0.0016388565
254	0x3a4a5248	0.00077179493
255	0xbb40328a	-0.0029326999

action_model._discrete_distribution.branches.0.bias f4 [7]
0	0xbb1046b3	-0.0022014796
1	0x3aef7055	0.001826773
2	0xba3f43c8	-0.0007296172
3	0xbad61e47	-0.0016335928
4	0xba066a5e	-0.0005127544
5	0x3b19e68a	0.002348336
6	0x3aee5e5c	0.001818608

onnx::Div_70 f4 [37]
0	0x4167334b	14.450023
1	0x3ddbf224	0.10739544
2	0x4159d279	13.613885
3	0x3bec79fd	0.0072166906
4	0x3e95426b	0.29152235
5	0x3bec79fd	0.0072166906
6	0x41a2138e	20.259548
7	0x3c02e8c4	0.007990066
8	0x41938137	18.438093
9	0x3bec79fd	0.0072166906
10	0x3e92dfab	0.2868627
11	0x3bec79fd	0.0072166906
12	0x3c8fab95	0.017537871
13	0x3c91023b	0.017701259
14	0x3bec79fd	0.0072166906
15	0x3d0421da	0.032258846
16	0x3d360bdf	0.044444915
17	0x3c273675	0.010205855
18	0x3bec79fd	0.0072166906
19	0x3bec7a5a	0.007216734
20	0x3bec79fd	0.0072166906
21	0x3bec7a27	0.00721671
22	0x3f3a60f3	0.7280418
23	0x3bec97b8	0.0072202347
24	0x3f2bf476	0.6716989
25	0x3e93dbc8	0.28878617
26	0x3e7d9808	0.24765027
27	0x3e7d9705	0.2476464
28	0x3e8693f6	0.2628476
29	0x3e8694ff	0.2628555
30	0x3bec79fd	0.0072166906
31	0x3f2ee1dc	0.68313384
32	0x3e91f3e1	0.28506377
33	0x3f350b02	0.7071992
34	0x3ddbf10d	0.10739336
35	0x41252f60	10.324066
36	0x3e93da13	0.28877315
