results/MniejObrazenOdArenyMniejNagrodOdWygranej/BoxingAgent/BoxingAgent-105809.onnx (onnx, 409187 bytes, 13 tensors)

network_body.observation_encoder.processors.0.normalizer.running_mean f4 [84]
00000000: 0000 0000 23e6 2a3f 0dec 863e 744e 403f
00000010: 0000 0000 025b 2c3f 74d9 833e 6db9 3e3f
00000020: 0000 0000 df57 293f 3d47 893e 2d33 413f
00000030: 0000 0000 f12b 2f3f 3b19 7b3e 66e7 3c3f
00000040: 0000 0000 f8bb 273f 9e7e 8b3e 62ec 413f
00000050: 0000 0000 fc6b 313f f814 743e af69 3b3f
00000060: 0000 0000 a137 263f 66d5 8e3e f5eb 423f
00000070: 0000 0000 2b93 333f 5655 6b3e e5a8 393f
00000080: 0000 0000 5ccf 233f 3fb7 933e 03bc 433f
00000090: 0000 0000 02b3 353f b4dc 633e ec0c 383f
000000a0: 0000 0000 0579 213f 5972 973e 3f37 443f
000000b0: 0000 0000 50f6 363f 9aad 5d3e 2492 363f
000000c0: 0000 0000 06eb 1e3f 64df 9a3e ca11 443f
000000d0: 0000 0000 26ca 373f 809f 593e 3592 353f
000000e0: 0000 0000 1295 1d3f 5cbe 9b3e b344 433f
000000f0: 0000 0000 5909 383f 9a7d 553e 7f74 343f
00000100: 0000 0000 5937 1e3f e882 983e b8ed 413f
00000110: 0000 0000 d7d8 353f 6158 4c3e 4edb 303f
00000120: 0000 0000 ec15 213f 2cd4 913e 9355 403f
00000130: 0000 0000 686d 363f 444a 483e f4f6 2f3f
00000140: 0000 0000 c8db 233f 7c97 8b3e 9f84 3e3f
0.0 0.6675741 0.26351967 0.7511971 0.0 0.67326367 0.2575184 0.7450169
0.0 0.66149706 0.26812163 0.75468713 0.0 0.68426424 0.24521343 0.73790586
0.0 0.6552119 0.2724504 0.75751317 0.0 0.69305396 0.23836124 0.73208135
0.0 0.6492863 0.27897185 0.7614129 0.0 0.70146435 0.22981772 0.7252334
0.0 0.6398828 0.28850743 0.7645876 0.0 0.7097627 0.2225216 0.7189472
0.0 0.63075286 0.29579428 0.766468 0.0 0.71469593 0.21648255 0.7131674
0.0 0.6207737 0.3024856 0.76589644 0.0 0.7179283 0.2125225 0.7092622
0.0 0.6155559 0.3041867 0.762767 0.0 0.71889263 0.20848694 0.7049026
0.0 0.61803204 0.29787374 0.75753355 0.0 0.71033996 0.19955589 0.6908463
0.0 0.62924075 0.28482187 0.75130576 0.0 0.7126069 0.1955958 0.68736196
0.0 0.64007235 0.2726401 0.74421114

network_body.observation_encoder.processors.2.normalizer.running_mean f4 [37]
00000000: 478a 2f3f f284 6d41 1b74 6ac1 5f02 9cb1
00000010: 8b15 fd3e 65ea 0a31 4d45 a0be 1348 8838
00000020: 9fb1 06be 2585 cf2e fc68 fe3e 6ea7 a7b0
00000030: 2ca9 4e3f 30a7 4d3f d71f a43e 2edf 663e
00000040: 7be9 af3e 67ef 2d3f 4cd0 5c3e 712e 133c
00000050: 0000 0000 01cc fc3c e007 6cbc dde9 e136
00000060: 2316 90bc 73f1 813e a187 013f 97ef fc3e
00000070: 929a 013f 9ac9 fc3e 0adc 953d 543a 163e
00000080: afc8 0d3f e849 27bc f284 6d41 5ab8 3d41
00000090: a0ef ff3e
0.6857037 14.844957 -14.653346 -4.540467e-09 0.49430498 2.021488e-09 -0.31302872 6.49841e-05
-0.13153695 9.4369214e-11 0.49689472 -1.2198436e-09 0.80726886 0.8033323 0.32055542 0.22546074
0.3435782 0.67943424 0.21563834 0.00898324 0.0 0.030858995 -0.014406174 6.732748e-06
-0.01758868 0.25379524 0.5059758 0.49401543 0.5062648 0.4937256 0.0731736 0.14670688
0.55384344 -0.010210492 14.844957 11.857508 0.49987507

network_body._body_endoder.seq_layers.0.weight f4 [256, 121]
00000000: e5cb f9bd f2b4 adbd 0a97 e93d aca0 b3bd
00000010: 6ee0 393d 1fd5 243c 81fc 2e3d d9ab f6bb
00000020: 3316 dfbd 2cbd 0cbd 14ed ec3c 8acd 9abd
00000030: f32b 823d 9b17 2cbe 4454 cbbd 800b ddbd
00000040: 4a55 27be f38c 45bd 84a1 40bb 8c6c 073e
00000050: 2980 1cbd c399 9f3d cd9d 733d 584a 6fbd
00000060: 265d 413d 78bb ecbc 7ce6 01be b82c 5b3d
00000070: a405 31be 6b86 d4bc 4dfb a63d 4e4a 08bd
00000080: 80d1 50bd 7e07 233e c374 ed3d 192f 60bd
00000090: 6ed7 12bd bc36 9fbd d809 263d f88b 283d
000000a0: c337 2f39 2656 a73d f905 c0bd 7024 bf3c
000000b0: 2903 eebd b24a 2fbd 2e3e 40be 65ba fabc
000000c0: fc7e e0bc 779e a0bd 080d 333d 3866 1cbb
000000d0: 9963 3c3e bb83 a0bd 59c5 77bd 9e22 083d
000000e0: 6827 693c 24a3 adbc 97e3 20bd e7b6 f8bc
000000f0: 2a70 163b c628 333e 2d84 303d 47e6 43bc
00000100: fe57 6d3d ff54 3a3d e17b 11be 1367 70bd
00000110: a064 92bd 2a4b 1fbe 0fa7 df3d e865 4c3d
00000120: 6b33 7bbc cdd3 d0bd 3f10 9b3d 590d 303e
00000130: 8dc7 a0bd b0ba 6c3e efbc 5dbc f940 f23d
00000140: 7dc7 b2bd db90 4f3d 0709 98bd 1ce0 f73d
00000150: 10bf 64be 1dea 433e e7b8 81bd 860a a0bd
00000160: f46a e6bd 0384 bc3d 0245 7abd 5ada cc3d
00000170: 46b5 8bbd a206 ea3a d909 6fbd f89b ac3c
00000180: 530c 3fbe 5416 ecbc 3a6b 16be 392e 27be
00000190: cc4c a93d 5a2d d33c 46bb d9bd 6c58 783d
000001a0: ad50 4fbe c9d8 11be 6225 8d3d 5312 0bbe
000001b0: 2bda 1a3d a273 ae3d 81d8 b9bd 15df 8ebd
000001c0: fb6a 83bd c421 233d 453f 193e 219d dc3d
000001d0: 7243 e2bc 6414 163d bedd 903d c436 983b
000001e0: 92ca e23c 64e7 a4bd f73d 61bd 707e 99bd
000001f0: 8b33 813d 183c 84bd 1d46 423d fd0a a8bd
00000200: 5074 b7bd dc56 9b3c c614 a4bd ddc1 2a3e
00000210: 0c63 00bc 7fa5 c5bd 60b9 b0bd 38c9 2fbd
00000220: fb42 b63c ec0c 93bc c2e5 17be 437b 3e3c
00000230: e831 fdbd 00df 9dbd 2301 443e 1e86 c1bb
00000240: 7c41 a03d 2c5b 553e aa03 053d b35d f23d
00000250: fd69 e6bc 3413 293d a51f 163e 3d13 9cbd
00000260: 6b72 1339 92f7 9dbd 60a1 a43d dfe8 163e
00000270: 68f2 79bd b144 b9bb d430 d7bd e9a5 083d
00000280: f688 48be cd43 c6bd 41fd f83d e22d c8bd
00000290: 9ba2 943d 9e0e 61bd d6be f7bd 8163 0fbc
000002a0: 181b f9bd bf20 2abe 3a61 c5bd 09ca 403e
000002b0: e333 82bd 3ab1 0abe a799 fbba d2e3 8bbd
000002c0: bfd8 61bd bb7f 98bd 4f99 013d 8c16 1bbe
000002d0: 4b5d acbc f20a 123d f088 a3bd 97f5 4a3e
000002e0: 5701 063e ffbf 55bd de46 b93d a802 dfbd
000002f0: 4a56 63bd be17 5abc 4681 62bb 057a 063c
00000300: 08ea 70be 650e c3bc 19b5 9cbc 44f3 8ebd
00000310: 21db d03d 1904 813d 3a7a a43d 9cac f73c
00000320: ceb8 9abc 6659 81bd 6bad 1e3d 3f4f c33d
00000330: d84d 9fbd 9ecb ce3b 1f76 2b3d 079a 9abc
00000340: de47 15be 7e63 20be a710 8dbc bce3 a83d
00000350: ab4b c53d 37dc 10be 7cde 72bd 2a4f 50bd
00000360: ab00 ee3c 121f 163a ce08 423e 461b 9cbd
00000370: 764d cd3c 8c4e 2a3c 1b5b 43be 0eb7 c7bd
00000380: 1e3d 443d 4221 6ebc 532b 613e 2b9b 673d
00000390: e78e 37be d631 b6bb e274 cd3d ccbb 02be
000003a0: d4ab 16be d2ac 513e 8083 5e3d 3bce 0ebc
000003b0: f64b 2bbe 8d97 6b3d a244 dabc d28c 973b
000003c0: cda8 d4bc 7693 753d 1b9c 513d b8dc bebd
000003d0: a703 34bc 9371 1c3d 7fb9 fcbd c1e3 b93d
000003e0: 30bb f43b 76d2 b43c b2c0 17be 2964 6d3e
000003f0: ee6d 353e d336 3dbe ac8a 5cbc d9aa 53bd
-0.12197093 -0.08481778 0.114057615 -0.0877088 0.04538005 0.010060578 0.042721275 -0.00752781
-0.10892906 -0.034360096 0.028921641 -0.07558735 0.06356039 -0.1680588 -0.09928182 -0.10793209
-0.16341129 -0.048230123 -0.0029393146 0.13225001 -0.03820816 0.077929996 0.059476662 -0.05842051
0.047207974 -0.028897986 -0.12685579 0.053509444 -0.17287308 -0.025943002 0.081534006 -0.033273987
-0.050981045 0.15920827 0.11594536 -0.054732416 -0.03584998 -0.07774112 0.04053673 0.04114911
0.00016710073 0.081707284 -0.09376139 0.023332804 -0.116216965 -0.042795844 -0.1877372 -0.030606458
-0.0274043 -0.07842725 0.0437136 -0.0023864638 0.18397368 -0.078376256 -0.06049094 0.03323614
0.014230587 -0.021195956 -0.039279547 -0.030360652 0.0022955039 0.17496023 0.043094803 -0.011956758
0.057945244 0.045491215 -0.14207412 -0.05869205 -0.07148099 -0.15556017 0.10920536 0.049901873
-0.015332083 -0.10196648 0.07571458 0.17192592 -0.07850561 0.2311809 -0.013533815 0.11828799
-0.087294556 0.050675254 -0.07423597 0.12103292 -0.2233851 0.19132276 -0.063340954 -0.07814507
-0.112508684 0.09204867 -0.061100967 0.10002585 -0.068216845 0.001785476 -0.058359 0.021070465
-0.18657045 -0.02881924 -0.14689341 -0.16326226 0.08266601 0.025778461 -0.10631423 0.0606312
-0.20245619 -0.14242853 0.06891896 -0.13581209 0.037805717 0.08518149 -0.09074498 -0.06976143
-0.06416889 0.039827123 0.14965542 0.107721575 -0.027620051 0.03664054 0.07073544 0.0046452004
0.027684484 -0.08051947 -0.054990735 -0.07494819 0.06308659 -0.064567745 0.047430146 -0.08205221
-0.08957732 0.018962316 -0.08011775 0.16675515 -0.007836115 -0.096507065 -0.086291075 -0.042916507
0.022248736 -0.017950498 -0.1483374 0.011626068 -0.123630345 -0.077085495 0.19141059 -0.0059058806
0.0782499 0.2083556 0.032474197 0.11834278 -0.028126711 0.04127808 0.14660509 -0.07620857
0.00014061636 -0.07713236 0.08038592 0.14737271 -0.061022192 -0.0056539406 -0.1050736 0.03336135
-0.19583496 -0.09680901 0.12157679 -0.097743765 0.07257577 -0.05494558 -0.12096946 -0.008751751
-0.12163371 -0.16614054 -0.09637685 0.1882707 -0.06357553 -0.13544169 -0.0019195572 -0.06830563
-0.055138346 -0.07446238 0.031640347 -0.1514532 -0.02104058 0.03565497 -0.07985103 0.19820248
0.13086449 -0.052185055 0.0904672 -0.108891785 -0.055502214 -0.013311325 -0.0034561916 0.008207803
-0.23526776 -0.023810575 -0.019129323 -0.06979993 0.101980455 0.0629961 0.08031125 0.030233674
-0.01888695 -0.063158795 0.038739603 0.09536599 -0.077785194 0.006310894 0.041860696 -0.018872274
-0.14578196 -0.15662953 -0.017219855 0.08246562 0.09633573 -0.14146505 -0.05929421 -0.050856747
0.029053053 0.0005726676 0.18948671 -0.076223895 0.02506135 0.010394704 -0.19077723 -0.09751712
0.04790985 -0.0145342965 0.21989183 0.056544464 -0.17925607 -0.00556014 0.10032059 -0.12766951
-0.14713985 0.20476082 0.054324627 -0.008716161 -0.16728196 0.057517577 -0.026644055 0.0046249414
-0.025959397 0.059955083 0.051174264 -0.093194425 -0.010987199 0.03819425 -0.12340068 0.09076644
0.0074686036 0.022073012 -0.14819601 0.2318274 0.17717716 -0.18477945 -0.013460796 -0.051676605

network_body._body_endoder.seq_layers.0.bias f4 [256]
00000000: 4296 ebba 04b6 d73b 470b 8ab9 7ed7 fb3a
00000010: 3d15 96bb 6035 8c3a 4c32 d03a 7d47 24bb
00000020: 28b2 973b 31ad 453c d917 773a 98eb e1bb
00000030: b164 d9bb 0094 b2bc abc7 e83b 9048 153c
00000040: 5b95 c13b 8f9b ba3b e5cf 2a3c d99b 363a
00000050: 92b8 80ba ac6e 273b f69c 1bbc f698 7e3c
00000060: 621b 9d3b b7ed 903b 6d1e cd3b 246a 923b
00000070: 893f eb3b 6d0f 363c b52a a63c 1a74 943b
00000080: 829d 523c 732d 9a3c 026f 883b d2eb 433c
00000090: 34cc 1e3b 606c 673b 138a 123c a676 9abb
000000a0: 3cb1 993b aa52 233c 05db 233c e1d4 213c
000000b0: 5575 2a3c b47d c439 3a5d 603b 4b76 853b
000000c0: 3596 623c a4d3 023c 5ca3 adbb f021 9c3b
000000d0: cb65 993c e394 91bb 0bb9 063c b5e3 4a3b
000000e0: 5a55 b139 9c0b 103c 9b5a 21b9 c810 cbba
000000f0: 106b 24ba e67e 583c c08b 2b3c 9da3 413c
00000100: 7760 753a 94f4 dabb 3c88 353c ad35 8b3c
00000110: 59d4 d1ba a596 303b d502 d6bb f338 b03b
00000120: ea01 243b 24d7 61bb edd4 3f3c e085 7739
00000130: a444 303c d93f bf3b 3ed5 183c 5529 963b
00000140: 78de 203c 8c96 c7ba 8bff 383c 4a9c 3c3c
00000150: 92e7 913b eebc 813b f91b 943b 8869 79bb
00000160: 9f77 8b3b 52a9 983a 6743 d73a 9edf 60b9
00000170: 6d65 f4ba f3ee 8f3a 82eb 8fb8 6662 303b
00000180: c37b 693c b6da b93b e59a b2bb 05df 843c
00000190: 9dfb 7d3c b563 e83b f3ac 9cbb 57db 903b
000001a0: d55c 193b 2a41 2db9 349b d6bb 72c3 fc3b
000001b0: b9f1 243b 52a3 0a3c 32dd 83bb 35d7 ee3a
000001c0: 0276 df3b 1378 acba 1032 223c ade9 a2bb
000001d0: 728f bc3a 5984 623b cf16 eb3b a5dc 93bb
000001e0: fc15 253c 4622 54bb 36b5 ccbb a10e 6f3c
000001f0: 826f 1eba 2921 573b 3c66 ad3b c639 e13b
00000200: 6410 aa3b 9288 b1bb b6c9 d1bb 043f 443c
00000210: de3d d3ba a7c0 d7bb d7ab 1e3b 8270 e33b
00000220: 93e4 813c 3471 ed3b a8a6 da3b 87e2 3f3b
00000230: 798a cbb9 ff11 743a 64ad 00bc 0c2d c0bb
00000240: ce71 4a3a f4fa 393c 1fb4 303c 82f4 9c38
00000250: 797b a03b cfd0 6d3b c80c 9dba 3f83 8f3b
00000260: 6324 01bc f57e 343c e084 083a 95a7 b93b
00000270: c111 753c 2bc5 48b9 7665 b0bb 3d0b 203b
00000280: 034e 373c 92ca d03a 1bc3 ebbb e97e 943b
00000290: 1605 453c 9005 ca3b 7ad0 193c ff08 e13a
000002a0: c8a9 afb8 a0dd 3b3c 2015 b5bb c0fa 87bb
000002b0: 25aa 603b fda7 d03b 058c e53b fb9f 503c
000002c0: 8c76 493c df00 7c3c 886e 943b ddd0 c13b
000002d0: a1ad 943b b398 6c3a fd6e ad3a bc6a 823b
000002e0: 0936 853c eb90 5abb 3dc9 ba3b 5cc7 613c
000002f0: ec97 9c3b 3bd8 39bc d150 b73b c174 ebba
00000300: a6ad 923b 46b2 793c 59f5 e3bb d6cc a53c
00000310: 1940 88b8 3408 d13b a170 9fbb 2b2a 013b
00000320: 896b 973b 0f79 d53a d299 2a3c 42fc 543c
00000330: 751f 5d3b b837 babb 8831 6e3b a7e1 913a
00000340: a8fb 2bbb 6d0e 353c b7cf 653b bae8 7f3b
00000350: 7eaa 123c f47f d9bb 9084 09bb 3a2e ceba
00000360: 0ea8 a6ba 2992 7e3c 9879 83bb a8c4 083c
00000370: a067 63bc 4466 3ab8 a8fc 833b 6ceb 513c
00000380: d250 5ebb 92af 96ba 9b35 6ebb 972b feb9
00000390: d7dd 3e3c a07d 9e3a a8f0 4e3c 951d ee3b
000003a0: 87c4 5dba 1700 9e3c 019c d43b 5eec 0c3c
000003b0: 0c14 053b 204d 98bb b821 bcbb 8e1b 2aba
000003c0: 8453 3cb9 b94b bb3b 0151 853b 1385 873c
000003d0: 5ebb 123c 7a3a 5b3c cb54 953b 9466 8c3b
000003e0: 6012 003c 8b43 b3ba 0edd 283c d38c a93b
000003f0: d10a 9ebb d627 173c 93e5 033b 99fa b73b
-0.0017973857 0.0065829773 -0.00026329813 0.0019214002 -0.0045801685 0.0010697059 0.001588413 -0.0025067024
0.004629392 0.012065218 0.0009425856 -0.00689454 -0.006634318 -0.021799088 0.0071038804 0.0091115385
0.005907697 0.0056948136 0.0104255425 0.0006965972 -0.0009820631 0.0025548143 -0.009497872 0.015539398
0.004794524 0.004422869 0.0062597306 0.0044682194 0.007179205 0.011112076 0.020284036 0.004530442
0.012854936 0.0188205 0.004163624 0.011958079 0.0024230601 0.00353124 0.008944052 -0.004713851
0.0046903174 0.009968439 0.010000949 0.009877414 0.010403951 0.0003747769 0.0034235255 0.0040729395
0.013829757 0.007985029 -0.005299015 0.004764788 0.018725296 -0.0044427975 0.008222829 0.0030958478
0.00033823663 0.00879183 -0.0001538791 -0.0015492672 -0.0006272057 0.013213849 0.010470331 0.011818794
0.00093603827 -0.006681988 0.011079844 0.016993368 -0.0016008719 0.002694526 -0.0065310993 0.0053778826
0.0025025555 -0.003446051 0.01170848 0.00023605628 0.010758553 0.0058364687 0.009328185 0.004582564
0.009818666 -0.0015227362 0.011291395 0.011511872 0.004452654 0.0039592898 0.004519936 -0.0038057286
0.0042562033 0.0011647141 0.0016423286 -0.00021445609 -0.001864595 0.0010981247 -6.862638e-05 0.0026914119
0.0142506985 0.0056718243 -0.005450594 0.016219625 0.015501884 0.007091964 -0.0047813593 0.0044206786
0.002340128 -0.00016522841 -0.0065492634 0.0077137286 0.0025168492 0.00846179 -0.0040241713 0.0018222096
0.0068194875 -0.0013158343 0.009899631 -0.004971704 0.0014386012 0.0034563749 0.00717435 -0.004512387
0.010076042 -0.0032369061 -0.006247188 0.01459089 -0.00060438376 0.0032826161 0.0052917283 0.006873342
0.005189942 -0.005417892 -0.0064022196 0.011977915 -0.001611646 -0.0065842452 0.0024211311 0.006940902
0.015856063 0.007246161 0.006672699 0.0029279308 -0.00038822347 0.0009310543 -0.00785384 -0.005864745
0.00077226467 0.011351336 0.010785132 7.484203e-05 0.0048975316 0.003628779 -0.0011981959 0.0043796594
-0.00788221 0.011016597 0.0005207788 0.0056657293 0.014957846 -0.00019146937 -0.005383189 0.002442076
0.011188033 0.0015929511 -0.0071948892 0.0045317304 0.012025138 0.006165214 0.009388084 0.0017168819
-8.3762745e-05 0.011466414 -0.0055262 -0.004149765 0.0034281102 0.006367682 0.007005217 0.012733455
0.01229633 0.015381067 0.004529778 0.005914791 0.0045372997 0.00090254395 0.001323193 0.003980009
0.016261118 -0.0033350538 0.005700259 0.013780441 0.0047788527 -0.011343057 0.005594351 -0.0017963873
0.004476267 0.015240258 -0.006956738 0.020239275 -6.4969245e-05 0.0063791517 -0.0048657213 0.0019708972
0.0046209735 0.0016286689 0.01041265 0.012999596 0.0033740674 -0.0056829117 0.003634544 0.0011129872
-0.0026242528 0.011050803 0.0035066435 0.0039048628 0.008951781 -0.0066375677 -0.0020983554 -0.0015730329
-0.0012714879 0.015537777 -0.004012298 0.008347668 -0.013879687 -4.4441098e-05 0.0040279217 0.012812477
-0.0033922684 -0.0011496416 -0.003634787 -0.00048479132 0.01164957 0.0012091883 0.012630619 0.00726671
-0.0008459766 0.019287152 0.0064883237 0.008601276 0.0020306138 -0.004647866 -0.0057413243 -0.00064890913
-0.00017960189 0.005715814 0.0040684943 0.016542947 0.008955805 0.013380641 0.0045572273 0.004284689
0.007816881 -0.0013676746 0.01030661 0.0051742583 -0.0048230668 0.009225806 0.002012585 0.0056145904

network_body._body_endoder.seq_layers.2.weight f4 [256, 256]
00000000: face bf3d 997a 90bd 7b30 86bc e011 a33b
00000010: 5e63 a23c 6cc0 1bbd dcc2 b1bd 9a65 bf3d
00000020: 91b9 36bd d4d4 113d cc50 99bd fa93 cdbb
00000030: 99f3 80bd 9e50 93bc a136 cf3a 1b7d 2fbe
00000040: 5b8b febc 6423 0c3d 309f b7bc 1d19 00bd
00000050: 144e 94bb 5e3b 9fbc 4fc1 d2bd 73c9 d3bc
00000060: 18a0 353d 814f 75bd cdca ea3d 3dc9 1dbd
00000070: 50b5 42bd 911a 27bd cce3 a53c f2e7 823d
00000080: 754a eebb 9b17 da3d 2386 6f3c e9da 00be
00000090: 1bb2 1b3d 64d1 173d 8fe5 71bd d741 3bbd
000000a0: f158 8ebd 104f 4a3d 91f5 503d f0de 333c
000000b0: 6a41 ef3b 0abc dbbd 0383 c3bb afe3 bfba
000000c0: e66f 88bc 6c47 893d f7aa 83bd 017d 3fbd
000000d0: e11c d7bd 4d6a 073d f26c 1cbd 8f38 c93d
000000e0: aa5a 7bbd 32ce 983d dbef b0bc 16f4 a33d
000000f0: c385 17bd c8dd 93bd 6752 bebd e474 37bd
00000100: 7f7a 4fbd 5074 5fbd 52b9 69ba df64 85bd
00000110: fec1 6b3d 10ba 8e3d 9a4c a13d e1fd 62bb
00000120: 2ff0 57bd 0837 9bbc fbae 9f3c fa2b 69bc
00000130: 4222 adbb 31a2 a73c d62d 263e 8dab 533c
00000140: 1210 743d e7a4 773d 9605 49bd f41e 863b
00000150: 5df8 4abd bc45 b93d 7c1d 9e3d f21f d4bd
00000160: 06ce 8cbd 7538 ad3c 1be9 7b3c eee2 cbba
00000170: 442b ee3c e8d1 57bd c467 19be 48e9 d8bc
00000180: efc6 0abd 9a75 e7bd b848 943d 0e97 9bbd
00000190: fc38 0c3e b2b0 de3c 193b 8ebd 1b62 dcbc
000001a0: a720 e73d 4a0b 7c3d 5279 143d 2bb4 d93b
000001b0: 6cd5 c53c 5356 b13b 749d 92bc 0dfa 98bd
000001c0: c379 51bd 5c1a 72bd b4b5 b8bd a762 7d3c
000001d0: 3cb0 19be 3cd0 d9bd ef8c 3f3e 764f 8d3d
000001e0: b396 8e3d 510f df3c bb43 27bc e37b 073c
000001f0: a93f adbd 5b00 2b3c c1b8 613d faf9 313d
00000200: 1076 aabd 7ab4 6f3d 9a42 b9bb cda6 12bd
00000210: 01fb 383c 6493 863d 2add 8b3c b8d9 373e
00000220: 44b3 68bb f55a 5fbd ddb4 733c 2fbf 1e3c
00000230: dfc6 803d 5d5a 183d 3ed7 d1bc 4b05 37bc
00000240: 0bf5 853e 3468 15bd c7c9 513d c936 bebd
00000250: 1047 53bc f297 0b3d 4a20 33bd fac5 ac3d
00000260: fc64 c9bd e143 afbc fa34 5dbb 3062 ddbc
00000270: 9d17 6d3d b9e9 4c3d 5d9d 793d 8787 e73d
00000280: c00e b1bd 7866 013c fbc3 5d3d dbc9 8abc
00000290: 70ca 13bd 67a1 53be b9b5 1b3c c817 a9bd
000002a0: 6b63 84bb 5de9 9c3d a720 9f3c 36ce b63c
000002b0: e5e4 febd de19 563d 34bd 273d 6ddf 13bd
000002c0: d5d9 4e3c c5be 18bc 5436 bbbb 56c6 0bbd
000002d0: 005a 323d 8b98 333c 0ff5 973d 3e5a 3bbd
000002e0: 6d95 7abc ceb6 133c 6e0e e6bd a734 873d
000002f0: 32d2 71bd 5dd8 43bc 1e76 d93c b830 053e
00000300: 9010 08be 7b4f a3bd 4148 843c 902e 59bd
00000310: f34a a8bc a474 6c3c b406 55bc e59a 373d
00000320: 5150 90bc dc15 b43b 3ca7 87bd 5b3d 17bd
00000330: 022f b93b a837 75bc 3ffe 483d d27d d5bd
00000340: 932b 173d f753 c73b acf4 25bd ad53 0dbd
00000350: 756a d4bc b0f7 0b3d 8828 0abd 79d0 993d
00000360: a628 85bc bc4b f5bd 6353 dc3c bf99 953c
00000370: 0b85 13bd 2f75 02bd b126 35bb 0c12 aebd
00000380: e7c5 453d 5c60 813d da37 13bd 6e39 bd3c
00000390: ff9e 48bd f646 65bd b32b 17bc 3b00 d33b
000003a0: 8389 843d 1542 7bbc a412 b13b b2b4 4a3d
000003b0: 33a2 b23d 5ef7 963c 9434 793c b6f2 64bc
000003c0: 6601 a5bd e280 8d3d 4d1d a5bc 8008 243e
000003d0: 2bf4 1d3d d604 803d 6486 f6bd 22fc 89bd
000003e0: e426 003d 07d7 d0bc b487 893c f4c7 8cbd
000003f0: 528e 693d eeb9 90bc 87d8 a2bd e0d8 67bd
0.093656495 -0.07054634 -0.01638054 0.004976496 0.019822773 -0.038025305 -0.086797446 0.09345551
-0.044610564 0.03560336 -0.07486114 -0.0062737437 -0.062964626 -0.017982777 0.0015809127 -0.17137568
-0.03107231 0.03421344 -0.022414774 -0.03127395 -0.004525909 -0.019437488 -0.10290777 -0.025852894
0.04434213 -0.059890274 0.114644624 -0.038521994 -0.047536194 -0.04079682 0.020250224 0.06391896
-0.0072720596 0.10649034 0.014619383 -0.12583508 0.03801165 0.037064925 -0.059056815 -0.045717087
-0.06950558 0.049391806 0.05101544 0.010978445 0.007301499 -0.10729225 -0.0059665455 -0.0014639999
-0.01665492 0.06703076 -0.06429093 -0.046750072 -0.10503555 0.03306036 -0.038189836 0.09825241
-0.06136576 0.07461204 -0.021598747 0.0800554 -0.0369928 -0.07220036 -0.09293061 -0.04478921
-0.05065393 -0.054554284 -0.00089158595 -0.0651338 0.057558052 0.06969082 0.07875939 -0.0034636187
-0.05271929 -0.01894714 0.019492617 -0.014231676 -0.005283625 0.020463081 0.16228423 0.012919319
0.05958564 0.060459998 -0.049077593 0.0040930454 -0.049553264 0.09046504 0.077204674 -0.103576556
-0.06875233 0.021145085 0.015375401 -0.0015555301 0.029073365 -0.052690417 -0.1498099 -0.026478425
-0.033881124 -0.113017276 0.072404325 -0.07597171 0.13693613 0.027183864 -0.06944866 -0.02690225
0.11285525 0.061534204 0.036248513 0.006643792 0.024149619 0.005411902 -0.017897345 -0.074695684
-0.05114151 -0.05910717 -0.09019032 0.015465415 -0.15008634 -0.10635421 0.18706106 0.068999216
0.06962337 0.027228983 -0.010209019 0.008269283 -0.08459408 0.0104370965 0.055107836 0.043451287
-0.083233 0.058521725 -0.0056536915 -0.035803605 0.011290313 0.06571081 0.017073233 0.17954147
-0.0035507241 -0.054530103 0.014874664 0.009689136 0.06287932 0.037195552 -0.02561533 -0.011170696
0.26163515 -0.03647633 0.05121782 -0.09287793 -0.012895361 0.034080453 -0.043731965 0.084361985
-0.09833714 -0.021394672 -0.00337535 -0.027024359 0.057883848 0.050027583 0.06094109 0.11305147
-0.086453915 0.007897966 0.05414198 -0.016941955 -0.03608173 -0.20667039 0.009503775 -0.08256489
-0.004040172 0.07661698 0.01942475 0.022315126 -0.12446002 0.052270763 0.040951923 -0.036101747
0.012625177 -0.009322827 -0.0057132635 -0.034124695 0.043542862 0.010961662 0.07419788 -0.04574036
-0.015294415 0.009015752 -0.11233221 0.066018395 -0.05903835 -0.0119534405 0.02654558 0.13006866
-0.13287568 -0.07974144 0.016147735 -0.05302292 -0.020543551 0.014432106 -0.013002086 0.044825453
-0.017616423 0.00549577 -0.06623694 -0.036923748 0.0056513557 -0.014966883 0.049070593 -0.10424389
0.03690679 0.0060830074 -0.04051654 -0.034503628 -0.025929669 0.03417176 -0.03373006 0.07510466
-0.016254734 -0.11977336 0.02689523 0.018261788 -0.03601555 -0.031850036 -0.002764147 -0.08499536
0.048284438 0.06317207 -0.035941936 0.023098674 -0.048979755 -0.055975877 -0.009226727 0.0064392365
0.06471541 -0.015335579 0.0054038335 0.04948873 0.08722343 0.0184285 0.0152102895 -0.013973882
-0.08056907 0.06909348 -0.020155573 0.16018867 0.038562935 0.062509224 -0.12037352 -0.06737544
0.03128709 -0.025493158 0.016788341 -0.068740755 0.057020493 -0.017666783 -0.079514556 -0.056603312

network_body._body_endoder.seq_layers.2.bias f4 [256]
00000000: 0749 a13b b478 79bb aee9 6e3a c8e1 f73a
00000010: 9f8a d13b 9521 1e3b addf 653c c169 e8ba
00000020: 5739 3bbc 556e eb3a 5985 feba 66f3 283b
00000030: f2ca 293c ab19 c33b 4062 0e3a 4a17 253c
00000040: 2f91 973b dc56 7c3c d6d9 4abb 737a 803c
00000050: adc6 bc3b c587 9f3b b7d4 38b9 6207 5d3b
00000060: 69c9 1f3c 9052 05bb c393 29ba b449 2abb
00000070: d6a0 55ba 3c75 173b d732 393c da56 b9b9
00000080: 137c 553b 4b9e 733b 9186 983b b34a 133b
00000090: 89b8 eb3a 1551 2a3b 2d98 cf39 d88f 8e3b
000000a0: 90e6 6a3c c83b 69bb 867d 563c 74ad 263b
000000b0: 00f7 973c cc58 ee3b 5387 8239 b45d a83b
000000c0: 1cf9 353c 4ebc 653b ee27 3a3c 8e2a 2d3b
000000d0: ed21 e8bb 5d9d 403c 6493 053b ca78 363b
000000e0: e3c6 2e3c ca8f 62ba 818d a0bb c6bd 663b
000000f0: 199f 1bbb 4227 0dbb cb67 543b 2cd8 50bb
00000100: a38c 123c 6441 cb39 546d 8539 e76a 343b
00000110: f4c1 3a3c f3a7 97bb 055c ab3b 8e7c 593b
00000120: 0547 993b 3e78 633a 4dfd cd3a 86ce 3e3c
00000130: 01f6 263b 85c7 d33b 4eee d23b f6af 333a
00000140: b0dd 63ba 4ecb ed3b 90dd 343b 4528 3a3c
00000150: 90d6 1cb9 cddc 22bb bf1c 523c f0e3 c0bb
00000160: d29c a93b 7f08 973b 024a 8cbb 1891 c43b
00000170: de2c dab9 e915 3aba 650b 72bb b2dd 65bb
00000180: fd68 52bb f999 bb3b f4ba e53b 3a42 d43b
00000190: c298 383a 26d2 82bb 37c5 133c 2c64 3bbc
000001a0: 2993 3e3c 1e26 d63a b176 3c3b 3b91 0d3c
000001b0: d048 2f3b 42ba e13a 2af3 aa3a 7011 0abb
000001c0: 3711 433b d7c7 903b dc5e 713a 810e 853b
000001d0: 8c28 d53a a262 2abb 6775 eab8 2524 12bb
000001e0: e1c4 3b3b d4c0 9d3b a542 79bb 2dd4 003b
000001f0: ab19 d2ba 5a14 cb3b f9f4 58b9 df88 e8ba
00000200: 0ee5 1b3b 71eb cf3a 1723 953a 8855 803b
00000210: 36ab 36ba 079c 403c 3a4f c53b a391 353c
00000220: bf4a bfba f008 38bb 9615 d63b 6cb4 d039
00000230: 1e85 6d3b e207 d53b 03c2 e23b ceac 9c3a
00000240: 327c 433c b248 ca39 9069 443c 634b 133c
00000250: b52f 983b 9185 813a 6f6c fb39 b593 923b
00000260: f4a3 543c 9b15 083c ecee 0bba db0c 823b
00000270: ebce 1f3c 02f7 913b 78af abbb 60df 443b
00000280: 7e9d cbba 685e 413b 43ad 87ba 0d51 f6ba
00000290: 2b14 9a3b 8c87 d53b 811f 363c 8fb6 dc3b
000002a0: 5c45 683a d172 453a 4359 dc3b 4e1b f13b
000002b0: b33e 61ba 0cc6 41bb 6a92 4d3a dc6e fc3b
000002c0: 9a31 403b bf63 8fb9 2764 093b 2358 63ba
000002d0: 6026 da3b a95d 3a3b 8840 183c e8ab 093b
000002e0: 8584 f53b f245 843c 0a43 363c ede0 5c3b
000002f0: f419 133c 2149 d93b 063f 9d3b 3b41 ebba
00000300: 6eee d53b 04ea ab3b b7a6 00ba a1dc d73b
00000310: 3559 b9bb 1d97 06bb fe95 413c a037 623b
00000320: ea6d 0f3b 65ae 103b b2c0 ab3b 81ee 11ba
00000330: 8b32 923b ddaa 4bba 62b2 9eb9 6e9d 363b
00000340: 8da1 013c 50b6 a53b b8eb a13b 53fe 403b
00000350: e4f6 0cbb 5fef b03b 0d37 dbba 7581 2c3c
00000360: 414c 6e3b ce20 dcba 48f1 3e3c ec63 973b
00000370: 8f3b f93b 6ce5 84ba a954 feba d638 0d3c
00000380: afaa 9b3b e8d7 d4bb c922 4abb 2d94 a33b
00000390: efe0 cabb 2ec4 733b d335 443c ab2b fbbb
000003a0: b9c8 023c 3be5 673b fbda 943b a8c5 4d3b
000003b0: 2074 c93b 01ff a83b 712a 243c ca4a af3b
000003c0: 83c3 903a 4d6d babb a8b7 0eba acb0 b03a
000003d0: fcd0 7e3a 4a20 9a3b 7078 65bb 366e afba
000003e0: 22ec 2e3a 7cc9 e23b 3943 393b 9312 813a
000003f0: de7c 083c bd1a 833b 483e aabb 39c1 f23b
0.0049220356 -0.003806633 0.00091138005 0.0018911893 0.0063946988 0.0024128903 0.014030379 -0.0017731712
-0.011427245 0.0017961959 -0.0019418403 0.0025779842 0.010363327 0.0059539876 0.00054315105 0.010076353
0.0046254615 0.015401568 -0.0030952594 0.015683388 0.0057609887 0.00486848 -0.0001762685 0.0033726324
0.00975261 -0.00203434 -0.00064688566 -0.0025983872 -0.00081492716 0.0023110649 0.011303625 -0.0003535066
0.0032575175 0.0037173207 0.0046547134 0.0022474944 0.0017984073 0.002598827 0.00039595496 0.0043506436
0.014337197 -0.003558861 0.013091451 0.0025432976 0.018550396 0.007273769 0.00024896357 0.0051381234
0.011106756 0.0035054865 0.011362059 0.002642307 -0.0070841224 0.011756268 0.002038204 0.0027842992
0.0106675355 -0.0008642642 -0.004899681 0.0035208329 -0.0023745953 -0.0021538292 0.0032410498 -0.003186713
0.008944663 0.00038767897 0.00025449193 0.002752954 0.011398781 -0.0046281754 0.0052294754 0.0033185813
0.0046776556 0.000867728 0.0015715748 0.011645919 0.002547622 0.0064629936 0.0064370995 0.00068545283
-0.0008692397 0.007256902 0.0027597882 0.01136214 -0.0001495725 -0.0024850846 0.012824236 -0.0058865473
0.005176165 0.004609167 -0.0042812834 0.005998742 -0.0004161363 -0.0007098602 -0.0036933061 -0.0035074768
-0.0032106035 0.005725142 0.007010812 0.0064776214 0.00070418057 -0.003992337 0.009019188 -0.011437457
0.011631765 0.0016338264 0.002875727 0.008640583 0.002674628 0.0017221647 0.0013042439 -0.0021067522
0.00297649 0.004418354 0.00092075556 0.004060567 0.0016262694 -0.002599873 -0.000111798574 -0.0022299376
0.0028651285 0.0048142467 -0.0038034108 0.0019657717 -0.0016029378 0.0061974945 -0.00020690625 -0.0017740986
0.002378765 0.0015863014 0.0011378255 0.003916446 -0.00069682614 0.01175595 0.0060214074 0.011082086
-0.001459442 -0.00280815 0.006533335 0.00039807276 0.0036242674 0.006501184 0.0069201007 0.0011953355
0.011931466 0.00038582605 0.011988059 0.008990142 0.004644359 0.0009881725 0.0004795524 0.0044731745
0.012978543 0.008305932 -0.00053380313 0.0039688176 0.009753923 0.0044544945 -0.0052394234 0.0030040368
-0.0015534607 0.0029505733 -0.0010351319 -0.0018792466 0.0047021112 0.0065164026 0.01111591 0.00673563
0.0008860433 0.00075320626 0.006724508 0.0073579913 -0.0008592412 -0.0029567508 0.0007841947 0.007703645
0.002932644 -0.00027349402 0.0020964236 -0.0008672496 0.0066574067 0.0028437173 0.009292729 0.0021007005
0.007492604 0.016146634 0.011124382 0.0033703402 0.008978356 0.006631032 0.0047987727 -0.0017948517
0.006528667 0.0052464027 -0.0004907655 0.0065875803 -0.0056563863 -0.0020536848 0.011815546 0.0034518018
0.0021885582 0.0022076603 0.005241477 -0.0005566851 0.0044615916 -0.0007769296 -0.00030269014 0.0027864831
0.007912052 0.0050571337 0.00494143 0.0029448464 -0.0021509463 0.005399629 -0.001672478 0.010528912
0.003636137 -0.0016794445 0.011654206 0.004620066 0.007605977 -0.0010139174 -0.0019403893 0.008619508
0.0047505717 -0.0064954646 -0.0030843487 0.004992029 -0.006191365 0.003719579 0.011975723 -0.0076651177
0.007982426 0.0035384435 0.004542706 0.003139833 0.0061478764 0.005157352 0.010019884 0.0053494917
0.0011044595 -0.005689299 -0.0005444237 0.0013480387 0.0009720472 0.004703556 -0.0035014413 -0.0013384286
0.000667276 0.0069209915 0.0028268828 0.0009847454 0.008330552 0.00400099 -0.005195413 0.007408288

action_model._continuous_distribution.log_sigma f4 [1, 3]
00000000: 6e1a 35bc f844 c4bb b1bd 7c3b
-0.011053665 -0.005989667 0.0038565213

action_model._continuous_distribution.mu.weight f4 [3, 256]
00000000: c975 a63c 3e4e a93b 0d55 9d3c 9c11 d63b
00000010: 05e7 15bc 23de 1cbc 40e7 7bbc 3509 adbb
00000020: 6780 1c3c 657d 093d ff50 4a3b 2453 f3b7
00000030: f65c 2f3c 0928 bebc fc29 923c 9de7 b6bc
00000040: be3f db3c 0cf1 8bbc ad64 1c3c 1fc0 bbbb
00000050: 060f 02bb 3d0b 95bc 6ccb f03b 4872 ca3c
00000060: 25dd f3bc a4d5 4c3c a7d6 c9bb f561 963c
00000070: 7bdf 43bb 1f56 a13c 190a a03b ed09 4a3c
00000080: e057 363c 5947 c4bc bbdf 603c 35d6 3a3d
00000090: 4fef 1c3d d204 e23c 274a 3f3c 48a4 58bc
000000a0: 18bd a2bc a34b 6f3c ba77 8dbb b4b6 303c
000000b0: 3dea c7bb d677 003c 1798 05bc b8d0 d43c
000000c0: 6a6e d83c e3fd 49bc 2a20 9dbc c835 0c3c
000000d0: 2b29 bdbb 1120 8fbc 8e06 0e3d 2ac1 0ebb
000000e0: 08e3 c2ba e278 183c e8bb 913c 5920 a1bc
000000f0: 131b ab3c 43ab d43c 8df6 d63b cb54 973b
00000100: e6db 963c 6971 a03b 8716 84bc 27ae 59bc
00000110: 43b4 ecbc a8b0 e03b 1890 40b8 69c4 7a3c
00000120: 5cf5 333c 3796 0cbc c876 6fbc 1888 1bbd
00000130: cc3f acbc 6d5a 30bb bf43 d5bb b951 493c
00000140: 07bf 633c d232 57bc f850 10bc 395c 6ebc
00000150: 4446 183d 9024 bc3b 5e20 b1bb 1127 e0bb
00000160: daeb 013d 3303 da3c cd39 75bc a82e d6bc
00000170: 47e6 383c b91b b33c cf36 ec3b caa6 033c
00000180: 51e7 fa3b 9f4b 203b 0173 65bc 1935 bcbb
00000190: a53e e23c 6e4f 3e3b e936 8d3c 1e23 393c
000001a0: d89e cb3b 0e8c 7d3b 18cc edbc cdc4 bbbc
000001b0: 2b4b 1a3d b682 81ba 404d 203c f8c1 663c
000001c0: 9c58 e53c fac8 babb 3e7e b73c cfe8 cb3c
000001d0: 82ae 3d3b 63a6 1f3c ded7 8dbb 789d a43c
000001e0: e5bd 283c cdf0 adbc e745 893c 49e6 303c
000001f0: 54a7 a13c ffa8 aa3b 91bd c53c 59ae 27bc
00000200: bd41 f63c 8c01 d43c a8fb 943c 7a60 c7bc
00000210: 7958 d53b fda6 c6bc 9331 75bc 215e a9bc
00000220: 1c13 0bbc 279c c9bb 5856 76bc 5ac1 3e3c
00000230: 7bcb ea3c 169b abbc 2827 553c 7851 123c
00000240: fd61 84bc 4b6f b3bb eaf0 1ebd d65f e03b
00000250: b1f2 9b3c 9055 65bc fcfb ccbb cf4f e83c
00000260: 46a8 e0bc ce00 8fbb f0e1 fe3c 1f2d 64bc
00000270: 7ac4 cabc 9eeb 6e3a 85ba 79bb 2f39 683c
00000280: 765e 173c bb3b 28bb 9079 003c a20a 3f3c
00000290: e20b 4d3c 753f 87bc c759 70bc 1a03 a93c
000002a0: 9827 e83c 620e a53c c323 d4bc 3291 15bc
000002b0: 23b9 0b3c 9d5d 203c ee0a 83bc cf67 573c
000002c0: a2b0 1a3c 5b3c 01bc fd2b 7d3c e43f 753c
000002d0: 4a8b a8bc 68e5 583a 7e2d cc3b fffe 7a3a
000002e0: bb04 93bc 289b 32bc 36c0 8739 c51b 0aba
000002f0: ed45 9dbc 855e 89bc b8e6 343c 38f5 6c3c
00000300: 8096 4a3a f6f6 ed3c c3bf 93ba 27f6 573c
00000310: 223e 4a3a 8f38 963c 6a0e f3bc 7da9 cfbb
00000320: f7c4 a5bb 670f a83c e945 cdbc e1b8 12bc
00000330: 11ab a1bb 4b04 4abc 5a93 4d3c d53a 653c
00000340: d193 90bc 76b0 933c ca0a 54bc f222 e03c
00000350: ece3 cf3b b8b1 2abc d88f 703a 6645 fcbc
00000360: a54c 02bd 7513 8dbb 84c5 b3bc 44c9 3bbc
00000370: 36d8 1fbc b0cd b63c aca5 21bb 62d5 8ebc
00000380: 529c a3bc e754 0b3c b1a2 8b3c 33d8 3b3c
00000390: 4e52 a0b8 dc1b b23b a7cc ddbc 2501 923b
000003a0: ca26 8abb daf3 853c bb42 a8bc c9b4 a23c
000003b0: 95ed debc 1863 d7bc 8d31 a5bc 5b3d f1bc
000003c0: a3b7 d7bc bad6 753a dba0 213d 5a23 ac3c
000003d0: c346 fd3b 4efe 71bc 938e ea3c 944a f53c
000003e0: 5f6d f9bb 6118 ca3b 35e4 8a3c e451 7f3c
000003f0: 68a8 07bd 33b5 a53c 7d9f a73a 3e5a 58bc
0.020319836 0.005166798 0.019205594 0.006532861 -0.009149318 -0.009574446 -0.0153749585 -0.0052806386
0.009552098 0.03356685 0.0030871031 -2.9006573e-05 0.010703316 -0.02321245 0.017842285 -0.022327239
0.026763793 -0.017082714 0.009545487 -0.0057296897 -0.001984538 -0.018193835 0.0073484685 0.024712697
-0.029768536 0.012502108 -0.0061596218 0.018357256 -0.0029887843 0.019694386 0.0048840162 0.012331468
0.0111293495 -0.023959802 0.0137252165 0.04561444 0.03831416 0.02759019 0.011675394 -0.013222761
-0.019865558 0.014605436 -0.004317251 0.010785747 -0.0061009214 0.007841071 -0.008153937 0.025978431
0.026419837 -0.012328598 -0.019180376 0.008557744 -0.00577273 -0.017471345 0.03467422 -0.0021782615
-0.0014868686 0.009306164 0.017789796 -0.019668745 0.020886933 0.02596057 0.006560153 0.0046182624
0.018415403 0.004896332 -0.016124023 -0.01328615 -0.02889455 0.0068569966 -4.5910565e-05 0.015305617
0.010983791 -0.008580736 -0.014615722 -0.037971586 -0.021026514 -0.0026909367 -0.00650832 0.012287551
0.013900525 -0.013134675 -0.008808367 -0.014548355 0.037176386 0.0057416633 -0.00540547 -0.0068405946
0.031719066 0.026612854 -0.014967394 -0.026145294 0.011285371 0.021863805 0.007208682 0.008035371
0.0076569696 0.0024459136 -0.01400447 -0.0057436344 0.027617762 0.0029039043 0.017238097 0.0112998765
0.006214004 0.0038688215 -0.029027984 -0.02292099 0.037669342 -0.0009880874 0.009784043 0.014084332
0.027996354 -0.005700228 0.022399064 0.024891285 0.0028943126 0.0097442595 -0.004328712 0.020094618
0.010299181 -0.021232987 0.016756965 0.010797092 0.019733109 0.005208134 0.024138244 -0.010234439
0.030060643 0.025879644 0.018186405 -0.024337996 0.006510791 -0.024249548 -0.014965433 -0.020674767
-0.008488443 -0.006152648 -0.015035234 0.011642778 0.02866148 -0.020947974 0.013009824 0.0089305565
-0.016160006 -0.0054759136 -0.038803972 0.006847362 0.019036623 -0.0139974505 -0.006255625 0.028358368
-0.027423989 -0.0043641096 0.031113595 -0.013926773 -0.02475189 0.0009114089 -0.003810556 0.01417379
0.00923883 -0.0025670368 0.007841483 0.01166025 0.01251504 -0.01650975 -0.014669842 0.020631362
0.028339192 0.02014846 -0.025895959 -0.009128856 0.008528027 0.009787944 -0.015996423 0.0131473085
0.009441527 -0.007887925 0.015452382 0.014968846 -0.02057423 0.000827393 0.006231009 0.00095747405
-0.017946592 -0.01090125 0.00025892415 -0.000526842 -0.019198382 -0.016768703 0.011041336 0.014462762
0.0007728115 0.029048424 -0.0011272359 0.013181246 0.0007714947 0.018337516 -0.02966996 -0.0063373432
-0.0050588804 0.020515157 -0.02505775 -0.008955211 -0.004933723 -0.012330125 0.012547338 0.013991077
-0.01764861 0.01802848 -0.012942025 0.027360413 0.006344309 -0.010418348 0.0009176708 -0.03079481
-0.031811375 -0.004305298 -0.021944769 -0.01146156 -0.009756139 0.022314876 -0.0024665399 -0.017435733
-0.019972 0.008504129 0.01704535 0.01146512 -7.644725e-05 0.00543545 -0.027075125 0.004455703
-0.00421605 0.016351629 -0.020539632 0.019861596 -0.027212897 -0.026292369 -0.02016523 -0.029448202
-0.026332682 0.0009378005 0.039460044 0.02101295 0.0077293827 -0.014770104 0.028632438 0.029942788
-0.007611915 0.006167457 0.01695452 0.015583489 -0.03311959 0.020228004 0.001278862 -0.013205109

action_model._continuous_distribution.mu.bias f4 [3]
00000000: 7082 21bb 293b 3cbb 0a1b d1b7
-0.0024644397 -0.0028721786 -2.4927333e-05

action_model._discrete_distribution.branches.0.weight f4 [7, 256]
00000000: 5cbc c03a 0388 ffba 689c 033b 7f62 413c
00000010: 2814 233c 623c 64ba 4cb8 0d3c dc97 af3a
00000020: 9a05 d1ba 3994 b33c ea43 55bc 90f8 3bba
00000030: 8689 973b dde6 723c fad1 d8ba 1811 4cbc
00000040: c47b 17bc 8c46 133c 3f91 4b3b 5e55 073c
00000050: 9c0d 34bc 1c37 923a 7e7e 52bc 18b6 143b
00000060: 176a 9bbb 2ac4 973b 17d4 24bc b941 89bc
00000070: 9cea 06bb 1f31 093c cd88 efba 99f4 0bbc
00000080: 7012 fabb 134a 2a3c ab74 bf3a c526 e1ba
00000090: 92c4 99bc 5e87 2dbc 6c6d 203b 82cd 9f3b
000000a0: 935e 9b3b 74d0 01bb 3aee 99bc b408 7839
000000b0: 0146 9abc abd2 8639 b4fc 47bc fc04 47bb
000000c0: c35d 613b 2001 d0bb 60bf 54ba 4234 a4bb
000000d0: deb2 b139 1737 39bc 070e 69bb ad22 3d3c
000000e0: 8d0b a4bb 2d05 223c 6317 a93a b266 d7b8
000000f0: 4da1 65bb 44c9 d7bb d012 6fbc 1016 0c3b
00000100: b26e 22bc d6f7 4dbc 8598 0c3c a338 4abb
00000110: 6170 4c3c 3bcb 12bc 468a 94bb 27e2 7aba
00000120: 9829 9f39 4c28 7a3b 9131 403c 2f7d 81bb
00000130: 4d55 003a 1c7e 563c f1fe 30bc f942 15bb
00000140: a883 0e3b c0a1 873c 1c0e ff3b c25c 823c
00000150: c10a a4ba df80 703a 58b5 e43b 64bd 37ba
00000160: 630a 35bc 4a0e f1bb f689 e23a 4fdb 4c3b
00000170: 1719 1abc 7490 ca3b eea3 2bb9 9472 813b
00000180: 4266 6e3a 46b7 893c 8bf6 a5bb cc59 023c
00000190: dc19 023c 3de9 6fbb f25a 273c 8adc 15bc
000001a0: 0226 94bc 7827 14bc cccd cfbb 315b 673a
000001b0: 8f67 d83b b201 fdba 360d dfb9 4aa4 c6bb
000001c0: e94f 7e3c d9bd 933c ce48 01bc 8803 82bc
000001d0: 70ea 1a3b 2ed4 763c 8303 f739 ed06 b3ba
000001e0: b5c0 0ebb 1e0c 123b bc62 093b 48f9 9e3c
000001f0: 9e53 bbbb 0e8e c43b c712 b2bc 5c86 ce3c
00000200: f9c9 4a3b 9f22 53bc 33d2 db3b 74d1 df3a
00000210: 1384 b2ba 4a0e 4ebc babb fb3b edb9 8bb9
00000220: 6a7b 90bb 2c41 5dbc 74ab b2bc 4bc5 77bb
00000230: 09ae 8cbc 7006 babb 95d6 bd3b d194 e83b
00000240: 226b 603c cd95 9c3c fc19 9139 df61 12bc
00000250: c160 ce3b 55bc 63bb bd38 9eba 9439 463c
00000260: 826c b83b 0818 88ba 903e 033a a0b6 04bc
00000270: ce63 42bc 1f84 7b3c 989f 23ba 1b16 1c3c
00000280: 6b82 24bc d893 5cbb 3cbe 3c3c 573c b6bb
00000290: d972 10bc 6e78 163c 9e25 aabc 512e 9cbc
000002a0: b468 7a3c 43a7 993c 0d53 3ebc 8c55 36bb
000002b0: 18d4 4dbc 3794 1c39 c857 333c 7621 89bb
000002c0: d28e f7bb c77e 763b 2f5b 30bc 290d b23b
000002d0: fb03 b63a 7dc0 5ebc 0860 183c 2e47 c73b
000002e0: d176 fa3a 77cc 89bb 26ea a5ba b956 003c
000002f0: b69a 31bc b286 893a 6501 16bc 5663 b7bb
00000300: 1470 38bb 7703 d3b9 6ea3 e0bb f52f 263c
00000310: 4711 233c 817a 6abb 31d0 e4bb 23f4 4f3b
00000320: d8aa 3cb7 8247 85bb 194c a9bb 2429 ae3a
00000330: 0d01 a5bb f01b 553b ca11 1dbb 330e e5bb
00000340: f0b4 09bb 1ee9 c3bb f4fb d0ba 2e88 03bb
00000350: 5e34 853c aa40 633c bdb3 193c 6888 883b
00000360: 7537 fbbb dfbe 46bc 6085 0c3c 157e 6ebc
00000370: 795b 4c3c 37fa b4bb c4f6 47bc 9f2b 66bb
00000380: fd12 c43b 2a8c 6dbb a0c6 533b 407e b7bc
00000390: 0c5d bd3b a6f4 dd3b e507 80bb dc44 d8bb
000003a0: 5be2 d63b 14fd ea3b 7be9 6cbc d2ef 2dbb
000003b0: 31f2 793c 71bf 53ba 47df f4bb 279b 4cbc
000003c0: 9184 3cbb 48f4 8b3b cff2 88ba 9b10 39bb
000003d0: afdd d33b addd 023c 13db 0d3c 8337 c4bb
000003e0: 577b 8bbb 227d 8aba 68b5 b5bb aa64 0f3c
000003f0: 12c5 fa3b 6d08 84bc 635e f7bb 1453 303b
0.0014704573 -0.0019495491 0.002008224 0.011803268 0.009953536 -0.00087065075 0.008649897 0.0013396698
-0.0015947104 0.021921264 -0.01301668 -0.00071705226 0.0046245484 0.01482555 -0.001654207 -0.012455247
-0.009245817 0.008988988 0.0031061915 0.008260099 -0.010989573 0.001115534 -0.012847541 0.0022691544
-0.0047428715 0.004631539 -0.010060332 -0.016754972 -0.0020586615 0.008373528 -0.0018275023 -0.008542203
-0.0076315925 0.010393637 0.0014606913 -0.0017177692 -0.01877049 -0.010591356 0.0024479283 0.0048767934
0.0047414987 -0.0019808086 -0.018790353 0.00023654365 -0.018832209 0.00025715432 -0.012206245 -0.003036796
0.0034388162 -0.0063477904 -0.00081156753 -0.0050111124 0.00033893337 -0.011304638 -0.003556134 0.011543912
-0.00500626 0.009888929 0.0012900647 -0.000102711274 -0.003503877 -0.006585272 -0.014591888 0.0021375455
-0.009914087 -0.012571296 0.008581285 -0.0030856512 0.012477965 -0.008959587 -0.004533085 -0.00095704425
0.00030357833 0.0038170991 0.011730568 -0.0039516906 0.00048955233 0.01309159 -0.01080297 -0.0022775515
0.0021745954 0.01655662 0.0077836644 0.015913371 -0.0012515412 0.0009174477 0.0069796257 -0.00070091174
-0.01104984 -0.0073564397 0.0017283547 0.0031258648 -0.009405396 0.006181771 -0.000163689 0.0039504264
0.0009094217 0.016811024 -0.0050647906 0.00795598 0.007940736 -0.0036607527 0.010214554 -0.009146819
-0.01808453 -0.009042613 -0.0063416716 0.0008825539 0.006604142 -0.0019302873 -0.00042543717 -0.0060620653
0.015521982 0.018034862 -0.007890893 -0.015870824 0.002363827 0.015065236 0.00047114128 -0.001365868
-0.0021782343 0.0022285054 0.0020963391 0.019405976 -0.005716755 0.0059983796 -0.02173747 0.025210552
0.003094314 -0.012886672 0.0067084073 0.0017075972 -0.0013619683 -0.012576649 0.007682291 -0.00026650671
-0.0044092434 -0.013504308 -0.02181027 -0.0037806805 -0.01717283 -0.005677037 0.0057934024 0.0070978184
0.013697417 0.0191144 0.00027675915 -0.008934467 0.006298155 -0.0034749706 -0.0012071353 0.012098689
0.0056281695 -0.0010383138 0.0005006576 -0.008100182 -0.011864616 0.015351324 -0.0006241738 0.009526755
-0.01004086 -0.0033657458 0.011519965 -0.0055613923 -0.008816444 0.009183986 -0.02076989 -0.019065054
0.015283752 0.018756514 -0.011616481 -0.0027821986 -0.012562774 0.00014932534 0.010946222 -0.004184897
-0.0075548673 0.0037612186 -0.010763927 0.0054336977 0.0013886684 -0.0135956975 0.009300239 0.0060814833
0.0019108896 -0.0042052823 -0.0012658283 0.007833176 -0.010840109 0.0010492413 -0.009155606 -0.0055965586
-0.0028142976 -0.00040247638 -0.00685542 0.01014327 0.00995285 -0.0035778584 -0.006982826 0.003173121
-1.1245451e-05 -0.0040673623 -0.0051665423 0.0013287407 -0.0050355257 0.0032517873 -0.0023966902 -0.006990218
-0.0021012388 -0.0059787175 -0.0015944229 -0.0020070183 0.016260322 0.013870398 0.009381232 0.0041666515
-0.007666523 -0.012130468 0.008576721 -0.0145564275 0.012472981 -0.005522992 -0.01220483 -0.0035121215
0.005983709 -0.0036246874 0.0032314435 -0.022399068 0.0057789143 0.006773549 -0.003907191 -0.0066000056
0.0065577454 0.0071712825 -0.014459963 -0.002654065 0.015255497 -0.0008077538 -0.007472906 -0.012488163
-0.002876554 0.004271064 -0.0010448339 -0.0028238657 0.0064656357 0.007987422 0.008658188 -0.005988063
-0.0042566466 -0.0010565857 -0.005545307 0.0087520275 0.007652887 -0.016117299 -0.0075490936 0.0026904987

action_model._discrete_distribution.branches.0.bias f4 [7]
00000000: ad99 83bb d08f d5ba 6761 8abb a26e 26bc
00000010: b457 b8bb 7e30 493c 4203 1b3c
-0.0040161223 -0.001629347 -0.004223037 -0.010158213 -0.0056256894 0.012279628 0.009461226

onnx::Div_90 f4 [84]
00000000: 0e79 493b 1233 f13e 1090 e13e 61d9 803e
00000010: 0e79 493b bb24 f03e e6e2 df3e 33d0 813e
00000020: 0e79 493b a248 f23e e0cf e23e 5187 803e
00000030: 0e79 493b b7fc ed3e 6346 dc3e 235b 823e
00000040: 0e79 493b b75b f33e 4ff5 e33e 8271 803e
00000050: 0e79 493b 4727 ec3e be28 da3e e4a7 823e
00000060: 0e79 493b 0854 f43e 55a2 e53e 4877 803e
00000070: 0e79 493b e44d ea3e 7f69 d73e 320d 833e
00000080: 0e79 493b 55c8 f53e f5f9 e73e ea90 803e
00000090: 0e79 493b 4263 e83e 82f7 d43e 014f 833e
000000a0: 0e79 493b c718 f73e 7dae e93e 130c 813e
000000b0: 0e79 493b 1e34 e73e 15df d23e e999 833e
000000c0: 0e79 493b b46c f83e 3c2f eb3e 4a0e 823e
000000d0: 0e79 493b d268 e63e 1476 d13e ca1d 843e
000000e0: 0e79 493b 0913 f93e 9d8e eb3e 0231 833e
000000f0: 0e79 493b 772b e63e 79fe cf3e 0ea3 843e
00000100: 0e79 493b 14c5 f83e aa27 ea3e 2efe 833e
00000110: 0e79 493b 4140 e83e 9ea2 cc3e abe8 893e
00000120: 0e79 493b 164e f73e 0d16 e73e bb52 843e
00000130: 0e79 493b 82b5 e73e 6818 cb3e 535b 8a3e
00000140: 0e79 493b 17c1 f53e f901 e43e 37a6 843e
0.003074232 0.47109276 0.44055223 0.25165847 0.003074232 0.46903023 0.43727797 0.25354156
0.003074232 0.4732104 0.4429922 0.25103238 0.003074232 0.4648187 0.4302245 0.25460157
0.003074232 0.4753091 0.44523093 0.250866 0.003074232 0.46123716 0.4260921 0.25518715
0.003074232 0.4772036 0.44850412 0.25091004 0.003074232 0.4576255 0.42072675 0.25596005
0.003074232 0.48004404 0.4530789 0.2511056 0.003074232 0.45388228 0.41595083 0.25646213
0.003074232 0.4826109 0.45640936 0.25204524 0.003074232 0.4515695 0.41185823 0.25703362
0.003074232 0.48520434 0.45934474 0.25401527 0.003074232 0.45001847 0.409104 0.25803977
0.003074232 0.48647335 0.46007243 0.25623327 0.003074232 0.44955036 0.40623835 0.2590565
0.003074232 0.4858786 0.45733386 0.2577986 0.003074232 0.45361522 0.39967817 0.26935324
0.003074232 0.48301762 0.4513401 0.25844368 0.003074232 0.45255667 0.39667058 0.270228
0.003074232 0.47998878 0.44532755 0.25908062

onnx::Div_96 f4 [37]
00000000: ad93 d240 6f5d 3b3d 3ca4 d540 0e79 493b
00000010: 7c21 903e 0e79 493b e2f9 1841 3bf1 4c3b
00000020: 4479 1641 0e79 493b 32fe 923e 0e79 493b
00000030: 06b9 933e 5b59 943e 57f3 ee3e 89f6 d53e
00000040: b027 f33e d1f3 ee3e fe71 db3e 1932 f53f
00000050: 0e79 493b c7cc ed3f 60fa 353f 369a 493b
00000060: 98f6 333f 8997 7a3e 74aa 553e 63aa 553e
00000070: 449b 523e 2c9b 523e 9869 483e bc1c 7c3f
00000080: 553c 913e 3b46 323f 6e5d 3b3d 09cc c840
00000090: 30da 933e
6.580527 0.045743402 6.676298 0.003074232 0.28150547 0.003074232 9.561007 0.0031271714
9.404606 0.003074232 0.2870956 0.003074232 0.288521 0.28974423 0.4667003 0.41789654
0.47491217 0.46670392 0.42860407 1.9155914 0.003074232 1.8578118 0.71085167 0.0030762083
0.7029815 0.24471869 0.20865804 0.20865779 0.20567042 0.20567006 0.19571531 0.98481345
0.28366342 0.69638413 0.0457434 6.2749066 0.288774
