results/test3/BoxingAgent/BoxingAgent-18377.onnx (onnx, 392675 bytes, 13 tensors)

network_body.observation_encoder.processors.0.normalizer.running_mean f4 [68]
00000000: 0000 0000 c2db 703f cff5 553b 02ea f43e
00000010: 0000 0000 9567 723f 36b2 c73a 5fb3 f03e
00000020: 0000 0000 1163 6c3f 4815 b43b 0e0c f93e
00000030: 0000 0000 7b0d 6c3f a9c5 153b 8641 e83e
00000040: 0000 0000 da8a 683f ae2f 7d3b b99a fb3e
00000050: 0000 0000 d363 6d3f 04d4 ce3a 4589 e63e
00000060: 0000 0000 532b 693f b4d1 a53b c623 003f
00000070: 0000 0000 2ecc 733f 1682 873a a467 ea3e
00000080: 0000 0000 6633 6f3f 2d5b 6b3b 53b0 033f
00000090: 0000 0000 ffce 723f 9c17 dd3a ed10 ec3e
000000a0: 0000 0000 1423 713f 8e56 993b 2a0a 043f
000000b0: 0000 0000 cbc2 703f f1bb 2e3b 1716 f23e
000000c0: 0000 0000 e834 713f 86ff bc3b 6c73 033f
000000d0: 0000 0000 d7b5 6d3f 0a2b 2b3b b065 f73e
000000e0: 0000 0000 8dc3 713f 5a78 a03b 80ec 013f
000000f0: 0000 0000 7a01 6f3f 35b2 c73b d7e5 fd3e
00000100: 0000 0000 7a01 6f3f 36b2 c73b d7e5 fd3e
0.0 0.94085324 0.0032647734 0.47834784 0.0 0.94689304 0.0015235606 0.4701185
0.0 0.92338663 0.005495701 0.4864201 0.0 0.9220807 0.002285341 0.4536249
0.0 0.9083687 0.0038633156 0.49141482 0.0 0.92730445 0.0015779738 0.45026603
0.0 0.9108173 0.005060399 0.50054586 0.0 0.9523343 0.0010338451 0.45782197
0.0 0.934378 0.00359125 0.51440924 0.0 0.948471 0.0016867998 0.46106663
0.0 0.9419415 0.0046795076 0.5157801 0.0 0.9404723 0.0026662315 0.47282478
0.0 0.94221354 0.0057677655 0.51347995 0.0 0.9285559 0.0026118183 0.4831977
0.0 0.9443901 0.0048971595 0.50751495 0.0 0.9336163 0.006094242 0.49589416
0.0 0.9336163 0.0060942424 0.49589416

network_body.observation_encoder.processors.2.normalizer.running_mean f4 [37]
00000000: c374 1e3f 9180 6d41 9c7e 5bc1 50ed ba32
00000010: 768c f83e da35 9b32 dc47 053f 0ff0 fcb8
00000020: ed90 49bf f952 8331 d4a1 ed3e b271 a531
00000030: d556 693f a881 733f 7e9c 633e c4b9 643e
00000040: a644 e03e 4f15 473f 2a3c 1f3f f61e 703c
00000050: 0000 0000 c13b 513d 5092 3f3d 4ad1 4bb7
00000060: ea89 a3bc beb1 f83e 6819 f43e bbef 053f
00000070: 7d10 013f e1d7 fd3e 48ce 1a3d 1d52 a63e
00000080: c069 0b3f acf9 41bc b97b 50ba 40f0 6241
00000090: 8b21 013f
0.61896914 14.843888 -13.7184105 2.1761167e-08 0.48544663 1.8068864e-08 0.52062774 -0.00012061011
-0.78736764 3.8220347e-09 0.46412528 4.8150577e-09 0.9114812 0.95119715 0.22227666 0.22336489
0.43802375 0.7776689 0.6220118 0.014655819 0.0 0.051082376 0.046770394 -1.2148472e-05
-0.019963223 0.48573107 0.47675633 0.52318925 0.50415784 0.49578765 0.03779438 0.32484522
0.54458237 -0.011839312 -0.00079530064 14.183655 0.5044181

network_body._body_endoder.seq_layers.0.weight f4 [256, 105]
00000000: 0800 423e b776 8d3d f274 023d 2531 b8bd
00000010: 2476 8fbd 6c7a 0cbd 5c3b 093e 26d7 8abc
00000020: b65a 9ebd 5f87 fd3d 6fc6 6ebd f027 c33d
00000030: 99a8 923d d647 7e3d aa90 55bb 0776 35be
00000040: 836f c13c 9d4e 0bbe f29d 953d b5d3 e7bc
00000050: 44df 2fbe 1c99 04be 6ecb 9a3d 7c37 9d3d
00000060: a9dc 28be 98b2 1abc d869 01bd afbf 533c
00000070: 4081 dcbd 75ba 393e 22ba c63c e225 a83d
00000080: 9b5e e83d fc5c 8d3d 8560 043e c22a cb3d
00000090: 1e65 03bd 4de0 c53d 59af 243e f1ce 053e
000000a0: c285 07be 8bab 4d3e 9c62 6b3d 09ea 43bc
000000b0: 2ee0 1e3e b8c5 80bd 8bab ad3d d501 913c
000000c0: add5 35be b4ef df3c d36f 82bd 45ab 2b3d
000000d0: 01b8 b6bd 2e30 00be ffc4 c2bd d055 073d
000000e0: c81c 47bd e1e1 1d3c 53fc c4bd 1978 673e
000000f0: dbf9 f73c 618c b2bd 46f7 b13d 85f9 af3c
00000100: b16a 963d fae4 8d3c fe98 93bd 0c1e a7bc
00000110: 8647 12be 38d7 9fbc 0d2f 013c 18bd 9fbd
00000120: 6cbc 813c a8e5 db3d 6f7e aebc 3899 743d
00000130: 7d83 b9b9 4e5a c7bc f800 b3bd 8066 b63d
00000140: df2a 703d c81d 92bd 78fc 353d fe80 b0bc
00000150: 69c5 b3bd ce7d 263e 539d 113d ccae b1bc
00000160: dd5b 523e 109b 02bc 27e3 d7bc dd6c 6bbd
00000170: c5ac b23a 80c1 43be 9064 ebbb a1b5 013e
00000180: cfd8 abbd a58b f53d 4f9e b83d db3c 8f3d
00000190: 1f0a 68bc 66cf 2a3c 1b02 543d 48e1 bbbd
000001a0: 10b8 0d3c cba3 23bd 647b 0cbd 2cda 2c3d
000001b0: b4ae 373d 7666 c5bb 48a7 4f3c 910b 8fbd
000001c0: c054 88ba 3075 443e 0c77 7e3c 1709 d73b
000001d0: ca66 743d 51f9 293e 45be 813e 3d65 713c
000001e0: 134c be3b a036 503b f137 3a3b 2969 a6bb
000001f0: 5075 94be c038 0fbc e265 183e 1a8d 5fbd
00000200: 4253 003c c151 c2bd bb01 bb3d e1d2 023c
00000210: 57c9 40bd 9fbc 11be cc56 59bd c711 453e
00000220: 9165 993d 63f4 d7bd 8cf2 863d d3f3 0d3e
00000230: 612e 37be 3206 923c cf73 97bd 27f4 ce3d
00000240: d05d e3bd 8575 03be bd4e c2bd bb24 6a3d
00000250: 9fc8 0abc 0e64 9a3e 63ef d53c 190d 2e3e
00000260: a917 c2bd cc10 7fbb a868 6abc 271d 21bd
00000270: 8686 03be b56d 7fbd 887d bd3b 35ce 98bd
00000280: 02de 68ba 16be e3bd 3481 db3c e6c4 4dbe
00000290: b53a b13c a76a 1fbe 8424 4f3e 0af1 8c3c
000002a0: b8a7 123c c64c 4f3e b51e bdbc 7c5f de3c
000002b0: 0b71 f43d ed22 cdbd d412 a9bc 386c 0cbc
000002c0: f8bb 16bd 984f 0c3e 5fe3 953d 28d0 c4bd
000002d0: 5e0d 04bd fe57 8dbc a3c4 683d bff8 acbc
000002e0: 2bde 263a 3f9b e43d 17d3 1cbe 136f b53d
000002f0: 2a11 593d e209 45be 2d7e 05bd d4fc 35bd
00000300: d5ba e53d f840 8dbd b693 a5bc fae9 5f3d
00000310: 2586 a7bd eb54 3fbd 7dc9 e1ba e752 453d
00000320: faad e7bd 73ee b03d baee a53c ced0 2ebd
00000330: acd3 9cbd 4db7 dd3d 0534 723e 7403 a13d
00000340: 604f 14bd 8b0d 8fbd 5e2f 803a af63 1dbe
00000350: d91a 22bd e036 ff3b 222a 303c 6b60 c1bd
00000360: 24b2 e2bd 2f4b b5bd 5c62 e5bd 92b0 2d3e
00000370: 410a 633a 9424 b33d 770f 26be 7a17 b6bd
00000380: da5a df3d 3445 b4bd db20 3e3e f560 a5bd
00000390: 401b abbd e73e 8c3d c4d5 1b3e 7335 39be
000003a0: ea2b 2c3e 7c95 db3d 3054 993c fcfe 00be
000003b0: 2134 a4bd 8f06 033d 44df 92bd 72a5 dabd
000003c0: 00d1 81bd eef9 053e b388 d5bc aa27 a03d
000003d0: 3c5d 443c 4c2a 613d 64af b7bc ce03 4ebc
000003e0: c6ba 4c3c d47d c5bc 1dc6 a5bd 8613 c93d
000003f0: 575b 1fbc 866c 843d 8f9e 8cbd 8ab3 f0bd
0.18945324 0.06907409 0.03184981 -0.089937486 -0.070049554 -0.034296438 0.1340155 -0.016948294
-0.077321455 0.123793356 -0.05829471 0.09529102 0.07161064 0.062080227 -0.0032587447 -0.17720805
0.023612743 -0.13604207 0.07305516 -0.028299192 -0.17175013 -0.12949032 0.075583324 0.076765984
-0.16490425 -0.009441994 -0.03159508 0.012924119 -0.1076684 0.18137534 0.024258677 0.082103506
0.113461696 0.06902501 0.12927444 0.09920265 -0.032078855 0.096619226 0.16082515 0.13067223
-0.13234618 0.2008497 0.057467088 -0.011957654 0.15515205 -0.06287712 0.08479985 0.017701069
-0.17757292 0.027335979 -0.06368985 0.041911382 -0.08921815 -0.12518379 -0.0951023 0.03304082
-0.048611432 0.009636373 -0.096184395 0.22604407 0.030270508 -0.087181814 0.08689742 0.021481285
0.073445685 0.017321099 -0.07206915 -0.02040007 -0.14285097 -0.019511804 0.007884753 -0.07799739
0.015836917 0.10737163 -0.021300523 0.059716433 -0.00035383916 -0.024335053 -0.08740419 0.08906269
0.058634635 -0.071345866 0.044430226 -0.021545883 -0.087778874 0.16258928 0.035550427 -0.021689795
0.20542856 -0.00797154 -0.026353432 -0.057476867 0.0013631812 -0.19116783 -0.007183619 0.12666942
-0.08390962 0.11989526 0.0901457 0.06994029 -0.014162569 0.010425424 0.05175982 -0.09173828
0.008649841 -0.039951127 -0.034297362 0.042200252 0.044844344 -0.006024177 0.01267416 -0.06984628
-0.0010401234 0.19185328 0.015531313 0.006562363 0.05966834 0.16599013 0.25340477 0.01473361
0.0058074086 0.003177084 0.0028414691 -0.005078454 -0.28995752 -0.008741558 0.14882615 -0.054577924
0.00783235 -0.094882496 0.091311894 0.007984848 -0.047067013 -0.1423211 -0.05306129 0.19245063
0.074900754 -0.1054466 0.06589231 0.13862543 -0.17888786 0.01782522 -0.073951356 0.10105162
-0.11101878 -0.12837799 -0.094876744 0.057163935 -0.008470683 0.3015446 0.026115125 0.16997184
-0.09477169 -0.0038919924 -0.014307179 -0.039334442 -0.12844285 -0.062360484 0.0057827868 -0.07461206
-0.00088831794 -0.111202404 0.026795007 -0.20094642 0.021634439 -0.15568028 0.20228773 0.01720478
0.00895112 0.2024413 -0.023085931 0.02714514 0.11935624 -0.10016427 -0.02063886 -0.008570723
-0.036800355 0.13702238 0.07318758 -0.09610015 -0.03223931 -0.017253872 0.056828152 -0.021114705
0.0006365503 0.11162423 -0.153149 0.08859076 0.052994885 -0.19242051 -0.032591034 -0.04443057
0.11217276 -0.068971574 -0.020212036 0.054666497 -0.08179883 -0.046711843 -0.0017226186 0.048174765
-0.1131248 0.086392306 0.020255435 -0.0426796 -0.07657561 0.108259775 0.23652656 0.07861987
-0.03620851 -0.06985005 0.0009779742 -0.15370058 -0.039576385 0.007788524 0.010752233 -0.094422184
-0.11069134 -0.08852231 -0.11200401 0.16961887 0.0008660891 0.08747211 -0.16216837 -0.088911965
0.109060004 -0.08802262 0.18567221 -0.08075134 -0.08354807 0.06847935 0.15218264 -0.18086796
0.16813627 0.10721871 0.018716902 -0.12597269 -0.08017755 0.031988677 -0.07171491 -0.106760874
-0.06338692 0.13083622 -0.02606616 0.07820065 0.011985119 0.054971978 -0.0224225 -0.012574149
0.012495702 -0.024107851 -0.08094428 0.09818177 -0.009726367 0.06466012 -0.0686618 -0.11752994

network_body._body_endoder.seq_layers.0.bias f4 [256]
00000000: 9273 6dbb 7681 5b3b 0e20 cfba e1d7 e5ba
00000010: fde2 683b cfd1 253b d84d 72bb 7c72 c23b
00000020: cac0 52bb 6410 8eba 9912 813b c06c 2b3a
00000030: b0bc 7138 6a0a bf3a be8c 4dbb 2af9 233b
00000040: a2e3 b13a 7358 bdb8 9826 06ba 13d2 92bb
00000050: 1c6e 793b be10 15bb 0b56 d9ba 082b 8b3a
00000060: 0830 bc39 17d8 14ba 332d b139 0de6 02b9
00000070: 3587 e8ba 8b39 853b 0826 c839 dd38 1a3a
00000080: 3528 643b b090 423b cc5a 6a3b 810a 5dbb
00000090: daff b3ba c36e d43a 1f31 25bb 524a baba
000000a0: 0d69 b03b 7d62 52bb 55a2 733b b401 23b8
000000b0: 8769 1d3a 9b0d 843b 660d 9c3b 9621 6b3b
000000c0: b8b5 813b 11cf 66bb 4bb2 ca3a be11 933b
000000d0: d089 8e3b c810 8a3a 58fe 013b 8f60 993a
000000e0: 241a 3c3b e57d 6abb 8937 8ebb f08e 913a
000000f0: d25f 8d3b 8044 c83a 0913 d5b9 b82b 613b
00000100: c30b 0f3b 5805 ea3a b8c0 d33b 2dd7 a53b
00000110: f118 5e3b fee3 02ba 3148 faba 7f4c 92ba
00000120: e5ff 463b 264d 703b 241c 1dbb e2e3 5f3b
00000130: b718 633a 5825 723b 9dd8 53bb 7cf8 0fbb
00000140: dc71 d2ba 66d0 033b 22c7 5b3b 9a2c 8c39
00000150: 909c 803a ff3c a73a b5ca 003b 7089 533b
00000160: cdbb aa3b 8bf0 863b 0025 263b 6019 69bb
00000170: 9970 13bb 14f4 09bb b38b 403b 4c2e 23bb
00000180: cfd4 17bb 7364 10bb 1021 8a3b 1f98 bfba
00000190: ef3b c8ba d538 fbba c842 113a 37cd b3bb
000001a0: f837 293b d44c 54ba 620c 6539 fee7 863b
000001b0: a0ee 583b 929b 9b3b f777 8d39 9abc 433b
000001c0: 77da 6a3b ab36 08bb c150 3839 ab00 1cba
000001d0: 4a97 643b 07be 453b df2d 2d3b 78a5 4bbb
000001e0: 78c6 e839 1731 563b fb50 4c3b 1927 993b
000001f0: 0688 c53b aa38 b2ba 2dd1 253b 6df0 4bba
00000200: 7c59 753a b6ee 503b f187 3bba 6a7b a33b
00000210: 1752 44bb 0d2b 1bba 0f30 573b 6a08 943b
00000220: 460c 1d39 addc 84bb b495 7fbb dc3f 003b
00000230: 64e3 c53b af0a b3b8 4c4b d43a 8735 6a3b
00000240: 5860 493b ae04 a03b 4043 693b 2316 23bb
00000250: 6659 6d3a dbf8 0f3b 4c90 9d3b d47f 08bb
00000260: 9a35 563b 2f41 81bb bef2 b93b 0f66 45bb
00000270: ad7e 4dbb 3c0b b3ba 619a e7ba cfe5 3ebb
00000280: 42ff 4a3b a84e 823b 917d 39bb 3de6 bcba
00000290: 872c e6ba b53d c3bb 4e13 9c3b 7c20 0738
000002a0: 59d6 aa3b ca9f 4cbb d671 ec3a 9fcb caba
000002b0: d446 9fb9 7e17 3e3b e10e af3b 4d5a 273b
000002c0: b482 1f3b 53df 3ebb d103 2b3a 405f ebba
000002d0: 1bbf ecba b3db 0e3b 5ca9 38bb 9d9d 55bb
000002e0: 8035 3fbb 8bd2 433b 5063 5dbb fedc e7ba
000002f0: aab4 d9ba 127a 583a ab49 54bb 7116 1bbb
00000300: 967e 8a3b 1854 3a3b c519 943b fbe5 01ba
00000310: c550 b639 20b6 ae3a d1e3 8bba 2479 653b
00000320: 0a7d ce3b 3d88 8c38 24e5 4cbb 3742 acbb
00000330: e856 2b3b 64ab 543a e8ca ae3b 4fed 5ebb
00000340: 9c51 62bb 3adc 413b b74b 96bb f86e 8a39
00000350: e077 6e3b e158 843b 2c43 6539 75fe 853a
00000360: e268 8ebb 425f 3cbb cca2 933b ad96 58bb
00000370: 3f07 333b 53cf 273b 3e86 593b e6ae a73b
00000380: 2f12 503b 19d7 783a 2c73 b1bb c9f2 8b3b
00000390: b4f2 503b b501 e6b8 6b30 b2ba 7844 17bb
000003a0: 85d5 a03b dd37 9c3b 53a1 88bb de37 a9bb
000003b0: c875 b1ba 263c 723a 925c 423b d7c3 c73b
000003c0: 2f8a 36bb 4e43 913b c400 d53b c9f2 aa3b
000003d0: 692f 8c3a 251e 003b b435 a33a 22c8 f0ba
000003e0: df8c b93b e270 643b 6ba3 2dba 4aa9 7b3b
000003f0: 69b0 a13a f607 f2ba aee8 babb 2cab 61ba
-0.0036232215 0.0033493913 -0.00158024 -0.001753565 0.0035535686 0.0025302058 -0.0036972668 0.0059340578
-0.0032158368 -0.0010838625 0.0039389846 0.00065393373 5.7634606e-05 0.0014575247 -0.0031364406 0.002502034
0.0013571868 -9.028697e-05 -0.0005117445 -0.004480609 0.0038060015 -0.0022745575 -0.0016581429 0.0010617683
0.0003589394 -0.0005677952 0.00033793747 -0.00012483467 -0.001774049 0.0040656975 0.00038175308 0.0005883107
0.0034814004 0.0029688291 0.0035759686 -0.0033728185 -0.0013732866 0.0016207326 -0.002520628 -0.0014212823
0.005383617 -0.003210216 0.0037175615 -3.8863815e-05 0.00060047995 0.004029942 0.0047623394 0.0035878173
0.00395843 -0.0035218636 0.0015464512 0.004488199 0.0043499246 0.0010533566 0.0019835439 0.001170175
0.0028702104 -0.0035780605 -0.0043401164 0.0011105221 0.004314401 0.0015279204 -0.00040640708 0.0034358334
0.002182708 0.0017854376 0.006462183 0.0050610513 0.0033889378 -0.000499308 -0.0019095001 -0.0011161714
0.0030364927 0.0036667078 -0.0023973072 0.0034162928 0.00086630456 0.0036948528 -0.0032325156 -0.0021968177
-0.0016055661 0.0020113229 0.003353544 0.00026736112 0.0009812284 0.0012759267 0.0019652073 0.0032277964
0.005210376 0.0041180304 0.0025351644 -0.0035568103 -0.0022497533 -0.0021050023 0.0029380142 -0.0024899421
-0.0023167615 -0.0022032529 0.004215367 -0.0014617479 -0.0015276651 -0.0019166718 0.0005541262 -0.00548711
0.0025820713 -0.00080986065 0.00021843755 0.004117011 0.0033101216 0.00474877 0.00026982996 0.0029867054
0.0035835782 -0.0020784538 0.0001757769 -0.0005951027 0.0034880214 0.003017308 0.0026425046 -0.003107397
0.0004439836 0.0032683068 0.0031176198 0.0046738503 0.006028178 -0.001359721 0.002530168 -0.00077796617
0.00093593425 0.0031880564 -0.0007153741 0.0049890773 -0.0029956156 -0.0005919196 0.0032835042 0.0045176046
0.00014977259 -0.004054627 -0.0038999142 0.0019569313 0.00603907 -8.537375e-05 0.0016196757 0.0035737471
0.0030727591 0.0048833704 0.0035593063 -0.002488502 0.0009054154 0.0021968398 0.0048084613 -0.0020828145
0.0032685758 -0.003944538 0.005674689 -0.0030120646 -0.0031356022 -0.0013659964 -0.001766991 -0.0029128676
0.00309749 0.0039766617 -0.0028303603 -0.0014411878 -0.0017560878 -0.005958284 0.0047630435 3.221676e-05
0.0052135405 -0.0031223171 0.0018039297 -0.0015472061 -0.00030379614 0.0029005702 0.00534235 0.0025536001
0.002433938 -0.002912481 0.0006523701 -0.0017957464 -0.0018062325 0.0021798431 -0.0028177118 -0.0032595166
-0.0029176176 0.0029880132 -0.0033781119 -0.0017689762 -0.0016609628 0.0008257936 -0.0032392542 -0.00236645
0.004226516 0.0028431471 0.0045196735 -0.0004955229 0.00034773923 0.0013329424 -0.0010672753 0.0035014832
0.006301527 6.7010966e-05 -0.0031264508 -0.005256917 0.002614433 0.00081126974 0.005334247 -0.0034015959
-0.0034533506 0.0029580728 -0.0045866626 0.0002640409 0.003638737 0.0040389155 0.00021864165 0.0010222929
-0.004345999 -0.0028743302 0.004505491 -0.0033048794 0.0027317551 0.0025605753 0.0033191587 0.005117285
0.003174912 0.0009492501 -0.005415341 0.0042708856 0.0031882944 -0.000109675726 -0.0013594752 -0.0023081582
0.004908266 0.0047674016 -0.004169622 -0.0051641306 -0.001353913 0.000924053 0.0029657227 0.006096344
-0.002785336 0.004433072 0.0065003354 0.0052169305 0.0010695282 0.0019549218 0.0012451918 -0.0018370191
0.005662545 0.0034857322 -0.00066237774 0.0038400465 0.00123359 -0.0018465507 -0.005704007 -0.00086085754

network_body._body_endoder.seq_layers.2.weight f4 [256, 256]
00000000: 94b2 b43d 6442 1cbe 1ffd c03c cf2e 493b
00000010: 3707 9dbc e9b2 b53c ca39 52be 978c 8cbc
00000020: 798e 173d d032 9b3d c53c 6d3d be1b 9bbb
00000030: 6e6a 893d 552b 273d 9645 1fbe 9e60 653d
00000040: 4f48 0cbd d066 c43d ef92 fcbb fd52 afbc
00000050: 1f19 ba3d 64ab 093d 8423 0b3d 12e7 4fbd
00000060: c55f 8b3c e971 aa3d e32a 27be ab51 de3c
00000070: fb14 c6bd d0ef 0cbc 81c4 33bc 5746 eebd
00000080: 528f 5dbd 284f 57bd 6251 c0bd c5dc dbbd
00000090: 6016 ad3c bf0e 3e3d 9a28 a239 277a 46bc
000000a0: 0191 b3bd 0f14 723c 1c51 413d 8995 9a3d
000000b0: eac3 603c f4d6 b9bd c3ab b63c 717c c53c
000000c0: 2f67 873c 9f0c 9a3d 75e8 f6bd f3e8 99bb
000000d0: d183 9b3d 6436 933c 9e17 b93d 5216 2fbd
000000e0: 7bdc 3e3c 67b9 8dbb 8ee4 bcbd fae1 31bd
000000f0: 3601 50bd ce3b 91bc 4263 87bd 3b91 053e
00000100: 823c 9f3d 2b48 133e ade8 343c d0a7 ae3d
00000110: 2162 cc3d 3055 a6bc 97fa f2ba 672c 36bd
00000120: a500 45bd dc0f f13c 9d37 383d 6e9e b2bb
00000130: 8648 01bc 31cf 69bb 75d2 8bba fcfd 47bd
00000140: 92de 12bd d89b f0bc 930a 953a 98ad 14bd
00000150: 3602 25be b5dc 11bd f272 b7bd d0f3 14bd
00000160: 0b54 de3d 752b 663d 261c 8d3d 4dc2 763d
00000170: fd3e 57bc 62c9 8ebd f84d 193e 7847 863c
00000180: 8cfc 94bd 2d76 cfbd 6ee2 eebd 9de8 b0bc
00000190: 3eb5 7a3d f9f9 99bd 162b f63b 244d 1fbc
000001a0: 4ab6 85bd 28ce 88bd a0b3 5e3d 924c 213d
000001b0: 0fae 63bb 8c5b b13c dc62 c33d 32c4 5ebc
000001c0: 4378 b1bb d177 853d 6bfc 2d3b b940 ffbc
000001d0: c43e f1bd e847 6fbd 1e5d afbd 9b8a 683d
000001e0: d156 503c fbc3 5cbd ead1 95bd 2bf5 8bbd
000001f0: f282 7a3d a70a ffbc 8e3b 57bd d239 87bd
00000200: 7385 b2bd 8721 b63d 2b39 58bd 64f9 92bb
00000210: 4b5c 4fbd d30d 8ebd 6267 943d 26c2 f33c
00000220: 8582 fdbc c722 123d 5c2e dd3c ba40 4f3d
00000230: 2736 30bd 01ee 8ebc 8ace 70bc c397 d73c
00000240: 4839 86bd c390 cc3c 87ed f83c 7a72 89bc
00000250: 578a b3bd a9e3 113d f64e 70bc ede7 dabc
00000260: a723 f7bc c54a 2a3d 67aa 603d 7183 ebbc
00000270: 8cc2 c73d 3ecd 8fbd be61 11bd 683f c83d
00000280: c9f4 5b3d 6c86 f63d 0815 e83c 755f 273d
00000290: e77a b7bc ad4f 433d 2c28 adba d547 483c
000002a0: dcb8 00bb 581b 90bd aad7 1c3d db1b a43d
000002b0: 7123 a5bd 6696 62bc f7f1 623d 87c5 963d
000002c0: 3ae6 0f3d e528 423c a723 24be 9e25 b73d
000002d0: f36a 0b3d 6fdf 11bd 8fde 373d bab8 9bbd
000002e0: cf0d 943d c3e6 5f3d 9a03 dd3d b0de 50bd
000002f0: 1bcc 96bd 5fe8 81bd a744 dc3c 9480 3fbc
00000300: fe08 c8bd d75d 71bc f274 b33c ac26 6e3c
00000310: bcf9 dd3d d7d4 653d a7ec 33bd 6a73 733d
00000320: 871e 913c a9ef 233d 34c4 7bbd 337a e2bd
00000330: d18b a8bc 4924 12bd e09a 95bc 703a f83c
00000340: a7ff 8e3d 6a8e 80bc 511c 1b3d 02ee ddbd
00000350: bdf4 9e3d 350d 143d 88b6 85bd 0c65 9ebc
00000360: b276 8f3c c2c6 77bd ae4b 4f3c ce0b bebc
00000370: 39e5 5d3b b7f8 d53d c402 583d 0d75 fb3b
00000380: 23af 0bbd d1f8 ff3c 7156 a0bc ced9 9bbc
00000390: f8c2 903c d003 47bd 757a 92bd 6825 0c3d
000003a0: 0612 293c 1452 b73d 4efd c03d 2e5b 33bd
000003b0: 88a2 69bd 584a 29bd 5ef0 b43d c205 0a3e
000003c0: ba8e e73b 308a 2f3d 73d5 2f3d f90f 0fbd
000003d0: ea3e 85bd f3b3 e0bd 2a8e 823d 1e2b 1dbc
000003e0: 9549 5bbd f700 8eba 5c11 923c 30a5 e13a
000003f0: 90ca f536 6478 123d 2fd5 e33d 7090 4a3d
0.088231236 -0.15259701 0.023558198 0.0030698066 -0.01916848 0.022180038 -0.20529857 -0.017156882
0.037001107 0.07578051 0.057919282 -0.0047335317 0.06709753 0.04081281 -0.15553889 0.056000344
-0.034248646 0.095899224 -0.0077079455 -0.021401877 0.09086823 0.033610716 0.033969417 -0.050757475
0.01701344 0.08322508 -0.16324954 0.027138552 -0.096719705 -0.008602098 -0.010972143 -0.1163451
-0.05409176 -0.052565724 -0.093905225 -0.10735468 0.021128833 0.04640078 0.00030929298 -0.012114084
-0.08767892 0.01477529 0.047196493 0.07548053 0.013718585 -0.09074202 0.0222987 0.02410719
0.016528694 0.075219385 -0.120560564 -0.004696959 0.07593501 0.017970271 0.09037708 -0.042745896
0.011649246 -0.00432508 -0.09223281 -0.0434284 -0.050782405 -0.017728712 -0.06610729 0.13043682
0.07775213 0.14382999 0.011041802 0.085281014 0.09979654 -0.020304292 -0.0018537816 -0.04447594
-0.048096318 0.029426508 0.044974912 -0.005451015 -0.007890826 -0.0035676474 -0.001066758 -0.048826203
-0.03585679 -0.029371187 0.0011370949 -0.036298364 -0.16114125 -0.035610873 -0.08957471 -0.03636533
0.10855874 0.056193788 0.068901345 0.060243893 -0.013137576 -0.069720045 0.14971149 0.0163915
-0.07274732 -0.10129962 -0.11664282 -0.021595294 0.061208002 -0.075183816 0.0075124605 -0.009722982
-0.065289095 -0.06679946 0.054370522 0.039379664 -0.0034741198 0.021650098 0.0954034 -0.013596581
-0.0054159476 0.06516994 0.0026548158 -0.031158792 -0.1177955 -0.058418185 -0.085626826 0.05677281
0.012716011 -0.05389784 -0.073154286 -0.068338715 0.061160035 -0.03113301 -0.05254703 -0.06602825
-0.0871686 0.088931136 -0.052788895 -0.004485296 -0.050625127 -0.069362305 0.07246281 0.029755663
-0.030946026 0.035677698 0.026999645 0.050598837 -0.043020394 -0.017447473 -0.01469768 0.026317483
-0.06553894 0.024971372 0.0303867 -0.01677822 -0.087666206 0.035617504 -0.014667263 -0.026721919
-0.030168368 0.041575212 0.05485001 -0.0287492 0.09753904 -0.07021569 -0.035493605 0.09777719
0.053700242 0.12037358 0.028330341 0.04086252 -0.022397472 0.047683407 -0.0013210825 0.012224157
-0.0019641435 -0.070364654 0.03829161 0.080131255 -0.080634005 -0.013829803 0.055406537 0.07361894
0.03513167 0.01185057 -0.16029225 0.08942722 0.03403754 -0.035613474 0.044889983 -0.07603593
0.07229196 0.05466343 0.107917026 -0.05099362 -0.07363149 -0.063431494 0.026888205 -0.01168837
-0.0976734 -0.014731846 0.02190635 0.014535587 0.10838649 0.056111183 -0.04392686 0.05943624
0.017714752 0.04002348 -0.06146641 -0.11058464 -0.020574482 -0.035679135 -0.018262327 0.030301303
0.069823556 -0.015692908 0.0378688 -0.10836412 0.07761524 0.036145408 -0.06528956 -0.019335292
0.017512653 -0.060492285 0.012652321 -0.023198988 0.0033858551 0.10447829 0.052737013 0.0076738656
-0.03410257 0.031246575 -0.019572468 -0.019024756 0.017671093 -0.04858762 -0.07152263 0.03421536
0.0103192385 0.08951202 0.09423314 -0.043788128 -0.057039768 -0.041330665 0.08834909 0.13478759
0.007066575 0.042856395 0.04292817 -0.034927342 -0.065061405 -0.109718226 0.06374772 -0.0095927995
-0.05353697 -0.0010834028 0.017830543 0.0017215367 7.3251504e-06 0.035759345 0.11124646 0.049454153

network_body._body_endoder.seq_layers.2.bias f4 [256]
00000000: dc4e 34bb bb40 b23b 0421 b33b b1cc ac3b
00000010: c163 a539 b967 ecba a591 9aba e0cf 883b
00000020: fc74 52ba 974e bc3b 32d8 7bbb e05f 81ba
00000030: 1c71 3b3b 5fea e2bb c63e f6ba c2ec 56ba
00000040: 8495 403b 7e98 813a 8a23 27bb 3d35 8fbb
00000050: 2791 bbba ae97 843b 817b 15ba 9a98 b0ba
00000060: 43f2 16ba 260b 5dbb 2cc6 c2bb 2884 823b
00000070: 6552 973b 7ede 8ab9 0537 83bb 565d 06bb
00000080: 17d5 cbb7 665f 64bb 0972 633b e629 f4b8
00000090: 110f 9c3b 12ba 543a dfd1 f639 bc68 c53b
000000a0: 2a08 bbbb ce4d 983b 7bf7 41bb ca62 56bb
000000b0: dfaa 613b f7dc ecb9 41b7 9ebb 5d91 953b
000000c0: d1e9 72bb 7646 6abb daab a43b fee5 b73b
000000d0: c801 483b 3741 413b d748 ac3a 62ea 263b
000000e0: 26e1 dcb9 cbac 8239 fdd2 c43b d823 423b
000000f0: ca58 ca3a 3e80 82bb ecd5 3abb 35c9 02bb
00000100: 7654 653b 2fbe 47bb ef4f 68bb e9bd fcba
00000110: 33c6 8aba 7d94 923b 94e6 873b 42bf 62bb
00000120: 37e0 9cbb 3e76 b1b9 6f4c f93a bd33 4abb
00000130: b6c1 a43b 634a 4bbb 26d4 50bb 11a0 d6bb
00000140: a08f 35ba 48c8 8ebb b735 a23a 547c d0bb
00000150: 417e 753b f72b ec3a 76ec 573b 86cd b03b
00000160: 7597 513a 9572 ddba f21f 1f3b 4186 5abb
00000170: 204b c23b 4991 36bb 1199 693b a31b a43a
00000180: becc 60ba ec2b 6fbb 7fb2 933b e5c5 a03b
00000190: 4ed2 c1b9 99e5 10bb 88ff 8c3b 6ead 803b
000001a0: c505 2e3b b874 de3b 37c3 be3b 8e98 b0bb
000001b0: 9671 d53a 519d 0d3a 1e07 aa39 f3b6 b8ba
000001c0: 6854 923b 7b05 61bb d5d7 9a3b 0131 66bb
000001d0: 4d3d 2f3b 28e6 993b 1adf 843b a97e faba
000001e0: e24d 2dbb 5632 823b fac9 2ebb 3621 b73a
000001f0: 0b9e 5d3b ef20 953a 7238 88bb 6f68 da39
00000200: ed7b beb9 bc9a 8cbb 8f8d d13a 0184 f33a
00000210: 5de0 e03b 3314 70bb 01e6 17bb 3c6e 943b
00000220: b8e3 863b 9f03 c539 e995 8cbb 1c74 93b9
00000230: 3c1f ebba 39f9 d53a 42a2 403a 4351 85bb
00000240: 724a 433b dbce 2bbb 1269 7e39 b0f3 d5ba
00000250: 6e58 eeba d4b3 af3b c266 0538 99e0 823b
00000260: d63c 0c3b 91ff 7b3b 7dd5 ae3a 1dfb 8f3b
00000270: 94c1 8cba 3885 c73b 5e4b 9b3b 6952 773b
00000280: af4a 953a f6d6 56bb d7cf 703b e015 a53b
00000290: 5531 eaba 8904 893b ea57 473b 124e 283a
000002a0: 1c99 90ba 1385 993b c20c 4bba 94b6 cdb9
000002b0: f254 ccba a39f 163a 42bf a1ba bec7 adbb
000002c0: 405e 1bbb c5eb 98bb d93b b83a e425 fb3a
000002d0: 39cc aa3a 1b72 8e3b 1626 77bb f168 3e3a
000002e0: c6e7 bc3b 97f6 12bb 9ac6 1bbb 889a 87bb
000002f0: 2a1e 59bb 6bfe 8a3a 2b6b c2ba 7684 c73a
00000300: 1803 86ba 2c86 1bbb 4910 5ebb ec12 913b
00000310: 3caf 03bb 0c0d a139 4c6b d139 e99d b03b
00000320: 1a03 3ebb adb3 123b 1a7e a33b ea16 13bb
00000330: dd51 b73b bc86 35bb 98c6 733b d5d4 c63b
00000340: a456 863a a1e9 87bb c0a2 89bb c832 a43b
00000350: 7edf 2bbb e058 d339 2728 953b f668 86ba
00000360: 0bf8 35bb 4244 973a 7073 a1ba 1ed1 f5ba
00000370: 82b8 92bb d59a 5c3a 9cf3 e53a 0d7f 7939
00000380: b4e7 da39 f05f 4f3b 05cc f33a f66a bb3b
00000390: 7a65 66bb d52d 313b fd41 a9bb a4c1 5f3a
000003a0: d949 2ab9 7a65 bcb9 ddc1 28bb 312b ae39
000003b0: e3da 993a 6cc9 b53b 6897 5e3b b9be 5ebb
000003c0: 92f6 eb3b f73f 66bb 0333 8abb 3ebb c53a
000003d0: bb53 a73b 8e21 acbb 6b28 953b 2120 ba3b
000003e0: ef9f b33b 05b9 893a 1c14 97ba 09e7 5d3b
000003f0: 7056 45bb 083c 01bb cc7b abbb 9f73 9abb
-0.0027512824 0.0054398454 0.0054665823 0.0052734246 0.00031545575 -0.0018036283 -0.0011792673 0.0041751713
-0.0008028296 0.0057466733 -0.0038428423 -0.0009870492 0.0028601354 -0.006924912 -0.0018787018 -0.0008198732
0.0029385993 0.0009887365 -0.002550336 -0.00437036 -0.0014310227 0.004046402 -0.00057023024 -0.0013473213
-0.00057581457 -0.0033728569 -0.005944034 0.0039830394 0.0046179765 -0.0002648718 -0.0040043616 -0.002050241
-2.4298713e-05 -0.00348469 0.0034705421 -0.00011642631 0.0047625382 0.0008114885 0.00047077143 0.006024448
-0.0057077603 0.004647947 -0.0029596973 -0.0032712691 0.0034434122 -0.0004517806 -0.004843623 0.004564448
-0.0037065635 -0.0035747564 0.005025369 0.005612134 0.003051864 0.0029488334 0.0013144267 0.0025469293
-0.0004212942 0.00024924273 0.006006597 0.0029623415 0.0015437838 -0.003982573 -0.0028508855 -0.0019956355
0.003499297 -0.0030478348 -0.0035448035 -0.0019282672 -0.0010587632 0.0044732676 0.00414736 -0.0034598862
-0.0047874707 -0.00033848168 0.0019019971 -0.0030853592 0.005027975 -0.003101968 -0.0031864732 -0.006549843
-0.0006926004 -0.0043573715 0.0012375627 -0.0063624773 0.0037459286 0.0018018474 0.0032947338 0.005395594
0.0007995286 -0.001689511 0.0024280515 -0.0033344182 0.0059293658 -0.0027857593 0.0035644213 0.0012520443
-0.0008575431 -0.0036494685 0.0045073624 0.0049064034 -0.00036968518 -0.0022109507 0.0043029226 0.0039269244
0.0026553732 0.0067888163 0.0058216113 -0.0053892797 0.0016284462 0.0005402165 0.0003243023 -0.0014092609
0.0044656284 -0.0034335542 0.004725436 -0.0035124423 0.002673942 0.004696626 0.004054916 -0.0019111234
-0.0026444127 0.0039732857 -0.002667068 0.001397169 0.0033816125 0.0011377613 -0.0041571194 0.0004165801
-0.00036331956 -0.0042909067 0.0015987622 0.0018578769 0.0068626837 -0.0036633133 -0.0023177864 0.0045297425
0.0041165017 0.00037577466 -0.0042903316 -0.00028124533 -0.0017938386 0.0016324884 0.0007348397 -0.004068525
0.0029799012 -0.0026215825 0.0002426247 -0.0016323235 -0.0018184313 0.0053620134 3.180537e-05 0.0039940593
0.0021398566 0.003845189 0.0013338771 0.0043939487 -0.0010738843 0.006088879 0.004739209 0.003773833
0.0011390055 -0.0032781935 0.0036744976 0.005038008 -0.0017867485 0.004181449 0.003041739 0.0006420325
-0.0011031958 0.004685053 -0.00077457365 -0.00039236678 -0.001558928 0.00057458336 -0.0012340324 -0.005303352
-0.00237073 -0.004666778 0.0014055922 0.0019161073 0.0013030834 0.0043470985 -0.003771191 0.00072635623
0.0057649342 -0.002242481 -0.0023769499 -0.0041382946 -0.0033129551 0.0010604387 -0.0014832964 0.0015221972
-0.0010224311 -0.0023731096 -0.0033884218 0.0044273045 -0.0020093461 0.00030718034 0.0003994353 0.005389918
-0.0028993548 0.0022384927 0.0049893977 -0.0022444078 0.0055944757 -0.0027698716 0.0037197229 0.006067852
0.001024921 -0.004147724 -0.0042003095 0.0050109364 -0.002622574 0.00040311273 0.0045519057 -0.001025467
-0.0027766253 0.0011540728 -0.0012317728 -0.0018754338 -0.0044775615 0.0008415406 0.0017543915 0.0002379382
0.00041752832 0.0031642877 0.0018600231 0.005719538 -0.00351557 0.0027035375 -0.005165337 0.00085356296
-0.00016239974 -0.0003593376 -0.0025750317 0.00033220046 0.0011738207 0.005547693 0.0033964757 -0.0033988191
0.0072010243 -0.003513334 -0.004217507 0.001508571 0.005106417 -0.0052530235 0.0045519373 0.0056800996
0.005481712 0.0010507411 -0.0011526379 0.0033859632 -0.0030111335 -0.001971962 -0.0052332636 -0.00471349

action_model._continuous_distribution.log_sigma f4 [1, 3]
00000000: 1862 7a39 d8b1 553b c4e6 cb39
0.000238784 0.0032607224 0.0003889111

action_model._continuous_distribution.mu.weight f4 [3, 256]
00000000: 3c06 0d3c bef3 803b d118 c7ba 4e80 fbbc
00000010: 1473 94bc 4445 123c 7c35 3fbb f49a b43b
00000020: c4ca 863c a38b 963b 6106 c6bc 4ef6 f0bb
00000030: 2d0f cfbc 96ed 2239 0db2 90bc 8120 48bc
00000040: 348d 8abb 9fda aabb 89e2 c5bb 026c 80bc
00000050: 9501 fbbc 8d0d 3a3c 63dc ba3b e8f1 093c
00000060: 6cf3 23bc 7353 683c d691 8dba 593b 383b
00000070: f47a 6ebb c002 6cbb 7c22 f13a c910 fe3b
00000080: 8f63 5bbb d870 e2bb 464e 66bc 7424 d7bc
00000090: 0608 a03b ce87 c53a 9497 debc a3e7 4f3b
000000a0: 5705 593b ad6a 36bc d72f a9bb 598b 5d3c
000000b0: 0546 b1bb 09f1 f63c 348f 573c 3c9f 62bc
000000c0: 5f04 a23c 59ce d4bc bee6 b63b 81cc 863c
000000d0: a995 643c 7c3e bebb ed9f af3b b147 053c
000000e0: 142d 363c a6fa 653c c9e5 12bc cc0f cb3b
000000f0: b6d6 923c 602a 873c f342 193c 9b51 803b
00000100: f77e 08bc b6e4 20bc 85c2 c53a 220c 81bb
00000110: 6fd2 4ebc 765b b8bb c03b 67bc 46bd c6bb
00000120: 4ecf 673c bc0b 9a3a c57d 053c 2bf4 f83a
00000130: 9215 ec3b 9fc3 8f3c 7c8b e33b 46be 4aba
00000140: 4a1f 5c3c 5225 a7bb 57e1 34bc d790 4f3b
00000150: ce97 033b f9c9 ad3c 74bc 63bc 602c c2ba
00000160: c728 f73b d0f1 0ebb b052 bbbc 6d6a b5bc
00000170: 63c0 82bb 810a ce3c f8f7 a9bb bac1 64bb
00000180: a933 9cbb e49f 4cbb 3872 d1bb fd64 65bc
00000190: 855f 743c 9f82 6fbc 98aa 8f3c ffef eaba
000001a0: 2cb0 84bc 7568 08bc fe90 3fba 84f6 043c
000001b0: 0590 4a3b 8112 413b bd29 e1bb 311c fd3b
000001c0: 1eb7 04bb 4e89 50bc 9063 ea3b 078e 823a
000001d0: 7f12 a73b d1e7 cabb 3260 8c3a d8e9 453a
000001e0: c2a8 a93b f796 803a 6d22 bfba a2be 143b
000001f0: 314b 1fbc 12b8 43bc 67e3 91ba ad73 573b
00000200: 507a d8bb 5bf9 0eb9 f1fc a7bc 641a c03c
00000210: b156 20bc e6da e1bb 9f2f 28bb 2e00 9a3b
00000220: 0ea5 17ba 4fc6 68bc 26e7 09bc 2835 80bc
00000230: 97a5 f33a af98 b4bc fcfb bfbc 121d 5fbc
00000240: 10ca 213c c78b 273b d415 493c b022 cf3a
00000250: 7ed8 5cbc 8997 9bbc 06b9 70bc 5838 69bc
00000260: 9228 18bc 6178 9abc a85f a0bc d204 263c
00000270: 3c1b 493b 5d47 473c 5f4d 28bc 0985 bbbb
00000280: 2615 86bc a077 b9ba 48ff 4abc 7d03 043c
00000290: 3033 b6bc 9bc7 81bc 5908 42bb 08cc 3dba
000002a0: ad96 1abd 7f82 06bc 19ed 4c3c fb45 86bc
000002b0: 74d1 8e3c 022d ab3c 639c 82ba 33a4 6db9
000002c0: 3ea8 6e3b 99ce c6ba de45 d83b 0817 aabc
000002d0: 9b29 0a3c 6769 3fbb bbbf 363c 6505 65bc
000002e0: 8426 453a 2f2d 0b3c 68d7 363c 7a7c 963c
000002f0: 067e b33b f91c 08bc 144b 7aba 0cec 9dbc
00000300: aa17 c6ba 2bb0 22bd 5bd6 183c e16f 033c
00000310: 3f58 1cbc da63 d03a 9b7e cabb 803d fe3b
00000320: 350d 5dbc 017a 453b 1330 d9bc d049 833c
00000330: dd66 493a f27e 993b 25dd 933b 2dbd 9dbc
00000340: 78bd 7abb e219 063c cb97 fd3b 22ef bf3c
00000350: a160 853c 9813 b63a b115 b63c 82f9 a6ba
00000360: 1054 99bb 70a4 dcbb 3815 b33c c4a6 63bc
00000370: 8e31 79bb 8222 aa3c 6ea1 b93b c4e4 69bc
00000380: fa61 de3a cfcc edbc 3dce acbc 3d33 84bc
00000390: 1cd3 653b 95d9 263c 1e7a 823c 85f0 51bb
000003a0: 596f 6d3c 2bf1 003c 8567 b7bc 606a 6ebc
000003b0: 5a5e 193b f481 c6bb 93d1 a73c 3994 52bc
000003c0: 97cd 05bb 64ad a43b 89b0 fd3c a210 56bc
000003d0: 4527 a13b 249b 8bbb 6e6c ac3c 8821 993b
000003e0: 4357 38bc 914f d7bc a4f4 eebc 93c7 90bb
000003f0: c812 443c 581e 673c 64bb 793b d49a 1b3c
0.008607443 0.0039353063 -0.0015189891 -0.030700829 -0.01812128 0.008927647 -0.0029176166 0.005511636
0.016454108 0.0045942827 -0.024172964 -0.0073535806 -0.025275791 0.00015538032 -0.017663026 -0.012214781
-0.0042282585 -0.00521405 -0.006038968 -0.015676502 -0.030640403 0.01135577 0.0057025417 0.008419491
-0.010006767 0.014180052 -0.0010800909 0.0028111546 -0.0036389204 -0.0036012381 0.0018397118 0.007753466
-0.003347609 -0.0069104247 -0.014056748 -0.0262625 0.004883769 0.001507038 -0.027171887 0.003172376
0.0033114755 -0.011133832 -0.0051631737 0.013521993 -0.0054099583 0.030144231 0.013156701 -0.01383191
0.019777475 -0.0259773 0.005581706 0.016454937 0.013951697 -0.0058057886 0.005359641 0.008134768
0.011119146 0.01403681 -0.008965918 0.0061969515 0.017924648 0.016499698 0.009354341 0.003915978
-0.008331052 -0.009820154 0.0015087879 -0.003938214 -0.0126234135 -0.0056261374 -0.014113367 -0.0060650436
0.014148546 0.0011752765 0.008147662 0.0018993666 0.00720472 0.017549334 0.006944118 -0.00077340414
0.013435194 -0.0051008845 -0.011040053 0.0031672025 0.0020079496 0.021214472 -0.013899911 -0.001481425
0.007542703 -0.0021811612 -0.022866577 -0.022145474 -0.0039902194 0.025151493 -0.005187031 -0.003490551
-0.0047669006 -0.0031223232 -0.0063917898 -0.014001128 0.014915352 -0.014618545 0.0175374 -0.0017924308
-0.016197287 -0.008325686 -0.00073076773 0.0081154145 0.0030908596 0.0029460492 -0.0068714307 0.007724308
-0.0020250748 -0.0127280485 0.007152982 0.000996054 0.0050986405 -0.0061921855 0.0010709821 0.0007549799
0.005177588 0.0009810616 -0.0014582403 0.0022696634 -0.009722517 -0.011945741 -0.0011130393 0.0032875345
-0.0066063777 -0.00013635067 -0.020506354 0.023450084 -0.009786294 -0.00689255 -0.002566315 0.0046997285
-0.0005784788 -0.014207437 -0.0084169265 -0.015650347 0.0018588778 -0.022045461 -0.023435585 -0.013617771
0.009874836 0.0025565492 0.012273271 0.0015803184 -0.01347935 -0.018993156 -0.0146925505 -0.014234625
-0.0092870165 -0.01885623 -0.019576862 0.010132985 0.00306864 0.01216301 -0.010272353 -0.005722646
-0.016367506 -0.0014150031 -0.012389965 0.008057472 -0.022241205 -0.01584225 -0.0029607026 -0.0007240181
-0.037741352 -0.008209824 0.0125077 -0.016390791 0.01743386 0.020895485 -0.000996482 -0.0002266325
0.0036416198 -0.0015167772 0.0066001257 -0.020762935 0.008432771 -0.0029207112 0.011154111 -0.013978337
0.0007520693 0.008494659 0.011159755 0.018369902 0.0054776696 -0.008307689 -0.00095479307 -0.019277595
-0.0015113254 -0.039718788 0.00932845 0.0080222795 -0.009542524 0.0015898899 -0.0061796433 0.007758796
-0.013491918 0.0030132534 -0.026512181 0.016026407 0.00076828693 0.0046843225 0.0045124465 -0.019255245
-0.0038259905 0.008184882 0.0077390424 0.023429457 0.016281428 0.0013891337 0.02222714 -0.0012739154
-0.0046792105 -0.0067334697 0.021860704 -0.0138947405 -0.0038023922 0.020768408 0.005664996 -0.014275733
0.0016966455 -0.029028324 -0.021094436 -0.016137714 0.0035068458 0.010183712 0.01592737 -0.003203423
0.014491879 0.007869999 -0.02238823 -0.014551729 0.0023402185 -0.006057972 0.020485675 -0.012852722
-0.002041673 0.0050255526 0.030967968 -0.013065489 0.0049180114 -0.0042604376 0.021047797 0.0046731867
-0.011251274 -0.026283057 -0.029169388 -0.0044183224 0.011967368 0.014106356 0.0038106078 0.009497363

action_model._continuous_distribution.mu.bias f4 [3]
00000000: 0e6e 17ba 254b a6bb 2ab6 6bbb
-0.00057765923 -0.005074876 -0.0035966733

action_model._discrete_distribution.branches.0.weight f4 [7, 256]
00000000: ba0c 33bc 58b1 3dbb ceee 843b 2f36 18bc
00000010: 3697 bbbb 447d 92bb e3c4 2e3a eef7 8839
00000020: 5532 123c cda5 d4bb c2d4 923b cf56 a93b
00000030: f2f8 8a3a f5a7 d5bb 4eea 223b b636 ff3b
00000040: d474 84bc b9fb 93bb f89e 99bb 0235 a5bb
00000050: 7eea 60bb 6278 43bc f178 5a3b d6b9 b83a
00000060: f26c 083b 0470 34bc 7944 1eba 85eb e1bb
00000070: 4875 203c 21a5 ba3b 3ed5 cd3b 4725 503c
00000080: 7c5e dcbb b6cd 0f3b 79f7 793c 0ecd 59b9
00000090: 13fa 68bb 3747 003c 9f9a 7d3a 3420 bebb
000000a0: b2c8 d7ba 65f0 7dbb 7a58 95b9 b2bf 773b
000000b0: 608e 60bc 8811 8b39 ee8d e6bb fb67 d6bb
000000c0: 0e2c fd37 5f26 77bb 27d3 2bbc 34f3 4dbb
000000d0: e3c3 00bc e1d3 ce3b 83c7 13bc eaa5 28bb
000000e0: 2469 ca3a 8338 b73b e180 923b 1b15 13bb
000000f0: 6f98 10bc 0d18 ee3b ed91 793b 2bc5 c03a
00000100: e5c6 f8bb a502 fb3a 5c51 333c bcd3 cbb9
00000110: fbcc 0a3b 0384 5d3b a459 c73a ef32 b6b9
00000120: 7474 b73b 7a7c 333c aa08 ce3b f958 adba
00000130: ac3e 633b 42e7 9a3b c9d4 383c 4dda 84bb
00000140: 3e5c 34bb 2ab3 fd38 f32c ee3b ab30 343c
00000150: e253 08bc 928a 1f3c c7bf 343b b506 46bb
00000160: 8a7c 0ebc 7e75 f1ba 679c 09bc eb59 833b
00000170: 9ca4 17bc 01f3 783b 524a 0fba 5b7c 12ba
00000180: 05f0 b8bb 8815 18ba 91fb 6cba f18b 673b
00000190: abd6 d6ba 622f 1bba 316d 33bb 2a7a 0fbc
000001a0: 4ccb 93ba 1088 4ebc 38d3 6c3a 5c68 babb
000001b0: 4116 86ba ce29 debb c2c8 97bc d40a 8dbb
000001c0: 453d 32bc 8d9f 433c a22a c0bb 2b9f 10bb
000001d0: 8f90 90bb d0bb 2fbb cf96 c03b 0b8c 87bb
000001e0: 18a9 8eba 4412 93bb d30a 643b c2b2 21bc
000001f0: 0ddf 113c 4921 5fbb 6d7f 1c3c 2872 90bb
00000200: 3465 393b 3cc8 d33b 86fd d5bb 537b 18bb
00000210: 947f 0abc 61b9 92bb 3906 843b 012b ddba
00000220: 87c2 b7bb 09c6 943c 3317 3cbb e7e9 cc3b
00000230: b6e3 1a3b eea8 1bbb a72d fbba ca31 983b
00000240: bb2d 2ebb 9e0e 3cbc 36c3 f4bb 1bf5 8b3b
00000250: 73e8 aa3b c7d7 e5b9 f612 ffbb 33b2 3abb
00000260: c351 173b e342 dcbb 06c8 0cba 4614 25bc
00000270: 69b4 123a 4932 bcbb 83bd 10bb 821a 2fbb
00000280: d6c5 21bc baab 89bb f901 a03b 0fb6 a1ba
00000290: 1ed6 033c 5d16 48bc 9347 0b3b 38d7 483b
000002a0: 17a8 1ebb 1291 71bc 4b96 7ebb 95e5 4e3b
000002b0: 5bdd 4c3c b17c 813c 4443 73bb a6d5 093b
000002c0: 7f4d 193b be13 2e3c 6bd6 363c 343e 00bc
000002d0: abaf 2abc 4273 c0bb 8454 c139 2c7c 2b3c
000002e0: 3d3f 98bb ee4e 90bb bb71 d1bb 6d2c 13bb
000002f0: 8a1c 2b3b 02bc efbb 1aff d43b 3ac0 ebbb
00000300: 17e9 91bc 7a94 9b3b d66c 3f3c 76d0 31bc
00000310: 4258 e8bb 685d 3dbb 95d0 a33a f7fd 76bc
00000320: f8f2 ae3b 92b5 323b dcfa cbba 26f8 6139
00000330: ce0f 8f3a 6340 a43b 0295 28bc d61e 48bc
00000340: ba67 293c 6de7 e53b 38d2 193b 305b 6d3b
00000350: 92ce 12ba f98a dc3b 4f31 01bc 2ea7 373c
00000360: 19dd 1ebb 176f bf3b 3ffb 32bb f5f0 273c
00000370: c7e1 a5bb dea4 cc3b e808 8fba ed7f 91bb
00000380: 7aef 77bc 3947 f83b 7c91 80bc 1637 07bc
00000390: f650 9fbb 0728 4bbc 4d8a 1c3a 437b 0abc
000003a0: 3b1c 843b ee84 743c b6db 0bbb 2cd7 4a3b
000003b0: b570 afbb ce26 37bc a37a 91bb a96c 17bc
000003c0: 218c 98bb bc47 693c 8140 8a3b 7b30 61bc
000003d0: 93c2 673a bd39 c03b e1e7 6abb 802e 99bb
000003e0: 9896 07bc c148 9fbb 49ae c339 30b9 37bb
000003f0: 6a0f 1dbb d3e0 fbba d977 e438 1f84 f8bb
-0.010928327 -0.0028944816 0.004056788 -0.009290262 -0.005724813 -0.004470499 0.00066669116 0.00026124663
0.008923133 -0.0064894916 0.004480929 0.005167819 0.0010602756 -0.006520266 0.0024858895 0.0077885045
-0.01616899 -0.0045160917 -0.00468814 -0.0050417194 -0.0034319456 -0.011930557 0.0033336247 0.0014093469
0.002081689 -0.011013035 -0.0006037425 -0.006894531 0.009793587 0.0056959544 0.006281524 0.0127042
-0.0067251306 0.0021942682 0.015256756 -0.00020771121 -0.0035549446 0.007829479 0.00096742244 -0.0058021788
-0.001646301 -0.0038748023 -0.00028485415 0.0037803468 -0.01370582 0.00026525208 -0.0070359623 -0.006543157
3.0180465e-05 -0.003771208 -0.010487354 -0.0031425478 -0.007859203 0.006311879 -0.009019735 -0.0025733658
0.0015442711 0.0055914535 0.00447093 -0.0022443 -0.0088254055 0.0072660507 0.0038081363 0.0014707198
-0.0075920695 0.0019150568 0.010944691 -0.00038876932 0.0021179307 0.003380061 0.001520921 -0.00034751694
0.005598599 0.0109549705 0.006287654 -0.0013225368 0.0034674807 0.004727275 0.011281201 -0.004054344
-0.00275208 0.00012097352 0.007268542 0.0109979315 -0.0083207805 0.009737628 0.0027580129 -0.00302164
-0.008696685 -0.0018421856 -0.008399106 0.004008522 -0.0092555545 0.0037986638 -0.00054660917 -0.00055879884
-0.005643847 -0.0005801548 -0.0009040172 0.0035331214 -0.001639088 -0.00059198414 -0.0027378316 -0.0087571535
-0.0011275797 -0.012605682 0.00090341596 -0.00568871 -0.0010230021 -0.006779886 -0.018528346 -0.0043042693
-0.010878866 0.011939895 -0.005864457 -0.0022067528 -0.004411764 -0.0026814826 0.005877353 -0.0041365675
-0.0010884134 -0.0044882614 0.003479649 -0.009869279 0.008903277 -0.003404694 0.009551865 -0.0044081397
0.0028289082 0.006463079 -0.0065304665 -0.0023266866 -0.008453269 -0.0044776653 0.004029062 -0.0016873778
-0.0056079063 0.018160837 -0.0028700351 0.0062534693 0.0023634261 -0.0023751813 -0.0019163386 0.004644607
-0.002657755 -0.011478094 -0.00746956 0.004271162 0.0052156984 -0.0004383905 -0.0077842427 -0.0028487563
0.0023089505 -0.0067218407 -0.0005370382 -0.010075634 0.0005596341 -0.005743299 -0.0022085614 -0.002671868
-0.009873828 -0.0042013796 0.0048830477 -0.0012337583 0.008046655 -0.012212363 0.0021252378 0.0030645858
-0.0024209076 -0.01474406 -0.0038846906 0.0031569947 0.012503947 0.015806528 -0.003711895 0.0021031885
0.0023392139 0.010624824 0.01115952 -0.00782733 -0.010417859 -0.005873115 0.00036874798 0.010466617
-0.0046462105 -0.0044039404 -0.0063917316 -0.00224569 0.002610954 -0.0073161134 0.006500137 -0.007194546
-0.017811341 0.0047479244 0.011683663 -0.010852924 -0.0070905993 -0.0028894786 0.0012498075 -0.015075198
0.0053390227 0.002726887 -0.0015562433 0.00021550115 0.0010914744 0.0050125583 -0.0102894325 -0.012214383
0.010339672 0.0070161135 0.0023471247 0.0036217682 -0.00056002394 0.006730434 -0.007885291 0.011209292
-0.0024240671 0.0058421004 -0.00273104 0.01025032 -0.005062315 0.0062452396 -0.0010912688 -0.004440299
-0.015132779 0.00757685 -0.015694372 -0.00825288 -0.004861946 -0.01239968 0.0005971536 -0.008452239
0.0040316856 0.014924271 -0.0021340675 0.0030951006 -0.005354012 -0.011178685 -0.0044396683 -0.009242215
-0.0046553765 0.014238294 0.0042191152 -0.013744469 0.00088409445 0.005866258 -0.0035843777 -0.0046747327
-0.00827565 -0.004860968 0.0003732315 -0.0028033964 -0.0023965486 -0.0019216783 0.000108942106 -0.0075841094

action_model._discrete_distribution.branches.0.bias f4 [7]
00000000: 0180 88bb 4002 cf3b 91e6 4f3a f6e4 913a
00000010: ff4f df3b 7d57 aabb dd39 c7bb
-0.00416565 0.006317407 0.00079307804 0.0011130858 0.006814956 -0.0051984177 -0.006079896

onnx::Div_90 f4 [68]
00000000: a4b6 f13b cead 713e e299 6b3d 06b2 4c3e
00000010: a4b6 f13b c0c0 653e b096 223d d477 423e
00000020: a4b6 f13b 8a3b 883e 8f28 983d 08be 553e
00000030: a4b6 f13b 6e4a 893e 08e8 453d 3f97 473e
00000040: a4b6 f13b 41c3 933e 12e3 7f3d bf9a 5d3e
00000050: a4b6 f13b c5fc 843e 185d 253d 8b28 463e
00000060: a4b6 f13b fbf8 913e 001a 923d 2bfb 5a3e
00000070: a4b6 f13b 504d 5a3e 390e 073d 777c 433e
00000080: a4b6 f13b e9ac 7d3e 37e0 763d 0bf7 4d3e
00000090: a4b6 f13b 8181 623e 0bc7 2a3d d212 4e3e
000000a0: a4b6 f13b f395 6f3e 5195 8c3d dd26 4a3e
000000b0: a4b6 f13b f467 723e 015e 553d a9db 533e
000000c0: a4b6 f13b 0c0f 6f3e 66d2 9b3d c918 4a3e
000000d0: a4b6 f13b 6fed 833e 803a 533d 3412 543e
000000e0: a4b6 f13b dcc9 6a3e 57c3 8f3d 9f2b 4b3e
000000f0: a4b6 f13b d209 7f3e d61a a03d 2f59 4f3e
00000100: a4b6 f13b d209 7f3e d61a a03d 2f59 4f3e
0.007376509 0.23601457 0.0575198 0.19989786 0.007376509 0.2243681 0.039694488 0.18991023
0.007376509 0.26607925 0.07429611 0.20873272 0.007376509 0.26814598 0.048316985 0.1949129
0.007376509 0.28859904 0.06247241 0.21641062 0.007376509 0.25974098 0.040371984 0.19351403
0.007376509 0.2851027 0.07133865 0.21384875 0.007376509 0.21318555 0.03297255 0.19090448
0.007376509 0.24772991 0.06027242 0.2011377 0.007376509 0.22119714 0.04169373 0.20124367
0.007376509 0.23397045 0.06864417 0.19741388 0.007376509 0.23672467 0.052091602 0.20689262
0.007376509 0.23345584 0.0760849 0.19736017 0.007376509 0.25767085 0.05156946 0.20710069
0.007376509 0.22928566 0.0701968 0.19840859 0.007376509 0.2490609 0.078176185 0.20248865
0.007376509 0.2490609 0.078176185 0.20248865

onnx::Div_96 f4 [37]
00000000: 7d3f e640 9ac4 e03d 3699 ed40 a4b6 f13b
00000010: 7981 993e a4b6 f13b a5f4 2541 8c5b f43b
00000020: a3da 3441 a4b6 f13b cf9c 983e a4b6 f13b
00000030: 164e 5f3e 1df4 123e 2ce9 d43e 2a48 d53e
00000040: c80d fe3e f1ed d43e 890d a13f f374 603f
00000050: a4b6 f13b 1abe 983f 2909 2f3f 51bf f13b
00000060: e35d 3a3f eea2 923e 40b9 6d3e acba 6d3e
00000070: 3767 663e f266 663e 00ef 053e fdd7 713f
00000080: 756c 8c3e 3e74 373f fc4f f33b 167d bd40
00000090: 49c6 933e
7.19525 0.10974999 7.4249525 0.007376509 0.29981592 0.007376509 10.372228 0.0074572023
11.303378 0.007376509 0.29807135 0.007376509 0.21807131 0.14350934 0.41584146 0.4165662
0.4961989 0.41587785 1.2582256 0.8767845 0.007376509 1.1933014 0.6837335 0.007377543
0.7279951 0.2863993 0.23215199 0.23215741 0.22500311 0.22500208 0.13079453 0.94470197
0.27426496 0.71661747 0.0074253064 5.9215193 0.28862217
