results/ppo/BoxingAgent/BoxingAgent-384.onnx (onnx, 130095 bytes, 8 tensors)

network_body._body_endoder.seq_layers.0.weight f4 [128, 101]
-0.014618481 -0.01286057 -0.035537414 -0.10074185 0.1579874 0.21824457 0.06954802 0.02303372
0.07920738 0.0321032 -0.043973733 -0.097394355 -0.05455432 -0.031381488 -0.13003911 0.036727346
-0.19186178 -0.048746623 -0.23456392 0.07366959 -0.0173505 0.1343065 -0.068745025 0.1421631
0.022784822 -0.20221063 0.05395277 0.092091985 0.13473059 0.11393566 -0.018490989 -0.08531793
-0.1397205 -0.057469886 0.1315251 -0.13340212 0.079202555 -0.0457869 -0.054547857 0.16385528
0.07233173 -0.07394266 0.033976763 -0.009710613 -0.031331033 0.0059889113 -0.007233474 0.13203214
-0.030462842 -0.21676196 0.059341695 0.055033393 -0.13864972 0.06708397 -0.13150701 0.08784733
-0.09853994 0.027696067 -0.014412279 0.051594853 0.01228417 0.08092181 0.051734306 0.08560572
-0.02730401 0.06359022 0.07475154 -0.065340415 -0.14131425 -0.1491167 0.052752253 -0.018075002
0.035474345 -0.008874259 0.0055316254 -0.10755506 0.073999904 0.1554405 -0.086660534 0.067348816
0.2042134 -0.07506625 -0.13276453 0.044443592 0.12201364 0.0017282899 0.022942938 -0.041864127
0.06899568 0.16324843 -0.016948242 -0.09531827 0.0046936786 0.09570985 -0.16205953 0.13039689
0.00938973 0.0011764751 -0.15538014 -0.07542868 -0.15348698 0.013329722 -0.06195447 0.07931714
-0.14082423 -0.034762148 -0.016814394 0.025042525 -0.18145362 -0.027428979 -0.018620092 -0.04802251
-0.013425282 -0.031867653 -0.04930842 -0.08899775 0.15241279 0.04678679 -0.051017113 -0.017858293
-0.06504357 0.099957645 -0.17051485 0.24948438 0.07173228 -0.19101454 -0.021023389 -0.11645052
-0.023895657 0.109438956 -0.09072712 0.107207924 0.023979018 -0.025282003 -0.23351024 0.0747879
0.09477733 0.027946703 0.01797318 -0.15991485 -0.065539725 -0.06553003 -0.04761208 0.16444902
0.056106072 0.08615774 0.023933582 -0.064536676 -0.065118246 -0.012730978 0.010666351 -0.11319806
0.03917248 -0.21913023 0.14695197 -0.023742186 -0.038732845 0.09302859 0.012131962 -0.020604834
0.045997195 -0.06618868 -0.10324168 0.03558959 -0.06603826 0.022724831 0.16523437 0.050188597
0.026409395 0.05046167 -0.054407924 -0.121776536 0.084127635 0.09815816 0.08379715 -0.064142145
0.06447746 0.094681025 0.006633836 0.09654915 0.16794018 -0.06266024 -0.05943063 -0.04404066
0.080478914 0.10217677 -0.21638635 -0.045175303 -0.15355457 -0.072428524 0.012090897 -0.09124912
0.019284636 0.03646962 0.10770269 0.08822239 0.097277254 -0.06879316 0.097149774 -0.03780931
-0.09949761 -0.043970797 -0.03130672 -0.11435392 -0.019172924 -0.05599647 0.090045884 0.07854128
-0.038806222 0.12797825 0.0040652477 0.02022975 0.20264874 -0.057866536 0.035454594 -0.07261845
-0.13946092 -0.10629712 0.11261733 0.08819968 0.022696303 0.04698461 0.08712664 -0.046669103
-0.027048292 -0.09569166 -0.05394897 0.09004422 -0.037791107 0.0482757 -0.053228308 -0.036986064
0.15293574 -0.0691121 -0.013844349 -0.015329646 0.06859171 -0.035212833 -0.06360627 -0.0045039556
-0.0021528455 -0.11454374 0.019605676 0.14364477 -0.13371429 0.053007506 -0.095452055 -0.033195846
-0.25029045 0.10646068 -0.027988479 0.007547462 -0.09918088 0.0024166096 -0.23267904 -0.110315636
00000000: 5a82 6fbc 24b5 52bc ae8f 11bd be51 cebd
00000010: 73c7 213e 817b 5f3e 316f 8e3d 36b1 bc3c
00000020: 7b37 a23d a57e 033d cd1d 34bd b176 c7bd
00000030: 5a74 5fbd e089 00bd f928 05be 6a6f 163d
00000040: 6a77 44be 8aaa 47bd 8631 70be 15e0 963d
00000050: a322 8ebc a587 093e 31ca 8cbd 3493 113e
00000060: 3ca7 ba3c 4e10 4fbe 94fd 5c3d b99a bc3d
00000070: d1f6 093e 1957 e93d 6a7a 97bc 2bbb aebd
00000080: e412 0fbe 8b65 6bbd 84ae 063e 919a 08be
00000090: f334 a23d 0b8b 3bbd 936d 5fbd aec9 273e
000000a0: a822 943d 406f 97bd 382b 0b3d 4319 1fbc
000000b0: f854 00bd a13e c43b c706 edbb 6f33 073e
000000c0: 368d f9bc d9f6 5dbe 4710 733d b26a 613d
000000d0: 31fa 0dbe 5263 893d c6a9 06be 4de9 b33d
000000e0: 4fcf c9bd dde2 e23c 7b21 6cbc 2055 533d
000000f0: 8b43 493c 55ba a53d 5ae7 533d 0d52 af3d
00000100: a9ac dfbc 973b 823d 5617 993d 32d1 85bd
00000110: afb4 10be 0cb2 18be bf12 583d 0712 94bc
00000120: 8c4d 113d 5765 11bc a342 b53b d445 dcbd
00000130: 438d 973d cb2b 1f3e 147b b1bd 2dee 893d
00000140: 511d 513e 56bc 99bd 6df3 07be 7c0a 363d
00000150: 4ae2 f93d c987 e23a d4f2 bb3c b879 2bbd
00000160: 9b4d 8d3d 992a 273e 0ad7 8abc 3a36 c3bd
00000170: 6ecd 993b 8703 c43d eff2 25be c386 053e
00000180: 62d7 193c f433 9a3a f91b 1fbe 5a7a 9abd
00000190: b12b 1dbe e864 5a3c f8c3 7dbd 0671 a23d
000001a0: 3a34 10be c162 0ebd 57be 89bc fb25 cd3c
000001b0: face 39be bdb2 e0bc 2a89 98bc 40b3 44bd
000001c0: b7f5 5bbc a887 02bd a0f7 49bd 7444 b6bd
000001d0: 1912 1c3e 81a3 3f3d 52f7 50bd 8e4b 92bc
000001e0: 9035 85bd 98b6 cc3d 729b 2ebe d578 7f3e
000001f0: 60e8 923d 5199 43be 3e39 acbc 9c7d eebd
00000200: d3c0 c3bc 8821 e03d 24cf b9bd d48f db3d
00000210: a56f c43c 341c cfbc 4f1d 6fbe 662a 993d
00000220: 9e1a c23d 7cf0 e43c 7e3c 933c b8c0 23be
00000230: b139 86bd 9c34 86bd e204 43bd 5365 283e
00000240: 7bcf 653d 7873 b03d 5c10 c43c ce2b 84bd
00000250: b75c 85bd 9895 50bc ebc1 2e3c 62d4 e7bd
00000260: 5373 203d ad63 60be 947a 163e f97e c2bc
00000270: 55a6 1ebd c685 be3d 23c5 463c 78cb a8bc
00000280: 8e67 3c3d ee8d 87bd 6070 d3bd 64c6 113d
00000290: 113f 87bd 6d29 ba3c 3333 293e 8f92 4d3d
000002a0: 8458 d83c e5b0 4e3d d8da 5ebd fa65 f9bd
000002b0: 1c4b ac3d 2507 c93d d79d ab3d f55c 83bd
000002c0: c20c 843d 20e8 c13d a660 d93b 90bb c53d
000002d0: 83f8 2b3e 0354 80bd 886d 73bd fb63 34bd
000002e0: 21d2 a43d 0e42 d13d 6294 5dbe bd09 39bd
000002f0: 693d 1dbe 6855 94bd e618 463c d2e0 babd
00000300: d0fa 9d3c 2b61 153d 3a93 dc3d f1ad b43d
00000310: 4c39 c73d 6ee3 8cbd 76f6 c63d efdd 1abd
00000320: 67c5 cbbd b91a 34bd 7a3b 00bd 6332 eabd
00000330: 8910 9dbc 8e5c 65bd fa69 b83d 40da a03d
00000340: 46f3 1ebd bb0c 033e c535 853b dcb8 a53c
00000350: 2783 4f3e 7605 6dbd d638 113d fbb8 94bd
00000360: d8ce 0ebe 4eb2 d9bd eaa3 e63d 09a2 b43d
00000370: 99ed b93c ef72 403d 746f b23d 1a28 3fbd
00000380: 6194 ddbc fdf9 c3bd 98f9 5cbd 1b69 b83d
00000390: d9ca 1abd bebc 453d ed05 5abd b37e 17bd
000003a0: 309b 1c3e a58a 8dbd 69d3 62bc 3229 7bbc
000003b0: cf79 8c3d 553b 10bd 0144 82bd eb95 93bb
000003c0: c116 0dbb e995 eabd 159c a03c 9d17 133e
000003d0: 66ec 08be 661e 593d 5e7c c3bd 5ef8 07bd
000003e0: 1226 80be 0f08 da3d 1848 e5bc b350 f73b
000003f0: 581f cbbd fb5f 1e3b 6a43 6ebe 2aed e1bd

network_body._body_endoder.seq_layers.0.bias f4 [128]
0.0 0.0 0.0 0.0 0.0 0.0 0.0 0.0
0.0 0.0 0.0 0.0 0.0 0.0 0.0 0.0
0.0 0.0 0.0 0.0 0.0 0.0 0.0 0.0
0.0 0.0 0.0 0.0 0.0 0.0 0.0 0.0
0.0 0.0 0.0 0.0 0.0 0.0 0.0 0.0
0.0 0.0 0.0 0.0 0.0 0.0 0.0 0.0
0.0 0.0 0.0 0.0 0.0 0.0 0.0 0.0
0.0 0.0 0.0 0.0 0.0 0.0 0.0 0.0
0.0 0.0 0.0 0.0 0.0 0.0 0.0 0.0
0.0 0.0 0.0 0.0 0.0 0.0 0.0 0.0
0.0 0.0 0.0 0.0 0.0 0.0 0.0 0.0
0.0 0.0 0.0 0.0 0.0 0.0 0.0 0.0
0.0 0.0 0.0 0.0 0.0 0.0 0.0 0.0
0.0 0.0 0.0 0.0 0.0 0.0 0.0 0.0
0.0 0.0 0.0 0.0 0.0 0.0 0.0 0.0
0.0 0.0 0.0 0.0 0.0 0.0 0.0 0.0
00000000: 0000 0000 0000 0000 0000 0000 0000 0000
00000010: 0000 0000 0000 0000 0000 0000 0000 0000
00000020: 0000 0000 0000 0000 0000 0000 0000 0000
00000030: 0000 0000 0000 0000 0000 0000 0000 0000
00000040: 0000 0000 0000 0000 0000 0000 0000 0000
00000050: 0000 0000 0000 0000 0000 0000 0000 0000
00000060: 0000 0000 0000 0000 0000 0000 0000 0000
00000070: 0000 0000 0000 0000 0000 0000 0000 0000
00000080: 0000 0000 0000 0000 0000 0000 0000 0000
00000090: 0000 0000 0000 0000 0000 0000 0000 0000
000000a0: 0000 0000 0000 0000 0000 0000 0000 0000
000000b0: 0000 0000 0000 0000 0000 0000 0000 0000
000000c0: 0000 0000 0000 0000 0000 0000 0000 0000
000000d0: 0000 0000 0000 0000 0000 0000 0000 0000
000000e0: 0000 0000 0000 0000 0000 0000 0000 0000
000000f0: 0000 0000 0000 0000 0000 0000 0000 0000
00000100: 0000 0000 0000 0000 0000 0000 0000 0000
00000110: 0000 0000 0000 0000 0000 0000 0000 0000
00000120: 0000 0000 0000 0000 0000 0000 0000 0000
00000130: 0000 0000 0000 0000 0000 0000 0000 0000
00000140: 0000 0000 0000 0000 0000 0000 0000 0000
00000150: 0000 0000 0000 0000 0000 0000 0000 0000
00000160: 0000 0000 0000 0000 0000 0000 0000 0000
00000170: 0000 0000 0000 0000 0000 0000 0000 0000
00000180: 0000 0000 0000 0000 0000 0000 0000 0000
00000190: 0000 0000 0000 0000 0000 0000 0000 0000
000001a0: 0000 0000 0000 0000 0000 0000 0000 0000
000001b0: 0000 0000 0000 0000 0000 0000 0000 0000
000001c0: 0000 0000 0000 0000 0000 0000 0000 0000
000001d0: 0000 0000 0000 0000 0000 0000 0000 0000
000001e0: 0000 0000 0000 0000 0000 0000 0000 0000
000001f0: 0000 0000 0000 0000 0000 0000 0000 0000

network_body._body_endoder.seq_layers.2.weight f4 [128, 128]
-0.06378512 0.08469042 -0.10502988 -0.08194079 0.08449515 0.15507054 -0.006499715 -0.09765328
0.0076069264 0.021896817 -0.09942802 0.10370833 0.011765549 -0.12102593 -0.028630037 0.0040821806
0.105279595 -0.09805339 -0.0054353015 0.03759863 0.045580167 -0.13153565 -0.049323767 -0.12561892
0.003739538 -0.09220233 0.106920145 0.020748476 0.082101054 0.11843604 -0.010579426 0.103711076
-0.13881017 -0.051660098 0.019887103 0.16567345 0.06815427 -0.14626138 0.06115434 0.006264347
0.009924109 -0.041208986 -0.16892986 -0.1579917 0.04917576 0.11966116 -0.14280339 -0.046099644
0.08805162 -0.036631614 -0.032500494 0.13644157 -0.09459738 -0.13900644 -0.23317918 -0.008673234
0.0074221552 -0.008725591 -0.06622963 0.17519641 0.1759077 0.004195942 0.025042348 -0.14108378
0.05315548 0.033512343 -0.050780114 0.058246102 -0.0069392435 -0.051723406 0.11466447 -0.029202959
-0.096232615 -0.021164592 -0.0047579403 -0.06893194 0.002644198 0.0043608397 -0.04705872 -0.0025815358
-0.088739574 -0.029487856 0.038341686 -0.08727012 -0.01725425 -0.10092736 -0.051418252 0.07662457
-0.021847766 0.0387633 0.13219965 0.1420287 0.07991057 -0.023669407 0.14215383 -0.03879273
0.24781345 -0.11223765 -0.094805636 -0.020198388 -0.07188147 -0.18056192 0.025324887 0.043835573
0.007651284 -0.14171743 -0.0012386787 -0.049969956 0.088551916 0.10197647 -0.07568029 0.0070179245
-0.0347272 -0.007065295 -0.10731771 -0.05773291 0.051366612 0.0010638939 0.13166825 -0.052073073
-0.03834256 0.05341199 -0.043446884 -0.030900009 -0.08434058 0.010106448 0.0751944 0.0278904
-0.07842846 0.058895826 0.09460218 -0.14627936 -0.077875614 -0.00093767664 -0.16965006 0.046962973
0.10525323 0.05373488 0.063115776 0.031273365 -0.098804444 -0.058944963 -0.009951027 -0.022746833
0.056530204 0.012368959 -0.044805016 -0.058731068 0.023977658 0.19097455 -0.055075124 0.014366799
0.080403276 0.022135379 -0.0043529747 0.17311779 -0.022019433 0.06565701 0.060300358 0.06521967
0.05278523 0.109532535 -0.09457381 -0.111492224 0.04827652 -0.08855028 -0.14676568 -0.174896
-0.038540132 0.01302914 0.013001823 -0.03804745 -0.07068589 -0.063394725 0.0055053565 0.00558109
0.005989285 -0.050490916 -0.038783375 -0.21452919 -0.056564856 0.031625684 -0.084105566 -0.088478036
-0.08095142 0.22154297 0.041504707 0.016404646 0.033877242 -0.06598242 -0.01281156 -0.09973903
0.11332281 -0.10904408 -0.02495844 -0.025691746 -0.12383887 -0.05737335 -0.020388551 0.03236256
-0.0068463436 -0.02134172 -0.06638965 -0.040479045 0.058245532 0.15651025 -0.17309205 -0.004209068
0.05014731 -0.07625132 0.17555584 -0.044373117 -0.011612018 -0.16684003 -0.04653964 -0.1015775
0.06090767 -0.007779909 -0.046994068 0.012058041 -0.029061412 0.03935032 -0.09773321 0.10414644
-0.0235865 -0.0061045703 0.033508334 0.0071010236 0.06755941 0.027184261 0.021429526 -0.06723911
0.0784712 -0.003124452 0.0027336138 0.0765508 -0.051891148 0.045021467 0.13027626 -0.09276704
-0.06874437 -0.11200052 0.028282668 -0.11117956 0.046745412 -0.1090049 -0.015853476 -0.058594074
0.03546609 -0.022610225 0.027600965 -0.17163421 0.17167136 -0.07018997 0.06545113 0.038526554
00000000: c6a1 82bd 2c72 ad3d e819 d7bd 93d0 a7bd
00000010: cb0b ad3d d0ca 1e3e 90fb d4bb 71fe c7bd
00000020: 8643 f93b f460 b33c eba0 cbbd 0865 d43d
00000030: 4ac4 403c 71dc f7bd 8a89 eabc d0c3 853b
00000040: d49c d73d 37d0 c8bd 9d1a b2bb 0501 1a3d
00000050: 45b2 3a3d 48b1 06be b807 4abd 3fa2 00be
00000060: 0913 753b 93d4 bcbd f3f8 da3d b5f8 a93c
00000070: 9924 a83d 988e f23d 5455 2dbc 7966 d43d
00000080: 4124 0ebe 8a99 53bd 47ea a23c 4da6 293e
00000090: 7794 8b3d 8bc5 15be f97c 7a3d 2745 cd3b
000000a0: bb98 223c c1ca 28bd f3fb 2cbe 94c8 21be
000000b0: 866c 493d e910 f53d 0d3b 12be fbd2 3cbd
000000c0: 6854 b43d 080b 16bd 3d1f 05bd 57b7 0b3e
000000d0: 45bc c1bd b457 0ebe 86c6 6ebe 2e1a 0ebc
000000e0: 8d35 f33b c8f5 0ebc 66a3 87bd b066 333e
000000f0: 2621 343e 1d7e 893b 9c25 cd3c 4478 10be
00000100: 90b9 593d 3d44 093d cffe 4fbd 7793 6e3d
00000110: 9862 e3bb ecdb 53bd 35d5 ea3d 0b3b efbc
00000120: 9b15 c5bd 5e61 adbc 7fe8 9bbb 302c 8dbd
00000130: 484a 2d3b 60e5 8e3b a5c0 40bd fc2e 29bb
00000140: 18bd b5bd 8490 f1bc 2c0c 1d3d adba b2bd
00000150: c958 8dbc 01b3 cebd f29b 52bd 58ed 9c3d
00000160: 16fa b2bc 44c6 1e3d 585f 073e f96f 113e
00000170: 27a8 a33d 58e6 c1bc c690 113e 20e5 1ebd
00000180: cfc2 7d3e dadc e5bd 7529 c2bd 1777 a5bc
00000190: 9836 93bd 39e5 38be 2376 cf3c ee8c 333d
000001a0: 9fb7 fa3b 601e 11be 295b a2ba 4cad 4cbd
000001b0: b55a b53d 0ad9 d03d 45fe 9abd 9ef6 e53b
000001c0: 1c3e 0ebd fd83 e7bb 63c9 dbbd 5879 6cbd
000001d0: cc65 523d 5b72 8b3a 0bd4 063e 934a 55bd
000001e0: 170d 1dbd 88c6 5a3d 5cf5 31bd 0422 fdbc
000001f0: c1ba acbd 8495 253c 86ff 993d 687a e43c
00000200: 1a9f a0bd c03c 713d cabe c13d 42ca 15be
00000210: 407d 9fbd 6ace 75ba bfb8 2dbe 3f5c 403d
00000220: 018f d73d 1b19 5c3d d842 813d 8018 003d
00000230: fc59 cabd 4670 71bd a209 23bc 9157 babc
00000240: 378c 673d 2da7 4a3c 7785 37bd fd8f 70bd
00000250: cb6c c43c d58e 433e 7496 61bd b962 6b3c
00000260: 79aa a43d 4155 b53c 66a3 8ebb ca45 313e
00000270: 1962 b4bc 2f77 863d 82fd 763d e491 853d
00000280: 5335 583d 9852 e03d eaaf c1bd 0956 e4bd
00000290: 9abd 453d d959 b5bd be49 16be f017 33be
000002a0: 42dc 1dbd 2d78 553c 9905 553c a5d7 1bbd
000002b0: c4c3 90bd 18d5 81bd 4766 b43b 94e1 b63b
000002c0: c441 c43b 90cf 4ebd 51db 1ebd 8aad 5bbe
000002d0: 8db0 67bd ef89 013d 8a3f acbd f933 b5bd
000002e0: dcc9 a5bd 29dc 623e d700 2a3d 0963 863c
000002f0: ddc2 0a3d cb21 87bd 94e7 51bc fa43 ccbd
00000300: ca15 e83d 8152 dfbd a475 ccbc 7f77 d2bc
00000310: 3c9f fdbd 5100 6bbd e405 a7bc 9b8e 043d
00000320: 4b57 e0bb d5d4 aebc 4cf7 87bd 5bcd 25bd
00000330: de92 6e3d 3944 203e 0b3f 31be 39ec 89bb
00000340: 4467 4d3d a729 9cbd e9c4 333e 96c0 35bd
00000350: 5540 3ebc 1dd8 2abe 59a0 3ebd dd07 d0bd
00000360: 527a 793d 9bee febb da7c 40bd 178f 453c
00000370: 3312 eebc cd2d 213d 5928 c8bd bb4a d53d
00000380: 7a38 c1bc d908 c8bb 0940 093d b4af e83b
00000390: 975c 8a3d 87b1 de3c f98c af3c a9b4 89bd
000003a0: 82b5 a03d 9bc3 4cbb 6e26 333b aac6 9c3d
000003b0: d08b 54bd 6e68 383d 2467 053e a5fc bdbd
000003c0: d9c9 8cbd 8760 e5bd 0eb1 e73c 1cb2 e3bd
000003d0: 1e78 3f3d f63d dfbd 26df 81bc 5700 70bd
000003e0: e444 113d 1439 b9bc 6b1b e23c e1c0 2fbe
000003f0: 9eca 2f3e c2bf 8fbd 3e0b 863d 05ce 1d3d

action_model._continuous_distribution.log_sigma f4 [1, 3]
0.0 0.0 0.0
00000000: 0000 0000 0000 0000 0000 0000

action_model._continuous_distribution.mu.weight f4 [3, 128]
0.0050266082 0.01484648 0.013524272 0.007476009 -0.029452598 0.026059447 0.0020568229 -0.0031605442
0.026997132 0.022997238 0.005211768 0.0036702906 -0.004400686 0.009236373 -0.018187372 0.0054933066
-0.005654435 -0.013980593 -0.012929742 -0.027394513 0.0327885 0.0098931175 -0.046839338 -0.000446505
0.036104474 -0.0058059683 0.010808485 0.03254811 -0.016793875 -0.025089193 -0.013939316 0.015892863
0.0073036486 -0.015468344 0.014139028 -0.01681096 -0.0071954555 0.0016237866 -0.0061547826 0.01478789
-0.05192874 0.02268536 -0.013566478 0.012416183 -0.008343582 0.020198213 0.0087412745 0.017057976
-0.008351079 -0.027138963 -0.046009365 0.0014991411 -0.015111566 -0.019995915 0.01064431 0.026178071
-0.0011208544 0.009275613 -0.012081067 -0.04421387 0.009345646 0.011514178 -0.0142996255 -0.022123
0.0005825504 0.025123773 0.0061121387 -0.010736327 -0.0055260374 0.024991719 0.019533688 0.015077543
-0.015651133 0.014264151 0.0028002134 -0.006619083 0.04150459 0.0069368416 0.02264096 0.009630299
-0.0042635016 -0.004936719 -0.0015858443 0.01597423 0.014690004 -0.019162498 8.2084436e-05 -0.005577368
-0.01724881 -0.022101443 -0.023802815 0.021320386 0.0028783306 0.033933535 -0.022549413 0.029268278
0.010216123 0.0065610865 -0.019291526 0.012136263 -0.0040289788 0.010507069 0.01769677 0.011466285
-0.007908176 0.023823781 0.012898879 0.01652965 0.0031876806 -0.012262388 -0.014540428 -0.0083882725
-0.010893722 0.013910092 -0.013944338 -0.011125527 -0.007879467 0.001275275 -0.028904874 -0.010164817
0.025693119 0.039108027 0.020548968 0.011362794 -0.013513672 0.018830717 -0.00061038014 0.015717398
0.021232642 -0.0065582143 -0.03401838 0.016524728 0.0074751833 -0.013805548 -0.0016784158 -0.023303445
0.038956326 0.033191454 0.014935481 -0.016711777 -0.037932258 -0.035729744 0.008741731 -0.010364795
0.042081226 0.008278795 -0.030612184 0.012868906 0.00020863232 -0.010390904 -0.021320945 0.048822355
0.001301679 0.002488735 -0.029217526 0.0064238296 0.005358986 0.025939897 -0.026822342 0.013839522
-0.009317936 -0.0059839142 0.0011012444 0.0020010022 -0.05911991 -0.006889882 -0.0093453545 -0.009252441
0.0037524276 -0.023802793 0.033413213 -0.015245042 0.01684885 -0.0047950526 0.02344675 -0.007799679
0.03311526 0.0003390844 -0.003254293 0.0043379525 -0.018249555 -0.009782831 -0.02898928 0.013645658
-0.027784482 -0.00074315496 -0.049546044 0.011358949 0.024116121 0.010112095 -0.003859441 0.0088340435
-0.0058060004 0.005093881 0.016198704 -0.004603792 0.026557846 -0.0041803587 -0.011009936 -0.004715173
0.02530819 -0.0071009733 0.00029174055 0.008016817 -0.025541572 -0.00040480235 -0.008306603 -0.005843583
-0.014223263 0.025939 -0.010708463 0.014873338 0.0071694176 -0.00095972157 -0.0071194954 0.006212775
-0.0031392646 0.0020027293 0.0048601883 0.018996594 0.0023662937 0.026223416 0.005183277 -0.033032596
0.019006709 -0.031163339 -0.027362023 0.036282334 0.0032649122 -0.025059724 0.0077018538 0.010879158
-0.009599824 0.0071109445 0.009762457 -0.0043201363 0.026794601 -0.027349507 -0.018460147 -0.023150746
-0.02096576 0.0040244153 0.0021930037 0.016213743 0.022456933 -0.015464614 -0.004952003 0.0065426114
-0.002327618 -0.021568047 0.019606724 -0.011618334 0.029262578 0.012330205 -0.019030085 0.0007172314
00000000: 3fb6 a43b a73e 733c e894 5d3c 4ff9 f43b
00000010: 9346 f1bc 9f7a d53c c3cb 063b 2221 4fbb
00000020: 1729 dd3c b464 bc3c 7bc7 aa3b 4289 703b
00000030: a133 90bb 2854 173c affd 94bc 3201 b43b
00000040: d748 b9bb db0e 65bc 45d7 53bc 756a e0bc
00000050: 3c4d 063d be16 223c 9bda 3fbd e318 eab9
00000060: 49e2 133d fe3f bebb 1216 313c 2b51 053d
00000070: 4f93 89bc da87 cdbc bb61 64bc c031 823c
00000080: 7253 ef3b f06e 7dbc 62a7 673c 23b7 89bc
00000090: dbc7 ebbb 3dd5 d43a 0fae c9bb e848 723c
000000a0: 3bb3 54bd a6d6 b93c ef45 5ebc 3f6d 4b3c
000000b0: 85b3 08bc b976 a53c 9037 0f3c 2bbd 8b3c
000000c0: f7d2 08bc 8852 debc 5174 3cbd d47e c43a
000000d0: 8096 77bc 79ce a3bc 7965 2e3c 6573 d63c
000000e0: a2e9 92ba bef8 173c abef 45bc 9a19 35bd
000000f0: 7b1e 193c f6a5 3c3c fa48 6abc 4b3b b5bc
00000100: 4cb6 183a 5fd0 cd3c 5648 c83b 6be7 2fbc
00000110: c313 b5bb 6fbb cc3c 1d05 a03c cd07 773c
00000120: ce36 80bc 30b4 693c c983 373b e5e4 d8bb
00000130: b800 2a3d 724e e33b 8979 b93c 67c8 1d3c
00000140: d8b4 8bbb 33c4 a1bb 1bdc cfba 63dc 823c
00000150: 58ae 703c acfa 9cbc bf24 ac38 5bc2 b6bb
00000160: 604d 8dbc 160e b5bc 1ffe c2bc 17a8 ae3c
00000170: 60a2 3c3b e4fd 0a3d 8cb9 b8bc 07c4 ef3c
00000180: 8761 273c 62fe d63b 4309 9ebc 2dd7 463c
00000190: 8605 84bb d725 2c3c d1f8 903c 16dd 3b3c
000001a0: 4b91 01bc 172a c33c d255 533c 3069 873c
000001b0: 68e8 503b 2fe8 48bc fa3a 6ebc f76e 09bc
000001c0: 957b 32bc 28e7 633c cb76 64bc d847 36bc
000001d0: e118 01bc 2127 a73a eac9 ecbc 558a 26bc
000001e0: 607a d23c bd2f 203d 4f56 a83c 032b 3a3c
000001f0: 7368 5dbc e042 9a3c eb01 20ba c6c1 803c
00000200: 14f0 ad3c 4ae6 d6bb db56 0bbd de5e 873c
00000210: 62f2 f43b aa30 62bc 4afe dbba dee6 bebc
00000220: ab90 1f3d c3f3 073d f3b3 743c 23e7 88bc
00000230: db5e 1bbd 5a59 12bd 7a39 0f3c 1ad1 29bc
00000240: 5d5d 2c3d c8a3 073c 67c6 fabc 1bd8 523c
00000250: 50c4 5a39 9c3e 2abc 43a9 aebc f3f9 473d
00000260: 199d aa3a 0b1a 233b 9859 efbc fd7e d23b
00000270: 6f9a af3b e87f d43c 87ba dbbc 2abf 623c
00000280: 42aa 18bc b614 c4bb a157 903a 3f23 033b
00000290: b827 72bd 85c4 e1bb 421d 19bc 8d97 17bc
000002a0: 4aeb 753b 13fe c2bc 4bdc 083d 57c6 79bc
000002b0: 9906 8a3c d11f 9dbb 6613 c03c 7394 ffbb
000002c0: dea3 073d 23c7 b139 fa45 55bb 6225 8e3b
000002d0: 1780 95bc 2b48 20bc ed7a edbc 0a92 5f3c
000002e0: 489c e3bc 49d0 42ba cbf0 4abd e31a 3a3c
000002f0: 2c8f c53c 33ad 253c adee 7cbb aabc 103c
00000300: 4340 bebb 92ea a63b 25b3 843c 68db 96bb
00000310: d78f d93c 64fb 88bb 0563 34bc bd81 9abb
00000320: 1f53 cf3c 48af e8bb c1f4 9839 f858 033c
00000330: 8f3c d1bc a73b d4b9 6b18 08bc 877b bfbb
00000340: b008 69bc 077e d43c 8d72 2fbc 4daf 733c
00000350: 6fed ea3b d395 7bba a84a e9bb 8994 cb3b
00000360: 1fbc 4dbb 3940 033b 3742 9f3b bf9e 9b3c
00000370: d213 1b3b 7dd2 d63c 7bd8 a93b 304d 07bd
00000380: f5b3 9b3c 424a ffbc 5226 e0bc c99c 143d
00000390: 23f8 553b 0d4a cdbc d55f fc3b 7f3e 323c
000003a0: 9548 1dbc ed02 e93b b6f2 1f3c ee8f 8dbb
000003b0: 5a80 db3c 130c e0bc bc39 97bc a2a6 bdbc
000003c0: 63c0 abbc 3edf 833b 7fb8 0f3b afd2 843c
000003d0: 9af7 b73c 4b5f 7dbc 6944 a2bb 6763 d63b
000003e0: f38a 18bb 79af b0bc 489e a03c d35a 3ebc
000003f0: 13b8 ef3c a104 4a3c fbe4 9bbc 9604 3c3a

action_model._continuous_distribution.mu.bias f4 [3]
0.0 0.0 0.0
00000000: 0000 0000 0000 0000 0000 0000

action_model._discrete_distribution.branches.0.weight f4 [7, 128]
-0.0015849173 -0.020481257 -0.015512151 -0.0017885094 -0.0008842644 0.0025107905 0.0053121685 0.024120165
-0.00760142 0.0050693564 0.003419509 0.0068024728 0.0021024602 -0.019838957 -0.006084963 0.009568225
-0.01206956 0.0003628386 0.0038696434 -0.021274213 0.017164677 -0.0070728944 -0.01512343 -0.00083579513
-0.006328261 -0.0011808553 0.001802595 -5.2397456e-05 -0.0016099038 -0.015701154 -0.0014027617 0.002534276
-0.003149004 0.0075460314 -0.00012554826 0.0061987876 -0.012414841 0.014082125 -0.0061307955 -0.016348591
-0.010296547 0.015802126 0.012194409 -0.008636489 0.0066344873 0.0012853198 -0.004343528 -0.0117996065
-0.011562563 -0.00031169187 0.016324906 -0.010134663 0.0020378719 0.0034978185 0.008882262 0.0047357148
0.000436431 -0.002177132 0.0059993495 -0.020871801 -0.013484974 0.014034437 0.015578436 -0.0060215136
0.011638152 -0.006885355 -0.0052520996 0.0032585335 -0.00098298 0.00031977188 0.004408296 0.0017911865
0.0056912387 -0.0058414456 -0.003599461 -0.012068889 -0.00432566 -0.001139453 0.000675552 0.013406611
-0.0038514805 0.0032036442 0.0054202396 -0.0019378158 -0.0078029796 0.004003316 -0.011294036 0.004608853
-0.00056294 -0.002915274 -0.0027094323 0.001558801 0.013211462 0.017298529 -0.0017834523 -0.0007188881
0.0066468106 0.005076259 -0.013334461 0.006292024 0.00791607 0.00052351656 -0.0050120642 0.014189015
0.017772414 0.0051892847 0.007450042 0.009443944 -0.01503251 0.0090783825 -0.0056115924 -0.010512675
0.009293265 -0.013672656 -0.0033023618 -0.008560948 -0.009590549 0.018425273 -0.020351619 -0.010648355
0.017230093 -0.0007928013 0.011595891 0.0042383084 -0.011598538 0.0044205934 -0.008442915 0.0077829855
0.0052134595 -0.012847148 -0.0072468407 -0.011913068 -0.008150683 -0.0039307824 0.001320179 -0.015266925
-0.00479269 -0.0067472877 0.0052362755 -0.013192333 -0.0001397358 0.0053526857 0.0014631882 -0.004088541
0.00059129606 0.003616788 -0.008653381 0.0032677636 0.00039402835 0.0020120034 0.017115932 -0.004073934
0.012412276 0.0005034438 -0.011875376 -0.011853362 -0.003628021 0.0042691333 -0.0019121785 -0.0048211003
0.0144046685 0.003781385 -0.0058421674 0.0015789912 -0.016537836 -0.0021560036 -0.005819328 -0.002166465
0.031213904 0.0063946596 -0.0067041763 0.0020537996 0.012837543 -0.006828359 0.007978232 -0.0057839053
-0.0023109536 0.00237987 0.012236641 -0.009120091 -0.004840781 -0.011704984 0.0053175515 0.0007980439
0.003230239 0.010427279 -0.0056713866 -0.004284378 -0.005884808 0.006995863 0.018610809 0.0071008364
-0.012750484 0.005667471 -0.010225743 0.0067617744 0.008014466 0.013488284 -0.012370399 -0.006277078
0.022110052 -0.0057759653 -0.007984958 0.0010665515 0.009570456 0.002826286 -0.0009172854 -0.0063841976
-0.0071518547 -0.008010528 0.0023027472 0.0045695747 0.002482628 -0.004575699 -0.025122235 0.0029607466
0.0036858735 -0.0063391826 -0.004375229 0.002328101 0.0070910356 -0.0024266427 0.018350134 -0.007160123
-0.003739853 -0.0024522603 4.7518228e-05 0.00050537166 -0.008488857 -0.009089849 -0.007166335 0.0004767427
0.00806983 0.011767316 0.016200634 -0.0033460811 0.0021887347 -0.018286532 0.007153877 0.008191845
0.008314058 0.0027348353 -0.007667298 0.0009205725 0.016042719 0.01315627 0.0015445012 0.0027245905
-0.0070498846 -0.0069600972 0.0072560906 -0.012646458 0.002865101 0.007645191 0.0093389945 0.004916308
00000000: 00bd cfba 4fc8 a7bc ad26 7ebc 6b6c eaba
00000010: fbcd 67ba 138c 243b b311 ae3b a797 c53c
00000020: 5515 f9bb d81c a63b d719 603b 47e7 de3b
00000030: 6ec9 093b 4f85 a2bc 5f64 c7bb 0bc4 1c3c
00000040: 67bf 45bc 5f3b be39 d899 7d3b 4247 aebc
00000050: f09c 8c3c bdc3 e7bb 43c8 77bc 4319 5bba
00000060: 4d5d cfbb eec6 9aba 0d45 ec3a 57c5 5bb8
00000070: 6803 d3ba b59f 80bc dfdc b7ba 1916 263b
00000080: 855f 4ebb b344 f73b 9ba5 03b9 331f cb3b
00000090: 9e67 4bbc b7b8 663c d7e4 c8bb 7bed 85bc
000000a0: d9b2 28bc 7673 813c 0fcb 473c 0f80 0dbc
000000b0: 1d66 d93b 2d78 a83a 2754 8ebb 2353 41bc
000000c0: e770 3dbc 936a a3b9 cfbb 853c dc0b 26bc
000000d0: d18d 053b a83b 653b e886 113c 0e2e 9b3b
000000e0: c7d0 e439 37ae 0ebb 3196 c43b 57fb aabc
000000f0: 15f0 5cbc b2f0 653c b23c 7f3c 1e50 c5bb
00000100: f3ad 3e3c 8b9e e1bb ce19 acbb 1f8d 553b
00000110: 56d7 80ba 0ea7 a739 7873 903b 3fc6 ea3a
00000120: 927d ba3b 9969 bfbb efe4 6bbb 97bc 45bc
00000130: 44be 8dbb b359 95ba 8717 313a 67a7 5b3c
00000140: 1f69 7cbb 3bf4 513b 449c b13b 4ffe fdba
00000150: 23b0 ffbb 402e 833b 9f0a 39bc dc05 973b
00000160: 4492 13ba 2e0e 3fbb bb90 31bb af50 cc3a
00000170: e374 583c a5b5 8d3c bbc2 e9ba c473 3cba
00000180: 7dcd d93b bf56 a63b c878 5abc 532d ce3b
00000190: 67b2 013c 9a3c 093a 3e3c a4bb 0b79 683c
000001a0: 7497 913c e00a aa3b 7b1f f43b c6ba 1a3c
000001b0: eb4a 76bc 7fbd 143c 73e1 b7bb 5b3d 2cbc
000001c0: c742 183c 4703 60bc 706c 58bb 3843 0cbc
000001d0: ae21 1dbc 99f0 963c 70b8 a6bc 7076 2ebc
000001e0: 2026 8d3c ffd3 4fba b1fc 3d3c 82e1 8a3b
000001f0: cb07 3ebc a0da 903b 2754 0abc 6a08 ff3b
00000200: abd5 aa3b d87c 52bc e876 edbb 072f 43bc
00000210: 718a 05bc cbcd 80bb db09 ad3a 2022 7abc
00000220: ff0b 9dbb 5a18 ddbb 1095 ab3b a824 58bc
00000230: 0b86 12b9 9565 af3b 73c8 bf3a 2bf9 85bb
00000240: 3501 1b3a a207 6d3b e9c6 0dbc fa27 563b
00000250: 9795 ce39 d1db 033b b636 8c3c a37e 85bb
00000260: dc5c 4b3c 8bf9 033a f090 42bc 9b34 42bc
00000270: 18c4 6dbb 16e4 8b3b 10a2 faba 52fa 9dbb
00000280: 8f01 6c3c 1dd1 773b a76f bfbb 27f6 ce3a
00000290: 5b7a 87bc bd4b 0dbb 10b0 bebb 40fb 0dbb
000002a0: 4db4 ff3c 4b8a d13b b5ae dbbb 0a99 063b
000002b0: 8f54 523c 6dc0 dfbb 21b7 023c ea86 bdbb
000002c0: 5e73 17bb 98f7 1b3b 317c 483c 6f6c 15bc
000002d0: 6a9f 9ebb 43c6 3fbc db3e ae3b d233 513a
000002e0: 6bb2 533b 2ed7 2a3c 0ad7 b9bb f863 8cbb
000002f0: 59d5 c0bb 8d3d e53b b275 983c 22ae e83b
00000300: 68e7 50bc 31b6 b93b e089 27bc e091 dd3b
00000310: 1b4f 033c f7fd 5c3c 37ad 4abc f2af cdbb
00000320: 2420 b53c 4f44 bdbb 57d3 02bc 88cb 8b3a
00000330: 67cd 1c3c 3639 393b fb75 70ba 8832 d1bb
00000340: 1b5a eabb 973e 03bc b0e9 163b 5fbc 953b
00000350: 96b3 223b bfef 95bb 25cd cdbc 1609 423b
00000360: b28e 713b ebb8 cfbb 155e 8fbb 0e93 183b
00000370: eb5b e83b 4f08 1fbb 0553 963c 779f eabb
00000380: 5218 75bb 1ab6 20bb 4f4e 4738 eb7a 043a
00000390: d914 0bbc 97ed 14bc 93d3 eabb 52f3 f939
000003a0: 5237 043c b3cb 403c 31b7 843c ed49 5bbb
000003b0: e070 0f3b a3cd 95bc 126b ea3b 1737 063c
000003c0: b037 083c ec3a 333b f53d fbbb 9352 713a
000003d0: 056c 833c 658d 573c dc70 ca3a 0b8f 323b
000003e0: b802 e7bb 8711 e4bb 80c4 ed3b 1733 4fbc
000003f0: 6bc4 3b3b 8384 fa3b 9502 193c fb18 a13b

action_model._discrete_distribution.branches.0.bias f4 [7]
0.0 0.0 0.0 0.0 0.0 0.0 0.0
00000000: 0000 0000 0000 0000 0000 0000 0000 0000
00000010: 0000 0000 0000 0000 0000 0000
