results/ppo/BoxingAgent/checkpoint.pt (torch, 251874 bytes, 14 tensors)

network_body._body_endoder.seq_layers.0.weight f4 [128, 101]
0.19504938 0.093769655 -0.03090613 -0.1649854 -0.115701795 -0.016734602 -0.114195004 0.09956621
-0.08274623 0.052038766 -0.07618553 0.15440732 0.036709264 0.025601143 -0.13608207 -0.0030671507
0.019412635 0.12814273 0.03794769 -0.16241322 -0.04000755 -0.05618428 0.19224563 -0.005174665
0.06417247 -0.055496056 -0.13636121 0.09591071 -0.2014437 -0.12629324 0.08115129 -0.021275215
-0.14576551 0.18567164 -0.06013253 0.075693436 0.07631988 0.10043337 0.102220535 0.09452459
0.01686119 -0.035746876 -0.039039243 0.030863667 -0.10072305 0.13272052 0.07624038 -0.01236577
0.14562993 -0.069126606 0.031734634 -0.0068340497 0.035190757 0.07196555 0.061213885 0.06656595
0.05275572 -0.034178033 -0.00012333808 0.1552306 0.11862495 0.03579098 -0.033026244 -0.08894917
-0.044960056 -0.01928676 0.08522863 0.057482578 -0.05249417 -0.14104664 0.06770475 0.07172436
5.2735115e-05 -0.059421852 0.08171797 -0.0013666273 -0.18310495 0.0925555 -0.10693584 0.054927908
0.31740916 0.11959093 0.056418817 -0.007183114 -0.061165236 0.16904224 0.101775035 0.13620436
-0.04709101 -0.08469579 0.17061035 -0.074588 -0.06969489 -0.010359772 0.033484507 -0.11769981
-0.1378631 -0.007667706 -0.09212573 -0.0012945209 -0.07283718 0.16823739 -0.03423406 0.11088029
0.059318908 0.19442031 0.0693405 0.099122524 0.13475561 -0.13576593 -0.08092036 0.0840399
-0.01970095 0.10412277 0.11134298 -0.073144056 -0.10889731 0.04513349 -0.084077366 0.09021513
-0.20550932 0.11328102 0.03420767 -0.081543535 0.18892604 0.20035045 0.10041099 0.0956449
0.104402035 0.0027068914 0.16708116 -0.0014083951 -0.066662595 -0.046480868 0.074222915 -0.037127394
-0.1491935 -0.14161494 -0.06268969 0.112141885 -0.02625995 -0.038443275 0.23053738 -0.17425734
-0.047173105 0.07177848 -0.18170252 0.069878146 -0.105010696 -0.16122133 0.19834208 -2.757408e-05
0.2258736 0.09440699 -0.11830647 -0.06890903 0.03552538 0.02208748 -0.03166194 0.11221105
0.01662546 -0.12910347 0.007364483 -0.013550142 0.021326328 0.08348285 0.13535894 0.06274212
0.09750853 0.088298105 -0.11132987 0.08479189 0.010463014 -0.013079182 0.034118585 0.016197039
0.16268134 0.15460907 0.040306862 0.050527863 -0.14429517 0.18192439 0.11190016 -0.16527802
-0.03582143 -0.11211744 -0.036905125 -0.10054539 -0.026967058 0.005792151 0.24130368 0.012626927
-0.06442239 -0.04062737 0.13280027 -0.14559644 -0.041883226 -0.16073342 0.1319193 0.03616473
-0.075598516 -0.035949916 0.01520399 -0.051629998 -0.059548132 0.026562044 0.06513922 0.0775714
-0.08707445 -0.09847331 -0.19247109 0.17018472 -0.11134324 0.164652 -0.030208444 0.22049724
-0.16384272 0.10660255 -0.047032192 -0.07233998 -0.09100551 -0.14069971 -0.03177212 -0.098214366
0.105003476 0.06776199 0.11361249 -0.0099252425 0.051736835 -0.07851993 0.07021331 -0.012320404
0.09927306 -0.09598592 0.12702511 -0.15414315 -0.03935548 0.05044617 0.07485106 -0.0607687
0.02748532 -0.12544961 -0.05296278 0.06913545 0.07245767 -0.029357042 -0.073164366 -0.078349195
0.042511746 -0.09129672 0.07839152 0.18852237 -0.08879203 0.0671997 -0.010400421 -0.10350763
00000000: 06bb 473e 4e0a c03d da2e fdbc eff1 28be
00000010: 10f5 ecbd 0117 89bc 12df e9bd 5ee9 cb3d
00000020: db76 a9bd 9a26 553d 2907 9cbd f41c 1e3e
00000030: 745c 163d 7db9 d13c 1959 0bbe 4002 49bb
00000040: 3f07 9f3c d937 033e 096f 1b3d a74f 26be
00000050: f5de 23bd 7d21 66bd 0adc 443e 3c90 a9bb
00000060: db6c 833d d54f 63bd 46a2 0bbe d66c c43d
00000070: 4247 4ebe 0453 01be a632 a63d 5c49 aebc
00000080: 8e43 15be b520 3e3e 874d 76bd 2905 9b3d
00000090: 994d 9c3d 03b0 cd3d 0059 d13d 1c96 c13d
000000a0: 7a20 8a3c 516b 12bd 9de7 1fbd cdd5 fc3c
000000b0: e347 cebd e3e7 073e eb23 9c3d cc99 4abc
000000c0: 0320 153e 4092 8dbd 2dfc 013d 2af0 dfbb
000000d0: 2f24 103d ad62 933d 69bb 7a3d bb53 883d
000000e0: 6216 583d 44fe 0bbd 5054 01b9 c5f4 1e3e
000000f0: a3f1 f23d 9099 123d 8746 07bd fc2a b6bd
00000100: 0928 38bd 44ff 9dbc 598c ae3d da72 6b3d
00000110: 2004 57bd 886e 10be caa8 8a3d 39e4 923d
00000120: e62f 5d38 5464 73bd c05b a73d 6720 b3ba
00000130: dd7f 3bbe bd8d bd3d 2d01 dbbd 16fc 603d
00000140: 7483 a23e 17ec f43d 6b17 673d 5460 ebbb
00000150: 6688 7abd 6919 2d3e 6e6f d03d 2879 0b3e
00000160: 81e2 40bd fd74 adbd 7bb4 2e3e 98c1 98bd
00000170: 32bc 8ebd 08bc 29bc 0d27 093d 990c f1bd
00000180: fc2b 0dbe 6141 fbbb 6aac bcbd eaac a9ba
00000190: a92b 95bd 6c46 2c3e 0439 0cbd 3515 e33d
000001a0: 62f8 723d 1e16 473e 6402 8e3d c000 cb3d
000001b0: 60fd 093e 3906 0bbe 93b9 a5bd 1c1d ac3d
000001c0: e363 a1bc 523e d53d ca07 e43d 8dcc 95bd
000001d0: 8e05 dfbd e5dd 383d c130 acbd b6c2 b83d
000001e0: 0971 52be e1ff e73d 571d 0c3d 4c00 a7bd
000001f0: d475 413e ab28 4d3e 47a4 cd3d 79e1 c33d
00000200: bcd0 d53d 1a66 313b 5317 2b3e e699 b8ba
00000210: 6686 88bd b962 3ebd 2f02 983d e512 18bd
00000220: 2ec6 18be 8203 11be 7463 80bd a5aa e53d
00000230: 1b1f d7bc b276 1dbd fe11 6c3e 8470 32be
00000240: 9638 41bd 9900 933d 3a10 3abe 461c 8f3d
00000250: d90f d7bd 3417 25be 301a 4b3e e34e e7b7
00000260: 694b 673e 7458 c13d aa4a f2bd 2d20 8dbd
00000270: 1083 113d cef0 b43c f3af 01bd e8ce e53d
00000280: 1e32 883c b333 04be c351 f13b 6a01 5ebc
00000290: 8db4 ae3c 0ef9 aa3d 899b 0a3e f17e 803d
000002a0: 8db2 c73d a3d5 b43d ea00 e4bd 5fa7 ad3d
000002b0: 106d 2b3c 114a 56bc eebf 0b3d a7af 843c
000002c0: f095 263e d751 1e3e cf18 253d 4ef6 4e3d
000002d0: 1dc2 13be 634a 3a3e e92b e53d a43e 29be
000002e0: 7eb9 12bd d49d e5bd d429 17bd beea cdbd
000002f0: 05ea dcbc 16cc bd3b 5018 773e 2ce1 4e3c
00000300: e3ef 83bd e368 26bd cbfc 073e 3c17 15be
00000310: bf8d 2bbd 4d97 24be da15 073e 7821 143d
00000320: 65d3 9abd 3840 13bd 281a 793c fa79 53bd
00000330: bee8 73bd a598 d93c b667 853d c1dd 9e3d
00000340: 1754 b2bd 60ac c9bd 2417 45be e744 2e3e
00000350: ed07 e4bd 899a 283e b377 f7bc 07ca 613e
00000360: 63c6 27be 7052 da3d d4a4 40bd fc26 94bd
00000370: 1961 babd 9613 10be 7c23 02bd 9d24 c9bd
00000380: 100c d73d ccc6 8a3d aaad e83d 7c9d 22bc
00000390: 01ea 533d 0fcf a0bd ffcb 8f3d 85db 49bc
000003a0: ad4f cb3d 4494 c4bd df12 023e b4d7 1dbe
000003b0: 3633 21bd a5a0 4e3d 834b 993d 9ae8 78bd
000003c0: e528 e13c dd75 00be 80ef 58bd e396 8d3d
000003d0: b064 943d 2e7e f0bc 33d7 95bd 8b75 a0bd
000003e0: cc20 2e3d c6f9 babd bc8b a03d 020c 413e
000003f0: 99d8 b5bd ff9f 893d 8766 2abc cffb d3bd

network_body._body_endoder.seq_layers.0.bias f4 [128]
0.0 0.0 0.0 0.0 0.0 0.0 0.0 0.0
0.0 0.0 0.0 0.0 0.0 0.0 0.0 0.0
0.0 0.0 0.0 0.0 0.0 0.0 0.0 0.0
0.0 0.0 0.0 0.0 0.0 0.0 0.0 0.0
0.0 0.0 0.0 0.0 0.0 0.0 0.0 0.0
0.0 0.0 0.0 0.0 0.0 0.0 0.0 0.0
0.0 0.0 0.0 0.0 0.0 0.0 0.0 0.0
0.0 0.0 0.0 0.0 0.0 0.0 0.0 0.0
0.0 0.0 0.0 0.0 0.0 0.0 0.0 0.0
0.0 0.0 0.0 0.0 0.0 0.0 0.0 0.0
0.0 0.0 0.0 0.0 0.0 0.0 0.0 0.0
0.0 0.0 0.0 0.0 0.0 0.0 0.0 0.0
0.0 0.0 0.0 0.0 0.0 0.0 0.0 0.0
0.0 0.0 0.0 0.0 0.0 0.0 0.0 0.0
0.0 0.0 0.0 0.0 0.0 0.0 0.0 0.0
0.0 0.0 0.0 0.0 0.0 0.0 0.0 0.0
00000000: 0000 0000 0000 0000 0000 0000 0000 0000
00000010: 0000 0000 0000 0000 0000 0000 0000 0000
00000020: 0000 0000 0000 0000 0000 0000 0000 0000
00000030: 0000 0000 0000 0000 0000 0000 0000 0000
00000040: 0000 0000 0000 0000 0000 0000 0000 0000
00000050: 0000 0000 0000 0000 0000 0000 0000 0000
00000060: 0000 0000 0000 0000 0000 0000 0000 0000
00000070: 0000 0000 0000 0000 0000 0000 0000 0000
00000080: 0000 0000 0000 0000 0000 0000 0000 0000
00000090: 0000 0000 0000 0000 0000 0000 0000 0000
000000a0: 0000 0000 0000 0000 0000 0000 0000 0000
000000b0: 0000 0000 0000 0000 0000 0000 0000 0000
000000c0: 0000 0000 0000 0000 0000 0000 0000 0000
000000d0: 0000 0000 0000 0000 0000 0000 0000 0000
000000e0: 0000 0000 0000 0000 0000 0000 0000 0000
000000f0: 0000 0000 0000 0000 0000 0000 0000 0000
00000100: 0000 0000 0000 0000 0000 0000 0000 0000
00000110: 0000 0000 0000 0000 0000 0000 0000 0000
00000120: 0000 0000 0000 0000 0000 0000 0000 0000
00000130: 0000 0000 0000 0000 0000 0000 0000 0000
00000140: 0000 0000 0000 0000 0000 0000 0000 0000
00000150: 0000 0000 0000 0000 0000 0000 0000 0000
00000160: 0000 0000 0000 0000 0000 0000 0000 0000
00000170: 0000 0000 0000 0000 0000 0000 0000 0000
00000180: 0000 0000 0000 0000 0000 0000 0000 0000
00000190: 0000 0000 0000 0000 0000 0000 0000 0000
000001a0: 0000 0000 0000 0000 0000 0000 0000 0000
000001b0: 0000 0000 0000 0000 0000 0000 0000 0000
000001c0: 0000 0000 0000 0000 0000 0000 0000 0000
000001d0: 0000 0000 0000 0000 0000 0000 0000 0000
000001e0: 0000 0000 0000 0000 0000 0000 0000 0000
000001f0: 0000 0000 0000 0000 0000 0000 0000 0000

network_body._body_endoder.seq_layers.2.weight f4 [128, 128]
0.15976737 -0.003375467 0.026110189 0.04636452 -0.04315785 0.05046227 0.16980183 -0.11131413
-0.06390765 -0.13645338 -0.06153212 0.07244533 -0.011524651 -0.08163657 -0.049087368 -0.014483784
-0.014225388 0.08511861 -0.1197735 0.0633159 0.15707996 -0.08202185 0.04032187 0.1204755
0.050507266 0.029120577 0.06772974 0.006716934 -0.11694585 -0.10044188 -0.063919 0.024733448
-0.0023114902 -0.16457869 0.09627389 0.0054953885 -0.035700254 -0.086304255 0.03271936 -0.02203045
-0.08926666 0.034286775 -0.17010187 0.02376891 0.16125093 0.077872545 -0.1314935 -0.09236311
0.022925356 -0.11983052 0.03656719 0.021952404 -0.032325853 0.06048697 0.08711921 -0.061888758
-0.010880222 0.078541696 0.094495095 0.111820675 -0.096101485 0.09292552 -0.05962612 0.058592413
0.021803033 0.018639985 -0.10301833 0.177237 0.02833172 0.007950114 0.19459453 -0.003196338
0.2106019 -0.0039622104 0.12496981 0.11551176 0.1770209 0.03003582 0.2037537 -0.015500658
-0.14729095 -0.09899069 0.122058876 -0.047180083 -0.058084413 -0.08227207 -0.0794298 0.06450902
0.022896452 0.13042144 -0.08221129 0.1410723 -0.15577583 0.009755319 0.022158025 0.056958977
-0.07170655 -0.189176 -0.09204332 -0.013242322 0.005797993 0.21959643 -0.06787179 0.10048093
0.02246775 0.13507769 0.01679948 0.096176334 0.11789131 0.062502414 -0.027962834 -0.01238455
0.21165055 -0.028454809 0.0016619546 -0.034963682 0.08730298 -0.08439869 -0.061989203 0.00299843
-0.03583408 0.05882066 -0.104427986 0.15206437 -0.19303054 0.14580418 -0.08429723 -0.14301205
0.21931346 -0.19617856 0.100487314 0.026597066 0.038556572 0.23899965 -0.12755854 -0.010709888
-0.058569826 0.006039533 -0.048667982 -0.13076589 0.04818427 0.027757585 -0.014356523 0.041613225
0.073927954 0.17735891 0.064601585 -0.010328507 -0.11534356 0.106354676 0.0052650683 -0.024672342
0.055491935 -0.11882148 0.035588454 0.030249067 0.11500882 0.00708428 0.040137634 -0.06850944
0.08314473 -0.026340906 -0.098490894 0.19108139 -0.00038536792 0.16849196 -0.025890712 -0.04388317
0.07998892 -0.014166866 0.08212849 0.1507943 -0.023977987 -0.07395142 -0.009619896 0.059939593
-0.09654617 0.034895107 -0.021437049 -0.06734371 -0.066220045 -0.0386548 0.20243298 0.074274525
-0.06275555 0.088386826 0.016856002 -0.04473019 -0.06766985 0.07542588 0.06618282 0.104230486
0.02751333 0.060173966 0.040953435 -0.23788731 -0.0069229975 -0.012851787 -0.03884423 -0.0734166
0.0050530164 0.0475908 -0.12659724 0.02510453 -0.0077910917 0.0040320586 0.16103795 -0.07692858
0.020956311 0.026014343 -0.14811324 -0.028289475 -0.04954476 -0.004152588 -0.06537182 0.03482507
0.060692508 -0.026435731 0.0048219776 0.0013821886 -0.030369814 0.15133555 -0.04710463 0.052838977
0.047549173 -0.09067513 0.07252167 -0.059688587 0.09090263 0.08896157 -0.05263104 -0.022020848
-0.112110354 0.07848126 -0.0049341666 0.025353486 -0.026625255 -0.0058762385 0.06548352 0.062182646
0.051189084 -0.0047546057 -0.108016364 0.08443168 -0.24664447 -0.034985475 -0.12402223 0.028507067
-0.0070042587 0.039102934 0.043560866 0.15910076 -0.07550365 -0.05790819 -0.0009167615 0.23909105
00000000: 0f9a 233e f036 5dbb 09e5 d53c b9e8 3d3d
00000010: 49c6 30bd 86b1 4e3d 88e0 2d3e aaf8 e3bd
00000020: 04e2 82bd 6fba 0bbe 1b09 7cbd 385e 943d
00000030: e4d1 3cbc 1331 a7bd d60f 49bd 654d 6dbc
00000040: 9a11 69bc aa52 ae3d cf4b f5bd c4ab 813d
00000050: 92d9 203e 12fb a7bd 8c28 253d dcbb f63d
00000060: b5e0 4e3d 478e ee3c e4b5 8a3d ba19 dc3b
00000070: 4e81 efbd 79b4 cdbd f7e7 82bd cd9d ca3c
00000080: 5f7c 17bb 5187 28be 3f2b c53d a912 b43b
00000090: 6e3a 12bd 49c0 b0bd bc04 063d 3479 b4bc
000000a0: 70d1 b6bd 4a70 0c3d 2f2f 2ebe 04b7 c23c
000000b0: f71e 253e a47b 9f3d 3ba6 06be df28 bdbd
000000c0: f5cd bb3c b469 f5bd 7ac7 153d 87d5 b33c
000000d0: 1d68 04bd 2fc1 773d 8e6b b23d 117f 7dbd
000000e0: f542 32bc 78da a03d a586 c13d 3d02 e53d
000000f0: dbd0 c4bd bc4f be3d 853a 74bd 99fe 6f3d
00000100: 469c b23c e2b2 983c 46fb d2bd 9e7d 353e
00000110: ec17 e83c 3241 023c ca43 473e a779 51bb
00000120: 06a8 573e 6ed5 81bb 2cf0 ff3d 6e91 ec3d
00000130: f844 353e ae0d f63c cfa4 503e 79f6 7dbc
00000140: 70d3 16be a2bb cabd 01fa f93d e73f 41bd
00000150: ece9 6dbd 427e a8bd 17ac a2bd 4e1d 843d
00000160: 5791 bb3c 338d 053e 655e a8bd 4275 103e
00000170: b383 1fbe c6d4 1f3c bf84 b53c d14d 693d
00000180: e2da 92bd 5ab7 41be 3581 bcbd 53f6 58bc
00000190: 17fd bd3b e3dd 603e 5d00 8bbd f2c8 cd3d
000001a0: 490e b83c ce51 0a3e 109f 893c 19f8 c43d
000001b0: 0071 f13d 4401 803d 5012 e5bc 91e8 4abc
000001c0: ecba 583e 0f1a e9bc f1d5 d93a 1436 0fbd
000001d0: e8cb b23d 38d9 acbd 64e8 7dbd 4f81 443b
000001e0: c2c6 12bd efed 703d 57de d5bd c3b6 1b3e
000001f0: cca9 45be b14d 153e 07a4 acbd c071 12be
00000200: b593 603e 08e3 48be 4bcc cd3d 17e2 d93c
00000210: 7fed 1d3d 53bc 743e b59e 02be 8778 2fbc
00000220: eae6 6fbd 46e7 c53b 1458 47bd 7ee7 05be
00000230: de5c 453d e063 e33c 9f37 6bbc a172 2a3d
00000240: 8a67 973d 939d 353e d64d 843d e638 29bc
00000250: 3f39 ecbd 7bd0 d93d 9886 ac3b a71d cabc
00000260: 834b 633d ad58 f3bd 33c5 113d e4cc f73c
00000270: bf89 eb3d 3f23 e83b 5c67 243d ad4e 8cbd
00000280: c947 aa3d e2c8 d7bc 98b5 c9bd d7aa 433e
00000290: 350b cab9 2889 2c3e c218 d4bc d7be 33bd
000002a0: 3bd1 a33d 251c 68bc fb32 a83d d269 1a3e
000002b0: 7c6d c4bc d873 97bd c59c 1dbc 3883 753d
000002c0: 00ba c5bd 2cee 0e3d c09c afbc 80eb 89bd
000002d0: 609e 87bd 7f54 1ebd 974a 4f3e 3e1d 983d
000002e0: fb85 80bd 2704 b53d 9915 8a3c 0137 37bd
000002f0: 7e96 8abd e278 9a3d dc8a 873d cb76 d53d
00000300: a363 e13c fa78 763d cabe 273d bb98 73be
00000310: 50da e2bb 4d90 52bc 211b 1fbd 715b 96bd
00000320: c693 a53b 92ee 423d b5a2 01be 04a8 cd3c
00000330: 6a4c ffbb 5c1f 843b 22e7 243e bb8c 9dbd
00000340: 92ac ab3c 081c d53c ffaa 17be 54bf e7bc
00000350: 72ef 4abd 6f12 88bb a9e1 85bd bca4 0e3d
00000360: b598 783d bf8f d8bc ae01 9e3b 8e2a b53a
00000370: 1eca f8bc b5f7 1a3e c9f0 40bd af6d 583d
00000380: ecc2 423d e2b3 b9bd 3e86 943d 057c 74bd
00000390: 282b ba3d 7c31 b63d a593 57bd 1165 b4bc
000003a0: 1d9a e5bd c8ba a03d caae a1bb 1db2 cf3c
000003b0: 351d dabc 768d c0bb 391c 863d 3bb3 7e3d
000003c0: a5ab 513d 86cc 9bbb af37 ddbd 84ea ac3d
000003d0: 5e90 7cbe ee4c 0fbd 5eff fdbd a787 e93c
000003e0: fb83 e5bb 662a 203d e16c 323d 4feb 223e
000003f0: a8a1 9abd 2331 6dbd d352 70ba 49d4 743e

network_body._body_endoder.seq_layers.2.bias f4 [128]
0.0 0.0 0.0 0.0 0.0 0.0 0.0 0.0
0.0 0.0 0.0 0.0 0.0 0.0 0.0 0.0
0.0 0.0 0.0 0.0 0.0 0.0 0.0 0.0
0.0 0.0 0.0 0.0 0.0 0.0 0.0 0.0
0.0 0.0 0.0 0.0 0.0 0.0 0.0 0.0
0.0 0.0 0.0 0.0 0.0 0.0 0.0 0.0
0.0 0.0 0.0 0.0 0.0 0.0 0.0 0.0
0.0 0.0 0.0 0.0 0.0 0.0 0.0 0.0
0.0 0.0 0.0 0.0 0.0 0.0 0.0 0.0
0.0 0.0 0.0 0.0 0.0 0.0 0.0 0.0
0.0 0.0 0.0 0.0 0.0 0.0 0.0 0.0
0.0 0.0 0.0 0.0 0.0 0.0 0.0 0.0
0.0 0.0 0.0 0.0 0.0 0.0 0.0 0.0
0.0 0.0 0.0 0.0 0.0 0.0 0.0 0.0
0.0 0.0 0.0 0.0 0.0 0.0 0.0 0.0
0.0 0.0 0.0 0.0 0.0 0.0 0.0 0.0
00000000: 0000 0000 0000 0000 0000 0000 0000 0000
00000010: 0000 0000 0000 0000 0000 0000 0000 0000
00000020: 0000 0000 0000 0000 0000 0000 0000 0000
00000030: 0000 0000 0000 0000 0000 0000 0000 0000
00000040: 0000 0000 0000 0000 0000 0000 0000 0000
00000050: 0000 0000 0000 0000 0000 0000 0000 0000
00000060: 0000 0000 0000 0000 0000 0000 0000 0000
00000070: 0000 0000 0000 0000 0000 0000 0000 0000
00000080: 0000 0000 0000 0000 0000 0000 0000 0000
00000090: 0000 0000 0000 0000 0000 0000 0000 0000
000000a0: 0000 0000 0000 0000 0000 0000 0000 0000
000000b0: 0000 0000 0000 0000 0000 0000 0000 0000
000000c0: 0000 0000 0000 0000 0000 0000 0000 0000
000000d0: 0000 0000 0000 0000 0000 0000 0000 0000
000000e0: 0000 0000 0000 0000 0000 0000 0000 0000
000000f0: 0000 0000 0000 0000 0000 0000 0000 0000
00000100: 0000 0000 0000 0000 0000 0000 0000 0000
00000110: 0000 0000 0000 0000 0000 0000 0000 0000
00000120: 0000 0000 0000 0000 0000 0000 0000 0000
00000130: 0000 0000 0000 0000 0000 0000 0000 0000
00000140: 0000 0000 0000 0000 0000 0000 0000 0000
00000150: 0000 0000 0000 0000 0000 0000 0000 0000
00000160: 0000 0000 0000 0000 0000 0000 0000 0000
00000170: 0000 0000 0000 0000 0000 0000 0000 0000
00000180: 0000 0000 0000 0000 0000 0000 0000 0000
00000190: 0000 0000 0000 0000 0000 0000 0000 0000
000001a0: 0000 0000 0000 0000 0000 0000 0000 0000
000001b0: 0000 0000 0000 0000 0000 0000 0000 0000
000001c0: 0000 0000 0000 0000 0000 0000 0000 0000
000001d0: 0000 0000 0000 0000 0000 0000 0000 0000
000001e0: 0000 0000 0000 0000 0000 0000 0000 0000
000001f0: 0000 0000 0000 0000 0000 0000 0000 0000

action_model._continuous_distribution.log_sigma f4 [1, 3]
0.0 0.0 0.0
00000000: 0000 0000 0000 0000 0000 0000

action_model._continuous_distribution.mu.weight f4 [3, 128]
-0.004811003 -0.005943773 0.038553502 0.016506536 0.005144894 0.0010386383 -0.0043002022 -0.0036474473
-0.018338362 0.0045578266 0.0060852836 0.013887137 -0.010244738 0.023073943 0.014727431 0.02423313
-0.026568508 -0.027615124 -0.0021770548 0.019356573 0.0070211473 0.0024182282 0.00911376 -0.0075861164
0.010741512 -0.0129848 0.004184411 -0.0050394414 0.0044006812 -0.008613679 -0.016626766 1.6165266e-05
-0.010485844 0.008792204 0.011396176 -0.024115874 0.0006562148 0.014248358 0.011007476 -0.007414484
-0.012453829 -0.012927447 -0.007198389 0.044317327 0.0009904909 -0.01693883 -0.0022629458 0.00037896694
0.005273078 0.02264555 -0.00664634 -0.034972645 -0.0037357279 -0.005363702 0.0052929083 0.019354356
-0.011333076 -0.0032543521 0.028759306 0.022469439 -0.014074109 0.018695753 -0.019820835 0.01404897
0.013272579 -0.0051474464 -0.012860524 0.008435072 0.022719283 -0.03329883 0.012935321 0.0051100175
0.016778871 -0.009502913 -0.021220261 0.0014173246 0.015852874 0.020263968 -0.008935522 -0.011241067
0.0097046 0.0028988647 -0.0046810806 -0.016727561 0.013240523 0.0033252449 -0.019839885 0.019776708
0.005386134 0.020344144 0.011549918 0.015335239 0.005708745 0.0011451183 -0.028016051 -0.016260596
-0.0077159046 0.011099547 0.021383496 0.0021063818 0.028320616 0.0064304667 0.02453977 0.0021319014
0.00282671 -0.020598315 0.013529723 -0.03289324 0.019666744 -0.01012615 0.011803294 -0.0030284885
0.0049845376 -0.016215665 0.015003907 -0.00596899 -0.036073413 0.015768774 0.00069511187 -0.022053072
0.005769839 0.010440884 0.009962981 -0.015977614 -0.007817026 -0.0063226037 -0.013778712 0.011260795
0.018317334 0.025700038 0.0119372215 -0.005515198 -0.011919412 0.010306163 0.0013854363 -0.03941589
0.00030599686 -0.016361875 -0.025845379 0.018296154 -0.0285938 -0.031672534 0.005466555 -0.021100264
0.012127944 0.003779117 -0.0077857682 -0.014108925 0.013742881 0.012054677 -0.035161912 -0.028168483
-0.046161123 0.016860064 -0.0018066664 -0.0025199286 0.03012158 0.017440958 -0.02193418 -0.025224516
-0.018224968 -0.013222893 -0.003425013 -0.027949011 0.0061713443 -0.025291044 -0.017758299 -0.015081166
0.0019554251 0.033941288 0.021126559 -0.022036985 -0.00964197 -0.019530728 0.018036472 -0.0064284275
-0.0008702733 0.010615695 -0.012443057 0.0073016854 0.019286105 -0.020675322 -0.0032611887 0.012658568
-0.013443628 0.00050883536 -0.006316956 0.010994284 -0.004429674 0.020605993 -0.016090883 0.039016776
0.017403685 0.022164185 0.020216232 -0.0013845668 -0.0034526226 -0.060967296 0.0032101532 0.018890832
-0.018487737 -0.033346917 0.012536781 -0.008699196 0.029200623 0.00040546045 0.012754777 0.03377789
0.023705551 -0.02609734 0.0013966836 -0.008621288 0.011778455 -0.02969085 0.01902744 0.046150837
-0.0073161344 0.016854135 0.0077468166 -0.031429652 -0.018287756 0.0077078827 0.020813076 0.02370658
0.041045744 -0.017438665 -0.002193825 0.008693735 -0.0031697706 0.015872847 0.041053075 0.0068896026
0.016765272 0.008277316 0.003916004 -0.0062760483 -0.0004120953 0.029543793 0.011011778 -0.02405115
-0.021573802 -0.025403837 -0.02272827 -0.033622134 0.0063984576 0.0058358824 -0.015156119 0.01508444
0.010327655 -0.009710896 0.017873315 0.013644849 0.02256684 -0.03400096 0.009388875 0.011159641
00000000: 9ea5 9dbb fbc3 c2bb 47ea 1d3d b738 873c
00000010: 8096 a83b eb22 883a b6e8 8cbb 030a 6fbb
00000020: 553a 96bc d259 953b 0f67 c73b e086 633c
00000030: 8cd9 27bc 9105 bd3c 534b 713c 8f84 c63c
00000040: 33a6 d9bc 1d39 e2bc ebac 0ebb ad91 9e3c
00000050: a711 e63b 237b 1e3b e151 153c f594 f8bb
00000060: 2bfd 2f3c 33be 54bc 621d 893b e621 a5bb
00000070: 9733 903b 6320 0dbc db34 88bc a59a 8737
00000080: d1cc 2bbc 2d0d 103c 07b7 3a3c a78e c5bc
00000090: d405 2c3a f271 693c b358 343c 33f5 f2bb
000000a0: 250b 4cbc a5cd 53bc 77e0 ebbb 1686 353d
000000b0: 5cd3 813a 4dc3 8abc ee4d 14bb 15b0 c639
000000c0: c9c9 ac3b 2983 b93c 8ac9 d9bb 7a3f 0fbd
000000d0: 1dd3 74bb fec1 afbb 2270 ad3b 078d 9e3c
000000e0: 5eae 39bc f846 55bb a398 eb3c d411 b83c
000000f0: 1797 66bc d627 993c 4e5f a2bc a72d 663c
00000100: 3b75 593c e9ab a8bb f2b4 52bc 4233 0a3c
00000110: ca1d ba3c 5b64 08bd abee 533c ef71 a73b
00000120: d873 893c 1bb2 1bbc 1dd6 adbc 86c5 b93a
00000130: e3dd 813c 9f00 a63c 4c66 12bc 742c 38bc
00000140: 0b00 1f3c e1fa 3d3b c063 99bb 3d08 89bc
00000150: c7ee 583c 5aec 593b 4187 a2bc c302 a23c
00000160: 2b7e b03b c3a8 a63c de3b 3d3c a740 7b3c
00000170: 6d10 bb3b cb17 963a eb81 e5bc f134 85bc
00000180: b3d5 fcbb e0da 353c 712c af3c 390b 0a3b
00000190: a300 e83c aab6 d23b a107 c93c 5fb7 0b3b
000001a0: 5340 393b ccbd a8bc c5ab 5d3c 10bb 06bd
000001b0: 271c a13c 27e8 25bc 9a62 413c 9b79 46bb
000001c0: 5555 a33b b7d6 84bc f2d2 753c 8497 c3bb
000001d0: b7c1 13bd 842d 813c 2b38 363a a5a8 b4bc
000001e0: eb10 bd3b 3e10 2b3c c53b 233c 7ce3 82bc
000001f0: fc12 00bc d82d cfbb 1bc0 61bc 337f 383c
00000200: 3c0e 963c e388 d23c 5694 433c d6b8 b4bb
00000210: a349 43bc 2edb 283c 8797 b53a 8e72 21bd
00000220: 346e a039 5709 86bc b0b9 d3bc d1e1 953c
00000230: 8b3d eabc 0fbb 01bd c920 b33b 76da acbc
00000240: 49b4 463c 10ab 773b c21f ffbb 1f29 67bc
00000250: d229 613c fb80 453c f005 10bd 97c1 e6bc
00000260: 7213 3dbd 1e1e 8a3c aacd ecba 6325 25bb
00000270: 88c1 f63c 57e0 8e3c 4faf b3bc a5a3 cebc
00000280: 874c 95bc d5a4 58bc 2f76 60bb 53f5 e4bc
00000290: fd38 ca3b 2a2f cfbc da79 91bc ff16 77bc
000002a0: 9726 003b 0506 0b3d 9b11 ad3c e886 b4bc
000002b0: 5af9 1dbc e8fe 9fbc 39c1 933c 8fa5 d2bb
000002c0: 0d23 64ba 74ed 2d3c f7dd 4bbc fa42 ef3b
000002d0: e5fd 9d3c 4b5f a9bc abb9 55bb e265 4f3c
000002e0: aa42 5cbc 5d63 053a 78fe cebb 5f21 343c
000002f0: cc26 91bb e6cd a83c 07d1 83bc 0ed0 1f3d
00000300: 2c92 8e3c aa91 b53c 839c a53c 5a7a b5ba
00000310: 6545 62bb d8b8 79bd 6f61 523b f2c0 9a3c
00000320: 9873 97bc c796 08bd 1267 4d3c 1387 0ebc
00000330: 2536 ef3c fb93 d439 6af9 503c af5a 0a3d
00000340: 2532 c23c 17ca d5bc ed10 b73a 4e40 0dbc
00000350: 6cfa 403c 3a3a f3bc 6fdf 9b3c a908 3d3d
00000360: 2fbc efbb af11 8a3c 02d9 fd3b 61bc 00bd
00000370: 34d0 95bc 6892 fc3b 2f80 aa3c 4d34 c23c
00000380: 951f 283d 88db 8ebc 47c6 0fbb 2b70 0e3c
00000390: edbb 4fbb c607 823c 4527 283d 2dc2 e13b
000003a0: 5357 893c 949d 073c d351 803b 4fa7 cdbb
000003b0: 7f0e d8b9 d305 f23c bf6a 343c eb06 c5bc
000003c0: 8bbb b0bc b51b d0bc a330 babc 5db7 09bd
000003d0: 27aa d13b ee3a bf3b 5f51 78bc ba24 773c
000003e0: 5335 293c 731a 1fbc 0f6b 923c a58e 5f3c
000003f0: 18de b83c 9744 0bbd ccd3 193c edd6 363c

action_model._continuous_distribution.mu.bias f4 [3]
0.0 0.0 0.0
00000000: 0000 0000 0000 0000 0000 0000

action_model._discrete_distribution.branches.0.weight f4 [7, 128]
-0.0141142905 0.009371049 -0.004824582 0.002287749 -0.015552393 0.0021099441 -0.007186429 0.0084310435
-0.0008400608 -0.014393096 0.004251996 -0.008337632 -0.008737885 0.008694871 0.008276778 -0.0009957877
-0.0074422467 0.0023586864 -0.0036145689 -0.009176529 0.010735615 -0.0014843242 -0.009411396 -0.0072747516
0.0017991345 -0.011473003 -0.0013507184 0.0010852992 -0.019154787 -0.0007650182 0.0015905522 -0.003887754
-0.011092346 -0.004032734 -0.003007437 0.0026437615 -0.008950726 -0.010359534 0.0029663516 0.005781963
0.01130541 0.0065871114 0.014944759 -0.013507152 0.010149478 -0.0052984045 0.0015591731 -0.019371679
-0.014590502 0.010168291 -0.005416152 -0.006270447 0.013869408 -0.013347668 -0.0030397826 0.006560734
-0.00028585733 -0.014606413 0.012685864 0.007579613 -0.008615735 -0.010900498 -0.004572478 0.0002011718
0.0068432735 -0.006997297 0.004398889 -0.00793929 -0.014478735 0.009151791 -0.0014879763 -0.011398661
0.0028226222 0.009013898 0.0049294494 0.008603758 -0.008833401 -0.00430163 0.010632187 -0.012468148
0.008214094 0.0028336712 -0.004364199 -0.00031635203 -0.001976892 -0.005409541 -0.00619214 0.021385228
-0.0046861763 -0.0038348597 0.0057026683 -0.0013708012 -0.003083098 -0.0031254066 0.004484253 -0.0061428915
0.021104196 -0.0043151057 0.014093182 -0.0018286075 0.0015872427 -0.011871721 -0.01881631 0.0123028
-0.015610429 -0.012433055 0.009265504 0.008576408 0.015875133 9.6688884e-05 8.580121e-05 -0.004336798
0.0067112977 0.017583832 -0.005179297 0.012023626 0.0049380204 -0.013301583 0.010564029 -0.0063586147
0.0055069285 -0.006790567 -0.011585996 0.010993843 0.002409599 -0.009262327 -0.0036130545 -0.0019474991
0.006650384 0.0021291347 -0.0019634156 0.0015343161 0.00644149 0.0048514204 0.014618869 -0.004408417
-0.002647478 -0.011579468 -0.007648252 0.0113557065 0.0055060396 -0.011736414 0.0031311058 -0.0075414837
0.00089352764 0.01253968 -0.009338632 -0.010714766 0.0039522313 0.005330233 -0.005091536 0.005341514
0.0016554376 0.008261633 0.012373681 -0.015220168 0.011816144 -0.0030344764 0.0037940938 0.003781885
-0.017193573 0.009472332 0.0019586403 0.00030535442 -0.0069475956 0.008845162 0.012355072 -0.014619939
0.00802101 -0.0002948934 -0.00981253 -0.005053865 0.009145974 0.0023425503 0.0101230405 0.013927077
-0.0015009936 -0.015421609 -0.012484852 -0.00018291983 -0.0063291388 -0.00325374 0.0007526108 0.0105271
0.0028244576 0.0033444539 -0.00041605436 0.003196594 -0.0119374795 0.0039007913 -0.010292299 -0.008781577
-0.0024705918 -0.0024800354 -0.004024951 0.0071587027 -0.018053157 0.012468423 0.004139919 -0.0054120417
-0.0073237554 0.008066896 -0.0018395471 0.00053695653 -0.005942627 2.4949235e-05 -0.0067030354 -0.0031420202
0.004535933 0.0017240805 -0.016836068 0.0037766472 0.014359325 0.0030397868 0.015557073 0.004049894
-0.010781654 -0.0028057965 0.006323652 -0.003871573 -0.013274834 0.0026453228 0.010296322 -0.0049148058
-0.00036915654 0.013355069 0.0036685173 0.01338227 0.011892682 0.003578053 0.0080190115 -0.0034984641
-0.003303978 0.012585848 -0.00016234268 0.017812517 -0.003176593 -0.0010530254 0.0020959065 -0.002104679
-0.008550695 -0.0018172985 0.003704191 0.019102642 -0.011551652 2.869303e-05 0.019301256 0.0007519485
-0.015008747 0.009014374 0.0027154996 0.01204639 0.003891668 0.0081644645 0.012059407 0.01322213
00000000: a03f 67bc 0789 193c 8717 9ebb 0fee 153b
00000010: 77cf 7ebc fd46 0a3b 237c ebbb 5c22 0a3c
00000020: 8737 5cba 05d1 6bbc 5454 8b3b 909a 08bc
00000030: 5929 0fbc ef74 0e3c 539b 073c 1785 82ba
00000040: 17de f3bb 3194 1a3b 67e2 6cbb 2759 16bc
00000050: 6fe4 2f3c a88d c2ba 4232 1abc 0a61 eebb
00000060: f0d0 eb3a 43f9 3bbc 970a b1ba 9940 8e3a
00000070: 80ea 9cbc 818b 48ba 137a d03a b0c9 7ebb
00000080: acbc 35bc 0625 84bb 6c18 45bb f542 2d3b
00000090: 11a6 12bc 09bb 29bc 1f67 423b 9f76 bd3b
000000a0: 543a 393c b2d8 d73b ddda 743c 1a4d 5dbc
000000b0: ff49 263c 3d9e adbb 2b5d cc3a 5bb1 9ebc
000000c0: 000d 6fbc e798 263c fa79 b1bb 5278 cdbb
000000d0: 833c 633c 2db0 5abc 1737 47bb 6dfb d63b
000000e0: 1fdf 95b9 bd4f 6fbc 5fd8 4f3c 675e f83b
000000f0: 0329 0dbc 0198 32bc bad4 95bb a5f1 5239
00000100: 8a3d e03b 9549 e5bb 8e24 903b cc13 02bc
00000110: 3738 6dbc 65f1 153c 3308 c3ba 73c1 3abc
00000120: befb 383b 07af 133c 3887 a13b c7f6 0c3c
00000130: f8b9 10bc b0f4 8cbb a032 2e3c 3447 4cbc
00000140: 6894 063c 1db5 393b 8e01 8fbb 0ddc a5b9
00000150: be8e 01bb 8542 b1bb 6fe7 cabb 1330 af3c
00000160: 7f8e 99bb 4552 7bbb 73dd ba3b 75ac b3ba
00000170: cd0d 4abb 9fd3 4cbb a4f0 923b 4f4a c9bb
00000180: b5e2 ac3c bb65 8dbb 17e7 663c e3ad efba
00000190: 070b d03a 9b81 42bc aa24 9abc af91 493c
000001a0: e3c2 7fbc 03b4 4bbc 57ce 173c 1084 0c3c
000001b0: 910c 823c 73c5 ca38 2df0 b338 b31b 8ebb
000001c0: 72ea db3b f80b 903c 18b7 a9bb befe 443c
000001d0: 1ecf a13b e2ee 59bc c014 2d3c ed5b d0bb
000001e0: 7773 b43b 6883 debb 30d3 3dbc 851f 343c
000001f0: 5dea 1d3b 04c1 17bc ffc8 6cbb 3a43 ffba
00000200: 77eb d93b f488 0b3b a6ac 00bb 1b1b c93a
00000210: 2213 d33b aaf8 9e3b fb83 6f3c 7b74 90bb
00000220: 4f81 2dbb cfb7 3dbc 309e fabb 490d 3a3c
00000230: 026c b43b 174a 40bc 3d33 4d3b 8d1e f7bb
00000240: a03b 6a3a 3b73 4d3c 1001 19bc fc8c 2fbc
00000250: b881 813b 3ca9 ae3b e6d6 a6bb de07 af3b
00000260: 45fb d83a cd5b 073c fbba 4a3c 035e 79bc
00000270: 8098 413c 11de 46bb 55a6 783b 80d9 773b
00000280: 89d9 8cbc d731 1b3c 885c 003b fa17 a039
00000290: a8a8 e3bb 4ceb 103c ee6c 4a3c 7888 6fbc
000002a0: 8e6a 033c ec9b 9ab9 bcc4 20bc e49a a5bb
000002b0: ffd8 153c 7985 193b 1cdb 253c 652e 643c
000002c0: fdbc c4ba ebaa 7cbc 448d 4cbc 2bce 3fb9
000002d0: aa64 cfbb b33c 55bb db4a 453a dc79 2c3c
000002e0: 891a 393b a02e 5b3b df21 dab9 f37d 513b
000002f0: 6b95 43bc 6ba4 7f3b 08a1 28bc 9be0 0fbc
00000300: a7e9 21bb 1788 22bb bce3 83bb 8d93 ea3b
00000310: 37e4 93bc 5b48 4c3c 28a8 873b 7f57 b1bb
00000320: 1dfc efbb 042b 043c f51c f1ba 8bc2 0c3a
00000330: 5eba c2bb 134a d137 23a5 dbbb 5aea 4dbb
00000340: 2aa2 943b 8bfa e13a cbeb 89bc a081 773b
00000350: 6043 6b3c 2937 473b 18e3 7e3c f9b4 843b
00000360: 89a5 30bc 74e1 37bb a336 cf3b 37ba 7dbb
00000370: b07e 59bc 275d 2d3b e8b1 283c 610c a1bb
00000380: 5a8b c1b9 38cf 5a3c 826b 703b 4f41 5b3c
00000390: 86d9 423c c57d 6a3b 2c62 033c 7d46 65bb
000003a0: 8d87 58bb df34 4e3c 883a 2ab9 8eeb 913c
000003b0: 632e 50bb ab05 8aba 7a5b 093b a7ee 09bb
000003c0: 3718 0cbc 6b32 eeba 03c2 723b 257d 9c3c
000003d0: 2443 3dbc d0b1 f037 ab1d 9e3c 691e 453a
000003e0: 3fe7 75bc 06b1 133c 86f6 313b 395e 453c
000003f0: 5b0b 7f3b 3fc4 053c d294 453c a2a1 583c

action_model._discrete_distribution.branches.0.bias f4 [7]
0.0 0.0 0.0 0.0 0.0 0.0 0.0
00000000: 0000 0000 0000 0000 0000 0000 0000 0000
00000010: 0000 0000 0000 0000 0000 0000

network_body._body_endoder.seq_layers.0.weight f4 [128, 101]
-0.059071455 0.052776445 0.07358597 -0.06362816 0.117606625 0.05245432 0.079449244 0.13761045
0.083631925 0.062933944 -0.059160028 0.07447077 0.046295162 -0.19146727 0.11398105 -0.024995644
-0.13863033 -0.07469242 -0.043381676 0.06771204 -0.1290573 -0.13464276 -0.036099087 0.06673544
0.13376382 0.008957714 -0.036143176 -0.13233769 -0.058862004 -0.048378773 0.053988487 0.0058946614
-0.07777644 0.00044576332 -0.18575306 -0.028000645 -5.8045676e-05 -0.07045419 0.17134345 0.057341393
0.002884416 0.11728011 0.0075157294 0.0449067 0.07408629 -0.029065391 -0.007888806 0.013898329
0.021095049 0.21067014 0.08852348 -0.050851908 -0.015083857 0.24969566 -0.14895292 -0.104413934
0.09344423 0.054573584 -0.03777047 0.09291141 0.085741125 0.10975722 0.12274409 -0.11838546
-0.13742916 0.22927271 0.023249656 0.057799 -0.087286845 -0.14878504 0.021473413 0.011863977
-0.06822005 0.17772889 -0.10221128 -0.11935115 -0.018559773 -0.21922399 -0.019725692 0.101727895
-0.1922289 -0.14122392 0.094350934 0.012286476 0.047862273 -0.013185129 0.044836562 -0.035232656
0.065375246 -0.2107735 0.009816581 0.15984048 0.078948215 0.23028184 -0.054261565 0.008829861
0.081757426 0.07346693 -0.0065667043 0.15817949 -0.04548655 0.12595227 -0.08474377 -0.2077944
0.083895005 0.05476219 0.123170316 0.10701531 0.19440821 -0.033843745 -0.03158177 0.033374816
-0.02921319 -0.12153576 -0.011775719 -0.13304588 -0.05782929 0.026910469 -0.12486155 -0.028851857
-0.029743208 0.21171881 0.01785046 0.010478974 -0.075002566 -0.16102049 0.0535741 0.21518178
0.024973849 -0.0121747805 -0.37137616 -0.011770211 -0.010942487 -0.023132492 0.17276293 0.049788766
0.014505031 -0.021142742 0.0149664255 -0.067971356 0.025008384 -0.10854156 -0.0449905 -0.2106865
-0.046049275 -0.04173116 -0.013445232 0.091902435 0.025653284 0.080303386 0.099451095 0.033675767
0.10594518 -0.044390086 -0.0913501 0.18731402 0.0507204 -0.034034483 0.09138154 -0.11241794
0.054996356 0.0051917806 -0.20857643 -0.09452055 -0.0065507414 -0.10860296 0.050195027 0.030039689
-0.020726776 -0.0119795585 -0.041594245 0.08535949 0.035709213 -0.09145379 -0.020154344 0.11547386
0.15873022 -0.033585887 -0.068603456 -0.12725334 -0.01825858 0.01468899 0.12567721 -0.11516497
-0.18839818 0.032192685 0.07853869 0.059706256 -0.02299831 -0.017126659 -0.15030406 -0.049295135
0.029577225 -0.11580694 -0.12766214 0.013244877 0.05613828 -0.0052319686 0.13684367 -0.09390344
-0.034403775 0.033980567 0.12799004 0.14476636 0.01621329 0.118515074 -0.014301735 0.29640678
0.006746943 0.07270576 0.03428604 0.23084792 -0.07987858 -0.08791536 -0.042739324 0.0011714058
0.084482595 -0.08701337 -0.17492716 0.03352354 0.025113348 0.004530576 0.021571672 -0.008858393
0.11732756 0.013805415 -0.033101372 -0.022361593 0.21113078 0.017417993 0.02127587 -0.027285911
-0.058940638 -0.11254051 0.10364292 0.017899796 -0.03805579 0.11169944 -0.19344921 0.12005385
0.025317993 0.13910642 -0.05328482 0.08997011 -0.10507583 -0.039451618 -0.06193648 -0.043768432
-0.008449713 0.018732125 0.1436047 -0.078463346 0.05709934 0.085126415 0.14874153 -0.18002959
00000000: e9f4 71bd 1d2c 583d 3eb4 963d 7b4f 82bd
00000010: bedb f03d 57da 563d 49b6 a23d c1e9 0c3e
00000020: 3747 ab3d 83e3 803d c951 72bd 2284 983d
00000030: ff9f 3d3d ff0f 44be e66e e93d aac3 ccbc
00000040: 1cf5 0dbe 57f8 98bd fcb0 31bd 9cac 8a3d
00000050: 9927 04be cbdf 09be a3dc 13bd 97ac 883d
00000060: 62f9 083e 60c3 123c de0a 14bd 8883 07be
00000070: 4919 71bd d228 46bd 0823 5d3d 0128 c13b
00000080: 4149 9fbd 57b5 e939 0d36 3ebe 9c61 e5bc
00000090: 1276 73b8 494a 90bd a874 2f3e cfde 6a3d
000000a0: 7808 3d3b 8e30 f03d 8246 f63b 16f0 373d
000000b0: 8eba 973d 8b1a eebc 0d40 01bc d1b5 633c
000000c0: 86cf ac3c eab9 573e cc4b b53d 174a 50bd
000000d0: 4822 77bc 38b0 7f3e 1d87 18be f9d6 d5bd
000000e0: b05f bf3d 8d88 5f3d 35b5 1abd 5648 be3d
000000f0: 0b99 af3d 65c8 e03d 4161 fb3d 1374 f2bd
00000100: 3bba 0cbe 77c6 6a3e 1076 be3c a5be 6c3d
00000110: 72c3 b2bd 1b5b 18be 03e9 af3c 2061 423c
00000120: f4b6 8bbd 90fe 353e 2654 d1bd 606e f4bd
00000130: aa0a 98bc 417c 60be c697 a1bc b756 d03d
00000140: a7d7 44be 019d 10be 103b c13d 374d 493c
00000150: 3b0b 443d 7006 58bc 8ba6 373d 1e50 10bd
00000160: 75e3 853d 02d5 57be bad5 203c 39ad 233e
00000170: 9aaf a13d 01cf 6b3e 6041 5ebd 1fab 103c
00000180: 7070 a73d d475 963d 822d d7bb cef9 213e
00000190: 1b50 3abd a2f9 003e 248e adbd 0ec8 54be
000001a0: 25d1 ab3d 514e 603d b840 fc3d d82a db3d
000001b0: f212 473e bd9f 0abd e35b 01bd 08b4 083d
000001c0: 8050 efbc bee7 f8bd f2ee 40bc 2e3d 08be
000001d0: 68de 6cbd 5873 dc3c 6ab7 ffbd bb5a ecbc
000001e0: 07a8 f3bc d1cc 583e 213b 923c 01b0 2b3c
000001f0: f29a 99bd 8ee2 24be 8470 5b3d 9d58 5c3e
00000200: f595 cc3c bb78 47bc 0425 bebe d8d7 40bc
00000210: 1e48 33bc 5a80 bdbc c4e8 303e 4eef 4b3d
00000220: 82a6 6d3c 8b33 adbc bd35 753c 9134 8bbd
00000230: 62de cc3c 0a4b debd f547 38bd 34be 57be
00000240: 2a9e 3cbd 4bee 2abd 6449 5cbc 5837 bc3d
00000250: d626 d23c 1a76 a43d 04ad cb3d 9aef 093d
00000260: c9f9 d83d 61d2 35bd c315 bbbd 3fcf 3f3e
00000270: 32c0 4f3d be67 0bbd 3f26 bb3d 603b e6bd
00000280: dc43 613d d01f aa3b 0f95 55be fd93 c1bd
00000290: 9aa7 d6bb 3b6b debd 4d99 4d3d cb15 f63c
000002a0: 33cb a9bc e945 44bc ba5e 2abd f5d0 ae3d
000002b0: d343 123d 204c bbbd b91a a5bc 8f7d ec3d
000002c0: 2d8a 223e 5b91 09bd f87f 8cbd b34e 02be
000002d0: 0493 95bc 17aa 703c 87b1 003e 9ddb ebbd
000002e0: 74eb 40be 7adc 033d e5d8 a03d 8c8e 743d
000002f0: f466 bcbc 354d 8cbc 4fe9 19be b2e9 49bd
00000300: f04b f23c 302c edbd ddb9 02be 0a01 593c
00000310: 41f1 653d ef70 abbb bf20 0c3e 7250 c0bd
00000320: f9ea 0cbd 352f 0b3d d20f 033e a23d 143e
00000330: bcd1 843c 08b8 f23d d351 6abc a1c2 973e
00000340: 7615 dd3b c2e6 943d 856f 0c3d 6663 6c3e
00000350: 6297 a3bd f80c b4bd 6e0f 2fbd db89 993a
00000360: 3605 ad3d 1134 b2bd 1b20 33be fb4f 093d
00000370: 82ba cd3c 3a75 943b 13b7 b03c cb22 11bc
00000380: 6f49 f03d 1b30 623c 4e95 07bd a92f b7bc
00000390: ab32 583e 2eb0 8e3c bc4a ae3c b486 dfbc
000003a0: bd6b 71bd a47b e6bd bd42 d43d 98a2 923c
000003b0: 63e0 1bbd adc2 e43d 8d17 46be cbde f53d
000003c0: ae67 cf3c ea71 0e3e 2f41 5abd 4042 b83d
000003d0: ff31 d7bd 0598 21bd 1bb1 7dbd 8746 33bd
000003e0: aa70 0abc 1d74 993c 1c0d 133e 64b1 a0bd
000003f0: ffe0 693d c256 ae3d b34f 183e ad59 38be

network_body._body_endoder.seq_layers.0.bias f4 [128]
0.0 0.0 0.0 0.0 0.0 0.0 0.0 0.0
0.0 0.0 0.0 0.0 0.0 0.0 0.0 0.0
0.0 0.0 0.0 0.0 0.0 0.0 0.0 0.0
0.0 0.0 0.0 0.0 0.0 0.0 0.0 0.0
0.0 0.0 0.0 0.0 0.0 0.0 0.0 0.0
0.0 0.0 0.0 0.0 0.0 0.0 0.0 0.0
0.0 0.0 0.0 0.0 0.0 0.0 0.0 0.0
0.0 0.0 0.0 0.0 0.0 0.0 0.0 0.0
0.0 0.0 0.0 0.0 0.0 0.0 0.0 0.0
0.0 0.0 0.0 0.0 0.0 0.0 0.0 0.0
0.0 0.0 0.0 0.0 0.0 0.0 0.0 0.0
0.0 0.0 0.0 0.0 0.0 0.0 0.0 0.0
0.0 0.0 0.0 0.0 0.0 0.0 0.0 0.0
0.0 0.0 0.0 0.0 0.0 0.0 0.0 0.0
0.0 0.0 0.0 0.0 0.0 0.0 0.0 0.0
0.0 0.0 0.0 0.0 0.0 0.0 0.0 0.0
00000000: 0000 0000 0000 0000 0000 0000 0000 0000
00000010: 0000 0000 0000 0000 0000 0000 0000 0000
00000020: 0000 0000 0000 0000 0000 0000 0000 0000
00000030: 0000 0000 0000 0000 0000 0000 0000 0000
00000040: 0000 0000 0000 0000 0000 0000 0000 0000
00000050: 0000 0000 0000 0000 0000 0000 0000 0000
00000060: 0000 0000 0000 0000 0000 0000 0000 0000
00000070: 0000 0000 0000 0000 0000 0000 0000 0000
00000080: 0000 0000 0000 0000 0000 0000 0000 0000
00000090: 0000 0000 0000 0000 0000 0000 0000 0000
000000a0: 0000 0000 0000 0000 0000 0000 0000 0000
000000b0: 0000 0000 0000 0000 0000 0000 0000 0000
000000c0: 0000 0000 0000 0000 0000 0000 0000 0000
000000d0: 0000 0000 0000 0000 0000 0000 0000 0000
000000e0: 0000 0000 0000 0000 0000 0000 0000 0000
000000f0: 0000 0000 0000 0000 0000 0000 0000 0000
00000100: 0000 0000 0000 0000 0000 0000 0000 0000
00000110: 0000 0000 0000 0000 0000 0000 0000 0000
00000120: 0000 0000 0000 0000 0000 0000 0000 0000
00000130: 0000 0000 0000 0000 0000 0000 0000 0000
00000140: 0000 0000 0000 0000 0000 0000 0000 0000
00000150: 0000 0000 0000 0000 0000 0000 0000 0000
00000160: 0000 0000 0000 0000 0000 0000 0000 0000
00000170: 0000 0000 0000 0000 0000 0000 0000 0000
00000180: 0000 0000 0000 0000 0000 0000 0000 0000
00000190: 0000 0000 0000 0000 0000 0000 0000 0000
000001a0: 0000 0000 0000 0000 0000 0000 0000 0000
000001b0: 0000 0000 0000 0000 0000 0000 0000 0000
000001c0: 0000 0000 0000 0000 0000 0000 0000 0000
000001d0: 0000 0000 0000 0000 0000 0000 0000 0000
000001e0: 0000 0000 0000 0000 0000 0000 0000 0000
000001f0: 0000 0000 0000 0000 0000 0000 0000 0000

network_body._body_endoder.seq_layers.2.weight f4 [128, 128]
0.17870124 -0.17002602 0.048969615 0.04642891 -0.13958666 0.12200467 -0.07891297 0.06214095
0.10445804 -0.14542907 0.017588189 0.032955218 -0.03656263 -0.032004848 0.20199549 0.07463636
-0.12500149 0.18008032 -0.06689856 0.06049401 -0.026579877 0.050547253 -0.030971758 0.07576646
0.03615402 0.0615438 -0.035959743 -0.16900335 0.026518544 -0.12502962 -0.112224214 -0.13496865
0.1178113 -0.004635811 0.09211474 -0.06611146 -0.054974735 0.05577965 0.1622681 -0.12147522
-0.14116195 0.064384006 0.018598847 -0.1785963 0.00303079 0.26255536 -0.05753658 -0.0053898287
0.12079099 0.006579096 -0.008232861 -0.058122177 -0.07589321 0.02041057 -0.07174961 -0.077137396
-0.16727716 0.2458621 0.12447589 -0.010796579 0.024815872 -0.121201746 0.09021202 -0.11840367
0.10822778 -0.076384306 0.02697733 -0.06795472 0.02628843 -0.020964265 0.072789796 -0.015610139
-0.08752128 -0.055817362 -0.05251784 0.11921856 -0.05995034 0.06420391 -0.13671628 0.028352138
-0.042728826 0.060679134 0.026078653 -0.047168266 -0.09533662 -0.030707614 0.07484824 -0.1451179
0.06750989 0.031087177 -0.015148669 0.058234878 0.046959814 0.09121202 -0.086657204 -0.057708334
0.1539897 0.08590777 -0.07130613 -0.16785537 -0.0563185 0.051272035 0.1339652 -0.090661824
0.04855023 -0.09200695 0.020570217 -0.00452267 0.03118095 0.022174852 0.13561146 -0.0064448905
-0.045439743 -0.08213734 -0.003618895 0.043073677 0.07906607 0.20988812 0.018216893 -0.05445904
-0.117347755 -0.0374378 0.05926377 -0.029542109 0.06170592 -0.19946332 0.0788146 0.14782688
-0.14885983 0.24138229 -0.043598097 0.16856922 -0.0064342716 0.0054108948 -0.052835763 0.014402403
-0.015561474 0.072904766 0.040321793 0.12771012 0.055653416 0.06307725 -0.117400825 0.02367672
-0.13496737 -0.039022174 0.101158865 -0.019278795 -0.053135343 0.122683786 -0.03496201 -0.071969494
-0.0044712075 -0.12568974 0.05422139 0.12364369 -0.017928394 0.03182492 0.11747808 0.066970244
0.087353095 0.013197351 -0.013412024 0.112221286 -0.08609683 0.08824313 0.014016922 0.10507049
-0.13451488 0.077653244 -0.11760583 -0.0082320515 -0.0069422694 -0.004995251 -0.1390689 0.03401045
-0.11079921 0.040082794 0.06769012 0.034618437 -0.13859753 0.10842085 0.093928285 -0.0100547
0.045391496 -0.047802422 -0.051656257 0.045172513 0.016413977 0.012071288 0.114827044 0.08006696
-0.08037582 0.122332364 -0.12987682 0.02340042 0.1567497 -0.055154085 0.10011182 -0.1542027
0.09836889 -0.013307783 -0.0219246 -0.037972573 -0.082432255 -0.18704255 -0.13495426 0.0005435194
0.01898957 -0.004527138 0.12444786 0.08884878 -0.049535632 -0.008400369 -0.005762027 -0.11749792
-0.09018214 0.07721796 0.16847181 0.19323428 0.04188595 -0.11997703 -0.1511962 -0.039772876
-0.022041555 0.049220394 -0.012192694 -0.008449493 -0.14482492 0.022975417 0.014732549 0.037948824
0.0001497922 -0.091349415 0.0065116873 0.058467355 0.025279554 -0.009037213 -0.08429641 -0.11803551
0.14101811 0.08229479 -0.034825668 -0.0630773 -0.027015412 0.11667106 0.007936012 0.1054177
0.113382526 -0.0703975 0.06872383 -0.004485572 -0.10288478 0.06961347 -0.044978775 0.030600699
00000000: 75fd 363e 4d1b 2ebe 5d94 483d 3e2c 3e3d
00000010: ceef 0ebe 96dd f93d 209d a1bd 8287 7e3d
00000020: 19ee d53d 5ceb 14be 1b15 903c 0dfc 063d
00000030: b2c2 15bd 8417 03bd e8d7 4e3e f3da 983d
00000040: 6400 00be fa66 383e 1d02 89bd 91c8 773d
00000050: 0bbe d9bc a30a 4f3d 7cb8 fdbc 722b 9b3d
00000060: 3d16 143d 5a15 7c3d 864a 13bd 370f 2dbe
00000070: 6b3d d93c c407 00be cfd5 e5bd 3935 0abe
00000080: 0d47 f13d 00e8 97bb a7a6 bc3d 7265 87bd
00000090: 302d 61bd 3479 643d 9c29 263e 00c8 f8bd
000000a0: c28c 10be c3db 833d 9c5c 983c f3e1 36be
000000b0: 38a0 463b a86d 863e 7aab 6bbd 299d b0bb
000000c0: 4461 f73d 7595 d73b 1fe3 06bc 8511 6ebd
000000d0: e66d 9bbd 1134 a73c 76f1 92bd 36fa 9dbd
000000e0: b44a 2bbe 46c3 7b3e 37ed fe3d 22e4 30bc
000000f0: a84a cb3c 9f38 f8bd 14c1 b83d a07d f2bd
00000100: 87a6 dd3d 606f 9cbd 90ff dc3c d82b 8bbd
00000110: d55a d73c 40bd abbc d112 953d abc1 7fbc
00000120: 5b3e b3bd bfa0 64bd f21c 57bd dc28 f43d
00000130: 7d8e 75bd 577d 833d 5aff 0bbe be42 e83c
00000140: 6c04 2fbd af8a 783d e6a2 d53c 8333 41bd
00000150: d93f c3bd 898e fbbc 094a 993d c999 14be
00000160: a042 8a3d 89aa fe3c 1f32 78bc b287 6e3d
00000170: ef58 403d 5ecd ba3d 5579 b1bd 935f 6cbd
00000180: 7aaf 1d3e 6af0 af3d f308 92bd 47e2 2bbe
00000190: 3aae 66bd a002 523d 2c2e 093e e8ac b9bd
000001a0: 9bdc 463d 246e bcbd df82 a83c e832 94bb
000001b0: 316f ff3c 09a8 b53c bbdd 0a3e a92f d3bb
000001c0: 061f 3abd 9f37 a8bd fc2a 6dbb 066e 303d
000001d0: 64ed a13d e9ec 563e 983b 953c 7110 5fbd
000001e0: 0554 f0bd 6158 19bd 91be 723d 4b02 f2bc
000001f0: 59bf 7c3d 1d40 4cbe 8d69 a13d ee5f 173e
00000200: b66e 18be eb2c 773e eb93 32bd 699d 2c3e
00000210: 95d6 d2bb e04d b13b 506a 58bd 0ef8 6b3c
00000220: 8df5 7ebc 184f 953d 7728 253d 71c6 023e
00000230: d6f4 633d a52e 813d d86f f0bd aef5 c13c
00000240: e334 0abe b7d5 1fbd 612c cf3d 90ee 9dbc
00000250: 72a4 59bd a341 fb3d 5334 0fbd be64 93bd
00000260: 3583 92bb d0b4 00be 4017 5e3d e738 fd3d
00000270: 91de 92bc d95a 023d 5998 f03d b227 893d
00000280: 2ee6 b23d b439 583c 1bbe 5bbc 46d4 e53d
00000290: 8953 b0bd d0b8 b43d 3ba7 653c 322f d73d
000002a0: 45be 09be aa08 9f3d 53db f0bd badf 06bc
000002b0: fa7b e3bb 34af a3bb 1468 0ebe 8b4e 0b3d
000002c0: b2ea e2bd db2d 243d 1ea1 8a3d 10cc 0d3d
000002d0: 83ec 0dbe c00b de3d 795d c03d 78bc 24bc
000002e0: 6fec 393d 79cc 43bd 8395 53bd d006 393d
000002f0: 9b76 863c a7c6 453c 712a eb3d 25fa a33d
00000300: 149c a4bd 6489 fa3d 6efe 04be 3db2 bf3c
00000310: fe82 203e 40e9 61bd 6d07 cd3d 50e7 1dbe
00000320: a175 c93d e308 5abc 389b b3bc 2189 1bbd
00000330: 3ed2 a8bd 1588 3fbe 7331 0abe f87a 0e3a
00000340: 0490 9b3c 6358 94bb 85de fe3d 59f6 b53d
00000350: e0e5 4abd b4a1 09bc 63cf bcbb c0a2 f0bd
00000360: 6ab1 b8bd 7324 9e3d e083 2c3e 35df 453e
00000370: 9a90 2b3d 84b6 f5bd 2dd3 1abe e2e8 22bd
00000380: 7e90 b4bc 539b 493d ddc3 47bc be6f 0abc
00000390: fc4c 14be f136 bc3c ca60 713c 3a70 1b3d
000003a0: 8a11 1d39 6715 bbbd fe5f d53b 777b 6f3d
000003b0: 1117 cf3c d210 14bc 99a3 acbd 9abc f1bd
000003c0: 0d67 103e 2c8a a83d 5ca5 0ebd ac2e 81bd
000003d0: 6d4f ddbc 3df1 ee3d 0c06 023c 3ce5 d73d
000003e0: 1935 e83d 912c 90bd 14bf 8c3d b5fb 92bb
000003f0: 41b5 d2bd 8291 8e3d aa3b 38bd 51ae fa3c

network_body._body_endoder.seq_layers.2.bias f4 [128]
0.0 0.0 0.0 0.0 0.0 0.0 0.0 0.0
0.0 0.0 0.0 0.0 0.0 0.0 0.0 0.0
0.0 0.0 0.0 0.0 0.0 0.0 0.0 0.0
0.0 0.0 0.0 0.0 0.0 0.0 0.0 0.0
0.0 0.0 0.0 0.0 0.0 0.0 0.0 0.0
0.0 0.0 0.0 0.0 0.0 0.0 0.0 0.0
0.0 0.0 0.0 0.0 0.0 0.0 0.0 0.0
0.0 0.0 0.0 0.0 0.0 0.0 0.0 0.0
0.0 0.0 0.0 0.0 0.0 0.0 0.0 0.0
0.0 0.0 0.0 0.0 0.0 0.0 0.0 0.0
0.0 0.0 0.0 0.0 0.0 0.0 0.0 0.0
0.0 0.0 0.0 0.0 0.0 0.0 0.0 0.0
0.0 0.0 0.0 0.0 0.0 0.0 0.0 0.0
0.0 0.0 0.0 0.0 0.0 0.0 0.0 0.0
0.0 0.0 0.0 0.0 0.0 0.0 0.0 0.0
0.0 0.0 0.0 0.0 0.0 0.0 0.0 0.0
00000000: 0000 0000 0000 0000 0000 0000 0000 0000
00000010: 0000 0000 0000 0000 0000 0000 0000 0000
00000020: 0000 0000 0000 0000 0000 0000 0000 0000
00000030: 0000 0000 0000 0000 0000 0000 0000 0000
00000040: 0000 0000 0000 0000 0000 0000 0000 0000
00000050: 0000 0000 0000 0000 0000 0000 0000 0000
00000060: 0000 0000 0000 0000 0000 0000 0000 0000
00000070: 0000 0000 0000 0000 0000 0000 0000 0000
00000080: 0000 0000 0000 0000 0000 0000 0000 0000
00000090: 0000 0000 0000 0000 0000 0000 0000 0000
000000a0: 0000 0000 0000 0000 0000 0000 0000 0000
000000b0: 0000 0000 0000 0000 0000 0000 0000 0000
000000c0: 0000 0000 0000 0000 0000 0000 0000 0000
000000d0: 0000 0000 0000 0000 0000 0000 0000 0000
000000e0: 0000 0000 0000 0000 0000 0000 0000 0000
000000f0: 0000 0000 0000 0000 0000 0000 0000 0000
00000100: 0000 0000 0000 0000 0000 0000 0000 0000
00000110: 0000 0000 0000 0000 0000 0000 0000 0000
00000120: 0000 0000 0000 0000 0000 0000 0000 0000
00000130: 0000 0000 0000 0000 0000 0000 0000 0000
00000140: 0000 0000 0000 0000 0000 0000 0000 0000
00000150: 0000 0000 0000 0000 0000 0000 0000 0000
00000160: 0000 0000 0000 0000 0000 0000 0000 0000
00000170: 0000 0000 0000 0000 0000 0000 0000 0000
00000180: 0000 0000 0000 0000 0000 0000 0000 0000
00000190: 0000 0000 0000 0000 0000 0000 0000 0000
000001a0: 0000 0000 0000 0000 0000 0000 0000 0000
000001b0: 0000 0000 0000 0000 0000 0000 0000 0000
000001c0: 0000 0000 0000 0000 0000 0000 0000 0000
000001d0: 0000 0000 0000 0000 0000 0000 0000 0000
000001e0: 0000 0000 0000 0000 0000 0000 0000 0000
000001f0: 0000 0000 0000 0000 0000 0000 0000 0000

value_heads.value_heads.extrinsic.weight f4 [1, 128]
0.07368615 0.15310258 0.06431368 -0.06787713 -0.2080045 0.10428733 -0.1150997 0.009759232
-0.14322042 0.075729996 0.0015253127 0.051028997 -0.20640624 -0.13800618 0.07920295 0.06601915
0.09636718 -0.09121673 -0.09704295 0.19529131 0.1679694 0.026391566 0.12837288 0.094200045
-0.074178666 -0.12914862 0.14175782 0.029144287 -0.06776428 0.123388916 -0.14544328 0.033427715
0.0723556 -0.0714647 0.2106491 -0.12808019 0.10308266 0.14737669 -0.0014306754 -0.19270755
0.13233039 0.066995084 0.075546324 -0.1584351 0.14303026 0.10795128 -0.09891947 -0.15396298
0.012317389 -0.010429248 0.08019021 -0.026308954 0.029673144 -0.06690484 0.0798344 0.11729473
-0.07778393 -0.07984187 0.05218211 -0.08519961 0.06984255 -0.18479028 0.1623773 0.15081239
0.19405535 -0.19424157 0.0679706 0.022476792 -0.10541129 -0.1366176 -0.21150601 -0.16490768
0.08420354 -0.20445864 -0.08026102 0.116515875 0.1630731 0.0161234 0.1260669 -0.13222489
0.034685254 0.082190186 0.0751791 -0.188537 -0.07927698 -0.062710166 -0.20913571 0.058368087
0.0652335 -0.17159756 -0.049780503 0.052189916 -0.20728242 0.06505674 0.035105556 0.116733104
0.20813227 0.13478845 -0.0050353855 -0.031587705 0.1504224 0.21009889 0.20177147 0.010935679
-0.05382815 0.14416507 -0.067283824 0.18547189 -0.012396529 -0.13140452 0.013862908 0.17966774
0.14114666 0.05209419 -0.09295208 0.122113705 0.0760549 -0.07697782 -0.011095732 0.022134423
-0.037291437 -0.16415797 0.10265967 -0.07063319 0.09131575 -0.05453886 0.15320909 -0.192749
00000000: c4e8 963d ecc6 1c3e e4b6 833d 2a03 8bbd
00000010: 22ff 54be 9894 d53d 64b9 ebbd 30e5 1f3c
00000020: 60a8 12be 5418 9b3d 00ed c73a c803 513d
00000030: 285c 53be 7e51 0dbe 2835 a23d 0c35 873d
00000040: 285c c53d d6cf babd 74be c6bd 72fa 473e
00000050: 2c00 2c3e 2033 d83c 2e74 033e f4eb c03d
00000060: fcea 97bd 893f 04be f628 113e 00c0 ee3c
00000070: 00c8 8abd 54b3 fc3d 15ef 14be 80eb 083d
00000080: 2c2f 943d 165c 92bd 66b4 573e 7427 03be
00000090: 001d d33d eae9 163e 8085 bbba 2155 45be
000000a0: 9e81 073e b834 893d 08b8 9a3d d03c 22be
000000b0: 8676 123e 9015 dd3d 4b96 cabd 79a8 1dbe
000000c0: e0ce 493c 70df 2abc c43a a43d e085 d7bc
000000d0: 1815 f33c 6805 89bd 3880 a33d 3838 f03d
000000e0: 2e4d 9fbd 2284 a3bd e8bc 553d 227d aebd
000000f0: 9c09 8f3d aa39 3dbe 3c46 263e 906e 1a3e
00000100: 72b6 463e 43e7 46be 2c34 8b3d 4021 b83c
00000110: e0e1 d7bd 7ce5 0bbe 0895 58be 8fdd 28be
00000120: e872 ac3d 9b5d 51be e45f a4bd e09f ee3d
00000130: a2fc 263e 3815 843c ae17 013e f665 07be
00000140: 2012 0e3d 5453 a83d 80f7 993d d80f 41be
00000150: f85b a2bd 306e 80bd ac27 56be 6013 6f3d
00000160: 2499 853d 45b7 2fbe a4e6 4bbd 18c5 553d
00000170: d841 54be 783c 853d d8ca 0f3d c411 ef3d
00000180: a020 553e fc05 0a3e e0ff a4bb 1c62 01bd
00000190: 5408 1a3e 2a24 573e 2e9d 4e3e 902b 333c
000001a0: e87a 5cbd 02a0 133e 1acc 89bd 58ec 3d3e
000001b0: d01a 4bbc e88e 06be 4021 633c d2fa 373e
000001c0: c088 103e b860 553d a95d bebd c016 fa3d
000001d0: acc2 9b3d 8ca6 9dbd e0ca 35bc 4053 b53c
000001e0: e8be 18bd 0719 28be 3c3f d23d 22a8 90bd
000001f0: c003 bb3d 2464 5fbd d8e2 1c3e fe5f 45be
