results/NewTest5/BoxingAgent.onnx (onnx, 319572 bytes, 11 tensors)

network_body.observation_encoder.processors.0.normalizer.running_mean f4 [36]
000000 91 70 ff 3f 22 7e 6d 41 2d a7 4f c1 5b 47 8d 30
       1.9956228 14.843294 -12.978314 1.0279381e-09
000010 ec e1 04 3f ce 97 b9 af 9d 15 bb 3f 48 19 b0 3a
       0.5190723 -3.3759168e-10 1.4615971 0.0013435269
000020 bc 4c 49 3f 41 e5 80 2f 75 2c 04 3f 29 76 8f 2f
       0.7863271 2.344596e-10 0.51630336 2.6095506e-10
000030 17 cd 7c 3f d1 c6 7c 3f 00 00 00 00 00 00 00 00
       0.9875044 0.9874087 0.0 0.0
000040 00 00 00 00 7b fe 7f 3f 00 00 00 00 8e 3f ff 36
       0.0 0.9999768 0.0 7.606991e-06
000050 00 00 00 00 5f 24 47 37 2e 67 e5 3c cd 8e 9c 38
       0.0 1.1869793e-05 0.028003301 7.4652584e-05
000060 f6 df 43 3d 5d 92 ff 3e 2c 2f f2 3e e6 e6 06 3f
       0.047821008 0.49916354 0.47301614 0.52696073
000070 2c 07 07 3f a1 ee f1 3e 00 00 00 00 0b bb 34 3f
       0.5274532 0.47252372 0.0 0.70597905
000080 c7 e0 13 3f e0 5b 07 be 22 7e 6d 41 a0 d5 d9 41
       0.5776486 -0.13218641 14.843294 27.22931

network_body._body_endoder.seq_layers.0.weight f4 [256, 36]
000000 3f c9 ca 3c 1e 44 07 3e 22 43 24 be e5 ad 8e be
       0.024754165 0.13209578 -0.16041234 -0.27867046
000010 cc fa 1e be 2c a9 e0 3d f3 04 a1 3d 7d 19 c5 bc
       -0.15525359 0.10969767 0.07862272 -0.024060005
000020 91 db 72 bd c0 a1 f5 bd 62 6f 54 3d 1f ae 21 be
       -0.059291426 -0.11993742 0.051864035 -0.15789078
000030 ef 30 e6 bc 3e c2 9c 3c b8 2c ea bc 88 c1 66 3e
       -0.028099505 0.01913559 -0.028585777 0.22534764
000040 2a af 0d 3c b2 73 0a 3e d3 91 a5 be e5 3e eb 3d
       0.008647719 0.13520697 -0.32337818 0.114866056
000050 1c f4 20 bd 32 2b 77 3e 8f 0c 8c bd 48 4d 4a bc
       -0.0392953 0.24137571 -0.06838333 -0.012347527
000060 10 33 b9 3e da 6f 3b 3e 9f 27 28 be 95 70 d1 3d
       0.3617177 0.18304387 -0.16421364 0.102265514
000070 52 dc 13 3e 7c d1 4c 3e c0 31 f7 3d b7 c1 57 be
       0.14439514 0.20001787 0.12070036 -0.2106999
000080 f5 06 b5 bd 7b 28 f5 bc d1 34 2b 3e a4 9e 85 bc
       -0.088392176 -0.02992653 0.16719367 -0.016310997
000090 32 dc 90 3e 28 7a 07 3e f4 d9 9d bd 58 34 76 3d
       0.28292996 0.13230193 -0.07707587 0.060108513
0000a0 f1 2c 85 be a2 7d 99 bd af d8 b4 3e a2 6a a0 3e
       -0.2601085 -0.07494666 0.35321566 0.31331354
0000b0 f6 6f 9a bd f7 f8 78 3e ef d6 5f 3e 21 84 41 ba
       -0.07540886 0.24313723 0.21859334 -0.00073820545
0000c0 3f e3 1b be 56 ad 38 be 84 53 0e 3e 85 1a 8d 3c
       -0.15223406 -0.18034872 0.13899046 0.01722456
0000d0 da 80 ee bd 1e fa 3a be ab 0b 65 be c7 19 1c 3e
       -0.1164567 -0.18259475 -0.22367732 0.15244208
0000e0 57 eb 06 3c 25 d4 94 3e 00 73 28 3e 0d 00 3b 3d
       0.00823482 0.29068103 0.16450119 0.045654345
0000f0 ff ed 83 bd b1 9b 69 3e 83 14 14 3e 72 bc 00 3e
       -0.064418785 0.22813298 0.1446095 0.12571886
000100 c5 b3 6e bd 52 46 fb 3c dc 8c a3 bc 72 e2 fb 3d
       -0.05827691 0.03067318 -0.019964628 0.122990504
000110 17 fa 15 3e cc 42 3a bd 3c ee 05 3d 8d 56 93 be
       0.14646183 -0.04547386 0.0326979 -0.2877697
000120 fb f8 0c 3e b7 b0 12 3e 52 81 c1 3d b3 c8 3b 3e
       0.13766854 0.14325224 0.09448494 0.1833828
000130 76 4c 3e 3e ed 9d 85 be 34 fd a8 bd 5a 95 97 3e
       0.18583855 -0.2609705 -0.0825142 0.29606134
000140 1c 00 b1 3d 9f ac 86 3e 19 cd 9f 3d 5c 7f 17 bd
       0.08642599 0.26303574 0.07802791 -0.036986694
000150 4a 65 73 be 7e 6a ee be 9a bc 13 3e 96 a0 85 3d
       -0.23769107 -0.46565622 0.14427415 0.0652477
000160 30 2b 35 3e d3 10 47 be d7 16 a7 bd d3 db 15 3e
       0.17692256 -0.19440012 -0.08158653 0.14634638
000170 f8 63 44 3e 64 99 bb 3e 45 1d ee bc 32 c5 bf 3d
       0.1917876 0.36640465 -0.029066691 0.09363784
000180 44 92 9d bd d8 56 0c 3e 31 87 3f be 5f 1f d7 bd
       -0.076939136 0.13705003 -0.18703915 -0.105040304
000190 eb c1 83 bd f5 0f d3 bc ba 79 10 be 68 3c f2 3c
       -0.06433471 -0.025764445 -0.14108935 0.02956982
0001a0 03 f2 88 bb 27 b2 82 bd c3 0e 21 bc 78 5d 93 3e
       -0.0041792407 -0.06381636 -0.00983018 0.28782248
0001b0 60 3c a7 3d ea f8 e0 3e 3d d3 10 be d1 59 54 3e
       0.081658125 0.43939906 -0.14143081 0.20737387
0001c0 71 bb fe b9 bf ba 78 3e 9f ad 3a be 63 c8 7b 3e
       -0.0004858631 0.24289988 -0.18230294 0.2458816
0001d0 17 51 e2 bd d2 08 58 3e c7 76 08 be d1 cd a8 bd
       -0.11050623 0.21097115 -0.1332656 -0.08242381
0001e0 23 32 9e 3e 15 52 c8 bc 97 f0 92 3c 7a 30 c9 bd
       0.30897626 -0.024453202 0.017936988 -0.09823699
0001f0 0a 6a 98 bd 5e cc f6 3b 96 d3 17 3e da ed 2b 3e
       -0.074421 0.0075316867 0.14826807 0.16789952
000200 1f 68 32 3d 84 50 b1 3e d1 26 91 bd 91 d4 e0 be
       0.04355633 0.3463174 -0.07087482 -0.43912175
000210 31 e5 94 bd 96 6a 12 be c9 b8 af bc 35 a9 a4 3e
       -0.07270277 -0.14298472 -0.021450417 0.32160345
000220 56 0f 7f 3e 8b 41 41 bc 0b ec 37 3c a8 fe 9d 3e
       0.24908194 -0.011795412 0.011225711 0.3085835
000230 e7 fa c0 bd 74 a9 54 3d 28 a7 4e 3e 20 9b 01 be
       -0.09422856 0.051919416 0.20180953 -0.12656832
000240 d4 9a 8f 3d 78 0d 72 bb 81 e6 6b be a3 29 1c 3e
       0.07011953 -0.0036934298 -0.23037149 0.15250258
000250 7e 12 51 be f9 9e 46 3e 09 04 75 3c d2 84 43 be
       -0.2041721 0.19396581 0.014954575 -0.19093636
000260 67 62 30 be 5c ad 8e 3d ba 2e 82 3e 99 90 89 be
       -0.17225038 0.069666594 0.25426275 -0.26868132
000270 a0 2e bf bb 7f 4a 8e be 48 d1 b1 3d 90 ed d3 bc
       -0.0058344156 -0.2779121 0.08682495 -0.025870115
000280 13 c3 b6 3d a6 2d db bd 4a 6c 50 be 49 0f 16 be
       0.08923926 -0.10702066 -0.20353809 -0.14654268
000290 be 86 9f 3d 2d ca a1 3d 22 8f 27 3e f2 69 b4 3e
       0.07789372 0.0789989 0.16363195 0.3523708
0002a0 3e 4b 8a 3d 6b 0f de 3d e3 13 46 3d 18 9e b7 bd
       0.067526326 0.108427845 0.04835881 -0.08965701
0002b0 5d 3b a9 3e dc 44 92 3d 80 3a 82 3d a8 47 26 3d
       0.33053103 0.0714204 0.06358814 0.04059568
0002c0 94 ae 45 be bd 48 58 3e ca ba 85 be a3 c9 41 be
       -0.19304878 0.21121497 -0.2611907 -0.18924575
0002d0 fc 99 b6 bb 52 b5 32 be 52 7f a9 be 11 cc 2e 3e
       -0.0055725556 -0.1745198 -0.3310495 0.17070033
0002e0 9f ce 16 3d 69 1f 9d bd 17 1c 9b 3e a7 25 b8 be
       0.036818143 -0.07672007 0.30294868 -0.35966226
0002f0 2a a3 42 bc 45 0b 2a bd 2f da 3f 3e e2 84 9d 3e
       -0.011879722 -0.041514654 0.18735574 0.30765444
000300 b9 db 08 3e 39 fd f3 3c c2 f5 71 be 1a 2c ce bd
       0.13365068 0.029783832 -0.23628905 -0.100670055
000310 1a 79 1b 3e 04 dc f7 bb 7a 0b 55 3e 7d 69 3b be
       0.15182915 -0.0075640697 0.20805159 -0.1830196
000320 7e 15 0b bd 6f c9 a1 be 3a 94 8a be a3 76 d4 3c
       -0.033956043 -0.31598994 -0.27066213 0.025935477
000330 30 b5 49 bb c0 00 51 3e ee ac fb 3d db 9c 45 bd
       -0.0030778162 0.20410442 0.12288843 -0.048245292
000340 8f e8 f4 bc 92 4a 33 be 8f b5 85 3e 08 03 c8 3d
       -0.029896049 -0.17508915 0.2611508 0.09766203
000350 a6 4b 09 3e c3 f0 ec 3d ad 17 75 be c6 29 80 3d
       0.13407764 0.11569359 -0.23934813 0.06257968
000360 bf e1 82 3e 4f c4 6f 3d 12 f9 cd 3c c8 8b 8f 3d
       0.25562856 0.058536824 0.02514318 0.07009083
000370 68 9c 0c 3e c9 2d 2a be 64 be 00 bd 76 1a 82 be
       0.13731539 -0.16619028 -0.03143157 -0.25410813
000380 4e 5c 0d be 40 89 86 3c d2 a8 a0 3d 26 bd 81 bd
       -0.13804743 0.016422868 0.078447 -0.06334905
000390 90 3a 89 3d fb c5 2b 3d c8 38 be be 37 36 c8 be
       0.06700623 0.041936856 -0.37152696 -0.39103863
0003a0 24 c5 dd 3c 03 1f 43 3c 3e 98 1a 3e 54 02 66 be
       0.027071543 0.011909249 0.15097138 -0.22461826
0003b0 98 a5 65 be 41 09 75 bd 7f 44 3a 3e 2f 24 b8 bd
       -0.2242645 -0.05982328 0.18190192 -0.089912765
0003c0 b3 6a 86 be 14 eb 40 3e 56 af f7 3d 10 ef 8f 3d
       -0.2625328 0.18839675 0.120939896 0.070280194
0003d0 f5 01 b7 be 6c 8f 2a 3e 6e 95 4f 39 41 5c 19 3e
       -0.3574368 0.16656274 0.00019796725 0.14976598
0003e0 a4 4e 45 3e d4 b0 3a 3d e7 63 ae bd 38 dc c0 3e
       0.1926828 0.045578793 -0.085151486 0.37668014
0003f0 d0 30 0d 3c 28 9f 62 be df ac 82 3e 4f c6 1f 3e
       0.008617595 -0.22131026 0.25522515 0.15602992

network_body._body_endoder.seq_layers.0.bias f4 [256]
000000 6d 4e a2 3b 90 60 e3 ba eb e0 59 3b 2b 74 a2 3b
       0.0049531967 -0.0017347503 0.0033245634 0.004957696
000010 a6 72 a8 3b fd d6 7b 3b 5a b7 b4 3b e2 e7 9d 3b
       0.0051406203 0.0038427704 0.0055150213 0.0048189024
000020 4a 1e a5 bb 1b 61 6d 3b 8a 4d d3 3b 36 5a 82 3a
       -0.005039011 0.003622121 0.0064484524 0.0009945098
000030 90 f3 0d 3b d6 48 5a bb 73 1d 7e 3b 3c 1b b1 3b
       0.0021660067 -0.0033307574 0.0038774877 0.005404858
000040 15 f1 05 bb f5 5d 23 bb 8c ef f3 bb 3a 20 ce 3b
       -0.0020437886 -0.002492783 -0.0074443277 0.006290463
000050 c6 0c 99 3b c9 fc 82 3b 5f 55 d0 3b 90 a5 d6 3b
       0.004670712 0.0039974195 0.0063578333 0.0065504983
000060 fa 80 a3 3b 27 ae de 3b ff e4 99 3b fd 25 ab 3b
       0.0049897404 0.006795663 0.004696488 0.0052230344
000070 0d 2b 4e 3b cf e8 43 3b a9 01 a9 3b 31 d7 a5 3b
       0.0031458766 0.0029893403 0.0051576686 0.005061053
000080 48 f0 35 ba 01 3a c0 3a 69 ae a2 3b 82 40 8e 3b
       -0.0006940407 0.0014665724 0.004964639 0.004341186
000090 e8 d0 d8 3a d3 1c 91 bb 51 cb b0 b9 c4 d3 2d bb
       0.0016541751 -0.004428485 -0.00033720818 -0.0026523927
0000a0 ac fc 96 3b 3b 52 8c bb f3 d1 00 bc 69 0f c2 3b
       0.0046077576 -0.0042822636 -0.007862556 0.005922247
0000b0 ec 4e 92 3b c4 87 a4 3b f7 87 aa 3b 89 ba c8 3b
       0.0044649746 0.0050210673 0.0052041966 0.0061257523
0000c0 3d 81 a9 3b 33 c6 d2 3b 88 e5 83 3b 37 c3 a1 3b
       0.005172877 0.0064323186 0.004025165 0.0049366015
0000d0 2f c7 b4 3b 6f 55 9c 3b 25 f3 ab 3b e2 a7 b1 bb
       0.0055169086 0.0047709267 0.005247491 -0.0054216245
0000e0 b9 e5 e9 ba 62 3a c7 bb 96 36 e3 bb 68 eb 86 3b
       -0.0017844952 -0.006079958 -0.0069339974 0.004117418
0000f0 e5 e7 94 3b 9f a4 86 3b 68 89 80 3b 16 6b be 3b
       0.0045442455 0.00410898 0.00392263 0.0058111055
000100 64 da 9a 3b 3e de a8 3b fa 39 02 bc f4 68 61 3b
       0.004725741 0.0051534465 -0.007948393 0.0034394832
000110 24 93 b1 bb 3f 26 cd bb 1c 11 a0 3b bc da 3a 3b
       -0.005419152 -0.006260663 0.004884852 0.0028511724
000120 aa 1e 94 3b ed 5e b5 3b ad 1f a2 bb 51 d2 be ba
       0.004520257 0.0055349977 -0.0049476237 -0.0014558529
000130 bf dc e1 bb 33 4f 09 ba 6e 94 91 39 ad 6f 3b bb
       -0.00689277 -0.0005237937 0.00027767144 -0.00286005
000140 ec 3d 8e 3b bc 49 63 3b c9 c8 8a 3b 3d 66 89 bb
       0.0043408778 0.00346814 0.0042353612 -0.004193096
000150 ae 69 7f 3b ae 60 a0 bb 4f fd e8 3a f6 ed 9c 3b
       0.0038972902 -0.0048943376 0.0017775687 0.0047891093
000160 5a 2e 42 3b b1 27 cb bb 80 8d 89 bb 18 3a e9 3a
       0.0029629678 -0.0061998 -0.0041977763 0.0017793803
000170 df 8d c4 bb c8 10 a6 bb 6b d6 28 3a 2e 63 a3 3b
       -0.0059983577 -0.0050679184 0.0006440642 0.0049861884
000180 79 99 03 b9 2b 68 56 bb 03 04 89 bb e7 da 20 bb
       -0.00012550307 -0.0032715898 -0.0041813864 -0.0024544538
000190 ba 8a 97 3b 1e c3 8e 3b ca 99 9a bb 15 d8 9e 3b
       0.004624692 0.004356756 -0.00471804 0.0048475363
0001a0 5d 39 bd bb 8a 4b e2 38 80 d3 8c 3b 84 ab 55 bb
       -0.0057746605 0.0001079059 0.0042976737 -0.0032603452
0001b0 6f ef cc bb 72 a4 11 bb b4 9f f6 3a 7f 9b 9b 3b
       -0.0062541286 -0.0022223261 0.0018815906 0.004748761
0001c0 08 11 e5 3b 9a f4 b0 3b c9 ad 43 3b 44 9f 6b 3b
       0.0069905557 0.0054002525 0.0029858223 0.0035953084
0001d0 49 4f c7 3b b4 b3 33 3b a2 1e 26 bb 7c 12 29 bb
       0.0060824496 0.0027420344 -0.0025347848 -0.002579837
0001e0 50 64 84 3b 01 da c0 3b 80 0b 6a 3b 4a 9f a9 3b
       0.0040402785 0.005885363 0.003571242 0.0051764594
0001f0 be 60 36 bb c4 1b c8 bb c3 42 ad bb db 3f 80 3b
       -0.002782866 -0.0061068255 -0.0052874996 0.003913862
000200 29 90 d9 bb 23 1a 32 3a 56 bd 9f 3b 3e e2 ba bb
       -0.0066394997 0.0006794056 0.0048748655 -0.0057032397
000210 3a 0b 96 bb a6 f9 55 bb 75 c6 b3 3b e1 69 0c bb
       -0.004578975 -0.0032650023 0.0054863044 -0.0021425413
000220 fa cf 9f bb 43 a3 f2 3a 2a af 5f 3b ee a5 aa 3b
       -0.0048770877 0.001851179 0.0034131506 0.0052077686
000230 cf b0 b0 3b 23 b6 aa 3b 9f fb 8f bb f5 bb ac 3b
       0.005392171 0.0052097007 -0.0043940092 0.0052714297
000240 31 33 c6 bb 6d 2a 77 bb 2e 93 e4 b9 43 66 9e 3a
       -0.006048583 -0.0037714497 -0.00043597206 0.001208492
000250 69 92 99 3b c9 d4 8d bb 81 34 f3 3b 69 0b b8 b9
       0.004686643 -0.0043283445 0.0074220304 -0.00035103716
000260 8e f8 b7 b9 a9 b7 c8 3b 4c 31 ae 3b e1 25 bd ba
       -0.00035089668 0.0061254096 0.0053159352 -0.0014430844
000270 17 9b a3 3b d9 be 24 3b 5a 99 a5 3b 6c e1 b8 3b
       0.0049928534 0.0025138168 0.0050536813 0.0056421068
000280 9d f5 e6 bb 7e 8a a3 3b 3a 77 b0 bb 9d 54 27 3a
       -0.0070483224 0.004990875 -0.0053853067 0.0006383153
000290 2e 48 80 3b ae 49 e4 bb b9 b8 20 3b 33 b7 32 3b
       0.0039148545 -0.006966791 0.0024524166 0.002726984
0002a0 12 52 16 3b af 15 78 3b 2c b1 2b bb 37 84 9d 3b
       0.0022937101 0.0037854721 -0.0026198132 0.004807021
0002b0 c2 b0 94 bb 11 6d b1 3b 40 c4 82 bb 76 3d 51 bb
       -0.0045376727 0.005414613 -0.00399068 -0.0031927503
0002c0 1c 6a 00 bc 4d ea 41 3a e9 01 a6 bb 6c 77 8c 3b
       -0.007837798 0.0007397279 -0.0050661457 0.004286697
0002d0 2d 0c 95 3b 0f fc 5f bb 0e 33 ba 3a 03 c3 b4 3b
       0.0045485706 -0.0034177338 0.0014205889 0.0055164113
0002e0 e2 19 be bb bf 5b 5b bb c6 0c 86 ba 48 95 a2 3b
       -0.0058014253 -0.0033471433 -0.0010227195 0.0049616434
0002f0 45 d6 2b 3b 4c 0e b1 3b 6a 70 8e 3b 93 6b 7a 3b
       0.0026220244 0.0054033156 0.004346897 0.0038211092
000300 69 97 84 3b 35 40 df bb 12 0c af 3b ab bb 8a 3b
       0.00404637 -0.006813074 0.005342015 0.0042337975
000310 93 c4 be 3b 52 8a 72 bb e7 df 74 3b b9 37 f3 bb
       0.0058217733 -0.0037008715 0.0037364902 -0.007422414
000320 d2 38 cd bb f4 8a a0 3b 61 87 87 3b f5 c3 9f bb
       -0.006262877 0.004899377 0.0041360115 -0.004875655
000330 35 06 a3 3b a6 eb c6 bb 84 a6 a3 3b 86 be d8 bb
       0.004975105 -0.006070572 0.0049942154 -0.006614509
000340 c9 8c 98 3b 0d 97 99 3b 26 08 cd bb 25 35 78 bb
       0.004655455 0.004687196 -0.006257075 -0.0037873473
000350 42 83 7b 3b 87 16 ac 3b bf a8 06 3a 28 18 c5 3a
       0.0038377796 0.005251709 0.00051368395 0.0015037106
000360 44 1a 6b bb 6e 7d 88 bb ff 1e 7b bb 44 03 a8 bb
       -0.003587381 -0.004165343 -0.0038318036 -0.0051273424
000370 2c dc b1 ba 7e aa 98 3b fd e6 a1 bb 2c 2a 18 bb
       -0.0013569645 0.004658996 -0.004940866 -0.0023218496
000380 21 29 92 3b 64 f3 67 bb 9e e6 9b 3b ba b7 a7 3b
       0.0044604694 -0.0035392875 0.0047577163 0.0051183375
000390 4c ec f4 bb 73 cd 66 3b ba 76 9f 3b 0c da 93 3b
       -0.007474458 0.0035217672 0.004866448 0.004512077
0003a0 f0 14 9f 3b 86 33 7d ba 60 dd 98 3b 31 e7 4b 3a
       0.004854791 -0.00096588617 0.004665062 0.00077782857
0003b0 65 0a 93 3b b4 42 ad 3b eb a1 b0 3b f9 20 01 3b
       0.004487323 0.0052874926 0.005390396 0.001970349
0003c0 00 54 b0 3b 64 3c 79 3b 30 13 8e bb 94 78 59 bb
       0.0053811073 0.003803038 -0.0043357834 -0.0033183442
0003d0 57 82 94 3b 16 9a a3 3b 9e e7 eb 3a e6 03 1a bb
       0.0045321393 0.0049927337 0.0017998104 -0.0023500859
0003e0 49 72 8e 3b e4 af 89 bb f2 fc b3 bb 30 d4 23 3b
       0.00434712 -0.004201876 -0.0054928 0.00249983
0003f0 4d 9b 87 3b 68 d7 6a 3b 99 0d a6 3b 89 94 c2 3b
       0.0041383863 0.0035833959 0.005067539 0.005938117

network_body._body_endoder.seq_layers.2.weight f4 [256, 256]
000000 ac 0d 05 3b b0 ea 3a bd b3 ec 93 3d 23 14 df 3c
       0.0020302339 -0.04563397 0.07222881 0.027231282
000010 5f 0f 66 3d e2 71 11 3d 0a 57 ac 3c 84 44 ea 3a
       0.056167003 0.035508998 0.021037597 0.0017873202
000020 67 e1 c1 3d ad 30 e4 bc 22 ec d6 bc 30 f1 88 bd
       0.0946682 -0.027855242 -0.026235644 -0.06686628
000030 2e f5 8b bd e5 fe 85 bd 18 96 16 3d 27 73 f0 3c
       -0.06833874 -0.06542758 0.036764234 0.029351784
000040 8c 7a a5 3c 09 0c 08 3c 98 23 b8 bc ae c9 48 3c
       0.020200036 0.008303651 -0.02247791 0.012255115
000050 48 1d f6 bc f0 5d 17 bd 00 fa d4 3d 2e 39 75 bd
       -0.03004326 -0.03695482 0.10399246 -0.059868984
000060 2c 55 f2 3d 85 38 88 bd 98 59 90 3c d3 e7 f1 3c
       0.118326515 -0.06651405 0.017620847 0.029529488
000070 dc 80 e4 bb a3 f0 c0 3c 4a 95 b5 3d 68 d5 50 bd
       -0.006973369 0.023552245 0.08866365 -0.05098477
000080 ab 4c 45 bd 9f a8 8c 3c 6d 15 7a 3d dd f1 a0 3d
       -0.04816882 0.017170249 0.06105559 0.07858632
000090 23 84 43 3d c7 11 9a bd 0f 09 c4 3c 1f f7 96 bc
       0.047733437 -0.07522922 0.0239301 -0.018428383
0000a0 fc 86 08 be d6 d9 c0 3d 7a f6 de 3c da 30 10 bd
       -0.13332742 0.09416549 0.027217139 -0.03520284
0000b0 66 a3 9f 3c 7a 7a 27 bd 49 bb 82 3d 6e 28 12 bc
       0.019487094 -0.040888287 0.06383378 -0.008920772
0000c0 3b 13 fd bc 63 59 37 3c 1a 1a 13 3d 43 b5 8b 3c
       -0.030892959 0.011190745 0.035913564 0.017054206
0000d0 b1 a9 89 bb f0 0a 84 bc 50 fc 8f 3d 59 55 ca 3d
       -0.004201137 -0.016118497 0.07030547 0.0987956
0000e0 1f 81 f8 bc e9 65 29 bd 8e 0b 84 bd 42 55 c0 bc
       -0.030335007 -0.041356955 -0.064475164 -0.023478154
0000f0 2f de 6a 3d 3a d9 11 3e 68 23 01 3e 22 f7 99 bd
       0.057340797 0.14243022 0.12611163 -0.0751784
000100 8b 73 f0 3c 25 ab 43 bd 61 4f 8c bd 57 01 49 bd
       0.02935197 -0.047770638 -0.06851078 -0.049073543
000110 fa e7 4d 3d 6e 73 b6 3d 79 74 1c be 2a 0a 2f bd
       0.05027006 0.08908735 -0.15278806 -0.042734303
000120 81 f2 0a be 59 45 9d 3d b2 2c 24 bd a0 8d 50 3d
       -0.1356907 0.07679243 -0.040081687 0.050916314
000130 01 b9 dd 3c 7f 11 fb 3d 98 70 15 bd 1d 13 48 3c
       0.027065756 0.122591965 -0.03648433 0.012211588
000140 bd 17 14 3e 0f 0a ef 3d d0 40 f6 3c 91 85 be bc
       0.1446218 0.116718404 0.030060202 -0.023257049
000150 bf c0 18 bd 03 cd 9c 3c cc 84 95 3c 29 da b6 3d
       -0.037293192 0.019140726 0.018251799 0.089283295
000160 ce 19 41 3d cb aa f4 3a 97 41 a8 bd 9d ed a3 3d
       0.04714375 0.0018666623 -0.08215635 0.080043055
000170 51 e3 8c 3d e1 69 ad 3c fb 72 4b bd d3 d2 5e 3d
       0.06879295 0.021168651 -0.0496702 0.054400276
000180 a0 76 35 bb bc fd 8e 3c ba 56 1b 3d 42 2b a0 3d
       -0.0027689114 0.017454974 0.037924506 0.07820751
000190 fa 0a d6 3c 73 8b 00 3d fe aa a1 3c fb 65 db bc
       0.02612828 0.03138299 0.019734856 -0.026782027
0001a0 d2 ac 93 3d 25 7b 8c 3d 60 59 56 bc 19 f9 1b bd
       0.07210697 0.068594255 -0.013082832 -0.038079355
0001b0 fb e2 ab bc c5 e3 bc 3d 2f 20 9c 3d da 28 d2 bc
       -0.020982256 0.09223131 0.07623326 -0.025654245
0001c0 b7 07 81 3b 71 e1 1b bb 97 4d 32 3d 89 7b 51 3d
       0.0039376873 -0.0023785497 0.043531027 0.051143203
0001d0 e2 33 d7 3c d3 da 1c bc 0f 25 c4 3c f4 06 32 3c
       0.026269857 -0.009573656 0.023943452 0.010865916
0001e0 22 94 5f 3d 26 77 ca bc a7 e7 36 3d 2a 9c 13 bc
       0.05458463 -0.024715018 0.044654515 -0.0090094
0001f0 f1 88 c8 bc 8b c4 3e 3d 63 5e 2e 3c b8 08 b5 bd
       -0.024479361 0.046574157 0.010642621 -0.088395536
000200 45 c8 57 3d 02 d6 da bc 4c 8f d8 3c e0 b2 35 bd
       0.052681226 -0.026713375 0.026435517 -0.04436004
000210 68 da 5c 3d e7 66 b8 bc 38 f0 9c 3d 3e 35 40 bd
       0.053919226 -0.022510005 0.076630056 -0.046925776
000220 42 3c 95 bd e3 ff 24 3b b8 eb 91 3c 03 74 a0 3c
       -0.07286884 0.0025176934 0.017812595 0.019586569
000230 fe 5c 00 bc 26 cc 82 3c 71 0e 3e be 8c c3 e1 bc
       -0.007834671 0.015966486 -0.18560196 -0.027559064
000240 4b e2 19 bd d9 ab 69 bd e6 58 ed 3c 9a 39 8c 3c
       -0.037569325 -0.057048652 0.028973054 0.01711731
000250 c5 df e7 3c 82 d3 96 bd 3b 13 98 3c 6b 31 3d 3d
       0.028304944 -0.07364561 0.018563857 0.046189707
000260 c2 8e ea bd c0 64 35 3d 77 d3 a2 bd 79 6c d3 bc
       -0.1145301 0.044285536 -0.0795049 -0.02580856
000270 42 f8 86 bd b7 2f b0 bc 19 1a f1 3d 1b 67 86 3d
       -0.0659032 -0.021507127 0.11772556 0.065626346
000280 6d 83 0b 3e ee 69 5b bd ca 2d 86 3d 03 bc 40 3e
       0.13624354 -0.05356782 0.06551702 0.18821721
000290 c1 7c 74 3d 9e 39 16 3c a5 e9 4e 3d f7 70 3b bd
       0.059689287 0.00916901 0.05051579 -0.04576203
0002a0 b8 25 85 3d 8d 24 72 3d e3 70 07 bd a1 5c a0 3b
       0.06501335 0.05911689 -0.03306664 0.0048938547
0002b0 cd 1c 37 bd fc 37 6e bd 69 6c 93 3b 07 3a e3 bc
       -0.0447052 -0.05815886 0.0044990075 -0.02773763
0002c0 ca dc 22 b8 66 15 63 ba e6 29 11 be 9c b9 83 3c
       -3.8829436e-05 -0.00086625514 -0.14176139 0.016079716
0002d0 24 c4 a3 3c 48 65 31 3d d1 1e c7 bb cd 38 c9 3d
       0.019990988 0.04330948 -0.0060766716 0.09825287
0002e0 f9 0c a9 3c 05 ed b4 bc ab 38 91 3d 40 28 a1 3d
       0.020636069 -0.022085676 0.07090887 0.07869005
0002f0 ca 82 39 3d fa c0 95 3d fd 35 62 3d ca 16 fb 3c
       0.045290746 0.07312198 0.05522727 0.030650515
000300 77 59 62 bd 61 45 cd bd 7a bf 90 bd e6 f2 0a 3c
       -0.0552611 -0.100229986 -0.07067771 0.008480763
000310 c9 05 3a 3d 0e 15 42 bd 76 98 0b bd 8c 01 35 3d
       0.045415673 -0.04738336 -0.034080945 0.04419093
000320 32 c5 8a 3d f3 52 5e 3c 27 88 ee bb e6 54 b7 3d
       0.06775893 0.013569581 -0.007279414 0.0895174
000330 9d c7 77 bd 3d 20 da bc e5 03 d1 3d 64 fe 9f bd
       -0.0604931 -0.0266267 0.10205821 -0.07812193
000340 54 18 69 bd 6a 63 b9 3d fa 8c f5 3d f6 de e1 3c
       -0.056907967 0.09052165 0.1198978 0.027572136
000350 90 61 42 3c 78 45 05 bc d2 cd 32 3d 4f d0 c6 3c
       0.011864081 -0.008134238 0.043653317 0.024269251
000360 38 8c bb 3b ba f8 ea bb 70 d9 89 bd 11 9c 2c bc
       0.0057235025 -0.007170764 -0.06730926 -0.010535256
000370 9c 63 58 3c e7 85 e9 3d 12 56 06 3d 37 66 2c 3d
       0.0132073425 0.11402493 0.032796927 0.042089667
000380 df 0f 07 be 4e 4f 23 3d cc bd 8e 3d 78 11 57 3d
       -0.13189648 0.039870553 0.06969795 0.052506894
000390 dc 9a d9 3c 08 d7 b9 3d 37 f4 4d bd 55 dc a8 bd
       0.0265631 0.09074217 -0.05028173 -0.0824515
0003a0 49 01 b6 bd 8e 7d 7f bc 3b bc 40 bd 86 2f 8a 3c
       -0.08886964 -0.015593899 -0.04705451 0.016868364
0003b0 32 df 9e 3b 12 71 02 3e be 45 3a 3c 93 db ea bc
       0.0048483843 0.12738445 0.011369167 -0.028669154
0003c0 d7 1e c0 3d b9 70 c8 3c 2b 8b 29 bc c4 76 83 bd
       0.09380882 0.024467813 -0.010348122 -0.06419137
0003d0 fc 72 03 be dd d4 8b 3d 78 97 69 3d 2e a7 07 bd
       -0.12836832 0.0682771 0.057029217 -0.03311842
0003e0 41 a3 b9 bd 37 be 8e 3c de 08 9b bc 37 45 f4 3d
       -0.09064341 0.017424686 -0.018925127 0.11927264
0003f0 18 3e 91 bd 80 fd 3e bd a5 bb a5 ba d8 99 18 bd
       -0.070919216 -0.046628475 -0.0012644423 -0.03725609

network_body._body_endoder.seq_layers.2.bias f4 [256]
000000 55 e9 88 3b b0 9f a3 3b 93 78 55 bb c5 5a 95 3b
       0.004178206 0.0049934015 -0.0032573089 0.0045579397
000010 07 74 8d 3b ee 9c 7b bb a0 c2 1e 3b 09 42 b4 bb
       0.00431681 -0.0038393098 0.0024224892 -0.005501036
000020 35 1c bf 3b 40 8c ab 3b cb c2 f1 ba 99 39 c8 3b
       0.00583222 0.005235225 -0.0018444894 0.006110382
000030 7b 06 5a bb e8 7f ac bb a4 8e bf 3b 0c e4 b5 bb
       -0.0033268023 -0.005264271 0.0058458615 -0.005550867
000040 95 ab ad bb 11 af 35 b9 9b 98 b4 bb f3 e2 90 bb
       -0.005299995 -0.00017326722 -0.005511356 -0.0044215857
000050 ea 9a 71 3b ac 06 0f 38 8f 8e 9d 3b 92 a7 b0 bb
       0.0036866018 3.410007e-05 0.004808254 -0.0053910697
000060 03 ea 85 3b c5 68 13 bc d0 69 d0 3b 7b 02 9e 3b
       0.0040867343 -0.008997147 0.00636027 0.004822073
000070 39 fa 58 3b 63 9d 9e bb 7d 70 c0 3b 04 b6 7b bb
       0.0033108129 -0.0048405393 0.0058727846 -0.003840805
000080 1f a5 ac 3b 4a fe 9b 3b 56 99 01 bc d7 32 9d 3b
       0.0052687074 0.004760538 -0.007910093 0.0047973203
000090 35 f2 65 3b b6 01 9b bb 1d 23 04 bb 46 0a 8f bb
       0.0035086994 -0.0047304286 -0.002016253 -0.0043652384
0000a0 57 2b a7 3b 11 5b b2 3b db 39 b9 3b 2d 9c a5 bb
       0.005101602 0.005442985 0.005652649 -0.005054018
0000b0 86 0c a9 bb a9 49 bf bb b5 7d ad 3b 80 bc ae 3b
       -0.0051589636 -0.0058376384 0.0052945265 0.0053325295
0000c0 04 f7 bc 3b bd 25 d1 3b c0 16 8b 3a 7d a5 cd ba
       0.0057667512 0.0063826726 0.0010611638 -0.0015689578
0000d0 4d eb 97 bb 93 9f 7f bb 4f 31 8a bb d5 19 5d bb
       -0.0046362043 -0.0039005026 -0.004217304 -0.003373732
0000e0 63 5a c1 3a d2 31 fd 3a c5 a9 0c 3b 7a 8f 7e 3a
       0.0014751669 0.0019317216 0.0021463495 0.0009710711
0000f0 38 b4 85 bb da b0 86 bb 29 db ba bb 95 41 8f 3a
       -0.0040803216 -0.004110438 -0.0057023955 0.0010929579
000100 9e dc c6 bb 89 40 c5 3b 48 dd a6 3b 6a ec a0 3b
       -0.00606878 0.006019656 0.0050922967 0.0049109953
000110 99 da 82 3b 7a ff 85 3b 9c fb bb 3b c6 bc 87 3b
       0.003993344 0.004089293 0.0057367813 0.0041423766
000120 94 53 a5 bb b9 12 09 bc 61 9f ca 3b dd 6d be 3b
       -0.0050453637 -0.00836628 0.00618355 0.0058114366
000130 b9 02 06 3b 22 bc 1c bb aa 2e 9d ba 16 04 7c bb
       0.00204484 -0.0023915847 -0.0011992056 -0.0038454584
000140 ce 0b 8e 3a db 88 65 bb 44 5f 2d bb 85 cc b5 bb
       0.0010837258 -0.00350242 -0.0026454488 -0.0055480623
000150 3e 7e d3 bb f8 34 c5 3b d5 eb 3f bb 69 c1 7c bb
       -0.006454258 0.0060182773 -0.0029284854 -0.003856743
000160 6c c8 6a 3b 7c ca 9a 3b 08 5b 98 ba c5 34 72 3b
       0.0035825027 0.004723845 -0.0011623809 0.0036957723
000170 10 fe a1 bb 19 fd ad 3b 5f 2f d5 bb 54 c5 fb ba
       -0.0049436167 0.0053097126 -0.006505891 -0.0019208589
000180 35 96 cb bb d5 a7 a0 3b e1 9c 45 3b 29 cf a5 3b
       -0.0062129744 0.0049028196 0.0030153322 0.005060096
000190 6d 5a 61 3b 4a 89 d3 bb a4 07 90 bb 5f b5 d6 bb
       0.0034386173 -0.006455575 -0.004395442 -0.006552383
0001a0 37 78 8c 3b d7 e3 98 bb 98 bb cd 3b bc 50 3e bb
       0.0042867917 -0.0046658325 0.0062784664 -0.002903982
0001b0 e5 73 a4 bb a5 43 b2 bb 70 53 6e ba f8 d4 ae bb
       -0.0050186985 -0.0054401928 -0.00090914126 -0.0053354464
0001c0 f9 38 95 3b 32 af df 3a 3f c8 c7 bb d8 05 a7 3b
       0.004553911 0.0017065762 -0.0060968692 0.005097132
0001d0 79 51 ae bb 75 59 e5 3b 0a 1e c8 bb ca 19 6d bb
       -0.005319771 0.0069991895 -0.0061070966 -0.0036178702
0001e0 03 af 96 3b e7 b5 c0 bb 33 3d c7 bb 4a 46 b3 3a
       0.0045984997 -0.0058810594 -0.0060802936 0.0013677564
0001f0 f2 57 a1 3b 9f 89 dc 3b 17 b0 2d 3b 21 98 a4 3b
       0.004923814 0.006730273 0.0026502663 0.005023018
000200 cd a0 71 bb 3b db 9c bb 19 fa f2 bb 18 0e 7d 3b
       -0.0036869526 -0.0047868765 -0.007415068 0.0038613137
000210 af d1 83 3b 52 2f 9c 3b 6f 28 a3 bb ae b3 aa bb
       0.004022799 0.004766383 -0.0049791853 -0.005209408
000220 ab 38 bb bb ff 06 c4 bb 4f 60 a1 3b 23 e5 8e 3b
       -0.0057135425 -0.0059822793 0.004924811 0.0043608113
000230 2e ba a8 b9 c1 a4 a6 3b b3 ff 96 bb db e3 3f bb
       -0.00032182172 0.005085558 -0.0046081184 -0.00292801
000240 55 f7 aa 3b 48 e1 d3 3b 26 f9 be bb 04 b9 91 3b
       0.0052174726 0.0064660646 -0.0058280407 0.0044471044
000250 bc b9 b5 bb 26 db dd 3b 40 6e 97 3b 49 ca a4 3b
       -0.005545823 0.0067705093 0.004621297 0.005028997
000260 b0 3d a6 3b 6c 96 77 bb d8 bc 8a 3b 2e 86 b4 39
       0.0050732717 -0.0037778867 0.0042339377 0.00034432247
000270 aa 1a 52 bb 25 bd 95 3b 01 32 b0 bb c6 98 23 3b
       -0.003205935 0.004569667 -0.0053770547 0.0024962886
000280 54 d0 bb bb 75 e4 b8 3b c0 c7 fa 3a 93 05 8f 3b
       -0.0057316218 0.0056424686 0.0019133016 0.004364678
000290 86 13 86 3b 66 c2 ad 3b 47 7e 94 3b b3 82 b0 3b
       0.004091683 0.005302715 0.004531655 0.0053866743
0002a0 37 ed 8f ba 2d c0 92 3b 11 3b 9f bb 51 e6 b5 3b
       -0.001098073 0.0044784755 -0.004859336 0.0055511375
0002b0 28 18 c7 3b 3c 7b cb bb 68 31 0e bb 94 c1 b1 3b
       0.0060758777 -0.006209759 -0.002169693 0.0054246876
0002c0 3c e1 ca bb eb 9e 88 3b 5b e4 f8 bb 5b 24 f7 ba
       -0.006191401 0.004169335 -0.0075955815 -0.0018855439
0002d0 64 cd b4 3b 7e 1a 87 3b 29 b3 df bb 95 e9 e4 bb
       0.0055176485 0.004123031 -0.0068267775 -0.006985853
0002e0 cf 29 df bb 65 b8 8b 3b f7 53 bd bb 34 35 6d 3b
       -0.006810404 0.004263925 -0.0057778317 0.0036195042
0002f0 7d 72 18 3b 2e 2f 60 b9 81 80 15 bb a7 43 c5 3b
       0.00232616 -0.0002137988 -0.002281219 0.0060200277
000300 41 ee a9 3b 85 af c2 bb d5 5e f7 bb 73 33 95 bb
       0.005185873 -0.0059413337 -0.0075491467 -0.0045532524
000310 65 3a e5 3a ef 97 a5 3b 4a 6c a4 bb 69 96 d5 bb
       0.0017488716 0.0050535123 -0.005017792 -0.0065181744
000320 16 b7 5c bb 1c f8 6e bb 31 6c aa 3b d7 74 6e bb
       -0.0033678464 -0.0036463803 0.0052008857 -0.003638556
000330 86 3c f4 b8 ec e1 37 bb 06 45 a7 3b a1 85 50 bb
       -0.000116461 -0.0028058244 0.005104664 -0.003181793
000340 64 72 99 3b 2c df 90 3b c8 96 9c bb 4d dd 01 bb
       0.004682826 0.0044211354 -0.0047787167 -0.0019815743
000350 25 ea b5 3b 33 2f b8 3b 70 de ca 3b 22 27 97 3b
       0.005551594 0.005620861 0.0061910674 0.0046128193
000360 dd 96 d8 3b 1c bd 9d 3b ae a4 83 bb ab fb 97 3b
       0.006609781 0.0048138034 -0.004017434 0.0046381555
000370 02 f5 bc 3b 33 4a 98 3b 54 f2 9e 3b 6e 3a a2 bb
       0.005766512 0.004647517 0.004850665 -0.004950813
000380 a5 51 a8 3b a2 89 b0 3b 92 9f 65 3b aa 0c 84 3b
       0.005136686 0.005387501 0.0035037738 0.00402983
000390 16 0f a6 bb 6f e0 c6 bb 2c 77 8a bb bf 08 b1 bb
       -0.0050677164 -0.006069235 -0.004225632 -0.005402654
0003a0 08 b6 c4 bb bf 28 a6 bb e7 5e 14 bb bf 3f b9 bb
       -0.006003145 -0.0050707753 -0.0022639574 -0.005653351
0003b0 9d da a6 bb f7 b7 b0 3b fd 46 82 3b 95 31 cb 3b
       -0.0050919787 0.005393024 0.0039757476 0.006200979
0003c0 da 1e bd 3b be 3f 01 b8 1f f4 83 3b d3 55 b0 bb
       0.0057715 -3.081536e-05 0.0040269042 -0.005381325
0003d0 1e 80 7c bb 0e ec d2 bb d0 45 a8 bb 92 8d 9f 3b
       -0.0038528512 -0.0064368313 -0.0051352754 0.0048691714
0003e0 05 e6 b8 bb 2b aa 9e 3b 41 7c a4 3b e1 7a 48 3b
       -0.005642655 0.004842063 0.005019695 0.003059082
0003f0 4e ce 23 bb 99 75 cb 3b 17 2f b0 ba ca 88 a7 bb
       -0.0024994793 0.006209087 -0.0013441768 -0.005112742

action_model._continuous_distribution.log_sigma f4 [1, 3]
000000 9e 55 4e 3b de 64 95 bb ee 0a 49 3b
       0.0031484137 -0.0045591434 0.003067668

action_model._continuous_distribution.mu.weight f4 [3, 256]
000000 f3 b8 34 ba 57 fb da 3a ab a9 5a 3c b5 77 c4 3b
       -0.00068940147 0.0016706985 0.013346116 0.0059957155
000010 1d 62 9f 3b ba 8c 73 bb 08 2f fc 3b 77 f5 77 bc
       0.004863991 -0.0037162737 0.0076960362 -0.015134207
000020 99 09 80 3c da 31 b3 3b d9 95 73 bc f1 da 12 3d
       0.015629577 0.0054685893 -0.014867269 0.03585333
000030 62 ea 48 3c 13 e7 1c bc 71 29 ac 3c 5d 8c bd bb
       0.0122629125 -0.009576577 0.021015855 -0.005784555
000040 c4 90 69 3b 8c 71 67 bc bc 66 82 bb 52 9a 04 bb
       0.0035639266 -0.014126193 -0.003979532 -0.0020233584
000050 3a 95 e3 bb 73 35 cd bc b5 6e 5a 3c 7f 71 00 bd
       -0.0069452794 -0.0250499 0.013332059 -0.03135824
000060 90 57 b7 3b 31 8c 2d bc a9 66 2e 3b ee 73 08 3c
       0.005595155 -0.010592506 0.0026611483 0.008328421
000070 96 a9 47 bc 11 85 60 bb 85 a5 13 3c 00 0e 43 bc
       -0.0121864285 -0.0034259001 0.009011631 -0.011905193
000080 d6 16 8b b9 c9 b8 20 3c d0 48 8a bc 3e 76 89 3c
       -0.0002652916 0.009809681 -0.016880423 0.016780015
000090 65 6a 71 bb 0f 48 d7 bc 28 62 ec 3c e7 2e 0c bb
       -0.0036837098 -0.026279477 0.028855398 -0.002139026
0000a0 58 89 88 3c 62 de c1 3c 61 15 70 3c f3 70 91 bb
       0.016667053 0.02366561 0.014653535 -0.0044385134
0000b0 4d 94 8c bc 4a bb b8 bc e1 0a 28 3c d5 ea e5 3b
       -0.01716056 -0.022550244 0.0102565 0.0070165196
0000c0 ef b0 c5 3c 00 1f e5 3c cd 4f 38 3b 0e 26 ce 3b
       0.02413222 0.027968884 0.0028123737 0.0062911576
0000d0 0a bb 4a 3b 5b 43 7c 3b 37 a8 24 3b 51 de ed bb
       0.0030934238 0.0038492295 0.0025124678 -0.007259168
0000e0 4c 5b 59 3b fd be a2 bc 31 d4 58 bc 45 b5 6b bc
       0.003316599 -0.019866461 -0.013234184 -0.01438648
0000f0 bc de c1 bb 70 40 f3 bb 66 ed 33 bc ad a0 88 bb
       -0.0059164446 -0.007423453 -0.010981893 -0.0041695447
000100 ef ee e9 bb c9 7d c9 3b a7 59 af 3b ad 04 28 3b
       -0.007139079 0.006149028 0.0053512636 0.0025637553
000110 60 f5 51 bb ad 50 f0 bb 8e cd 8f 3c 51 e1 64 3c
       -0.0032037124 -0.007333836 0.01755407 0.013969735
000120 bf bf 27 bc e5 06 8b ba 24 d0 0c 3b cd ec 08 3d
       -0.010238587 -0.0010606913 0.0021486366 0.033428956
000130 39 cb 1d 3c c5 23 21 3b 87 97 0b bc 5c b5 b0 bb
       0.009630972 0.002458797 -0.008520014 -0.0053927135
000140 9a 75 68 3c 4f 62 8d 3b b4 55 01 bc fc b9 61 bb
       0.014188195 0.004314698 -0.007893968 -0.003444313
000150 68 2e ba bb 80 63 d0 3b 78 4d cc ba ba 3a ce bb
       -0.0056818016 0.0063595176 -0.0015587052 -0.006293622
000160 2d 4f e2 bb c7 29 0a 3c 17 38 ff 3b c6 93 f5 b9
       -0.006906411 0.008432812 0.007788669 -0.0004684014
000170 45 e7 9f bb e0 42 b3 3c 63 68 42 bb 0d ec 6e 3c
       -0.0048798644 0.021882474 -0.002966427 0.014582646
000180 89 96 79 bb 27 f1 61 3c a3 2c 2d bb 18 f4 cb 3b
       -0.003808411 0.013790405 -0.002642431 0.0062241666
000190 9b 15 c1 3b 7b c9 cf bc dd 83 b2 3b 4e b6 cf bc
       0.005892468 -0.025364628 0.0054478482 -0.025355484
0001a0 ab 14 c1 3a e9 9c 78 39 39 ac ac 3c 1e 60 e8 3b
       0.0014730891 0.00023709577 0.021078216 0.007091536
0001b0 f8 f7 5e bc f6 46 2d b9 5b 07 c1 bc ec 36 0d bc
       -0.013608925 -0.00016525 -0.023563078 -0.008619051
0001c0 64 1d d5 bb 05 68 70 bc 08 b4 88 bc 37 77 83 3c
       -0.006503748 -0.014673238 -0.016687408 0.016048057
0001d0 15 86 3e bc 4d e7 6a 3c c2 05 87 bc 0b dd 92 3c
       -0.011628647 0.014337373 -0.016482238 0.017927667
0001e0 9d 85 89 3b 8b 53 fc bb be cc bc bc f6 dd 2c bc
       0.004196836 -0.007700389 -0.023046847 -0.0105509665
0001f0 9e c8 f1 39 dd f5 a4 3c b1 3b 08 3c 06 df 5c 3c
       0.00046116574 0.020136768 0.008315013 0.013480907
000200 86 b6 bb bc 7e b7 18 bc d5 24 7f bc 35 59 7c 3a
       -0.022914182 -0.009321092 -0.015572746 0.000962633
000210 fd 4b 1f bb 8d 84 dc 3b 53 05 c8 38 e2 40 ba ba
       -0.0024306767 0.0067296685 9.537735e-05 -0.001421001
000220 2c 39 f9 bc 04 cd 20 bc 10 bb 80 3c 72 79 47 3c
       -0.03042277 -0.0098145045 0.015714198 0.012174951
000230 de f9 36 bb 7d 65 6b 3c 1e 4f 9f 3a 69 44 e2 ba
       -0.0027919929 0.014367458 0.0012154316 -0.001726282
000240 67 b0 58 bb 3e ac cb 3c a2 bc 2d bc de 95 68 3b
       -0.0033064128 0.024862405 -0.010604056 0.0035489718
000250 d5 63 16 3b e7 d2 9f 3c 73 2a 98 3b 40 28 df 3b
       0.0022947688 0.019509746 0.004643732 0.006810218
000260 e6 89 9d 3c c5 7b 0a 3c 10 69 c0 3c bf 53 91 3b
       0.019230794 0.0084523605 0.023487598 0.004435032
000270 9a b3 ab bc 7d e1 2c 3c 49 bb 53 bc 39 76 89 3a
       -0.020959664 0.0105518075 -0.01292307 0.0010487504
000280 ae cf 04 bc a2 a3 81 3b 74 de 0a 3b f9 d4 55 3b
       -0.008106155 0.003956274 0.0021189721 0.0032628162
000290 e3 95 7f 3b 2a f5 8c 3c b2 07 83 3b 2b bf eb 3b
       0.0038999252 0.017206747 0.00399872 0.00719442
0002a0 1e 1f 5c 3c a8 a7 8a 3c f6 32 f9 bb b4 cd 33 3c
       0.013435153 0.016925648 -0.007604952 0.010974336
0002b0 3d 13 15 3d 6a ec 36 bc 18 00 8c bc f2 44 50 3c
       0.0363953 -0.011164764 -0.017089888 0.01271175
0002c0 b1 43 8a bb a2 55 12 bb 70 92 21 bc 18 6f e7 3a
       -0.004219495 -0.0022328873 -0.009861574 0.001765701
0002d0 c9 43 87 3c 8d 6a 6e 3b 2c 0a 0c bd b8 88 53 bc
       0.016511815 0.0036379427 -0.03418939 -0.012911014
0002e0 21 e0 98 bc 9e 42 03 3b 45 a9 1e bb 8b 54 32 3b
       -0.01866156 0.002002872 -0.002420978 0.0027211036
0002f0 b0 a2 57 bc 02 ba b4 3b cb 0f 14 3c 1a ee 07 3c
       -0.013161346 0.005515338 0.009036968 0.008296514
000300 3b 05 d4 3b eb 6f a0 bc 0e 1c 7b bc 26 18 c8 bb
       0.00647035 -0.019584617 -0.015326513 -0.0061063943
000310 96 3a 43 bc f6 2c ed 3b 14 36 13 bc 7a 69 3c bc
       -0.011915823 0.007238026 -0.008985061 -0.011499757
000320 a5 88 61 39 ac eb 48 3c 3b 52 c9 3c 3d 46 1f bc
       0.00021508576 0.01226322 0.024575343 -0.009721336
000330 16 82 ad b9 f8 55 c7 38 2b 9b b7 3c f9 57 4c bb
       -0.00033094053 9.5050724e-05 0.022412857 -0.0031180365
000340 46 34 86 3b 4f a6 bd bb b4 d8 53 3b ec 95 d4 bb
       0.004095587 -0.005787648 0.003232521 -0.0064875986
000350 ac b6 42 3c df 01 9f 3c 27 d5 ad 3c dd 19 75 3c
       0.011884373 0.019410072 0.021219803 0.01495978
000360 57 bf 12 3d 4f 06 fd 39 20 63 4d 3c 90 ed f4 3b
       0.035827007 0.0004826062 0.01253584 0.0074746087
000370 7a 05 02 3b ab 15 3e 3c 10 86 3c 3c 54 c7 9f b9
       0.001983969 0.011601846 0.011506572 -0.00030475354
000380 ac 48 33 3c e0 89 2d 3c 94 64 6d bc 51 bd 62 bb
       0.010942619 0.010591954 -0.014489312 -0.0034597705
000390 88 06 3f bc da 37 a2 bc fd 00 99 3b db 0d a1 3b
       -0.011659272 -0.019802023 0.0046693073 0.004914982
0003a0 4c 3b 13 bd 46 59 7e bc 08 3f 8e 3c f3 4f 72 bc
       -0.03594522 -0.015524214 0.01736404 -0.014789569
0003b0 c0 88 8b bc 57 be dd 3b 89 dd 99 3a 23 e7 1b 3c
       -0.01703298 0.006767075 0.0011738996 0.0095155565
0003c0 75 23 6c 3c cf b7 a3 3c e6 a0 5e bb ba df d7 bb
       0.0144127505 0.019985108 -0.0033970415 -0.0065879496
0003d0 8a d9 1e 3b e0 39 97 bc 63 9c 75 bb 21 08 3d 3c
       0.002423855 -0.018460214 -0.0037477247 0.011537583
0003e0 82 e8 4c bb a2 03 3e 3b d5 9f b9 3c 1d f6 20 bc
       -0.0031266515 0.0028993865 0.022659222 -0.009824303
0003f0 6e d8 4a bb 27 dd 71 3c 01 e8 9b 3c c3 8d 64 bb
       -0.0030951756 0.0147621995 0.019031527 -0.0034874536

action_model._continuous_distribution.mu.bias f4 [3]
000000 ab 3d d1 3b 7e 2a 96 3b 2b 37 9c 3b
       0.006385525 0.004582702 0.0047673187

action_model._discrete_distribution.branches.0.weight f4 [7, 256]
000000 4f 50 33 bb e2 e1 97 3b ea 21 06 3c 3e 2b 43 bc
       -0.00273611 0.0046350816 0.008186797 -0.011912165
000010 1a 34 0e bb 80 00 73 3c d3 bb 37 3a 12 f5 c8 bb
       -0.0021698535 0.014831662 0.0007008884 -0.0061327303
000020 e1 f0 ac bb 42 f0 38 bc 81 3d d5 3b 51 2f 3b 3c
       -0.0052777384 -0.011287751 0.006507576 0.011424855
000030 47 3f 6e bc 92 ad 6c bb 97 d7 a6 bb bf af 4c ba
       -0.014541454 -0.0036114198 -0.0050916183 -0.00078081706
000040 80 2d 0e 3c 6c 41 ee 3a ba a7 19 ba 41 b6 f3 bb
       0.00867784 0.0018177456 -0.000586148 -0.007437498
000050 09 ad 01 bc 68 f9 a0 bb 1a 75 1d 3b a2 d2 42 3c
       -0.00791479 -0.004912544 0.0024026097 0.011891039
000060 02 12 47 bb a5 ce b3 3b c3 b7 d7 bb dc 27 65 bc
       -0.0030375724 0.0054872804 -0.0065831854 -0.013986554
000070 50 d3 db b6 e6 b9 b9 3b e6 a5 42 bc 4c b7 9e ba
       -6.5513086e-06 0.005667913 -0.011880374 -0.001210907
000080 78 12 da ba 88 4e 0e 3c 8e b1 80 3a 66 64 5c bb
       -0.0016637584 0.0086857155 0.000981854 -0.0033629178
000090 94 73 18 bc 5a 9e 3d 3c f4 65 83 3c 9e 7c 92 3b
       -0.0093049 0.0115733985 0.016039826 0.004470422
0000a0 07 60 13 bb 80 47 8c bb 04 90 84 3b c8 2e 25 bb
       -0.0022487657 -0.0042809844 0.0040454883 -0.0025204886
0000b0 b3 6c 7d ba 88 dc 1b 3b 2e 1f 1b 3c c0 84 4b bc
       -0.00096673815 0.002378257 0.009467883 -0.012421787
0000c0 8c 92 50 ba bb 04 32 bc 3e 48 91 ba 8a d0 df 3b
       -0.00079564075 -0.010865386 -0.0011084152 0.0068302797
0000d0 00 4d 5a bb 64 70 f5 3b e7 d1 0f 3b bd 6d ab bb
       -0.0033310056 0.0074902046 0.002194518 -0.0052315877
0000e0 59 e0 b2 ba ff b2 81 3b 78 a6 fc bb 0c 41 32 ba
       -0.0013647183 0.0039581056 -0.0077102743 -0.0006799854
0000f0 61 67 8b 3a 3b dd 97 bb bf 06 37 3c 43 2d 88 39
       0.0010635668 -0.004634527 0.011171042 0.00025973664
000100 0a b7 9c 3b b1 bd dc bb cd 0c ae 3b 45 24 e9 3b
       0.004782562 -0.00673648 0.0053115846 0.0071149194
000110 3d b7 c2 ba 2b 89 43 bb 30 e7 80 39 92 10 09 3c
       -0.0014855635 -0.0029836397 0.0002458631 0.008365767
000120 b0 de 5e bc 2a 59 da ba ba c8 c7 ba 0f a5 21 3c
       -0.0136028975 -0.0016658653 -0.0015242316 0.009866013
000130 ae e5 46 3b 18 e4 35 3c a9 a0 9a 3b c2 7e 89 ba
       0.0030349302 0.011101745 0.004718859 -0.0010490047
000140 43 58 02 3b 41 c8 39 bc 28 9d a6 ba a4 af 07 3c
       0.0019889034 -0.011339248 -0.0012711631 0.008281622
000150 76 20 f8 bb 85 62 60 ba 0e 4e cd 3b 18 40 d3 3b
       -0.007572229 -0.00085596024 0.0062654084 0.0064468496
000160 6b 34 b9 3a 02 99 3d bc 8c 7c a7 ba ce d2 2b 3c
       0.0014130002 -0.011572124 -0.0012778207 0.0104872715
000170 6c e9 24 bb dc 79 08 bc 14 39 d5 3b 6a 4a 5d 3c
       -0.0025163544 -0.008329835 0.0065070484 0.013506511
000180 af 2c 29 bc 5c 78 1c 3a 3e 9e 55 3b eb 3b 11 bc
       -0.010325595 0.00059688627 0.003259554 -0.008864383
000190 65 72 80 3c 20 2d 7c 3b a6 64 0d 3c 24 05 4d bc
       0.015679548 0.0038479045 0.0086299535 -0.012513433
0001a0 73 39 d3 ba 42 65 d2 3b 40 3d 57 bb 34 12 c0 bb
       -0.0016115144 0.0064207623 -0.0032842904 -0.005861545
0001b0 91 4b b4 bc 05 6d e0 bb 9e b1 65 bc 26 35 ad bb
       -0.02200869 -0.0068489336 -0.014019398 -0.005285877
0001c0 9b b1 1f bc b5 97 22 3c 6d 04 e5 3a 3a a4 94 3b
       -0.009746934 0.009923865 0.0017472632 0.004536179
0001d0 b2 a1 72 bb 66 ae b8 ba ce 22 48 3a d7 27 97 3a
       -0.0037022647 -0.0014090061 0.0007634581 0.0011532259
0001e0 09 17 99 b9 c5 53 2e bc 6b 05 48 3c 5b 8b bc 3b
       -0.00029199597 -0.010640089 0.012208323 0.005753917
0001f0 d4 a5 d6 3a 9d 69 9b bb a3 50 6e bb b4 63 9d 3b
       0.0016376325 -0.0047428147 -0.0036363981 0.0048031453
000200 51 c1 16 3c 49 61 fa bb 90 0d ed 3b 53 10 07 3c
       0.009201364 -0.007640992 0.007234283 0.008243638
000210 37 e0 12 3c 1f 87 09 bc 26 99 77 3c 5f 16 b4 3b
       0.00896459 -0.008394032 0.015112197 0.005495831
000220 b4 2d 3b 3c d9 a7 eb 3a 14 01 c6 bb 9f 3b bb 3a
       0.011424471 0.00179791 -0.006042609 0.0014284736
000230 1d be f8 bb 98 9f 14 3c 69 66 c4 3b c8 59 0c ba
       -0.0075910226 0.009071253 0.0059936536 -0.00053539546
000240 0f b9 b8 3b 3c ff 4d bc 02 63 71 3b 27 4e af 3b
       0.005637295 -0.01257306 0.0036832695 0.0053498927
000250 e3 1d 5a 39 44 79 cd 3b cd 87 50 3b bd a8 d7 bb
       0.00020801234 0.0062705595 0.0031819225 -0.0065813945
000260 4c 2e 9f 3b 5d f3 1d 3a 5d 30 b3 bb c0 68 e0 bb
       0.004857814 0.00060253387 -0.005468412 -0.0068484247
000270 bc e3 dd bb 79 98 1e bb 59 9c a7 ba c0 d0 16 b8
       -0.006771533 -0.0024199768 -0.0012787684 -3.59572e-05
000280 b6 29 8c 3c da 21 b6 3b 2b 04 9d bb 7e 7c de bb
       0.017109733 0.0055582346 -0.0047917566 -0.006789743
000290 8e 49 d1 bb 3f 15 9b bc 99 ae 0e 3b 44 53 5c 3b
       -0.006386942 -0.01893103 0.0021771549 0.0033618966
0002a0 c7 91 83 3c 13 44 b5 bb 0b 14 01 3c 2f 06 8a bb
       0.016060723 -0.0055317967 0.007878314 -0.004212163
0002b0 87 ce f8 3b 68 3a 56 3c a8 be 6d bc 8c bf 28 3b
       0.0075929794 0.013075449 -0.014510788 0.0025748936
0002c0 0e 28 de 3b 3a a5 4b bb 53 85 12 3b e1 4b 87 3b
       0.0067796772 -0.0031073825 0.00223573 0.0041289185
0002d0 69 4e 1e 3c fa 0c 5d 3c 26 17 89 3c ae 01 8d 3b
       0.009662249 0.013491863 0.01673467 0.0043031787
0002e0 75 5c 01 3c 8c b4 5e 3a fe 39 59 3b 0d 6d ab bb
       0.007895579 0.00084955315 0.0033146138 -0.0052315057
0002f0 7c 1d b8 3a f1 68 d9 bb a0 07 b4 38 b9 54 81 3c
       0.0014046873 -0.0066348244 8.584489e-05 0.01578747
000300 e9 b1 af bb c7 cd 87 3c 57 d5 9c bb 1f e9 96 bb
       -0.0053617847 0.016577614 -0.0047861743 -0.004605427
000310 46 6a 25 ba 4b 65 56 bb 10 49 00 bb 41 8d 5a 3b
       -0.00063100865 -0.0032714184 -0.0019574799 0.0033348354
000320 23 8a 91 bb 5c 72 84 3b 91 e3 4e 3c c0 7e ca 3b
       -0.004441516 0.004041953 0.012627498 0.0061796606
000330 2f de e9 bb e4 b0 8f b9 00 87 a0 39 e1 4b b3 3b
       -0.007137082 -0.0002740688 0.0003061816 0.005471692
000340 d1 45 91 3c 4f 9f c9 bb 3d 63 50 3b df 1a f9 3b
       0.017733486 -0.0061530243 0.0031797432 0.0076020802
000350 95 b3 04 3c 07 46 26 bb 07 52 b3 3a 75 d1 65 3b
       0.008099456 -0.002537133 0.0013681062 0.0035067473
000360 3f c5 a5 ba db 5f ab 3b 4c 59 85 3b ea 27 3a 3b
       -0.0012647285 0.0052299327 0.004069483 0.0028405138
000370 24 ad 54 3b 29 2a f5 39 36 fa e5 3b f5 26 40 3c
       0.0032451833 0.00046761453 0.007018353 0.011728038
000380 90 75 d1 bb 76 7e f0 bb bc 2e c9 3b 99 9c b4 3a
       -0.0063921884 -0.007339294 0.0061396044 0.001377958
000390 0e 51 7d bc f8 c1 b0 3b 5c b3 8c bb 01 1a 71 bb
       -0.0154612195 0.0053942166 -0.0042938422 -0.0036789181
0003a0 04 86 4a 3c 59 47 41 3b 44 54 a0 ba 7b ad ee 3b
       0.012361053 0.002949199 -0.0012232144 0.007283864
0003b0 e6 eb fa 3b bd d8 9a 3a f2 01 e9 3b 80 36 e9 ba
       0.007657516 0.0011813861 0.0071108276 -0.0017792732
0003c0 79 73 b0 3a c5 0c 45 3a 39 d8 f5 3b a1 de 24 3b
       0.0013462148 0.00075168564 0.0075025824 0.0025157111
0003d0 11 81 d7 bb 9c dc 2a bb 83 5e aa bc e4 3f 8e 3a
       -0.006576665 -0.0026071435 -0.02079702 0.0010852781
0003e0 a2 d0 89 3b 4d ea 92 3b 83 bc 1d bb 89 67 16 3c
       0.004205779 0.0044834972 -0.002406866 0.009179958
0003f0 9a 81 08 bc 8c a2 7b bc 99 31 1f bc b2 20 a1 3b
       -0.008331681 -0.015358578 -0.009716415 0.0049172277

action_model._discrete_distribution.branches.0.bias f4 [7]
000000 da e7 3f 3a 90 e7 a3 3b dd 5c 74 ba b0 b5 ad bb
       0.00073206204 0.0050019696 -0.0009321699 -0.0053012
000010 86 eb b6 bb 00 fa c8 3b 0f 07 e2 ba
       -0.005582276 0.006133318 -0.0017244535

onnx::Div_70 f4 [36]
000000 1b 09 6e 41 47 b0 92 3d 39 33 54 41 3e a7 9d 3b
       14.877223 0.071625285 13.262506 0.0048111966
000010 ff 04 8e 3e 3e a7 9d 3b 39 9c b0 41 42 04 c1 3b
       0.27738187 0.0048111966 22.07628 0.0058904
000020 cb f6 9e 41 3e a7 9d 3b b7 3f 92 3e 3e a7 9d 3b
       19.870504 0.0048111966 0.28564236 0.0048111966
000030 15 77 90 3c f9 46 9e 3c 3e a7 9d 3b 3e a7 9d 3b
       0.017634908 0.019320952 0.0048111966 0.0048111966
000040 3e a7 9d 3b 83 f4 de 3b 3e a7 9d 3b 72 26 a1 3b
       0.0048111966 0.0068040504 0.0048111966 0.004917913
000050 3e a7 9d 3b 18 ad a8 3b ea ba 3a 3f 33 43 9e 3b
       0.0048111966 0.0051475875 0.7294146 0.004829788
000060 19 8d 2e 3f 1d d4 93 3e 2c fb 76 3e d8 fb 76 3e
       0.6818405 0.28872767 0.24119252 0.24119508
000070 7a 85 8a 3e 2b 85 8a 3e 3e a7 9d 3b e5 f7 34 3f
       0.2705496 0.27054724 0.0048111966 0.7069076
000080 5d 95 91 3e da 3c 32 3f ff b0 92 3d b4 ad 3f 41
       0.28434268 0.696241 0.071626656 11.979908
