results/test8/BoxingAgent.onnx (onnx, 409187 bytes, 13 tensors)

network_body.observation_encoder.processors.0.normalizer.running_mean f4 [84]
0.0 0.6882313 0.2617283 0.70419306 0.0 0.69686097 0.25674734 0.70425874
0.0 0.68272907 0.2660721 0.705489 0.0 0.70856017 0.2495656 0.7045548
0.0 0.6764161 0.27145836 0.7073611 0.0 0.718464 0.24365805 0.7046637
0.0 0.67508394 0.27510715 0.71021324 0.0 0.72066486 0.2418047 0.7034571
0.0 0.6724197 0.2745859 0.71156985 0.0 0.7251245 0.23838761 0.7034204
0.0 0.67010313 0.2722113 0.7121068 0.0 0.7247771 0.23780838 0.70397276
0.0 0.6669177 0.27099502 0.71395487 0.0 0.72199696 0.23943008 0.7043014
0.0 0.66153127 0.27418047 0.71691686 0.0 0.72031736 0.23948804 0.704538
0.0 0.656898 0.27806088 0.72021735 0.0 0.72112834 0.23948802 0.7054118
0.0 0.65406007 0.28367895 0.7253288 0.0 0.7258196 0.23508629 0.70534337
0.0 0.6487316 0.29213482 0.7306385
00000000: 0000 0000 ed2f 303f 4001 863e ff45 343f
00000010: 0000 0000 7b65 323f 6374 833e 4d4a 343f
00000020: 0000 0000 55c7 2e3f 9a3a 883e ed9a 343f
00000030: 0000 0000 3364 353f 208e 7f3e b45d 343f
00000040: 0000 0000 9b29 2d3f 97fc 8a3e 9e15 353f
00000050: 0000 0000 42ed 373f 7f81 793e d764 343f
00000060: 0000 0000 4dd2 2c3f d8da 8c3e 89d0 353f
00000070: 0000 0000 7e7d 383f a79b 773e c415 343f
00000080: 0000 0000 b323 2c3f 8696 8c3e 7129 363f
00000090: 0000 0000 c2a1 393f e21b 743e 5c13 343f
000000a0: 0000 0000 e18b 2b3f 485f 8b3e a24c 363f
000000b0: 0000 0000 fe8a 393f 0a84 733e 8f37 343f
000000c0: 0000 0000 1ebb 2a3f dcbf 8a3e bfc5 363f
000000d0: 0000 0000 cbd4 383f 292d 753e 194d 343f
000000e0: 0000 0000 1d5a 293f 6261 8c3e dd87 373f
000000f0: 0000 0000 b866 383f 5a3c 753e 9a5c 343f
00000100: 0000 0000 782a 283f ff5d 8e3e 2a60 383f
00000110: 0000 0000 de9b 383f 593c 753e de95 343f
00000120: 0000 0000 7b70 273f 5e3e 913e 26af 393f
00000130: 0000 0000 50cf 393f 76ba 703e 6291 343f
00000140: 0000 0000 4613 263f b292 953e 200b 3b3f

network_body.observation_encoder.processors.2.normalizer.running_mean f4 [37]
1.2025437 14.843946 -15.823806 -4.0068818e-10 0.4992399 1.0167598e-09 -0.34181932 -0.000111596484
1.0626645 -5.061073e-09 0.4481986 -3.6073616e-10 0.8885962 0.9349531 0.013320978 0.30609292
0.5266998 0.98662114 0.28693384 1.0505328 0.022049116 -0.022837766 0.0 0.0015175117
-0.035201676 -1.5012818e-05 0.062346995 0.47751185 0.5425498 0.45739228 0.5223929 0.47754923
0.0009547124 0.6679023 0.5976581 -0.092429504 14.843946
00000000: f4ec 993f ce80 6d41 4f2e 7dc1 d947 dcaf
00000010: 5f9c ff3e 0ebe 8b30 f102 afbe e808 eab8
00000020: 6405 883f abe5 adb1 497a e53e 1a51 c6af
00000030: 0a7b 633f 1659 6f3f 3b40 5a3c 36b8 9c3e
00000040: ccd5 063f 3493 7c3f fee8 923e dc77 863f
00000050: 59a0 b43c 4416 bbbc 0000 0000 3ee7 c63a
00000060: a22f 10bd 90df 7bb7 905f 7f3d 6f7c f43e
00000070: 8be4 0a3f 522f ea3e 8bbb 053f 5581 f43e
00000080: aa45 7a3a a5fb 2a3f 1f00 193f ae4b bdbd
00000090: ce80 6d41

network_body._body_endoder.seq_layers.0.weight f4 [256, 121]
0.13175912 0.03201401 -0.046418674 -0.058283087 -0.016046008 -0.062108744 0.009882438 0.054342873
-0.043311942 0.09490608 -0.0054527894 0.029292073 0.024492769 -0.16317216 -0.002672666 0.16949156
-0.051968046 0.12736112 -0.09518082 -0.10968841 -0.08236623 0.040854033 -0.1017624 -0.006474816
0.10454058 -0.0068046474 0.020390414 0.16729727 0.0331161 0.08482263 -0.022573158 -0.09088467
-0.102485456 -0.02872639 -0.026399413 -0.028135315 0.0060283015 0.049409054 0.035477515 -0.20235077
0.2695549 0.09593896 -0.15434504 -0.088401295 -0.061912805 0.04323552 0.067440875 -0.020774024
-0.05765104 0.047857482 -0.019998485 0.05328466 0.11559295 0.10150727 0.10112963 -0.28517428
0.02935413 0.1070574 0.060421288 -0.13680658 -0.07028256 0.05291485 -0.11679826 -0.0048620156
0.12165155 0.06827133 0.27491894 -0.042003196 -0.29588374 0.14002456 -0.13636982 0.10578778
0.066897176 -0.036150362 -0.017750528 -0.035002157 0.0040131263 0.026638174 0.009386036 0.1518944
-0.01618968 -0.10249615 -0.10697799 0.00045657606 -0.07814358 -0.045722097 0.08320753 -0.04987914
0.006962069 -0.102332234 0.09437761 -0.07116733 -0.024943652 0.034968823 0.07689363 -0.050292645
-0.13261949 -0.013871213 0.09740677 0.049891125 -0.026963 -0.04686418 -0.11983136 -0.050189856
-0.039792005 -0.06600236 0.16356102 -0.090376 -0.093871176 0.022045009 -0.23088245 -0.02727429
0.021672135 -0.14658226 -0.072858974 0.0007174682 0.06962734 -0.07454184 0.14919943 0.14528209
0.011826471 -0.188239 0.11273184 -0.04939534 0.0042783464 0.0077026635 0.07388518 0.07463079
0.12975731 -0.012726187 -0.05377745 0.11621294 0.006683423 0.012189852 -0.17630218 -0.049367417
0.02863059 0.15501747 -0.16265018 0.101326995 0.039965674 -0.052643202 -0.011463738 -0.022614285
0.07588225 0.021142598 0.0830123 0.029373256 -0.02654945 -0.034431614 0.12083115 -0.12554377
-0.05713576 0.025853006 0.0993847 0.0039990796 0.07984282 -0.13687885 0.013949922 0.056274034
-0.104600504 0.042682894 -0.17695881 0.03849963 0.092200115 -0.050072227 -0.15822221 0.055943873
-0.0062204204 -0.054202847 -0.24248803 -0.022631716 0.032262783 0.0059149973 -0.18196642 -0.080348544
-0.08198434 -0.20115699 0.04410065 -0.031924553 -0.03061051 -0.015400301 -0.09468261 -0.19970016
0.034404393 -0.0745554 0.16832282 0.12958246 0.033269275 -0.0044475556 -0.18449894 -0.033982858
-0.009911455 0.18954575 0.118351944 0.0389936 -0.070207566 -0.07494881 -0.028270723 -0.0766208
0.14947447 -0.022419805 0.053310167 0.12191903 0.0677842 -0.070127465 0.06356141 -0.10253511
0.022963561 0.06465518 -0.31002945 0.0582134 -4.7337875e-05 -0.16085312 0.009634898 0.035856653
0.025966257 0.017903402 0.0980656 -0.014975721 0.15713906 0.027110688 0.12910898 -0.086694874
0.034603633 0.0046585905 0.013419633 0.013611566 0.064527094 0.03716409 0.045085378 -0.13755709
0.13027355 -0.053496357 0.111975804 -0.12967524 0.08871584 0.21632949 -0.0913798 0.04095026
-0.020488102 0.14678495 -0.07383642 -0.08275522 -0.111858 0.1166164 -0.01778992 0.025934886
-0.04137983 -0.023493558 -0.06267937 -0.030244578 0.021476204 0.04375791 0.030578863 0.07783487
00000000: ddeb 063e 1f21 033d 8221 3ebd 3fba 6ebd
00000010: eb72 83bc bd65 7ebd f3e9 213c a296 5e3d
00000020: dd67 31bd 1e5e c23d 50ad b2bb eef5 ef3c
00000030: 0fa5 c83c 9a16 27be e527 2fbb 328f 2d3e
00000040: 72dc 54bd f46a 023e 29ee c2bd 51a4 e0bd
00000050: a0af a8bd 8f56 273d ce68 d0bd b12a d4bb
00000060: 5f19 d63d 85f9 debb cc09 a73c fa4f 2b3e
00000070: bfa4 073d 7db7 ad3d 58eb b8bc be21 babd
00000080: e5e3 d1bd 9b53 ebbc 9543 d8bc 087c e6bc
00000090: 0f89 c53b 2661 4a3d df50 113d 0a35 4fbe
000000a0: 1a03 8a3e a57b c43d a00c 1ebe bd0b b5bd
000000b0: 4898 7dbd bb17 313d 711e 8a3d 492e aabc
000000c0: 7f23 6cbd 3506 443d ddd3 a3bc 0441 5a3d
000000d0: ffbb ec3d 0be3 cf3d 0d1d cf3d 5d02 92be
000000e0: 1378 f03c e940 db3d 507c 773d 0617 0cbe
000000f0: 4ef0 8fbd 3ebd 583d ed33 efbd 8b51 9fbb
00000100: 7324 f93d d7d1 8b3d 2dc2 8c3e 8b0b 2cbd
00000110: 137e 97be 9962 0f3e 88a4 0bbe 43a7 d83d
00000120: 6301 893d 6712 14bd 8e69 91bc 6c5e 0fbd
00000130: 8b80 833b 4d38 da3c e3c7 193c 358a 1b3e
00000140: 38a0 84bc 80e9 d1bd 4717 dbbd 9a60 ef39
00000150: be09 a0bd 1847 3bbd b668 aa3d 124e 4cbd
00000160: 1122 e43b 9093 d1bd 0c49 c13d 2dc0 91bd
00000170: a156 ccbc 783b 0f3d 687a 9d3d a9ff 4dbd
00000180: 67cd 07be 1644 63bc 337d c73d a35a 4c3d
00000190: 82e1 dcbc a8f4 3fbd 256a f5bd e193 4dbd
000001a0: f1fc 22bd 3f2c 87bd 8a7c 273e 0d17 b9bd
000001b0: 883f c0bd bc97 b43c 736c 6cbe 556e dfbc
000001c0: c389 b13c a919 16be 1637 95bd 7a14 3c3a
000001d0: c798 8e3d 64a9 98bd bcc7 183e d4c4 143e
000001e0: d1c3 413c b9c1 40be f3df e63d c552 4abd
000001f0: 5f31 8c3b a066 fc3b 1d51 973d 07d8 983d
00000200: 1adf 043e 7f81 50bc be45 5cbd 0d01 ee3d
00000210: 9e00 db3b f2b7 473c 8f88 34be 7d35 4abd
00000220: b38a ea3c e6bc 1e3e c58d 26be 8784 cf3d
00000230: 0cb3 233d 66a0 57bd 67d2 3bbc 9841 b9bc
00000240: 2768 9b3d 3e33 ad3c 5a02 aa3d 2fa0 f03c
00000250: 3b7e d9bc 2a08 0dbd 5276 f73d 8c8e 00be
00000260: 3007 6abd afc9 d33c 358a cb3d b60a 833b
00000270: a284 a33d f829 0cbe 378e 643c 9a7f 663d
00000280: ca38 d6bd 42d4 2e3d b134 35be cab1 1d3d
00000290: 6ad3 bc3d 8918 4dbd 0105 22be 6725 653d
000002a0: abd4 cbbb ce03 5ebd c84e 78be 2666 b9bc
000002b0: fb25 043d 98d2 c13b 6855 3abe c78d a4bd
000002c0: 68e7 a7bd 19fc 4dbe e2a2 343d 52c3 02bd
000002d0: e4c2 fabc 8b51 7cbc f5e8 c1bd 337e 4cbe
000002e0: 9feb 0c3d 80b0 98bd d15c 2c3e 44b1 043e
000002f0: 5d45 083d cdbc 91bb 4aed 3cbe 9c31 0bbd
00000300: a863 22bc 4818 423e 8162 f23d c1b7 1f3d
00000310: fcc8 8fbd c37e 99bd 0198 e7bc 5eeb 9cbd
00000320: d60f 193e bda9 b7bc c35b 5a3d afb0 f93d
00000330: 71d2 8a3d fd9e 8fbd 7c2c 823d eefd d1bd
00000340: 141e bc3c ef69 843d 2ebc 9ebe 2d71 6e3d
00000350: a88c 46b8 aeb6 24be b1db 1d3c 6dde 123d
00000360: 30b7 d43c 28aa 923c 9ed6 c83d ba5c 75bc
00000370: 10e9 203e 3c17 de3c 2535 043e 158d b1bd
00000380: 8abc 0d3d 17a7 983b 05de 5b3c 0c03 5f3c
00000390: c826 843d 5f39 183d 72ab 383d c4db 0cbe
000003a0: 6e66 053e ff1e 5bbd 9253 e53d 96c9 04be
000003b0: a6b0 b53d 7a85 5d3e 5525 bbbd 76bb 273d
000003c0: aad6 a7bc cb4e 163e 8d37 97bd 927b a9bd
000003d0: cf15 e5bd 94d4 ee3d 2bbc 91bc 6675 d43c
000003e0: e67d 29bd 9075 c0bc 0b5e 80bd 7ac3 f7bc
000003f0: ddee af3c 7f3b 333d 8680 fa3c e367 9f3d

network_body._body_endoder.seq_layers.0.bias f4 [256]
-0.0017631184 -0.0006587132 0.00039579652 0.0033020023 0.0043252255 0.0088529745 0.0038399703 0.0077389544
-0.007301524 0.007016523 0.0044615334 0.00067775056 0.0049973363 0.0051780893 -0.008007378 -0.0011196734
0.007283838 -0.0036286062 0.0067157587 -0.0033955176 0.0040890845 0.0065187626 0.007037649 0.0043611187
0.0025441898 0.005498918 0.00066839217 -0.004944293 0.0032574963 1.0551885e-06 0.004474744 0.0043662274
0.008358022 0.0044808155 0.006452917 0.0076211556 -0.0018629645 0.0067703864 -0.00083803287 0.0062329513
0.0036409157 0.009053893 0.0046743997 0.0045905565 0.007953058 0.0004523323 -0.006449585 0.002363222
0.0033491023 0.0040820423 0.002988558 -8.029422e-05 0.0055068075 0.008615131 0.008503382 -0.0039658872
0.0041976185 0.002217587 0.005874229 0.0037632512 0.008659226 -0.0021365194 0.008294423 -0.0040348307
0.007433231 7.369781e-05 0.003982152 -0.004244949 -0.005514684 -0.003595873 -0.0069780545 -0.001224583
-0.0040034535 -0.00091166503 0.001320221 0.002831481 0.008551106 -0.0069750687 0.0037686967 -0.0021024703
-0.005326201 0.006945889 0.007559591 0.0024884648 -0.004690081 0.0059183855 0.005822983 -0.0016845909
-0.003888489 -0.006916496 -0.0053440183 0.0057159397 0.0060125547 0.0054277703 0.0062711313 0.006434004
-0.00768148 -0.004628188 0.008963402 0.002000531 0.0017696663 0.005644106 -0.004000835 0.007042872
-0.004824391 0.0033472509 0.008822912 -0.0005654749 0.0076459832 0.0001868862 -0.00041829492 0.008678407
-0.0022435277 0.00620942 0.0057453434 0.006078056 -0.000341739 0.005206947 0.007988708 -0.004698533
0.0063679214 -0.0069965166 0.008492688 -0.004366958 0.002655862 0.0033738555 -0.007266478 0.0030225366
0.0029486942 0.0012021642 0.0035652404 0.0052785412 -0.0022163352 0.0062941792 0.005204243 0.002329484
0.0063704387 -0.0064364336 -0.0035421788 0.006102939 0.007876748 0.00042317557 -0.0065011266 0.005201381
-0.0020229295 -0.0043212594 0.0052133296 -0.0014064016 -0.0018096576 0.005915271 -0.0044397376 0.00819638
-0.007940363 -0.0015111017 0.0033384757 -0.00083302683 0.0045727254 0.0045112297 0.0077045527 0.0023384995
0.006116932 0.006009482 0.004810014 -0.001513943 0.006796395 0.0047488934 0.007984197 0.0046738973
0.0054113907 0.0026860689 -0.006006997 0.0029157933 0.007751358 -0.00787483 0.008078855 -0.0046080546
0.007664994 0.0071963733 0.007774594 -0.0014047535 0.0025590458 0.004175639 0.002660507 -0.0033320773
0.008455294 -0.0014320177 -0.0030772868 0.0041541914 0.0028004777 -0.0056252456 0.0063254177 0.0038057757
0.007296896 0.004479636 0.005761985 0.0069196816 0.0032098184 0.007832718 0.007360425 0.001312979
0.0071322136 0.00671683 0.0078061665 0.002561534 0.002943263 0.0007018474 -0.003347555 -0.0046207993
0.004412774 -0.0024753192 0.0077878437 0.0023610054 0.0045803324 -0.004452901 0.008398504 0.005083217
0.007314257 0.0039317985 0.0045033325 3.3770062e-05 -0.00048567736 0.008823972 -0.0020077578 0.008017503
-0.0073786867 0.006328882 0.0027509553 -0.005667366 0.0025842297 0.006049276 0.004124745 0.00854705
0.0025021 0.006658268 0.005975838 0.0062928535 0.0058963387 0.0071154865 -0.0062278947 0.0044135773
-0.0011854308 0.0020904555 0.006949878 0.004122015 0.007740183 0.007914117 -0.0030735915 0.004410576
0.0014795037 0.00786028 0.0062576816 0.0064418153 0.0021051255 -0.0049712453 0.0038563919 0.005859108
00000000: 7018 e7ba 7fad 2cba e982 cf39 6866 583b
00000010: 9fba 8d3b 110c 113c 03a8 7b3b 0e97 fd3b
00000020: 9f41 efbb dcea e53b 0e32 923b 12ab 313a
00000030: b2c0 a33b f6ac a93b 6131 03bc 01c2 92ba
00000040: 43ad ee3b e9cd 6dbb de0f dc3b 5587 5ebb
00000050: bafd 853b 589b d53b 149c e63b b7e7 8e3b
00000060: 6cbc 263b 4430 b43b 0a37 2f3a bc03 a2bb
00000070: b87b 553b 00a0 8d35 e0a0 923b 9212 8f3b
00000080: 16f0 083c ced3 923b fe72 d33b e3ba f93b
00000090: b72e f4ba 1eda dd3b 6faf 5bba c93d cc3b
000000a0: 6e9c 6e3b c856 143c b52b 993b 616c 963b
000000b0: 8b4d 023c 0327 ed39 0a57 d3bb 49e0 1a3b
000000c0: 9d7c 5b3b a7c2 853b afdb 433b a263 a8b8
000000d0: 7372 b43b 7a26 0d3c c551 0b3c 46f4 81bb
000000e0: 2d8c 893b f054 113b 9b7c c03b e1a0 763b
000000f0: 6ddf 0d3c d904 0cbb 55e5 073c 9d36 84bb
00000100: 7692 f33b 368e 9a38 b67c 823b 3719 8bbb
00000110: 86b4 b4bb bda8 6bbb 2aa8 e4bb 3082 a0ba
00000120: 672f 83bb cefc 6eba 440b ad3a 5e90 393b
00000130: f019 0c3c 1e8f e4bb 3dfc 763b 99c9 09bb
00000140: 6a87 aebb 579a e33b 72b6 f73b 8315 233b
00000150: 40af 99bb 04ef c13b b9ce be3b 7ecd dcba
00000160: 05d6 7ebb c6a3 e2bb e01c afbb c74c bb3b
00000170: f704 c53b 70db b13b 107e cd3b 56d4 d23b
00000180: edb4 fbbb 0ea8 97bb 3cdb 123c 571b 033b
00000190: 26f4 e73a 31f2 b83b 7019 83bb e4c7 e63b
000001a0: ed15 9ebb 8d5d 5b3b fa8d 103c 613c 14ba
000001b0: 288b fa3b e2f6 4339 984e dbb9 e12f 0e3c
000001c0: 2608 13bb 6478 cb3b 6f43 bc3b 6e2a c73b
000001d0: 6f2b b3b9 0a9f aa3b 12e3 023c 27f6 99bb
000001e0: ffa9 d03b 0943 e5bb ea24 0b3c b318 8fbb
000001f0: f80d 2e3b e71b 5d3b a31b eebb c015 463b
00000200: e13e 413b f091 9d3a cfa6 693b 9df7 ac3b
00000210: ef3f 11bb 673f ce3b 5b88 aa3b 42aa 183b
00000220: 1dbf d03b b8e8 d2bb e623 68bb 2afb c73b
00000230: 7a0d 013c aadd dd39 6707 d5bb 5970 aa3b
00000240: 2093 04bb 5a99 8dbb 94d4 aa3b 0257 b8ba
00000250: 0832 edba e4d4 c13b 387b 91bb 1c4a 063c
00000260: 4c18 02bc 2910 c6ba 54ca 5a3b 7c5f 5aba
00000270: cdd6 953b f0d2 933b 7976 fc3b 8341 193b
00000280: 8b70 c83b 30eb c43b 529d 9d3b 7f6f c6ba
00000290: 4bb4 de3b 9b9c 9b3b 26d0 023c 7e27 993b
000002a0: 0952 b13b c208 303b 58d6 c4bb e516 3f3b
000002b0: 1bff fd3b 6e05 01bc 2d5d 043c 2aff 96bb
000002c0: a12a fb3b 8ecf eb3b 05c2 fe3b b51f b8ba
000002d0: aab5 273b ccd3 883b e75b 2e3b fb5e 5abb
000002e0: 1388 0a3c 8ab2 bbba 4eac 49bb e21f 883b
000002f0: 3888 373b fb53 b8bb 7345 cf3b 526a 793b
00000300: cd1a ef3b e9c9 923b 09cf bc3b 7fbe e23b
00000310: d15b 523b cd54 003c b82f f13b 4418 ac3a
00000320: 58b5 e93b db18 dc3b dfca ff3b 69df 273b
00000330: c2e3 403b 2ffc 373a a762 5bbb 136a 97bb
00000340: 0899 903b f738 22bb 2b31 ff3b 19bb 1a3b
00000350: 9d16 963b a4e9 91bb e199 093c 1d91 a63b
00000360: 6fac ef3b 51d6 803b b190 933b 54a4 0d38
00000370: 83a2 feb9 6c92 103c 9694 03bb d85b 033c
00000380: e9c8 f1bb 8362 cf3b 5f49 343b 50b5 b9bb
00000390: 2e5c 293b 0139 c63b de28 873b ed08 0c3c
000003a0: 46fa 233b 9a2d da3b f6d0 c33b 4834 ce3b
000003b0: 1336 c13b 0729 e93b 5e13 ccbb c59f 903b
000003c0: 7560 9bba 0600 093b cdbb e33b f811 873b
000003d0: 5ca1 fd3b 36aa 013c 4f6e 49bb 9886 903b
000003e0: e8eb c13a 67c8 003c 3d0d cd3b dd15 d33b
000003f0: 25f6 093b d4e5 a2bb 85bb 7c3b c3fd bf3b

network_body._body_endoder.seq_layers.2.weight f4 [256, 256]
0.07132478 -0.047456004 -0.044802178 -0.009334545 0.004636667 0.050238583 0.061612796 0.03501572
0.05350025 0.023196025 -0.0067865304 -0.0032051955 0.058484796 -0.047542963 0.10865008 -0.08963933
0.082484804 -0.093195826 -0.008231731 0.027626114 0.037392363 0.021935647 -0.09267645 0.109993644
5.5421868e-05 -0.086118445 0.1438752 0.05357922 -0.13066998 0.020219361 0.12351662 -0.06106264
0.026611175 -0.096289136 -0.038571674 0.056047022 0.035752054 0.09667893 0.0008255215 0.080496535
-0.085833006 -0.07024113 0.052076105 -0.04520113 0.0061558518 0.021655748 0.06879595 0.17533901
-0.011035402 -0.05130852 -0.0452694 -0.076167725 -0.044929206 0.036887527 -0.050024297 0.05842297
-0.0824256 0.0017098159 -0.04038955 0.036403924 0.04726992 -0.012095909 -0.019065445 -0.06854847
-0.10418792 0.017805016 0.12254478 -0.045936983 -0.02719084 0.049430173 0.0025806408 0.14052382
0.06949629 0.092955224 -0.025076816 0.07541901 0.108680986 -0.084823094 -0.0302512 -0.0051916316
-0.09657866 -0.034705404 -0.021302354 -0.02659997 -0.017319055 -0.08969745 0.051832207 -0.0650635
-0.013094175 0.09737132 -0.032564353 -0.0050415252 0.022827884 0.0036121004 0.00921498 -0.007506513
-0.05929093 -0.1106147 -0.1162897 -0.015777167 -0.02784076 -0.05242809 -0.0061985133 -0.12356559
-0.055932153 -0.06547306 -0.031490117 -0.07318679 0.033435363 0.0001649596 -0.0635415 -0.037012506
-0.08673676 -0.019272774 0.13015433 -0.0727004 0.018275611 0.012961177 -0.076252975 0.020983322
-0.012354797 -0.047940135 -0.014128609 -0.012535144 0.061047822 0.067107745 -0.022435589 -0.054783747
0.054212306 0.015374444 0.06638646 -0.07062228 0.016030803 -0.047232058 -0.033646427 -0.102804296
-0.08779284 -0.094276816 -0.14630161 0.04457653 -0.04226143 0.029615587 -0.030401198 -0.01623029
-0.05077708 -0.024643878 0.060564183 0.07511516 -0.064445384 0.024784857 -0.05040276 0.023471277
-0.016183237 0.017830884 -0.018189522 0.1522408 0.041307703 0.11197742 -0.103099346 -0.10930752
0.04413792 0.01654 0.11200935 -0.098350994 0.08352989 -0.0021050987 0.004542164 0.16503078
0.065387905 -0.063381255 -0.007634696 0.035043977 -0.053862747 -0.028591966 0.05507812 -0.10454099
-0.013840778 0.07059622 -0.09132018 -0.02796589 0.06291433 0.13982199 0.055084366 -0.08191653
-0.09679779 -0.00229221 -0.04151533 -0.03318088 -0.03182751 0.09879293 -0.038471926 0.039856706
0.061700612 -0.02060735 0.008173215 -0.026471118 0.0691946 0.0082962215 -0.06589174 -0.033210095
-0.09272923 -0.045506366 0.035434335 0.0037229306 0.10191108 0.066533215 -0.09581363 -0.009138833
0.002433641 -0.044719677 -0.032098453 -0.03224263 -0.020745564 0.055324253 -0.03517513 0.008019846
0.14322217 0.030064085 0.019323574 0.16486494 0.071952425 0.017321002 -0.049751483 -0.101616
-0.12517111 0.13383651 -0.011119756 -0.007664467 0.07391919 0.027939914 -0.070019074 -0.021271702
-0.012267744 -0.039082274 -0.031147268 -0.0020351312 0.005032654 -0.06631655 0.09470951 -0.08389182
-0.06700973 0.011969525 0.013424375 0.05275431 0.13474202 -0.049026504 0.036400326 0.11507978
-0.026405655 -0.057137437 0.0048086164 0.06471744 -0.009565817 -0.044022266 0.025749968 -0.12383374
00000000: ba12 923d 3a61 42bd 7d82 37bd ebef 18bc
00000010: 2fef 973b f9c6 4d3d b35d 7c3d a56c 0f3d
00000020: 1423 5b3d 9705 be3c 8b61 debb 420e 52bb
00000030: c18d 6f3d 69bc 42bd ef83 de3d d394 b7bd
00000040: cbed a83d 74dd bebd 62de 06bc 2950 e23c
00000050: bc28 193d 63b2 b33c 27cd bdbd 5944 e13d
00000060: c774 6838 de5e b0bd 0554 133e e275 5b3d
00000070: 5ace 05be 13a3 a53c 48f6 fc3d d21c 7abd
00000080: aeff d93c 3d33 c5bd 55fd 1dbd 9091 653d
00000090: bf70 123d 9aff c53d cf67 583a 5edb a43d
000000a0: 37c9 afbd 95da 8fbd c14d 553d d224 39bd
000000b0: 07b7 c93b 6567 b13c e4e4 8c3d 128c 333e
000000c0: d5cd 34bc e228 52bd 686c 39bd d3fd 9bbd
000000d0: b007 38bd 6017 173d 47e6 4cbd ed4c 6f3d
000000e0: c1ce a8bd e71b e03a 836f 25bd 481c 153d
000000f0: 1b9e 413d eb2d 46bc 232f 9cbc 2463 8cbd
00000100: 7a60 d5bd d3db 913c c2f8 fa3d 6b28 3cbd
00000110: 53bf debc 4b77 4a3d f81f 293b 7ae5 0f3e
00000120: 1254 8e3d 4f5f be3d e56d cdbc 4875 9a3d
00000130: 2394 de3d bbb7 adbd 5dd1 f7bc 901e aabb
00000140: 08cb c5bd 4127 0ebd 4682 aebc 2ee8 d9bc
00000150: b1e0 8dbc 4cb3 b7bd 024e 543d 0340 85bd
00000160: f388 56bc 9d6a c73d 3362 05bd 6133 a5bb
00000170: 8b01 bb3c fdb8 6c3b 6dfa 163c 32f9 f5bb
00000180: 0cdb 72bd f689 e2bd 4b29 eebd 1e3f 81bc
00000190: 4e12 e4bc d6be 56bd e61c cbbb f50f fdbd
000001a0: 1d19 65bd bd16 86bd c8fb 00bd f5e2 95bd
000001b0: 85f3 083d 01f9 2c39 0c22 82bd 6d9a 17bd
000001c0: 0ba3 b1bd f0e1 9dbc 2d47 053e f3e3 94bd
000001d0: bcb6 953c 1e5b 543c 852a 9cbd 37e5 ab3c
000001e0: c66b 4abc e05c 44bd ae7b 67bc 3460 4dbc
000001f0: 480d 7a3d c96f 893d d7ca b7bc ec64 60bd
00000200: b90d 5e3d 18e5 7b3c a0f5 873d 6aa2 90bd
00000210: 0853 833c 6776 41bd d6d0 09bd 0f8b d2bd
00000220: bccc b3bd 3414 c1bd 17d0 15be e195 363d
00000230: 521a 2dbd 639c f23c ef0b f9bc 63f5 84bc
00000240: a1fb 4fbd f5e1 c9bc 2612 783d fad5 993d
00000250: f1fb 83bd 9d09 cb3c 2073 4ebd d646 c03c
00000260: b592 84bc 1312 923c 3102 95bc 03e5 1b3e
00000270: 4432 293d 6b54 e53d c025 d3bd 9fdc dfbd
00000280: f7c9 343d e57e 873c 2865 e53d 3f6c c9bd
00000290: b811 ab3d b2f5 09bb 6fd6 943b d4fd 283e
000002a0: 18ea 853d 08ce 81bd 792c fabb 468a 0f3d
000002b0: 2f9f 5cbd b339 eabc 9899 613d 9619 d6bd
000002c0: 6ec4 62bc c094 903d 1306 bbbd b918 e5bc
000002d0: 3ad9 803d 7f2d 0f3e 25a0 613d dbc3 a7bd
000002e0: eb3d c6bd e738 16bb fb0b 2abd ade8 07bd
000002f0: 905d 02bd f353 ca3d bd94 1dbd c940 233d
00000300: c8b9 7c3d bfd0 a8bc f3e8 053c f5d9 d8bc
00000310: e6b5 8d3d e0ec 073c 40f2 86bd 4f07 08bd
00000320: d3e8 bdbd e264 3abd 9823 113d 69fc 733b
00000330: c2b6 d03d 9142 883d f039 c4bd 0bbb 15bc
00000340: b97d 1f3b fb2b 37bd ab79 03bd d910 04bd
00000350: 9af2 a9bc af9b 623d cc13 10bd ac65 033c
00000360: d5a8 123e f548 f63c 794c 9e3c 5bd2 283e
00000370: cb5b 933d c6e4 8d3c 36c8 4bbd 0d1c d0bd
00000380: db2c 00be 700c 093e a32f 36bc 3626 fbbb
00000390: f262 973d 3fe2 e43c 2966 8fbd fe41 aebc
000003a0: a6fe 48bc bc14 20bd 8e28 ffbc d65f 05bb
000003b0: f6e8 a43b f9d0 87bd 0ff7 c13d 79cf abbd
000003c0: 663c 89bd d41b 443c e9f1 5b3c e714 583d
000003d0: d0f9 093e 04d0 48bd 8218 153d f3ae eb3d
000003e0: ac50 d8bc f208 6abd 9991 9d3b 948a 843d
000003f0: f2b9 1cbc b150 34bd 99f1 d23c 8b9c fdbd

network_body._body_endoder.seq_layers.2.bias f4 [256]
-0.005539697 0.007956053 -0.007830636 0.002887169 0.0067174537 0.0051042587 0.008175055 0.0074102404
0.007592737 0.0049985456 0.0008407045 -0.0070573 -0.008309574 -0.007538076 -0.0016934328 0.006734921
0.0070226644 0.006858259 -0.0014691366 0.008874986 -0.0043257354 -0.002699476 0.0033180502 0.003073584
0.008092296 0.0060408306 0.007954162 0.008147749 0.004097614 -0.007660644 0.005942442 -0.005919697
0.0020832443 0.008557045 0.0048423423 -0.0018568996 -0.0012552056 0.0032240478 0.0081824865 -0.0004804632
0.0015650095 -0.0071029537 -0.00089591945 -0.0043785535 -0.00448068 0.0036061022 -0.00506653 0.008382054
-0.0025227903 0.0051880567 -0.004703398 0.0073926854 0.0023282252 -0.0014554836 0.0082183555 -0.0031068714
0.0069522867 0.0017445734 0.0042991866 -0.006474867 -0.007862103 -0.0022332934 -0.007826206 0.007141979
-0.0013673296 0.0037779214 0.0043164445 -0.0077471347 -0.0031511576 0.00729126 0.0035936553 0.0021293892
0.00062104524 0.0017137957 0.0071232845 -0.00020019573 0.0039922176 0.0007196431 0.005160626 0.008371262
-0.0043061487 -0.006871107 -0.0077459123 -0.0013711567 -0.0054979776 0.008481413 0.007870205 -0.00039659566
0.0054004104 0.0072597344 0.00793655 -0.0065829917 -0.005624752 0.00063722255 0.0061194487 -0.006176972
-0.005812338 0.005699129 -0.0018062305 0.0073254164 0.0021249005 0.0075105154 -0.002498535 0.0012851106
0.0032517768 0.0044429866 0.0012466027 0.0037797068 -0.002546593 0.008390113 -0.0029330854 0.007019751
5.718498e-05 0.0074945963 0.0032030572 -0.0022030633 0.0050006434 0.0029304326 0.0047499863 0.001855474
-0.00868382 -0.0044163004 0.008814264 0.007914643 -0.0037548188 0.0058323494 -0.0029464713 0.00829248
0.008302618 -0.0006532919 -0.006862391 -0.0028748843 0.0036555426 -0.006228945 -0.0058899946 0.004768391
-0.0034492286 0.0030705368 0.0054329433 -0.0014303472 0.0045228833 -0.0009427918 -0.0012457982 0.0008899443
-0.0072501334 0.0033015008 0.008229496 -0.0063203466 0.006291077 0.0073179575 -0.0006956701 0.006009555
-0.0043064053 -0.0029820176 -0.0067196996 0.004448544 -0.0051574265 0.0051527647 0.0006593932 0.0056366804
-0.0061164396 -0.0037294098 0.008159415 0.00097577024 0.0030272794 -0.0018656701 -0.0070018843 0.0051711192
0.008408013 -0.005006928 0.0058529885 0.0034744348 -0.007928396 0.0068174684 -0.0030347635 0.0011973274
0.006597663 -0.0075060893 -0.0047515477 0.0069619287 -0.0081316475 0.007978337 0.000758045 0.007140336
-0.008488233 -0.006755673 -0.00042440978 0.0044431137 0.008283908 0.0011486114 -0.004197911 0.0074247858
-0.0021123916 0.008233412 -0.008101374 0.0042262753 0.004194872 0.008703024 -0.0020086009 0.007214695
0.00079272327 0.0025278174 0.0030299935 0.005491603 0.0077090454 -0.0046820655 0.008253206 0.0026992173
0.007907058 0.0052415975 -0.0040728874 -0.0024836068 0.008382375 -0.0043897303 0.001323474 0.0048599523
-0.003824362 0.008361065 -0.0026063293 0.0032921836 0.004143261 0.0005681396 0.0075555616 0.0058989543
-0.0027080388 0.00093834754 -0.0076170065 0.0088426825 0.005353195 0.005456691 0.0049377275 0.005686416
-0.007482039 0.0063768034 -0.006533457 0.0021440203 -0.00087743317 0.0062544458 0.004941274 0.0053858985
0.0037894316 0.00465335 0.0069862283 0.0015186779 0.0017031245 0.0059788567 0.00094263576 0.0035915484
0.005921296 0.002371153 0.0070396266 -0.0063044997 -0.0064350716 0.0038295444 0.0014777526 -0.0046001826
00000000: 5986 b5bb 1b5a 023c 114c 00bc a836 3d3b
00000010: 161e dc3b a041 a73b aaf0 053c 9ad1 f23b
00000020: 7fcc f83b d7ca a33b b962 5c3a ec40 e7bb
00000030: e124 08bc f701 f7bb 2df6 ddba 9db0 dc3b
00000040: 611e e63b 3fbb e03b 0b90 c0ba 6468 113c
00000050: e6be 8dbb b1e9 30bb a573 593b 2f6e 493b
00000060: 8d95 043c 29f2 c53b 2c52 023c 237e 053c
00000070: 4745 863b 2406 fbbb d1b8 c23b 05fa c1bb
00000080: 0a87 083b d932 0c3c 83ac 9e3b 3663 f3ba
00000090: b685 a4ba 8c4a 533b d60f 063c aee6 fbb9
000000a0: 0121 cd3a e5bf e8bb 23dc 6aba f879 8fbb
000000b0: abd2 92bb 5b54 6c3b 2205 a6bb e254 093c
000000c0: 6655 25bb 9300 aa3b f61e 9abb 573e f23b
000000d0: 2395 183b edc5 beba 48a6 063c a79c 4bbb
000000e0: 02d0 e33b 2baa e43a 31e0 8c3b 1f2b d4bb
000000f0: 0dd0 00bc 725c 12bb 7d39 00bc 4307 ea3b
00000100: f837 b3ba 0197 773b f670 8d3b addb fdbb
00000110: a783 4ebb 86eb ee3b 8883 6b3b 398d 0b3b
00000120: a4cd 223a 71a1 e03a 716a e93b a2eb 51b9
00000130: 26d1 823b 6ea6 3c3a 781a a93b 9e27 093c
00000140: 981a 8dbb 0627 e1bb 6cd1 fdbb 62b8 b3ba
00000150: 6128 b4bb a0f5 0a3c 08f2 003c 2bee cfb9
00000160: edf5 b03b 11e3 ed3b 4e08 023c 23b6 d7bb
00000170: d74f b8bb 480b 273a a885 c83b 3268 cabb
00000180: 6d75 bebb c2bf ba3b 0abf ecba 0c0a f03b
00000190: ea41 0b3b c51a f63b 76be 23bb 2871 a83a
000001a0: c31b 553b 7996 913b 0c65 a33a f5b4 773b
000001b0: bee4 26bb af76 093c 0239 40bb f005 e63b
000001c0: e8d9 6f38 3b95 f53b 62ea 513b 4561 10bb
000001d0: 70dc a33b 800c 403b c6a5 9b3b 6033 f33a
000001e0: 9546 0ebc 9db6 90bb b469 103c 6bac 013c
000001f0: 6813 76bb 4b1d bf3b 9619 41bb 2fdd 073c
00000200: b407 083c ad41 2bba e8dd e0bb 8e68 3cbb
00000210: d491 6f3b 2e1c ccbb db00 c1bb 2a40 9c3b
00000220: 740c 62bb 0f3b 493b d506 b23b 7d7a bbba
00000230: b234 943b b025 77ba 0d4a a3ba 274b 693a
00000240: 8792 edbb fe5d 583b 02d5 063c e91a cfbb
00000250: 6125 ce3b 7acb ef3b a15d 36ba cdeb c43b
00000260: bf1c 8dbb f46d 43bb ed30 dcbb 17c5 913b
00000270: a1ff a8bb 86d8 a83b 21db 2c3a e7b3 b83b
00000280: 6a6c c8bb 1d69 74bb 11af 053c d5ca 7f3a
00000290: 5265 463b 8089 f4ba 1070 e5bb 7e72 a93b
000002a0: c3c1 093c 2811 a4bb 6dca bf3b 58b3 633b
000002b0: 1ae6 01bc 1265 df3b e2e2 46bb a4ef 9c3a
000002c0: 3531 d83b a4f5 f5bb dfb2 9bbb e420 e43b
000002d0: 9a3a 05bc 92b7 023c 8ab7 463a 7bf9 e93b
000002e0: 3b12 0bbc b15e ddbb 5183 deb9 8a97 913b
000002f0: 3ab9 073c 018d 963a a18e 89bb 9e4b f33b
00000300: 0d70 0abb 6fe5 063c a0bb 04bc 917c 8a3b
00000310: 2375 893b 2197 0e3c bba2 03bb 4069 ec3b
00000320: c2ce 4f3a bda9 253b db92 463b e8f2 b33b
00000330: 299c fc3b 036c 99bb 7438 073c 5ae5 303b
00000340: 9b8c 013c b5c1 ab3b db75 85bb 02c4 22bb
00000350: 3b56 093c bad7 8fbb 6b78 ad3a 3c40 9f3b
00000360: 26a2 7abb d9fc 083c f3ce 2abb adc1 573b
00000370: 31c4 873b 34ef 143a a594 f73b 044c c13b
00000380: 5a79 31bb 70fb 753a 1598 f9bb e6e0 103c
00000390: db69 af3b 0bce b23b a9cc a13b 1d55 ba3b
000003a0: e42b f5bb 81f4 d03b 9c16 d6bb b182 0c3b
000003b0: 8b03 66ba 18f2 cc3b 69ea a13b 317c b03b
000003c0: 1d58 783b 217b 983b bbec e43b 600e c73a
000003d0: 603b df3a 49ea c33b 371b 773a 2f60 6b3b
000003e0: 6e07 c23b 5965 1b3b abac e63b fa95 cebb
000003f0: 4bdd d2bb 18f9 7a3b 26b1 c13a 21bd 96bb

action_model._continuous_distribution.log_sigma f4 [1, 3]
0.0003567744 -0.0005100092 -0.0020550005
00000000: 730d bb39 23b2 05ba 30ad 06bb

action_model._continuous_distribution.mu.weight f4 [3, 256]
0.007356412 0.010439819 0.010755147 0.0050313165 -0.009379214 -0.018399015 0.006682094 0.028004298
-0.016438253 0.004155379 -0.010430568 -0.013054473 -0.007013522 0.0027643298 0.011173703 -0.006066312
0.0009900543 -0.004548691 -0.011846186 0.005522604 0.009171752 0.014200295 -0.00069759466 -0.0028199097
0.0005187457 -0.010135096 -0.0064588566 0.012473005 -0.024343908 0.012667105 -0.013864814 0.013558146
-0.021405032 -0.0018921614 -0.01335565 0.009220181 -0.030428663 0.015465816 0.0075159012 -0.003546537
-0.005906048 0.009947436 -0.0020057915 0.008404473 0.0059516514 0.00644249 -0.0063754325 0.014342529
0.008183804 0.029902548 0.01933004 0.0008630401 -0.008306883 0.027978929 -0.021393396 -0.0036589843
0.02262273 -0.008598995 -0.014260176 0.013329075 0.013960613 -0.01239958 -0.005900687 -0.017935181
-0.0032404577 0.0115892645 -0.022722488 0.007508225 0.011847617 0.0034623723 -0.0069871265 0.011647528
-0.0076074935 0.015800139 -0.00024086869 0.0025477004 0.013505447 -0.016920306 -0.0066898623 -0.004686349
-0.022957632 0.0038661833 -0.0196478 -0.017123014 0.01441495 0.009175292 0.0019693042 0.01984719
-0.0016321857 -0.008673912 -0.013559341 -0.012462477 -0.02287342 0.0007251176 0.0034260172 -0.013676603
-0.00605858 -0.023481585 -0.020444434 -0.0047036316 0.008602839 -0.0015698816 0.0066674864 -0.004819028
-0.01937962 -0.0076358966 -0.012222712 0.0024905738 0.00071626843 0.011673482 -0.0017887988 0.0025251391
-0.0064825425 -0.021215567 -0.02852649 0.0051450427 -0.002941392 0.012683872 -0.023282377 -0.00033518238
-0.00022921627 -0.0016201102 0.004596462 -0.014196656 0.006482606 -0.026790665 0.022123722 -0.012556555
0.009435723 0.014354464 -0.005020288 0.008351954 0.018254098 -0.00042197923 -0.019835664 -0.023371095
-0.01930648 -0.017983535 -0.02606581 0.0042829495 -0.009551164 0.032442488 -0.0068870457 -0.015462387
0.020605536 0.017693426 -0.010042981 -0.005575208 -0.00929717 -0.016495781 0.045678034 -0.010764544
0.017940551 0.010253251 0.011897407 0.006165288 0.006587861 0.006262374 -0.03854282 0.006600991
0.016157025 0.0034011607 0.006833657 0.030274922 -0.008559595 0.025683554 0.004143635 0.013507592
-0.005617594 -0.0010906444 -0.009545167 -0.014776696 0.007841007 0.0005763521 -0.0172484 0.0043875957
0.018391214 -0.011771456 0.0029785568 -0.0021123225 -0.0050326614 -0.0024915107 0.025457935 -0.016901901
-0.004604893 0.0069855447 0.014821524 -0.017991556 -0.001151495 -0.019516548 -0.0029046696 -0.008026039
-0.017756868 -0.014713266 0.011862583 -0.025049511 0.016592504 -0.004867212 0.015816228 0.0029727735
-0.0038646925 0.002341214 0.015176829 0.020125667 0.011084739 -0.008846898 -0.0028659268 -0.008503111
0.003320746 -3.4877467e-05 -0.020814423 -0.015731687 0.012370115 -0.002080254 0.012144499 -0.008625544
-0.0037870852 -0.008039255 -0.009059704 -0.014883697 -0.023515504 -0.0034685442 -0.0076763975 0.0041612783
0.014389046 0.0070386445 -0.019769177 0.0003273574 -0.003807005 0.016230457 -0.0057582557 0.010089484
-0.009549863 -0.011946248 -0.001371689 -0.010296601 0.00925776 -0.01059307 -0.00086159573 -0.018983018
0.011400031 -0.0094002485 0.0024544036 -0.018090045 0.0110988235 0.010029881 -0.0015523647 -0.02634604
-0.025086738 -0.0106152175 -0.010991693 -0.00028846838 0.0130889015 -0.01290215 -0.0016098027 0.004811878
00000000: 0e0e f13b c60b 2b3c 5b36 303c bedd a43b
00000010: 46ab 19bc 88b9 96bc 78f5 da3b 4569 e53c
00000020: 84a9 86bc d829 883b f9e4 2abc 6ee2 55bc
00000030: b0d1 e5bb c229 353b e811 373c eac7 c6bb
00000040: b6c4 813a 300d 95bb 8116 42bc f6f6 b43b
00000050: 1e45 163c 5ba8 683c c9de 36ba 3cce 38bb
00000060: 6ffc 073a ac0d 26bc d1a4 d3bb 935b 4c3c
00000070: e06c c7bc b089 4f3c 3f29 63bc fc22 5e3c
00000080: 9b59 afbc 6702 f8ba a8d1 5abc 3e10 173c
00000090: 8845 f9bc 5564 7d3c f347 f63b 046d 68bb
000000a0: 8687 c1bb 92fa 223c 9973 03bb eab2 093c
000000b0: 1206 c33b 861b d33b 01e9 d0bb edfc 6a3c
000000c0: 5d15 063c 30f6 f43c 085a 9e3c a43d 623a
000000d0: 9819 08bc 1134 e53c 3441 afbc 92cb 6fbb
000000e0: 4e53 b93c cde2 0cbc 83a3 69bc 3162 5a3c
000000f0: 0ebb 643c 9c27 4bbc 8d5a c1bb cdec 92bc
00000100: dc5d 54bb e6e0 3d3c 8324 babc 8e07 f63b
00000110: 821c 423c f8e8 623b 44f4 e4bb 46d5 3e3c
00000120: 4848 f9bb 4b6f 813c b291 7cb9 52f7 263b
00000130: f345 5d3c 749c 8abc a236 dbbb f28f 99bb
00000140: a511 bcbc cb5f 7d3b 6cf4 a0bc 9045 8cbc
00000150: af2c 6c3c f753 163c 710f 013b 9396 a23c
00000160: 10ef d5ba 061d 0ebc 0028 5ebc 6b2f 4cbc
00000170: 0a61 bbbc d215 3e3a 0887 603b d513 60bc
00000180: 0d87 c6bb 745c c0bc 167b a7bc ec20 9abb
00000190: ecf2 0c3c 7cc4 cdba ee7a da3b f0e8 9dbb
000001a0: 02c2 9ebc 8b36 fabb c541 48bc e538 233b
000001b0: f6c3 3b3a 2242 3f3c 2176 eaba ce7c 253b
000001c0: 826b d4bb 45cc adbc 63b0 e9bc bf97 a83b
000001d0: 5ec4 40bb 04d0 4f3c afba bebc 6bbb afb9
000001e0: c659 70b9 e159 d4ba eb9d 963b 1799 68bc
000001f0: 0a6c d43b 1978 dbbc cf3c b53c 02ba 4dbc
00000200: 4a98 1a3c fc2e 6b3c 3a81 a4bb a2d6 083c
00000210: 9e89 953c 183d ddb9 677e a2bc bd74 bfbc
00000220: a028 9ebc 3552 93bc f787 d5bc fc57 8c3b
00000230: 7c7c 1cbc 6ae2 043d baac e1bb f455 7dbc
00000240: f1cc a83c cef1 903c 518b 24bc 3cb0 b6bb
00000250: 2853 18bc 2922 87bc e418 3b3d c55d 30bc
00000260: 10f8 923c 40fd 273c 57ed 423c 2f06 ca3b
00000270: fcde d73b 9a34 cd3b 13df 1dbd 204d d83b
00000280: bd5b 843c 02e6 5e3b dfec df3b 1d03 f83c
00000290: 8b3d 0cbc 5166 d23c 54c7 873b f24e 5d3c
000002a0: cb13 b8bb f4f3 8eba 5563 1cbc f519 72bc
000002b0: 9177 003c 5616 173a 844c 8dbc d2c5 8f3b
000002c0: 2ca9 963c 11dd 40bc e433 433b e46e 0abb
000002d0: 06e9 a4bb 9d48 23bb 298d d03c db75 8abc
000002e0: a4e4 96bb ffe6 e43b fad5 723c 0763 93bc
000002f0: c3ed 96ba 2be1 9fbc 455c 3ebb a67f 03bc
00000300: da76 91bc e90f 71bc 485b 423c a234 cdbc
00000310: 01ed 873c 227d 9fbb 0991 813c ddd2 423b
00000320: c846 7dbb 0e6f 193b 3ca8 783c 95de a43c
00000330: c49c 353c 94f2 10bc 46d2 3bbb a250 0bbc
00000340: dfa0 593b 6549 12b8 0283 aabc bddf 80bc
00000350: 06ac 4a3c df54 08bb b9f9 463c 2752 0dbc
00000360: bf30 78bb 14b7 03bc 276f 14bc c0da 73bc
00000370: 96a3 c0bc 8450 63bb 4a8a fbbb 555b 883b
00000380: 08c0 6b3c 6ea4 e63b f8f2 a1bc 2ba1 ab39
00000390: f27e 79bb bcf5 843c c0af bcbb 5d4e 253c
000003a0: 0777 1cbc 32ba 43bc 3fca b3ba 13b3 28bc
000003b0: dcad 173c 8e8e 2dbc b6dc 61ba 4682 9bbc
000003c0: 32c7 3a3c 8003 1abc 0fda 203b 9331 94bc
000003d0: d7d7 353c 5f54 243c b778 cbba a7d3 d7bc
000003e0: b482 cdbc 73eb 2dbc 8016 34bc 923d 97b9
000003f0: d572 563c 8a63 53bc 0400 d3ba f5ac 9d3b

action_model._continuous_distribution.mu.bias f4 [3]
-0.0017924431 0.0017639603 -0.0017024039
00000000: 69f0 eaba b034 e73a 3223 dfba

action_model._discrete_distribution.branches.0.weight f4 [7, 256]
0.00079314073 0.0009698167 -0.008329678 0.0069991183 0.0016952148 0.012174568 0.003638524 -0.0008075638
0.008528872 0.0003131127 -0.0048613576 -0.010865036 -0.0069226814 -0.0003634151 -0.00063146 0.00044008304
0.0018668845 0.0064802263 0.0005570444 0.008219992 -0.0031792128 0.004503738 0.008826712 0.010179739
0.0052014263 0.0045726104 0.008535474 0.023243971 0.014609446 -0.018392606 0.0038106632 0.003338575
0.009595852 0.014215966 -0.010045749 -0.001458761 0.008020751 -0.0020089492 0.022930006 0.0068812002
0.0012371173 -0.015948085 0.0019742905 0.005086962 -0.01986898 0.0062646624 -0.006825686 0.007791024
-0.006052372 0.009548063 -0.0050566583 0.0014886202 -0.00015764362 0.0034540128 0.00751148 0.013917299
-0.0013112912 -0.010639172 6.772077e-05 -0.0104007665 -0.0094372155 -0.0031749557 -0.011156742 0.012351379
0.005390545 0.002142695 0.014332928 -0.0024900772 -0.0016855189 0.014810753 0.0021044852 0.0019909362
0.0091937445 -0.011692771 0.012196638 -0.0068278485 0.01591552 -0.0021543053 0.013655893 0.001772536
-0.010955051 -0.0069478895 0.0022022952 -0.010336349 0.001327183 0.0077075143 0.007529953 0.008575243
0.0067751757 0.01013352 0.005271342 -0.0048619905 -0.0011363172 -0.0067451163 0.0031412756 -0.009422938
-0.0021704792 0.009040289 0.002957265 0.0087046 -0.00073132163 0.006489662 -0.0033009644 0.007675063
-0.001771195 0.009640008 0.0015965324 0.0035386698 0.001414096 -0.0007903438 -0.009444796 0.0012443215
-0.0011892745 0.010517087 0.01111646 0.0049545467 0.014239538 0.008109489 0.008937747 0.0045653135
-0.005001779 0.00015377604 -0.0014087255 0.016114263 0.004785829 0.008797309 0.012535064 0.007521213
0.00050000043 -0.0065502366 0.0028071608 0.006506119 0.006370805 -0.004503983 -0.009191436 0.0018311358
-0.0071782586 0.011023073 0.0075387405 -0.005265972 0.004817217 -0.008575844 -0.0036263147 0.00025819975
-0.010555179 -0.0005458675 0.019547403 -0.0025415993 0.00094204716 0.0056233807 0.004332645 -0.0014075353
0.008730403 -0.00052819203 -0.013111641 0.007640027 -0.007568308 0.0014459458 -0.0060080895 -0.0014911745
0.0077479538 -0.009188583 0.004344319 0.012109822 -0.0010280273 0.0013388272 -0.001355788 0.005183786
0.019525835 -0.00016614054 0.005641519 0.011801744 -0.0013525948 0.021211602 0.004352066 0.003564827
0.006956387 -0.0017623417 -0.00790292 0.005753772 -0.00502008 0.015461109 0.0071760193 0.0084009515
-0.009634581 -0.0020292688 -7.8913974e-05 0.008391003 0.0055160667 0.010771713 0.011080288 0.007711464
0.011016995 -0.0011715401 -0.011850357 0.01618636 -0.0003204819 -0.0023808673 -0.0026262978 0.018175762
-0.0029196048 0.010729384 0.011493254 0.0073931823 0.003239559 -0.0047080764 0.0035192093 0.008520852
-0.0011467264 0.009746374 -0.0011702991 -0.0036328374 0.01217832 -0.0021155165 -0.004459446 0.0068833157
-0.007139272 0.0074286354 0.002757071 0.0011242724 0.016394023 -0.0033781033 0.0002282435 0.0026312298
-0.0049919235 0.008577919 -0.0026026284 0.003773565 -0.0016892474 0.0036039704 0.0025703483 0.011196433
-0.00029904302 0.002216135 -0.007854842 0.0077880207 0.0054911985 0.009977552 0.0013048465 0.007947163
0.005005188 0.004028437 0.0048886253 0.0013883491 0.008430767 0.00509951 0.005185106 0.004910904
0.010760315 0.012076828 0.010187565 -0.00018910444 0.001357467 0.0067899073 0.0045742965 -0.0040387274
00000000: c6ea 4f3a 4c3b 7e3a 3479 08bc dc58 e53b
00000010: f831 de3a d777 473c 4e74 6e3b b0b2 53ba
00000020: afbc 0b3c 4629 a439 064c 9fbb 4403 32bc
00000030: a9d7 e2bb c088 beb9 9088 25ba f2ba e639
00000040: 40b2 f43a 1458 d43b 9e06 123a 25ad 063c
00000050: 575a 50bb 1894 933b ea9d 103c ecc8 263c
00000060: ba70 aa3b d6d5 953b 5fd8 0b3c 246a be3c
00000070: 755c 6f3c 17ac 96bc 52bc 793b fecb 5a3b
00000080: ec37 1d3c 15ea 683c ed96 24bc e633 bfba
00000090: 7869 033c 93a8 03bb b5d7 bb3c b17b e13b
000000a0: c526 a23a 8fa5 82bc 1963 013b 88b0 a63b
000000b0: 45c4 a2bc cc47 cd3b 01aa dfbb d94b ff3b
000000c0: fa52 c6bb 7b6f 1c3c 53b2 a5bb ce1d c33a
000000d0: 234d 25b9 b85c 623b dc22 f63b 6205 643c
000000e0: a2df abba ec4f 2ebc 5005 8e38 fa67 2abc
000000f0: 8d9e 1abc eb12 50bb c5ca 36bc 705d 4a3c
00000100: 2ba3 b03b 756c 0c3b a8d4 6a3c 9030 23bb
00000110: a1ec dcba cda8 723c 67eb 093b 5e7a 023b
00000120: 5ca1 163c 0993 3fbc 68d4 473c 25bc dfbb
00000130: 4461 823c 3f2f 0dbb f7bc 5f3c 7054 e83a
00000140: d07c 33bc 1fab e3bb 6254 103b ca59 29bc
00000150: dff4 ad3a 518f fc3b d3bd f63b 2d7f 0c3c
00000160: 4b02 de3b 1007 263c 39bb ac3b 5551 9fbb
00000170: 7af0 94ba 2306 ddbb dcdd 4d3b ab62 1abc
00000180: 993e 0ebb b81d 143c acce 413b bd9d 0e3c
00000190: 2ab6 3fba 3ba7 d43b fe54 58bb 187f fb3b
000001a0: 7127 e8ba 20f1 1d3c bd42 d13a 07e9 673b
000001b0: 3059 b93a 132f 4fba 58be 1abc 8018 a33a
000001c0: 6ee1 9bba dc4f 2c3c d021 363c c059 a23b
000001d0: f44c 693c aadd 043c a16f 123c a098 953b
000001e0: f7e5 a3bb f13e 2139 fca4 b8ba 0f02 843c
000001f0: 72d2 9c3b 9722 103c de5f 4d3c 8274 f63b
00000200: 7612 033a 5ea3 d6bb 58f8 373b 4831 d53b
00000210: 30c2 d03b 2696 93bb ad97 16bc b902 f03a
00000220: 9937 ebbb 1f9a 343c 8a07 f73b 2d8e acbb
00000230: bfd9 9d3b b281 0cbc 77a7 6dbb fc5e 8739
00000240: a1ef 2cbc 8c18 0fba e021 a03c f690 26bb
00000250: b7f3 763a 5644 b83b dcf8 8d3b 0c7d b8ba
00000260: f709 0f3c 5e76 0aba 35d2 56bc 3159 fa3b
00000270: 92ff f7bb e485 bd3a 82df c4bb 8373 c3ba
00000280: 8ce2 fd3b b68b 16bc ca5a 8e3b 4668 463c
00000290: dfbe 86ba 967b af3a b2b4 b1ba c0dc a93b
000002a0: a5f4 9f3c 0336 2eb9 7edc b83b 1a5c 413c
000002b0: 8d49 b1ba f4c3 ad3c c79b 8e3b df9f 693b
000002c0: 67f2 e33b 60fe e6ba 407b 01bc 238a bc3b
000002d0: 7c7f a4bb 9750 7d3c d024 eb3b 25a4 093c
000002e0: 5dda 1dbc 7bfd 04bb 9e7e a5b8 6b7a 093c
000002f0: 1fc0 b43b d77b 303c 198a 353c 73b0 fc3b
00000300: a080 343c 5d8e 99ba 0028 42bc 4299 843c
00000310: 5a06 a8b9 5308 1cbb f71d 2cbb 56e5 943c
00000320: d756 3fbb 4cca 2f3c 344e 3c3c 8242 f23b
00000330: c84e 543b 3546 9abb 89a2 663b 0b9b 0b3c
00000340: c14d 96ba 41af 1f3c b964 99ba e614 6ebb
00000350: 9487 473c 7aa4 0abb 8b20 92bb 708d e13b
00000360: 8ef0 e9bb e96b f33b faaf 343b 525c 933a
00000370: c24c 863c 2b63 5dbb a654 6f39 b670 2c3b
00000380: 4a93 a3bb 668a 0c3c dc90 2abb ea4d 773b
00000390: bd69 ddba 9730 6c3b 4a73 283b 3e71 373c
000003a0: e0c8 9cb9 933c 113b 98b1 00bc a732 ff3b
000003b0: 83ef b33b e378 233c 6207 ab3a d134 023c
000003c0: 8f02 a43b fb00 843b c330 a03b 44f9 b53a
000003d0: 3321 0a3c ca19 a73b d2e7 a93b a6eb a03b
000003e0: 084c 303c e3dd 453c bfe9 263c 564a 46b9
000003f0: 09ed b13a df7d de3b fbe3 953b 4d57 84bb

action_model._discrete_distribution.branches.0.bias f4 [7]
0.007861889 -0.0077882423 -0.0076298234 -0.00792857 -0.0078798495 0.008355325 0.0077516944
00000000: 27cf 003c 8334 ffbb 9903 fabb d5e6 01bc
00000010: 7c1a 01bc c6e4 083c ed01 fe3b

onnx::Div_90 f4 [84]
0.0076103415 0.46327844 0.43964136 0.26516622 0.0076103415 0.45967782 0.43690515 0.26487982
0.0076103415 0.46547613 0.4419679 0.26562586 0.0076103415 0.45448935 0.43282858 0.26344237
0.0076103415 0.4679052 0.44477707 0.26613 0.0076103415 0.4498126 0.42935622 0.26112702
0.0076103415 0.4684053 0.4466331 0.26604202 0.0076103415 0.44873706 0.4282442 0.2589763
0.0076103415 0.4693925 0.44637024 0.26546547 0.0076103415 0.44651636 0.4261653 0.25714275
0.0076103415 0.470237 0.44516313 0.26439992 0.0076103415 0.44669136 0.42580923 0.25591046
0.0076103415 0.47137713 0.4445387 0.2639804 0.0076103415 0.44807956 0.42680353 0.25529984
0.0076103415 0.47325 0.44616523 0.26386347 0.0076103415 0.4489078 0.42683887 0.25495824
0.0076103415 0.47480622 0.44810823 0.2641969 0.0076103415 0.4485089 0.42683887 0.25428134
0.0076103415 0.4757346 0.45084712 0.2640843 0.0076103415 0.44616526 0.42412102 0.25336525
0.0076103415 0.4774273 0.45480767 0.2638115
00000000: 2c60 f93b d532 ed3e ac18 e13e dec3 873e
00000010: 2c60 f93b e45a eb3e 08b2 df3e 549e 873e
00000020: 2c60 f93b e352 ee3e 9e49 e23e 1d00 883e
00000030: 2c60 f93b d4b2 e83e b59b dd3e ebe1 863e
00000040: 2c60 f93b 4591 ef3e d2b9 e33e 3142 883e
00000050: 2c60 f93b d64d e63e 94d4 db3e 71b2 853e
00000060: 2c60 f93b d2d2 ef3e 18ad e43e a936 883e
00000070: 2c60 f93b ddc0 e53e d342 db3e 8b98 843e
00000080: 2c60 f93b 3754 f03e a48a e43e 17eb 873e
00000090: 2c60 f93b cb9d e43e 5732 da3e 37a8 833e
000000a0: 2c60 f93b e7c2 f03e 6cec e33e 6d5f 873e
000000b0: 2c60 f93b bbb4 e43e ab03 da3e b206 833e
000000c0: 2c60 f93b 5858 f13e 949a e33e 7028 873e
000000d0: 2c60 f93b af6a e53e fe85 da3e a9b6 823e
000000e0: 2c60 f93b d34d f23e c56f e43e 1d19 873e
000000f0: 2c60 f93b 3ed7 e53e a08a da3e e389 823e
00000100: 2c60 f93b cd19 f33e 716e e53e d144 873e
00000110: 2c60 f93b f5a2 e53e a08a da3e 2a31 823e
00000120: 2c60 f93b 7c93 f33e 6fd5 e63e 0f36 873e
00000130: 2c60 f93b c66f e43e 6426 d93e 17b9 813e
00000140: 2c60 f93b 5a71 f43e 8ddc e83e 4d12 873e

onnx::Div_96 f4 [37]
7.872288 0.11323975 7.415625 0.0076103415 0.27342883 0.0076103415 12.044546 0.007893852
10.51598 0.0076103415 0.2663237 0.0076103415 0.21457513 0.19766691 0.11489755 0.46093166
0.49934462 0.11514258 0.4744138 1.3073788 0.09763089 0.9362387 0.0076103415 0.90390146
0.7419808 0.0076146866 0.6666303 0.2890401 0.23186933 0.2318587 0.24615851 0.24615322
0.07109092 0.7427297 0.2879915 0.6959627 0.11324086
00000000: c9e9 fb40 3eea e73d cd4c ed40 2c60 f93b
00000010: ddfe 8b3e 2c60 f93b 76b6 4041 3755 013c
00000020: 7441 2841 2c60 f93b 945b 883e 2c60 f93b
00000030: 95b9 5b3e 3269 4a3e 684f eb3d 3cff eb3e
00000040: 19aa ff3e dfcf eb3d 5ee6 f23e 3058 a73f
00000050: b4f2 c73d 57ad 6f3f 2c60 f93b 1666 673f
00000060: 74f2 3d3f 9f84 f93b 49a8 2a3f 10fd 933e
00000070: 276f 6d3e 5e6c 6d3e fa10 7c3e 970f 7c3e
00000080: 1e98 913d 8923 3e3f 9f73 933e 9d2a 323f
00000090: d3ea e73d
