results/test1/BoxingAgent/BoxingAgent-25276.onnx (onnx, 392675 bytes, 13 tensors)

network_body.observation_encoder.processors.0.normalizer.running_mean f4 [68]
00000000: 0000 0000 720a 6d3f 43e5 8f3b 95cf 033f
00000010: 0000 0000 c00f 713f 3544 9a3b a2a3 033f
00000020: 0000 0000 8627 6a3f 6a7d 353b 669a 033f
00000030: 0000 0000 7a43 6d3f 7d02 523b 72de fc3e
00000040: 0000 0000 0ab2 643f e1ac 3a3b cb66 ff3e
00000050: 0000 0000 5803 6e3f 39b6 2d3b 27b8 f53e
00000060: 0000 0000 b86c 653f 753a 043b 8795 fb3e
00000070: 0000 0000 4be8 733f 06d3 4c3b 2c21 f33e
00000080: 0000 0000 da2f 673f a528 643b 6ee9 fa3e
00000090: 0000 0000 527d 723f 6a7d 353b afbe eb3e
000000a0: 0000 0000 9953 6a3f 3e7e 7b3b 098c f63e
000000b0: 0000 0000 f67b 703f 1090 9b3a 75fb e53e
000000c0: 0000 0000 a9cb 6f3f 9287 6e3b 80e1 f53e
000000d0: 0000 0000 d725 733f a528 643b 720d e93e
000000e0: 0000 0000 ab66 733f aee5 323b 1368 f13e
000000f0: 0000 0000 dbf7 733f cd27 1e3b 1bb1 eb3e
00000100: 0000 0000 dbf7 733f ce27 1e3b 1bb1 eb3e
0.0 0.92594063 0.004391344 0.5148862 0.0 0.9416466 0.004707838 0.5142156
0.0 0.9146656 0.002769316 0.5140747 0.0 0.92681086 0.003204494 0.49388462
0.0 0.89334166 0.0028484392 0.49883112 0.0 0.9297385 0.0026506318 0.4799206
0.0 0.89619017 0.0020176445 0.49137518 0.0 0.95276326 0.003125371 0.47486246
0.0 0.9030739 0.0034814265 0.49006218 0.0 0.94722474 0.002769316 0.46043918
0.0 0.9153381 0.0038374807 0.48153713 0.0 0.9393915 0.0011868495 0.4491841
0.0 0.93670136 0.0036396724 0.48023605 0.0 0.94979614 0.0034814265 0.4551807
0.0 0.95078534 0.0027297544 0.47149715 0.0 0.9530007 0.002413261 0.46033558
0.0 0.9530007 0.0024132612 0.46033558

network_body.observation_encoder.processors.2.normalizer.running_mean f4 [37]
00000000: e4bd 333f 6381 6d41 8ee6 5ec1 5226 a5b2
00000010: ab71 fb3e cfef 9f32 ca0f 943f 11e8 e2b8
00000020: 26fd e73d 6904 0db3 ebe5 f63e bd7c bf32
00000030: d066 6b3f 75f0 6a3f e5ae 673e 74f6 5a3e
00000040: f1c9 e13e af11 463f 2cf7 153f 0111 963c
00000050: 0000 0000 a21b 5c3b ae15 ad3d 56cc 39b7
00000060: dde5 d33c b65d f93e 7481 f73e b13c 043f
00000070: 40bb 013f 5284 fc3e efd3 1c3d f7ea 9f3e
00000080: feeb 093f 4bf0 c1bd 3510 56ba 89e3 5341
00000090: d329 013f
0.70211625 14.844089 -13.931288 -1.9225954e-08 0.4911016 1.8619088e-08 1.1567318 -0.000108197455
0.11327581 -3.283313e-08 0.48222288 2.229205e-08 0.91953754 0.9177316 0.2262531 0.21383077
0.44099382 0.77370733 0.5858028 0.018318655 0.0 0.0033585806 0.08451401 -1.1074435e-05
0.025866443 0.48704308 0.48340952 0.5165511 0.50676346 0.49319702 0.038288053 0.3123395
0.5387572 -0.0946966 -0.0008165867 13.243051 0.50454444

network_body._body_endoder.seq_layers.0.weight f4 [256, 105]
00000000: 0fbe 0b3e 21e9 053d 3f82 b73c ad82 92bc
00000010: a049 c0bc f542 143d 2025 a93d 544c 48bd
00000020: e819 35bc bb54 7e3d d5b6 eb3d 5faa 3abb
00000030: 3662 89bd 8ee3 38bc ae2c 0a3e 903b 93be
00000040: 984a 083e d578 f43d 3bb7 64bd 950f 303d
00000050: 517c 083e fbef 14bd bd45 7cbe 6184 87bd
00000060: 63cb a03d 6bfb e53d c7e4 31bd cf36 2bbe
00000070: 175c 143d 5aa6 83bd c858 bbbd 8dc5 2e3e
00000080: fb25 cabd e95c 6c3e d00a e7ba bce0 c7bc
00000090: 0882 9bbd 60f5 85be 55f7 723d 4d8c 5bbd
000000a0: 4531 3c3d 349c 0c3e cda3 91bc ed7c 93bc
000000b0: 5fed 9f3d 97c4 f7bc 9634 f7b9 7284 f6bb
000000c0: 988a a23d f898 4abe 7559 4c3c 8a51 053d
000000d0: 5603 d0bd d95d 973c 83ea fb3b 35a6 393e
000000e0: 7883 603d 03ec ff3d 2255 38be 1dfc dd3d
000000f0: 8435 0cbd daba b33c 3025 e93d 9fa6 ed3d
00000100: 08c8 1abe 72f1 4abc 9cdf d0bc 0233 633c
00000110: e36d 5a3c dc10 daba 5dee b33c 8c7d c73c
00000120: 90be 36bd 02d4 87bd d324 823d 13ff 10be
00000130: 2d29 88bd c82d bbbd 9641 453d b650 62bd
00000140: fda0 f0bd 99c0 dbbd d88e 3bbd 91ae b4bd
00000150: 1496 c23c 5ecd bf3c fe19 823d 60e6 8db8
00000160: e650 913d 8004 30bd 7acc ecbc d885 193d
00000170: 5d21 0fbe d24c aa3d 5dc8 c03d b8b6 4cbb
00000180: 68f4 2dbe 5918 92bb 156c 583d 3490 13be
00000190: 7e42 8b3d d847 b93d 57e5 02be 286d 3cbd
000001a0: d73d 9b3d 9871 053d 4a1e bfbd 3559 f7bb
000001b0: b21e 29bb e24c c6bd a90d 363d a17a 663d
000001c0: 8de9 f73b c8bb db3d f8e8 e8bc 68c5 32be
000001d0: 9f01 b83d 4c7e 533d 9869 a5bd de66 28bd
000001e0: b442 61bd 5b8c 57bc f7e9 ad3d d83a 31bd
000001f0: 7ca0 0c3e fe75 2ebe d1de 483d bdba d43d
00000200: 09ea cf3d 950c afbc 77db 02bd b97a 97bc
00000210: 7d18 f3bc 4242 973d f71e 053d 2296 01be
00000220: cd5f cd3c d174 423b c7e3 17be cb7e 2e3e
00000230: 007f 61bd 31ce 9abd d916 53be e6d6 a23d
00000240: 3ec2 f03d affe 9e3c 0c6b 80bd d525 17be
00000250: 6a5c ea3d f78b 29be 2128 a13d 9e34 a43c
00000260: febc 9cbd d694 013d 5091 79bd 9bf4 cbbb
00000270: 34fd a7bd 3318 23be 9887 c0bd 2ee9 03be
00000280: 3ecd 57bc 8672 67bc d1c7 0dbd f3e9 863e
00000290: 5aa7 9d3d 63fd a3bc 77f9 523e a5b9 91bd
000002a0: baed 9e3c 5148 803d f73c 4bbc 6c3f 8c3d
000002b0: a86d 443c 301a ce3d 634d 533d 18a6 0fbc
000002c0: 963e 50bc 16e7 0a3e f798 d1bb 757a 33bd
000002d0: 7f7f 413d 4e62 023e ac70 b63d 9685 2dbb
000002e0: 3329 743d 4798 12bc 3295 773d d25b afbc
000002f0: 452a 6a3e c00c 8bbc 6375 01be ca5b 34be
00000300: 7a9f 5e3d 5d6d 043e ccc5 023e 8706 583e
00000310: 8f2a c53b 0f83 803c 9755 b0bc 780a 00bd
00000320: 5560 7b3c f7f9 5c3e 1af2 1cbd b9a2 60bd
00000330: 9d81 b9bd 8816 82bd ae28 f63a 24f0 80bb
00000340: 3689 80bd e41a 3e3c 6db6 d6bd 8cf6 af3c
00000350: ed53 323e 03ef db3c 920f 06bd 11c0 37be
00000360: ff6a a03d 658b 3abe e1a6 a93a 913e a5bc
00000370: 11e4 a53c 8f64 b1bd 9479 863d ab42 e33d
00000380: 2b41 613b 4e6a 8a3d b63f f63d c836 babd
00000390: 49d7 283e e5c2 31be 395a 30bc 07d0 f63d
000003a0: 2b4f a03c 9115 183d 5452 543d 548e c83d
000003b0: 9ad5 9abd df7f 12be 5c98 9cbd a47d 1cbd
000003c0: ec8a 18bd dd5b 233e 4005 6ebd ca36 38bc
000003d0: 6bdc b4bc cab0 523e 0445 fa3d 6c1b 20be
000003e0: 8f3b 09bc c6f4 3bbe 9a5a 3bbc 2eb0 a2bd
000003f0: d4ef 353e 6665 bf3d ba91 fb3d 21c0 e03d
0.1364672 0.032693032 0.022400973 -0.017884577 -0.023472607 0.036196668 0.08259034 -0.048900917
-0.01105354 0.062092524 0.11509482 -0.0028482897 -0.067081854 -0.011284722 0.13493606 -0.2875638
0.13309705 0.119371094 -0.055838805 0.04298361 0.13328673 -0.036361676 -0.24635978 -0.06617046
0.07851293 0.11229595 -0.04343107 -0.16720127 0.036220636 -0.064282134 -0.09147793 0.17067547
-0.098705254 0.23082317 -0.0017627124 -0.024399154 -0.07593161 -0.2616377 0.059317905 -0.053600598
0.045945425 0.13731462 -0.017778302 -0.018003905 0.07808947 -0.030245109 -0.0004715069 -0.007523113
0.07936591 -0.19784915 0.0124725 0.032548465 -0.10156886 0.018477367 0.007687868 0.18129809
0.05481288 0.124961875 -0.18001226 0.108391024 -0.034230724 0.021939684 0.11384046 0.11604046
-0.15115368 -0.012386667 -0.02549725 0.013867142 0.013331863 -0.0016637105 0.021964246 0.024351858
-0.04461533 -0.06632234 0.0635468 -0.14159803 -0.06648479 -0.091395915 0.04815825 -0.055252753
-0.11749456 -0.107300945 -0.045790523 -0.088223584 0.023753203 0.023413356 0.06352614 -6.7663146e-05
0.07095508 -0.04297304 -0.028906096 0.03748116 -0.13977571 0.083154336 0.09413216 -0.0031236839
-0.16987765 -0.004458469 0.05283745 -0.14410478 0.06799792 0.09046906 -0.12782799 -0.046002537
0.075801544 0.032579035 -0.09331949 -0.007548476 -0.002580565 -0.09682633 0.04444662 0.05626929
0.007565683 0.10729176 -0.0284314 -0.17458117 0.08984684 0.051634118 -0.08076781 -0.041113727
-0.054995254 -0.013156022 0.08491891 -0.04326901 0.13733095 -0.17037198 0.04904062 0.1038718
0.101520605 -0.021368304 -0.03194758 -0.018491136 -0.029674763 0.073856845 0.032500234 -0.12654927
0.025070095 0.0029671679 -0.14832984 0.17040555 -0.055052757 -0.07558859 -0.20614184 0.07951145
0.11755799 0.019408552 -0.062704176 -0.14760526 0.11443408 -0.16557299 0.07868982 0.020044621
-0.07653235 0.03163608 -0.060929596 -0.0062242276 -0.082025915 -0.159272 -0.094008625 -0.1288192
-0.013171492 -0.014126426 -0.034614388 0.26350364 0.076979354 -0.020018285 0.20602976 -0.07115487
0.019400466 0.06263793 -0.012404672 0.06848034 0.011989035 0.100635886 0.051587474 -0.008767627
-0.012710234 0.13564715 -0.0063964087 -0.043817956 0.04724073 0.12732813 0.08908209 -0.0026477329
0.059609603 -0.008947439 0.060445018 -0.021406088 0.22867687 -0.016973853 -0.12642436 -0.1761314
0.054351307 0.12932344 0.12770766 0.2109624 0.0060170363 0.015687494 -0.021525187 -0.031259984
0.015342792 0.21579729 -0.038316824 -0.054842684 -0.09057925 -0.06351954 0.0018780434 -0.003934877
-0.06276171 0.011603091 -0.10484014 0.021479867 0.17414828 0.026847368 -0.032729693 -0.17944361
0.07832908 -0.18217237 0.001294341 -0.020171436 0.020250352 -0.08661758 0.06566158 0.110967
0.0034371119 0.06758557 0.12023871 -0.0909248 0.16488375 -0.17359503 -0.010763698 0.12051397
0.019569 0.037129942 0.051836327 0.09792772 -0.075602725 -0.14306591 -0.07646248 -0.038205758
-0.03724186 0.15953012 -0.058110476 -0.0112435315 -0.02207776 0.20575252 0.12220195 -0.1563546
-0.008376016 -0.18355092 -0.011435175 -0.0794376 0.17767268 0.09345512 0.122836545 0.10974146

network_body._body_endoder.seq_layers.0.bias f4 [256]
00000000: ecf2 263a 8b67 83bb cd0d 923b 8eb7 b73b
00000010: dcc6 47bc ffd2 f0bb 79d9 653b e1a8 213b
00000020: 45a5 92bb aac6 e83b fd3f 403c dddd 9b3b
00000030: 8b57 743c 275d 403b 0789 2c3c 7193 0f3b
00000040: df86 9bba 9849 2aba da62 533c eaf4 37ba
00000050: 5619 f23b 16e7 8e3b 6c9e 633c e4f5 253c
00000060: cb5b c3ba 71aa 733a 82ea 263b 7c95 253c
00000070: 38e7 953b a47b b53b 3cf3 c5bb 04d3 ac3b
00000080: e888 ca3b f16b 62bc 1689 8eba 218a 95bb
00000090: 2cbf 66ba f91d c6ba 9f6f ef3a 5e85 ce3b
000000a0: fec8 8cba 781d 2d3c fbb7 0c3c b7fc 70bc
000000b0: e62e 323c 9f3d b13b 5cfb 423c f7a7 343b
000000c0: b68c 8239 dcb3 813b 86cf 2c3c fa80 23bb
000000d0: 0ab5 313c 3458 53bc d6a6 4eb9 1e0d a63b
000000e0: 404d 213c f06b 073b d6af 383b 309a 323b
000000f0: 1d30 2c3c 8b55 203c bb91 2ebb 3ab3 263b
00000100: abac 9f3b 9c15 353c d42d f03b 5ea6 b43b
00000110: 9605 4b3c 1c87 caba 9897 cfbb 1de4 9bbb
00000120: 6f2c dc3b dd1f 14bb cc59 173a b412 8a3b
00000130: 6def 303c 0e61 543c ed74 2c3b 0774 0ebb
00000140: df62 b23b 9f55 473c 7a0d 333b 951f 3b3c
00000150: 3a3f 3b3b adb4 67bb a261 1c3c 9d18 7b3b
00000160: 0146 053c 47e8 603b 0218 c5bb 19bf 3c3c
00000170: 08d2 923a f87e af3a 6502 043c 990b a73b
00000180: e65f 87ba 4754 163c 46ba 0e39 d303 9f3b
00000190: 1fb8 173b c9aa 603a faa2 8cba 708f 693c
000001a0: c255 a739 a61a c2bb ce07 143b eb2b 0a3b
000001b0: c210 c3bb c651 2dbb 1d96 b239 279b f4bb
000001c0: ec6a 9a3b 4cb6 453c 33c8 bd3b 7924 d8bb
000001d0: 379e 373c 0361 3c3c b8b5 7b3c 37af 883b
000001e0: f63d 203c c395 323c 15d5 2d3c 3c35 1f3c
000001f0: 3b54 3e3c 4b13 353b e58f 673c 4a34 8cbb
00000200: 9e98 da3b e42d 7f3b fe6a 2e3a 122a 153c
00000210: e2ef f73b acf6 db3a 0560 8b3b 3662 1e3b
00000220: 4647 213c f89d 37bc e7d9 7d3c 007d e23b
00000230: bff6 8e3b 92e0 99ba ce71 163c b5c6 d33a
00000240: ce60 2e3c 421d 4e3c b738 fd3a 26d9 253b
00000250: 68fc 6a3c b961 883a 9a21 a63b 6498 463c
00000260: f2f7 563c 480e d03b f229 063b 4d65 3d3c
00000270: f4c0 1e3a 9c56 f13a a388 4a3b 8272 cd3b
00000280: 7dee cf3b f780 1a3b 0828 303c 3597 043c
00000290: 2584 40bb 7503 2b3c 4dbd 20bb dad9 f53a
000002a0: 16ef cb3b d4a2 7f3a d642 7a3b 0103 193a
000002b0: 306f 2dbc 7603 c43b 2ced 543b 6b88 f8bb
000002c0: c50e d0bb 311f 72ba 5a64 8f3b 2eaf cc3a
000002d0: 143b 463c b9d1 b73b 33da 903b d52e 6b3c
000002e0: fc45 5aba 6d4b 103c 15ff f23b 6588 653c
000002f0: 36a3 3cbc 0881 2b3a 4984 823c 69ec 93bb
00000300: 352c 073b dbce edba e51d 08bc 6457 593c
00000310: 4936 b33b 3c2c 8cba 6122 123c a474 2f3c
00000320: 36a1 193c 0f37 e5bb 3a6e 2fbb e6c2 fb3b
00000330: 6688 103b eafc 3b3c 115f 273c 1198 3aba
00000340: 8bf6 ef3b a3f4 68bb 04ff b73b 9a3c 513b
00000350: ae72 ab3b a72d 1cbb c28f 753a 997a 0e3b
00000360: 1258 633c 75bc f13b f24b 69bb c36a 623c
00000370: 84e3 6e3a 88a0 8a3b 02b0 5a3a 9a8d 473c
00000380: a659 733b 904e 2b3c 09c9 d53b a6b6 eb3b
00000390: a601 373c 1bf3 f33a ba60 bd3b 5da4 81ba
000003a0: 7209 8e3b a70e bc3b 40a4 3f3a e9cb 023a
000003b0: 97d4 8dbb 2f9b bc3a 4cb0 2e3c 6843 c93b
000003c0: 7754 733b bd0f 2ebc c537 303c 4114 c63b
000003d0: 9014 f43b 5258 aabb c452 98bb 6ea8 253c
000003e0: 4ecd 043c 4ebf 183c dae8 dabb d4dc a33b
000003f0: 4880 253c 7952 f53b d24d c43b a4ea d13a
0.00063685956 -0.004010146 0.0044572116 0.005606598 -0.012193408 -0.0073493714 0.003507225 0.002466731
-0.004475268 0.0071037607 0.011734006 0.004756673 0.01491345 0.0029352398 0.010530717 0.002190795
-0.0011865756 -0.00064959517 0.012901986 -0.0007017391 0.007388274 0.0043610437 0.013892751 0.010129426
-0.0014904676 0.0009295112 0.0025469367 0.010106441 0.0045746826 0.0055384208 -0.0060409587 0.0052741785
0.0061808713 -0.013819681 -0.0010874595 -0.0045635854 -0.00088022905 -0.0015115134 0.0018267519 0.0063025197
-0.0010741053 0.010566108 0.008588786 -0.014708689 0.010875439 0.005408957 0.011900749 0.0027565935
0.0002490037 0.0039582085 0.010547524 -0.0024948702 0.010846386 -0.012899447 -0.00019707842 0.0050674817
0.009845078 0.00206637 0.0028180978 0.0027252547 0.010509518 0.00978602 -0.0026637155 0.0025436417
0.0048728785 0.011052515 0.007329682 0.0055129966 0.0123914685 -0.0015451643 -0.00633521 -0.004757418
0.006719164 -0.0022602 0.00057735736 0.0042136554 0.010799271 0.012962593 0.002631481 -0.0021736638
0.0054439153 0.01216641 0.0027321265 0.011421104 0.0028571622 -0.0035355494 0.009544762 0.0038314231
0.008134366 0.0034318136 -0.006014825 0.011520171 0.001120151 0.001338928 0.0080572115 0.005097818
-0.0010328263 0.009175367 0.00013611568 0.004852751 0.0023150516 0.0008570371 -0.0010729723 0.01425539
0.00031916617 -0.005923587 0.002258766 0.0021083306 -0.0059529254 -0.0026446446 0.0003406265 -0.0074647847
0.004712453 0.012067389 0.005791688 -0.0065961448 0.011207155 0.011497739 0.015363149 0.004171278
0.009780398 0.010899964 0.010609885 0.009717282 0.011616762 0.0027629908 0.014133428 -0.0042786943
0.0066710254 0.0038937265 0.00066535163 0.009104269 0.007566438 0.0016781888 0.00425339 0.0024167425
0.009843653 -0.011207096 0.0154938465 0.006911874 0.0043629105 -0.0011739901 0.009182407 0.0016157242
0.010643197 0.012580218 0.001931927 0.0025306433 0.014342405 0.00104051 0.0050699236 0.012121294
0.013120638 0.0063493587 0.0020471779 0.0115597965 0.0006055974 0.0018412652 0.0030904196 0.006269754
0.0063455687 0.0023575404 0.010751732 0.008092691 -0.002937564 0.010437836 -0.0024526895 0.0018756941
0.0062235696 0.00097517413 0.003818681 0.00058369344 -0.010585591 0.005981858 0.0032489998 -0.0075846217
-0.006349417 -0.0009236215 0.0043759765 0.0015616172 0.012099046 0.0056097177 0.0044205426 0.014354427
-0.00083264685 0.008807045 0.007415662 0.01400957 -0.011513522 0.00065423595 0.01593222 -0.0045142663
0.0020625715 -0.0018143313 -0.008307909 0.013265464 0.005469118 -0.0010694335 0.008919329 0.010708962
0.009376815 -0.006995089 -0.002676858 0.007683146 0.0022053956 0.011473874 0.010215537 -0.00071179966
0.0073230914 -0.0035546205 0.005615117 0.003192699 0.0052321767 -0.0023830922 0.000936743 0.0021740554
0.013875978 0.007377202 -0.0035598245 0.013819399 0.0009112882 0.0042305626 0.0008342267 0.012179757
0.0037132292 0.0104557425 0.0065242094 0.0071934042 0.011169827 0.001861188 0.005779353 -0.0009890903
0.004334622 0.0057390514 0.0007310547 0.00049894914 -0.004328321 0.001438951 0.01066215 0.0061420687
0.0037129202 -0.0106238695 0.010755484 0.006044895 0.0074487403 -0.005198517 -0.0046485383 0.010110958
0.008105589 0.009322954 -0.00668059 0.00500069 0.010101385 0.007486638 0.005990722 0.0016015363

network_body._body_endoder.seq_layers.2.weight f4 [256, 256]
00000000: 15a4 023d 8a30 1fbe 15d0 4dbd ce10 ee3d
00000010: 11ae b43b adac 3ebc 0ea7 423d 4bf3 a4bd
00000020: ffb5 9f3b 7da0 e93d 7fac 303c 0811 753d
00000030: cfc5 ba3d 4300 85bd 63c3 80bc 81d0 9fbc
00000040: bc02 15bc b7a4 3cbd 5c8d ff3c 73cd 703d
00000050: 8e04 eebc eb8a b3bd 16e5 3a3d d52f 233d
00000060: 3ee4 0d3d 56bf 82bd 0ddf 3fbd 96a9 aa3a
00000070: fe6b 823d 8b35 883c f6b6 9b3d af03 9abd
00000080: 91a6 8bbc d4f3 83bd 0b30 2f3c 2f07 08bd
00000090: ab90 063d 8d1c ffbc 15c7 b63c 1556 aebc
000000a0: b793 b83d bf74 dabc fcbb 923b ee38 42bd
000000b0: 64ba 6bbd ff15 693c 3c81 febc f0ef 023d
000000c0: 23c5 e9bc 1235 b3bb 6d41 8fbc 6618 bf3c
000000d0: 94d5 8e3d b682 60bc f8a6 b43c c3c7 bd3a
000000e0: a4b0 343d d606 943d 4f4c 873c fd81 e93d
000000f0: 67ca a138 cb3b 78bd 99e5 ad3d af32 88bd
00000100: 7b6d 213e 4996 293c 16e5 903d cc27 eaba
00000110: 6790 873d b505 c7bc 0a27 65bc 0bf9 c2bd
00000120: 566a 4cbd 4c6e a73c c022 83bd 7ecf 383c
00000130: 07f3 013d e64f 193d 5f59 323c 9b58 5ebd
00000140: e20e 9f3d de9d 02bd 0a62 6dbd 690b 3abc
00000150: 6264 9a3d cb35 c4bd b7fa 823d 27dd 8d3d
00000160: b5b1 19be 77c6 a5bc 1d8a a0bd 4a9a 91bc
00000170: 32fd 5b3d 5d92 f43b 5a09 ca3d 969c c33d
00000180: 2e80 80bd 0318 c03c 38b9 d7bc 4e0e 1b3d
00000190: 4669 223d 2053 4c3d 64cb 1a3e f8db 933d
000001a0: d174 d2bd e4c0 bb3c 46d3 36bd 6fa2 8a3d
000001b0: 274f 2f3d f542 7c3c 1880 e0bc 7dbc 533d
000001c0: 88b6 9939 1fb8 9a3d f022 993d 2cab 62bd
000001d0: c9aa 093e efe5 293d 0bfa 7c3d baac 763d
000001e0: 335b 39bd d5c7 a23c 632d 95bd 973c ad3d
000001f0: f46b 8dbd d67a 8bbc 21e7 f03d ae68 ccbd
00000200: f36a 883c 8f35 e83b 4847 3bbd 63de 9dbd
00000210: 9b4c 5a3c fbe4 1f3d 8c20 033e b62e e7bc
00000220: 242a 0dbc e3d5 afbc 3344 49bb d79f 263e
00000230: 989d 0dbd c6f3 313d 423e 4cbd a2cf 583d
00000240: 79cd 87bc 3e42 84bb f98c 3c3d ec9e 7a3a
00000250: 3d21 9b3d 3356 eaba 5bbe 473d 77dd ce3c
00000260: 1933 43bd 42aa cbbc 7701 da3c 9c0a 8bbd
00000270: ca3a b53c 4d83 9fbd 50b0 2dbd c7b0 6f3d
00000280: 3834 90bd 3fb9 6fbd de0d 893d a0a7 0a3b
00000290: c316 68bd f8cd a23d 862d 7bbb 559a 41bc
000002a0: 9b0b 0fbc 25cf 28bd ca9d ebbd 9dca 78bd
000002b0: bda9 b3bd 11ca 393d af12 30bd d5e6 773d
000002c0: f1c5 04be 11e1 4a3d 1b36 24bc bccb f5bd
000002d0: c6e0 90bd 740e 613d 3930 813d 9027 1e3d
000002e0: cc48 fc3d 4c96 ff3c f217 4c3d 0007 6d3d
000002f0: cbd9 01be 9da5 88bd 98e5 4ebd 2e1d 5d3d
00000300: 21ed 2f3d fa07 d9bc d6a3 eabb 4d04 87bd
00000310: 6bf8 4a3d cbaf b13d 8cd2 6cbe b643 c1bc
00000320: 5774 803d e5d1 92bd a81f 41bd b7f5 08bd
00000330: 78e2 6f38 43ba d53d 19e1 b93d 15ce 19bd
00000340: 38df 52bd 8ba3 93bd ffad fdbc b0df 6abd
00000350: 34ca 573d a885 393d cc7e 0cbc e8c4 2bbd
00000360: 5406 373d 7185 00bc b681 f13c 2c19 713d
00000370: 837d 19bc 67a3 033d 8e4a 89bd 9238 243d
00000380: eb00 c63d f97f 6ebd 4409 cebb 798c 473b
00000390: ad51 e7bc 75f3 f6bc eef3 0dbd 5b63 213d
000003a0: 5188 633d 691b 09be e78c bbbd a9ef 42bd
000003b0: 1fe4 cc3c a4a2 56bd 666a fabd 2d67 7abc
000003c0: 2367 6b3d 3542 11bc 647c 06be bbba 403d
000003d0: 4b7c 03bd a37c ea3c aae6 803d c215 e7bb
000003e0: 4166 fbbc d7de 503d 085d 8f3c 697f a33b
000003f0: caf8 803c 41df 9bbd 82ea ea3b 6592 44bd
0.031894762 -0.1554586 -0.05024727 0.11624299 0.0055139144 -0.011637849 0.047522597 -0.08054217
0.0048739905 0.11407564 0.010783314 0.059830695 0.0911976 -0.064941905 -0.015718168 -0.019508602
-0.00909489 -0.04605552 0.031195335 0.05878968 -0.029054906 -0.08766731 0.04562863 0.039840538
0.034641497 -0.06384151 -0.046843577 0.0013020511 0.06368254 0.016627094 0.076032564 -0.07520234
-0.017047198 -0.06442991 0.010692607 -0.033209976 0.03285281 -0.031141544 0.022311727 -0.021281281
0.09012549 -0.026666997 0.004477976 -0.047417574 -0.057550803 0.014226436 -0.031067483 0.031967103
-0.028536385 -0.005468973 -0.017487252 0.023327064 0.069743305 -0.013703039 0.022052273 0.0014479089
0.04411377 0.07227866 0.016515879 0.114017464 7.7147786e-05 -0.060603898 0.08491058 -0.06650292
0.1576442 0.010350772 0.07074945 -0.0017864644 0.066193394 -0.024294714 -0.013986358 -0.095201574
-0.049906097 0.020438336 -0.064031124 0.011279939 0.03172591 0.037429713 0.010885566 -0.05428372
0.077665105 -0.031888835 -0.057954825 -0.011355259 0.07538678 -0.09580573 0.06395476 0.06926947
-0.15009196 -0.020236237 -0.07838843 -0.017773766 0.053708263 0.007463737 0.09865065 0.09551351
-0.06274448 0.02344895 -0.026333436 0.03785544 0.039651178 0.04988396 0.1511665 0.0721969
-0.10276187 0.022919126 -0.04463508 0.06769263 0.042800095 0.015396823 -0.02740483 0.05169343
0.0002931843 0.075546496 0.07477367 -0.055339023 0.13444056 0.041479047 0.061761897 0.06022332
-0.04525299 0.019870678 -0.072840475 0.08458822 -0.06905356 -0.017026346 0.11762834 -0.099809036
0.01665256 0.007086463 -0.045722276 -0.077084325 0.013323928 0.039036732 0.12805384 -0.028220516
-0.008616004 -0.021464294 -0.0030710816 0.16271912 -0.03457412 0.04344537 -0.04986406 0.05293239
-0.01657747 -0.004036217 0.04603288 0.00095604244 0.07574699 -0.0017878473 0.04876552 0.025252087
-0.047656152 -0.024861459 0.026612027 -0.06789133 0.02212276 -0.077887155 -0.042404473 0.058518197
-0.0704121 -0.058526274 0.06692098 0.0021157041 -0.056662332 0.07949442 -0.0038326695 -0.011816581
-0.008730794 -0.041213173 -0.11504705 -0.060740102 -0.087726094 0.04535872 -0.042986568 0.060522873
-0.12966134 0.049531046 -0.010022665 -0.1200175 -0.07074122 0.054945424 0.06308026 0.03861195
0.123185724 0.031199597 0.049827524 0.057868004 -0.12680738 -0.06672213 -0.050511926 0.053982906
0.042950753 -0.026493061 -0.007160644 -0.06592617 0.049553316 0.08676108 -0.23127192 -0.023591857
0.0627219 -0.071689405 -0.04714933 -0.033437457 5.7192956e-05 0.10435917 0.09076137 -0.03755005
-0.05148241 -0.07208928 -0.030966757 -0.05734223 0.05268307 0.04529348 -0.008575153 -0.04193583
0.04468377 -0.007844315 0.029480796 0.058861896 -0.009368303 0.032138254 -0.06703673 0.040093012
0.09668144 -0.058227513 -0.0062877256 0.0030448718 -0.028237188 -0.030145386 -0.034656458 0.039401393
0.055549923 -0.13389362 -0.09157734 -0.04759184 0.02501112 -0.0524012 -0.12227325 -0.015283388
0.057471406 -0.008865883 -0.13133389 0.04705308 -0.032100957 0.028623885 0.06293996 -0.0070521543
-0.030688407 0.050993767 0.017500415 0.0049895537 0.015743632 -0.07610942 0.007169069 -0.047991175

network_body._body_endoder.seq_layers.2.bias f4 [256]
00000000: 4e7b 523c 5f70 0f3c f9f5 f63a a86b c03b
00000010: 258b 9c3b 2a13 e23a ce33 be3a 693e ed3a
00000020: af17 2fbb c855 c23b a707 cd3a 9874 453b
00000030: eaa3 8f3b b9e5 d63b b14f 313c 4d02 53bc
00000040: dd7d 713b c256 903b 6b0f 503c 008a 13bc
00000050: 5a21 f1bb 86ed 4b3c 547b 233b db83 f53b
00000060: 9ce5 8c3a 4240 be3b 0f6d dd3b cfa5 b3bb
00000070: 21d5 4abb 0819 053b d0e9 cebb 7082 79bb
00000080: fb36 0dbc 0cc4 ae3b bc23 673b a6c6 043c
00000090: 1a8a 173a 9cc8 4ebc 3843 eeba 032d 1d3b
000000a0: d703 133c b779 8cbb 2bbc 523c 552b 0f3c
000000b0: 5c15 943b 3bc1 9fbb a307 f0b9 e35c 02bc
000000c0: bae3 38ba 3c7d a33b e5d2 f139 b85c 2abb
000000d0: 4a52 d73b e9ec 023c 1a8c 893c 35d3 d13b
000000e0: 95ef 413c 1dea 723c 76f2 8c3b b554 553b
000000f0: b20c ca39 3c1c f13b 268b b93b b85f 343c
00000100: 225d 703c 25c4 19bb c337 473c 4d07 063c
00000110: 8143 25bb e039 14bb 1481 9ebb 237b 0dbc
00000120: 288f d83a 81d1 85bb 271a 023b 8762 ee3b
00000130: 70c1 f23b 5524 c33a d159 da3b 9b3a 38bc
00000140: b6ce 823c 0f67 fabb cde7 433c 21e0 383b
00000150: d1db 1c3a 4205 2a3c 7df6 7b3b a8d7 513a
00000160: bb91 213c 9fe1 433c 1bf6 19bb a250 a4bb
00000170: 7367 b03a 791d 623b d36f 2d3c 4506 80bb
00000180: ba54 333b 50a0 603b 50e8 8c3b 3b6a 4f3c
00000190: 23b3 35bc 2d8b 8bba df3b e93a f35c 093c
000001a0: 390c ee3b 4524 82bb 1e47 ac3b 9049 223b
000001b0: be9b 843c 01fd 1bbb 15b3 93ba 43fd 2f3c
000001c0: 91c2 37bb affc 353c b1e3 0ebb fb4e 9b3b
000001d0: 69a2 19bc 5e15 273c 0ab3 36bb 3ea9 4c3c
000001e0: 8a06 403c 6f23 383b abdd 5a3c e812 b5ba
000001f0: 47a7 84bb ac00 03bc 1fda 353b 020a bd3a
00000200: 797c baba 6c87 a9bb 0c79 053c cb5a ee3a
00000210: f743 8e3a 492d ecbb 0999 973b cbf9 73ba
00000220: f147 29bc a820 0d3c 2212 d83a 5991 143c
00000230: 3c1e 1ebc 284d 1b3c eed6 6e3c 6d0f 703a
00000240: 7b6d 5e3c 0fd8 3c3c 3998 e03b 57ae 6a3c
00000250: b8c0 fd3b bb33 b33a 91d6 01bc 6ef6 0a3b
00000260: 4e42 11bb 3ec4 d73b 1a61 bf3b 468b 8bba
00000270: 21f0 0e3b db35 95ba 4c83 053b a9cb 573c
00000280: 40e8 583c cac6 11ba 81c6 36bb 90cf 8bbb
00000290: f897 d43b 3212 15bc 6b98 ab3b 4227 ebbb
000002a0: 3d04 343c dd0b 08bc 4b30 153c e44f 12bc
000002b0: e12b 58bb b175 643b baf2 1cbb 1044 38ba
000002c0: 1759 7cbc 0adb 463a 9a48 633c 8fe5 22bc
000002d0: a9fb 3f3b 6b39 eb3b 3001 bfbb 3ff1 60bb
000002e0: f066 5ebb ef99 13bb 97b2 413c 0f86 cebb
000002f0: e634 68ba f9ef 823b 083a b03b 95c6 fe3b
00000300: 15c1 33bb bf22 143b 9e6c 7cbb f4dc 2d3a
00000310: 53ed 09bc 991c 2abc 9faa 953b d7eb 4c3c
00000320: 55c6 973b c306 013c c8e1 1e3c 335d 033c
00000330: 58e3 823b 2906 ce3b 0c35 1b3c 870b fc3b
00000340: 17db 0a3c 9b69 f2b9 a8af 093b a95a 333b
00000350: 8bec c53b e87a b23b 548f 6c3b ecf5 5838
00000360: a6a6 49bc 9c5c d33b b123 c53a e33a 43bc
00000370: 106f 823b b67c 0a3c a299 b93b 8855 083c
00000380: 87a4 5e3b 32f3 b6ba e405 a13b 1438 493b
00000390: 28d4 463b b76a 92ba 3040 1ebc 4291 ec3b
000003a0: 834b 813c d168 923b b0eb 403c 9710 00bc
000003b0: cf61 cabb 1f19 3a3b 5d0d 7b3c 4a41 2e3c
000003c0: 536d 823b 132a 38bc 9a8e 8339 cfb3 efbb
000003d0: 1545 ac39 1cf6 603c 3060 303c 2535 9e39
000003e0: 48a6 223b 38ef eb3a 96a3 0b3c 625d 953b
000003f0: fd15 f13b 170a 94bb d5b2 843b e159 9a3a
0.012846781 0.008754819 0.0018841616 0.0058722086 0.0047773295 0.0017248143 0.0014511289 0.0018100265
-0.0026716997 0.005930636 0.0015642539 0.003012931 0.0043835538 0.006558147 0.010822223 -0.0128789665
0.0036848702 0.0044048736 0.012698988 -0.00900507 -0.007358712 0.012446767 0.0024945335 0.007492525
0.0010749581 0.005806 0.0067573856 -0.0054824124 -0.0030949789 0.002030911 -0.0063144937 -0.0038072132
-0.008619065 0.005333429 0.0035269102 0.008104002 0.00057807716 -0.012621071 -0.0018177992 0.0023983128
0.008973083 -0.0042869705 0.012862246 0.0087383585 0.004519148 -0.00487533 -0.00045782057 -0.007956716
-0.0007052977 0.0049892943 0.0004612423 -0.0025995206 0.006571089 0.007991054 0.016790438 0.0064033517
0.011836906 0.014826325 0.0043013645 0.003255171 0.000385379 0.007358102 0.0056623397 0.011009149
0.014670642 -0.0023462859 0.012159291 0.008180452 -0.0025217237 -0.0022617504 -0.0048371647 -0.008635315
0.0016522156 -0.0040838127 0.0019852014 0.007274929 0.0074083135 0.0014888147 0.006663539 -0.011244441
0.015967708 -0.00764168 0.011957121 0.0028209763 0.0005983683 0.01037723 0.003844648 0.00080048526
0.009861405 0.011955648 -0.0023492638 -0.005014495 0.0013458565 0.003450243 0.010585743 -0.0039069974
0.0027363733 0.0034275241 0.0043001547 0.012659605 -0.011090073 -0.0010646336 0.0017794332 0.008383977
0.0072646406 -0.003971609 0.0052575013 0.0024763085 0.016187545 -0.0023801925 -0.001126858 0.010741535
-0.0028039555 0.011107608 -0.0021803195 0.00473964 -0.0093771005 0.010197965 -0.0027877712 0.012491522
0.011720309 0.0028097292 0.013358514 -0.0013814839 -0.0040482613 -0.007995766 0.0027748419 0.0014422538
-0.001422777 -0.0051736142 0.008146536 0.0018185017 0.0010853995 -0.007207547 0.0046263975 -0.00093069364
-0.010332094 0.008613743 0.0016484896 0.009067857 -0.009650763 0.009478845 0.01457761 0.0009157572
0.013575907 0.011526122 0.006854084 0.014323792 0.007743921 0.0013672033 -0.007924692 0.0021204012
-0.0022164765 0.006584673 0.005840433 -0.0010646365 0.0021810608 -0.0011383848 0.0020372448 0.013171115
0.013238966 -0.0005560933 -0.0027889314 -0.0042666867 0.0064878426 -0.009098576 0.0052366755 -0.0071763108
0.010987339 -0.00830361 0.009105752 -0.00893018 -0.0032985138 0.0034860189 -0.0023948387 -0.0007029185
-0.0154021 0.000758574 0.01387229 -0.009942426 0.0029294288 0.0071784756 -0.005828999 -0.0034323481
-0.0033935867 -0.0022522171 0.011822364 -0.006302602 -0.000885798 0.003995892 0.0053780116 0.0077751377
-0.0027428318 0.0022603718 -0.003851689 0.0006632351 -0.008418399 -0.010382795 0.0045674588 0.0125074005
0.0046317973 0.007875147 0.009697385 0.008017826 0.0039943866 0.0062873554 0.009473097 0.007691804
0.008475087 -0.0004623652 0.002100924 0.002736727 0.006040161 0.0054467805 0.0036096172 5.1727446e-05
-0.0123077985 0.006450249 0.0015040544 -0.011915895 0.003980525 0.008452585 0.0056640664 0.0083211735
0.0033972578 -0.0013957976 0.0049140323 0.0030703591 0.0030338857 -0.001117072 -0.009658858 0.0072194645
0.015783077 0.0044680615 0.011774942 -0.007816455 -0.0061762105 0.002839632 0.01532301 0.010635683
0.0039803176 -0.0112405 0.00025092514 -0.007315136 0.00032857867 0.013730552 0.01076512 0.00030175704
0.002481835 0.001800037 0.008522889 0.0045582512 0.0073573575 -0.0045178044 0.0040496388 0.0011776054

action_model._continuous_distribution.log_sigma f4 [1, 3]
00000000: 6e43 ec3a 7c10 023c 8883 baba
0.0018025467 0.0079385005 -0.0014229873

action_model._continuous_distribution.mu.weight f4 [3, 256]
00000000: de9e 6d3b 1ef9 ed3a 56dc 01bc b973 243c
00000010: 2f33 a23c d67a b03b e43e d4bb cd3b 9abb
00000020: d21d 19bc 517c c3bc fcb7 5abb 8f37 7b3c
00000030: 25dc 6cbc 2edd 4bbb d880 1b3c 54ba 0cbb
00000040: 5f39 8ebc 2c00 67bc 19c0 283c c2e8 bcbb
00000050: 4d47 813a 279c ca3b ff9b 88bc 6ea9 5eb9
00000060: 9d31 0f3c e00d 0dbc 127f 803c d82d 5a3c
00000070: 2049 303c c79b 6cbc 6e7c d0b8 2ea1 33bd
00000080: 8530 283b 4d4b ae3c 9efe 6ebc 46ff 363b
00000090: 4c1e 7abc 8251 f2bb e940 0cbc 4415 7abb
000000a0: cbfa 883b 71fa a4bb 1464 4ebb 4cfa 6e3a
000000b0: 5b93 3cba 4d90 563c 267b 963c c843 653c
000000c0: 0a3f ad3b 9fb8 35bb 9b85 b43c 0983 18bb
000000d0: ff0d 5ebc 85fb 4bbb c2af 87bb e747 af3b
000000e0: 5b8a 6dbc a372 b6ba af8c a03c e570 1bbc
000000f0: cd3f 393c befa 93bb 0e60 b8bb 05da 3bbc
00000100: 3e47 4f3c 005e a6bc 9c8b 56bc c904 31bc
00000110: e34e 9f3b 4360 7d3c 338b d63b 6bfb 833a
00000120: f192 11bc 37a3 b63c dcf6 2bbb c7fd 3fbc
00000130: 842c 473c bb59 08bc 26f1 1bbc 527c 9d3b
00000140: fe7c 66bc 0947 7bbb ab26 1f3b ab30 3dbc
00000150: 1759 96bb bcd4 f2ba 3f98 34bc 958f 833c
00000160: 511e 553a bf00 363b 743d 8ebc 5e01 bdbb
00000170: 0aad e93a 98f7 0bbd 6b91 1b38 9a7e 1c3c
00000180: 078b bbbc fe5b 533c 6770 c6bc 8a6c 293c
00000190: 1e5e 2fbc 5a23 c2bb c2fb 173c ed3a 1f3b
000001a0: 6ddc 213c 7063 3a3c 9c41 89b8 dba4 a5bc
000001b0: cd38 3dbc 87c3 b2bb b162 153c 1330 73bc
000001c0: 99e7 e2ba 709f 943c 828e 193c 26b6 96bc
000001d0: d80c 823c 0c85 8139 2d41 38bc e741 04bc
000001e0: 3743 2e3c 03fa 8e3c f2d1 b0bb 80e8 613c
000001f0: 9cab 0c3c 3ff1 413a 0177 20bc 0855 75bb
00000200: 4008 9b3b c0c7 603c 74a1 ec3b 2072 68bc
00000210: cbc4 09bd 2aae 56bc 5d2b 6a3c 18a3 a03c
00000220: 3a67 403c 4aea 84bc 94fa ac3c f104 dd39
00000230: 397a f6bb b6be 193c 46e1 483c 18a1 c2bc
00000240: 7cc4 56bb 116a 4fbc 4658 42bc 379e 85ba
00000250: e9d6 efba dc2e 793a 8b51 0abc 90a0 8abc
00000260: 87a1 9ebc 90fa a03b a8bb d2bb f2d4 543c
00000270: 3f5a a1bb aea6 393c a983 0fbb 4ded 0f3b
00000280: d0b4 9cbc a531 f6b9 a406 02bc b96b 983b
00000290: 4897 753c e034 dcbb e51d 323b 0132 053c
000002a0: 18a6 6abb cce0 8f3b e2d4 b53b dc26 0dbc
000002b0: 502d 283c 17c5 70bc 702b 2c3b 3da9 0e3c
000002c0: 3668 c73a 47e5 d63c d809 fabb 6e60 a9bb
000002d0: 24ca 05bd 580f ab3c bbf3 92bb 572e 16bc
000002e0: 5636 373c f5b5 cf3b 9f75 95bc ecd6 34bb
000002f0: e66e 38bc 6d82 a83c daa7 c93c 0429 f039
00000300: e3ba ecbc e053 c23c be7b 85bc 7954 38bc
00000310: 2609 aab8 482a f13b a074 ac3c aa48 bdbb
00000320: 7825 8cbc 2098 b73b 44af b4bc 6141 953c
00000330: 0ac6 343c 4b52 883b 2291 243c e445 143c
00000340: c6cc a9bb 68d6 99bc c30b c93c d770 c2ba
00000350: 6469 70bc 91dc db3c 2d34 bdbb df7a ba3b
00000360: 2215 573b de5c 86bc 75a4 29bc 0192 663b
00000370: 17f9 06bd e444 99bc ab35 8abc 334c 8e3c
00000380: 8685 3bbc ac95 92bc ffb2 19bc 40c1 8f3c
00000390: 3216 6fbc 8e9a 0fbc b52e 9b3b f856 713c
000003a0: af74 84bc 2f6d 3ebc e1e8 a83b a04d 0abb
000003b0: d21a 743c 56ba c13c b6ca c339 72df 3fbb
000003c0: ca61 1dbc daa7 bc3c 12da 673b 70a9 65ba
000003d0: c0b6 e0bc 5f71 aeba 7287 7d3c 1264 55bb
000003e0: 550a 843c a8b2 743b ec99 18bc d827 a13b
000003f0: 1d19 9f3b 2a6b f43b 229b 82bc ffbd 013b
0.0036258022 0.0018155908 -0.007926067 0.010037356 0.019799797 0.005385737 -0.0064772237 -0.004706836
-0.009345489 -0.02386299 -0.0033373823 0.01533307 -0.014456783 -0.0031107175 0.009491168 -0.0021473365
-0.017361341 -0.014099162 0.010299706 -0.0057650516 0.0009863168 0.0061831656 -0.016675947 -0.00021234687
0.008739856 -0.008609265 0.015685592 0.013316594 0.010759622 -0.014441437 -9.94139e-05 -0.043854885
0.0025663686 0.02127614 -0.014587073 0.002792315 -0.015266012 -0.0073949704 -0.008560398 -0.0038159648
0.0041802875 -0.0050347378 -0.0031492757 0.00091162766 -0.00071935885 0.013095927 0.018369269 0.013993211
0.005287056 -0.002772845 0.022036364 -0.0023271462 -0.013553142 -0.003112526 -0.004140825 0.0053491476
-0.014498319 -0.0013919662 0.019598333 -0.009487365 0.011306715 -0.004515975 -0.005626685 -0.011465554
0.012651263 -0.020308495 -0.013094809 -0.0108043635 0.004861699 0.015464845 0.0065473556 0.0010069435
-0.008885131 0.022294624 -0.002623967 -0.01171822 0.012156609 -0.008322175 -0.0095179435 0.00480608
-0.014067886 -0.00383419 0.0024284523 -0.011547248 -0.004588257 -0.0018526535 -0.011022626 0.016059676
0.00081298227 0.002777144 -0.017363288 -0.0057679852 0.0017828059 -0.03417167 3.709031e-05 0.009551669
-0.022893442 0.012900351 -0.02422352 0.010340819 -0.010703592 -0.0059246244 0.009276332 0.0024296597
0.009879214 0.011376247 -6.54489e-05 -0.02022021 -0.011549187 -0.0054554376 0.009117768 -0.014843005
-0.0017311453 0.018142432 0.009372355 -0.018397402 0.015875265 0.00024703925 -0.011246008 -0.008072353
0.010636142 0.0174532 -0.005396121 0.0137883425 0.008585837 0.0007398314 -0.009793998 -0.0037434716
0.004731208 0.013719499 0.007221395 -0.014187366 -0.033634942 -0.013103047 0.014292565 0.01960902
0.011743361 -0.016224999 0.021115579 0.00042156086 -0.0075218943 0.009383848 0.012260741 -0.023758456
-0.0032770922 -0.012659566 -0.011861866 -0.0010194246 -0.0018298301 0.0009505579 -0.008442293 -0.016922265
-0.019364132 0.004912682 -0.006431062 0.012990223 -0.0049240883 0.011331243 -0.0021898544 0.002196151
-0.019129187 -0.00046957764 -0.007936154 0.0046515134 0.014989682 -0.0067201704 0.0027178463 0.008129598
-0.0035804566 0.0043908115 0.0055490592 -0.008615222 0.01026471 -0.014695427 0.0026271008 0.008707342
0.0015213552 0.026232375 -0.007630568 -0.005168966 -0.03266348 0.02088134 -0.0044846213 -0.009166322
0.011182388 0.0063388296 -0.018244563 -0.0027593924 -0.011256909 0.020570004 0.02461617 0.00045806926
-0.028897708 0.023721635 -0.016294356 -0.011250609 -8.107936e-05 0.0073597766 0.021051705 -0.0057764845
-0.01710771 0.0056028515 -0.02205623 0.018219652 0.011033544 0.0041602007 0.010044368 0.009049866
-0.0051818816 -0.018778995 0.024541741 -0.0014834654 -0.014673565 0.026838573 -0.005774042 0.005690917
0.0032818993 -0.016401704 -0.010354151 0.003518224 -0.032952394 -0.018709607 -0.016871294 0.017370319
-0.011445409 -0.017893635 -0.009381055 0.017548203 -0.014592694 -0.008764876 0.0047357925 0.014730208
-0.01616892 -0.011622711 0.0051547145 -0.0021103397 0.014898973 0.023648422 0.0003734433 -0.002927747
-0.009605834 0.023029257 0.0035377783 -0.0008760905 -0.027430892 -0.0013308934 0.015474187 -0.0032560867
0.016118208 0.0037337933 -0.009314042 0.00491808 0.0048552887 0.007459064 -0.015943114 0.0019797084

action_model._continuous_distribution.mu.bias f4 [3]
00000000: e117 9e38 5e2d 473b a67b b3b7
7.538475e-05 0.0030392031 -2.1396041e-05

action_model._discrete_distribution.branches.0.weight f4 [7, 256]
00000000: 0183 a0ba 7424 0e3c b457 1fbb 984b 0f3b
00000010: 8fb8 3abc e6a3 9ebb 76f4 39bc d8f8 f93b
00000020: 670c 933a d070 623c b069 70bb 5b91 33bc
00000030: 4e5c 61bb c558 65ba 325e 1f3c 9716 0ebc
00000040: 1e71 943b d166 933c 65c6 cd3a 415e 26bb
00000050: 5b8c 7cbb 1fd4 ceba 7fb1 523b 8ff1 f8bb
00000060: f58e 503b a5fb 3bbb 0319 c53b a69f 82bb
00000070: 3a46 1fb9 3a51 ff3b c4ae 123c 5387 83bc
00000080: 6109 d83a 31af 10bc a8d2 b23a b1c3 a23b
00000090: 6785 a43b c37a ebba 7857 423b 8e8a 7a3b
000000a0: 7cfc 96bb 7091 91bb af08 76bb 1d86 8bba
000000b0: be6b a83b 3b4c 3dbb 76ac a23a 0d85 79bb
000000c0: e6c7 b9ba 8eeb d13b eee7 82b9 2954 0fbb
000000d0: 3dde 4c3a 9fcc 0c3c c721 7f3c 0291 c2b9
000000e0: 399a a53b 5171 7d3b 3632 613c cb82 073c
000000f0: fcb5 60bb 2a7f ce3b 3867 763c 3c30 0b3b
00000100: 827b 9bbb ee2e 3abc a345 343c 6d31 df3b
00000110: c9b0 13bc 66d2 26bc c214 7fba 6360 82bc
00000120: cf87 a4bb 6120 083c c92d bf3b 3f75 30ba
00000130: 7533 063b fce2 bc3a f159 4b3c 2d36 d1bb
00000140: 5549 df3b 2683 8fbb 9b3b 6a3b 9700 813b
00000150: 8ff0 c6bb 17f2 27bc 6e94 693b 639b cabb
00000160: 568b 6a3c 59ab 303a 38cc a8bb 61b5 ca3b
00000170: 80ee 50bc c7ce 243a cd67 6a3c 54c2 2c3c
00000180: 7b57 db3b 7855 f5bb 5b34 e93b 35a7 4bbb
00000190: 0b7b c0bb e660 bd3a f29a 2ebb aae4 e93b
000001a0: c83b c03c 40fd ddba 0d3f 6a3b ba11 c1bb
000001b0: acaa 073c bf10 b23b 11c1 4c3b 14f8 2bbc
000001c0: 2b96 36bc 45e7 4b3b 4f07 863b 6142 ad3c
000001d0: 9373 8dbb 49c2 cfba debe babb 781c 723c
000001e0: bcae 9d3a a578 853b d74c 083b a967 93bb
000001f0: a20e 30bc d73a 683a 9cea 433c 662a 11ba
00000200: 77bb 34bc 2a0d 28bb ab35 04bc 47b4 45bb
00000210: c4bb 85bc 9851 c9bb b4b4 033c 935e a0bc
00000220: ee81 2b3b 9fb9 e2ba d84c 6e3b 926f 893c
00000230: 36cb ca3a 6d3d 523c 6ca4 1a3c 469b e63a
00000240: 4fae ac3b 3f99 0dbc 4560 d3bb f158 543c
00000250: 8c7c 8f3b 123a 72bc 013a 1c3b dd93 c33b
00000260: 8049 ee3a 4035 43bc 8a76 373c d02a 2d3c
00000270: ba69 38bc 64e7 903b 420b 24ba 5fc8 46bb
00000280: 731d 903c d1ce aa3a 7967 debb 9068 733b
00000290: d539 c4bb 45e2 fb3b 00b1 183c 67f1 9ab9
000002a0: 0001 333b d333 053c 3cfa 143a c3a1 5cba
000002b0: 75c0 75b9 809d e7ba a79e 91bc 1497 91bc
000002c0: 8ecb 67bc 5295 5abb 72aa 9dbb 0c58 e3ba
000002d0: 30df be3b ec06 ebbb cc7c 9fbb 5e9a d5bb
000002e0: c52e 023b eeef a4bb 34ef 8b3b bf18 33bc
000002f0: 4801 33bc 35be ba3b 22a7 9a3a 5e45 18bb
00000300: 66b7 0abc 9d99 44bc 790d a93a 2cfc bf3b
00000310: 1fe4 b6bc 67ca 1b3a 67a6 143c 348a eeba
00000320: 330c f83b a788 2f3c 5254 2a3c ecb5 10bc
00000330: 842a b73a c6b4 06bc 9def cbbb 1615 0abc
00000340: 895d 86bb ff25 693a 69af 883b 9339 5bbc
00000350: 784d 443c 1bf4 fe3b 2ebc cf3b 0486 14bc
00000360: 310e 31bc beee 7d3c 1e94 d939 a422 14bc
00000370: 8995 f9ba 74f6 7bba aaad 863a 52dc 6f3b
00000380: 2350 1c3c 0ad3 843c 7e8e 7c3b 8eca fa3b
00000390: 920c 013a 6116 193c 3497 b6bb 475e cd3b
000003a0: ecd8 833b 7b30 573c ffca 57bb 7290 4d3c
000003b0: bd57 c93b 33f1 61b9 1a88 923b d3fa 3d3c
000003c0: 3698 c839 6901 2dbc 3a6e 2f3c e1af 20bc
000003d0: 2a73 6abb 81f1 6dbb 08c0 713c b98d fc3b
000003e0: f701 5b3b 123b d3bb 0b92 533b f283 9f3a
000003f0: f0c0 bb3b 2d3b ee3b d5a1 063c 9dc6 85bb
-0.0012246073 0.008675683 -0.002431375 0.0021865126 -0.011396541 -0.0048413156 -0.011349788 0.0076285414
0.0011218906 0.013820842 -0.0036684088 -0.010959948 -0.0034387293 -0.00087488844 0.009727048 -0.008672378
0.004530086 0.017993363 0.0015699385 -0.002538577 -0.0038535807 -0.001577977 0.0032149253 -0.0075971554
0.003182349 -0.0028683927 0.0060149445 -0.0039863167 -0.00015189583 0.0077916654 0.0089528 -0.016055739
0.0016482287 -0.008830831 0.0013643103 0.004967176 0.0050207856 -0.0017965663 0.0029654186 0.0038229558
-0.004607735 -0.0044423863 -0.0037541797 -0.0010644827 0.005139797 -0.0028884548 0.0012411017 -0.003807369
-0.0014173954 0.006406254 -0.00024968333 -0.0021870232 0.00078150985 0.008593707 0.015572018 -0.00037110603
0.005053785 0.0038672278 0.013744881 0.00827093 -0.0034288159 0.00630178 0.015039258 0.0021238467
-0.004744948 -0.011363728 0.011002931 0.006811312 -0.009014317 -0.010181999 -0.0009730571 -0.015915101
-0.0050210725 0.008308501 0.0058343154 -0.0006731338 0.0020477448 0.0014410908 0.01241158 -0.006384632
0.006814162 -0.004379648 0.0035741094 0.003936838 -0.0060711573 -0.01025059 0.003564145 -0.0061830743
0.014315447 0.00067394 -0.005151298 0.006186173 -0.012752175 0.0006286916 0.014306975 0.010544378
0.006693778 -0.0074869953 0.007116837 -0.0031075005 -0.005874043 0.0014448434 -0.0026642648 0.0071378546
0.023466006 -0.0016936436 0.0035743148 -0.0058920057 0.008280437 0.005434125 0.0031243006 -0.010496158
-0.011144201 0.003111319 0.0040902267 0.021149816 -0.004316756 -0.0015850748 -0.0056990227 0.014777295
0.0012030224 0.00407322 0.0020797753 -0.0044984412 -0.010745676 0.00088588655 0.011957791 -0.0005537629
-0.011031023 -0.0025642612 -0.008069436 -0.0030167268 -0.016324885 -0.00614376 0.008038688 -0.019576347
0.0026169973 -0.0017297751 0.003636172 0.016776834 0.0015471939 0.012832028 0.009438615 0.0017593883
0.0052698026 -0.008642494 -0.006450685 0.012960658 0.004378861 -0.014784353 0.0023838284 0.0059685544
0.0018179864 -0.011914551 0.0111976955 0.010569289 -0.011255676 0.004422115 -0.0006257781 -0.0030331833
0.017592167 0.0013031607 -0.0067872372 0.0037141182 -0.0059883394 0.0076868855 0.009319544 -0.00029553028
0.0027313828 0.008130032 0.000568304 -0.00084164384 -0.00023436717 -0.001767084 -0.017775847 -0.017772235
-0.014147652 -0.0033353162 -0.0048115784 -0.0017344966 0.005824946 -0.007172456 -0.004867172 -0.006518646
0.0019864303 -0.0050334847 0.0042704586 -0.010931193 -0.010925598 0.005698944 0.0011799077 -0.0023234705
-0.008466577 -0.011999515 0.0012897692 0.0058589187 -0.022325573 0.0005942941 0.009072877 -0.0018199147
0.0075698136 0.010713733 0.01039608 -0.008832436 0.0013974463 -0.008221811 -0.0062236325 -0.008427879
-0.0041005057 0.00088939065 0.004171301 -0.013380426 0.011981361 0.0077805645 0.0063395714 -0.009065155
-0.010806606 0.015498815 0.0004149982 -0.009041462 -0.0019041757 -0.00096116145 0.0010275145 0.0036599827
0.00954059 0.016213913 0.003853708 0.007653541 0.00049228326 0.009343714 -0.005572224 0.0062673423
0.004023662 0.013134117 -0.0032927392 0.0125466455 0.0061444924 -0.00021547526 0.004471791 0.011595446
0.0003826038 -0.010559418 0.010707432 -0.009807558 -0.003577421 -0.0036307278 0.0147552565 0.0077073243
0.003341792 -0.0064462507 0.0032283093 0.001217006 0.005729787 0.007270238 0.008217295 -0.0040825144

action_model._discrete_distribution.branches.0.bias f4 [7]
00000000: cc31 093c 822d 4d3c f87d cb3b b86c 623c
00000010: ec30 143c 95b5 74bc 55be 61bc
0.008373689 0.012523057 0.006210085 0.013819866 0.009044867 -0.014935871 -0.013778289

onnx::Div_90 f4 [68]
00000000: b71a ce3b 671d 863e 3b07 883d e995 4f3e
00000010: b71a ce3b 721f 703e bdc7 8c3d 7f8c 4e3e
00000020: b71a ce3b 0514 8f3e 67c9 583d 9d16 503e
00000030: b71a ce3b 3563 853e bcec 683d 89f2 543e
00000040: b71a ce3b 7913 9e3e 64cf 5b3d 00b7 573e
00000050: b71a ce3b 79e6 823e 7f2b 543d bbe0 513e
00000060: b71a ce3b 3e33 9c3e 9798 393d 869e 593e
00000070: b71a ce3b de54 593e 6813 663d dfd5 423e
00000080: b71a ce3b 5683 973e 1fa1 723d f16f 553e
00000090: b71a ce3b 850a 653e 67c9 583d 58cf 3f3e
000000a0: b71a ce3b e090 8e3e 6c8e 7e3d 39f5 4e3e
000000b0: b71a ce3b 196c 743e 335c 0f3d e8b7 3d3e
000000c0: b71a ce3b 306d 793e 8e00 783d 7214 4d3e
000000d0: b71a ce3b dab2 5f3e 1ea1 723d 6787 413e
000000e0: b71a ce3b e999 5d3e 4642 573d a0b4 463e
000000f0: b71a ce3b eecf 583e 139e 4a3d df82 413e
00000100: b71a ce3b eecf 583e 129e 4a3d df82 413e
0.0062898058 0.26194307 0.06642004 0.2027203 0.0062898058 0.23449495 0.068740346 0.20170783
0.0062898058 0.2794496 0.052926447 0.20321126 0.0062898058 0.2605225 0.056866392 0.20795645
0.0062898058 0.3087423 0.05366458 0.21065903 0.0062898058 0.25566462 0.051799294 0.20495884
0.0062898058 0.30507845 0.045311537 0.21251878 0.0062898058 0.2122378 0.05617085 0.19026898
0.0062898058 0.2959239 0.05923569 0.20843484 0.0062898058 0.22367294 0.052926447 0.18731439
0.0062898058 0.27844906 0.062147543 0.20210733 0.0062898058 0.23869361 0.035000037 0.18527186
0.0062898058 0.24358058 0.060547404 0.2002733 0.0062898058 0.2184557 0.059235685 0.18899308
0.0062898058 0.21640743 0.052553438 0.1940484 0.0062898058 0.21173069 0.049467158 0.1889758
0.0062898058 0.21173069 0.049467154 0.1889758

onnx::Div_96 f4 [37]
00000000: 1b79 d740 f4a8 bf3d f306 f040 b71a ce3b
00000010: 357c 843e b71a ce3b a145 1c41 19ec d13b
00000020: 5063 2a41 b71a ce3b 0cc1 823e b71a ce3b
00000030: 0dc2 613e bb4f 493e 5c3f d63e fcf2 d13e
00000040: 443b fe3e c042 d63e 1604 993f 7c0c 4e3f
00000050: b71a ce3b 0731 823f d5da 2f3f 5127 ce3b
00000060: a2aa 383f c281 923e 031e 703e bf1e 703e
00000070: 0998 573e b497 573e 8b2c 053e c2d5 723f
00000080: 717b 8d3e 896a 2d3f 83f6 cf3b 39b3 bc40
00000090: 52c9 933e
6.7335334 0.09358397 7.5008483 0.0062898058 0.25876012 0.0062898058 9.766999 0.006406319
10.649246 0.0062898058 0.25537908 0.0062898058 0.22046681 0.19659321 0.41845214 0.41005695
0.4965459 0.418478 1.1954372 0.804878 0.0062898058 1.0171212 0.68693286 0.006291308
0.72135365 0.28614622 0.23448949 0.23449229 0.2105409 0.21053964 0.13005273 0.9485742
0.2763324 0.67740685 0.006346525 5.896878 0.28864533
