results/test10/BoxingAgent.onnx (onnx, 409187 bytes, 13 tensors)

network_body.observation_encoder.processors.0.normalizer.running_mean f4 [84]
0	0x00000000	0.0
1	0x3f34cbe1	0.70623595
2	0x3e5ae003	0.21374516
3	0x3f30c11e	0.69044673
4	0x00000000	0.0
5	0x3f3479fd	0.7049864
6	0x3e5de48e	0.21669218
7	0x3f315360	0.69267845
8	0x00000000	0.0
9	0x3f35efec	0.71069217
10	0x3e5875f6	0.21138749
11	0x3f30d212	0.6907054
12	0x00000000	0.0
13	0x3f348afb	0.7052457
14	0x3e5ed599	0.21761169
15	0x3f321b30	0.69572735
16	0x00000000	0.0
17	0x3f385e98	0.7201934
18	0x3e52f4d3	0.20601206
19	0x3f316ffd	0.69311506
20	0x00000000	0.0
21	0x3f352bad	0.7076977
22	0x3e5ec93b	0.21756451
23	0x3f333ba0	0.70012856
24	0x00000000	0.0
25	0x3f3b20b8	0.730968
26	0x3e4b34e2	0.19844392
27	0x3f31f61a	0.69516146
28	0x00000000	0.0
29	0x3f362789	0.71154076
30	0x3e5caf8a	0.21551338
31	0x3f34c09f	0.70606416
32	0x00000000	0.0
33	0x3f3e2cfc	0.7428739
34	0x3e4459a2	0.19174817
35	0x3f32af93	0.69799155
36	0x00000000	0.0
37	0x3f35f616	0.7107862
38	0x3e6035e3	0.21895556
39	0x3f36bcdb	0.7138192
40	0x00000000	0.0
41	0x3f3e8fe0	0.74438286
42	0x3e480512	0.19533184
43	0x3f337bc1	0.7011071
44	0x00000000	0.0
45	0x3f35490a	0.70814574
46	0x3e67617b	0.2259578
47	0x3f391730	0.72301006
48	0x00000000	0.0
49	0x3f3f00aa	0.7461039
50	0x3e4c0d34	0.19926912
51	0x3f347c8e	0.70502555
52	0x00000000	0.0
53	0x3f33389b	0.7000825
54	0x3e74711c	0.23871273
55	0x3f3bc263	0.73343486
56	0x00000000	0.0
57	0x3f40109b	0.7502534
58	0x3e4c3877	0.19943415
59	0x3f357b1d	0.7089098
60	0x00000000	0.0
61	0x3f312fe7	0.6921372
62	0x3e7f230a	0.2491571
63	0x3f3e2177	0.74269813
64	0x00000000	0.0
65	0x3f40b77a	0.75279963
66	0x3e4c25f1	0.19936348
67	0x3f36587c	0.71228766
68	0x00000000	0.0
69	0x3f2ef436	0.68341386
70	0x3e84659c	0.25858772
71	0x3f3fea17	0.7496657
72	0x00000000	0.0
73	0x3f4107d4	0.7540257
74	0x3e4f0b93	0.20219259
75	0x3f373d8d	0.71578294
76	0x00000000	0.0
77	0x3f2cee99	0.6755157
78	0x3e887a1d	0.26655665
79	0x3f414c50	0.7550707
80	0x00000000	0.0
81	0x3f4104bc	0.7539785
82	0x3e50e779	0.204008
83	0x3f37c75b	0.7178857

network_body.observation_encoder.processors.2.normalizer.running_mean f4 [37]
0	0x3f20c0ef	0.62794393
1	0x416d81f9	14.844232
2	0xc15ce585	-13.806035
3	0xb285e3ef	-1.558689e-08
4	0x3f062ef5	0.524154
5	0xb1cd33b4	-5.972163e-09
6	0xbf7f3c8b	-0.99701756
7	0x379446cf	1.7675948e-05
8	0xbfb2ce8a	-1.3969281
9	0xb2260891	-9.6644195e-09
10	0x3f0ae231	0.5425139
11	0xb1c892ae	-5.8374416e-09
12	0x3f6e7d8e	0.9316033
13	0x3f73b437	0.9519686
14	0x3e91753d	0.28409758
15	0x3e7e825d	0.24854417
16	0x3eb9dc3c	0.36300838
17	0x3f3743d7	0.7158789
18	0x3e6a91ea	0.22907224
19	0x3c17bb14	0.0092609115
20	0x00000000	0.0
21	0xbb01431e	-0.0019723843
22	0xbd94d7ac	-0.07267699
23	0x362e9afe	2.6018238e-06
24	0xbd94a386	-0.07257752
25	0x3efca7ed	0.49346867
26	0x3ef58082	0.47949606
27	0x3f053e35	0.52048045
28	0x3f0123da	0.5044533
29	0x3efdb536	0.49552315
30	0x3d5e09af	0.054208454
31	0x3e667087	0.22503863
32	0x3f0f4314	0.5596173
33	0xbd8d4d7a	-0.06899543
34	0x416d81f9	14.844232
35	0x41503509	13.012948
36	0x3f010b0b	0.50407475

network_body._body_endoder.seq_layers.0.weight f4 [256, 121]
0	0xbdae4cae	-0.08510719
1	0xbdfb07aa	-0.12257321
2	0x3e09bef5	0.1345175
3	0xbd25d231	-0.040483657
4	0xbd2694a8	-0.040669113
5	0x3e2d198b	0.16904275
6	0xbdcaa11c	-0.098940104
7	0x3d191b83	0.037379753
8	0x3dd3e913	0.1034719
9	0x3d549964	0.051904097
10	0x3df8e48b	0.12152966
11	0xbd579cec	-0.052639887
12	0xbe1d2358	-0.15345514
13	0x3e18503c	0.14874357
14	0x3b7bbd08	0.0038412232
15	0x3e0fef78	0.14056194
16	0x3d843db3	0.06457081
17	0xbdb5a529	-0.088693924
18	0x3dd62b6f	0.10457503
19	0x3d9c752d	0.07639537
20	0x3cf29416	0.029611629
21	0x3bd1ea78	0.0064061247
22	0x3cdbdb9c	0.026838116
23	0x3c84c457	0.016206903
24	0xbd46398c	-0.048394725
25	0xbdebfde3	-0.115230344
26	0x3d5a9981	0.05336905
27	0xbde4fdcc	-0.111812204
28	0xbd9af222	-0.075657144
29	0x3d836756	0.06416194
30	0xba862a41	-0.0010235981
31	0x3d8264e9	0.06366903
32	0x3d206f22	0.039168485
33	0xbdb4a9e1	-0.08821464
34	0xbbba3f37	-0.0056838053
35	0x3c7b054f	0.01532109
36	0x3e30b466	0.17256317
37	0x3d0a2f91	0.03373677
38	0xbc144af0	-0.00905107
39	0x3b0b77b7	0.0021281072
40	0xbe12e3c1	-0.14344694
41	0x3db23519	0.08701534
42	0xbdef1e6e	-0.11675726
43	0xbe07315e	-0.13202426
44	0x3d6f4480	0.058414936
45	0xbe254686	-0.16140184
46	0x3d99d894	0.07512012
47	0xbd9bdabe	-0.07610081
48	0xbc438389	-0.011933216
49	0x3daf4039	0.085571714
50	0xbd976140	-0.07391596
51	0x3e286a90	0.164469
52	0xbe16c62d	-0.14724036
53	0x3c489869	0.012243369
54	0xbdceff5b	-0.10107299
55	0xbcf015f1	-0.029307337
56	0xbc798b85	-0.015231018
57	0x3cd60249	0.026124137
58	0xbd79d9ff	-0.060998913
59	0x3c2c9796	0.010534188
60	0x3ca70fe3	0.020393318
61	0x3dbacf8d	0.091216184
62	0xbda4d051	-0.08047546
63	0x3c62ca69	0.013842204
64	0x3cab17a3	0.020885294
65	0x3e104831	0.14090039
66	0x3d84e193	0.06488337
67	0xbd99fafc	-0.075185746
68	0xbd17a172	-0.0370192
69	0xbcd2b286	-0.025719892
70	0x3dc0c38f	0.094123
71	0xbd623802	-0.055229194
72	0xbe1375bb	-0.1440038
73	0x3c2bba16	0.010481378
74	0x3dd685f9	0.10474772
75	0x3d55c539	0.05219004
76	0x3ca02f88	0.019553915
77	0x3d6ae857	0.057350483
78	0x3dea5724	0.11442402
79	0xbce89747	-0.028392447
80	0xbd77ffe9	-0.06054679
81	0xbc707efb	-0.014678712
82	0x3d9bb3d7	0.07602661
83	0xbcec0c41	-0.028814437
84	0xbc1536f8	-0.009107344
85	0x3daa02eb	0.08301338
86	0x3b9763cf	0.0046200524
87	0x3d520b0b	0.051280063
88	0xbcf2f81f	-0.029659329
89	0xbdbd8a5b	-0.09254905
90	0xbe4e75a7	-0.20162068
91	0xbcde5871	-0.027141782
92	0x3dbb58d8	0.09147805
93	0xbd56c10d	-0.0524302
94	0xbe2bc31d	-0.16773649
95	0xbd1384f9	-0.036015484
96	0xbd035e0d	-0.032072116
97	0xbe56afd0	-0.20965505
98	0xbd175f1c	-0.036955938
99	0xbe6dccca	-0.23222652
100	0x3c71fc77	0.014769665
101	0x3c59adb7	0.013286046
102	0xbb48b262	-0.0030623903
103	0xbbb39118	-0.005479943
104	0xbd968850	-0.07350218
105	0x3de983a3	0.11402061
106	0x3b8a8f36	0.004228498
107	0xbda76e37	-0.08175319
108	0x3d37f1ca	0.044908322
109	0x3d052895	0.032509405
110	0x3ca4d0fb	0.02011918
111	0xbde3f5e4	-0.11130884
112	0x3c9174d0	0.017755896
113	0xbd224d2a	-0.03962437
114	0x3d110f96	0.035415255
115	0x3d1295ef	0.03578752
116	0xbdb07d04	-0.08617595
117	0xbcc0d322	-0.023538176
118	0xbe05773e	-0.13033769
119	0x3ddff293	0.10934939
120	0x3e425897	0.18979107
121	0x3b9539da	0.0045540156
122	0x3bba5246	0.0056860773
123	0xbe096324	-0.13416725
124	0xbda14cf0	-0.07876003
125	0xbcd5f27b	-0.0261166
126	0xbbfe2300	-0.007755637
127	0x3e33d79d	0.17562719
128	0xbd23fa33	-0.04003353
129	0xbd9a3e23	-0.07531383
130	0x3b863c01	0.0040965085
131	0xbd8b4557	-0.06800335
132	0x3d023ec5	0.031798143
133	0x3deeeea0	0.11666608
134	0xbdb69731	-0.08915556
135	0x3e08aead	0.13347884
136	0xbd90f223	-0.07077434
137	0x3d5066a5	0.05087914
138	0x3d74ee7d	0.059797753
139	0x3e24a533	0.16078644
140	0x3de8ac6d	0.113610126
141	0xbe23cb86	-0.15995607
142	0xbd8d8ccd	-0.06911621
143	0x3d225f5c	0.039641723
144	0x3d86024a	0.06543405
145	0x3e3706f5	0.17873748
146	0xbe41ee77	-0.18938623
147	0x3dd4521b	0.10367223
148	0xbd8cd718	-0.068769634
149	0x3d86d800	0.065841675
150	0x3bee1627	0.0072658244
151	0x3df3d032	0.119049445
152	0x3c01d19e	0.007923512
153	0xbcea6e33	-0.028617
154	0x3d8a2a15	0.06746308
155	0xbdd1b224	-0.10239056
156	0x3d79d279	0.060991738
157	0xbe3a4d28	-0.18193495
158	0x3db27467	0.08713608
159	0x3c70db52	0.014700728
160	0x3d174e25	0.03693976
161	0xbdc8438f	-0.09778511
162	0xbb170a82	-0.0023047035
163	0x3e027269	0.12738957
164	0xbe060ca9	-0.13090767
165	0x3e0ba801	0.13638307
166	0x3d4053a2	0.04695476
167	0xbdd4aab6	-0.10384123
168	0xbdb96e2f	-0.09054219
169	0xbdbd21a2	-0.092349306
170	0xbdccaf3b	-0.0999436
171	0xbda82fc7	-0.08212238
172	0x3a17b952	0.0005787808
173	0xbd8b08b6	-0.06788771
174	0xbc9a7447	-0.018854273
175	0xbc73da5c	-0.014883604
176	0xbd42186f	-0.047386583
177	0x3e80d6fa	0.25164014
178	0x3dcd12f5	0.100133814
179	0xbd1ef437	-0.03880712
180	0xbc85565d	-0.016276533
181	0xbd24abdb	-0.040202957
182	0xbcbef14e	-0.023308422
183	0xbd53e22b	-0.051729362
184	0x3e17d42b	0.1482703
185	0xbd87cd0c	-0.066309065
186	0xbd6dc923	-0.058053147
187	0x3d80ca6a	0.062886074
188	0x3e092341	0.13392355
189	0x3ca7a837	0.020465953
190	0x3df5e5eb	0.12006744
191	0xbb594574	-0.003315297
192	0x3d28717f	0.041123863
193	0x3d28f9cc	0.04125385
194	0x3d75fdc7	0.060056474
195	0x3d9d3b77	0.07677358
196	0xbc8b827f	-0.017029999
197	0xbcd727b8	-0.026264057
198	0xbe6e457b	-0.23268692
199	0x3de6e69c	0.11274454
200	0xb902cfc8	-0.0001247517
201	0xbd15a9c1	-0.036538843
202	0x3d97f64a	0.07420023
203	0xbc0fce8c	-0.008777272
204	0xbda23135	-0.07919542
205	0x3e412a26	0.18863735
206	0x3db86822	0.09004237
207	0x3ab8e258	0.0014105542
208	0x3d1fbe38	0.038999766
209	0xbda461fd	-0.08026502
210	0x3c9abe16	0.018889468
211	0x3d577920	0.05260575
212	0xbd7ec179	-0.06219623
213	0x3d8be77c	0.068312615
214	0xbe3300a5	-0.17480715
215	0xbd2770e5	-0.04087915
216	0x3bc3a484	0.0059705395
217	0xbe017e22	-0.12645772
218	0x3d2d512a	0.042313732
219	0xbd0d98fc	-0.034569725
220	0xbd67fe37	-0.056638923
221	0xbc8b3a1b	-0.01699548
222	0x3d7950c4	0.06086804
223	0x3d139dc0	0.036039114
224	0xbca1514b	-0.019692084
225	0xbd89efa6	-0.067351624
226	0xbe89e241	-0.2693043
227	0xbdd3ea09	-0.10347373
228	0x3e055322	0.13019994
229	0x3dbc7d19	0.09203548
230	0xbb75ddd8	-0.0037516262
231	0x3e823b0f	0.25435683
232	0x3da47037	0.08029216
233	0xbe0648d3	-0.13113718
234	0x3c8c9c63	0.017164415
235	0xbc936011	-0.017990144
236	0xbd0b17fe	-0.033958428
237	0xbb5769c9	-0.003286945
238	0xbd001d2f	-0.03127783
239	0xbdb0e1b6	-0.08636801
240	0xbd61004f	-0.054931935
241	0x3b9ba824	0.0047502685
242	0x3cf130e5	0.02944226
243	0xbe04cca5	-0.1296869
244	0x3d416414	0.047214583
245	0x3d9c2026	0.07623319
246	0xbdb9944b	-0.09061488
247	0x3d6b8b05	0.057505626
248	0x3ca4ad41	0.020102145
249	0xbe46c87f	-0.1941242
250	0xbc1bca9d	-0.009508756
251	0x3d9de50e	0.07709704
252	0xbe254f99	-0.16143645
253	0x3d7c950e	0.061665587
254	0x3dda47c0	0.106582165
255	0xbd69baff	-0.0570631

network_body._body_endoder.seq_layers.0.bias f4 [256]
0	0x3c0c8a86	0.008577948
1	0xbb9fd2d1	-0.004877426
2	0x3c37ae1d	0.011210945
3	0x3b100ec6	0.0021981462
4	0x3a8a7cac	0.001056572
5	0xbbd29f6d	-0.0064276964
6	0xbb424c52	-0.0029647541
7	0x3b791dc2	0.0038012122
8	0x3b498c68	0.0030753855
9	0x3bf3cd6d	0.00744026
10	0xba796c51	-0.00095147366
11	0x3c153b10	0.00910832
12	0xbb60dca7	-0.0034311207
13	0xba71f6e7	-0.0009230212
14	0xbb1f0022	-0.0024261554
15	0x3a94659c	0.0011321786
16	0x3a425edc	0.0007414648
17	0x3b4733e2	0.0030395915
18	0xbbd1741c	-0.006392015
19	0xbc2b4230	-0.010452792
20	0x3c0ea4e0	0.008706301
21	0x3bab7668	0.005232621
22	0x3b20651f	0.0024474335
23	0x3bff6d48	0.0077950098
24	0x3c040ee6	0.008060193
25	0xb9e6778a	-0.00043958082
26	0x3b4be4a1	0.0031111615
27	0x3c890122	0.016724173
28	0x3b4bcb73	0.0031096607
29	0x3b9db3b2	0.004812681
30	0x3c1c2ebf	0.0095326295
31	0x3be8ae53	0.007100859
32	0x3b342c41	0.0027492198
33	0x3a73fae8	0.00093071023
34	0x3a785e44	0.0009474496
35	0x39bc7819	0.00035947634
36	0x3a5820f1	0.0008244655
37	0x3b0e28b6	0.0021691746
38	0x36518180	3.1218806e-06
39	0x3aec1d9f	0.0018014199
40	0x3a2c9e08	0.0006584828
41	0x3a9879c5	0.001163297
42	0x3a8d0f84	0.001076207
43	0xba269c13	-0.00063556543
44	0x3c2754bb	0.010213072
45	0xbab31aa7	-0.0013664559
46	0x3b1bdfaa	0.0023784437
47	0x3ac72ff0	0.0015196782
48	0xbba10108	-0.004913453
49	0x3bfbe32c	0.007686993
50	0x3b74ef14	0.0037373947
51	0x3b81b772	0.003958636
52	0x3c364a14	0.01112606
53	0xbba83af2	-0.00513398
54	0x3b3ad625	0.0028508988
55	0x3b9bf9c2	0.004759998
56	0x3bd52660	0.006504819
57	0xbafb3fff	-0.0019168853
58	0xbafacffd	-0.0019135472
59	0x3beff155	0.00732247
60	0x3baa0080	0.005188048
61	0x3b5f4dd3	0.0034073486
62	0x3c1e4912	0.009660976
63	0xb9b33d68	-0.00034187292
64	0x3bcc5dd0	0.0062367693
65	0x3c273440	0.010205328
66	0xbbe89f5a	-0.0070990743
67	0xba4064e8	-0.0007339255
68	0x3c0de690	0.008660927
69	0xb98d0d66	-0.00026903598
70	0xbb428834	-0.0029683234
71	0x3c1f5838	0.009725623
72	0x3b30ba29	0.002696643
73	0x3b0295cf	0.0019925719
74	0x3ba9f6e8	0.005186904
75	0xbb58fc66	-0.0033109426
76	0xbba82871	-0.005131774
77	0x3c70fefd	0.014709231
78	0x3b90bc63	0.0044169887
79	0x3c2793c2	0.010228099
80	0xbc351ddd	-0.011054483
81	0x3b84370b	0.004034882
82	0x3b796070	0.0038051866
83	0x3bd704f4	0.0065618698
84	0x3c88f93c	0.016720407
85	0x3b20bbe6	0.0024526059
86	0xbbb2aba2	-0.005452589
87	0xbc12460b	-0.008927832
88	0xbb2a030c	-0.0025941757
89	0x3c3594bd	0.011082825
90	0xbb89021c	-0.0041811597
91	0x3c318b1a	0.010836387
92	0x3c3f387c	0.011671182
93	0xbaefd55d	-0.001829784
94	0x3b2b7c72	0.0026166704
95	0x3c416bc3	0.011805478
96	0x3c0875e6	0.00832889
97	0xba67a8f2	-0.00088371255
98	0x3b425b80	0.002965659
99	0x3b419d9e	0.002954341
100	0x3b836dab	0.004010876
101	0x3bc45447	0.005991492
102	0x3be22a91	0.006902047
103	0x3c53d93b	0.01293021
104	0x3b8575df	0.004072889
105	0x3af22f69	0.0018477264
106	0x3b84e482	0.0040555606
107	0x3bc67974	0.006056959
108	0x3c0dd2be	0.008656202
109	0xbc022aaf	-0.007944747
110	0x3c0ce381	0.008599163
111	0xbb6fca08	-0.0036588926
112	0xbbfd9cca	-0.007739638
113	0x392a643a	0.000162498
114	0x3ba4cbfa	0.0050291987
115	0x3c2fea2e	0.010736985
116	0x3ac85bc8	0.0015286142
117	0xba6535c1	-0.00087436667
118	0x3b425880	0.00296548
119	0x3bbfcf86	0.005853596
120	0x392adf39	0.0001629562
121	0xb9d23593	-0.00040094237
122	0x3a899a77	0.0010498305
123	0x3bfb13d8	0.0076622777
124	0x3c6399e5	0.013891672
125	0x3bd9a8ac	0.0066424217
126	0x3b450ad6	0.0030066273
127	0xb9998a91	-0.00029285674
128	0x3bbbf3d3	0.005735853
129	0x3b431ac9	0.0029770604
130	0x3bede0ab	0.0072594485
131	0x3ba8f7ec	0.0051565077
132	0x3bbafef4	0.0057066623
133	0x3b8c46c7	0.0042808983
134	0x3ba4376d	0.00501149
135	0x3a761f98	0.0009388863
136	0x3be73804	0.007056238
137	0xba937276	-0.0011249322
138	0x3a9162bc	0.0011092047
139	0xbab8a97b	-0.0014088595
140	0x3bace876	0.005276735
141	0x3c03f5d7	0.008054218
142	0x3bfacba8	0.0076536722
143	0x3c613de0	0.013747662
144	0x3be6b87e	0.007041036
145	0x3a44c9df	0.0007506888
146	0x3c076637	0.008264116
147	0x3bb100b3	0.0054016947
148	0x3c2e4758	0.010637127
149	0xb9fe3965	-0.00048489418
150	0x3c314478	0.010819547
151	0x3a9ad4e4	0.0011812714
152	0x3aee18d4	0.0018165358
153	0x3ba61da0	0.0050694495
154	0xbb0a7e44	-0.002113239
155	0x3b96b2d2	0.0045989538
156	0x3b964814	0.004586229
157	0xba970d00	-0.001152426
158	0x3a154b6d	0.0005695138
159	0x3c449068	0.01199732
160	0xbb8f0a6f	-0.0043652575
161	0xba684e96	-0.0008861808
162	0xbb2c729a	-0.0026313425
163	0xbb59faf0	-0.0033261143
164	0xbb3b09d1	-0.0028539787
165	0xbbcf450c	-0.0063253697
166	0x3bc4c2bd	0.00600466
167	0xbae4fb2c	-0.0017469875
168	0x3c22cfa5	0.009937202
169	0xbbb63b58	-0.0055612735
170	0xba4559d4	-0.0007528339
171	0x3c008a76	0.007845512
172	0xbc1220aa	-0.0089189205
173	0x38c652ae	9.456776e-05
174	0x3b37aac9	0.002802538
175	0xbad7057e	-0.0016404835
176	0x3c51056e	0.012757642
177	0x3c0cf0d7	0.008602343
178	0x3b1aeb72	0.0023638871
179	0x3a4656a6	0.0007566012
180	0x3be3c5d1	0.006951072
181	0x3bc09786	0.005877438
182	0x3bf72b73	0.0075430213
183	0xbb91bec9	-0.004447792
184	0x3c1b87f5	0.009492864
185	0xbb277872	-0.0025553969
186	0x3b994619	0.0046775457
187	0x3bb35c31	0.0054736366
188	0x3bcfbeeb	0.006339898
189	0xbbce5ac5	-0.0062974417
190	0x3a3f388e	0.0007294499
191	0x3c16e753	0.009210425
192	0xbbe68d81	-0.0070359115
193	0x3a819d0f	0.0009888726
194	0xbabad7fd	-0.0014255043
195	0xbb790cb8	-0.0038001966
196	0xbab7843c	-0.0014001201
197	0x3aca3aa0	0.0015428849
198	0x3c8e8441	0.017397048
199	0x3c029c8d	0.007971895
200	0xbac952df	-0.001535978
201	0x3c3af7b2	0.011411594
202	0x3c21bf7e	0.009872315
203	0xba84c1fb	-0.0010128611
204	0xba21f610	-0.0006178329
205	0x3b6469d9	0.003485313
206	0xb8d79299	-0.00010279305
207	0x3adc36b6	0.0016800973
208	0x3bb389d3	0.0054790764
209	0x3bd1788f	0.0063925455
210	0x3a6f2e5f	0.00091240363
211	0x3c1430cc	0.009044837
212	0x3b552513	0.0032523319
213	0x3aee1260	0.0018163435
214	0xb8136eda	-3.515077e-05
215	0x3c4807ef	0.012208923
216	0x3ba02f3e	0.004888444
217	0xbbf16986	-0.0073673157
218	0xb9ddccdd	-0.0004230504
219	0xbb72e036	-0.003705991
220	0x3c08f031	0.008358047
221	0x3b882809	0.004155163
222	0xbba01053	-0.0048847585
223	0xbb00afe6	-0.0019636094
224	0x3b05396d	0.0020328418
225	0xbb8876cb	-0.004164552
226	0xbb6ffa29	-0.0036617613
227	0xbc167d82	-0.009185197
228	0x38776cac	5.8990598e-05
229	0x3ba1d6f7	0.004938956
230	0x3c04b6f5	0.008100261
231	0x3bc40392	0.005981871
232	0xbb2e3f62	-0.0026588072
233	0x3cb21711	0.021739515
234	0x3b7915ab	0.00380073
235	0x3a66da37	0.000880632
236	0xba432991	-0.00074448535
237	0x3ba4cdfd	0.0050294385
238	0x3b8557a2	0.0040692845
239	0x3b203b8a	0.002444955
240	0x3bedb6cf	0.0072544585
241	0x3bb00165	0.00537126
242	0x3b1d677b	0.0024017978
243	0x3bc580ee	0.0060273325
244	0x393987d0	0.00017693569
245	0x3a90814e	0.0011024864
246	0x3bbefea4	0.0058286954
247	0x3bc8fb44	0.006133469
248	0x3b1924d2	0.0023367894
249	0x3ba02b51	0.004887976
250	0x3bfc94ec	0.0077081826
251	0x3c101a4a	0.00879533
252	0x3b20759a	0.0024484158
253	0x3af81fcd	0.0018930376
254	0x3a075ad4	0.0005163376
255	0x3bfe032b	0.0077518425

network_body._body_endoder.seq_layers.2.weight f4 [256, 256]
0	0xbcd09b85	-0.025464782
1	0xbd14b56d	-0.036305834
2	0x3e18ea76	0.1493319
3	0x3d1de323	0.038546693
4	0x3dc79301	0.09744836
5	0xbd9522e5	-0.07282046
6	0xbd06ba7a	-0.03289268
7	0xbd58ef4c	-0.052962586
8	0x3d616671	0.055029336
9	0xbd582b45	-0.05277564
10	0x3cf05931	0.029339405
11	0xbc226ded	-0.009913904
12	0xbe0ec2ae	-0.13941452
13	0xbe028b74	-0.1274851
14	0x3d56fbda	0.052486278
15	0x3dd799a9	0.10527355
16	0xbd29ffa5	-0.041503567
17	0x3dc7a9b4	0.09749165
18	0xbd5892e7	-0.052874472
19	0xbda6c0a0	-0.08142209
20	0x3d6d2f30	0.05790633
21	0xbbb74e4b	-0.00559405
22	0x3cba58fd	0.022747511
23	0xbd44828e	-0.04797607
24	0xbdcd7d7f	-0.10033702
25	0x3d0f25f9	0.034948323
26	0xbde40540	-0.11133814
27	0xbdd09521	-0.10184694
28	0x3c83ad66	0.016073894
29	0xbd8f38a8	-0.06993228
30	0x3b9e297e	0.0048267236
31	0x3d3f841e	0.046756856
32	0x3d829465	0.0637596
33	0x3d8056de	0.062665686
34	0xbc5c687f	-0.013452648
35	0x3d9e0bd6	0.07717101
36	0xbd39bbd2	-0.045345135
37	0x3d2c25ef	0.042028364
38	0x3b13a35a	0.0022527785
39	0xbd412797	-0.047156896
40	0xbd373b85	-0.044734497
41	0xbc1aa0d2	-0.009437757
42	0xbcf9fef9	-0.030517088
43	0xbc55c4e6	-0.0130474325
44	0xbd9d853f	-0.0769143
45	0xbcbab358	-0.022790596
46	0xbc5649e2	-0.0130791385
47	0xbce8bcb8	-0.0284103
48	0x3cb5a3a5	0.022172758
49	0x3d2f6e41	0.042829756
50	0xbaf8d93e	-0.0018985642
51	0xbd54b0a3	-0.051926266
52	0xbce1b420	-0.02755171
53	0xbc70e629	-0.014703312
54	0xbd556846	-0.052101396
55	0x3dd64a0a	0.104633406
56	0xbca0a7eb	-0.01961132
57	0x3dd23baf	0.1026529
58	0x3b945e79	0.0045278636
59	0xbcc21fab	-0.023696741
60	0xbd92aa97	-0.07161444
61	0xbdc271e2	-0.09494378
62	0x3ca8e851	0.02061859
63	0x3d4ce718	0.050025076
64	0x3d67a81f	0.056556817
65	0x3d1d8b0c	0.038462684
66	0x3e0e0600	0.13869476
67	0x3dc6a78a	0.09699924
68	0x3dcaa4b0	0.09894693
69	0x3d21f86f	0.039543565
70	0x3c49c7c8	0.012315698
71	0x3cf70c8b	0.030157348
72	0xbd9f3923	-0.0777457
73	0xbbf07e16	-0.0073392494
74	0xbd8dc219	-0.06921787
75	0xbdabcaa6	-0.083882615
76	0xbdf09b12	-0.11748327
77	0x3b5f72a6	0.0034095435
78	0x3ce14059	0.027496504
79	0x3b3a53b9	0.002843125
80	0x3d519c85	0.05117466
81	0xbd91709c	-0.07101557
82	0xbceccdab	-0.028906664
83	0x3a46fbd4	0.0007590626
84	0xbdb613ae	-0.08890472
85	0xbc994950	-0.018711716
86	0xbc2aae14	-0.01041748
87	0xbb8fb6bd	-0.004385798
88	0x3cfc5632	0.03080282
89	0xbcf7cffd	-0.030250544
90	0x3b93424c	0.004493987
91	0xbd45fda5	-0.048337597
92	0x3dbfc95d	0.09364579
93	0x3dcffc8f	0.101555936
94	0x3c3a41d5	0.011368235
95	0x3dc6c8ab	0.09706243
96	0x3cd67a8b	0.02618148
97	0xbd0da300	-0.034579277
98	0x3ceda882	0.029011015
99	0x3d1e10ed	0.03859036
100	0xbcb21cd3	-0.02174226
101	0xbb3d563b	-0.0028890509
102	0x3bd232ae	0.006414733
103	0xbcb441e6	-0.02200408
104	0xbbdf1101	-0.006807447
105	0xbc21b645	-0.009870117
106	0xbcbef565	-0.023310373
107	0xbd704bf6	-0.058666192
108	0x3ba16b18	0.0049260966
109	0x3db9e7d1	0.090774186
110	0xbd2da492	-0.042393275
111	0xbd650712	-0.055914946
112	0xbd761a43	-0.06008364
113	0x3d5ff527	0.054677155
114	0xbd2df6db	-0.042471748
115	0x3cdb1437	0.026743038
116	0x3db599f0	0.08867252
117	0xbc054b25	-0.008135592
118	0x3d6eb25b	0.05827556
119	0x3bb59264	0.0055411328
120	0xbc350c94	-0.011050362
121	0x3cf94c1e	0.030431803
122	0xbd0b7a57	-0.03405222
123	0xbdf5bce4	-0.11998919
124	0x3df8d8c4	0.1215072
125	0xbd3ef21a	-0.046617605
126	0xbc729c81	-0.014807821
127	0x3db66480	0.089058876
128	0x3d8d5e70	0.06902778
129	0x3cac9eef	0.02107188
130	0x3da2880c	0.07936105
131	0xbcac7505	-0.021051893
132	0xbd1e498d	-0.038644362
133	0x3d491c09	0.049099002
134	0x3d23f3a5	0.04002728
135	0x3d997e8d	0.07494841
136	0xbdb027d5	-0.08601347
137	0xbd589f5a	-0.052886344
138	0x3d4aa8ac	0.049477264
139	0xbd0b6238	-0.034029216
140	0x3d96e431	0.07367743
141	0xbd4323a1	-0.0476414
142	0xbc907f38	-0.017638788
143	0x3d140fa1	0.036147717
144	0xbe038569	-0.1284386
145	0x3d404e0f	0.046949442
146	0x3d379b68	0.04482594
147	0x3d22e6aa	0.03977076
148	0x3dde1a36	0.10844843
149	0x3d607026	0.054794453
150	0xbd64e2c2	-0.055880316
151	0x3c4e91d9	0.012608015
152	0xbe12580f	-0.14291404
153	0xbdc4a1fb	-0.09601208
154	0x3d37727a	0.044786908
155	0x3dbd6ea5	0.092496194
156	0x3d81ad92	0.06331934
157	0xbd437953	-0.047723126
158	0xbcffa880	-0.031208277
159	0x3d2b0ffc	0.04176329
160	0xbd323bac	-0.04351394
161	0x3d712202	0.058870323
162	0x3da5d8b9	0.08097977
163	0xbd8d03b9	-0.06885476
164	0x3d83c7bb	0.0643458
165	0x3dbf70c0	0.09347677
166	0x3d7b23f4	0.061313584
167	0xbaf94886	-0.0019018806
168	0xbdc1212b	-0.094301544
169	0x3d9a0009	0.07519538
170	0xbdad59f5	-0.084644236
171	0xbc8bf96b	-0.017086705
172	0xbe18a32e	-0.14905998
173	0xbd5b42e1	-0.053530578
174	0xbb2292cf	-0.0024806743
175	0x3d866f4b	0.06564196
176	0x3d3456e6	0.044028185
177	0x3d420eab	0.04737727
178	0xbc736ee7	-0.014857984
179	0xbd84ff25	-0.064939775
180	0x3beb365a	0.00717811
181	0xbcaa1b49	-0.020764964
182	0x3e11b6b9	0.1422986
183	0x3d0575a2	0.032582887
184	0x3d47d4a9	0.048786793
185	0x3e1b16b7	0.15145384
186	0xbd49391e	-0.049126737
187	0x3bef14ab	0.007296165
188	0x3dc84db2	0.09780444
189	0xbd01e4af	-0.03171223
190	0xbd6b634d	-0.057467747
191	0xbc6dde28	-0.014518298
192	0x3d230880	0.039803028
193	0x3d8e91ce	0.06961404
194	0xbc41c7f9	-0.011827462
195	0x3d445a8d	0.04793792
196	0x3ccf5818	0.025310561
197	0x3d9c24b2	0.076241866
198	0xbdf4fb09	-0.11961944
199	0xbb236ba6	-0.002493599
200	0xbccdb74b	-0.025111815
201	0xbe064b76	-0.13114724
202	0x3c06fdc9	0.008239218
203	0xbc3d8087	-0.011566288
204	0x3dc7d703	0.09757807
205	0xbb541898	-0.0032363292
206	0xbd358183	-0.044312965
207	0x3c92eb4c	0.017934464
208	0x3cc8e1b3	0.024521684
209	0xbd273d22	-0.040829785
210	0xbcbdf1a7	-0.023186518
211	0xbccbb185	-0.024864921
212	0xbd715e34	-0.05892773
213	0xbc986325	-0.018601963
214	0x3dabf1ba	0.08395715
215	0xbd5f3eb2	-0.05450315
216	0xbda37232	-0.079807654
217	0xbaf2c8b1	-0.0018522945
218	0xbdadf97b	-0.0849485
219	0xbcf7f41a	-0.030267764
220	0x3d061647	0.03273609
221	0xbd03ced0	-0.032179654
222	0xbcf40591	-0.02978781
223	0xbb2fccef	-0.002682503
224	0x3d8685a1	0.065684564
225	0xbd8620d4	-0.0654923
226	0x3c5c3758	0.013440929
227	0x3d88b716	0.06675546
228	0xbd41fe73	-0.047361802
229	0x3cfb9aff	0.030713556
230	0x3d91259c	0.070872515
231	0x3cf4c302	0.029878143
232	0x3dc868f6	0.09785645
233	0x3dc7183f	0.097214215
234	0x3d41e9e3	0.047342192
235	0xbdd84608	-0.105602324
236	0x3d25fb30	0.040522754
237	0x3d091f75	0.033477265
238	0xbd9ef3dc	-0.07761356
239	0x3b14166e	0.0022596377
240	0xbd3dbd2b	-0.046322983
241	0xbc228284	-0.009918813
242	0x3d071ca1	0.032986287
243	0xbd0689fd	-0.03284644
244	0x3cec2693	0.028826987
245	0x3d69a48d	0.057041693
246	0xbdecdd0b	-0.11565598
247	0xbd887795	-0.066634335
248	0x3d847625	0.06467847
249	0xbccf727c	-0.025323145
250	0x3b936a10	0.0044987276
251	0x3dd81324	0.10550526
252	0x3d9c694a	0.0763727
253	0xbc7c29e5	-0.015390848
254	0xbdc5acd1	-0.09652103
255	0xbd7d0f2b	-0.061782043

network_body._body_endoder.seq_layers.2.bias f4 [256]
0	0xba5a6bb7	-0.0008332091
1	0x3bc7b307	0.00609434
2	0xbba9a2f4	-0.005176896
3	0x3bbd3f60	0.005775377
4	0x3c04c806	0.00810433
5	0x3c48abc3	0.012247982
6	0xbb5498fc	-0.0032439819
7	0x3cbacb38	0.02280198
8	0x3b6e0a5d	0.0036322095
9	0x3bcde38c	0.006283229
10	0x3c2d7635	0.010587265
11	0x3c6db58d	0.014508617
12	0x3c54a634	0.012979079
13	0x3c1a10d3	0.009403425
14	0x3b302374	0.00268766
15	0x3c7a3b98	0.015272997
16	0x3bdc3412	0.0067200745
17	0xb9fb891c	-0.00047976605
18	0x3b88b3c4	0.0041718204
19	0xbb1ec3a4	-0.0024225498
20	0x3c4bd706	0.012441402
21	0x3bdc9741	0.006731898
22	0x3a0e20c3	0.0005421752
23	0xba79dd87	-0.00095316063
24	0x3b57ce0b	0.0032929208
25	0x3c2b7933	0.010465908
26	0x3b9ef308	0.004850749
27	0xbb36c2c1	-0.0027887078
28	0xba42023c	-0.00074008456
29	0x3c016a1d	0.0078988345
30	0xb9b26a9e	-0.00034030242
31	0xbbb2cb91	-0.005456396
32	0x3b81e6f5	0.0039643
33	0x3b1c3be1	0.0023839402
34	0xbb3e87bd	-0.0029072606
35	0xbb8ea9a5	-0.0043537193
36	0x3b2b90f8	0.0026178937
37	0x3c302cff	0.010752915
38	0x3a45a2a4	0.0007539189
39	0x3c779c32	0.015112923
40	0x39d8bc96	0.00041339238
41	0xbacac72e	-0.0015470737
42	0x3b8a09d2	0.0042125965
43	0x3ba78b98	0.0051130764
44	0x3b59acf3	0.0033214658
45	0xbbcb172c	-0.0061978307
46	0xbbeca19f	-0.007221415
47	0x3981fa51	0.00024791298
48	0x3be4c6bd	0.0069816993
49	0xbb1797c7	-0.0023131238
50	0xbb7818d6	-0.00378566
51	0x3b7d9d53	0.003869851
52	0x3ac847d9	0.0015280201
53	0xb86c0d18	-5.627898e-05
54	0x3c02ab66	0.007975435
55	0x3adca70a	0.001683445
56	0xb8e4501e	-0.0001088681
57	0x3ad5efc3	0.0016322065
58	0x3c2b6633	0.010461378
59	0x3c45a422	0.012063058
60	0x3c26c293	0.010178226
61	0x3c1515b3	0.009099412
62	0x3b9ad994	0.0047256444
63	0x3b00591b	0.001958436
64	0x3ba94e44	0.0051668007
65	0x3a972b68	0.0011533322
66	0xba1d485f	-0.0005999859
67	0xba20e5a6	-0.0006137736
68	0x3b393423	0.0028259836
69	0x3b1da28c	0.0024053184
70	0x3b1b187b	0.0023665715
71	0x3b90408a	0.004402225
72	0x3bf0d124	0.0073491503
73	0x3c53a698	0.012918137
74	0x3ac911fb	0.0015340442
75	0x3b71a3b5	0.0036871259
76	0x3c4d1038	0.012516074
77	0xbb8c7f04	-0.0042876024
78	0x3bda0e83	0.006654562
79	0x3b88d860	0.0041761845
80	0x3b3160fc	0.0027065864
81	0x3c1830a1	0.009288938
82	0x398aa50c	0.0002644438
83	0x3a0063e3	0.0004897697
84	0x3b03e81e	0.0020127366
85	0x3b4568f2	0.0030122367
86	0x3b831601	0.004000426
87	0x3c8ab454	0.01693169
88	0xbc08ea07	-0.008356578
89	0x3c1ed852	0.0096951295
90	0xbafc62a9	-0.0019255477
91	0x3aef1da4	0.0018243087
92	0x3aa5a91c	0.00126389
93	0x3c2f410f	0.0106966635
94	0x3c473130	0.012157723
95	0x3ac482d5	0.0014992604
96	0x3c672b9b	0.014109517
97	0xbb9ba388	-0.004749719
98	0x3bca2a2c	0.006169578
99	0xbc1fa95d	-0.009744969
100	0xbaa36245	-0.00124652
101	0x3a7a773f	0.0009554512
102	0x3b9636a6	0.0045841513
103	0x3bbedb09	0.005824451
104	0xbb4b9733	-0.0031065464
105	0x3bfe3293	0.0077574938
106	0x3ba07041	0.004896194
107	0x3aefeb4e	0.0018304379
108	0xbb1bc072	-0.002376583
109	0x3b90b0a3	0.004415588
110	0x3b8814af	0.0041528563
111	0xb9590460	-0.00020696362
112	0xbb9412b9	-0.0045188335
113	0x3a2c00e4	0.0006561412
114	0xbb9a7ef6	-0.004714842
115	0xba20f0f1	-0.00061394187
116	0xbc0c7a3b	-0.008574064
117	0x3bafb436	0.005362059
118	0x3ba58813	0.0050516217
119	0xbb7157ee	-0.0036826092
120	0x3b8a226f	0.0042155306
121	0x3baf47ec	0.00534915
122	0x3b178ca9	0.0023124611
123	0x3bf5b34f	0.007498182
124	0x3bbe43b6	0.0058064116
125	0xba180bba	-0.0005800087
126	0xba8d2637	-0.0010768835
127	0xbb82b126	-0.003988403
128	0x3b7aa9d5	0.00382482
129	0xba4fd24c	-0.000792776
130	0x3a811f95	0.0009851331
131	0xbaa783a2	-0.0012780319
132	0xbc16d8ea	-0.00920699
133	0x3bfe1319	0.0077537415
134	0x3bb8d37d	0.0056404457
135	0x3b7375a5	0.003714898
136	0x3b8abfbf	0.0042342837
137	0xbb93f1ad	-0.004514894
138	0x3b7e6a66	0.0038820743
139	0x3b173e2e	0.0023077833
140	0xbb5fc105	-0.0034142148
141	0xb9401ff6	-0.00018322453
142	0xbbcf3323	-0.0063232346
143	0x3983d1f1	0.00025142686
144	0x3bdc198a	0.0067169117
145	0xb5f59f80	-1.8300343e-06
146	0xbb71ccc0	-0.0036895722
147	0x3af32b0b	0.0018552257
148	0x3b00775b	0.0019602391
149	0xbb29331b	-0.0025817815
150	0x3bac96e6	0.005267012
151	0xba96cd3c	-0.0011505256
152	0x3bd87408	0.006605629
153	0x3a10a49f	0.00055176945
154	0x3b93f5cb	0.004515385
155	0x3b333f0a	0.0027350807
156	0x3c3d7922	0.011564525
157	0x3c2a6563	0.010400149
158	0x3bea0fd4	0.007143
159	0xbc3bcfd2	-0.011463122
160	0x3a7a37c4	0.0009545053
161	0xbb9d66d9	-0.00480352
162	0x3befc7ff	0.0073175426
163	0x3be32fdd	0.006933196
164	0xba47df3a	-0.0007624511
165	0x39a01c36	0.00030538597
166	0x3b60f8d4	0.0034328
167	0xbaf0d856	-0.001837502
168	0xba983c97	-0.0011614737
169	0xbabc2b31	-0.0014356134
170	0x3bab9097	0.0052357423
171	0x3bc1e24c	0.0059168693
172	0x3aa658a6	0.0012691214
173	0xba4dce14	-0.00078508374
174	0x3c0c2c61	0.008555503
175	0x3b1e85be	0.0024188603
176	0xbc041c63	-0.008063409
177	0x3bb125bc	0.0054061096
178	0x3aa9b870	0.0012948643
179	0xba45a794	-0.00075399247
180	0x3b0bec2e	0.002135049
181	0xbb0f2981	-0.0021844807
182	0xb9c8c405	-0.0003829302
183	0xbb29452d	-0.0025828585
184	0x3b07bc78	0.0020711701
185	0x3bb64d02	0.0055633793
186	0x3c0b4960	0.008501381
187	0x3aac2fc7	0.0013136797
188	0x3c020868	0.0079365745
189	0xbaa6ddee	-0.0012730935
190	0xbab50d29	-0.0013813126
191	0xbb5e95c4	-0.003396378
192	0x3af6c7db	0.0018827872
193	0x3c701530	0.014653489
194	0xbb453fd5	-0.0030097861
195	0x3b81291d	0.0039416687
196	0x3bebf4e5	0.0072008246
197	0x3a214e7a	0.00061533565
198	0xbc148048	-0.009063788
199	0x3ba87eee	0.0051420843
200	0xbad9382d	-0.0016572528
201	0x3c8a7459	0.016901182
202	0xbbd1d623	-0.006403701
203	0x3ad4a2e5	0.0016222863
204	0xbb4494ae	-0.0029995847
205	0xbaa9eda0	-0.0012964495
206	0x3c88e63b	0.016711345
207	0x3c0da388	0.008644946
208	0x39b23ff0	0.00033998443
209	0xbaca85f2	-0.0015451296
210	0x3b212535	0.0024588828
211	0x39fd7b10	0.0004834761
212	0x3b0ed9a0	0.0021797195
213	0x3b443108	0.0029936451
214	0x3c1cb957	0.009565673
215	0xbaeff464	-0.0018307087
216	0x3c34f9dc	0.011045899
217	0xbc6f467d	-0.014604208
218	0x3c5be98b	0.01342238
219	0xbba7b639	-0.005118158
220	0x3c2c6ddd	0.01052424
221	0x3b08fbd0	0.0020902045
222	0xbb9f1530	-0.0048548207
223	0xbab1484e	-0.0013525577
224	0x39042e7c	0.00012605818
225	0x3c5b1e95	0.013373991
226	0xbc1ca3d1	-0.009560541
227	0xba4453f6	-0.0007489318
228	0xbb4b03cb	-0.0030977603
229	0x3ae06abd	0.0017121654
230	0x3c4a752e	0.012357039
231	0x3b8e173f	0.0043362672
232	0xbb42f767	-0.0029749514
233	0x3962dae0	0.00021634577
234	0x3b627d3f	0.0034559516
235	0x3892a882	6.9932095e-05
236	0xbacc00ea	-0.0015564237
237	0xbbc04cd7	-0.005868535
238	0x3bf57510	0.0074907616
239	0x3c229618	0.00992348
240	0x3ae4e21f	0.0017462409
241	0xba4dcf73	-0.0007851042
242	0xb9e845f3	-0.00044302605
243	0x3b842067	0.004032183
244	0x3c854c03	0.016271597
245	0xbbfe8ca4	-0.0077682305
246	0x3a0f128c	0.0005457781
247	0x3c15c8f8	0.009142153
248	0xbad2f420	-0.0016094483
249	0x3c1489d0	0.00906606
250	0xbbc70d9c	-0.0060746204
251	0xbb74fc4b	-0.0037381824
252	0x3ba0897a	0.004899201
253	0xbc40957b	-0.011754389
254	0x3c19dbe7	0.009390808
255	0x3c012d00	0.007884264

action_model._continuous_distribution.log_sigma f4 [1, 3]
0	0x3b564161	0.0032692777
1	0x3c0d56c9	0.008626648
2	0x3ba5e048	0.005062137

action_model._continuous_distribution.mu.weight f4 [3, 256]
0	0x3c26b164	0.010174129
1	0x3b5877e9	0.0033030456
2	0xbc8264d9	-0.015917229
3	0x3c24db29	0.0100620175
4	0xbc0a8129	-0.008453646
5	0x3cc7a150	0.024368912
6	0x3c876299	0.016526507
7	0xbbcf2925	-0.0063220435
8	0xbc2d61e2	-0.010582419
9	0x3cdcf75f	0.026973424
10	0xbb5e8be5	-0.0033957895
11	0x3c2d0275	0.010559668
12	0xbb0edc55	-0.0021798809
13	0xbae61162	-0.0017552788
14	0x3bbf5c29	0.005839844
15	0x3bdc7e06	0.0067288904
16	0x3c24a123	0.010048184
17	0x3c362cc6	0.011119073
18	0xbcc626e8	-0.024188474
19	0xbc7f39ea	-0.015577773
20	0xbc1e4d2d	-0.009661955
21	0xbac63877	-0.0015123029
22	0xbd09d5be	-0.033651106
23	0x3c8a612e	0.016892042
24	0x3c337415	0.010952969
25	0xbb929252	-0.004473009
26	0xbc283b03	-0.010267976
27	0xbd02416b	-0.03180067
28	0xbbc5fe70	-0.006042294
29	0x3c158205	0.009125237
30	0xbca2c85b	-0.019870928
31	0xbc40b83b	-0.011762674
32	0x3c1a6ef0	0.009425864
33	0x3cb58f0c	0.022162937
34	0x3bb7dbff	0.0056109424
35	0xbae02e2c	-0.0017103604
36	0x3c7e717b	0.015529986
37	0x3baa4718	0.0051964633
38	0x3cbb19f1	0.022839518
39	0xba5bab25	-0.00083796895
40	0xbca30a1c	-0.019902281
41	0x3bdd3665	0.006750869
42	0xbc367c37	-0.011138014
43	0x3acfb726	0.0015847429
44	0xbcdff50b	-0.027338525
45	0x3ceb7c99	0.028745936
46	0x3c1327b5	0.008981635
47	0xb9d4395b	-0.00040478524
48	0x3861939e	5.378166e-05
49	0xbc5a3bb4	-0.013319898
50	0xb98637f5	-0.00025600163
51	0xba4d7444	-0.00078374543
52	0xbb1b42f9	-0.0023691042
53	0x3c9b3fc1	0.018951299
54	0x3b930931	0.0044871797
55	0xbbd77a0e	-0.0065758293
56	0xba5b46e0	-0.0008364748
57	0xbc3de716	-0.01159074
58	0xbb3d665a	-0.0028900118
59	0xbca638da	-0.02029078
60	0xbb171e7f	-0.0023058949
61	0xbc7391ff	-0.014866351
62	0x3c083133	0.008312511
63	0xbc6b44c8	-0.01435966
64	0x3ceb0d06	0.028692733
65	0xbc7ae88d	-0.0153142335
66	0xbc9862f4	-0.018601872
67	0x3c56a856	0.013101658
68	0xbb42faa7	-0.0029751451
69	0xbc621bf6	-0.013800612
70	0x3b55190a	0.0032516145
71	0xbc43cc0a	-0.011950502
72	0x3ca23aaf	0.019803373
73	0x3cbf3718	0.0233417
74	0x3c90dcfb	0.017683497
75	0x3c5fa0e4	0.013649199
76	0x3c57346f	0.01313506
77	0x3b5b5812	0.0033469242
78	0x3c23da82	0.010000827
79	0xbb5589ef	-0.0032583436
80	0x3cd8ec97	0.026480002
81	0xbc889aa2	-0.016675297
82	0x3c7001b2	0.014648842
83	0xbbba4f60	-0.005685732
84	0x3c9b8c7e	0.01898789
85	0xbce70a49	-0.028203147
86	0x3c3babb5	0.011454512
87	0x3c63f879	0.013914221
88	0xb900bea0	-0.00012278045
89	0xbc8115d0	-0.015757471
90	0xbcb67f7b	-0.022277584
91	0x3c97e816	0.018543284
92	0xbbf37e24	-0.0074308086
93	0x3c448bec	0.011996251
94	0x3beecc67	0.0072875503
95	0xbcbd9870	-0.023143977
96	0xbb8eebba	-0.004361597
97	0xbc3923c5	-0.011300032
98	0x3ce31657	0.027720613
99	0x3a2098fb	0.00061263115
100	0x3ab45df5	0.0013760912
101	0x3c5ada43	0.013357702
102	0x3c3dc7f4	0.011583317
103	0x3c87266b	0.016497811
104	0x3ab81445	0.0014044127
105	0xbc177fd7	-0.009246788
106	0xbc441065	-0.011966799
107	0x3cabc924	0.020969935
108	0xbcb6440c	-0.022249244
109	0xbbc035fd	-0.005865811
110	0x3a350b40	0.00069062784
111	0xbc034c4a	-0.008013794
112	0x3ba083e0	0.004898533
113	0xbc2e69a6	-0.010645306
114	0xbc98d94e	-0.018658306
115	0xbc7f8d7b	-0.015597696
116	0xbc904778	-0.017612204
117	0x3ccbae31	0.024863334
118	0x3c5dc615	0.013535996
119	0x3c5a039d	0.013306526
120	0x3bce5930	0.006297253
121	0xbb913c51	-0.004432239
122	0xbaa30313	-0.0012436829
123	0x3c9ce93c	0.019154184
124	0xbaa92220	-0.0012903847
125	0xbc40051e	-0.01171997
126	0xbc879539	-0.016550647
127	0xbb620da9	-0.0034493005
128	0xba57d524	-0.00082333595
129	0xbcc89214	-0.024483718
130	0x3beac199	0.007164192
131	0xbd137228	-0.03599754
132	0xb9fbdda9	-0.000480396
133	0x3bde4542	0.0067831585
134	0x3c18af54	0.009319145
135	0x3bb58085	0.0055390024
136	0x3b5a9cfc	0.003335773
137	0xbb9c2070	-0.004764609
138	0x3c6ea31e	0.014565257
139	0x3ca477ad	0.020076597
140	0x3c1213ab	0.008915822
141	0xbc0b39c2	-0.008497657
142	0x3c37adeb	0.011210899
143	0xbc28d227	-0.0103040105
144	0x3cadaa4d	0.02119937
145	0xbc5095ea	-0.012731055
146	0xbbc336de	-0.0059574684
147	0x3abb0edc	0.0014271396
148	0xbc46c3c1	-0.012131632
149	0xbca37161	-0.019951524
150	0x3b20f7ae	0.002456169
151	0x3b57c4a8	0.0032923613
152	0x3c92e622	0.017932002
153	0xbcaeb7a7	-0.021327807
154	0xbb71990c	-0.0036864905
155	0x3a3930ad	0.0007064443
156	0xbc32f231	-0.010922001
157	0x3c04c1d3	0.008102852
158	0x3cb82a09	0.022480981
159	0xbc4627fb	-0.012094493
160	0xbc3dd128	-0.011585511
161	0x3be05093	0.0068455427
162	0xbcb51a65	-0.022107312
163	0x3cb366ab	0.021899542
164	0xbbc6e801	-0.0060701375
165	0xbb605f02	-0.0034236317
166	0x3cae7405	0.021295557
167	0xbc5c546e	-0.013447864
168	0xbcc9a974	-0.024616934
169	0x3aed6846	0.0018112741
170	0xbce1e2b6	-0.027573925
171	0xbcf73773	-0.030177807
172	0xbc863fd3	-0.016387856
173	0xbcd1c0e3	-0.02560467
174	0x3cfe7baf	0.031064836
175	0x3c72a922	0.014810832
176	0xbb9fab5f	-0.004872724
177	0x3c955dc6	0.018233191
178	0xbc099975	-0.008398403
179	0xbb2d080c	-0.0026402501
180	0x3c052342	0.008126082
181	0xbbcd6155	-0.0062677064
182	0xbc083455	-0.008313258
183	0xbb748f01	-0.0037316682
184	0xbbed9c0c	-0.0072512683
185	0xbbc4d5cc	-0.006006932
186	0xbba054d0	-0.004892923
187	0x3c423ec6	0.011855787
188	0x3caa4ceb	0.02078863
189	0x3c34594f	0.011007621
190	0xbacd8c4a	-0.0015682068
191	0x3bd6fb03	0.0065606846
192	0x3bd1560b	0.006388431
193	0xba5b9e77	-0.00083778
194	0x3c3c73c4	0.01150221
195	0x3c16bd09	0.009200343
196	0x3b4b2fb3	0.0031003773
197	0xbc6ac3a1	-0.014328868
198	0x3c400803	0.01172066
199	0xbc1c0c15	-0.009524365
200	0xbcc2351a	-0.023706961
201	0xbc2923b3	-0.010323453
202	0xbbb00438	-0.0053715967
203	0xbca3788a	-0.019954938
204	0xbba52447	-0.005039725
205	0xbc891a6c	-0.016736232
206	0x3c262398	0.010140322
207	0xbc13f2a1	-0.009030015
208	0x3ae18701	0.0017206372
209	0x3b7986cb	0.0038074728
210	0xbc010174	-0.007873882
211	0x3b7aa626	0.0038246005
212	0xbbbed6cf	-0.005823947
213	0xbaeb5c23	-0.0017956536
214	0x3b680406	0.0035402789
215	0xbc1df3b4	-0.009640623
216	0x3bebe166	0.0071985004
217	0x3b9e4453	0.004829922
218	0x3c5f7e1e	0.0136409085
219	0xbc482185	-0.012215023
220	0x3b6f0c36	0.0036475784
221	0xbb5d6e86	-0.00337878
222	0xbcad4f17	-0.021155877
223	0x3bd14e22	0.006387488
224	0xbcb06c2a	-0.021535952
225	0xba8b250c	-0.0010615899
226	0x3ae54886	0.0017492927
227	0xba98f000	-0.0011668205
228	0x3af768e0	0.001887586
229	0x3b26ee58	0.0025471654
230	0xbc534c17	-0.012896559
231	0xbbbd6f3c	-0.0057810824
232	0xbc86f6f9	-0.016475188
233	0x3ca5436f	0.020173756
234	0x3c25d00e	0.010120405
235	0x3cc5642b	0.024095615
236	0x3d0e9b3e	0.03481602
237	0xbc95bad3	-0.018277561
238	0x3c953566	0.018213939
239	0xbc1429c6	-0.009043163
240	0xbc1020a5	-0.008796846
241	0xbcd89687	-0.026438965
242	0xbcef6ba5	-0.029226134
243	0x3c562c47	0.01307208
244	0x3c0c8dff	0.008578776
245	0x390957cc	0.00013098045
246	0xbc42f2bb	-0.011898692
247	0x3c02a7b1	0.007974551
248	0xbbad600e	-0.0052909916
249	0x3c440101	0.01196313
250	0x3c085231	0.008320377
251	0x3c0f9ef9	0.008765929
252	0x3c69bd42	0.014266314
253	0x3b8fbdab	0.004386624
254	0x3c99f9ab	0.018795809
255	0x3be50935	0.006989623

action_model._continuous_distribution.mu.bias f4 [3]
0	0x3a5af4f8	0.0008352543
1	0xba83ac1b	-0.0010045798
2	0x3b213225	0.002459654

action_model._discrete_distribution.branches.0.weight f4 [7, 256]
0	0xbb92db23	-0.0044816895
1	0xbbe9c37d	-0.0071338997
2	0xbb93811c	-0.004501475
3	0xbc29c3c2	-0.010361614
4	0xbb4f2164	-0.0031605596
5	0x3a5eed20	0.00085039623
6	0x3c1941fa	0.009354109
7	0x3b1ca7f5	0.002390382
8	0xbc540229	-0.012939968
9	0x3bd52b1f	0.0065053846
10	0xbc8157dd	-0.015788967
11	0x3c54ee42	0.012996258
12	0xbb62ed84	-0.0034626434
13	0xb9c568ac	-0.00037652755
14	0xb991d8cd	-0.00027818084
15	0xbc249f90	-0.010047808
16	0xbbeadafd	-0.0071672187
17	0xbc3e86ec	-0.011628848
18	0xbc583e02	-0.013198378
19	0xbbd51278	-0.006502446
20	0xbb5b039e	-0.0033418904
21	0xbc030da9	-0.007998862
22	0xbb7a30b0	-0.0038175993
23	0x3c8e063b	0.017336955
24	0x3c2b0ac3	0.0104395775
25	0xbcb392c3	-0.021920567
26	0xbc9dd623	-0.019267147
27	0x3b5f7e39	0.0034102334
28	0xbb245060	-0.0025072321
29	0x3bb102c9	0.0054019433
30	0xbb635eeb	-0.0034694027
31	0xbb875f1f	-0.0041312124
32	0xbbfa4bc9	-0.007638429
33	0xbaa33061	-0.0012450331
34	0x3b2c6787	0.0026306824
35	0xbbb9676e	-0.0056580817
36	0x3b93ae66	0.004506874
37	0x3b62ee43	0.0034626878
38	0x3ca485e2	0.020083372
39	0xbc31df94	-0.010856528
40	0xbb9f4a4d	-0.0048611523
41	0xbad3bcf1	-0.0016154331
42	0xbbfb40fc	-0.007667659
43	0xbc51e767	-0.012811518
44	0xbbdc5d11	-0.0067249616
45	0x3bdc58bc	0.006724445
46	0x3c766075	0.015037646
47	0x3b52963d	0.0032133006
48	0x3ad6d57e	0.001639053
49	0x3ad00da4	0.0015873206
50	0x39c6dd7c	0.00037930522
51	0xbbcaa2d0	-0.0061839595
52	0x3bff2d66	0.0077873943
53	0xbb0020af	-0.001955073
54	0xbbbfe022	-0.005855576
55	0xbc0eb36d	-0.008709771
56	0xbbe73d49	-0.0070568663
57	0xbcc63eae	-0.02419981
58	0xbc25634e	-0.010094477
59	0xbca75c51	-0.020429762
60	0x3a7f6d34	0.00097437506
61	0x3be0dc0b	0.0068621687
62	0xbb709eaa	-0.0036715665
63	0xbb9f1dd3	-0.0048558502
64	0x3a02c1d2	0.0004987988
65	0xbaa3cfe1	-0.0012497866
66	0x3c807417	0.015680356
67	0x3c1e2a42	0.00965363
68	0x3be21a32	0.0069000954
69	0xbb6e71fe	-0.0036383863
70	0x3ac98d3b	0.0015377173
71	0xbc8baab6	-0.017049175
72	0xbbbdc4a8	-0.0057912655
73	0xbb8d487f	-0.0043116207
74	0x3b6541ca	0.003498184
75	0x3a28b1c9	0.00064351835
76	0xbbd6416d	-0.006538561
77	0x3bd31346	0.0064415066
78	0xbbea1286	-0.0071433214
79	0x3c000fcb	0.007816265
80	0xbbcedd7e	-0.006313025
81	0xbca73184	-0.020409353
82	0x3bba4c5f	0.0056853737
83	0xbaae147e	-0.0013281254
84	0xbb59aaf6	-0.0033213473
85	0xba971c32	-0.0011528789
86	0xbaa5f6d2	-0.0012662059
87	0xbc185eda	-0.009299958
88	0x3b2a413f	0.002597883
89	0xbc4c023e	-0.012451706
90	0xbb807d47	-0.003921184
91	0x3c19cff7	0.009387962
92	0xbb8d0ed5	-0.0043047466
93	0xb859a925	-5.189436e-05
94	0xbcc322a5	-0.02382023
95	0x3b561f8f	0.003267262
96	0x3bc193e8	0.0059075244
97	0x3bdb4845	0.006691965
98	0xbb6eda6d	-0.003644611
99	0x3c59ca4a	0.013292858
100	0x3b655032	0.0034990427
101	0xbc89f6b1	-0.016841264
102	0xbc0ceead	-0.008601827
103	0x3b30b65a	0.0026964159
104	0x3b0852fa	0.002080141
105	0xbb5e1bfa	-0.0033891187
106	0xbc7eace2	-0.015544148
107	0x3b83622c	0.0040095057
108	0x3badc00e	0.0053024357
109	0xbc213857	-0.009840093
110	0x3a9bff5f	0.0011901668
111	0xbb311e07	-0.0027025954
112	0x3ce66b8d	0.028127456
113	0xbbdf918d	-0.006822771
114	0xba947e24	-0.0011329097
115	0xbb8e4846	-0.0043421118
116	0xbb51239d	-0.0031912096
117	0xbc2a73b7	-0.010403565
118	0xbb69d474	-0.003567961
119	0xbc028c8a	-0.007968077
120	0xbbde561d	-0.006785168
121	0xba9774fe	-0.0011555252
122	0x3bbe7e9a	0.005813432
123	0xbb858d7b	-0.0040757037
124	0xba7cdc97	-0.00096459076
125	0x3c910068	0.017700389
126	0x3a9af0dc	0.0011821049
127	0xbbc0e2ae	-0.0058863973
128	0xbc33f42d	-0.010983509
129	0xba25f903	-0.0006331356
130	0x3ab8a01e	0.0014085805
131	0x39f68ede	0.0004702722
132	0x3c46f684	0.012143735
133	0xbb8d6c57	-0.0043158936
134	0xbbb4d566	-0.005518603
135	0xbba9db59	-0.005183619
136	0xbc0ca7de	-0.0085849445
137	0x35b49460	1.3454228e-06
138	0xbca1fc86	-0.019773733
139	0xbc0a694b	-0.008447955
140	0x3c64bf7c	0.013961669
141	0x3991c5a2	0.00027803803
142	0x3ca4b2ff	0.020104883
143	0x3be1f4a5	0.006895619
144	0x3bd7d9de	0.006587251
145	0xbbffb09f	-0.0078030373
146	0xbba2d25b	-0.004968924
147	0x3b2406cd	0.0025028468
148	0xbc2786f9	-0.010225051
149	0x3a861f1e	0.0010232662
150	0xbbf3e67f	-0.0074432488
151	0xbbb080e6	-0.0053864596
152	0xbb1a3e3a	-0.0023535625
153	0x3a371a59	0.0006984822
154	0xba19559d	-0.0005849244
155	0xbb06dc2f	-0.0020578017
156	0xbc4b9528	-0.012425698
157	0xbbfff944	-0.007811697
158	0x3c0eb4d6	0.008710107
159	0xb91679ed	-0.00014350536
160	0xbb2556ee	-0.0025228816
161	0xbc4cb40b	-0.012494097
162	0xbc076cd6	-0.008265695
163	0xb9ff35b2	-0.00048677396
164	0xbb894247	-0.004188809
165	0xbbc0c023	-0.0058822795
166	0xbc139c44	-0.009009425
167	0x3ae1a1fc	0.0017214413
168	0x3c8848ff	0.01663637
169	0xb920c610	-0.00015332573
170	0xba44a892	-0.00075019256
171	0xbc702a87	-0.014658577
172	0xbc45f63b	-0.012082632
173	0x3b3b629a	0.0028592707
174	0xbc21ef90	-0.009883776
175	0xbc5ba493	-0.013405937
176	0x3c8faaa4	0.017537422
177	0xbc371306	-0.011173969
178	0x3ad5c9ff	0.001631081
179	0x3c0e66fd	0.0086915465
180	0xb9e3f2ce	-0.00043477718
181	0xbc59a6f5	-0.013284435
182	0x3b94d9a9	0.0045425487
183	0xba9ccee0	-0.0011963509
184	0xbc3fdb17	-0.01170995
185	0x3c042ac6	0.008066839
186	0x3bfb3291	0.00766594
187	0xbc2dd982	-0.01061094
188	0xbbc59ce6	-0.0060306666
189	0xbc66872a	-0.014070312
190	0xbc3baac3	-0.011454287
191	0x3bf7b882	0.007559837
192	0x3ac7e75b	0.0015251444
193	0xbcb0d2dd	-0.021584922
194	0xbbbe8c1b	-0.0058150417
195	0xbbc3df94	-0.0059775803
196	0xbb17998e	-0.0023132297
197	0xbc1a437b	-0.009415503
198	0x3c254f5f	0.010089724
199	0xbcaa1618	-0.020762488
200	0xbc4ea627	-0.012612856
201	0xbc05ed3b	-0.008174236
202	0x3b3f2b4a	0.002917009
203	0xbb66b8da	-0.0035205395
204	0x3bae9199	0.005327415
205	0xbb704c07	-0.003666641
206	0x3a69737b	0.00089054526
207	0xbc010757	-0.007875285
208	0xbb575f4f	-0.0032863205
209	0xbbdd343a	-0.0067506107
210	0xbc352f19	-0.011058592
211	0xbc1655e9	-0.009175756
212	0x3acc4c2d	0.0015586667
213	0xbba8659c	-0.005139066
214	0x3bd443f8	0.006477829
215	0xba91273b	-0.0011074314
216	0xbcd71a38	-0.02625762
217	0x3b917144	0.004438551
218	0xbae6a0ab	-0.001759549
219	0xbb10f3fb	-0.002211808
220	0x3b1b9b18	0.0023743566
221	0x3a76f6db	0.00094209396
222	0x3ae1f670	0.0017239582
223	0x3bf50c6e	0.0074782884
224	0x3b42160e	0.0029615196
225	0xbc5100ee	-0.012756569
226	0x3c1e83b4	0.009674955
227	0xb75c8880	-1.3144803e-05
228	0x3a80e367	0.0009833396
229	0x3c0174d1	0.007901386
230	0xbb81f28e	-0.0039656824
231	0xbc3ff9e8	-0.011717297
232	0xbb00596d	-0.0019584552
233	0xbaddba9b	-0.0016916575
234	0x3c3cdc17	0.011527083
235	0xbbb8877b	-0.005631385
236	0xbc0cf002	-0.008602144
237	0xbb219927	-0.0024657936
238	0x3c2564f3	0.010094869
239	0xbcc7a9a3	-0.024372881
240	0x3c1902e7	0.009339071
241	0x3b83d508	0.004023198
242	0xba8ad6fc	-0.0010592635
243	0x3b0d9d85	0.0021608782
244	0xbbb429a9	-0.0054981303
245	0x3bcaec86	0.0061927466
246	0xbaf399f9	-0.0018585316
247	0xbbc95a71	-0.0061448147
248	0xbc44817e	-0.011993764
249	0x3aaa099f	0.0012972838
250	0x3bf24c97	0.007394384
251	0x3adfca37	0.0017073815
252	0xbc27ae9e	-0.010234503
253	0x3c1a848c	0.009431016
254	0x3b24f2c2	0.002516911
255	0x3c1aa45e	0.009438602

action_model._discrete_distribution.branches.0.bias f4 [7]
0	0xbc25fd10	-0.010131136
1	0xbba4b59a	-0.0050265314
2	0xbc7f484d	-0.015581203
3	0xbc04f564	-0.008115146
4	0xbc029156	-0.007969221
5	0x3ca78a3b	0.020451656
6	0x3c8b0da9	0.016974287

onnx::Div_90 f4 [84]
0	0x3b9f1b7a	0.0048555704
1	0x3ee938bd	0.455511
2	0x3ed1e89a	0.40997773
3	0x3e840605	0.25785843
4	0x3b9f1b7a	0.0048555704
5	0x3ee982a3	0.4560748
6	0x3ed2f441	0.41201976
7	0x3e8427a7	0.25811502
8	0x3b9f1b7a	0.0048555704
9	0x3ee82cd8	0.45346713
10	0x3ed10f81	0.4083214
11	0x3e836a5b	0.2566708
12	0x3b9f1b7a	0.0048555704
13	0x3ee97356	0.45595807
14	0x3ed346ed	0.4126505
15	0x3e839fce	0.2570786
16	0x3b9f1b7a	0.0048555704
17	0x3ee5da33	0.44893035
18	0x3ecf167a	0.40446836
19	0x3e82a172	0.25513798
20	0x3b9f1b7a	0.0048555704
21	0x3ee8e19f	0.45484635
22	0x3ed342b3	0.41261825
23	0x3e82acdc	0.25522506
24	0x3b9f1b7a	0.0048555704
25	0x3ee3103e	0.4434833
26	0x3ecc3715	0.39885774
27	0x3e81ac78	0.25326896
28	0x3b9f1b7a	0.0048555704
29	0x3ee7f907	0.4530718
30	0x3ed289ae	0.41120666
31	0x3e815dff	0.25267026
32	0x3b9f1b7a	0.0048555704
33	0x3edfc87a	0.4370764
34	0x3ec993d6	0.39370602
35	0x3e805ae4	0.25069344
36	0x3b9f1b7a	0.0048555704
37	0x3ee8271a	0.45342332
38	0x3ed3bf0c	0.41356695
39	0x3e7fba9d	0.24973531
40	0x3b9f1b7a	0.0048555704
41	0x3edf5a23	0.43623456
42	0x3ecb002d	0.39648572
43	0x3e7ee6ef	0.24892782
44	0x3b9f1b7a	0.0048555704
45	0x3ee8c6c5	0.4546415
46	0x3ed62384	0.4182397
47	0x3e7d0485	0.24708755
48	0x3b9f1b7a	0.0048555704
49	0x3ededb2d	0.43526593
50	0x3ecc88ae	0.39948028
51	0x3e7e30f6	0.24823365
52	0x3b9f1b7a	0.0048555704
53	0x3eea9f63	0.45824727
54	0x3eda4733	0.42632446
55	0x3e7ad29e	0.24494407
56	0x3b9f1b7a	0.0048555704
57	0x3edda439	0.43289354
58	0x3ecc98f8	0.39960456
59	0x3e7da60e	0.24770376
60	0x3b9f1b7a	0.0048555704
61	0x3eec5b6b	0.46163496
62	0x3edd777d	0.43255225
63	0x3e790a4f	0.24320339
64	0x3b9f1b7a	0.0048555704
65	0x3edce1f7	0.43141147
66	0x3ecc91fd	0.3995513
67	0x3e7c6170	0.24646544
68	0x3b9f1b7a	0.0048555704
69	0x3eee2ab9	0.4651697
70	0x3ee03288	0.43788552
71	0x3e77dbcc	0.2420494
72	0x3b9f1b7a	0.0048555704
73	0x3edc8380	0.43069077
74	0x3ecda6f9	0.40166453
75	0x3e7af54a	0.24507633
76	0x3b9f1b7a	0.0048555704
77	0x3eefb8d6	0.46820706
78	0x3ee2661b	0.44218525
79	0x3e75d623	0.24007468
80	0x3b9f1b7a	0.0048555704
81	0x3edc8723	0.4307185
82	0x3ece568f	0.40300414
83	0x3e79ef31	0.2440765

onnx::Div_96 f4 [37]
0	0x40df7f8d	6.98432
1	0x3d93f5e9	0.07224638
2	0x40d1c635	6.555445
3	0x3b9f1b7a	0.0048555704
4	0x3e8c1b2e	0.27364486
5	0x3b9f1b7a	0.0048555704
6	0x41245040	10.269592
7	0x3ba2c5d4	0.0049674306
8	0x411e05b0	9.876389
9	0x3b9f1b7a	0.0048555704
10	0x3e8ccd52	0.27500397
11	0x3b9f1b7a	0.0048555704
12	0x3e30c340	0.17261982
13	0x3e227a5b	0.15866987
14	0x3ee6eabe	0.4510097
15	0x3edd48d1	0.43219617
16	0x3ef63770	0.4808917
17	0x3ee6ec37	0.45102093
18	0x3ee913f6	0.4552304
19	0x3f4df85e	0.80457103
20	0x3b9f1b7a	0.0048555704
21	0x3f62ff68	0.8867097
22	0x3f3317b2	0.6995803
23	0x3b9f297e	0.004857241
24	0x3f3507ce	0.70715034
25	0x3e9427df	0.2893667
26	0x3e51d5f1	0.20491768
27	0x3e51d690	0.20492005
28	0x3e5f914c	0.2183277
29	0x3e5f912a	0.2183272
30	0x3e12e4ce	0.14345095
31	0x3f792eb7	0.97336906
32	0x3e8ede11	0.27903798
33	0x3f3e9438	0.74444914
34	0x3d93f5e9	0.07224638
35	0x40c1a2d7	6.051128
36	0x3e93e310	0.28884172
