results/AgresyBoxer/BoxingAgent/BoxingAgent-120318.onnx (onnx, 409187 bytes, 13 tensors)

network_body.observation_encoder.processors.0.normalizer.running_mean f4 [84]
00000000: 0000 0000 5ddc 0e3f 64ff d73e 64ee 3a3f
00000010: 0000 0000 7475 1b3f 1d09 bf3e 15d2 2f3f
00000020: 0000 0000 0037 fb3e 12be f93e f7f5 463f
00000030: 0000 0000 5eb7 233f d7ed ae3e 6f1d 273f
00000040: 0000 0000 57ce d33e bc17 103f f57e 523f
00000050: 0000 0000 a671 293f cfbc a33e bea0 203f
00000060: 0000 0000 ec43 ac3e 97a1 233f 6a53 5c3f
00000070: 0000 0000 3d1d 2d3f ad1c 9d3e fb46 1c3f
00000080: 0000 0000 c3ed 8a3e 5912 343f 8d63 633f
00000090: 0000 0000 5324 303f aff8 973e 4cc3 193f
000000a0: 0000 0000 06ca 693e 14f6 3e3f cedf 673f
000000b0: 0000 0000 6212 323f 350b 943e 5999 183f
000000c0: 0000 0000 3acd 4e3e 2109 463f e099 6a3f
000000d0: 0000 0000 29d3 323f cce1 923e 7613 193f
000000e0: 0000 0000 fd1f 413e b4c6 493f 68c9 6b3f
000000f0: 0000 0000 9002 333f 0683 923e 683c 1b3f
00000100: 0000 0000 90d1 3c3e 8293 4a3f f0ef 6b3f
00000110: 0000 0000 fa56 2e3f e42b 933e 85ad 1c3f
00000120: 0000 0000 4a91 3f3e 90e3 493f 3e7a 6b3f
00000130: 0000 0000 83c5 2a3f 3848 9a3e 3e08 223f
00000140: 0000 0000 31b4 493e 8e26 473f 1c49 6a3f
0.0 0.55805 0.42187035 0.73020005 0.0 0.60726094 0.3731164 0.68679935
0.0 0.490654 0.48777825 0.7771906 0.0 0.6395167 0.34165832 0.6527929
0.0 0.41368362 0.56286216 0.8222497 0.0 0.6618904 0.31979987 0.62745273
0.0 0.3364557 0.6391844 0.8606478 0.0 0.6762274 0.3068594 0.6104581
0.0 0.27134523 0.70340496 0.8882378 0.0 0.68805426 0.29681918 0.60063624
0.0 0.22830972 0.74594235 0.90575874 0.0 0.695593 0.289148 0.5960899
0.0 0.20195475 0.7735768 0.91641045 0.0 0.69853455 0.28687894 0.5979532
0.0 0.18859859 0.7881882 0.92104197 0.0 0.69925785 0.28615588 0.6063905
0.0 0.18439317 0.7913133 0.9216299 0.0 0.68101466 0.28744423 0.6120227
0.0 0.18707767 0.7886286 0.919834 0.0 0.6670763 0.30133224 0.63293827
0.0 0.19697644 0.77793205 0.91517806

network_body.observation_encoder.processors.2.normalizer.running_mean f4 [37]
00000000: 9709 d1bf 0083 6d41 50fb 7cc1 f322 9530
00000010: a19f 043f d4ca 0eb1 003f a23f 939f 56b9
00000020: 78d0 8b3e d33e bcb1 1c00 033f 0255 2230
00000030: 949b 633f a17c 6d3f 934c 963e 9b88 513e
00000040: 0000 0000 2dd9 343f 0000 0000 ab38 093c
00000050: 0000 0000 59da 433c 938b 023d 57d9 11b7
00000060: 9484 9039 a39a f53e 9cc1 053f c07b f43e
00000070: 36ec ed3e 5909 093f 2bf2 603d f581 883e
00000080: 9b97 053f 7687 4abd 0083 6d41 3158 e841
00000090: 420e 003f
-1.6331052 14.844482 -15.811356 1.085111e-09 0.51806074 -2.0779014e-09 1.2675476 -0.00020468076
0.27307487 -5.4786624e-09 0.5117204 5.905606e-10 0.8890927 0.92768294 0.29355296 0.20462267
0.0 0.70643884 0.0 0.008375327 0.0 0.011953914 0.03187139 -8.693277e-06
0.000275646 0.4796954 0.5224855 0.47750664 0.46469277 0.5352989 0.05491845 0.2666165
0.52184457 -0.049445592 14.844482 29.043062 0.50021756

network_body._body_endoder.seq_layers.0.weight f4 [256, 121]
00000000: 5828 04be 35e4 5c3d a4d7 503e 512a 2abd
00000010: 79db 29be 3324 69bd 99d5 12bd a4ff d53c
00000020: 7b63 143d ae84 b03b 2479 1e3c 3172 133e
00000030: 9d5d 9dbd 5045 cc3d b58c 9f3c 437d 01bd
00000040: 593d 3cbe c8f1 91bd 5743 1dbe b2ad dbbb
00000050: edf0 433e e2e0 533d 9cc0 b0bb da31 5e3d
00000060: f3f2 e03d ddb0 3fbd a879 4f3e 4c71 7cbd
00000070: ed7a 45bd 674b 03bc cb14 243d d404 563c
00000080: 9567 ba3c 3afb 56bc 5743 f5bd 5786 f3bd
00000090: 4674 abbc 1bcc 8b3c f6bc 43be cfeb 8cbd
000000a0: 2d5d 31bd 9270 0d3e 1a23 5a3d 898d 6cbd
000000b0: 2ee4 383d df94 81be 70bc cabc a0a5 263c
000000c0: 793f 5c3e 6372 033d 4af4 72bd 470d 573d
000000d0: c89b 8a3d afe5 46bd 5bd1 eb3d c53e 08bb
000000e0: 2697 a23b b33c 1cbe 838c f63d 1159 9ebd
000000f0: 6f48 57be 5e3d e5bd 058a 58bd 5879 54bd
00000100: 1c0b dcbd 3784 933d 790a 653d 3cb3 8c3e
00000110: c564 13be 71f1 1b3d 93c7 033d 88f8 1fbe
00000120: d199 853d 2e68 32bd 634c 15bc 5110 d7bc
00000130: a2f8 2e3e 5608 ccbd 5d95 ecbd 0d07 83be
00000140: 306e ba3d 0b5f 233d 65c2 aabd b027 823d
00000150: d21b 673d 43dd 933d a387 6a3d 89b7 893d
00000160: abf4 15be 2442 813d e833 e13b d5bc 1f3d
00000170: db6d 82bc 81e7 db3a 747f 30be 71dd a7bd
00000180: b31a bd3c 545b adbd 0415 0f3d eba7 62bd
00000190: ec29 c23d cd37 413c a53a a6bb 8e16 323e
000001a0: d6a1 59bd 5fd4 c3bc e1d8 abbc c8bb 303c
000001b0: 4e3c c4bc 9ba3 a2bd b676 103c 93aa 3b3d
000001c0: 365e 37be a5bd a9bb 13bf 0bbd c700 923d
000001d0: e27e 8e3d a35d 03be 2af6 743d 7382 31be
000001e0: bf31 67bd 4693 c9bd 93db 6bbd 4f9f a63d
000001f0: 193c 6b3d edf0 b73c 42cb 09bd fe64 963d
00000200: 3d1d 0e3e 4e92 ed3c 8bff 173d c349 913d
00000210: c990 47bd 0816 a4bd 4829 bb3d 8ea3 8c3c
00000220: f382 113e 4e8e 81bd a124 d03d 6eba c73d
00000230: 7544 e3bd 160d 373c 7499 093e aee4 b6bd
00000240: 38b7 243c cb86 bfbd 9f6c 66bd 1e8b 683d
00000250: ec33 d63c 5c1a ab3c f952 b3bd 20dc cc38
00000260: 26da 07bd 7ad2 883c 6cb3 723d 6fcf d43d
00000270: de0e cb3c e53d efbd 53bd 103e f20f 37bd
00000280: e671 99bd 0793 b3bc 9b3d febd 444b bf3c
00000290: 667b 883c 1f76 1fbd e8cc ac3d 3640 b4bd
000002a0: e352 b43c 4f6f 3ebd 8a47 bcbd e787 e0bd
000002b0: 3fd7 563d 133b 8a3d c789 783d e0e6 45be
000002c0: 4d9f 14be 14da a6bd 0b29 39be 2866 843d
000002d0: efa6 e7bd b060 003e 325d 873d e8a5 4e3e
000002e0: 43e1 bebd 6e9b 63bd ffbc 21be 615f c0bd
000002f0: 92f8 d3bd 365b 6f3d c351 093e d8b3 0fbe
00000300: 7ef4 ebbc 7051 0b3e a02c b1bd 2539 793d
00000310: 4632 8dba 09e5 13be 0f56 2e3d d5c6 6fbd
00000320: a58b 5bbe dcbf 9fbc 55bb 94bd 9744 94bd
00000330: f6a9 073c a044 c53b 5824 0ebc 9e81 9c3d
00000340: 67a3 91bd e20a 9e3d aa8b be3b 7ed6 253d
00000350: 5729 1bbe 8a3e 0fbe b22e c8bc 1e60 883d
00000360: 6816 c5bc 327f a03c a7f5 873d 720e 2cbd
00000370: 2588 ab3c 60c5 4d3d 6a75 5fbc bdae 41b9
00000380: ecf4 053a 01fe 09bd bc7a 033e b38e 8f3d
00000390: 867b fd3d b8a4 533d bcc5 e9bb d545 663d
000003a0: f286 e0bd df7d b03d 7931 aebc c74c 303d
000003b0: c39a a1bc 614a 03be e30c 1fbc 32a0 ef3c
000003c0: b477 5bbe a2aa d33d 3989 e2bc 04d5 bf3b
000003d0: 7686 a73d 6974 093e a28d ca3d a87f cabc
000003e0: 011b b63c 7a4f 9d3d 8253 853b 8a23 6b3d
000003f0: f6c9 e33d 55ba 48bd f0b7 3abc b027 d2bd
-0.12906015 0.053928573 0.2039476 -0.041544262 -0.16587628 -0.056919288 -0.035848234 0.026122876
0.036227684 0.0053869104 0.009672437 0.1439903 -0.07683871 0.09974158 0.019476274 -0.0316136
-0.18382777 -0.07126194 -0.1535772 -0.0067040557 0.19134875 0.051728137 -0.0053940546 0.05424676
0.10983839 -0.04679953 0.20261252 -0.061631486 -0.048212934 -0.008013583 0.040058892 0.013062675
0.02275447 -0.0131214205 -0.11975735 -0.11890858 -0.020929467 0.017065099 -0.19115052 -0.068809144
-0.04330175 0.13812473 0.05325613 -0.057752166 0.045139484 -0.25308892 -0.024748057 0.010171324
0.21508588 0.03209151 -0.059315003 0.052502897 0.06767994 -0.048558887 0.11514541 -0.0020789367
0.004961866 -0.1525753 0.12038519 -0.07731832 -0.21023725 -0.111933455 -0.052866 -0.051873535
-0.107443064 0.07202952 0.05591819 0.27480495 -0.1439391 0.038072053 0.03217275 -0.15622151
0.06523479 -0.043556385 -0.00911245 -0.026252897 0.17087033 -0.099625275 -0.11551926 -0.25591317
0.09103048 0.039885562 -0.08337859 0.06355226 0.056423016 0.07219937 0.05725826 0.0672446
-0.14644115 0.063114434 0.006872643 0.038998444 -0.015921524 0.0016777368 -0.1723612 -0.081965335
0.02308402 -0.08464685 0.03493215 -0.05533592 0.09480652 0.011793089 -0.005072909 0.17391416
-0.053132854 -0.023904977 -0.02097744 0.010786958 -0.023954537 -0.079413615 0.008817365 0.04581697
-0.17907032 -0.005180078 -0.03411777 0.071290545 0.06957795 -0.12828688 0.059805073 -0.17334919
-0.056443926 -0.09842543 -0.05758245 0.081358545 0.05743036 0.02245375 -0.033641107 0.073434815
0.13878341 0.029000428 0.03710894 0.07094147 -0.048722062 -0.080120146 0.09138733 0.017167833
0.1421011 -0.063259706 0.101632364 0.097523555 -0.110970415 0.0111725535 0.13437444 -0.08930336
0.010053448 -0.093518816 -0.056255933 0.056773297 0.026147805 0.020886593 -0.0875606 9.7684795e-05
-0.033167027 0.016701926 0.05925314 0.10391127 0.024787363 -0.11681727 0.14134721 -0.04469294
-0.074924275 -0.021920694 -0.12414094 0.02335132 0.016660403 -0.03893101 0.0843752 -0.0880131
0.02201218 -0.04649287 -0.091933325 -0.10963421 0.05245137 0.06749549 0.06067827 -0.19326353
-0.14513893 -0.08147064 -0.18082063 0.06464797 -0.11311137 0.12536883 0.066095725 0.20180476
-0.09320309 -0.05556815 -0.15794753 -0.09393192 -0.103501454 0.058436595 0.13410096 -0.14033449
-0.028803106 0.13605285 -0.0865109 0.060845513 -0.0010772429 -0.14442839 0.04256254 -0.05853923
-0.21439989 -0.019500665 -0.07262293 -0.07239645 0.008280268 0.0060201436 -0.008675657 0.0764191
-0.07111245 0.077169195 0.005814989 0.04048776 -0.15152489 -0.139887 -0.024436329 0.06658958
-0.024058536 0.019591901 0.06638651 -0.042005964 0.020938942 0.05023706 -0.013638834 -0.0001847101
0.00051100436 -0.033689503 0.12839788 0.070096396 0.12377076 0.05167076 -0.0071341675 0.05621894
-0.10963239 0.08617758 -0.021263825 0.04304197 -0.019727116 -0.12821342 -0.009707662 0.029251192
-0.21432382 0.1033528 -0.027653323 0.005854251 0.08179943 0.13423313 0.098902956 -0.024719074
0.022229673 0.076811746 0.004068793 0.05740694 0.11122505 -0.049005825 -0.011396393 -0.10261476

network_body._body_endoder.seq_layers.0.bias f4 [256]
00000000: 98b1 003c 50e8 893c ac2d 1b3b 2b9c 32ba
00000010: bb8c 8c3a f84c 5b3c a2e3 e5ba 9c15 963c
00000020: 1b01 5c3c 11eb 45ba b400 153a cf09 183c
00000030: f513 823c b0ca bf39 630d afbb 3fc4 4a3c
00000040: e13d 43bb a803 17bc 29c1 553c 6073 07b9
00000050: a3a6 2cbb 3e0e b9bb f32f d2bb e1f3 de3b
00000060: 05a7 953b f059 2dba 3f96 403b 542a 113c
00000070: 7461 98ba 92d8 583b c5ec 023c ee91 f73b
00000080: dac7 1b3c 88cc 003c 98f7 053b 3681 0b3c
00000090: 3287 883c a10d 823b d87f 223c af89 713c
000000a0: e661 b13c c082 803c dcd8 83bb 57fb da3b
000000b0: 972e 1a3c 549f e83b 0339 273a 2c4c 75bb
000000c0: c735 c93b fb2b 533b d417 933c ecd6 933a
000000d0: 2ce5 2cbc 3f13 653c 4ddb c63a c85c 183c
000000e0: 2156 b83b 4def 803b 04b9 053c 74b4 c33c
000000f0: ba31 553c 0d91 7d3c e328 f93b 3b1d 993b
00000100: bc68 363c 003a 543c c407 5f3c d06a 50bc
00000110: 9d03 193b 3c48 aeba d691 f43b acfc 55bb
00000120: 758d 093c e484 8a3c a14e 5c3c 7341 8f3b
00000130: 2ddf ad3b 7904 493c 3f9a 12bb 2220 28bc
00000140: d52a a13b 27e4 433c 5406 a93c c22d 16ba
00000150: 32e1 153c 17f6 933c 49d6 4f3c 1125 2a3c
00000160: 9ac6 623c 89f2 b23b d6c0 2f3c 596c 9c3c
00000170: 2a53 08bc 0785 2a3c f084 cb3b 7f1f 8f3b
00000180: 89a4 a4b9 2fc2 463c d9bc a43a c7ac 023c
00000190: 93d6 c13c cf52 393c 53e1 beba 5259 a83b
000001a0: a6f8 953a b8a4 9c3b 0e7e b83b 43ef d53b
000001b0: dac3 673c f14a 48bb b624 3d3c 5442 a43b
000001c0: 62fc 4b3c 5d64 3f3c bb94 503c ba22 7f3b
000001d0: 1495 353c f2bd d43b 8e63 323c 5839 08bb
000001e0: 3305 903b ee48 e43a f5fa 013c 98c7 823b
000001f0: a6ed c4bb 8541 c8bb fb69 10bc 89d8 683c
00000200: c2e9 513c 38ea 7c3b 229b 283c ffc4 aabb
00000210: 055f b03c be11 c0bb be2e 5639 86ec ebb7
00000220: 5acb a43b 8e1f a0b9 4f89 8a3c b84a 05bb
00000230: 9e82 733b 138b 8b3c 67c6 1bbb 6519 55bb
00000240: 1fdd 403c dd26 a73a 7715 eb3b 92e8 8a3c
00000250: 4035 a1ba f9a6 9d3b 1f29 273c 5c7e 3bbc
00000260: d15a 843b f950 33bb e272 8b3c a3cc 803b
00000270: 7467 d43b 0363 f53b 30f9 9e3c 1192 afbb
00000280: f774 1dbb 46c8 97ba fce1 6db8 b05f 3e3c
00000290: be03 833c 2954 86b8 65b8 943c b98a 673c
000002a0: 8985 9a3c 8384 823b b3d1 aebb 2a42 32bb
000002b0: 9fe4 e6ba 8994 7c3b 56d6 7e3c 1929 363b
000002c0: 63a3 8f3b 5425 873c a5b3 663c 7f33 6bbc
000002d0: 3a6c 1bb9 bc80 833c 5212 683c 30e0 4dbb
000002e0: 66f8 89bb 4da9 033a 2d95 27bb a43c f73b
000002f0: a2d6 623b fead 4f3c f350 363c 53c3 3bb9
00000300: 8623 163c 7d48 3cbb 1834 2dbb 7242 153b
00000310: 698d 8b3c 3c08 9a3c 90a6 4dbc 66f1 81ba
00000320: 9f9e 853c ada4 8b3c 4907 6cbb 32d5 1abb
00000330: 7271 2c3c 0af3 b8bb 4c0a b33a 9702 9a3c
00000340: 7e2c 393b b2c3 4c3c 913d 44bc 5ad9 443c
00000350: 0f53 22ba ccad 5bba 89fc f23b aa53 1c3c
00000360: 591a 283c 0991 8f3b ccf7 113b 5a95 163c
00000370: fb9a 1a3c 90e6 8d3c 2fe4 1dbb 8734 1e3c
00000380: 4a91 3e3b 07ba 463c c61d 44bc 2109 1f3c
00000390: 1f0b 913b 2299 5f3c 1031 4e3b 2c99 b23c
000003a0: a185 6f3c 1b81 c43c 28e6 423c 23e5 173b
000003b0: 1648 673a 3862 773c 2974 1f3b 9f6d 813a
000003c0: e5c9 43bc 3d15 6e3c 7df2 753c c636 063c
000003d0: 96b5 10b8 d00e f0b6 2231 323c 75db 7b3a
000003e0: 08f6 29bc ac50 ddbb 7495 0139 7e06 d33b
000003f0: bbc4 6d3c cd81 3e3c 9491 f43b a148 073c
0.007854842 0.016834408 0.0023678346 -0.0006813432 0.0010723093 0.01338505 -0.0017539153 0.018320851
0.013427998 -0.0007549981 0.00056840037 0.009279682 0.015878657 0.00036581373 -0.005342172 0.01237589
-0.0029791521 -0.00921718 0.013046541 -0.00012917584 -0.002634444 -0.0056474498 -0.0064144074 0.006803975
0.0045670294 -0.0006612828 0.0029386429 0.0088601895 -0.0011625723 0.003308807 0.007991021 0.007555238
0.009508098 0.007861264 0.0020441767 0.008514693 0.016666029 0.00396891 0.009918176 0.014742299
0.021653127 0.015687346 -0.0040236544 0.006682794 0.009410522 0.0070990715 0.000637904 -0.0037429435
0.006140444 0.003222226 0.017955698 0.0011279262 -0.010552686 0.013981639 0.0015171558 0.0092994645
0.0056255017 0.003934777 0.008161787 0.023889758 0.013012344 0.015476477 0.007603751 0.004672674
0.011133369 0.012953281 0.013612691 -0.012720779 0.00233481 -0.0013296674 0.007463674 -0.0032651825
0.008395542 0.01690907 0.013446481 0.004371816 0.0053061456 0.012269133 -0.002236977 -0.010261567
0.004918436 0.011956251 0.0206329 -0.00057288643 0.009147929 0.01806168 0.012685367 0.010384814
0.013841296 0.0054610413 0.010727128 0.019094633 -0.008320609 0.010407693 0.0062109157 0.0043677683
-0.00031403106 0.012131258 0.0012568488 0.007975764 0.023661887 0.011311247 -0.0014563001 0.005137601
0.0011441901 0.004780378 0.0056302613 0.0065287664 0.014145816 -0.0030562247 0.011544397 0.0050127897
0.0124503095 0.011681643 0.012730773 0.003893061 0.011082906 0.00649237 0.0108879935 -0.0020786133
0.004395151 0.0017416754 0.007933368 0.0039910786 -0.006009775 -0.006111326 -0.00881433 0.014211782
0.01281208 0.0038591754 0.010290893 -0.005211472 0.021529684 -0.00586149 0.00020426043 -2.8124323e-05
0.005029124 -0.00030541088 0.016911177 -0.0020338725 0.0037156711 0.01703409 -0.002376938 -0.0032516357
0.011771469 0.0012752671 0.0071741897 0.016956601 -0.0012299195 0.0048111645 0.010202675 -0.011443701
0.0040391465 -0.0027361496 0.017022554 0.0039306446 0.006482059 0.0074886098 0.019405931 -0.0053579886
-0.0024026015 -0.0011580072 -5.6715668e-05 0.011619493 0.015992995 -6.405294e-05 0.018154332 0.014132195
0.018862503 0.003983082 -0.0053350567 -0.0027200081 -0.0017615742 0.0038540682 0.015554031 0.0027795492
0.004383491 0.016497292 0.0140809165 -0.014355539 -0.0001482227 0.016052596 0.014164524 -0.0031414144
-0.0042105196 0.0005022481 -0.0025571093 0.0075450707 0.0034612794 0.01267576 0.011127698 -0.00017906474
0.009163743 -0.002872973 -0.0026428755 0.00227752 0.017035203 0.018802755 -0.012551919 -0.0009913861
0.016310988 0.017046297 -0.0036015084 -0.002362561 0.010525094 -0.005644207 0.0013659685 0.018800063
0.002825528 0.012497829 -0.011977569 0.012014711 -0.0006192186 -0.0008380085 0.0074153584 0.009541431
0.010260188 0.004381303 0.0022272943 0.009190882 0.009436364 0.017321855 -0.0024092307 0.009656078
0.0029078298 0.012129313 -0.011969989 0.009706766 0.0044263746 0.01364735 0.003146235 0.021801554
0.014619262 0.023987344 0.011895694 0.0023177348 0.00088226923 0.015099101 0.0024330711 0.0009874589
-0.011949991 0.014531431 0.015011427 0.00819177 -3.450139e-05 -7.154282e-06 0.010875972 0.0009607592
-0.0103736 -0.0067540016 0.00012358074 0.006439983 0.014512236 0.011627627 0.0074636433 0.008257062

network_body._body_endoder.seq_layers.2.weight f4 [256, 256]
00000000: c5b5 7b3d eb51 06bc fb31 9bbd c7b8 6abc
00000010: 8723 9b3c 3b0d 1bbb 41ab 87bd e752 ed3c
00000020: 4eb6 593c 0d27 a0bb e532 7ebd 2240 2f3e
00000030: 449b b33b 5610 d03d 1b7b 203d fb56 ca3d
00000040: bf7d b7bd ba54 84bd c254 e13c 99d2 99bd
00000050: d9e7 fabc 965b 4dbd 0274 34bc 2adc 00bc
00000060: 2aa1 903c 1481 4b3d 1761 e43c bf4a 423d
00000070: 7b50 aabb c3f0 e73d 0f42 8bbd 8d5c 9cbc
00000080: 01c1 6c3d fdf2 033e 3507 51bd 1a4e 58bd
00000090: 0b32 3abb f46e 933c 5365 5bbc 36f3 81bd
000000a0: 95eb 76bd 2e72 be3c a5bf 05bd ce8c 013c
000000b0: 7c07 0ebe 49ef 71bd f0d9 3c3c b752 4e3d
000000c0: a068 043d 2512 e13d 11a3 c93a 29fb 023c
000000d0: f718 6c3d f5f0 ccbd 01b6 c5bd 1725 863d
000000e0: 7c83 a03b 5f4d b13d 6d4f 393d 3d9c 493d
000000f0: 38d9 963d 76af 5d3d b117 853d 4520 36bc
00000100: 4fd8 d23c c597 fdbd 24b3 95bd 7534 013e
00000110: 9ae8 6fbd 1bd1 833c b6ca 1d3d 741b 6a3d
00000120: ea73 80bc a2e7 9b3d b842 b9bd 821d 48bd
00000130: f818 92bd d48b 8f3d 942a 33bd 5e4c c3bd
00000140: b0e1 2cbd ab4f 81b9 a778 68ba 7cff 353d
00000150: 83c3 e33c 6223 93bc 1d10 3f3d 9455 8d3b
00000160: 635e 6dbc f9bc d43d a90d a83d 183d 7e3d
00000170: 6c65 a23c 7d78 8c3d 918b a9bc c9a0 17bc
00000180: ace8 1e3c d8c7 79bd 6abd a63d 80b2 a0bd
00000190: 4081 dfbd 1782 d13c 87ff 483d 8e0a 163e
000001a0: 83c6 18bc e1c8 48bd 67bb a93d d4f8 823c
000001b0: a64a cfbd 976a 003e 3aeb 423c e52b b63c
000001c0: 1694 e13c 3863 893d fa5d db3b e8a3 9abc
000001d0: 4417 853d f480 773d 6682 a8bd bd80 523d
000001e0: f9d0 27bc 4439 5dbd 570b 99bd 20fc 7fbc
000001f0: 3b11 acbc 141e a0bd e905 593c 2758 eb3d
00000200: eef7 bdbc f379 bfbc 48c4 c8bc 882c 91bc
00000210: 547e 713d 6b9f debd 2d4e 12be 4f02 0cbe
00000220: aae6 c93c d8e0 3c3d 1119 ad3c e4f5 1c3d
00000230: f54c 6f3d eb5c 863c a7c9 dfbc 0ad6 6d3c
00000240: 67e1 8c3d b330 2a3c b6fe ae3c 948d 953d
00000250: 4e9a 9abc d517 ac3b 786f 203d 5697 dd3d
00000260: bcf1 873d 7673 553d 55d1 c73d 3fff bd3a
00000270: 0e78 5f3d 9851 993d 417a a63d d00c fcbc
00000280: 9318 6dbd c3ef 383d 3c57 77bd 9063 d83c
00000290: 9be5 44bc 210a 423d 5924 3cbd 8f34 2b3d
000002a0: 0edb 023d 8fbb 3fbd c33f cebc a82a 0d3d
000002b0: 449a 0e3d 9725 c63d 7a94 82bd b0e7 fe3d
000002c0: a24e 32bd 268d fd3c dd46 1ebc 794c ad3b
000002d0: f1dc 9dbd 9257 b53d 29a5 8e3d e236 78bd
000002e0: ff32 013d 6233 423d 03ff 373c a859 d7bc
000002f0: ed45 343d 3c6a 953d b926 40bd 0a0a 963d
00000300: 019e b23d 574f 3c3d 6343 3a3d e0d4 013c
00000310: d8a3 bfbd 0443 fa3d 38d7 7b3c 395b 29bd
00000320: 4957 febc 0ecf 843d 62f0 813d 19df fb3d
00000330: 9d23 fdbc 556c 63bb 047d 933c 041a 96bd
00000340: 51fb 8dbd 78a2 3e3d 7b3f 6bbd db58 e73d
00000350: 831c bbbc 9478 333d 9995 e6bc eaba aebd
00000360: 991f ee3d b8d7 9d3b bd17 a73d 0688 003d
00000370: 0261 573d dd1f c23d c667 a9bd 06e5 453e
00000380: f060 ca3d e1e8 493d 2d41 9abd cd9d 693c
00000390: 18d3 ec3b 1db9 17bc f32c 98bd bea5 e73d
000003a0: 0b63 8e3d e782 bebc 1c52 edbc 0044 7f3c
000003b0: d66f 01bd d5a5 513d c96c 143d 3c41 15bd
000003c0: 9437 2eb9 d5e3 67bd d8e4 153d 0357 1abd
000003d0: adac 2fbd 2779 a6bd 162c 873c 8436 29bd
000003e0: d8a6 613d 6b05 2a3d 37a4 8ebd 9741 89bd
000003f0: 7731 303c b9d7 613d b569 5c3b 8e40 393d
0.061452646 -0.008198242 -0.075778924 -0.014326281 0.01893784 -0.002365901 -0.06624461 0.028970195
0.013288094 -0.0048874677 -0.062060256 0.17114308 0.0054811556 0.10159366 0.039179903 0.098798715
-0.08959531 -0.06461473 0.027506236 -0.075108714 -0.030628132 -0.05013617 -0.011013987 -0.007864991
0.017654974 0.049683645 0.027878327 0.047434565 -0.0051975823 0.113252185 -0.06799709 -0.0190871
0.05780125 0.12885661 -0.051032264 -0.05280886 -0.0028411176 0.017997243 -0.013390857 -0.06345217
-0.060283262 0.023247804 -0.03265347 0.007907106 -0.13870043 -0.05906609 0.01152657 0.05037185
0.03232634 0.10989789 0.0015383681 0.007994452 0.057640996 -0.100068964 -0.09653855 0.06550043
0.0048984867 0.086573355 0.045241762 0.049221266 0.0736565 0.05412241 0.064986594 -0.011116092
0.02573791 -0.12382463 -0.07309559 0.12617667 -0.058571436 0.01609092 0.0385234 0.057155088
-0.015680272 0.0761254 -0.09045929 -0.048856266 -0.07133669 0.07009092 -0.043741778 -0.0953605
-0.04220742 -0.00024664155 -0.0008868076 0.044433102 0.027803188 -0.017961208 0.046646226 0.00431318
-0.014487836 0.10387606 0.082057305 0.062069982 0.019823752 0.06858919 -0.020696433 -0.009254643
0.009699028 -0.0609816 0.081415966 -0.07846546 -0.10913324 0.025574727 0.049071815 0.14652464
-0.009324673 -0.049019698 0.08287697 0.015987791 -0.1012166 0.12540661 0.011896903 0.022237727
0.027536433 0.067083776 0.0066945525 -0.018876985 0.06498578 0.060425714 -0.082279965 0.051392306
-0.010242694 -0.05400969 -0.07472866 -0.015624076 -0.02100431 -0.07818237 0.013246038 0.11491423
-0.023189511 -0.02337358 -0.024507657 -0.01772143 0.058958367 -0.1087025 -0.14287634 -0.13672756
0.024646122 0.046112865 0.021130117 0.038320437 0.058423 0.016401729 -0.027317835 0.014516363
0.068789296 0.010387587 0.02136169 0.073023945 -0.018872406 0.0052518644 0.039168805 0.10819881
0.06637904 0.052112065 0.09756724 0.0014495625 0.054557852 0.07486266 0.08128787 -0.030767828
-0.057884764 0.04515053 -0.060385928 0.026414663 -0.012017633 0.04737294 -0.0459331 0.04179817
0.031947188 -0.04680973 -0.025176888 0.03446451 0.034815088 0.096751384 -0.06375976 0.12446535
-0.04353202 0.030951094 -0.00966045 0.0052886573 -0.07708157 0.08854593 0.069650955 -0.060599215
0.031542774 0.047412284 0.011230233 -0.026287869 0.044012 0.07295653 -0.04691193 0.073261335
0.08721543 0.045974102 0.04547442 0.0079242885 -0.093574226 0.122198135 0.015371136 -0.041346762
-0.03104748 0.06484805 0.063446775 0.12298412 -0.03090077 -0.0034702022 0.018003948 -0.07329181
-0.069327004 0.04654166 -0.057433587 0.11296245 -0.022840744 0.043816164 -0.028147506 -0.08531745
0.116271205 0.0048169754 0.081588246 0.031379722 0.05258275 0.09478734 -0.08271746 0.19325647
0.098817706 0.049294356 -0.075319625 0.014258814 0.007227313 -0.009260443 -0.074304484 0.1131091
0.06952485 -0.023255778 -0.028969817 0.015580177 -0.031600796 0.05118354 0.036236558 -0.036439165
-0.00016614638 -0.056613762 0.036595196 -0.037680637 -0.042889286 -0.08128577 0.016500514 -0.041311756
0.055090755 0.041509073 -0.06964915 -0.067019634 0.010753981 0.05513737 0.0033632342 0.04522758

network_body._body_endoder.seq_layers.2.bias f4 [256]
00000000: 4e7e 15bb fad8 c1bb 35ab 8bbb 6775 96ba
00000010: e811 3d3c ec71 8dbb 5501 903b 0672 033c
00000020: 349c 4ebc 66ab 483c 920d 613b 168b a43b
00000030: 51e7 a73b cda5 1a3c 7f57 fd39 6a36 1e3c
00000040: c8a2 04bc 3ea4 433c 5e89 1c3c 7bb8 353b
00000050: d086 0c3c 2498 063b 4f27 aebb 5b75 55bc
00000060: 6c69 a63c 0096 5b3b f8cf dfbb 8fcb cfbb
00000070: fedb c73b f5bf 9e3b 7b39 6d3c e43e 8a3c
00000080: 5224 033c 891d 81bb c3ad 8abc 2196 5b39
00000090: ec0a 7b3b c1f4 c1bb b29d 7d3b 9ffa be3b
000000a0: d06c 353c c6de b0bb d6e4 b4bb 15eb 22bb
000000b0: 8a40 9dbc 9ee6 b1bb 3709 efba 208a b23c
000000c0: 5ae6 b13a a225 693b 79fe 3ebb 9984 633c
000000d0: 0f33 85ba da65 363a d229 2f3c 70ad 2f3c
000000e0: 91f0 1b3c b6b8 cf3b c659 d3bb 196b 9d3b
000000f0: 5e35 8e3b dfb5 45bc d7cb d8ba d2a4 0dbc
00000100: 4acc a2bb eec5 5c3a 4980 343c 25bf 6c3c
00000110: 59fb 59b9 b88d 343c 130c 2dbc 992f 86bc
00000120: 36a6 1b3c 6959 5bb9 e7a3 e93b 9d0a 85bb
00000130: aff5 723b 9873 bebb 65a7 103c a6fa 143b
00000140: b972 553b 69b9 a93c 8c0c 6fbc 5017 663c
00000150: fad1 7fbb 73e3 7c3b d1f1 d03b abbd 4e3a
00000160: c099 523c 2ad8 b03a d318 9e3b 8e8c 003c
00000170: 1263 2c3b 0a7d 083a c667 ab3b 228c 803c
00000180: 1123 3b3c 45fe 95bb 46d9 20bb 36d1 7bbb
00000190: 311a 36bb 9b14 1e3c c18d d93b 0fa6 d53b
000001a0: c74d 273c 5796 f0bb c883 3d3c f953 fa3b
000001b0: c2dd 883a b9d2 063c cd38 e1bb 0f7e 8c3b
000001c0: 448d ca3b a9fa 2d3c 6ac3 54bb 1500 553c
000001d0: c12a 153c 9d16 b03b a941 923a 2d95 383b
000001e0: ff25 953b 9d10 933b def9 45bb e07f 103b
000001f0: 0c66 9c3b ca73 febb d235 25bc c125 353b
00000200: 081a 1c3a 7a39 33bc cf96 abba efc5 0f3c
00000210: c118 d23b 1bec 783c 81d9 26bc 42a5 9eba
00000220: 66d4 fc3b 94cc f2bb 2707 ebba 12a2 113c
00000230: a3c8 80bc ae89 74bb 007b 833c 928f 4cbc
00000240: 3422 d638 03a1 0b3c cd58 b6bc f8af 703b
00000250: 76dd 033c 8f43 343c 010c 163c daa8 90ba
00000260: 882c 523c cbde 2e3b 20a1 5d3a 4eb8 f8ba
00000270: b94f 1a3c 5b81 0e3c 12a8 d5bb d4ed 903b
00000280: b4c8 523b 862b 043c 8c24 993b 9994 25bc
00000290: 1a71 a83b e3ad c43b 7322 a3ba c7e9 bd3b
000002a0: 2476 9dbb 8bcc 1f3b 2695 bb3b 6a83 283a
000002b0: 7cc2 f0bb dd13 413c fda1 bd3b a7e7 cc3b
000002c0: 5e5c 3e3c c726 b63b 38cc e6bb 3e2d a7bb
000002d0: 088f 27bb 45dc 573c b1f3 bd3c 0fc2 a83c
000002e0: 920c aa3c 0797 773b a0ac 3dbc 2c37 0dbb
000002f0: 2ea7 be3b 8e98 093b 4d60 3dbc fc15 8cbb
00000300: e827 533c ccf0 9a3b 7f93 09bc 0340 80bb
00000310: fc95 9e3c b5c8 903a 7d59 b03b 09ad d23b
00000320: 8baf 94bc 9eae 0ebb 4675 da3b e009 db3b
00000330: dc0a 6bbb a238 1cbc 8827 68bb 7e08 2b3c
00000340: a72c e6bb f4ac c23c 3032 683c 475c 343c
00000350: 528a 4d3c d52d 2fbb 682d 943b 6a2a 25bb
00000360: af28 19bc c0f0 0e3c 8c8f edbb 6518 cb3c
00000370: 6711 673c 3dee 7b3b 85ae cf3b a12b 3f3a
00000380: 4744 633c e759 c8bb f301 073c 2b70 9abb
00000390: 8e12 f13b 030b 183c 776f 5f3c cf43 54bc
000003a0: 14f4 173c 35d7 5f3c 9584 11bc 1bab 8cba
000003b0: c6aa 68bb fe4c 343c 8225 463c ca1e e93b
000003c0: ea37 94bb dc91 ccba 1e4e 8ebb dcc4 e23b
000003d0: 9a1d ffbb 448b 1d3b 9934 33bc 15e6 34bb
000003e0: db6a 933b 0531 b6bb 19e8 81bb 0550 993a
000003f0: 3480 d13a 3326 f0bb 37a0 4e3c 158b 9b3b
-0.002281088 -0.005915758 -0.004262353 -0.001147908 0.011539914 -0.004316559 0.00439469 0.008022791
-0.012610484 0.012247896 0.0034340364 0.005021463 0.0051240106 0.009438944 0.0004832111 0.009656528
-0.008095451 0.011941014 0.009554235 0.0027728367 0.008577064 0.002053746 -0.0053147445 -0.013028468
0.020313941 0.0033506155 -0.0068302117 -0.0063414047 0.006099223 0.0048446604 0.014479036 0.016875692
0.008004265 -0.0039402884 -0.01692856 0.00020941395 0.003830607 -0.0059190695 0.003869873 0.005828216
0.011073306 -0.0053976504 -0.0055204434 -0.0024859358 -0.019195814 -0.005429103 -0.0018236999 0.021794379
0.0013572678 0.003557541 -0.0029143377 0.013886594 -0.0010162311 0.0006957926 0.010691123 0.010722503
0.009517805 0.006339158 -0.006449911 0.004804027 0.004339858 -0.012067287 -0.0016540241 -0.008645253
-0.004968201 0.0008421828 0.011016914 0.014449869 -0.00020788367 0.0110201165 -0.010561961 -0.016380118
0.009500077 -0.00020918775 0.0071301344 -0.004060103 0.0037072708 -0.0058121197 0.0088289725 0.0022732406
0.00325696 0.020718293 -0.014590394 0.014043644 -0.0039035068 0.0038587719 0.006376483 0.0007886539
0.01285404 0.0013492156 0.0048247366 0.007846011 0.0026304168 0.00052066206 0.0052308766 0.01569182
0.011421935 -0.0045774304 -0.0024543568 -0.003842426 -0.0027786607 0.009648467 0.006639213 0.00652004
0.010211415 -0.0073421407 0.011567064 0.007639405 0.0010442066 0.008228951 -0.0068732263 0.0042874883
0.006181391 0.010618844 -0.0032465109 0.013000508 0.009104432 0.0053737895 0.0011158484 0.0028165088
0.0045516486 0.0044880644 -0.0030208747 0.0022048876 0.004772907 -0.007765268 -0.010083633 0.0027640911
0.00059548067 -0.010938996 -0.0013091209 0.008775218 0.0064116423 0.015193011 -0.010183693 -0.0012103694
0.0077157496 -0.0074096415 -0.0017931209 0.008888738 -0.015720671 -0.0037313509 0.016049862 -0.012485402
0.00010210686 0.008522275 -0.02225914 0.003672598 0.008048406 0.011002435 0.009158135 -0.001103665
0.012828 0.0026683088 0.00084544905 -0.0018975826 0.009418421 0.008697833 -0.0065202797 0.0044228826
0.0032163085 0.008067017 0.004673546 -0.010106229 0.005140436 0.006002174 -0.001244618 0.0057956907
-0.004805343 0.0024383392 0.005724567 0.00064282736 -0.007347403 0.011784521 0.005787133 0.006253201
0.011618702 0.005558822 -0.0070433877 -0.005101829 -0.002556743 0.013175075 0.02318749 0.020600347
0.020757947 0.0037779228 -0.011576802 -0.0021547778 0.005818269 0.002099547 -0.011558604 -0.0042750817
0.012887932 0.0047284123 -0.008396982 -0.003913881 0.019358627 0.0011046143 0.0053817616 0.006429319
-0.018150112 -0.002177156 0.006666812 0.006684527 -0.0035864627 -0.009534987 -0.0035423953 0.010439036
-0.007024366 0.023764111 0.014172122 0.011008329 0.012545185 -0.00267302 0.0045220144 -0.0025202283
-0.009348079 0.008724391 -0.007249778 0.024791906 0.01410327 0.0038441562 0.006337943 0.0007292573
0.013871259 -0.006114233 0.008240211 -0.0047130785 0.007356948 0.009279969 0.013637415 -0.01295562
0.009274501 0.013662149 -0.008881708 -0.0010732146 -0.003550218 0.0110046845 0.0120939035 0.007114266
-0.004523267 -0.0015607434 -0.0043428084 0.00692044 -0.007785511 0.0024039308 -0.010937833 -0.002760296
0.004498822 -0.005560043 -0.003964436 0.0011696821 0.0015983642 -0.0073287725 0.01261144 0.0047468045

action_model._continuous_distribution.log_sigma f4 [1, 3]
00000000: b15b 2a3c 9cc8 633c 5b8c 8dbc
0.0103978375 0.0139028095 -0.01727884

action_model._continuous_distribution.mu.weight f4 [3, 256]
00000000: ea66 3cbc 7d05 a4bc 2977 c63b be1b 10bc
00000010: f258 32bc 13e0 bd3b 92bf 8a3c 2a2e 993c
00000020: 6701 32bb 0ae8 44ba 5df4 8aba 05c9 293c
00000030: e60e 7739 4845 b53c bcf2 b5bb 1915 c23b
00000040: a1de ccbb 905a b63b b9a7 7e3b 0d1c 483c
00000050: 8135 c8bc 1214 80bc ce5d 173c 85c8 e0ba
00000060: b9dc be3b d98c 1bbc 27dc d9bc c211 15bc
00000070: 8941 8b3c f8bb 223b 6055 b73c bd65 e2bb
00000080: 2c44 d53b de01 a7bc e8a9 a9bc 7b0e b53c
00000090: 37b1 0dbc 8cdf 92ba ca22 da3b 181f a8bb
000000a0: 107a 50bc ee88 86bb d4ab b3bb a62a f33b
000000b0: 70c3 51bc 7f35 293c 924f 323b 6696 333c
000000c0: bc07 63ba e666 bd3c 2caf 9ebc 9b76 9abc
000000d0: 46fb a93c 9dfc 0cbc d15d f23c 52a4 ba3c
000000e0: 7ce9 813c 6c61 a53c c4cf bfba ba83 443c
000000f0: bc2d 0e3c 37c9 c5bb 83f4 81bc 0153 803a
00000100: c131 9abc cb79 293b e042 8b3b cf6b 0d3c
00000110: c27d 57bc 8850 44bc 7630 91bc 573c 83bc
00000120: cb35 38bc 2fe0 87bc b1da 263c dab1 043b
00000130: 041b 2d3c 32a4 f1bb 5089 3a3c 6964 9f3c
00000140: c6d1 9dbb f896 3f3c 0526 18bd 2f4f 693b
00000150: c8ab 8ebb f067 843c a47f 163c eb19 f0bc
00000160: 6b0c 6d3c 4542 ef3b 7e96 973c ba4a b13b
00000170: ac85 36bb 7963 1abc c725 ff3b 6e2c 013d
00000180: 1af1 4d3c b85d aabc 4b35 37bd 943b 843c
00000190: a808 b63a 33f4 443c 2659 ca3b dd01 473b
000001a0: 3160 febb 0ce2 dbbc 216f 29bc e76e f73a
000001b0: 95e4 6b3c f06a 103c d569 ec3a 2cec 08bc
000001c0: 37e9 873c 9a4b a43c 6e62 97bc f404 213c
000001d0: f71a bcbb 9fad 053c e4db 353c adcd 393c
000001e0: 979a c53c 7f2d 99bc e799 73bc 1cfc 113c
000001f0: caf5 d6bc d8a7 f33b 527b d639 f76c b13c
00000200: c324 50bb 507e 23bb e383 d9bc 03d2 b83c
00000210: cb2e d9ba 4a7f 483c 613a 59ba b014 4dbc
00000220: 506e 0c3c cece 6abc 2db5 42bb 59c0 003d
00000230: c708 b7bc dccc 26bc 5f6e 6f3c dea0 b9bc
00000240: 87b3 373c 1549 583b c1d6 e7bb 5eb1 863b
00000250: 9701 c63b 4f2d de3b e908 193b 799a d739
00000260: a4d0 97bb dd98 e5bb e5b9 fdbc 0790 153b
00000270: 6dbe c93c 2aa1 683b feee d0bc 487e 40bc
00000280: d5f8 d33c 3f52 543c 8cc0 e1bb 38fa babc
00000290: 6c9d eb3c cd11 e53b 0851 a83b f21e 993c
000002a0: d93d c6bc 90ce f13b 9d93 75bb 52d2 d43b
000002b0: f44e 00bd 4a82 073c 93f9 cf3b f8f3 023c
000002c0: 8eb5 203b a212 d13b 3e9e 52bc 6289 0dbc
000002d0: 8807 3f3c 43ef b33c 54a1 ab3b 6c1c c3bb
000002e0: 3fe8 943c 173b b23c faf3 4ebc bf0a 28bc
000002f0: 83c0 9a3b 7886 4d3b 878c 18bc 75e2 483c
00000300: 2541 673c 94b5 8abc f227 a2bc cafb 8abc
00000310: ef44 7f3c 4d4f 80bc c807 503b b06b 003d
00000320: 97e7 483b 154f fe3b e140 24bb bb96 ff3b
00000330: 70d5 b53b 2380 33bc 3daf 37bc e43c c53b
00000340: 37bc cdbc c9fd 01bb 5d5b 133d 8c3a a4bb
00000350: 926e 353c 55e2 9e3c 9f19 78bc dab9 3cbc
00000360: eb24 82bb a53e ec3b bb61 a1bb 1b50 fd39
00000370: d956 123d a486 87bb 8a4d 64bc 787c 10bd
00000380: 465d bfbc 3ccb ad3b e472 143a ea05 7bb8
00000390: 1655 c43c 4639 64bc 7faa 8a3c 4656 44bb
000003a0: 8392 923c 54e0 613c f2c8 a4bc 0c39 213b
000003b0: aabb d4bb 09c9 123c 09e7 f53c ebc7 7fbb
000003c0: 6c34 013b 7d4b 203b 9288 223c 4bb6 003d
000003d0: 52a4 c2bc 6230 ab3a 701d 24bc be7f 83bb
000003e0: 946d e1bc ce07 54bb 94e5 46bb a72f 1bbc
000003f0: dca4 c43c 7eac f839 3a65 36bb 270a 26bb
-0.011499146 -0.020022148 0.0060566855 -0.008795677 -0.010885464 0.005794534 0.016937051 0.01869877
-0.002716148 -0.0007511383 -0.001060139 0.010362868 0.00023561306 0.022127762 -0.005552618 0.005922925
-0.0062521254 0.005564995 0.0038857295 0.012213719 -0.024439575 -0.01563457 0.009238673 -0.0017149603
0.005824652 -0.00949403 -0.026594235 -0.009098472 0.016999023 0.0024831276 0.022379577 -0.006909101
0.006508371 -0.020386633 -0.0207109 0.022101631 -0.008648208 -0.0011205538 0.006656979 -0.00513066
-0.0127244145 -0.0041056788 -0.00548313 0.0074208556 -0.012802944 0.010327696 0.0027208072 0.010961151
-0.00086605153 0.023120355 -0.019370638 -0.018855384 0.0207497 -0.00860515 0.02958575 0.022783432
0.015858404 0.020188056 -0.0014634063 0.011994297 0.008677896 -0.0060359496 -0.015863663 0.0009790362
-0.018822553 0.0025859948 0.0042499155 0.008631661 -0.013152542 -0.011982091 -0.017723303 -0.016019983
-0.011243294 -0.016586391 0.010183976 0.002024761 0.010565523 -0.00737431 0.011385277 0.019457059
-0.0048162667 0.011693709 -0.037145633 0.0035600176 -0.004353974 0.016162843 0.009185705 -0.029309234
0.014468293 0.007301601 0.018504377 0.0054105194 -0.002785067 -0.00942313 0.007786486 0.031536512
0.01256969 -0.020796642 -0.04472856 0.01614169 0.0013888078 0.012021112 0.006175178 0.00303661
-0.0077629318 -0.026841186 -0.010341437 0.0018877656 0.01439776 0.008814558 0.0018036911 -0.008357089
0.016590698 0.02005558 -0.018479552 0.009827841 -0.005740519 0.00815907 0.011099789 0.011340541
0.024121566 -0.018698452 -0.014868236 0.008910205 -0.026240248 0.00743578 0.00040909142 0.021658404
-0.0031760193 -0.0024947114 -0.026552146 0.022561079 -0.0016569732 0.012237379 -0.0008286592 -0.012517139
0.008571222 -0.014331533 -0.002971004 0.031433437 -0.022343053 -0.010180678 0.014613717 -0.022659715
0.011212236 0.0033002545 -0.007075161 0.0041104993 0.00604267 0.0067803035 0.0023351258 0.00041123087
-0.004633026 -0.007006748 -0.03097243 0.0022821443 0.024626935 0.0035496452 -0.025504585 -0.011748858
0.025875488 0.012959062 -0.0068894085 -0.022824392 0.028761588 0.0069906474 0.005136613 0.018691514
-0.024199413 0.0073793605 -0.0037472018 0.0064947987 -0.031325296 0.008270809 0.0063468902 0.007992737
0.0024522278 0.006380395 -0.012855111 -0.008638712 0.01165951 0.021964675 0.0052377377 -0.005954316
0.01817715 0.021756692 -0.012631411 -0.010256468 0.004722656 0.0031360667 -0.009310848 0.012261023
0.014114653 -0.016932286 -0.019794438 -0.016965766 0.0155804 -0.015662814 0.003174292 0.0313527
0.0030655616 0.007760892 -0.0025063085 0.007799951 0.0055491254 -0.010955843 -0.011211214 0.0060192216
-0.025114162 -0.0019835106 0.035975803 -0.005011862 0.011073725 0.019395033 -0.015142827 -0.01151892
-0.003971686 0.0072096162 -0.0049249805 0.00048315604 0.035727356 -0.0041359235 -0.013934502 -0.035274953
-0.023359906 0.0053037684 0.0005662872 -5.984857e-05 0.023966353 -0.013929671 0.016927002 -0.002995865
0.017892128 0.013786394 -0.02011535 0.0024600653 -0.006492098 0.008959063 0.030017393 -0.0039029073
0.0019715084 0.0024459057 0.009920256 0.031423848 -0.023759995 0.0013060684 -0.010016784 -0.004013031
-0.027518071 -0.0032353285 -0.0030349242 -0.00947181 0.024004392 0.00047430763 -0.0027831332 -0.002533564

action_model._continuous_distribution.mu.bias f4 [3]
00000000: ff6e 063c 9831 b2ba 0e1a 9b3a
0.0082051745 -0.0013595102 0.0011833326

action_model._discrete_distribution.branches.0.weight f4 [7, 256]
00000000: 8484 91bc 4445 54bb 8dcf 883c 50b7 2e3c
00000010: 983b e3bc 3520 f1b9 f8b0 9c3b 7779 bcbc
00000020: 90fd ad3c ba2e afbc c5c0 41bc be1a 85bc
00000030: 9507 9fbc 925f 08bc 728e 933b 8e06 8c3b
00000040: 1a1a 34bb 7868 cfbc 770f 5fbc e28b 2bbc
00000050: ef26 04bd fe4f c3ba c675 9e3c d34a bf3c
00000060: f719 1fbc 9639 a13a dd64 923c d115 cebb
00000070: 6973 87bc fedd 3b3c 60c2 c9bc 61e6 fbbc
00000080: dfeb 09bc dbd8 abbb 019e e23c c120 9d3b
00000090: 79d5 01bc 274c 8f3b 6342 303b 1ba6 acbc
000000a0: 7b4a bbbc 3106 57bb dbe7 b53b 0a94 0b3c
000000b0: 66da 273d ff6d ac3c 6c23 6ebb 3588 b2bc
000000c0: 975c 6ebc d05c b23b cbd8 63bc c041 13bd
000000d0: 51e2 373c e7cd dd3b 8364 e8bc ed52 fcbc
000000e0: 1c55 4fbc b661 8abb 52c0 473c bb8a 44bc
000000f0: 6745 c739 37b9 1d3d 49af a63c ca15 383c
00000100: ea0c d13b f3e0 823c ace9 25bc aa96 9abc
00000110: c9e6 ec3a b496 d2bc c72c 923c 57ae ba3c
00000120: a300 65bc bf2e 3dbc d689 c9bc 0566 943c
00000130: 7a69 2cbb dc1e c8b6 f251 6bbc b52c f33b
00000140: c8a9 88bc c685 bebc 0052 133d 4ace b4bc
00000150: 90f6 ffbb cbb4 e23b b1da 8abc 774b 7ebc
00000160: 9a85 acbc 69e1 f8bb a137 49bc 4bfd 3cbc
00000170: eb2d 393b 4e98 04bc f495 babc da99 36bc
00000180: c456 91bc 371e 503c cb35 12bc 0773 bd3c
00000190: a9ef aa3c ba37 93bc 5641 31bc c60a 4fbc
000001a0: e39c ffbc 3e90 2b3a db35 f5bc f7b2 c6bc
000001b0: bcf4 2bbc f382 ceba da13 9c3b a709 a03b
000001c0: 3e75 893c becb 91bc 4121 73bc 8393 9ebc
000001d0: 70d0 b1bc ea84 22bc 243b c63b d4f2 343b
000001e0: 23a9 9ebb 7c63 27bc b5eb d03b 200b 513c
000001f0: cacb d0bc 9b58 9e3c 6f1b 273b 623a b63b
00000200: 876b 59bc 0333 943c 1dc2 4abc aeba d5bc
00000210: c1ba b9bc 7509 09bd 2591 783c ee7a 1d3a
00000220: 0a73 9abb c4ca 463c 9472 11bc 23fe 58bc
00000230: 776e 853c c0df 2a3c 44f5 81bc 2c73 dd3b
00000240: 3570 e8bb bb47 76bc 284f 353c 8da1 eeba
00000250: eb8a 62bc e823 d1bc d7c3 b5bc a528 48bb
00000260: 0796 dabc 85f0 b9bb 4158 093c 0405 2b3c
00000270: 4dbb 02bd 9c02 c7bc 9d7e 223c 0871 fcba
00000280: 5983 023b f896 89bc 1665 a6bc 3989 b23b
00000290: 3403 2dbb c663 763c d032 413b 461f 20bc
000002a0: c467 5c3b e966 2fbb e14b 01bc 5b3d c33b
000002b0: 78cc 7a3b 2372 8fbc a4d9 56bc 1281 7fbc
000002c0: 181b 81bc 6631 373a ac1a 193b b4e1 643c
000002d0: 6a85 c5b9 2469 e0bc 47a5 05bd d5c1 e4bc
000002e0: 4cbf 0abd 7ceb b93b b875 943c cc1b 113c
000002f0: 8a27 d5b8 9227 8ebc 1923 0e3d e33e 7a3c
00000300: 98fc a4bc dc0e b3bc 0ad9 e13b f62f ac3b
00000310: 170e 0cbd d6fc 7cbc 68e1 19bc 2837 85bb
00000320: a5dc 363d e4f1 8a3c 5f67 bbbc 6cc3 963a
00000330: b692 28bb 89c6 303c 8c1e 56bb bf75 babc
00000340: 9cb3 d7bb cff1 f9bc a45f d1bc 6918 40bc
00000350: 92e6 81bc 9023 fa3c 916d 06bd 121d 43bc
00000360: 584c e83c 7af5 b7bc d548 1b3b 4d7a 1ebd
00000370: fc60 f4bc bf27 e4bb 3c19 bd3b f55b 67bb
00000380: 6155 26bd a596 b33c b36b 6abc 246b d33c
00000390: 9b77 82bb bfee 6fbb ce12 0bbd 7799 3a3c
000003a0: 5426 85bb 8320 d3bc b89d 8a3c fe65 823c
000003b0: 92bb 513a 3a74 e3bc 8d12 bdbc dc1c 9ebc
000003c0: c1cf 953c 8011 dbbb 6a2c d73b 45fe c13b
000003d0: b18e 8d3c 5f8f 1abb 9c10 cc3b a334 88bc
000003e0: c1c1 87bc 3bb1 103c 1d8f a53c 2fc3 723b
000003f0: 3d0a 47bb 98a6 953c e7d3 e8bc 86d3 59bc
-0.017763384 -0.0032389918 0.01670053 0.010663822 -0.027738377 -0.00045991098 0.0047818385 -0.023007138
0.021239072 -0.021384586 -0.011825745 -0.016248103 -0.019412795 -0.008323567 0.004503065 0.0042732423
-0.0027481378 -0.02531837 -0.013614527 -0.010470362 -0.032263692 -0.0014901159 0.019343268 0.023351109
-0.00971078 0.0012300487 0.017870361 -0.006289222 -0.016534524 0.011466501 -0.024628818 -0.030749502
-0.008418052 -0.005244357 0.027663233 0.0047951643 -0.007924431 0.0043730917 0.0026895038 -0.021075299
-0.022862663 -0.0032810087 0.005551321 0.008519182 0.040979765 0.021048544 -0.003633703 -0.021793464
-0.014548442 0.005443193 -0.013906668 -0.035951376 0.011223392 0.0067689302 -0.02836824 -0.03080126
-0.012654569 -0.004223074 0.012191849 -0.011995967 0.00038007947 0.038506713 0.020347254 0.011235664
0.0063797133 0.015976405 -0.0101265125 -0.01887067 0.001807415 -0.025706626 0.017843617 0.02278821
-0.013977203 -0.01154679 -0.024601858 0.018115053 -0.0026307986 -5.964057e-06 -0.014362799 0.007421101
-0.01668252 -0.023257148 0.035966873 -0.022071023 -0.007811375 0.006918525 -0.016949983 -0.015520922
-0.0210598 -0.0075952304 -0.012281329 -0.011534999 0.002825613 -0.008092953 -0.022776581 -0.0111450795
-0.017741568 0.012702516 -0.008923958 0.023126138 0.020866232 -0.017970908 -0.0108188 -0.012636846
-0.03120274 0.0006544626 -0.029932907 -0.024255259 -0.010495361 -0.0015755579 0.0047631087 0.004883963
0.016779538 -0.017797347 -0.014839471 -0.019357448 -0.021705836 -0.0099193845 0.0060495306 0.0027610557
-0.00484194 -0.01021659 0.0063757547 0.012759 -0.0254878 0.01932936 0.002549853 0.005561159
-0.013270265 0.01809073 -0.012375382 -0.026089992 -0.022672059 -0.033456285 0.015171324 0.00060073927
-0.0047134208 0.012133304 -0.008877415 -0.013244185 0.016288025 0.010429323 -0.015864022 0.0067581143
-0.0070934542 -0.01503175 0.011066236 -0.0018206105 -0.013827066 -0.025529817 -0.02218811 -0.0030541804
-0.026682867 -0.005674424 0.008382858 0.010438208 -0.031916905 -0.024293236 0.009917882 -0.001925976
0.0019914715 -0.01679562 -0.020311873 0.005448487 -0.0026399614 0.015038436 0.002947975 -0.009773081
0.0033631185 -0.002676422 -0.007891626 0.005958242 0.0038268846 -0.01751048 -0.013113413 -0.015594738
-0.01575999 0.0006988257 0.0023361845 0.013969827 -0.0003767417 -0.027393885 -0.032628324 -0.027924458
-0.03387384 0.005673824 0.018122539 0.008856725 -0.00010163996 -0.017352853 0.03470144 0.015273782
-0.020139977 -0.021857671 0.006892328 0.005254741 -0.034193125 -0.01544114 -0.00939212 -0.004065413
0.044644017 0.016961046 -0.02287644 0.0011502332 -0.0025722212 0.010789522 -0.0032672016 -0.022761224
-0.0065826904 -0.030510811 -0.0255583 -0.01172457 -0.015857015 0.030534536 -0.032819334 -0.011908786
0.028356716 -0.02245592 0.0023694534 -0.038690854 -0.029831402 -0.006962746 0.0057708304 -0.0035302613
-0.040608767 0.021922419 -0.014307904 0.025807925 -0.0039815432 -0.003661081 -0.03395348 0.011389128
-0.004063407 -0.025772339 0.01692091 0.015917774 0.00080006674 -0.027765382 -0.023080135 -0.01930087
0.018287541 -0.006685436 0.006566574 0.005920204 0.017279955 -0.002358399 0.006227566 -0.016626662
-0.016571881 0.008831318 0.020209843 0.0037042608 -0.0030371093 0.018267915 -0.028421355 -0.01329506

action_model._discrete_distribution.branches.0.bias f4 [7]
00000000: 1bf6 bcbc ce96 953b c7a1 a53c 4543 d53b
00000010: 117d a83b 7677 393c 631d 3abb
-0.023066571 0.0045650965 0.020218743 0.0065082633 0.005141862 0.011319986 -0.0028398864

onnx::Div_90 f4 [84]
00000000: 68ef 3c3b eb45 fe3e 0fdc fc3e 3904 9a3e
00000010: 68ef 3c3b 620b fa3e d29f f73e e03d a03e
00000020: 68ef 3c3b a3f5 ff3e 81ed ff3e 9f7e 913e
00000030: 68ef 3c3b 24d6 f53e 1bd4 f23e d4a7 a43e
00000040: 68ef 3c3b 2a29 fc3e 16f9 fd3e 32b1 863e
00000050: 68ef 3c3b e136 f23e ffcc ee3e f29a a73e
00000060: 68ef 3c3b 42ec f13e c9e2 f53e b817 773e
00000070: 68ef 3c3b a293 ef3e 5522 ec3e b886 a93e
00000080: 68ef 3c3b e4aa e33e 29dd e93e 3c59 633e
00000090: 68ef 3c3b 3c35 ed3e 42ea e93e 6571 aa3e
000000a0: 68ef 3c3b e2e9 d63e e0e4 de3e f841 543e
000000b0: 68ef 3c3b c19a eb3e e020 e83e a759 aa3e
000000c0: 68ef 3c3b 598d cd3e 0849 d63e 5c05 4a3e
000000d0: 68ef 3c3b 62f5 ea3e aa95 e73e 889f a93e
000000e0: 68ef 3c3b 5f4b c83e 5434 d13e 06fb 443e
000000f0: 68ef 3c3b 4acc ea3e ef68 e73e 874c a83e
00000100: 68ef 3c3b b68f c63e 1811 d03e 987b 443e
00000110: 68ef 3c3b a5a3 ee3e 87b8 e73e 8220 a93e
00000120: 68ef 3c3b 0dac c73e 910b d13e 81d2 463e
00000130: 68ef 3c3b 124a f13e d3ed ea3e a06e a73e
00000140: 68ef 3c3b 93a2 cb3e a2cf d43e d01e 4c3e
0.002882922 0.49662718 0.4938664 0.30081347 0.002882922 0.4883681 0.4836412 0.31297207
0.002882922 0.49992093 0.4998589 0.28416917 0.002882922 0.4801494 0.4742745 0.32159293
0.002882922 0.49250156 0.496041 0.26307064 0.002882922 0.47307494 0.46640775 0.327354
0.002882922 0.47250563 0.48024586 0.24130142 0.002882922 0.46792322 0.46119943 0.33110595
0.002882922 0.44466317 0.45676544 0.22202009 0.002882922 0.46329677 0.45686537 0.33289638
0.002882922 0.41975313 0.43533993 0.2072829 0.002882922 0.46016505 0.45337582 0.33271524
0.002882922 0.40146902 0.41852593 0.19728607 0.002882922 0.45890337 0.45231372 0.33129525
0.002882922 0.39120004 0.40860236 0.19236383 0.002882922 0.45858985 0.45197245 0.32870886
0.002882922 0.38781518 0.40638041 0.19187772 0.002882922 0.46609226 0.4525797 0.33032614
0.002882922 0.38998452 0.40829137 0.19416238 0.002882922 0.47126824 0.4588457 0.32701588
0.002882922 0.39772472 0.4156466 0.19933629

onnx::Div_96 f4 [37]
00000000: bc33 8141 71bf 2f3d e8fd 8241 68ef 3c3b
00000010: 277b 9d3e 68ef 3c3b 0857 b341 3118 563b
00000020: 2fe4 b341 68ef 3c3b a8cb 9b3e 68ef 3c3b
00000030: f8b9 463e 9ed3 163e 032a e93e 288f ce3e
00000040: 68ef 3c3b 822a e93e 68ef 3c3b 5efe 5f3f
00000050: 68ef 3c3b 8e78 823f fabb 343f 180c 3d3b
00000060: 2b1f 353f 08a9 913e e4bb 8b3e cfbb 8b3e
00000070: 3fd3 893e 63d3 893e cf9d 103e af9a 763f
00000080: 5eb8 893e bb40 2f3f 72bf 2f3d 3d5f 4e41
00000090: f0cf 933e
16.15026 0.042907182 16.373978 0.002882922 0.3075802 0.002882922 22.417496 0.0032668228
22.486418 0.002882922 0.30428815 0.002882922 0.19406879 0.14729163 0.45539865 0.40343595
0.002882922 0.45540243 0.002882922 0.8749751 0.002882922 1.019304 0.7059933 0.002884632
0.70750684 0.28449273 0.27291787 0.27291724 0.2691898 0.26919088 0.14122699 0.9632978
0.26898474 0.68458146 0.042907186 12.898252 0.2886958
