results/ChybaGit/BoxingAgent.onnx (onnx, 409187 bytes, 13 tensors)

network_body.observation_encoder.processors.0.normalizer.running_mean f4 [84]
00000000: 0000 0000 f113 c63e 46ba 163f dd69 5f3f
00000010: 0000 0000 b20b de3e ad1d 0b3f 21c9 5b3f
00000020: 0000 0000 8570 ac3e 5650 233f a9df 623f
00000030: 0000 0000 f7be f03e 94fa 013f 0131 583f
00000040: 0000 0000 ee52 933e ed4c 2f3f 2fd4 653f
00000050: 0000 0000 6d89 fe3e 7093 f53e 9ade 543f
00000060: 0000 0000 e12a 7f3e 948e 383f 9cf7 673f
00000070: 0000 0000 f6ce 023f c1e4 ee3e a68b 523f
00000080: 0000 0000 8524 633e 6e1f 3f3f 4f84 693f
00000090: 0000 0000 2cd1 033f 5c30 ed3e eb3d 513f
000000a0: 0000 0000 91b5 4f3e 562d 433f c51f 6a3f
000000b0: 0000 0000 b33f 033f 3036 ee3e 16c3 503f
000000c0: 0000 0000 d366 453e d486 443f 1247 6a3f
000000d0: 0000 0000 2571 023f c854 f03e 98ca 503f
000000e0: 0000 0000 30b8 403e 8ecf 443f 041c 6a3f
000000f0: 0000 0000 abc7 013f 857d f13e 04d5 503f
00000100: 0000 0000 b886 3f3e e4ab 443f 68cf 693f
00000110: 0000 0000 0da5 fd3e 3f36 f13e b0dc 4e3f
00000120: 0000 0000 c106 413e b929 443f 2b25 693f
00000130: 0000 0000 244f f93e 59c6 f53e 6ba2 4f3f
00000140: 0000 0000 f3a3 463e 539d 423f a151 683f
0.0 0.3868709 0.5887798 0.8727091 0.0 0.43368298 0.54342157 0.85853773
0.0 0.33679596 0.6379446 0.8862253 0.0 0.47020695 0.50772977 0.84449774
0.0 0.28774208 0.68476754 0.8977689 0.0 0.49714223 0.47964048 0.83152163
0.0 0.24918701 0.72092557 0.90612197 0.0 0.5109705 0.466589 0.82244337
0.0 0.221819 0.7465733 0.9121751 0.0 0.51491046 0.46325958 0.81735104
0.0 0.20284106 0.7624105 0.91454726 0.0 0.5126907 0.46525717 0.8154768
0.0 0.19277506 0.7676823 0.91514695 0.0 0.50953895 0.46939683 0.81559134
0.0 0.18820262 0.76879203 0.91449 0.0 0.50695294 0.47166076 0.81575036
0.0 0.18703735 0.76824784 0.913321 0.0 0.49539986 0.471117 0.8080549
0.0 0.18850233 0.76626164 0.9107234 0.0 0.48693192 0.4800289 0.81107205
0.0 0.19398479 0.7602131 0.90749556

network_body.observation_encoder.processors.2.normalizer.running_mean f4 [37]
00000000: f88d bc3f 7481 6d41 27ac 6ec1 34c1 b830
00000010: 8f21 023f 5232 5532 e7e0 8dbf 807d e738
00000020: 9597 5abf e6d3 5a30 b6a5 003f 0e9a 40b1
00000030: 143a 753f 1680 733f 3b0e 823e 7ee3 ae3e
00000040: 0000 0000 27f8 3e3f 0000 0000 8bfd b0bc
00000050: 0000 0000 5367 3a3d ff58 0fbd a647 e436
00000060: bc2c d6bc 819e fe3e b1f0 013f 2a1d fc3e
00000070: ce36 043f ed90 f73e ab2a 3c3d c35a 2b3e
00000080: cd44 223f 7087 88bd 7481 6d41 0367 be41
00000090: 42bc 003f
1.4730825 14.844105 -14.917029 1.3442674e-09 0.50832456 1.2409673e-08 -1.108426 0.000110383146
-0.85387546 7.9609064e-10 0.50252855 -2.8027247e-09 0.95791745 0.9511732 0.25401482 0.34157938
0.0 0.745974 0.0 -0.021605274 0.0 0.045508694 -0.034996983 6.8032705e-06
-0.026144378 0.49730304 0.5075789 0.49241 0.51646125 0.48352757 0.04593913 0.16733842
0.6338623 -0.06666458 14.844105 23.800299 0.5028726

network_body._body_endoder.seq_layers.0.weight f4 [256, 121]
00000000: 9283 1fbd 6c5b a83d d35b e8bd 1470 0dbe
00000010: fd8b 1a3e d076 8fbc eb10 013d 9ba9 393e
00000020: cbac 333c dbf8 213d 7169 03bd 5b46 2f3d
00000030: 529a c33b ad1e 18bd c8fc fc3d ef5e c0bc
00000040: 0ef6 03be 0a93 f83c c8db c7bd fce6 d0bd
00000050: 8081 48bd 20ea ccbd 4493 223d 775f 0abd
00000060: 8100 b7bc 9aa6 75be bcc9 383d b96c a93d
00000070: f63f 0cbd 1e94 a8bd e765 e9bd 0544 e23c
00000080: 9c63 bfbd f9da 5fbc eaee 8e3d f54a e03c
00000090: 12d1 b33b 1791 b63d 5871 27bd 807a 94bd
000000a0: 5108 173c aefc a6bd 9530 cabb 486d fabd
000000b0: 9586 f0bd 5334 97bd fdb9 7b3d ec39 06be
000000c0: ab84 323d fa74 42bd 9fde c4bd 4397 70bc
000000d0: ab1e a53c 90ff 6e3c 6ed3 88bd 8dcf da3b
000000e0: 6b2d f93d 1c2e 8ebd 3903 e73c 48d6 fcbb
000000f0: 50b9 893d 7095 2e3d 093b 1e3d 2ba5 debd
00000100: bfdb b83d 4938 55bd 2802 fe3d a37e 88bd
00000110: ee1a 843d 1ec9 fb3d 1426 cf39 8b67 40bd
00000120: 65ec 173e 9037 2b3d 9635 3f3d 1679 f03d
00000130: d371 6c3c 307b cabc 68ae 8dbc f723 253c
00000140: 3519 4f3e 9f60 913c 8976 db3d b870 61bd
00000150: 2dbc 22bc 39c1 3a3d 3dca 073e 6609 013e
00000160: fe83 f2bc 99d3 babc 1205 883d 4735 013c
00000170: 3860 d7bd c55e 083e 3110 cebb cd4e 943d
00000180: 665d 5a3c c94d fe3d 0e0c 2ebe 943b df3d
00000190: 95f2 a03c 1c0d fb3d 156b 3dbc 31d3 f2ba
000001a0: e934 e63a fd14 3e3d 6682 403d 9b02 15bc
000001b0: ae05 b8bd 1b25 9b3c cb85 373d 9678 05bd
000001c0: 14d7 953d bfbc 1a3d 6c8b 483e 1c1c 7f3d
000001d0: cdcf 553b b7a8 703b 35c7 723d fdbc ca3d
000001e0: b59d ccbd 806b a03d 491c 323e 6b26 963d
000001f0: 8f49 6ebd d38e 763c f346 903d 211e aabd
00000200: 00c3 7ebd bbc5 ed3b 1199 a4bd 43b2 af3d
00000210: 3987 35be 004f f33d b03c b4bd c4db a0bc
00000220: dd9c 0b3e acb4 4dbd fc07 6b3d 7c10 023d
00000230: b7b3 613d dcf9 96bc fb84 17bd 7f00 e4bd
00000240: 1457 4e3c b02a 34bd 24b1 09be 1852 f33c
00000250: c6b9 a43d 2d33 aebd 3ae4 b53d 20ca 0cbd
00000260: 3eae c3bd 7ced 493d f260 20be 28ea 9d3d
00000270: f1cc 24bd 6f9c 593c aa2a ee3d 7855 ae3d
00000280: 2567 98bc bd57 893d a597 e43c 0f49 f53d
00000290: e254 503e db39 94bd 604c 95bd 9d14 fb3d
000002a0: bb07 203d 22c9 c5bd bf2b 703c c89e 533e
000002b0: e397 ee3d 3ba0 07be 894d f5bd 0417 0a3e
000002c0: 14ab 1dbe a39b 9cbd e8d9 aabc 460c 43be
000002d0: df30 61be 5ea8 d23c 7b1a c1bd 468e bf3b
000002e0: a41b 1fbe 6ffa 3d3d 5207 15bd 8a96 97bb
000002f0: aa97 debb f3ac 443c e832 963d 5501 c2bd
00000300: fb2a bd3d ea0c 06be 58ee 083c e6d3 a23c
00000310: 512e c8bc ad65 aebc c6f9 063d 470b 843d
00000320: d983 8fbd c038 403e 417b 22be e0de 433d
00000330: 8d60 25bd 1e2e f5bd 8a5e fabd d1ca a23d
00000340: 7a62 1cbe 222c c8bb 9fb8 ca3d d99e 2ebd
00000350: 280c 99bd ceb1 71bd c62e 463e aef9 f43d
00000360: 768f 163e e51f c1ba 99ea d03d 6502 eabc
00000370: 5465 a5bc 6986 f7bc 2ed1 deba 7cae 27ba
00000380: 54c1 313d ce70 86bd 70eb f8bd d115 46bc
00000390: 97c8 d6bd 45c9 e1bc 9bba 453e de3c e4bd
000003a0: 0fbf 02be 43a9 833d 0aa4 e53d d297 6abd
000003b0: e4cd 8ebd e7f7 f2bc b591 f9bd f36b 28bd
000003c0: 36d1 ad3d f6a6 08bd 2198 aa3b bc6c 13bc
000003d0: 40c3 02be 5bf2 d3bd 20ea c7bd f07d 61bc
000003e0: 52b9 e4bb 130c 5dbd 14af 99bb d4aa cd3c
000003f0: 99e5 933d e795 e4bd ff3d 223d 1194 22be
-0.038943835 0.08220562 -0.11345639 -0.13812286 0.15092464 -0.017512709 0.031510275 0.18131106
0.01096649 0.039543968 -0.03208298 0.042791706 0.005969324 -0.03713863 0.12352902 -0.023482768
-0.12886831 0.030343551 -0.09758717 -0.10200307 -0.048951626 -0.10005593 0.039691225 -0.03378245
-0.022339107 -0.23989335 0.045114264 0.0827269 -0.034240685 -0.08231376 -0.113963895 0.027620325
-0.09345171 -0.013663047 0.06979163 0.027379492 0.0054875696 0.089143924 -0.040879577 -0.072499275
0.009218291 -0.081536636 -0.006170342 -0.12227875 -0.117444195 -0.07383027 0.06145667 -0.13108033
0.043583553 -0.04747484 -0.09612774 -0.014684501 0.020156225 0.014587298 -0.06680952 0.006677574
0.12166866 -0.069423884 0.028199779 -0.007715974 0.06724799 0.042622983 0.03863052 -0.10871347
0.09026288 -0.05205563 0.12402755 -0.06664779 0.06450449 0.122942194 0.00039510487 -0.046973746
0.14836271 0.041801035 0.046681963 0.11741845 0.014431435 -0.024716944 -0.017295077 0.0100793755
0.2022446 0.017746268 0.10715968 -0.055039138 -0.00993256 0.045594428 0.13260742 0.12601241
-0.029603954 -0.022805976 0.06641592 0.007886237 -0.10516399 0.13317402 -0.0062885513 0.072415926
0.013327932 0.1241718 -0.16996786 0.109000355 0.019646922 0.1225836 -0.011561175 -0.0018526075
0.0017563376 0.046406735 0.046999358 -0.0090948595 -0.08985458 0.018938592 0.04480533 -0.032585703
0.073164135 0.03777766 0.19584435 0.062282667 0.003262508 0.0036721656 0.05927201 0.09899328
-0.09991018 0.07833004 0.17393602 0.073315464 -0.05817562 0.0150487 0.070447825 -0.08306528
-0.062197685 0.0072562373 -0.080370076 0.085789226 -0.17727365 0.118803024 -0.08800638 -0.019636042
0.13634057 -0.05022113 0.05738066 0.031754002 0.05510303 -0.01842969 -0.036992054 -0.11132907
0.012594003 -0.043986022 -0.1344648 0.029702231 0.08043246 -0.08505855 0.088814214 -0.03437245
-0.095547184 0.04929875 -0.15661982 0.077106774 -0.04023451 0.013281926 0.11629231 0.085123956
-0.01860387 0.06706188 0.027904341 0.119768254 0.2034488 -0.072375976 -0.07289958 0.12259791
0.039069872 -0.09657504 0.014658867 0.20666039 0.11650064 -0.13244717 -0.11977679 0.13485342
-0.15397292 -0.07646873 -0.020855859 -0.1904765 -0.21991299 0.02571505 -0.09428879 0.0058458177
-0.15537888 0.04638141 -0.036383934 -0.0046261 -0.006792982 0.012004125 0.07333928 -0.0947291
0.092367135 -0.13090864 0.008357607 0.019876432 -0.024436148 -0.021288717 0.032953046 0.064474635
-0.0700757 0.18771648 -0.1586733 0.047819972 -0.04037528 -0.11971687 -0.12225063 0.079488404
-0.15271941 -0.0061087767 0.09898495 -0.042631958 -0.07473022 -0.05900746 0.1935378 0.11961685
0.14703164 -0.0014734237 0.10200996 -0.028565595 -0.020189919 -0.030215459 -0.0016999596 -0.00063965446
0.043397263 -0.065644845 -0.12154281 -0.012090162 -0.10487478 -0.027561793 0.19309466 -0.11144422
-0.12768196 0.064287685 0.112129286 -0.057273693 -0.06972864 -0.029659225 -0.121859945 -0.041118573
0.084871694 -0.03336235 0.0052061235 -0.008998092 -0.12769794 -0.1034896 -0.09761453 -0.013762936
-0.0069800997 -0.053966593 -0.0046900604 0.025105871 0.07221527 -0.11161404 0.039609905 -0.15876795

network_body._body_endoder.seq_layers.0.bias f4 [256]
00000000: a2f6 9d3c 8280 363c cf74 cf3b 4991 863b
00000010: 00d3 733b 597e db3b b954 96bb cb30 b9bb
00000020: 03ed 9d3b 092d d9bb ea97 4cba ca64 703c
00000030: 4e4c 933c bbc1 003c 3b8a 9e3c 8d6a 24bc
00000040: f160 1fbc 91b6 7f3c 3204 24ba 47ad a03c
00000050: 29e9 8d3c 551d 40bc 563f c03c 199c 7d3c
00000060: 80e6 2b3c eae2 523c bc25 cc3c fb2c b93c
00000070: 1ff1 7d3c 348d 143c 0e27 da3c c58b a83c
00000080: 7b2b 2ebc 5528 383b 09f2 983c b6b8 823c
00000090: 422f bb3c 448f dfba 22c8 713b 21f7 5d3c
000000a0: 78d0 5b3c 1a4b c13b a118 713c 5c41 85bc
000000b0: e30e 2c3c ae23 373c 2ba3 a13c 0e1d 5e3c
000000c0: 83e4 8b3c 68e6 ab3c 3ee8 bd3c b17b b93c
000000d0: b020 233c 951f ce3b 6dbe 653c 319c 953b
000000e0: 2c1d 323c d179 c63b 4d95 d23c e27d b33c
000000f0: b1b1 473c cfde 8a3c 756e 103c 6dbf 733c
00000100: 737a be3c f231 123c 2fcf c73c 82f5 22bc
00000110: 3592 ab3b 59c7 a93c 7da7 4b3c 60d8 743a
00000120: 8f98 7f3c 6322 123b 8567 953c c6d5 9d3b
00000130: dd0d 46bc 1cf9 75ba 6f0d b13c 75f4 3e3c
00000140: b291 283c 18c6 813c 2cdd 63bb a235 c43c
00000150: 6833 9c3c c283 19bc 20db 663c 6617 0a3b
00000160: 39fd 213c c6a4 933a 7032 b63c 0712 423c
00000170: ccea 80bb 10c3 9e3b 6a47 763c 9a32 8c3c
00000180: 5512 903c 575d 953a 8367 0dba 0459 3a3c
00000190: 1d4d c4bb 2e6a a53c bb83 b73c 7813 983b
000001a0: 50bc 483c c14f b63c 062a dbbb abd7 c13c
000001b0: 7f76 9c3c f188 9c3c 62fa 8f3c dd0e b63c
000001c0: 1c67 2fbc 4ebe 72bb 29a8 be3c 869f eebb
000001d0: 91f9 18bc 43c5 1e3c 19e0 863c acef 193b
000001e0: 8cc7 4b3a 4ddc 673c 4466 e9bb 141e 793b
000001f0: 2ff3 543c f1cc a83c 934b 7a3c 5260 fa3b
00000200: 1c78 c73b b123 7c3c c9b5 303c ddbb 913c
00000210: 1a04 a13c 8296 9abc 7100 583c 4c5d 1fbc
00000220: 0e1a 033b 5753 2cbc abce 40bc 5d89 833c
00000230: d922 753a d8e3 3cbb bc1d b73c 3592 a93c
00000240: f4a9 1cbc 91ff f53b eb51 ea3c 7d01 963c
00000250: 0aef 8f3c d1ad 7c3c 8e59 d23c 13c9 4f3c
00000260: ea59 883c 9cd5 cf3c 765c 56bc 33c5 ad3b
00000270: a7d5 6e3c cfbf b73c 4a8c 443c 2e51 bd3a
00000280: 76b5 6a3c ecb1 2d3b e863 b5bb 9c9a d4ba
00000290: d315 9c3c 6d57 a93b 1f44 403c 6fc1 833c
000002a0: a987 103c bdeb 5b3c a021 e23c 4034 153c
000002b0: 9a4d 723c a932 b73c ed19 f03b 1882 743c
000002c0: 4d7d 37bb 90e1 133b 8fa2 993c f7aa b3bc
000002d0: d521 893c dba6 423c 1a59 6f3c c79e 0a3c
000002e0: 0219 5f3b efd3 413b fc8f 133c 66a4 7d3b
000002f0: 108e 2b3a cceb 8f3b 6aa3 653b 38dc 6a3c
00000300: 2d16 133b 08cf 7dbc d339 9fbb 19de 2c3c
00000310: 17e0 bf3c 9ca6 5d3b 1c53 59bb 61dc 69bb
00000320: 7c46 863c 00a5 e93b b581 ba3c c66d 0c3c
00000330: b793 593c 67bf 3b3c 9d2e ce3c c4b8 02bb
00000340: 83e7 203c 388b b83b a5d6 8b3c 7919 a3bb
00000350: 3498 833c d7ce 923c 19d8 b33c f675 af3c
00000360: e379 803c 9ace 7b3c 7a59 6bbc 09e6 44ba
00000370: 04e8 073b 8692 b23c b2ad b23c aa7f 843c
00000380: 625f 893c 2f36 c23c 8dbe 653c 9a9f 633c
00000390: dd2e 5fbc 912f 06ba 4dab 1bbc 8b2c d03b
000003a0: 33a4 3e3b 7bcd 20bb 1fc1 453c 3b9c 073c
000003b0: c0b0 a43c 5c4d 233b 0531 20bb c093 553c
000003c0: 7610 0b3c 6f12 933b c035 023c ec84 84bc
000003d0: 4ab2 9639 6389 943c 83e8 493c 0dde 31bb
000003e0: 7454 033c 6b50 9d3c 99d9 ba3c d6b6 6b3b
000003f0: ce87 243b 87ed 503c 55e2 9d3c bc6c 593c
0.019282643 0.011139037 0.0063310633 0.004106675 0.0037204623 0.0066984114 -0.0045877364 -0.0056515685
0.0048195138 -0.006627683 -0.00078046194 0.0146724675 0.01798072 0.007858689 0.019353023 -0.010035169
-0.0097277025 0.015607492 -0.00062567287 0.019613875 0.017323093 -0.011725743 0.0234677 0.015479111
0.010491967 0.012871483 0.024920337 0.022604456 0.015499382 0.009066869 0.02662995 0.02057446
-0.010630484 0.0028100212 0.018670099 0.015957218 0.022849683 -0.0017056246 0.003689297 0.01354769
0.013416402 0.0058988454 0.014715345 -0.016266517 0.010501596 0.01117794 0.019731125 0.013556732
0.017076736 0.02098389 0.02318203 0.022641988 0.009956524 0.006290386 0.014022452 0.0045657386
0.010871213 0.006057002 0.025705958 0.021910612 0.012188361 0.016951947 0.0088153975 0.014877182
0.023251748 0.008923041 0.024390785 -0.009946229 0.005235935 0.02072494 0.012430069 0.0009340104
0.015600338 0.0022298328 0.018237839 0.0048167435 -0.012088266 -0.00093831285 0.021612851 0.011654963
0.010288643 0.015841529 -0.003476928 0.023951355 0.019067481 -0.009369792 0.014090329 0.0021071075
0.009887033 0.0011264316 0.022240847 0.011845118 -0.00393424 0.0048450306 0.015031675 0.017113972
0.017586866 0.0011395615 -0.00053941476 0.011373762 -0.005990638 0.020192232 0.022401681 0.0046409927
0.012251928 0.022254827 -0.006688359 0.023662409 0.019099472 0.019108268 0.017575447 0.022223884
-0.010705736 -0.00370397 0.023273544 -0.0072822003 -0.009336845 0.009690586 0.01646428 0.0023488803
0.000777357 0.014151645 -0.0071227867 0.0038012313 0.012997433 0.020605536 0.015276807 0.007640877
0.006087316 0.015389369 0.010785528 0.017789776 0.019655276 -0.018870596 0.013183699 -0.009726834
0.0020004543 -0.010517917 -0.0117680235 0.01605671 0.0009351201 -0.002882233 0.022353046 0.0206996
-0.009562004 0.0075072725 0.028603515 0.018311257 0.017570037 0.0154223 0.025677469 0.012682217
0.016644437 0.025370412 -0.013083568 0.005303049 0.014577306 0.022430329 0.011996338 0.0014443749
0.01432549 0.0026503755 -0.0055355914 -0.0016220394 0.019053375 0.0051678927 0.011734991 0.016083447
0.008821406 0.013422904 0.027603924 0.009106696 0.0147890095 0.022363024 0.0073273093 0.014923595
-0.002799827 0.0022564866 0.018754272 -0.021932108 0.016739765 0.011880602 0.014608646 0.008460707
0.0034042005 0.0029575785 0.0090064965 0.0038702725 0.0006544301 0.004392123 0.003504003 0.014334731
0.0022443638 -0.015491255 -0.004859188 0.010550999 0.023422284 0.003382123 -0.003316111 -0.0035684335
0.016391031 0.0071302652 0.022766927 0.008571094 0.013279847 0.011459208 0.025168711 -0.0019946555
0.009820822 0.0056318305 0.017070124 -0.004977402 0.016063787 0.017920895 0.02195363 0.021418553
0.01568312 0.015369082 -0.014364595 -0.00075110846 0.0020737657 0.021798383 0.02181134 0.016174156
0.016769115 0.023707477 0.014022482 0.013893032 -0.013622013 -0.0005118782 -0.0095012905 0.006352966
0.002908957 -0.0024536538 0.012069969 0.008276994 0.020103812 0.0024917936 -0.002444328 0.013035715
0.008487811 0.0044882814 0.007947385 -0.016176663 0.00028743065 0.018131917 0.0123235015 -0.002714041
0.008015741 0.019203385 0.022808837 0.0035967133 0.002510536 0.012751943 0.019272963 0.013270553

network_body._body_endoder.seq_layers.2.weight f4 [256, 256]
00000000: a072 91bb fef7 003c 1686 4fbd e0da 5f3d
00000010: 76aa 553d 44dd 063d bf9c 433d 7ab8 373d
00000020: 226a bcbd a9d5 b83d 63f8 a63c 034c 213d
00000030: 4357 38bc 09d3 d93d 6185 0f3d 64d9 b33d
00000040: 75d2 cdbc cbad 87bc d4b0 173c 5928 913d
00000050: 1b50 a83c 6501 a0bd 6b23 323d 93eb 243e
00000060: 66c8 ae3c d87b 3e3d e33b b83d 3ad4 e3bd
00000070: 62f5 263d a878 043d ae98 ac3d 38e5 eb3d
00000080: e226 b43d a0e6 81bb 319a 9b3d 311b 433e
00000090: 1e1e 5d3d 25b5 1fbd 60ab 03be a998 033e
000000a0: 159e 8cbd 7b96 e73d b745 0c3d d39e 53bd
000000b0: 0f65 81bb bbda 313d f365 98bd 4095 a33d
000000c0: 30ca bc3d c013 c3bd 4f48 a53d d18f 12bd
000000d0: 27d5 6fbd 7171 433d 3e4f ab3d 6f93 9bbc
000000e0: dda9 333e ceca a23d 382b 633d a9fd adbd
000000f0: a666 1ebb 5a00 3fba e2e3 b3bd a3df 71bc
00000100: 372d 26bd 6fcc cbbb e518 1ebd 253c fa3c
00000110: 0374 88bc 92bd 633a cc3c b5bc 225f 29be
00000120: cc12 cfbd aa7c 57bd 96cc 7fbc 3a3e e93c
00000130: 08cc 34bd 2fe3 3cbc 79aa 473d 4114 0b3e
00000140: ade8 8dbd 2a5a 84bd 6e5a bd3c e0fd 173d
00000150: d0fa b1bd d29b 09bd 087a c03c 0c6b 9dbd
00000160: 0243 a5bb 4723 053d 85f8 583c c855 d63d
00000170: 9cb9 babc bb45 a6bc 7963 5d3d 1734 39bc
00000180: e433 e3bc 339f 5a3d b77e 91bb dae3 283e
00000190: d325 283d 6934 eb3b c848 23bd c5c0 3a3c
000001a0: 583b 893d e564 5abc 040f bcbc e359 eb3c
000001b0: ff5f 103e f0e9 023e e038 713d 9ade 0ebd
000001c0: 53ab c03d abff 9cbb 2b20 a13d eeaf 15bd
000001d0: 8a01 3a3c 2733 473d 6cb9 d73c d5c1 a13d
000001e0: 8bf4 d83c dbc1 59bd b9f2 41bd 0696 40bd
000001f0: 82c6 1d3b 79a3 653d fa33 df3c c0e3 14bd
00000200: 3fd8 393d 0ccb b73c 33d0 ac3b acf8 313d
00000210: 8293 09be 758f ddbd 9599 e2ba 733b 07bd
00000220: 95e9 1a3d 44d7 c7bd 83f3 783c e002 9c3d
00000230: e92f e33d 53e1 1bbe 8663 1abd 6938 3d3e
00000240: f08c b33c f7c2 bfbd c6a8 133d 923b 3e3a
00000250: 7805 23bd b289 35bb 1ad5 053e 4dd9 a73d
00000260: 1202 603e 0a37 5f3d 9332 8b3d 9a77 4a3c
00000270: d959 08bd 4ecd b13d 567b ebbd 2f8d d13c
00000280: d883 ad3c 3a2c ffbb 7522 763d 1c0c 2e3d
00000290: 1ec5 193e b045 763b 59a9 2e3d ebd3 1f3d
000002a0: a915 f33d 5fa8 073e e59e 503a 0c85 ed3d
000002b0: 4f60 8bbd 6623 0a3c 0d09 543c 340d a7bd
000002c0: 077e 97bc d322 173d afaa a03d 71f8 38bd
000002d0: f9f3 34bd 224c 593c 048d 103d 0bd2 fbbc
000002e0: c751 773d b321 c83d c4ea 12bb 58b3 223d
000002f0: b844 473d 7bda 8d3d 5463 d1bd d83a 413d
00000300: 1be7 b03d e217 723c 9558 833d 1529 293d
00000310: fd5c 80bd c40a 65bc 9e56 c2bd 3cf9 b1b9
00000320: b6a2 b43d 6597 dfb9 0eec f23b 283e d63d
00000330: 7f10 f3bc caae 543b ad97 f03c cbd0 603c
00000340: 5bde 9abd ece5 8d3c f299 c83d 1983 003d
00000350: ca30 9abd a875 523d 5b0b e13c 72dc 0e3e
00000360: 781f fd3d 6291 813b e0c5 5a3d dd1a 603d
00000370: 784a c63c a57e e5bc 8d91 9fbb ecaa 32bb
00000380: c371 533d c934 5b3c f95d 3fbd a328 1c3e
00000390: 8662 debd 0d3a 0ebd fab7 6ebd 45e4 b7bd
000003a0: bd90 e53d 1360 3dbd 601d 45bc 4e53 21bd
000003b0: 74f3 66bd f1ae 2fbd f631 e63d 44f8 16bd
000003c0: 9371 4c3d 1bb0 29bd db77 c83c 862e 0bbb
000003d0: 26fb 9a3d 9a94 6c3c 7fa0 ecbc 4042 98bd
000003e0: 4503 e73c c145 033e cae2 1f3d 23d6 77bc
000003f0: d0de e83d 4f77 c33c b0c3 97bd 7344 bdbd
-0.004438713 0.007871626 -0.050664984 0.054652095 0.052164517 0.03292586 0.047756907 0.044853665
-0.09199931 0.090251274 0.020382112 0.03937913 -0.011251274 0.10635955 0.03503931 0.08781698
-0.025124768 -0.016562363 0.009258468 0.07087774 0.02054601 -0.07812766 0.04349081 0.1610549
0.021335792 0.046504825 0.089957975 -0.111244634 0.04076136 0.03234163 0.08427559 0.115183294
0.08796479 -0.00396426 0.07597769 0.19053341 0.0539838 -0.038991112 -0.12858343 0.12851204
-0.06866089 0.11307999 0.034246173 -0.05166514 -0.0039488147 0.04342149 -0.0744132 0.079874516
0.09218252 -0.095252514 0.080704324 -0.035781685 -0.058552887 0.047715608 0.083647236 -0.0189912
0.17545266 0.07948838 0.05546114 -0.084956475 -0.002417007 -0.0007286124 -0.087836996 -0.014762792
-0.040570464 -0.0062194387 -0.03859796 0.030546257 -0.016656881 0.0008687611 -0.022123717 -0.16540197
-0.10111007 -0.052609123 -0.015612742 0.028472055 -0.044139892 -0.011528774 0.04874656 0.13581945
-0.06929145 -0.0646251 0.02311441 0.03710735 -0.08690417 -0.033595867 0.023495689 -0.07686433
-0.0050433883 0.032504346 0.013242845 0.1046558 -0.022793584 -0.020296922 0.054049943 -0.011303923
-0.027734704 0.05337448 -0.0044401544 0.16493168 0.041051697 0.0071778786 -0.03986433 0.011398499
0.06700772 -0.013329719 -0.022956379 0.028729385 0.1409912 0.12784553 0.05889213 -0.03488026
0.094076775 -0.00479122 0.07867464 -0.036544733 0.011352906 0.048632767 0.026333533 0.07898299
0.026483795 -0.05316339 -0.04735062 -0.047018073 0.0024074619 0.056064103 0.027246464 -0.03635001
0.045372244 0.022435687 0.0052738427 0.043450043 -0.13435176 -0.10818378 -0.0017288203 -0.03301568
0.037820417 -0.097578555 0.0151947765 0.07617736 0.110931225 -0.15222673 -0.03769257 0.1847855
0.02191779 -0.093633585 0.036049627 0.00072568015 -0.039800137 -0.002770048 0.13069573 0.08195744
0.2187579 0.05449585 0.06796756 0.012357617 -0.03328881 0.08681737 -0.11498134 0.025580017
0.021181032 -0.0077872546 0.060091455 0.042492017 0.150166 0.0037578158 0.04264197 0.03902046
0.11869366 0.13247822 0.00079582474 0.11597642 -0.06805479 0.008431291 0.012941611 -0.08156815
-0.018492712 0.036898445 0.07845055 -0.045158807 -0.044177983 0.01326278 0.035290733 -0.030739805
0.060380723 0.097720526 -0.0022417763 0.039721817 0.04864952 0.069264375 -0.102240235 0.04717526
0.0863783 0.014776202 0.0641338 0.041298945 -0.06267736 -0.0139796175 -0.09489177 -0.00033945765
0.08820097 -0.00042646672 0.007413394 0.10461074 -0.029670952 0.0032452815 0.0293692 0.013721655
-0.07561942 0.01732155 0.09794988 0.031375024 -0.07528837 0.051381737 0.027471235 0.1395128
0.12359518 0.0039540986 0.053411365 0.05471312 0.024205431 -0.02801449 -0.004869646 -0.0027262522
0.051622164 0.013379284 -0.04672048 0.15249877 -0.108586356 -0.03472333 -0.058280922 -0.08979086
0.11209247 -0.0462342 -0.012030929 -0.039386086 -0.05638452 -0.042891447 0.11239998 -0.03685786
0.049913 -0.041427713 0.024471214 -0.0021237447 0.07567434 0.014439726 -0.028885124 -0.07434511
0.028199801 0.12819578 0.039034642 -0.015126738 0.11370623 0.023860602 -0.07410371 -0.09241571

network_body._body_endoder.seq_layers.2.bias f4 [256]
00000000: ee24 b63c d4dd 85b9 a920 04ba 930c c23b
00000010: 9181 be3c 2ddd 9dbb 20ca 093c a0b8 dabb
00000020: 10a3 5c3c 5e67 bb3b 76d9 123c ae87 a1bc
00000030: c614 d83b ec54 84b8 a18c c13b 504a c7bc
00000040: cc9e d13c cc08 a3bc f480 3f3c f081 7a3c
00000050: 9b20 5a3c 3fd8 b73c 06d6 c53c 4600 0bbc
00000060: ef1f 7abc bc75 ce3c 7e19 2fbc 50ae 283c
00000070: c0be 19ba c68e 603c d78f 1e3c 71f5 8a3c
00000080: 86dd 9dbc ad3d 3a3c d5f1 a33c 9f4e 1a3c
00000090: d889 8ebb 3939 93bc 0e47 543c 9b53 9d3b
000000a0: cf84 3a3b aaf2 4a3b 355a d63b 45b9 913b
000000b0: 1df7 343c 6d0c 96bb a70e e33c 0bae cfba
000000c0: f24c 073c 7765 39bc 0976 32bc 27de 3dba
000000d0: d297 433b 00c4 d1bb 0731 c73a cbac a4bb
000000e0: 8638 e13b cb2b 5e3c baff 483c 527c 563b
000000f0: 3186 40ba 0dd6 c0bb 6446 56bc 6f4f 173b
00000100: c19a af3c 4482 11bc 7087 45bc 026b 6ebc
00000110: d047 8f3c 581d 2d3b be53 813c 539c 063c
00000120: 6bed b73b a81d 79bb 7190 8dba b89e a8bc
00000130: be66 883c e6d2 843c 83e3 b73c 6282 a23b
00000140: 1538 453c b2a0 673b 8e38 9d3c c79d ab3b
00000150: b6bc a1b7 37e5 14bc 68f2 00bc 30bb 5b3c
00000160: aa2d 993b b179 373c 42f4 113c 1e86 8a3c
00000170: 2fb3 2d3b 49e6 af3c 8f69 8b3c 8c08 7839
00000180: 51d5 553c f9af a13b dc7c a3bb b5c0 693b
00000190: 82cd 593c 11fc 00bc d1fc 4b3c 1e54 c43a
000001a0: c6d4 43ba b76e ab3b a790 6bbb 4082 4f3c
000001b0: ac1e 6e3c 3052 093c 4795 3fbc 0b2f a43c
000001c0: dc70 383c 9409 3a3c d45f 0b3b cb2d ca3a
000001d0: 0242 233c c1a2 0fbc ea91 683c b964 703c
000001e0: 32f7 bf3b 6906 d63c 2f6f b23c 3350 69bc
000001f0: aea4 edb8 f402 75b7 f2ac 8dba 801a a53c
00000200: b063 663c 6cc2 ed3b 5658 68bc 7c28 1ebc
00000210: b0c6 463b aeae 8f3c 3d5f a93c 6506 bfbc
00000220: 235e 30bc 54d7 5d3c ce7d 403c 946c 9ebb
00000230: bc46 a3bc 90e1 ec3c 9bb4 8a3c cbc4 5a3c
00000240: 958e 60bc 7e71 b8ba e425 903c 44d2 a93c
00000250: 6e78 383c 84d9 a4ba 7fb9 99bc c3a8 1d3c
00000260: e3fa a93b e243 793c 139e bf3c bb5a e3b9
00000270: a237 4b3c e9d6 d53c f33d a03c 3382 e73b
00000280: 7762 db39 fe8a 063c 8ad6 223c f4ff fe3b
00000290: 5521 77ba ba2d 243b 6389 303c 0ea3 c63c
000002a0: 1ee7 2ebc 3c5a d33c 366f b13c c150 a73c
000002b0: 8e0e 9a3c 3c6f da3c 6496 d33c bb30 943c
000002c0: 88d2 633a 2968 163a ee83 64bc 940a 8c3c
000002d0: 9ecb a6bb 52d2 dfbb 8e30 44bc e4c9 d73c
000002e0: d7f2 48bb 9b50 ab3c 4147 903c d35f 83bc
000002f0: 62dd 623c 06e9 b13c 8c98 ad3b b8c9 d63c
00000300: 808c 673c f4ab 7ebb 0b12 77bc 7613 633c
00000310: cf54 d3bb 70c7 67bc dcde 653c c18b 253a
00000320: 30cd b63a 2fe6 80bc 06b5 d63b c872 513a
00000330: a89f 1e3c 7e16 443b 3530 b13c 0544 10bc
00000340: e6b9 a03c 4f85 0cba 7c6e 343c 07d9 7e3b
00000350: 5956 13bc ca31 003c d404 f33c ee15 983b
00000360: d755 093c bb3b 9ebc 8d39 393c e01b 78b9
00000370: 36cb 033c 9b5f 66bb 6eb9 a7bc 2d47 793c
00000380: 8479 423c 64ba fd3b b4a5 fc3b 0252 433b
00000390: 1adf 1c3c a91b 293c e538 883c 9b46 8b3c
000003a0: e31c 913a 23d0 3cba 40ba aa3c 6e79 a43c
000003b0: 7e0c 42bc f968 523b 5e58 733c 7d14 983c
000003c0: b87a f7bb d392 033c c9c0 7dbc dc4c d1ba
000003d0: 2cc5 d13b bbbf 6a3c 8ec4 9b3b c17a 4fbc
000003e0: 1254 3b3c c154 713b 7881 81bc 5134 ac3c
000003f0: 8e8c 093c a2a8 763c c0bc 383c d6fd 083a
0.022234406 -0.00025533012 -0.0005040267 0.005921909 0.023255141 -0.004817626 0.008410007 -0.006674841
0.0134666115 0.0057191094 0.00896298 -0.019718017 0.0065942733 -6.3100684e-05 0.005906657 -0.024327427
0.025588416 -0.019901656 0.01168846 0.015289769 0.013313438 0.022441981 0.024149906 -0.008483952
-0.015266403 0.025202624 -0.01068723 0.010295466 -0.0005864911 0.013705915 0.009677849 0.016962739
-0.01927067 0.011367244 0.020012775 0.009418159 -0.0043499283 -0.017971622 0.012956394 0.0048012263
0.0028460508 0.0030967393 0.0065415152 0.0044471347 0.0110452445 -0.004579118 0.027716948 -0.0015844716
0.008258091 -0.011315695 -0.0108924 -0.0007242881 0.002984513 -0.006401539 0.0015197106 -0.0050254813
0.006873193 0.013560246 0.012268001 0.003272791 -0.0007344215 -0.005884892 -0.013078306 0.0023088118
0.021436097 -0.008881155 -0.012056217 -0.01455188 0.017490298 0.0026415195 0.015787002 0.008215982
0.005613019 -0.0038012061 -0.0010800493 -0.020583495 0.016650554 0.016213845 0.022447353 0.0049593905
0.012037297 0.0035343585 0.019192006 0.0052373144 -1.9280571e-05 -0.009087852 -0.007870294 0.013411328
0.004674633 0.011198447 0.008908333 0.016909655 0.0026504507 0.021472113 0.017018108 0.00023654307
0.013051347 0.0049343077 -0.0049892496 0.003566784 0.013293626 -0.007872597 0.012450413 0.0014978682
-0.00074703654 0.005231704 -0.0035944374 0.012665331 0.01453368 0.008381411 -0.011693305 0.020041963
0.0112573765 0.011354823 0.0021266835 0.0015425024 0.009964468 -0.008766831 0.014194945 0.014672452
0.0058583254 0.026126103 0.021781532 -0.014240312 -0.000113317146 -1.4603826e-05 -0.0010808988 0.020154238
0.014061853 0.007255843 -0.014181217 -0.009653207 0.003033083 0.017539348 0.020675296 -0.023318479
-0.010764631 0.013540108 0.011748744 -0.004834721 -0.01993119 0.02891615 0.016931823 0.013352583
-0.013705869 -0.0014071909 0.017596193 0.020730145 0.011259181 -0.0012577032 -0.01876521 0.009622755
0.0051873787 0.015213938 0.023390805 -0.00043364413 0.012403401 0.026103454 0.01956079 0.0070650815
0.00041844297 0.008211849 0.009938845 0.007781977 -0.0009427269 0.002505167 0.010774943 0.024247672
-0.01067522 0.025799863 0.021659475 0.020424249 0.018805768 0.026664369 0.025828548 0.018089643
0.00086907344 0.0005737567 -0.01394747 0.017094888 -0.005090191 -0.006830492 -0.011974467 0.026341386
-0.0030662322 0.02091246 0.017612102 -0.016036903 0.013846727 0.02171756 0.005297726 0.026219234
0.014132619 -0.0038859816 -0.015079985 0.01385962 -0.006449319 -0.014146671 0.014030185 0.00063150754
0.0013946649 -0.01573476 0.0065523414 0.0007989821 0.00968162 0.0029920633 0.021629432 -0.00880528
0.019619893 -0.00053604407 0.01101267 0.0038886683 -0.008992755 0.007824371 0.029665388 0.004641286
0.008382282 -0.019315591 0.011305225 -0.00023661507 0.008044055 -0.00351522 -0.020474162 0.015214724
0.011869792 0.0077431668 0.007710183 0.002980352 0.009574676 0.010321536 0.016628692 0.01700144
0.0011071231 -0.00072026456 0.020840764 0.020077433 -0.011843799 0.0032106026 0.014852611 0.018564457
-0.007552471 0.008030611 -0.015487858 -0.001596834 0.0064016785 0.014327939 0.0047536558 -0.012663544
0.011433618 0.00368242 -0.015808806 0.02102104 0.008395327 0.015054854 0.01127547 0.0005225813

action_model._continuous_distribution.log_sigma f4 [1, 3]
00000000: 7def 01bb b072 ab38 2f45 ae3b
-0.0019826584 8.1752776e-05 0.005318306

action_model._continuous_distribution.mu.weight f4 [3, 256]
00000000: 2ad1 a83c 08a3 5c3b 22bd 68b8 9cb6 9c3b
00000010: 9066 89bc f515 96bc 258a 08bc e2aa b2b8
00000020: 2e94 18ba 1c71 d83c d11e 19bc 4cb6 baba
00000030: 755c bb3c fa88 d83a 6799 dcbc 6794 12bb
00000040: c7f4 a8bb fd63 6c3c aa24 ae3b 42cb a53c
00000050: e9be 8ebc d84e ee3b f3c1 143c bbe0 48bb
00000060: 4738 06bc 935d 1bbc 658a 813a a616 00bc
00000070: 1af7 263c 1832 acbb 574f c13c 7a46 febb
00000080: dfae 503c 01dc f0bc d254 9bbc 3539 0abc
00000090: 4eb3 74bc a477 693c e22d 843c a1f7 203c
000000a0: b0cd cfb9 7b51 c43c 1fa5 903c af2c 0ebc
000000b0: e1af c03c 2d2d 073c d082 e8ba 52f6 afbc
000000c0: 3ef8 81bb 7289 3b3c 484f 04bc 3727 413c
000000d0: 7de5 ad3b 7546 f4bb 09c6 88bc 8283 c9ba
000000e0: d4b0 443c ab4e 2f3c 9929 bc3c 0e25 ed3c
000000f0: 7e05 983c ac27 c13c 9667 1abc 9681 a33b
00000100: 7227 a7bc 4ec2 893c 9554 793a bc36 79ba
00000110: 849a f43b 2805 59bc 3246 83bc 6386 d3bc
00000120: ed6c 163c 2c51 5ebb 11e2 9f3c 675e 803b
00000130: 8a6c 083d 6c96 003d 0a3e 12bc 6665 573c
00000140: 2308 383c 685f 503c 3ea7 ad3c 8566 443c
00000150: a1a9 983b 43af 0cbc b942 34bc 2364 81bc
00000160: d4c6 33bc c9c8 a33c 133c a3bc 0da2 af3c
00000170: 732b a6bb e7ec 713c 010f 9d3c 46fb 36bc
00000180: c46c 45bc 1349 443c 1a93 7739 3bf2 163c
00000190: f251 abbc 7791 85bc fcba 843b fe8e 3c3c
000001a0: 9725 1b3c 3a12 753c 3385 703b fa9c 643c
000001b0: 7095 8c3b 39f2 41bc b57f 24bc 4ce4 873b
000001c0: c31c a33c a017 95bc cd3f ffbb 611a 2ebc
000001d0: a7f5 26bc 18ab a53c 1068 92bc 9f24 013b
000001e0: 50be e1bc 8da8 9c3c f95c 983c 82e7 8fbc
000001f0: 4fe4 053d bd97 fbbc 2df7 9c3c 1aca 86bc
00000200: d3d8 873b 8ea8 32bc 82ab 573c 22d2 e33b
00000210: 6d28 2abb bc3f aa3b 9c82 1d3b 3e9b c6ba
00000220: 14a1 70bb ba9e d4bb 882b d13c a378 4c3c
00000230: fd13 32bc 7c5f aa39 7d15 473c e320 a63a
00000240: fa67 68ba af2d 17bc a246 5abc e8f7 e5b9
00000250: d62c 94bc 0c4d e73b 71b5 943b 7fc0 4a3c
00000260: ae4e 283b 5611 c53b 75e2 7dba 2141 88bc
00000270: 6ac8 19bc 6471 d4bb 59c7 833a 3610 02bc
00000280: e5d7 ae3c 2eb4 d43c 049e 18bc d233 3bbc
00000290: 9dd7 803c 21b8 9e3b 246d 10bc 9f84 5e3b
000002a0: 8566 5bbc 9fa5 683b 6ad6 b1bb ffc9 adbb
000002b0: 0446 e83b dbd4 7e3b f592 f33b 0e26 1fbc
000002c0: cd06 b4bb 0a9d 32bb b33d 84bc c9ac 98bc
000002d0: b078 123d 8971 ecba 8eee b83b aeb8 0dbb
000002e0: 6b66 2d3b 4945 5b3b 9f25 b8bc 7c27 76bc
000002f0: f653 87bc b937 343c e5d3 a83b 983b 0e3b
00000300: a57c 0b3c e96f 46bb 2f2c 9a3c 8960 e93a
00000310: 6b40 9e3c 80a9 003b 612c ecba 30d9 b8ba
00000320: b7d1 63bc 916b e33b d657 edbb 8aa1 9ebc
00000330: 50e5 8d3c 3563 d03c 703f 9cbb a325 373c
00000340: d727 923c 8907 95bc 4813 6b3c 2265 95bc
00000350: 7138 143c 703d 953c 03a5 013a 26ed 813c
00000360: 14e8 17bc aef6 f03b c444 26bc d09a 22bb
00000370: 6540 b7bc 94d2 7ebb 716b 31bc 4941 01bd
00000380: e465 abbc 3c07 7abc 9334 5dbc db92 1b3c
00000390: 6b1c c4bb 2041 553c 8902 103b 0877 22bc
000003a0: df08 86bc 3fa4 d63c f965 183c 9c8c 9f3b
000003b0: f6a8 713c 0cd3 3f3c 14c9 863c 16f4 aebb
000003c0: 0e19 8d3c 4c3a 61bc 509d 313b 9b7b be39
000003d0: 209c 163c 6abc 7ebb 7770 abbc 21a7 debb
000003e0: 8bd2 633a 88b9 23bd 4d86 973b defe 053c
000003f0: 2853 543c 849e 33bb 0f4b c3bc 492b efbb
0.02060755 0.003366651 -5.5489254e-05 0.004782511 -0.016772538 -0.018321017 -0.0083337175 -8.519531e-05
-0.00058204203 0.026421122 -0.009345726 -0.0014245003 0.022871235 0.0016520314 -0.026928617 -0.0022366287
-0.005156133 0.014428136 0.0053144293 0.020238522 -0.017425017 0.0072725825 0.009079444 -0.0030651528
-0.0081921285 -0.009482759 0.0009883164 -0.0078179 0.01019075 -0.005254995 0.023597402 -0.0077598663
0.012737005 -0.029401781 -0.018961344 -0.008436491 -0.014935328 0.014249716 0.01613516 0.009824664
-0.00039635366 0.023964634 0.01765686 -0.008677646 0.023521366 0.008250517 -0.001773918 -0.02147976
-0.0039663604 0.011446344 -0.008075543 0.011789135 0.005306898 -0.007454688 -0.016695993 -0.0015374275
0.01200505 0.010699908 0.022969054 0.028948333 0.018557306 0.023578487 -0.009424111 0.004989813
-0.020404551 0.016816285 0.00095112 -0.0009506752 0.0074647088 -0.013245858 -0.016024683 -0.025820917
0.009181243 -0.0033922894 0.019516977 0.0039175036 0.033306636 0.031393453 -0.008925924 0.013146734
0.011232409 0.012718059 0.021197911 0.011987333 0.004658893 -0.0085867075 -0.011002236 -0.01579482
-0.010972697 0.019993203 -0.019926107 0.021439577 -0.0050710975 0.014765955 0.019172193 -0.011168307
-0.0120498575 0.011980313 0.00023610555 0.009213026 -0.020913098 -0.016304715 0.0040506106 0.011508701
0.009469411 0.014957959 0.0036700487 0.013953442 0.0042902753 -0.011837536 -0.010040213 0.004147088
0.019911176 -0.018199742 -0.007789588 -0.010626406 -0.010190404 0.020223185 -0.017871886 0.0019705666
-0.027556568 0.01912334 0.01859902 -0.017566446 0.032688435 -0.030712003 0.019160831 -0.016453791
0.0041457205 -0.010904444 0.013163449 0.00695254 -0.0025964037 0.005195586 0.0024034148 -0.0015152467
-0.0036717104 -0.0064886482 0.025533453 0.012479934 -0.010869023 0.00032496068 0.012151119 0.0012674596
-0.00088655914 -0.0092272 -0.013322504 -0.00043862988 -0.018087786 0.0070587453 0.004538231 0.012374996
0.0025681662 0.0060140295 -0.0009684929 -0.016632618 -0.009386161 -0.006483244 0.0010053917 -0.007938435
0.02134318 0.025964823 -0.009315018 -0.011425929 0.015727812 0.004843727 -0.008815084 0.003395356
-0.013391142 0.0035499108 -0.0054271715 -0.005303621 0.0070884246 0.0038884196 0.00743329 -0.009713663
-0.005493975 -0.0027254247 -0.016142702 -0.018637078 0.035759628 -0.0018039207 0.0056436723 -0.002162497
0.002645875 0.0033458045 -0.022478877 -0.015024062 -0.016519528 0.010999613 0.005152213 0.0021703
0.008513604 -0.0030279106 0.018819897 0.0017805259 0.019317826 0.001963228 -0.0018018597 -0.0014102813
-0.01390498 0.006940313 -0.007243137 -0.019364137 0.017321259 0.02543793 -0.0047683045 0.011178407
0.017841263 -0.01819207 0.014347859 -0.0182367 0.00904666 0.018217772 0.0004945548 0.015860151
-0.00927164 0.0073536253 -0.010148231 -0.0024811514 -0.022369573 -0.0038882839 -0.010828839 -0.0315564
-0.020922609 -0.015260514 -0.013501304 0.009495462 -0.005984833 0.013016015 0.0021974167 -0.009916075
-0.016361652 0.026201366 0.009301656 0.004869057 0.014749756 0.011708032 0.016453303 -0.005339156
0.017223861 -0.013746809 0.0027101822 0.00036331717 0.009192497 -0.0038869628 -0.02092765 -0.0067948257
0.0008690736 -0.03997186 0.004624164 0.008178441 0.012959279 -0.0027407715 -0.023839502 -0.007298861

action_model._continuous_distribution.mu.bias f4 [3]
00000000: ebc0 28ba 88ac 21b8 a3cd 1ebb
-0.00064374384 -3.8546073e-05 -0.0024231456

action_model._discrete_distribution.branches.0.weight f4 [7, 256]
00000000: 3cb1 9b3c 75da b9bb f884 b33c 2e8e c03b
00000010: c929 993c dcaa e1bb 2483 333c d2fe 15bc
00000020: 9a93 ac3c 49d7 053b d592 9b3c 7e4f c8bc
00000030: 5d09 e93b f559 45bb 414f 963c 325b 6dbc
00000040: 31a8 713c c5da a8bc 30bf 8f3c 546b 8a3c
00000050: e7b0 9c3b 2b80 7e3c 9dac 9d3c 3626 5dbc
00000060: 1798 21bc 1007 c03c 05d1 523a 6522 553c
00000070: 20f1 d8bb dada 433c 1eef 883c 2ea8 a43c
00000080: 8cfa 8fbc e841 333c 3f08 8d3c 49bf 133c
00000090: 1e89 943b e488 51bc 2086 b73c 3e3a 623b
000000a0: 0fad 02bc a33a ba3b 8f0f 0e3c 246f 97ba
000000b0: 300b 283c 4e18 41bc ef19 9a3c 2b4c c7ba
000000c0: fc56 c73b b5e6 77bc 9a62 ffbb ea91 b9bb
000000d0: e48f ccba 475e 0fbc 8911 213c 6444 28bc
000000e0: d4c6 743c 4066 1e3c 2ca9 a53c 193d 0b3c
000000f0: 485f 90bb 5559 f7bb 7332 38bc 75c2 bf3c
00000100: 4842 9f3c c6bb b53a a91a 78bc 65dd 77bb
00000110: 83df 193c fc73 893a 8de5 2d3c a7f9 683c
00000120: dc1f 913b 50f7 9bbb b952 aa3b 2ec9 88bc
00000130: 6761 be3c c2e3 1e3c 6aef bf3c 666c 55bb
00000140: fa1f ce3b 633e 393c f945 7f3c 0d60 fcba
00000150: 5cef b23c 722f c4bb fa00 3bbc f26e ca3b
00000160: 36b8 f6b9 9ca5 033a 5065 6b3c 04c7 563c
00000170: f768 c83b b876 b53c a887 2f3c 89cb ac3b
00000180: 454e 183c 0f27 253c e7bd f2bb 99a1 173c
00000190: 83b2 fe3c 78e9 f8bb 55e9 4f3c 050e ec39
000001a0: b344 573b 112e 8f3c ccc1 c53b 0f54 ef3a
000001b0: bbbd c93b b63b 7a3b 19bd 02bc 897a 513c
000001c0: d820 973c 754f 793c 66ac e83b 4173 c73a
000001d0: 4252 683c f123 a2bc 1e77 4f3c 79b9 573c
000001e0: 9e46 a53c a5dc 533c efa7 fe3c fe63 81bb
000001f0: 0c77 0bbc c1ec c63a 9978 7a3b 89f7 873c
00000200: 6969 57b9 5d70 113c 5b30 00bd 038b ebbb
00000210: de99 a9bb c11a 823c bb90 d33c 798c 8cbc
00000220: 3905 f33b 4ba4 5c3c c207 dc3a 7fd5 b53b
00000230: 41fc 43bc 61eb a13c 6901 2e3c 43ff 1e3c
00000240: 50fd 6fba b68f 77bc 1aaa 433c b4bc 083c
00000250: a2db 9e3b f785 0c3b 4810 a5bc 845d 0f3c
00000260: 09f4 213c 3519 5c3c 0ab4 ae3c 4c57 d23b
00000270: 48e5 293c d3e8 973c 44e2 923c 84ee 2fbb
00000280: b134 62bb 0cb8 843c e2eb 733c 4bea 9c3c
00000290: 4e6e 863a c342 80bc 9a9b 5d3c 34ea 323c
000002a0: f622 6fbc b1ea 963c fb89 813c 0c69 cc3b
000002b0: d3c7 213c 7cd8 cd3c 6c76 763c fc51 433c
000002c0: 6f7b 593a b638 0e3b 2594 03bc 2b68 a03c
000002d0: 23d8 0fbc 2567 51ba 3102 543b 854b 843c
000002e0: 9840 e53a fcab 613c 1e5a c43c 8c2d d5bb
000002f0: ec13 9a3c 638d 1c3c 77a5 823c 7d6e 703c
00000300: c31f 813c 0215 9ebc 3aa0 b9ba cec5 ca3c
00000310: 73b5 f1bb fee8 65bc eeb9 1e3b 44b1 153c
00000320: 1934 723c 899f 8cbb 7556 243c ae0d 8b3b
00000330: 5266 953b c575 a4bc 1c44 7d3c 8c20 463a
00000340: 26c1 673c ddd7 023c f572 e23b 70f0 713c
00000350: 28d6 5a3c 4676 9f3c 4363 f83c 3bd8 113b
00000360: 669d 263c 58a4 48bc 8064 d33c 8a0c 21bc
00000370: ca89 a13b 1939 4f3b 8ebf 8cbc f926 573c
00000380: 0468 ef3b ef77 873b 6d49 d73b 4ab9 363c
00000390: 1428 653c 1f1b fd3b b288 813c 9dc9 de3b
000003a0: 6a8f bd3b 3210 43bb 736d 8b3c 738f 203c
000003b0: cfd4 e7ba 522d 38bc 5d3c b13b 55d5 933c
000003c0: 6420 8bbb 7e40 80bb 1f06 afbc b4a3 37bc
000003d0: 6878 c43a e691 df3b dcc7 393c 85a5 85bc
000003e0: c7ba 1a3c 2fa2 133c e1eb 80bc 30f4 a43c
000003f0: bb61 293c 9da3 933c a288 153c 3820 75bc
0.01900541 -0.005671794 0.02191399 0.005876324 0.018696683 -0.006886823 0.010956559 -0.009154992
0.021066476 0.002042251 0.018990913 -0.024451967 0.007111712 -0.0030113433 0.018348338 -0.014487075
0.014749573 -0.02061213 0.01754722 0.016896881 0.0047818306 0.015533487 0.019247347 -0.01349788
-0.009862921 0.023440868 0.00080420106 0.013008689 -0.006620541 0.011954034 0.016715582 0.020099726
-0.017575525 0.010941006 0.017215846 0.009017774 0.004532947 -0.012788985 0.022402823 0.0034519578
-0.007975831 0.0056832596 0.008670702 -0.0011553508 0.010256574 -0.01178558 0.018811194 -0.0015205195
0.0060833674 -0.015130688 -0.0077937366 -0.0056631463 -0.0015606848 -0.008750505 0.009830841 -0.010270212
0.014939982 0.009667933 0.020222269 0.008498454 -0.0044058897 -0.007548491 -0.011242497 0.023408154
0.019440785 0.0013865165 -0.015143075 -0.003782117 0.009391668 0.0010486837 0.010613811 0.014219678
0.0044288468 -0.0047597066 0.0051978496 -0.016697492 0.023239804 0.009697856 0.023429591 -0.0032565831
0.006290433 0.011306378 0.015580648 -0.00192547 0.021842651 -0.0059871012 -0.011413807 0.0061777765
-0.00047058024 0.0005021931 0.0143674165 0.013108972 0.0061160284 0.022151336 0.010713495 0.0052732867
0.009296005 0.010080113 -0.007407892 0.0092548365 0.03109098 -0.007596191 0.012689908 0.00045023873
0.0032847344 0.01747802 0.0060350653 0.0018259304 0.006156651 0.0038182563 -0.007979655 0.012785562
0.018448278 0.015216698 0.0071006296 0.0015216843 0.014179768 -0.019792529 0.012662677 0.013166779
0.020175274 0.012931024 0.031085936 -0.0039486876 -0.00851227 0.0015176759 0.0038218854 0.016597526
-0.00020543266 0.008876887 -0.031296115 -0.0071882023 -0.005175813 0.015881898 0.025825849 -0.017156826
0.007416394 0.013466905 0.001678698 0.0055491324 -0.0119619975 0.019765558 0.010620453 0.009704414
-0.0009154873 -0.015109947 0.011942411 0.008345772 0.0048479596 0.0021442154 -0.020149365 0.008750323
0.009884843 0.013433744 0.021326084 0.006419098 0.010369606 0.018543636 0.017930157 -0.0026845047
-0.003451627 0.016201042 0.014887782 0.019154688 0.0010256262 -0.015656834 0.013525868 0.010920096
-0.014595738 0.018422456 0.015812865 0.0062381085 0.009874302 0.025127642 0.015042882 0.011921402
0.0008296286 0.0021701283 -0.008030926 0.019580921 -0.008779558 -0.0007988087 0.003234994 0.016149292
0.0017490564 0.013773914 0.023968752 -0.0065056738 0.018808328 0.009555194 0.01594804 0.01467478
0.015762215 -0.019297127 -0.0014162131 0.024752524 -0.0073763668 -0.0140326 0.002421971 0.009136502
0.014782929 -0.004291479 0.010030379 0.004243574 0.0045593167 -0.020075688 0.015458133 0.00075579504
0.014145171 0.007986036 0.0069106766 0.014766797 0.013356723 0.019465577 0.03032077 0.0022254128
0.010169363 -0.012246214 0.025804758 -0.00982965 0.004929756 0.0031619726 -0.017181184 0.01313185
0.007306101 0.0041341702 0.0065700323 0.011152575 0.013986606 0.0077241804 0.015812252 0.0067989365
0.0057849186 -0.0029764292 0.017019963 0.009799826 -0.0017687323 -0.011241274 0.005408807 0.01804606
-0.0042458046 -0.003913938 -0.021365223 -0.011208463 0.0014989497 0.0068228124 0.011339154 -0.016314277
0.009443945 0.009010836 -0.015737476 0.020135969 0.010338242 0.018022353 0.009126814 -0.014961295

action_model._discrete_distribution.branches.0.bias f4 [7]
00000000: 00c4 9d3c a2d0 9bbc b709 a9bc e6fd 99bc
00000010: e531 aabc 0fc3 a53c c801 a43c
0.0192585 -0.019020382 -0.020634515 -0.018797826 -0.020775745 0.020234613 0.02002038

onnx::Div_90 f4 [84]
00000000: 7653 5a3b f85d f93e 20f0 fb3e 537c 5d3e
00000010: 7653 5a3b 77be fd3e db09 ff3e 2d62 633e
00000020: 7653 5a3b 0efc f13e 0612 f63e bd8d 573e
00000030: 7653 5a3b 038d ff3e a0f9 ff3e d0d1 693e
00000040: 7653 5a3b 41cb e73e b6e2 ed3e 4528 523e
00000050: 7653 5a3b 3100 003f 1dcb ff3e 133b 703e
00000060: 7653 5a3b df77 dd3e 34a9 e53e ce1d 4e3e
00000070: 7653 5a3b adf1 ff3e fa6e ff3e 5804 753e
00000080: 7653 5a3b 3bba d43e 74b6 de3e 5c9f 4a3e
00000090: 7653 5a3b 50e4 ff3e 4b50 ff3e ea37 793e
000000a0: 7653 5a3b d8e3 cd3e c7ea d93e 0ded 493e
000000b0: 7653 5a3b 5aec ff3e 0d63 ff3e c191 7c3e
000000c0: 7653 5a3b dbfa c93e d23a d83e b952 4a3e
000000d0: 7653 5a3b 86f5 ff3e 9686 ff3e 8ec5 7e3e
000000e0: 7653 5a3b 7e22 c83e 5cde d73e e0cb 4b3e
000000f0: 7653 5a3b 20fb ff3e 1c98 ff3e 416a 803e
00000100: 7653 5a3b 48a8 c73e bd0b d83e f596 4d3e
00000110: 7653 5a3b affe ff3e 0694 ff3e 7250 873e
00000120: 7653 5a3b cc41 c83e 67b0 d83e 3155 513e
00000130: 7653 5a3b 12eb ff3e 25cd ff3e c805 883e
00000140: 7653 5a3b f475 ca3e 529b da3e 833d 553e
0.0033313907 0.48704505 0.49206638 0.21629457 0.0033313907 0.49559376 0.49812207 0.2220542
0.0033313907 0.47262615 0.48060626 0.21050163 0.0033313907 0.4991227 0.49995136 0.22833943
0.0033313907 0.45272258 0.4646203 0.20523174 0.0033313907 0.5000029 0.4995965 0.23460035
0.0033313907 0.43255517 0.44855654 0.20128557 0.0033313907 0.4998907 0.49889356 0.23927438
0.0033313907 0.41548333 0.43498576 0.19787353 0.0033313907 0.49978876 0.49865946 0.24337736
0.0033313907 0.40212893 0.42561933 0.19719334 0.0033313907 0.4998501 0.49880257 0.24664976
0.0033313907 0.394492 0.42232376 0.19758119 0.0033313907 0.49992007 0.49907368 0.24880049
0.0033313907 0.39088815 0.42161834 0.19901991 0.0033313907 0.4999628 0.49920738 0.25081065
0.0033313907 0.38995576 0.42196456 0.20077117 0.0033313907 0.49998996 0.4991762 0.26428562
0.0033313907 0.391127 0.42322084 0.20442654 0.0033313907 0.49984032 0.499612 0.2656691
0.0033313907 0.39543116 0.42696625 0.20824246

onnx::Div_96 f4 [37]
00000000: 0b1f 4041 1b12 4b3d 41bf 4e41 7653 5a3b
00000010: 9db0 923e 7653 5a3b 6fda 9341 4e34 673b
00000020: d8e2 9741 7653 5a3b c7ca 953e 7653 5a3b
00000030: 851b f93d 2b9d 113e 18e2 de3e 08d1 f23e
00000040: 7653 5a3b e9e2 de3e 7653 5a3b de57 9b3f
00000050: 7653 5a3b 2908 a83f f7cb 323f 606c 5a3b
00000060: 16e0 363f 8ee5 933e d08f 5c3e b78f 5c3e
00000070: 1af7 4c3e def6 4c3e fa91 0a3e c51d 7c3f
00000080: f872 943e 7358 2f3f 1a11 4b3d e3a3 3b41
00000090: 72cf 933e
12.007579 0.049577814 12.921693 0.0033313907 0.2865037 0.0033313907 18.481657 0.0035278979
18.985764 0.0033313907 0.2925627 0.0033313907 0.12163452 0.14220111 0.4353187 0.47425103
0.0033313907 0.43532494 0.0033313907 1.213619 0.0033313907 1.312749 0.69842476 0.0033328757
0.7143568 0.28886074 0.21539235 0.21539198 0.20016137 0.20016047 0.13532248 0.98482925
0.28993964 0.6849434 0.049576856 11.727511 0.28869206
