results/WiencjeHpObrazeniaOdAreny/BoxingAgent.onnx (onnx, 409187 bytes, 13 tensors)

network_body.observation_encoder.processors.0.normalizer.running_mean f4 [84]
00000000: 0000 0000 6503 1f3f 3cae 983e d078 3f3f
00000010: 0000 0000 9d0f 1f3f d92d 993e 113d 3f3f
00000020: 0000 0000 1d4d 1f3f 218b 983e a4ca 3f3f
00000030: 0000 0000 7aea 203f 280e 963e 44f2 3e3f
00000040: 0000 0000 33bb 1f3f d53d 983e 6705 403f
00000050: 0000 0000 7a27 243f d681 903e 7a9d 3e3f
00000060: 0000 0000 0ffc 203f 61ad 963e 8e1e 403f
00000070: 0000 0000 da55 273f f15a 8a3e 8103 3e3f
00000080: 0000 0000 6ed8 233f 7acc 923e 013b 403f
00000090: 0000 0000 4384 2a3f 9307 843e 5c5d 3d3f
000000a0: 0000 0000 c540 273f 3a3c 8c3e 9bce 3f3f
000000b0: 0000 0000 2e2a 2d3f 9e6b 7d3e 7696 3c3f
000000c0: 0000 0000 3a61 293f 2d28 893e d71a 3f3f
000000d0: 0000 0000 1be0 2e3f 6136 793e 38fc 3b3f
000000e0: 0000 0000 717d 2c3f 1144 833e 8f09 3e3f
000000f0: 0000 0000 5b91 303f 922d 753e b250 3b3f
00000100: 0000 0000 4588 2e3f 3566 7e3e dde0 3c3f
00000110: 0000 0000 2c96 2f3f 132a 6a3e 8e4a 373f
00000120: 0000 0000 8e7b 313f a050 723e 5374 3b3f
00000130: 0000 0000 3a58 323f 80aa 613e 7de0 353f
00000140: 0000 0000 4223 343f 06aa 683e 493a 3a3f
0.0 0.62114555 0.2982043 0.7479372 0.0 0.621332 0.2991779 0.74702555
0.0 0.6222704 0.29793647 0.7491858 0.0 0.6285778 0.29307675 0.7458842
0.0 0.6239502 0.29734674 0.75008243 0.0 0.64122736 0.28224057 0.7445904
0.0 0.6288461 0.29429153 0.7504662 0.0 0.65365374 0.27022508 0.74224097
0.0 0.6400212 0.28671628 0.7509003 0.0 0.66608065 0.2578703 0.7397058
0.0 0.65333205 0.273897 0.7492463 0.0 0.67642486 0.24748084 0.73667085
0.0 0.6616398 0.26788464 0.7465033 0.0 0.6831071 0.2433715 0.7343173
0.0 0.6737891 0.25637868 0.74233335 0.0 0.68971795 0.23943165 0.73170006
0.0 0.6817668 0.24843676 0.73780614 0.0 0.6858852 0.22867613 0.71598136
0.0 0.69329154 0.23663568 0.7322437 0.0 0.69665873 0.22037697 0.71045667
0.0 0.703663 0.22721109 0.72745186

network_body.observation_encoder.processors.2.normalizer.running_mean f4 [37]
00000000: adf2 be3e 4d85 6d41 148f 63c1 2efa 15b1
00000010: 1f39 fb3e c28e 3831 cb08 fc3d 9b55 5f38
00000020: a6cf f0bd 8afb f230 58ce 003f 47a6 ec2e
00000030: 55df 393f 2189 313f 8bf4 a33e f5ac 643e
00000040: 8f9a b13e 1c05 2e3f f1f8 5b3e beed 9b3b
00000050: 0000 0000 0bb3 773d 1b4f 323c fd48 b736
00000060: ed90 a2bb fdf8 873e 1f2a fc3e 53ea 013f
00000070: 2e34 fe3e 58e5 003f b09a 8e3d 126d 163e
00000080: 16e4 0d3f fc1f 8c3d 4d85 6d41 2657 4841
00000090: 6d6a 003f
0.37294522 14.845044 -14.222431 -2.1824564e-09 0.49067017 2.6856672e-09 0.123063646 5.324707e-05
-0.11758356 1.7679309e-09 0.50314856 1.0761574e-10 0.726064 0.6934987 0.3202251 0.22331603
0.3468823 0.67976546 0.21481682 0.0047585657 0.0 0.060473483 0.010883118 5.462322e-06
-0.004961124 0.2655715 0.49250886 0.50748175 0.49649185 0.5034995 0.06963098 0.14690045
0.55426157 0.06842038 14.845044 12.521276 0.5016239

network_body._body_endoder.seq_layers.0.weight f4 [256, 121]
00000000: ad02 a93d 8ddf 83bc 87f9 e43c feb3 06bc
00000010: d508 023e 3dcf e33c e751 9b3d 8f81 b2bd
00000020: 2271 543d 6cdf 50bd baf6 ddbb 7b5c 9c3d
00000030: 9fd3 413d 69ab b6bd 96ea e73c 6d23 893c
00000040: 08be 84bd ec80 d2bc 0030 1e3e 8363 d53d
00000050: fc2c 613c 6cb0 e43c 0443 193e beb6 1fbd
00000060: 6040 d73d 77d2 babd 50e7 3c3d c442 1dbe
00000070: 084b be3d fdcd 79bd 5a7a e6bd 391e f4bd
00000080: f82a 88bc 34f9 1c3e 6125 86bc eb37 ca3c
00000090: 7d4b c4bc c38c a7bd 31a5 0bbd 10d1 21bd
000000a0: 8885 0fbe 55b2 c6bb 2181 123e 0ede 2cbb
000000b0: 5844 55be 001e bd3d 94b6 acbc 279f 493d
000000c0: 05e4 32bd 00c0 11bd d9e0 9d3d e54c 113e
000000d0: d230 0dbe 8bdb 10be b5d3 cf3d 4ed6 0bbe
000000e0: afd3 463d 078c 083e de3f 2fbd b97f 96bb
000000f0: 232f c6bd 4d1c d6bd 6e70 febd 23c0 893d
00000100: 5912 493e 98f1 893e 18ef 47bd 5e47 e3bd
00000110: 3722 a8bd a918 ac3c 9a1f 393c 4ee5 1ebd
00000120: 9de9 0a3e 861d ce3d 5835 ccbd 5f33 abbd
00000130: c686 a93d 1542 c33c 0984 a1bd 5b44 613d
00000140: dc34 193d 7076 303d 53c4 2cbd 66ad 8e3d
00000150: 11d6 14be 0ab0 d3b9 eb86 6bbd 9449 72bc
00000160: b966 d83d 08bd d93c b7b3 963d 463e 353c
00000170: 9eb8 87bd 1c19 e9bd 58a3 bf3c ac52 d93d
00000180: b2f3 943d 77f7 19bd b8fa 4f3d 6699 c83d
00000190: 7277 063d cf24 823c 3bc9 443c 361f 3e3d
000001a0: 0237 69be 2558 793b cfc2 043d 66d8 b3bc
000001b0: 77f7 aa3d 8397 fcbd c9ff 263e 1605 f53d
000001c0: 3ed9 f4bd 6208 e63d 44eb 91bd f0a4 2abe
000001d0: 8ef7 96bd 76ed 59bd d2db 45be 971a ef3d
000001e0: 4ea5 8fbd 90ab 813b ed16 15be 9ba3 a1bd
000001f0: cdde 3fbe df1d 4abc 8e9c 6e3c c916 493d
00000200: 9a87 7a3d 914e 803d 7ca0 80bd 2cca 703d
00000210: 61ea 833d a56d f53d bffb 7c3c 025d 123e
00000220: 2c19 b73a 4558 05bd 667a 843d 2deb 253e
00000230: bd94 ccbd 5b5f a3bd 45d6 32be 5110 0bbe
00000240: 86be c7bc 6680 423d fa13 3d3e 0c8b 18bc
00000250: 877d 8bbd 35fd 1f3c efdf 8f3c 4315 17bc
00000260: 8c76 01bd a08b 4fbd 08b4 a2bd baac 86bd
00000270: ecd3 22be 99cb 92bd b7f8 04bc d954 0b3d
00000280: 3461 34be bd12 093c 1690 2abc b167 a6bd
00000290: 9ef7 01be 5cd3 a23d 1ccc 16be 1b19 11be
000002a0: 16f2 b4bd 46bb 3abe 2b35 4dbd 12b7 f3bd
000002b0: 25b1 8cbc 0611 47bd 8921 3abd 30c0 ba3c
000002c0: 3b09 12be 855c 8f3d 44fc 11be 4531 8aba
000002d0: 0818 1fbd f4e7 2fbc 4f86 f93c 1988 1cbe
000002e0: 9b84 2b3d 5667 453c 2cd0 75bc 4c83 153d
000002f0: 3575 8cbd 99a7 0abd ce1a b83d 245b 5ebe
00000300: 65c9 02be 4e6b 20be fb5d bd3b f9f1 5d3d
00000310: df02 a4bd 9261 553d bb08 c13d 28ea f4bc
00000320: 2cf8 603d 0c89 523e 6277 e2bd 1cc4 81bd
00000330: 0900 af3d a226 9a3d 24ff 83bd 31f3 553d
00000340: 42eb b4bc 0246 683d c11e c13d c790 e93d
00000350: 4070 df3c 063c c0bd 6ed7 52bd 8096 cbbd
00000360: 11fe efbd d800 d53d b5f1 e1bd c77f 0d3d
00000370: cbdc 6f3e aa79 cf3d 7aed bb3d 4b71 25be
00000380: 7209 b43d 995a 4ebe 465c e43a b400 c6bd
00000390: b619 69ba 0fec e23d d7f0 bdbc 23ed 37bc
000003a0: cd7a c53d 445d e0bd 6f3c dabd 6303 493c
000003b0: 6e21 d1bd a9ee e5bd e203 d3bd 1c20 dd3d
000003c0: 1a22 0c3d 8eff 23bc 758c e03d 80ec c5bc
000003d0: ce1e da3d 39dc 2b3e 22ab 98bd 8a2e b0bd
000003e0: 2168 973d 9f74 abbb 95b3 653d 32a6 c53d
000003f0: 4345 c53d 7716 493d 3302 c6bd 69ea d1bd
0.082524635 -0.016097808 0.027951015 -0.008221624 0.12698682 0.02780878 0.07583981 -0.087161176
0.051865704 -0.05099432 -0.006773797 0.07634827 0.04732096 -0.08919413 0.028310101 0.016740525
-0.06481558 -0.02569624 0.15447998 0.10419371 0.013743635 0.027916156 0.1496697 -0.038992636
0.105103254 -0.09122174 0.046119034 -0.153575 0.09291655 -0.06098746 -0.112538055 -0.11919827
-0.016622052 0.15329438 -0.016375246 0.024684867 -0.023961777 -0.08181145 -0.034093086 -0.03950602
-0.14015782 -0.0060637393 0.14307071 -0.0026377472 -0.20826852 0.09234238 -0.021083154 0.049224045
-0.043674488 -0.035583496 0.07708902 0.14189489 -0.13788155 -0.14146249 0.10147802 -0.1365597
0.04854172 0.13334666 -0.042785518 -0.0045928624 -0.09676959 -0.10454617 -0.12423788 0.067261
0.19635905 0.26942134 -0.048812002 -0.110975966 -0.08209651 0.021007853 0.011299038 -0.0387929
0.13565679 0.10064225 -0.09971112 -0.08359408 0.08277659 0.023835221 -0.07886512 0.05499683
0.037403926 0.0430817 -0.042179417 0.06966667 -0.14534785 -0.00040376215 -0.057501715 -0.01478805
0.10566468 0.026579395 0.07358497 0.01106221 -0.0662701 -0.11381742 0.023393318 0.106114715
0.07273044 -0.037589516 0.050776213 0.097948834 0.032828756 0.015886692 0.012010868 0.046416484
-0.2277489 0.0038046923 0.032412346 -0.021953773 0.083479814 -0.12333586 0.16308512 0.11963861
-0.11955498 0.11232068 -0.071249515 -0.16664481 -0.07371436 -0.053204976 -0.19322136 0.116749935
-0.07013951 0.0039572194 -0.14559527 -0.078925334 -0.18737336 -0.012336223 0.014563693 0.049093995
0.061164476 0.06264985 -0.0628061 0.058786556 0.064411886 0.11983804 0.01544088 0.14293292
0.0013969294 -0.032554884 0.06468658 0.16202994 -0.09989307 -0.07977172 -0.1746455 -0.13580443
-0.02438284 0.04748573 0.18464652 -0.009310495 -0.06811052 0.009764959 0.017562835 -0.009221378
-0.031607196 -0.050670266 -0.079444945 -0.06575914 -0.15901154 -0.071677394 -0.008115939 0.034016464
-0.17615205 0.008366284 -0.010410329 -0.08125246 -0.12692115 0.0795047 -0.14726299 -0.14169733
-0.08835237 -0.18235502 -0.050099533 -0.11900152 -0.017174313 -0.04860022 -0.045442138 0.02279672
-0.14261334 0.070000686 -0.14256388 -0.0010543248 -0.038841277 -0.010736454 0.030459551 -0.15286292
0.04187451 0.012048563 -0.015003245 0.036502168 -0.06858293 -0.03385124 0.089894876 -0.21714455
-0.12772138 -0.15665933 0.0057790256 0.05418584 -0.0800836 0.052095003 0.09425493 -0.02989681
0.054924175 0.20560092 -0.11057927 -0.06336233 0.085449286 0.075269 -0.064451486 0.05223388
-0.022084836 0.05670739 0.09429694 0.11404567 0.027275205 -0.093864486 -0.05147498 -0.09940815
-0.11718381 0.104005516 -0.1103243 0.034545686 0.2342407 0.101306275 0.091761544 -0.16156499
0.08790864 -0.20151748 0.0017422519 -0.09668103 -0.0008892076 0.11080181 -0.02318613 -0.011225971
0.09642563 -0.10955289 -0.10656058 0.012268874 -0.10211454 -0.112271614 -0.10303475 0.1079714
0.03421221 -0.010009659 0.1096429 -0.024160624 0.10650407 0.16783227 -0.07454516 -0.086026266
0.07392908 -0.005232408 0.056079466 0.0965084 0.09632351 0.04909369 -0.09668388 -0.10249788

network_body._body_endoder.seq_layers.0.bias f4 [256]
00000000: 5549 573b 937a 483c 773b d63b f071 af3b
00000010: ecc7 123c 0299 0fbb 19d9 243c 858f 83bb
00000020: c2f6 893b 5aa0 0bbc c872 7f3b 9fdc 213c
00000030: a04f 85ba 8360 0abb 936f 2b3b 8b0f 9b3a
00000040: 993a eb3b 855b ea3b 17f1 0cbc ddb2 b63b
00000050: ed77 a33a 4e51 6abb 6c04 e93b ead2 adb9
00000060: fa01 47bb fd64 703b 4dff 07ba c4a6 7a3b
00000070: 63c8 bc3b c496 003c 52e5 4a3a 3de2 273c
00000080: 7ac3 edbb fefa 263c 8355 7ebc 26c4 553c
00000090: e23a 8ebb 8e57 493c 9aee 7739 eecb 343c
000000a0: e644 0f3b 2a21 3c3c 513d 08bc b46a d23b
000000b0: 0b31 c83a a3d6 c13b c58e e73b 663b 033c
000000c0: 70c9 37bc ce89 b03b b10b d7ba 6002 633c
000000d0: 398c 4539 2317 fb3b 1fa3 343c 3458 30bb
000000e0: c39d 513a a515 923b 5688 e5b9 0c4a 8e3a
000000f0: 3e54 8a3c fcb1 b9ba 05c3 fb3b cf52 ae3b
00000100: 71ef 363b a4c2 003c f074 d4ba d20c f13b
00000110: 6f54 2b3c de48 d63a 6c61 1f3b 6563 f23b
00000120: 691c ad3b 1b74 933b 56d4 b1b8 2687 fb38
00000130: aa5c 903b d5fc d63b 396b a83b e825 b33b
00000140: a18d a83a 7d40 0c3b b9b7 02bb b38a 403b
00000150: a747 59bc 53d6 753b c67e e9ba d286 da3b
00000160: 337b 253b 47c0 063c c0f8 973b 0846 483c
00000170: 65a1 cf3b e176 b83b 692b bb3b 208e 783b
00000180: 209f 083c 34be 1e3a 6d76 53ba d571 bf3c
00000190: 6241 4f3a 3f0f 4a3a ab96 8dbb e807 273b
000001a0: 2466 8ebb 5fcc 8f3b 9b1a 803c 4ace 593c
000001b0: 2ae5 863b 94d9 6d3c 60ca cc3b b7a4 983b
000001c0: 7c14 9e39 2d12 853c efb7 73ba d2ad b63b
000001d0: aada f23b 7271 e53b 6c82 8b3b addc 053c
000001e0: 3606 0e3b cc98 eeba 657f 133c 5767 2e3b
000001f0: 7998 75bb cd8b 30bb d9c2 1dbc 98de 9a3b
00000200: 7cbc e43b dac8 7ebb 3a90 e23b e83f 9ab9
00000210: 4bce feb8 a3f3 173c c784 163c 834b 113c
00000220: 2a2c b13b 9866 fdbb 8ca2 a7ba 1416 283c
00000230: facf 03bb 2c1b 9838 06ab 683c 04c3 193c
00000240: 5b62 f53b 8321 3d3b 4168 ebbb cc21 493b
00000250: 52a5 f0bb 8380 973a 4b28 373c e483 613c
00000260: a334 7e3c 04e1 223c 9864 7ab8 7c82 b63b
00000270: 89f3 d6bb d866 1f3c e90b 89bb 084b 1439
00000280: 4a73 363c 1570 06ba 1b11 313b 879a db3b
00000290: 515b df3b 6e90 abbb 8292 083c 89d7 353b
000002a0: fe40 55ba d23a c8bb 6406 503c 8b5f 47ba
000002b0: 5dda d63b 3206 a5b8 b8a6 163b 05fb 363c
000002c0: 90d4 3fbc 3d16 f73b 3dfb 26bb 2a6d 873c
000002d0: 53f3 553c dace 883a 3e29 c0bb b43f 913a
000002e0: b396 7c3c 3e39 74bb b688 643a d8cf bd3b
000002f0: 7b99 903b 1f78 363c 76ec 8a3c d349 3c3b
00000300: c213 3c3a 59d5 7b3b 7e21 d43b 25ec a03b
00000310: c9d9 113c a42a c83b 07bd 3bbb 8123 d73b
00000320: ae56 453c 9a74 173c 8759 5d3b 3438 1c3c
00000330: aa68 bfba 3baa 103c 0253 373c cacc 9b3b
00000340: 633d 923b e4f4 423c 6c80 033c 2b00 2cbb
00000350: 4feb 04bc 300c 99b8 a283 2fbb cd34 9dbb
00000360: 30fc 313c 5065 08bb 2a95 433c 1ac6 a63b
00000370: 3c69 b33b 720f 6d3b 93c3 87bb 27bb babb
00000380: c660 0b3b 381d 03bb 0af3 483a 5f8f 3c3c
00000390: 61b0 f03b d6ee e839 6fb3 e33b dfcc ea3b
000003a0: 20bb edbb dd3b 3d3c 3b3a e23b b320 d63b
000003b0: 314c 5d3c 69bb 333c be65 793b c11e 11bc
000003c0: 78d9 de3b bf39 363c 3a8f 17ba 4f01 f33b
000003d0: 4a00 053c 432d 203c 4814 b9b9 6774 323c
000003e0: d0ef fa3b 40be 1d3b f39a e83b 7c45 9d3b
000003f0: f119 1a3c 2045 f4bb 1a5b fe3a 74f1 3b3b
0.0032850106 0.012236255 0.0065378505 0.0053541586 0.008958798 -0.0021911268 0.010061526 -0.0040149116
0.004210324 -0.0085221175 0.0038978327 0.00987926 -0.0010170825 -0.0021114654 0.0026159033 0.0011830194
0.0071786162 0.0071520233 -0.008602402 0.0055755214 0.0012471654 -0.0035754028 0.007111123 -0.00033154275
-0.0030366168 0.0036681287 -0.0005187884 0.0038246373 0.0057611926 0.007848445 0.000773986 0.0102468105
-0.0072559686 0.010191677 -0.015523317 0.013047254 -0.0043405155 0.012288941 0.00023644642 0.011034949
0.0021861135 0.011482516 -0.0083154 0.0064214114 0.0015273405 0.0059154793 0.00706658 0.008009767
-0.01121746 0.0053875213 -0.0016406683 0.013855547 0.00018839621 0.00766267 0.011025219 -0.0026908042
0.00079962256 0.0044581466 -0.00043779862 0.0010855808 0.016885873 -0.0014167423 0.0076831602 0.00531993
0.0027913714 0.007858906 -0.0016209166 0.0073562646 0.010457142 0.001634862 0.0024319543 0.0073971027
0.005282928 0.004499925 -8.479568e-05 0.00011993786 0.0044055777 0.0065609016 0.005139735 0.0054671653
0.0012859592 0.0021400743 -0.0019945933 0.0029379546 -0.013261712 0.003751178 -0.0017814271 0.006668904
0.0025250434 0.008224553 0.0046378076 0.012223728 0.0063363784 0.005629406 0.005711962 0.003792651
0.00833872 0.0006055564 -0.0008066658 0.023369709 0.0007906166 0.00077079603 -0.0043209395 0.002548689
-0.004345672 0.0043883766 0.015637686 0.013293812 0.004116674 0.014517207 0.006249711 0.0046583074
0.0003015137 0.016244018 -0.00092971226 0.00557492 0.0074113207 0.007002049 0.004257491 0.008170289
0.0021671182 -0.0018203496 0.009002541 0.0026611888 -0.0037474914 -0.0026938797 -0.009628975 0.0047262423
0.006980477 -0.003887704 0.006914166 -0.00029420783 -0.00012150089 0.009274396 0.00918693 0.008868101
0.005406876 -0.0077331774 -0.0012789532 0.01025917 -0.0020112977 7.252986e-05 0.014200931 0.009384874
0.0074885315 0.0028859086 -0.007184059 0.003069031 -0.0073439265 0.0011558685 0.01117904 0.013764355
0.015515479 0.009941343 -5.969833e-05 0.005569754 -0.0065597934 0.00972911 -0.004182328 0.00014142331
0.0111358855 -0.0005128396 0.0027018252 0.0067017707 0.0068163057 -0.005235723 0.008335711 0.0027746877
-0.000813499 -0.0061105276 0.012696836 -0.00076054846 0.0065567927 -7.868967e-05 0.0022987556 0.011168246
-0.011708394 0.007540493 -0.002547934 0.016531546 0.013058501 0.0010437623 -0.0058642915 0.0011081607
0.015416789 -0.0037265564 0.0008717881 0.005792599 0.0044128275 0.011137038 0.016958456 0.0028730526
0.0007174575 0.0038426726 0.006473719 0.004910963 0.008902022 0.006108599 -0.0028646605 0.0065655117
0.012044592 0.009244109 0.0033775286 0.009534884 -0.0014603336 0.008829649 0.011189224 0.0047546374
0.0044628843 0.011899207 0.008026224 -0.0026245217 -0.008112743 -7.2978786e-05 -0.002678134 -0.004797554
0.010863349 -0.002081234 0.011937419 0.0050895335 0.0054751914 0.0036172536 -0.0041431873 -0.00569858
0.0021267398 -0.002000643 0.000766561 0.011508792 0.0073452448 0.00044428435 0.0069488804 0.007165536
-0.007254973 0.011549917 0.0069039143 0.00653466 0.013506935 0.010969975 0.0038055028 -0.00885743
0.0068008266 0.011122166 -0.00057815353 0.0074159275 0.008117745 0.009776416 -0.0003530106 0.01089201
0.0076579824 0.0024069697 0.0070985495 0.004799543 0.009405599 -0.0074545294 0.0019405812 0.0028677853

network_body._body_endoder.seq_layers.2.weight f4 [256, 256]
00000000: 5837 3ebd 5ac1 edbd 582c a4bd cf54 953d
00000010: c6ac dd39 60fa c2bc 6f37 8c3d 334c 363e
00000020: f867 893c 0513 97bd 451f b03d 6ea8 073c
00000030: d9ec 063c 1f54 943c 16b2 03bd a5be 6e3c
00000040: 76f3 673d eb8d a6bc f598 783d 7197 edbd
00000050: 046e 38bd d635 14bd 4324 4fbd 6178 883d
00000060: a030 febc 4dbc cdbc b71e 533c 71dc 84bd
00000070: a16e 303d fbbf 47bd 0e27 173c ab88 823d
00000080: 7949 0ebd b229 0ebd 0d25 e13d 2564 37bd
00000090: 8158 713d 2966 95bd 8370 173e 5ea8 d1bc
000000a0: 6a83 2c3c ba4a 05bd b72f e53b 0f06 46bd
000000b0: 7ce6 a43d 17f6 b2bd 95d7 b7bd adf8 713c
000000c0: 80b1 f43d 9ce2 6d3d 19bb 6dbd c4a5 f7bc
000000d0: 7a0b 173e cd83 b03b 23db 5d3d db2f 26be
000000e0: 18b2 5abc cdd3 04bd 6e83 273d 5da6 bbbd
000000f0: 7d5e 603d 9176 d83b 96d7 593c 941e a43c
00000100: 81a4 15bd 9784 ecbb abca 11bd 9d06 303d
00000110: 2c94 fa3d 48e8 0bbc 7586 223c d0ff 8d3c
00000120: f25c 94bd b520 09bd 2f70 09bd 0217 d93c
00000130: 0670 afbb cc4d 6bbc 44f3 a8bd 8218 893c
00000140: f05d 7e3d 281d 423c a62d 9cbd 8333 973c
00000150: 3699 c7bc a39d 383d e940 74bc 446d a2bb
00000160: c157 c5bd c5d7 633d bb6e 5b3d 091b a9bc
00000170: 3a81 efbb fbb1 05bd f600 003d 7339 a4bc
00000180: 8a60 4abd 5d46 c83d cc44 163d 9fba a43b
00000190: 2b29 c03c 56e4 ec3d 81bf 8a3d 6fe1 153d
000001a0: e832 ddbd c41b 0b3c 3e06 623d 3edf 3e3c
000001b0: 76ac d13d 442b 7fbd c043 46bc be4d 9abd
000001c0: 2c04 2fbd a737 68bd 59ff 863d 8e74 893c
000001d0: 560b a23c 5d14 ba3d 58f3 69bd b50e 253d
000001e0: e670 503d 21c4 37bd f88a bcbd 9cf3 113d
000001f0: adf1 2dbc 26b1 c0bd 5112 423c d83d 823d
00000200: 1c24 34bd ffad 243d c790 e53a a68e 273c
00000210: 2ff2 3dbd 890b 473b ca06 e7bc 2f48 f43d
00000220: 2ff6 ea3c fdcb 603c 97f6 723c a9b4 ff3c
00000230: e1e6 ac3d 0007 e13d cbce db3d 77c1 cabc
00000240: e305 673d 7631 59bd e7f7 82bd c20c 3dbd
00000250: 3bf2 173d 2009 60bd ac21 453d f401 13bd
00000260: 8cb4 253d db36 be3c 2a6c 013d 2936 8cbc
00000270: d8db c93d cbe8 93bd 1b71 97bd 1e30 e5bd
00000280: 03ca b83c b42d f93c d99f 13bc c9e6 bebd
00000290: 0065 273c 7c16 db3d 16bd 89bd 760c 3e3d
000002a0: 96ad 0d3d f05e 1b3d c76f e7ba c592 cc3c
000002b0: c38f 93bd f891 f13c 5026 553d 994b 07be
000002c0: d8cd 513b e3e8 f2bd a936 54bd 3d00 e1bd
000002d0: 2b04 393d 4346 c83d 8445 923d 2333 0fbc
000002e0: 19e7 f0bc 47b5 2fbd d906 c2bc ce2b 0abd
000002f0: fb43 6a3d 553f 82bd e455 01bd 01d8 9cbd
00000300: fa6f 62bd 889a 6abd 761a 2bbd 759a fe3c
00000310: 5612 70bd 4560 2d3d c24a 833c ac7a a93c
00000320: 651e 053d f42d 43bb f0b1 b33c 6544 203e
00000330: 41b6 2cbb 63c5 f7bd 0f84 8abd 2e02 44bc
00000340: 8bba b1bd d37d e3bc a382 ff3c c52f 5cbd
00000350: f30f 2a3e 42c0 7ebb bd7a ab3d 7766 303d
00000360: 800f 053e 6642 d03d 6394 a23c 9a38 1fbc
00000370: 0021 5bbd fc85 dd3d 111c e5bd a923 3dbd
00000380: aa8d cf3d 84fb e43c 0551 e43c f705 bbbc
00000390: e644 c9bd 9da5 113d 8713 e03c dc11 c1bd
000003a0: 67ed 933d 7c18 643b 7ef9 b63c 2387 e43c
000003b0: e74c 4e37 9069 ba3d 1521 723a 05a8 9d3d
000003c0: e12f 413d 7e09 063d bba2 1b3d 7509 d93a
000003d0: ef46 48bd 0c2d a0bd 4e11 b93c cc30 dc3c
000003e0: 8161 643d 2bda c4bc 1955 1cbd 8fdf 11bd
000003f0: ca95 dc3d e163 f0bc 0d4a e33c 4eb9 0ebc
-0.0464395 -0.116091445 -0.080162704 0.072915666 0.0004228113 -0.023801029 0.068465106 0.17802505
0.016773209 -0.073766746 0.08599714 0.008279903 0.00823518 0.018106518 -0.032152258 0.01457182
0.056628667 -0.020331344 0.060692746 -0.11601151 -0.045026794 -0.036184154 -0.05057169 0.066635855
-0.031029046 -0.025114203 0.012885741 -0.06487358 0.043074254 -0.04876707 0.00922562 0.063737236
-0.034738038 -0.034707732 0.10993395 -0.04477324 0.058922295 -0.07294876 0.14789014 -0.025592979
0.010529378 -0.032541968 0.0069942134 -0.04834562 0.08051774 -0.08738344 -0.08976666 0.014768762
0.11947918 0.05807744 -0.05803976 -0.03023041 0.14750472 0.0053868056 0.054164063 -0.16229193
-0.013348125 -0.03242855 0.040896825 -0.09162591 0.05477761 0.006605931 0.013296029 0.020034112
-0.036533836 -0.0072179544 -0.03559367 0.042975057 0.12235293 -0.008539267 0.009919752 0.017333895
-0.072442904 -0.033478457 -0.033554252 0.026500229 -0.0053539304 -0.01436181 -0.08249524 0.016735319
0.062101305 0.011847772 -0.07625894 0.01845718 -0.024365049 0.04507221 -0.014908054 -0.004956873
-0.09635878 0.055625696 0.053572398 -0.020642774 -0.007309106 -0.03264044 0.031250916 -0.020046925
-0.049408473 0.09779046 0.036686704 0.00502713 0.02345713 0.11566989 0.06774808 0.036591943
-0.10800725 0.008490507 0.055181734 0.011649905 0.102379724 -0.06229712 -0.012101114 -0.075343594
-0.042728588 -0.0566937 0.065916725 0.01677921 0.019780796 0.09085915 -0.057116836 0.04029723
0.05088892 -0.044864777 -0.09206194 0.035632715 -0.010616702 -0.094087884 0.011845187 0.06359452
-0.04397975 0.040204998 0.001751446 0.010226881 -0.046373542 0.0030371866 -0.02820148 0.119278304
0.028681843 0.01372051 0.014829299 0.031214075 0.08442474 0.10987663 0.10732802 -0.024750454
0.0564021 -0.053025685 -0.0639494 -0.046154745 0.037096243 -0.054696202 0.048127815 -0.035890535
0.040455386 0.023219517 0.031597294 -0.01711567 0.09856385 -0.07222136 -0.0739462 -0.11190818
0.022557264 0.0304173 -0.009010279 -0.093213625 0.010216951 0.10697648 -0.067255184 0.046398602
0.034589373 0.037932336 -0.0017657214 0.024972329 -0.07205155 0.029488549 0.05203849 -0.13212432
0.0032013562 -0.11860826 -0.05180994 -0.109863736 0.04516999 0.09779026 0.07142165 -0.008740219
-0.029407071 -0.04289749 -0.023684906 -0.03373318 0.057193737 -0.06359736 -0.031576052 -0.07658387
-0.05528257 -0.05727628 -0.041773282 0.03107951 -0.058611237 0.042328138 0.016026858 0.020688377
0.03249969 -0.002978203 0.021935433 0.1565109 -0.002635375 -0.120981954 -0.067634694 -0.01196341
-0.086781584 -0.027769959 0.031190222 -0.053756494 0.16607647 -0.0038871919 0.0837302 0.043066468
0.12994194 0.101689145 0.019846147 -0.009718085 -0.053498268 0.10816571 -0.11186994 -0.046176586
0.10134442 0.027951963 0.027870664 -0.022829993 -0.098275945 0.03555833 0.027353061 -0.094272345
0.07223015 0.0034804633 0.022335764 0.02789647 1.2296462e-05 0.09102166 0.0009236497 0.07698063
0.0471648 0.032723896 0.03799699 0.0016558605 -0.048895773 -0.07821092 0.02259126 0.026878737
0.05575705 -0.024029812 -0.038167093 -0.035613593 0.107707575 -0.029344501 0.027745271 -0.008711172

network_body._body_endoder.seq_layers.2.bias f4 [256]
00000000: e29f a4ba 36d9 043c 75eb 2dba 2120 053c
00000010: a012 0e38 5b04 293c 144c 263b 2a99 293c
00000020: 06f2 c83b 9143 9c3b 0036 0f3c f711 3bbb
00000030: 1f53 883b 136c 8e3b 432a aabb 8842 e5b9
00000040: 6670 7e3b ec86 38bb 60b3 a43b cc5b 15bc
00000050: 0dca 483c e627 48bb 316c c4ba 2701 73bb
00000060: 76bd d03a b2a7 48bb 1d91 8a3b fefa 0fbb
00000070: bc1f a73a da25 c0bb c0d6 a4ba c4a9 923b
00000080: 8089 e93b af3f 1dbb e365 2b3b b741 aa3b
00000090: 1231 123b 2bc7 1d3c 8702 da3b 7cd2 b0bb
000000a0: f4e5 b5b9 ddd7 663b f708 ef3b 36ae d9bb
000000b0: 5566 95ba 313b 163c 05fe 2bbb 780c 123c
000000c0: 0f11 483c 27f6 ad3b f932 d03b 74cd 0ebb
000000d0: e6f8 a13b f16a b8ba 62b3 873c 1281 963b
000000e0: af4a 5e3c d3d9 693b a86f 5dbb 4d93 233c
000000f0: 3a35 81bb e0a4 b83b 0584 24b9 6ac5 22bc
00000100: 42ac 4938 7eef 073c 952e aebb fdba 593b
00000110: eebb 093c b287 e93b 4d1f 15bb bd0b 253c
00000120: 950f 363c fb3b 163c 1cdf 1d3c 2998 2ebb
00000130: a50b 043c f11d 803b 1e98 21bb 2c51 a73b
00000140: 0c6d eb3b 65d2 df38 21f3 04ba 8111 093a
00000150: faab ed3a 3f99 99ba 2f88 633c 6635 07bc
00000160: 0080 363b 5298 f3bb e28b 903b 61f3 d33b
00000170: 27c5 1e3c 04cf 8c39 0ea7 14bb 6536 6c3b
00000180: 8cd0 9139 8622 053b 8ae3 183b f873 243b
00000190: 98c8 a83a dce5 d13b ea42 cebb 15cb 153c
000001a0: c01d 8e3b d30a 743b 1796 c33a 6b9b 2e3c
000001b0: 544b c1ba 544a 2bb9 eae6 b23b 55a3 8bbb
000001c0: 517d e83b 3fa8 493b ddc1 1aba fa22 8c39
000001d0: dd98 423a e1f7 45bb 020f dcbb 4503 ee3a
000001e0: 8ff7 cb3b 8c03 223a 2009 463c e3b2 60bb
000001f0: 562e c639 db77 c53a 9206 a33b 1291 c33b
00000200: def8 bdbb b9f5 5fba 3c89 c6ba 4e12 483c
00000210: d221 2a3c 46d7 fc3a a098 2ebb bd09 173a
00000220: 6680 e1ba 8047 af3b 91e7 723b 02f1 903b
00000230: 9f61 043c 6195 493c a8ee d33a 2fd8 adbb
00000240: d57c ad3b 9dde 723c 6f09 7f3b 5e01 4c3b
00000250: 9c57 3638 44c1 583b bebd d33b 8b6d 07bc
00000260: 7ff3 b23b 4a94 553b 80e8 e73b 22bb e73b
00000270: 6f65 e63b 9f84 9339 1111 173c a503 f5bb
00000280: b707 e63a 7a24 c53b 684a a63b e0e2 dc3a
00000290: e703 213c f15e 86ba c625 413a b4f4 7d3b
000002a0: 7597 a33a 80c1 4235 d12b bcbb 6a42 093c
000002b0: 4a39 563c 4261 d3ba f219 b5bb a10f 003a
000002c0: 9094 d7bb 31e4 dbbb 3e37 583c 96e0 f5bb
000002d0: 71dc a93b ded0 a9bb eadb c339 39f5 e93b
000002e0: 3918 203b 10dd c93b 6fa3 68bb 7e47 313c
000002f0: f71f b43b 0479 183c a38a 0f3c 540c 2b38
00000300: 00a9 3a3c 239a 4c3c 8fd4 dfbb d627 7c38
00000310: 0a02 043c ed81 e13b ed03 0abc 7498 8b3b
00000320: 9b9f a53b 04e6 c2bb f5d2 3e3c d140 533b
00000330: f623 5f3c 86ae 2fbb 8968 e63b 0892 1a3c
00000340: 46a6 853b 68b9 723c 6dd0 50bb ea3b 823b
00000350: cfc3 d63b fb21 c33b f214 c438 0bc7 c63b
00000360: 40c4 e5bb 5546 0e3b 6bfa be3b 8496 0c3c
00000370: b252 073b 4ce2 7abb 98ba 473c ab3e e33a
00000380: d81d dabb 9a9c 9e3b f469 cb3b 8e2f d13b
00000390: 21ab b53a bce5 8bba 83d5 02ba 403f f5ba
000003a0: 47a9 663b 95e8 053c c710 cf3b 9047 9a3b
000003b0: 00c5 68ba 7525 e13b 8910 1c3c 7431 e13b
000003c0: e439 01ba e02b 2d3b 9298 deba d2c7 b03a
000003d0: 02a6 89bb 7593 8a3a 2c7f 003c 4dd6 ed3b
000003e0: 41d7 fd3b afca cfba 0f5f cc3b 852b 5e3c
000003f0: 9089 e6ba e9e8 263c 1cac ff3b b5ef 083c
-0.0012559856 0.008108428 -0.0006634512 0.008125336 3.3872784e-05 0.01031598 0.0025374936 0.010351459
0.006132367 0.0047687967 0.008740902 -0.0028544643 0.0041602994 0.0043463795 -0.0051930263 -0.00043727853
0.003882432 -0.0028156592 0.005026266 -0.009116124 0.012255204 -0.003054136 -0.0014985857 -0.0037079544
0.0015925604 -0.0030617532 0.0042287246 -0.0021969671 0.0012750546 -0.0058638873 -0.0012576208 0.004475804
0.007126987 -0.0023994257 0.0026153259 0.005195822 0.002230708 0.009630005 0.0066531333 -0.0053961854
-0.0003469434 0.003522388 0.00729477 -0.006643082 -0.0011398295 0.009169386 -0.0026243937 0.008914106
0.012211098 0.0053088847 0.0063537327 -0.002178994 0.004943001 -0.0014069957 0.016565029 0.004593023
0.013567611 0.0035682812 -0.0033788476 0.00998385 -0.0039431127 0.005634889 -0.0001568944 -0.0099347625
4.8082562e-05 0.0082968455 -0.0053156116 0.0033223026 0.008406622 0.007126772 -0.0022754252 0.010073599
0.0111121135 0.009169574 0.009635713 -0.0026640987 0.008059417 0.0039098193 -0.002465732 0.005106112
0.0071846303 0.00010672658 -0.00050716294 0.00052287435 0.0018132918 -0.0011718645 0.013887449 -0.008252477
0.002784729 -0.0074339295 0.0044112066 0.006468222 0.0096905595 0.0002685712 -0.002268258 0.0036043164
0.00027811935 0.0020314767 0.0023328983 0.0025093537 0.0012877164 0.006405575 -0.006294598 0.009142657
0.0043370426 0.0037237897 0.001492205 0.010657172 -0.0014747181 -0.0001633552 0.005459656 -0.004261414
0.007095017 0.0030770449 -0.00059035217 0.0002672894 0.0007423291 -0.0030207562 -0.0067156563 0.0018158933
0.0062245796 0.0006180338 0.0120871365 -0.0034286312 0.00037800026 0.0015065627 0.0049751485 0.0059682215
-0.0057974895 -0.00085433904 -0.00151471 0.012211395 0.01038404 0.0019290231 -0.0026641265 0.0005761644
-0.0017204403 0.0053490996 0.0037064294 0.0044232616 0.008079915 0.012303681 0.0016169148 -0.005305312
0.005294422 0.014823583 0.0038915535 0.0031128745 4.3473774e-05 0.003307418 0.006461828 -0.008265863
0.005461156 0.0032589608 0.0070772767 0.0070718685 0.007031135 0.00028136835 0.009220378 -0.007477241
0.0017549907 0.0060163112 0.005074788 0.0016852282 0.009827591 -0.0010251683 0.00073679944 0.003875059
0.0012481051 7.255221e-07 -0.005742528 0.008377651 0.013075182 -0.0016127008 -0.0055267746 0.00048851414
-0.0065789893 -0.006710552 0.0131967645 -0.0075035794 0.0051837494 -0.0051823696 0.00037357147 0.0071398285
0.00244285 0.006160386 -0.0035497805 0.010820268 0.0054969746 0.009306196 0.008761081 4.078106e-05
0.011392832 0.012487921 -0.006830759 6.0118582e-05 0.008057127 0.0068819434 -0.008423788 0.004260117
0.005054427 -0.00594783 0.011646976 0.0032234679 0.013619414 -0.0026806905 0.0070315045 0.009434231
0.004078659 0.014814712 -0.0031862513 0.0039744275 0.006554104 0.0059549785 9.34991e-05 0.0060662082
-0.00701192 0.0021709402 0.005828192 0.008580808 0.0020648655 -0.0038281856 0.0121904835 0.0017337402
-0.0066563897 0.0048404457 0.006207699 0.006383843 0.0013860204 -0.0010673325 -0.0004990922 -0.0018710867
0.0035196112 0.008173128 0.0063191387 0.004708238 -0.0008879453 0.0068709203 0.009525427 0.0068723504
-0.0004929586 0.0026423857 -0.0016982725 0.0013487285 -0.004200698 0.001057251 0.00784282 0.0072582127
0.0077466075 -0.0015853251 0.006236918 0.013560181 -0.0017588604 0.010187366 0.0078024995 0.008357932

action_model._continuous_distribution.log_sigma f4 [1, 3]
00000000: 305e 94bc baf5 63ba 94ba 773b
-0.018111318 -0.0008695979 0.0037800418

action_model._continuous_distribution.mu.weight f4 [3, 256]
00000000: 8e43 e33c ff29 dabc cc1b fa3c ff7a 9bbc
00000010: d16b ecbb 1432 a7bc a376 7bbc 825c 7b3c
00000020: 1cd6 953c 45b4 e53c 05ac 8dbc cb4c aa3b
00000030: 6861 003c bc21 fd3b 0439 b839 e85e ffba
00000040: 1470 0e3c e384 4c3c ac99 1f3a 4476 3d3c
00000050: 6ea8 4ebc a8d1 33bb d3ff e3bb 8c35 e93b
00000060: c519 623c 7de7 4abc e2c1 04bd 5022 483b
00000070: 7bb3 a73c 6ac3 2f3c 62a4 3d3c 8465 e3bc
00000080: 2dad 943b 8138 8c3c 9301 0e3c e363 003d
00000090: 568f 80bc 4156 20bd 4356 893c 3ac5 c9b8
000000a0: c2de 3b3b 403a b4bc d770 933c ce95 dbba
000000b0: 8a95 713c db87 faba ee0e ae3a 7ad5 8abc
000000c0: cf47 a0bc ef3a a43c 055c 8b39 0235 c7bb
000000d0: 5418 c0bc 4bfb 083c 1558 bebc 3538 8dbc
000000e0: a5c6 34bc f94b 2d3b 1d14 623b 250d 88bc
000000f0: 3975 933c c222 233b 86c3 303c 066f c73a
00000100: c2df 9abc 454d 04bd f1ea 203c 4ce0 abbc
00000110: 0440 9bbc bb9a 593a 1837 433c a654 e23c
00000120: 8848 e3bc 50f3 55bc 5c2f 11bd 13b1 683c
00000130: 6bae f3bc 1f24 c1ba 1ce5 853b 2c7c be3c
00000140: 687a e0bb 849d bf3c 1e3d ca3c 3db4 12bc
00000150: 1337 f23b 70cd f5bb 500e aebc 9fe3 6739
00000160: 175e 3c3c c752 a4bb 436c 293c 2852 80bc
00000170: 0efb 8b3a 0d95 963c 4cea ce3b 4778 aeba
00000180: d393 ba3c fa8a 3bbc 9e96 dd3c 3e36 e5bb
00000190: fdc7 673b 91a6 bd3c 6729 cebb 891e 86bc
000001a0: 6287 3bbc 9e0d b03c b906 033c 7f19 b8bc
000001b0: eae7 b03c fe82 d33c 886b 393c faea f43b
000001c0: c3ad 14bc 0301 bf3c 01c7 3a3c f014 893c
000001d0: 718f b93c 05e6 a93b 3db7 ae3c 9c61 2abc
000001e0: 256a e8bb 1f91 52bc 20e1 50bc 96fc ccbb
000001f0: abda a9bc 46b9 23bb 1c87 6cbb c803 41bb
00000200: f1d8 933c 0cb4 303d 20dd 9a3c be39 07bc
00000210: c9e0 fbbb ab20 c03c 34a4 813c 6b80 5a3b
00000220: ad7b ebba 7706 98bc 2eb3 87bc 2a5f 84bc
00000230: 66e8 dcbc 3d74 b9bc 6e3b dfbc c676 073c
00000240: 062c 86bc 7282 67bc ecd9 db3c 3e18 383b
00000250: ffab ffbb 51df 983b 6f54 82bb 349a 813c
00000260: 5bda be3c 3f9b ebba d252 423b dc9b 83bb
00000270: 0af8 b33c b3a5 f4bc 0ef0 81bc 8ba2 143c
00000280: 2c53 a3bc d7fd de3c 834f b93b 60a8 693c
00000290: 0433 e2bc 558a 813c c839 323d 408d 6cbc
000002a0: 0c9e a1bc 3d31 a03a 9196 5cbb 66b8 e73b
000002b0: 6505 75bb ab59 b83c eafc 833c 629b a13b
000002c0: 62de debb 1d23 823b 602e 473c 7223 893b
000002d0: f6e4 6f3b c5ac 35bb 02c3 943c 87ff 7cbc
000002e0: 3098 e0b9 03fe f7bc 7428 3a3c 599d cd3b
000002f0: 3256 3ebc dd9b 30bc d53f 10bc 8f1e ed3c
00000300: 9351 8f3c de6d d839 a9ff 053c 5763 aebc
00000310: 19b1 fb3c f2b7 123b f552 153a 3c15 933c
00000320: 22ef 563c a533 943c e6f5 0fbd f532 823c
00000330: 122e 44bc 84c4 5b3b a44b 95bb eb46 0a3b
00000340: f748 2abc 40e0 82bc 6b5c ac3c faa0 0e3c
00000350: d7df 8cbb 218c dabc 854a 583c 3b24 043c
00000360: 89cc 343c 34ee 28bc 1c70 cb3b 1900 e2bc
00000370: ff29 de3c b3e6 423a 70af 45bb 9f45 86bb
00000380: 3ccc 60bc 05c7 5cbc f011 c6bc 5cd4 3cbc
00000390: 4b59 093d 807e c4bb 63ee febb b02b f5bb
000003a0: c31b aabb d701 08bd 89c5 a23c a365 2abb
000003b0: 529f de3b 1d62 233c 7305 f83c 356a 393c
000003c0: a2cf e6bb 501b 09bc a036 013c 91f0 813c
000003d0: db56 cf3c 8575 093d 4804 d63c 3bb2 f83a
000003e0: 970c a4bc f0d5 0e3d 7ec9 86bc 5a72 83bc
000003f0: ee50 463c af1a e4bc df88 f53a 51c8 30bc
0.027742174 -0.026631353 0.030530833 -0.018979548 -0.007215001 -0.020409621 -0.015348109 0.01534188
0.018290572 0.02804006 -0.01729394 0.0051971427 0.007835723 0.0077249687 0.00035137695 -0.001948324
0.008693714 0.012482855 0.00060882675 0.011563841 -0.012613399 -0.0027438197 -0.006957987 0.007116979
0.013800089 -0.012384293 -0.032411464 0.003053803 0.020471325 0.010727743 0.011574836 -0.027758367
0.0045372457 0.017116787 0.0086673675 0.03134526 -0.015693348 -0.039144758 0.016764766 -9.621163e-05
0.002866671 -0.022000432 0.017998142 -0.0016753019 0.014745126 -0.0019113974 0.0013279596 -0.016947497
-0.019565491 0.020047633 0.00026580706 -0.006079317 -0.0234491 0.008360694 -0.02323536 -0.017238716
-0.011033689 0.0026442988 0.0034496852 -0.01660783 0.018000232 0.0024892543 0.010788804 0.0015215583
-0.018905524 -0.032300252 0.009821639 -0.020980977 -0.018951423 0.00083009497 0.011914991 0.027628254
-0.027744547 -0.0130584985 -0.035445556 0.014202374 -0.029746255 -0.0014735496 0.00408615 0.02325257
-0.0068505295 0.023390539 0.024687346 -0.008954105 0.0073918193 -0.0075012967 -0.02124706 0.00022114672
0.011497042 -0.0050147506 0.010340753 -0.015664175 0.0010679679 0.01838162 0.0063145515 -0.0013310992
0.022775566 -0.011446709 0.027049359 -0.0069949916 0.0035367005 0.023150714 -0.0062915566 -0.016371982
-0.011445852 0.021490868 0.007997208 -0.022473095 0.02159496 0.025819298 0.011317141 0.0074743005
-0.009074631 0.023315912 0.011399985 0.016733617 0.022651406 0.005184891 0.02132761 -0.010399248
-0.0070927315 -0.012851982 -0.0127489865 -0.0062556965 -0.020734152 -0.0024982258 -0.0036091274 -0.0029451717
0.018047782 0.043140456 0.018904269 -0.008253513 -0.0076867086 0.023453077 0.015825368 0.0033340703
-0.0017965935 -0.01855777 -0.016564932 -0.016158659 -0.026966285 -0.022638435 -0.027250018 0.008268064
-0.016378414 -0.014130222 0.026837312 0.0028090621 -0.007802486 0.0046652933 -0.0039773504 0.0158206
0.02329748 -0.0017975344 0.0029651416 -0.0040163826 0.02196886 -0.029864168 -0.015861537 0.009071956
-0.01993712 0.02722065 0.0056552305 0.014261335 -0.027612217 0.015813032 0.043512136 -0.0144379735
-0.019728683 0.0012221705 -0.003365908 0.0070715426 -0.0037387249 0.022503695 0.01611181 0.004931853
-0.0068014124 0.003971471 0.012157053 0.0041851336 0.0036604977 -0.0027721387 0.018159393 -0.015441782
-0.00042837998 -0.03027249 0.011362184 0.006274861 -0.01161723 -0.010779348 -0.008804281 0.028945236
0.017494952 0.00041280588 0.00817863 -0.021287603 0.030724095 0.0022387472 0.00056962605 0.017954461
0.013118537 0.018091032 -0.035146616 0.015893439 -0.011973875 0.003353388 -0.004556136 0.00210994
-0.010393373 -0.015976071 0.021040162 0.008705372 -0.0042991447 -0.026678147 0.013201361 0.008065279
0.011035093 -0.010310698 0.006208433 -0.027587937 0.027119635 0.00074348896 -0.0030164383 -0.004097655
-0.013720568 -0.013475184 -0.024178475 -0.01152524 0.033532422 -0.0059965253 -0.0077798828 -0.0074820146
-0.0051912977 -0.03320488 0.019869583 -0.0026000522 0.006793895 0.0099721225 0.030276036 0.011316826
-0.0070437947 -0.008368328 0.007886559 0.015861781 0.02530997 0.03355934 0.026125088 0.0018974015
-0.020025535 0.034871995 -0.0164535 -0.016045738 0.012104256 -0.027844755 0.0018732807 -0.010789947

action_model._continuous_distribution.mu.bias f4 [3]
00000000: 1980 68bb 9e15 94bb 5679 bf3b
-0.0035476743 -0.0045191785 0.005843322

action_model._discrete_distribution.branches.0.weight f4 [7, 256]
00000000: 39e6 85bb 313c 873b c67c bd3a 7629 4cbc
00000010: b87c 4fbc 30f1 3ebc 5041 52bc df2a 9f3a
00000020: 3dc4 87bb f26f 593a 9f43 a5bc 6b20 d8bb
00000030: 82be 8dbb 50d1 503c 9726 2a3c 33b9 10bc
00000040: a025 843c 0100 a43c f728 45bb 98af 773c
00000050: cf71 49bb 1066 7ebc bba1 85bc 43d6 843b
00000060: f0f3 233c 68c4 94bb 8249 16ba cca1 46bb
00000070: 1e66 613b 5275 6cbb ca3f 813c 3455 95bb
00000080: 9224 a7bc d1e6 483b 9b0b 8a3a 7ae3 aabb
00000090: 8416 bfbb 10ea ebbc db8f 54bb 6800 d3bb
000000a0: 8948 313c 42da 233b d95d b5bc 5721 3cbb
000000b0: 8e78 08bc d55b d33b 03d8 efbb 44a5 8bbc
000000c0: 947e efba 9697 04bc ece9 79bb e863 24bc
000000d0: 13a9 333c b975 e7bc 4cdd 553c d3f0 363c
000000e0: 6b5b b33b 628d 393a c0cf e73b 26c4 a53b
000000f0: 0463 a5bb 2875 f2bb 97db 28ba 3219 d8bb
00000100: 8a8c d439 f3b3 70ba 5fb4 1a3c 76ef 1bbc
00000110: fedb 21bb e45f 7cba b3d3 b2bb ba9f d93b
00000120: 4a88 5fbc 6886 a83b 6e68 16bb 6cf8 a3ba
00000130: 63e3 5bbc 3fb4 5e3c ff8c 8abc 10d0 253c
00000140: bbf4 26bc bc8c b9bb 3a75 00bb 29c3 11bc
00000150: 3404 ffba 5884 e73b 11f9 c7bc a10c d83b
00000160: 3f2b 95ba 8230 1c3c 4727 393a 73a5 39bb
00000170: fa6e 053c 4392 8ebb 78e9 06bb a90e 82bc
00000180: f605 433c a2f5 80bc 8b44 3dbc 6089 db3b
00000190: 8583 30bc 3201 263c dad7 d9ba c377 883b
000001a0: a367 44bc f88f e0bb d86a e63b be4d 383a
000001b0: 0491 8c3b 0577 573c 07a5 683c 788e d3bb
000001c0: d13e 633c 3db0 403c 86f4 88ba 50ff 693c
000001d0: 1c82 fa3a 36f5 c5bb 6887 f0ba 4266 1cbc
000001e0: 3c5f 4ebc 663d 6ebc 367e 93bc 1ba1 c6ba
000001f0: 63ba 83bc c40d 9ebb 1119 903a d496 6f3b
00000200: 7ece 8abc ac60 163b 4ea4 70bc 179f 9f3c
00000210: dabe 38bc 7068 19bc 2171 793b 9a02 28bc
00000220: 74c4 e1bb 0a9f f13b 4dc6 8c3b 8f1f f8ba
00000230: b660 7abc 2c5b 4fbc 18a3 69bc 4e27 0ab9
00000240: 9841 61bb 8154 b0bc c2d5 e2bb 8406 82bc
00000250: 8b65 a43b fe63 4ebc 61ed 5b3c 5e68 6e3c
00000260: 3aac 043b d87e 53bb deca 763b 3078 c9bb
00000270: 71dd 23bb 8122 e8bb 7552 493b cb1f cc3b
00000280: 0ed3 25bc 2bb4 663b 248c 343c e0a6 ba3b
00000290: b246 24bc 1c4d 34bc a363 0abb 98c0 58bc
000002a0: 4738 213c 6e09 02bc 74a2 483b 7c13 f63b
000002b0: f168 27bc c059 333c 463e 1e3c 9669 0ebc
000002c0: ea75 1f3c 1658 0dbc 635a aa3b 3e62 a2bc
000002d0: 5d1e 223a 9ca1 093c c051 c4bb a254 14bc
000002e0: 6045 fdbb dec4 01b9 675b 2fbb 20a1 a1bb
000002f0: 7394 6dbc 8576 8abc e052 653c 29af 11bc
00000300: 325b 26bc eea8 173b 48df 9f39 b4e0 31bc
00000310: 904e 5cbc bd4a 46ba 4b05 353c a825 c937
00000320: b490 a43b fda0 383c 7a3f 90bc b22d cabb
00000330: 7707 1bbc 6142 a0bb 1a2f cbbb c0f1 043a
00000340: 5d9c 6ebc 9e25 a73b 12fe 9339 526b aabc
00000350: fcdf 97bb ff84 47bb 3944 2dbc be7c bb3b
00000360: 7e51 91bc 581a 25bc d75f 08ba 9ce2 af3b
00000370: e200 003c ab03 d23b 42b9 c73b 7bf7 e4bb
00000380: c1ce a43b 99bd fb3b 63d7 b63b 01ae d8bb
00000390: 6ff0 1cbc aa84 553b 34f5 773c 0477 a93a
000003a0: 447f c13c ce2c 473c 891b dd3b 3b76 62bc
000003b0: bdf5 9abb 487d 08bc 22f7 deba dc4d 533c
000003c0: 884b 2bb9 8add b5b9 6cae 3abc 55f1 2f3c
000003d0: 9004 ba3b 9239 6cbb 29be 5abc f514 fe3b
000003e0: b41a 55ba 8abd c938 c60d ce3c 38a9 3c3c
000003f0: 40a0 85bc 51e2 99ba 60df 373b 3a39 8dbb
-0.0040862826 0.0041270484 0.0014456741 -0.012461057 -0.012664013 -0.011654183 -0.0128329545 0.0012143514
-0.0041432665 0.0008294574 -0.020173846 -0.0065956614 -0.004325689 0.0127452165 0.010385177 -0.008833217
0.016131222 0.020019533 -0.0030084231 0.015117548 -0.0030738001 -0.015527263 -0.01631247 0.0040538623
0.01000689 -0.004540015 -0.00057329994 -0.003030884 0.0034393142 -0.003608067 0.015777487 -0.004557276
-0.02040318 0.0030655155 0.0010532023 -0.0052151056 -0.0058315415 -0.028798133 -0.0032434377 -0.0064392574
0.010820516 0.0025001918 -0.022139477 -0.0028706396 -0.008329524 0.006450156 -0.007319452 -0.017046578
-0.0018271976 -0.0080927815 -0.0038133813 -0.010033585 0.010965603 -0.028254377 0.01305325 0.011165815
0.0054735444 0.00070782576 0.0070743263 0.005058783 -0.005047204 -0.00739922 -0.0006441413 -0.0065948004
0.000405405 -0.0009182088 0.009442418 -0.009517541 -0.0024697776 -0.0009627326 -0.0054573654 0.0066413553
-0.013643334 0.0051429756 -0.0022950429 -0.0012509949 -0.013420912 0.013592779 -0.016912935 0.010120407
-0.010190184 -0.005662529 -0.0019601122 -0.008896627 -0.0019456209 0.007065337 -0.024410756 0.0065933024
-0.0011380686 0.00953305 0.0007063043 -0.0028327375 0.008144135 -0.004350932 -0.0020585936 -0.015876131
0.011903277 -0.015742127 -0.011551986 0.006699726 -0.010773544 0.010132121 -0.0016620115 0.0041646673
-0.0119876 -0.0068531 0.0070317797 0.00070306275 0.004289748 0.013150935 0.014199502 -0.0064561926
0.013869957 0.0117607685 -0.001044885 0.014282063 0.0019112262 -0.0060411943 -0.0018350901 -0.009545865
-0.012595948 -0.014541006 -0.018004518 -0.0015154214 -0.016080087 -0.0048234183 0.0010993798 0.0036558406
-0.016944166 0.0022945805 -0.014687611 0.01948504 -0.011275971 -0.009363279 0.0038061815 -0.0102545265
-0.006889874 0.0073736953 0.0042961 -0.0018930304 -0.015281847 -0.012656014 -0.014260076 -0.00013175348
-0.0034371372 -0.02152467 -0.0069224546 -0.015872248 0.0050169877 -0.012597082 0.013423295 0.01455125
0.0020244257 -0.003227165 0.003765754 -0.0061483607 -0.0025003816 -0.0070841913 0.0030719314 0.006229376
-0.01012112 0.0035202603 0.01101974 0.0056961626 -0.010026621 -0.011004712 -0.0021116517 -0.013229512
0.009840078 -0.0079368185 0.0030614408 0.007509647 -0.010217891 0.010946691 0.009658402 -0.008692166
0.009732703 -0.008626958 0.005198763 -0.019822236 0.0006184334 0.008400347 -0.0059911907 -0.009053381
-0.0077292174 -0.00012375737 -0.002675736 -0.0049325377 -0.014500725 -0.016902218 0.01399681 -0.008891859
-0.010153579 0.0023141461 0.000304932 -0.010856796 -0.013446465 -0.00075642375 0.011048625 2.3978602e-05
0.005022133 0.011268851 -0.017608393 -0.006169998 -0.009462229 -0.0048907255 -0.0062006833 0.0005071424
-0.014563647 0.00510092 0.00028227322 -0.020803127 -0.0046348553 -0.0030444262 -0.010575348 0.0057216575
-0.017739054 -0.010077082 -0.00052022695 0.00536759 0.0078127105 0.0064091287 0.0060950825 -0.00698751
0.00502953 0.007682514 0.0055798753 -0.0066125398 -0.009578808 0.0032580295 0.015134145 0.0012929146
0.023620255 0.012156678 0.006747667 -0.013822134 -0.0047290013 -0.008330651 -0.0017010907 0.012896981
-0.00016335968 -0.0003468807 -0.0113941245 0.01073869 0.0056768134 -0.0036045057 -0.013351002 0.007753963
-0.0008129284 9.619731e-05 0.025153052 0.011514954 -0.016311765 -0.0011740421 0.0028056726 -0.0043098005

action_model._discrete_distribution.branches.0.bias f4 [7]
00000000: 6c1a ee38 3bfd 9ebb 773b b5bb 9e65 10b9
00000010: f964 3cbc e611 283c 1e79 563c
0.00011353646 -0.004851965 -0.0055307704 -0.00013770766 -0.011498683 0.010258174 0.0130904

onnx::Div_90 f4 [84]
00000000: f4e0 433b 7c60 f83e bc3a ea3e 6242 873e
00000010: f4e0 433b 505a f83e e272 ea3e a167 873e
00000020: f4e0 433b 743b f83e 412b ea3e bdb7 863e
00000030: f4e0 433b 3c65 f73e c50d e93e b7ef 863e
00000040: f4e0 433b 8303 f83e 0909 ea3e 01ea 853e
00000050: f4e0 433b a894 f53e 7973 e63e 4bd6 853e
00000060: f4e0 433b de5b f73e e655 e93e ddee 843e
00000070: f4e0 433b fa9d f33e 3d5f e33e 91c4 843e
00000080: f4e0 433b f1c2 f53e b28b e73e f77b 833e
00000090: f4e0 433b 4c78 f13e 61fc df3e 12d8 833e
000000a0: f4e0 433b 89ab f33e bc55 e43e f64b 823e
000000b0: f4e0 433b fc89 ef3e 47f5 dc3e ebfc 823e
000000c0: f4e0 433b 2942 f23e 88bf e23e 3c5c 813e
000000d0: f4e0 433b 8138 ee3e a6b6 db3e 9361 823e
000000e0: f4e0 433b 1b0b f03e b78f df3e 1fba 803e
000000f0: f4e0 433b 5ddc ec3e 9b7e da3e 9f12 823e
00000100: f4e0 433b 527d ee3e 663e dd3e 665a 803e
00000110: f4e0 433b f1a7 ed3e 0809 d73e 67fc 873e
00000120: f4e0 433b 2d1a ec3e 2e9d d93e df0d 803e
00000130: f4e0 433b 3e5f eb3e db3a d43e c82f 883e
00000140: f4e0 433b 33ce e93e 848c d63e ce6a 7f3e
0.0029888721 0.48511112 0.45747936 0.26417834 0.0029888721 0.48506403 0.45790774 0.2644625
0.0029888721 0.4848286 0.45736125 0.26312056 0.0029888721 0.48319423 0.45518318 0.26354763
0.0029888721 0.4844018 0.45710018 0.26155093 0.0029888721 0.47964978 0.45009974 0.26140055
0.0029888721 0.48312277 0.45573348 0.25963488 0.0029888721 0.47581464 0.444086 0.25931218
0.0029888721 0.4800029 0.45223767 0.25680515 0.0029888721 0.47162092 0.43747237 0.25750786
0.0029888721 0.47591808 0.4459666 0.2544858 0.0029888721 0.4678496 0.43155882 0.25583586
0.0029888721 0.473161 0.44286752 0.25265682 0.0029888721 0.46527484 0.42912787 0.25465068
0.0029888721 0.46883473 0.43664333 0.25142 0.0029888721 0.46261874 0.42674717 0.25404832
0.0029888721 0.46579987 0.4321167 0.2506897 0.0029888721 0.46417192 0.41999078 0.26559755
0.0029888721 0.4611372 0.4250273 0.25010583 0.0029888721 0.45971102 0.41451153 0.26598954
0.0029888721 0.4566513 0.4190408 0.24943087

onnx::Div_96 f4 [37]
00000000: 1406 db40 3429 363d 76c2 da40 f4e0 433b
00000010: bf98 913e f4e0 433b e87a 1d41 618a 463b
00000020: eb2e 1f41 f4e0 433b 3add 923e f4e0 433b
00000030: cf97 9c3e 8c60 9f3e 99e2 ee3e c13c d53e
00000040: 9bb4 f33e 0de3 ee3e d38f db3e b5fd 4040
00000050: f4e0 433b ca12 3b40 8662 343f 66f5 433b
00000060: a3a0 353f 17a8 723e 2fc8 5a3e 46c8 5a3e
00000070: e30c 5b3e f10c 5b3e 4f9e 3e3e 8061 7c3f
00000080: 97f2 8f3e c789 343f 3329 363d 9a1a c840
00000090: dfd4 933e
6.844492 0.044472888 6.836238 0.0029888721 0.2843685 0.0029888721 9.842506 0.0030294883
9.948955 0.0029888721 0.28684407 0.0029888721 0.3058457 0.31128347 0.46657255 0.41647914
0.4759873 0.466576 0.42883167 3.015485 0.0029888721 2.9230218 0.70462835 0.0029900908
0.7094824 0.23696934 0.21365426 0.21365461 0.21391635 0.21391656 0.18615077 0.98586273
0.2811477 0.7052273 0.044472884 6.2532473 0.28873345
