results/test2/BoxingAgent.onnx (onnx, 391710 bytes, 12 tensors)

network_body.observation_encoder.processors.0.normalizer.running_mean f4 [68]
0.0 0.9343013 0.006189002 0.55249316 0.0 0.9035944 0.0069031194 0.530482
0.0 0.9281123 0.0064270417 0.5418945 0.0 0.85693884 0.011187812 0.49724862
0.0 0.92216134 0.0052368487 0.51703227 0.0 0.86812663 0.0030945018 0.4725365
0.0 0.9433468 0.0007141157 0.5006719 0.0 0.919781 0.0016662696 0.4687109
0.0 0.9602475 0.0026184241 0.4932652 0.0 0.9402523 0.0011901926 0.45671082
0.0 0.9585813 0.0019043086 0.4700302 0.0 0.9492978 0.0021423467 0.44356754
0.0 0.94667935 0.00095215417 0.45425123 0.0 0.9600095 0.00095215405 0.4393326
0.0 0.9376339 0.0023803853 0.45166463 0.0 0.956677 0.0023803862 0.4499182
0.0 0.956677 0.002380386 0.44991824
00000000: 0000 0000 5f2e 6f3f 1dcd ca3b 3170 0d3f
00000010: 0000 0000 f651 673f 9033 e23b abcd 073f
00000020: 0000 0000 c598 6d3f ef99 d23b 99b9 0a3f
00000030: 0000 0000 5860 5b3f 164d 373c 5f97 fe3e
00000040: 0000 0000 c412 6c3f df99 ab3b 3a5c 043f
00000050: 0000 0000 8c3d 5e3f 20cd 4a3b 4ef0 f13e
00000060: 0000 0000 2d7f 713f 7e33 3b3a 092c 003f
00000070: 0000 0000 c576 6b3f bb66 da3a e0fa ef3e
00000080: 0000 0000 c8d2 753f de99 2b3b 428d fc3e
00000090: 0000 0000 60b4 703f 3d00 9c3a 00d6 e93e
000000a0: 0000 0000 9665 753f fe99 f93a cca7 f03e
000000b0: 0000 0000 2e05 733f 9d66 0c3b 491b e33e
000000c0: 0000 0000 9459 723f fc99 793a 9e93 e83e
000000d0: 0000 0000 2fc3 753f fa99 793a 34f0 e03e
000000e0: 0000 0000 c608 703f 3d00 1c3b 9640 e73e
000000f0: 0000 0000 c9e8 743f 4100 1c3b ae5b e63e
00000100: 0000 0000 c9e8 743f 4000 1c3b af5b e63e

network_body.observation_encoder.processors.2.normalizer.running_mean f4 [37]
1.9834346 14.841258 -14.602469 3.4529162e-09 0.5787132 -1.4930693e-08 -1.254131 -0.00030850715
-0.12284386 -5.0770748e-09 0.46662238 1.9514927e-08 0.9217448 0.97557724 0.22637466 0.23899071
0.419662 0.7733873 0.6875347 0.12705915 0.0 0.032307044 -0.11938973 -2.9119354e-05
-0.029925875 0.4990563 0.5043744 0.49538758 0.54670846 0.45305356 0.038572036 0.32016212
0.55923194 -0.1840237 -0.0006978554 13.954405 0.5046343
00000000: 2fe1 fd3f cb75 6d41 b7a3 69c1 5848 6d31
00000010: 8c26 143f f140 80b2 5d87 a0bf 21bf a1b9
00000020: 9095 fbbd 6c72 aeb1 21e9 ee3e c7a1 a732
00000030: 78f7 6b3f 6ebf 793f c2ce 673e fbb9 743e
00000040: f0dd d63e b6fc 453f 4602 303f cb1b 023e
00000050: 0000 0000 6454 043d 9a82 f4bd 5645 f4b7
00000060: 1c27 f5bc 4f84 ff3e ae1e 013f 71a3 fd3e
00000070: 16f5 0b3f a3f6 e73e b6fd 1d3d 4aec a33e
00000080: d329 0f3f b570 3cbe 48f0 36ba 3e45 5f41
00000090: b72f 013f

network_body._body_endoder.seq_layers.0.weight f4 [256, 105]
-0.14785728 -0.017785827 0.007443718 0.0051534516 -0.101024084 0.04446257 -0.021298174 0.05597476
0.0018330752 0.018658832 -0.09308254 0.015156405 -0.18485796 -0.0024000285 0.072409086 0.038450435
0.12948585 -0.07062046 -0.029772835 -0.0197378 -0.045376156 0.0031329254 -0.2222692 -0.08817639
-0.13869072 -0.03724332 -0.14739278 -0.051268756 0.20046782 0.14763683 -0.050311495 -0.02478359
0.040247485 -0.09007988 0.043196194 -0.050947484 0.030663759 0.11108484 -0.0362222 1.2538018e-05
-0.033253428 -0.013662173 -0.031161673 0.19900288 0.11433569 -0.0071993037 0.081409894 -0.031301603
0.19487089 -0.06461968 -0.08895835 0.060495805 0.106244475 0.010555705 -0.18367828 -0.08750239
-0.11281641 -0.110465385 0.018574907 0.023399286 -0.28383663 0.08071116 -0.14530009 -0.027746709
-0.07299407 -0.13825496 -0.12582047 -0.0093270615 -0.04108922 0.12080578 0.18261051 -0.13716614
0.05474886 0.023159282 -0.0382008 -0.036190126 -0.096728556 -0.009931883 -0.11663733 -0.019254403
-0.10991065 -0.002721592 -0.21202828 0.09472811 -0.029257368 -0.021092322 -0.124428384 0.0016681929
0.027685482 -0.18690662 0.09504804 -0.062909245 -0.16066964 0.036961112 0.023774693 -0.130391
0.11832646 -0.08304603 0.019575994 0.16487858 0.08587304 -0.06590305 -0.056457225 -0.11279469
-0.1383673 0.07675639 0.14387569 -0.055587616 -0.0044496264 0.051020104 0.075826645 0.09258297
0.013382848 -0.116928555 -0.05043225 0.10568303 0.12377482 0.018149523 0.15704942 -0.0028745537
0.0904963 -0.041072562 0.11972936 -0.07042433 0.029016279 -0.058751512 -0.19536643 -0.0347265
0.027139556 0.15963261 0.14300388 -0.1104505 -0.031611033 -0.09200737 -0.017202785 0.08447965
-0.099944316 0.044377234 0.0053538103 0.14201143 -0.061656453 -0.026782284 0.104452655 -0.1847484
-0.05015873 0.034364745 0.063041456 -0.14410886 -0.037392925 -0.013989656 0.07040801 -0.098283686
-0.1844002 -0.009379204 -0.123818144 0.13412991 -0.013770786 -0.103482746 0.008541674 0.030067544
0.0856114 0.08387693 -0.146666 -0.05001989 -0.10854776 -0.0067513804 -0.13752425 -0.12174654
-0.12539226 -0.07034133 0.031751852 0.094265476 -0.034345344 0.11163955 -0.08016959 0.018307837
-0.06667035 -0.037776157 0.038735956 0.09311248 -0.0019370224 0.07997114 -0.0008336812 -0.014440728
-0.035102643 0.01058087 -0.0024934695 0.029701585 -0.0022492178 0.12656935 0.11516468 0.09036526
0.078543544 -0.14314061 -0.11042299 -0.009467728 -0.021921663 0.095810436 0.016822278 0.090569444
0.08636597 0.01727999 0.12670092 0.063966826 -0.20018362 -0.087984286 -0.19403666 0.16489986
-0.068102166 -0.05848602 -0.0057395254 0.06870616 0.0106850155 -0.08458374 -0.02459331 -0.051343445
-0.08889797 -0.04560755 0.062684305 0.0559799 0.09532182 -0.029811202 0.06327588 -0.021972466
-0.101366565 0.059937734 -0.17917608 -0.144627 0.041376896 -0.062142443 -0.08489507 0.06981788
-0.038221445 -0.02886636 0.11076298 -0.026600074 -0.0881597 -0.24004948 -0.01675188 0.023809895
-0.06350783 -0.18411858 -0.09121618 0.0650306 0.01665921 -0.07838932 0.051907264 0.021002738
0.029409679 -0.12458959 0.038100027 -0.07988861 0.011225971 0.0038617596 -0.01590665 0.20879439
00000000: e667 17be 95b3 91bc 6fea f33b 49de a83b
00000010: b7e5 cebd 621e 363d 8279 aebc ca45 653d
00000020: cc43 f03a 68da 983c 0fa2 bebd 9252 783c
00000030: 684b 3dbe cc49 1dbb 374b 943d 347e 1d3d
00000040: f097 043e 76a1 90bd 29e6 f3bc 2bb1 a1bc
00000050: 59dc 39bd c451 4d3b 8a9a 63be d395 b4bd
00000060: f104 0ebe 748c 18bd 22ee 16be 30ff 51bd
00000070: 7047 4d3e 1c2e 173e 6d13 4ebd f506 cbbc
00000080: 8cda 243d cd7b b8bd 7eee 303d 4fae 50bd
00000090: 9032 fb3c 7380 e33d bb5d 14bd 615a 5237
000000a0: bf34 08bd 4fd7 5fbc c446 ffbc 69c7 4b3e
000000b0: d528 ea3d 23e8 ebbb 3bba a63d 1c36 00bd
000000c0: 3c8c 473e 5357 84bd cc2f b6bd 73ca 773d
000000d0: b496 d93d d6f1 2c3c 2916 3cbe 7434 b3bd
000000e0: 4a0c e7bd ad3b e2bd 672a 983c dcaf bf3c
000000f0: 0953 91be e54b a53d 8cc9 14be 114d e3bc
00000100: ea7d 95bd b592 0dbe 15d7 00be 88d0 18bc
00000110: 2c4d 28bd 0569 f73d 40fe 3a3e 4875 0cbe
00000120: 5740 603d 89b8 bd3c 7178 1cbd 193c 14bd
00000130: 9f19 c6bd 56b9 22bc 8ddf eebd 69bb 9dbc
00000140: d618 e1bd bd5c 32bb f11d 59be d000 c23d
00000150: 26ad efbc cec9 acbc 4fd4 febd 44a7 da3a
00000160: aacc e23c 7364 3fbe 8ca8 c23d 90d6 80bd
00000170: 9586 24be 8964 173d 25c3 c23c 3885 05be
00000180: 2555 f23d 0914 aabd d65d a03c eed5 283e
00000190: 34de af3d 2ef8 86bd b13f 67bd e700 e7bd
000001a0: 28b0 0dbe 7432 9d3d 2654 133e d7af 63bd
000001b0: 2cce 91bb 75fa 503d 004b 9b3d 249c bd3d
000001c0: bc43 5b3c 3d78 efbd 0c92 4ebd 5870 d83d
000001d0: a77d fd3d 4fae 943c 90d1 203e 0263 3cbb
000001e0: 2056 b93d b43b 28bd ab34 f53d a23a 90bd
000001f0: 8cb3 ed3c 6da5 70bd 230e 48be 603d 0ebd
00000200: c653 de3c bb76 233e 9c6f 123e df33 e2bd
00000210: 927a 01bd 5c6e bcbd dbec 8cbc ab03 ad3d
00000220: 9baf ccbd e7c4 353d 046f af3b 726b 113e
00000230: 7a8b 7cbd 8566 dbbc 46eb d53d af2e 3dbe
00000240: 3e73 4dbd 0cc2 0c3d e11b 813d 4691 13be
00000250: 5329 19bd df34 65bc 1332 903d f548 c9bd
00000260: 68d3 3cbe 3cab 19bc 5e94 fdbd 5a59 093e
00000270: dd9e 61bc c3ee d3bd 61f2 0b3c 3650 f63c
00000280: 0855 af3d abc7 ab3d 9d2f 16be a8e1 4cbd
00000290: 4a4e debd af3a ddbb 28d3 0cbe 4056 f9bd
000002a0: d466 00be 1d0f 90bd 3b0e 023d 420e c13d
000002b0: b4ad 0cbd 47a3 e43d f42f a4bd 51fa 953c
000002c0: 778a 88bd 2cbb 1abd 98a9 1e3d c2b1 be3d
000002d0: b0e3 fdba e9c7 a33d 668b 5aba ce98 6cbc
000002e0: cac7 0fbd 635b 2d3c 7a69 23bb bd50 f33c
000002f0: 9d67 13bb 659b 013e 76db eb3d 6c11 b93d
00000300: 70db a03d 7493 12be 7325 e2bd 881e 1bbc
00000310: 0f95 b3bc 4338 c43d e0ce 893c 797c b93d
00000320: a4e0 b03d c48e 8d3c e3bd 013e 0a01 833d
00000330: effc 4cbe 1b31 b4bd 8cb1 46be 82db 283e
00000340: 2679 8bbd 098f 6fbd a112 bcbb d1b5 8c3d
00000350: 3410 2f3c 3d3a adbd e977 c9bc 814d 52bd
00000360: 2410 b6bd fbce 3abd a160 803d 2e4b 653d
00000370: 1638 c33d 9f36 f4bc c996 813d 9aff b3bc
00000380: 4699 cfbd 4581 753d ef79 37be 1a19 14be
00000390: d27a 293d 1389 7ebd 77dd adbd adfc 8e3d
000003a0: 178e 1cbd 2579 ecbc b4d7 e23d 66e8 d9bc
000003b0: 138d b4bd 88cf 75be 3d3b 89bc f80c c33c
000003c0: 6510 82bd 9589 3cbe 8ccf babd c32e 853d
000003d0: e578 883c 948a a0bd b69c 543d ef0d ac3c
000003e0: 91ec f03c d428 ffbd c60e 1c3d a49c a3bd
000003f0: 23ed 373c 9315 7d3b aa4e 82bc 32ce 553e

network_body._body_endoder.seq_layers.0.bias f4 [256]
0.0 0.0 0.0 0.0 0.0 0.0 0.0 0.0
0.0 0.0 0.0 0.0 0.0 0.0 0.0 0.0
0.0 0.0 0.0 0.0 0.0 0.0 0.0 0.0
0.0 0.0 0.0 0.0 0.0 0.0 0.0 0.0
0.0 0.0 0.0 0.0 0.0 0.0 0.0 0.0
0.0 0.0 0.0 0.0 0.0 0.0 0.0 0.0
0.0 0.0 0.0 0.0 0.0 0.0 0.0 0.0
0.0 0.0 0.0 0.0 0.0 0.0 0.0 0.0
0.0 0.0 0.0 0.0 0.0 0.0 0.0 0.0
0.0 0.0 0.0 0.0 0.0 0.0 0.0 0.0
0.0 0.0 0.0 0.0 0.0 0.0 0.0 0.0
0.0 0.0 0.0 0.0 0.0 0.0 0.0 0.0
0.0 0.0 0.0 0.0 0.0 0.0 0.0 0.0
0.0 0.0 0.0 0.0 0.0 0.0 0.0 0.0
0.0 0.0 0.0 0.0 0.0 0.0 0.0 0.0
0.0 0.0 0.0 0.0 0.0 0.0 0.0 0.0
0.0 0.0 0.0 0.0 0.0 0.0 0.0 0.0
0.0 0.0 0.0 0.0 0.0 0.0 0.0 0.0
0.0 0.0 0.0 0.0 0.0 0.0 0.0 0.0
0.0 0.0 0.0 0.0 0.0 0.0 0.0 0.0
0.0 0.0 0.0 0.0 0.0 0.0 0.0 0.0
0.0 0.0 0.0 0.0 0.0 0.0 0.0 0.0
0.0 0.0 0.0 0.0 0.0 0.0 0.0 0.0
0.0 0.0 0.0 0.0 0.0 0.0 0.0 0.0
0.0 0.0 0.0 0.0 0.0 0.0 0.0 0.0
0.0 0.0 0.0 0.0 0.0 0.0 0.0 0.0
0.0 0.0 0.0 0.0 0.0 0.0 0.0 0.0
0.0 0.0 0.0 0.0 0.0 0.0 0.0 0.0
0.0 0.0 0.0 0.0 0.0 0.0 0.0 0.0
0.0 0.0 0.0 0.0 0.0 0.0 0.0 0.0
0.0 0.0 0.0 0.0 0.0 0.0 0.0 0.0
0.0 0.0 0.0 0.0 0.0 0.0 0.0 0.0
00000000: 0000 0000 0000 0000 0000 0000 0000 0000
00000010: 0000 0000 0000 0000 0000 0000 0000 0000
00000020: 0000 0000 0000 0000 0000 0000 0000 0000
00000030: 0000 0000 0000 0000 0000 0000 0000 0000
00000040: 0000 0000 0000 0000 0000 0000 0000 0000
00000050: 0000 0000 0000 0000 0000 0000 0000 0000
00000060: 0000 0000 0000 0000 0000 0000 0000 0000
00000070: 0000 0000 0000 0000 0000 0000 0000 0000
00000080: 0000 0000 0000 0000 0000 0000 0000 0000
00000090: 0000 0000 0000 0000 0000 0000 0000 0000
000000a0: 0000 0000 0000 0000 0000 0000 0000 0000
000000b0: 0000 0000 0000 0000 0000 0000 0000 0000
000000c0: 0000 0000 0000 0000 0000 0000 0000 0000
000000d0: 0000 0000 0000 0000 0000 0000 0000 0000
000000e0: 0000 0000 0000 0000 0000 0000 0000 0000
000000f0: 0000 0000 0000 0000 0000 0000 0000 0000
00000100: 0000 0000 0000 0000 0000 0000 0000 0000
00000110: 0000 0000 0000 0000 0000 0000 0000 0000
00000120: 0000 0000 0000 0000 0000 0000 0000 0000
00000130: 0000 0000 0000 0000 0000 0000 0000 0000
00000140: 0000 0000 0000 0000 0000 0000 0000 0000
00000150: 0000 0000 0000 0000 0000 0000 0000 0000
00000160: 0000 0000 0000 0000 0000 0000 0000 0000
00000170: 0000 0000 0000 0000 0000 0000 0000 0000
00000180: 0000 0000 0000 0000 0000 0000 0000 0000
00000190: 0000 0000 0000 0000 0000 0000 0000 0000
000001a0: 0000 0000 0000 0000 0000 0000 0000 0000
000001b0: 0000 0000 0000 0000 0000 0000 0000 0000
000001c0: 0000 0000 0000 0000 0000 0000 0000 0000
000001d0: 0000 0000 0000 0000 0000 0000 0000 0000
000001e0: 0000 0000 0000 0000 0000 0000 0000 0000
000001f0: 0000 0000 0000 0000 0000 0000 0000 0000
00000200: 0000 0000 0000 0000 0000 0000 0000 0000
00000210: 0000 0000 0000 0000 0000 0000 0000 0000
00000220: 0000 0000 0000 0000 0000 0000 0000 0000
00000230: 0000 0000 0000 0000 0000 0000 0000 0000
00000240: 0000 0000 0000 0000 0000 0000 0000 0000
00000250: 0000 0000 0000 0000 0000 0000 0000 0000
00000260: 0000 0000 0000 0000 0000 0000 0000 0000
00000270: 0000 0000 0000 0000 0000 0000 0000 0000
00000280: 0000 0000 0000 0000 0000 0000 0000 0000
00000290: 0000 0000 0000 0000 0000 0000 0000 0000
000002a0: 0000 0000 0000 0000 0000 0000 0000 0000
000002b0: 0000 0000 0000 0000 0000 0000 0000 0000
000002c0: 0000 0000 0000 0000 0000 0000 0000 0000
000002d0: 0000 0000 0000 0000 0000 0000 0000 0000
000002e0: 0000 0000 0000 0000 0000 0000 0000 0000
000002f0: 0000 0000 0000 0000 0000 0000 0000 0000
00000300: 0000 0000 0000 0000 0000 0000 0000 0000
00000310: 0000 0000 0000 0000 0000 0000 0000 0000
00000320: 0000 0000 0000 0000 0000 0000 0000 0000
00000330: 0000 0000 0000 0000 0000 0000 0000 0000
00000340: 0000 0000 0000 0000 0000 0000 0000 0000
00000350: 0000 0000 0000 0000 0000 0000 0000 0000
00000360: 0000 0000 0000 0000 0000 0000 0000 0000
00000370: 0000 0000 0000 0000 0000 0000 0000 0000
00000380: 0000 0000 0000 0000 0000 0000 0000 0000
00000390: 0000 0000 0000 0000 0000 0000 0000 0000
000003a0: 0000 0000 0000 0000 0000 0000 0000 0000
000003b0: 0000 0000 0000 0000 0000 0000 0000 0000
000003c0: 0000 0000 0000 0000 0000 0000 0000 0000
000003d0: 0000 0000 0000 0000 0000 0000 0000 0000
000003e0: 0000 0000 0000 0000 0000 0000 0000 0000
000003f0: 0000 0000 0000 0000 0000 0000 0000 0000

network_body._body_endoder.seq_layers.2.weight f4 [256, 256]
-0.049601644 -0.10965138 -0.018784504 -0.03185392 0.023024099 0.0010506287 -0.092790514 0.04536304
0.02398467 0.00677989 0.004174276 -0.07366294 0.02970908 0.11620515 0.07659586 0.05351781
0.03786932 -0.016329892 -0.1348482 0.016595306 0.10458408 -0.0057318686 0.009677389 0.047799494
-0.019098252 0.0047239084 0.07920902 0.059650585 0.06509381 -0.001727974 -0.01661307 -0.054901183
-0.022060486 -0.0811663 -0.014246455 0.027173439 -0.075332806 -0.04165888 -0.088116094 0.065794736
0.0086505255 0.020233266 -0.017504532 -0.025939014 -0.09700308 0.07891525 -0.081982836 -0.04989344
-0.03852434 0.019431008 -0.09508226 0.075158864 0.089104265 -0.022500323 -0.107052855 0.029770017
0.004878354 -0.09074451 -0.14902017 0.07107327 -0.021180583 0.0055768313 -0.01614956 -0.04741587
0.004045017 -0.034814056 -0.008105005 -0.016993523 -0.08935693 -0.013801948 0.023397401 0.042065486
0.017238345 -0.0788463 0.091652565 0.03664041 -0.12362625 0.01173992 -0.040583573 -0.118084125
-0.00042486665 -0.0007492217 0.066532 -0.017045125 -0.021677224 0.10506552 -0.022701327 0.0008435318
0.028072355 -0.123678826 0.041818112 0.09246776 0.035488084 -0.037015446 0.01898964 -0.053390056
-0.07437866 -0.07723227 -0.03486225 0.0749071 -0.015004072 -0.049866576 0.076252475 0.06802224
0.13703139 -0.02171398 -0.057487793 -0.019892031 -0.054079223 0.08140641 -0.014246977 0.008289468
-0.039121334 -0.1020239 0.00069663045 0.032367334 -0.021812545 0.043740336 0.0035099296 -0.082768835
0.04444983 0.0076134303 0.05801555 -0.050766125 0.09698274 -0.10664637 0.006477018 -0.06819973
0.010327236 -0.06478547 0.009777297 0.065763466 -0.055609144 0.083878 0.07709362 -0.04692542
0.114070065 0.030826474 -0.04166598 0.107239805 0.09519089 0.046142217 0.1466413 -0.006513795
0.048894726 0.0065777153 0.041440398 -0.0071037575 0.11718285 -0.08696376 -0.032186642 0.0048630834
-0.047565967 0.030177284 -0.007895815 -0.05810178 -0.055495396 -0.08667655 -0.04077812 -0.0119238375
-0.12715648 0.03866169 -0.029588293 0.020527076 -0.019231351 -0.017409083 0.03544926 0.025402196
-0.051728047 0.029776368 0.14411607 0.06378193 0.0032242707 -0.07472084 -0.04687473 0.033749096
0.12314341 -0.004381821 0.13227972 -0.037636988 -0.021371806 -0.06568004 0.038620543 0.07596845
-0.023600409 -0.0040798285 0.09363775 0.00024535868 -0.056547645 0.08392952 -0.03420391 -0.049536556
0.020758696 0.030222641 -0.009876947 -0.061273795 0.06367166 -0.03759651 0.02784146 -0.0067074224
-0.015158663 -0.12864052 0.008912866 0.001885813 0.08587892 -4.6480127e-05 0.067801185 0.0021796126
0.011119137 0.09893461 0.0015414231 -0.03731079 -0.030583696 -0.0041318745 -0.042486254 -0.015855625
0.11937159 0.10651384 0.063498326 -0.054372765 0.00010865173 0.09979561 0.081052504 0.013562506
0.06737055 0.009081437 -0.06789383 0.009005396 -0.08894458 0.021351203 -0.003262961 -0.025349494
0.039336283 -0.011194087 -0.00043198213 0.124899015 0.03850575 -0.008352021 -0.09255504 -0.03046712
0.0651208 0.025437672 0.03707662 -0.026943866 -0.057885457 -0.055960543 -0.061002042 -0.0035422244
0.07309945 -0.03579779 0.016096441 0.17057998 0.116852336 -0.034226067 0.048301954 0.029662034
00000000: 182b 4bbd e790 e0bd f6e1 99bc 4279 02bd
00000010: 099d bc3c 40b5 893a f408 bebd 98ce 393d
00000020: 807b c43c d729 de3b 5dc8 883b 98dc 96bd
00000030: 7560 f33c f7fc ed3d 4ade 9c3d 7e35 5b3d
00000040: dc1c 1b3d 44c6 85bc a615 0abe e1f2 873c
00000050: 2e30 d63d 66d2 bbbb e98d 1e3c 67c9 433d
00000060: f073 9cbc 04cb 9a3b 5738 a23d 2c54 743d
00000070: e74f 853d 307d e2ba 2218 88bc 10e0 60bd
00000080: 31b8 b4bc 843a a6bd f769 69bc d59a de3c
00000090: 1648 9abd 80a2 2abd 3676 b4bd 64bf 863d
000000a0: efba 0d3c 3cc0 a53c aa65 8fbc 0e7e d4bc
000000b0: 8da9 c6bd 529e a13d 9ee6 a7bd 105d 4cbd
000000c0: b3cb 1dbd c72d 9f3c 7dba c2bd e4ec 993d
000000d0: 4c7c b63d 9952 b8bc 873e dbbd 40e0 f33c
000000e0: 99da 9f3b 42d8 b9bd be98 18be dd8e 913d
000000f0: e782 adbc dabd b63b 154c 84bc 2537 42bd
00000100: 108c 843b 2f99 0ebd dbca 04bc 0036 8bbc
00000110: c400 b7bd 9121 62bc e8ab bf3c dc4c 2c3d
00000120: 6e37 8d3c 2b7a a1bd 57b4 bb3d 4114 163d
00000130: c22f fdbd cb58 403c f63a 26bd 17d6 f1bd
00000140: a3c0 deb9 6b67 44ba ee41 883d 38a2 8bbc
00000150: 6f94 b1bc 972c d73d 22f8 b9bc 7620 5d3a
00000160: fff7 e53c 534b fdbd 7849 2b3d bd5f bd3d
00000170: f45b 113d 829d 17bd 2990 9b3c 88af 5abd
00000180: d753 98bd f42b 9ebd b8cb 0ebd e568 993d
00000190: a4d3 75bc e540 4cbd 422a 9c3d 3f4f 8b3d
000001a0: f551 0c3e 84e1 b1bc 5278 6bbd 9df4 a2bc
000001b0: 2d82 5dbd 67b8 a63d 276c 69bc 8cd0 073c
000001c0: b13d 20bd e8f1 d0bd 149e 363a 9c93 043d
000001d0: 39b0 b2bc 1129 333d d906 663b b582 a9bd
000001e0: 0611 363d 157a f93b b7a1 6d3d 24f0 4fbd
000001f0: e39e c63d 6969 dabd 2a3d d43b 4dac 8bbd
00000200: 9133 293c 3fae 84bd f530 203c ffae 863d
00000210: 6ac6 63bd 3bc8 ab3d 43e3 9d3d df34 40bd
00000220: 919d e93d cd87 fc3c f2a9 2abd 8ba0 db3d
00000230: 71f3 c23d 9fff 3c3d 2329 163e ac71 d5bb
00000240: d645 483d e089 d73b 68bd 293d a3c6 e8bb
00000250: 90fd ef3d 0e1a b2bd 24d6 03bd 805a 9f3b
00000260: 88d4 42bd 5a36 f73c 735d 01bc 22fc 6dbd
00000270: 244f 63bd 7a83 b1bd f506 27bd 335c 43bc
00000280: 4f35 02be b85b 1e3d 2663 f2bc 6628 a83c
00000290: 118b 9dbc 7e9d 8ebc 3e33 113d 4418 d03c
000002a0: cae0 53bd 92ed f33c 2a93 133e 1aa0 823d
000002b0: 494e 533b 3d07 99bd b8ff 3fbd 7e3c 0a3d
000002c0: 9d32 fc3d 6195 8fbb 5674 073e 3e29 1abd
000002d0: ed13 afbc 4283 86bd 9330 1e3d 5995 9b3d
000002e0: a555 c1bc 15b0 85bb 26c5 bf3d 7ca3 8039
000002f0: 819e 67bd 3de3 ab3d 6619 0cbd d8e6 4abd
00000300: 240e aa3c 7995 f73c ebd2 21bc 3bfa 7abd
00000310: 4a66 823d ccfe 19bd c613 e43c f0c9 dbbb
00000320: 0a5c 78bc 57ba 03be 4507 123c 622d f73a
00000330: 4ae1 af3d a8f3 42b8 59db 8a3d d5d7 0e3b
00000340: 0a2d 363c 3b9e ca3d 9409 ca3a 33d3 18bd
00000350: a98a fabc ad64 87bb 1106 2ebd a8e3 81bc
00000360: 1879 f43d ee23 da3d 690b 823d fab5 5ebd
00000370: f4db e338 a461 cc3d dbfe a53d 4635 5e3c
00000380: 92f9 893d 4fca 143c ec0b 8bbd 5e8b 133c
00000390: 9328 b6bd b8e8 ae3c 67d7 55bb bea9 cfbc
000003a0: 151f 213d 6767 37bc a97b e2b9 0ecb ff3d
000003b0: 35b8 1d3d ead6 08bc 7f8d bdbd 2f96 f9bc
000003c0: 0e5e 853d aa62 d03c a7dd 173d 62b9 dcbc
000003d0: 4d19 6dbd e236 65bd 47dd 79bd aa24 68bb
000003e0: 2ab5 953d b4a0 12bd afdc 833c 85ac 2e3e
000003f0: 4750 ef3d a230 0cbd 45d8 453d cbfd f23c

action_model._continuous_distribution.log_sigma f4 [1, 3]
0.0 0.0 0.0
00000000: 0000 0000 0000 0000 0000 0000

action_model._continuous_distribution.mu.weight f4 [3, 256]
-0.017261399 -0.007772463 0.01066016 -0.015526232 0.013540489 0.009202135 0.03994158 -0.009237157
0.017249336 0.010707105 0.021075841 -0.0011703508 -0.012541763 -0.0041771247 -0.01901931 -0.0016807689
-0.019169005 -0.0008629812 -0.014571205 0.02296981 0.011585634 -0.00016022935 -0.006242627 -0.010648513
0.008065841 -0.016871255 -0.017790584 0.0010911942 -0.0067894827 -0.011812446 -0.007654616 -0.0029883962
0.0075494885 -0.037171412 -0.02281034 0.0023583071 0.0099676205 -0.0037746578 0.0010422996 -0.006950793
0.0072074323 0.020997973 -0.011230319 -0.0012513472 0.0068523437 0.0020554056 -0.0049787927 -0.016932128
-0.014964438 0.0011084023 0.0071087084 0.0023492032 0.0051780925 -0.012834902 0.006155766 -0.0017784297
0.015268236 -0.023200998 -0.017364778 0.0097442055 0.024096962 0.0158511 0.0072732246 0.016309163
-0.01801909 -0.0075287493 -0.0038841758 -0.009511758 -0.008238356 0.017430466 0.03331575 0.012048713
-0.0070532835 -0.029434318 -0.0064678215 -0.024923386 0.018283896 -0.0017326995 0.00066685904 0.0026764653
-0.002257724 0.005158752 -0.018469496 0.00343108 -0.019989377 0.013507224 -0.00239982 -0.017879317
0.031341106 0.010556232 -0.0024251866 -0.021309609 -0.012615467 0.008830969 -0.0028039163 0.013059867
-0.0038951624 0.010064513 -0.013258717 0.007365243 -0.01441917 0.0045147263 0.0066616647 -0.00857435
0.007300635 0.026230643 0.0076451125 -0.0033333728 0.003902834 -0.011677577 -0.014441404 -0.0012885035
-0.0112809185 -0.0028024625 0.008721109 0.024808398 -0.0019038701 -0.011937409 0.0016291719 -0.027461627
0.0036423735 0.0023158384 -0.013122173 -0.010519119 0.011471166 -0.008642019 0.021749279 0.027652064
0.009127289 0.0066079847 0.005939011 0.0031640294 -0.016367376 0.009991793 0.009034038 -0.002604915
-0.006803635 -7.631468e-05 -0.0047394894 0.0040955776 -0.00072474673 -0.012150521 -0.010884737 0.012720123
0.016197883 -0.009859155 -0.010141133 0.0128092645 -0.015993895 -0.020476276 -0.0025753446 -0.0015929397
0.0036680126 0.019752918 0.0049758465 -0.019601634 0.016173853 0.018103015 -0.00492543 0.004967299
0.00025245568 -0.0009001284 0.025483627 -0.0016682443 -0.011597565 0.008549728 -0.0036829088 -0.006275046
-0.019726817 0.014066435 -0.011569377 -0.020940559 0.00851626 0.013934649 0.030336112 0.0006178006
0.000104914514 0.011937952 0.013770051 0.02077779 -0.0069377096 0.0075826095 -0.025632057 0.013103028
0.006863312 0.008218153 0.007625356 0.0006090323 0.007168946 -0.004325188 -0.011558379 -0.0012061669
-0.03381538 -0.0026728846 0.0063889795 -0.0009906671 -0.029394595 -0.029672462 -0.0053254263 -0.0037739247
-0.011124472 0.0011139612 -0.005064854 -0.0016307504 0.010327836 -0.002568613 0.0046190973 0.022773495
0.0053387373 0.021882242 -0.0062158257 0.0069397525 -0.0031158985 0.016980879 -0.005514459 0.016666343
-0.002135781 -0.0031153874 -0.007945026 -0.0028545125 0.011855035 0.02225053 0.008817833 -0.0032654833
0.007318817 -0.0011872587 -0.02773211 0.007387483 0.023551036 -0.0039244187 -0.007847853 0.0021420063
0.01764016 -0.013364385 -0.012447919 0.009298871 0.010883619 -0.017947817 -0.011658999 0.007483275
-0.009390584 -0.008953556 -0.01581621 0.0058431006 0.0044969684 -0.009291294 0.022343222 -0.009575214
0.023510033 0.005136579 -0.0075755566 -0.00089665066 -0.018116409 0.011905237 -0.006591048 -0.0136077525
00000000: c767 8dbc 25b0 febb f4a7 2e3c bd61 7ebc
00000010: edd8 5d3c 8dc4 163c c899 233d 7257 17bc
00000020: 7b4e 8d3c da6c 2f3c 3ea7 ac3c 7566 99ba
00000030: f77b 4dbc 43e0 88bb 62ce 9bbc 3f4d dcba
00000040: 5108 9dbc b039 62ba 10bc 6ebc 2f2b bc3c
00000050: acd1 3d3c 3d03 28b9 f38e ccbb 1a77 2ebc
00000060: 9726 043c 9635 8abc 8fbd 91bc 6706 8f3a
00000070: 4f7a debb fd88 41bc 93d3 fabb f8d8 43bb
00000080: b361 f73b 0d41 18bd c0dc babc d48d 1a3b
00000090: 3b4f 233c 4060 77bb c59d 883a 7ac3 e3bb
000000a0: 532c ec3b f103 ac3c 5fff 37bc 3f04 a4ba
000000b0: a089 e03b fcb3 063b 2425 a3bb 3fb5 8abc
000000c0: 672d 75bc cf47 913a 2bf0 e83b 17f5 193b
000000d0: fdac a93b 7b49 52bc 4fb6 c93b 331a e9ba
000000e0: a027 7a3c 0510 bebc 9440 8ebc 29a6 1f3c
000000f0: fe66 c53c 2bda 813c 3b54 ee3b cb9a 853c
00000100: c59c 93bc bab3 f6bb a88d 7ebb 34d7 1bbc
00000110: 2bfa 06bc 56ca 8e3c 1976 083d f767 453c
00000120: 3b1f e7bb 3d20 f1bc 05f0 d3bb 212c ccbc
00000130: 1cc8 953c bf1b e3ba 27d0 2e3a a367 2f3b
00000140: 53f6 13bb c00a a93b 574d 97bc f8db 603b
00000150: c3c0 a3bc 674d 5d3c 4c46 1dbb a577 92bc
00000160: 885f 003d 0cf4 2c3c e1ef 1ebb 7d91 aebc
00000170: 1bb1 4ebc c5af 103c e9c1 37bb 0df9 553c
00000180: fb45 7fbb a1e5 243c 173b 59bc 2358 f13b
00000190: 623e 6cbc 45f0 933b 184a da3b 6e7b 0cbc
000001a0: 2a3a ef3b a5e1 d63c da83 fa3b b774 5abb
000001b0: b0c6 7f3b 4f53 3fbc a39b 6cbc 01e3 a8ba
000001c0: 9ad3 38bc 85a9 37bb fbe2 0e3c fb3a cb3c
000001d0: 488b f9ba 1f95 43bc f089 d53a 35f7 e0bc
000001e0: e3b4 6e3b 52c5 173b 62fe 56bc 6258 2cbc
000001f0: 8ff1 3b3c 4197 0dbc 8b2b b23c 9586 e23c
00000200: a08a 153c cb87 d83b 099c c23b 9b5b 4f3b
00000210: e014 86bc 9eb4 233c 8003 143c 39b7 2abb
00000220: 07f1 debb 220b a0b8 b84d 9bbb 3234 863b
00000230: eefc 3dba fb12 47bc e555 32bc 1068 503c
00000240: 6cb1 843c 4b88 21bc ff26 26bc f3dd 513c
00000250: a105 83bc ddbd a7bc 1dc7 28bb 30ca d0ba
00000260: 0a63 703b dfd0 a13c 6d0c a33b 9b93 a0bc
00000270: 077f 843c c64c 943c 8065 a1bb b9c4 a23b
00000280: 075c 8439 98f6 6bba 0ac3 d03c fda8 daba
00000290: b703 3ebc 2914 0c3c f55c 71bb e79e cdbb
000002a0: 229a a1bc e876 663c 7c8d 3dbc 898b abbc
000002b0: c987 0b3c 274e 643c 7083 f83c e5f3 213a
000002c0: 8d05 dc38 6697 433c c89b 613c 2f36 aa3c
000002d0: ba55 e3bb 8a77 f83b 52fa d1bc 15ae 563c
000002e0: a2e5 e03b 6fa5 063c 1fde f93b 77a7 1f3a
000002f0: 7ae9 ea3b 4fba 8dbb 5b5f 3dbc 3f18 9eba
00000300: ff81 0abd 902b 2fbb a55a d13b 46d9 81ba
00000310: efcc f0bc aa13 f3bc ea80 aebb f353 77bb
00000320: 6b43 36bc 5602 923a 13f7 a5bb e7be d5ba
00000330: 1536 293c 2d56 28bb cc5b 973b 7b8f ba3c
00000340: 93f0 ae3b 6342 b33c 20ae cbbb dd66 e33b
00000350: 1a34 4cbb 7c1b 8b3c a3b2 b4bb db87 883c
00000360: 76f8 0bbb 872b 4cbb db2b 02bc c612 3bbb
00000370: 9f3b 423c be46 b63c ac78 103c b801 56bb
00000380: b0d2 ef3b cb9d 9bba 732e e3bc b312 f23b
00000390: 1aee c03c 6998 80bb 4894 00bc e760 0c3b
000003a0: 1982 903c 4bf6 5abc 5bf2 4bbc 4b5a 183c
000003b0: 3551 323c 4d07 93bc 6305 3fbc 4336 f53b
000003c0: f7da 19bc f0b1 12bc ff90 81bc 7b77 bf3b
000003d0: 4e5b 933b 833a 18bc 2209 b73c 5ce1 1cbc
000003e0: 1d98 c03c bf50 a83b 603c f8bb 350d 6bba
000003f0: dd68 94bc 2f0e 433c b8f9 d7bb 0df3 5ebc

action_model._continuous_distribution.mu.bias f4 [3]
0.0 0.0 0.0
00000000: 0000 0000 0000 0000 0000 0000

action_model._discrete_distribution.branches.0.weight f4 [7, 256]
0.0022698275 -0.0003142968 -0.0001836055 0.002552613 0.0043356153 -0.005707047 -0.004178574 0.005392818
-0.0022653409 -0.009981226 0.0022770553 0.00044718265 0.012045081 -0.005662187 -0.007697244 -0.015625853
0.006064407 0.009026847 -0.0056306063 0.0040176106 0.0014068458 0.014088868 -0.0021405001 0.012517638
-0.003058441 -0.009235198 -0.0041657924 -0.0014939628 -4.14399e-05 -0.006650654 -0.0011220247 -0.0026733174
-0.008321308 0.0043953387 0.0017945092 -0.0007886331 -0.0022985935 0.0046673487 -0.0014848517 0.0018916785
-0.00893652 0.00023474386 0.008052188 0.007592588 0.0104706185 -0.017653538 -0.001464256 -0.00044976742
-0.005363263 -0.00894618 0.0027664208 0.0074259453 0.0027029698 0.0021791935 0.003970671 -0.00116963
0.0060860077 0.0016587147 -0.00041407533 -0.005860423 -0.0025547799 -0.01093921 0.010639134 -0.0038477022
-0.0012924437 -0.00044217776 -0.0066188485 -0.011856107 -0.006081625 -0.0055756546 0.0016292989 0.0003252616
0.0015723932 -0.0022113412 0.0008411381 0.009119668 -0.002979016 -0.0001415883 -0.0059955684 0.000944554
-0.0056150127 -0.005644843 0.00071345957 -0.012095247 -0.00087832747 -0.0013542341 -0.0029896405 0.00096399727
-0.004438473 0.0068966597 0.0062489314 0.008097834 -0.011559623 0.011649552 -0.0054342295 0.003543722
-0.0071236487 0.013830791 0.006171892 -0.007952761 0.004900579 0.004594179 0.0029600018 0.008227284
0.007135642 -0.011076073 0.00818558 -0.0057543074 -0.0029292444 -0.0047417404 0.006430427 -0.005161773
0.0039900555 -0.00065890554 0.007138293 0.008194783 -0.0012772105 0.0104549965 0.004229896 0.0076682763
0.0036867752 -0.008507382 0.0003472089 0.008464076 0.0055111437 -0.0005525974 -0.00036673222 -0.004959212
0.0036472657 0.009682178 0.0030032548 0.006333823 -0.0038125122 0.0024092405 0.0045808973 -0.003872649
-0.0051081465 -0.003622025 0.0049687107 -0.0022724587 0.0059938566 -0.0020117643 -0.006558095 -0.006248073
0.0024606753 -0.0075377296 0.0099846115 -0.0064135045 0.0042228545 -0.005996019 0.00090551656 -0.0027415687
0.0041661123 0.005208219 -0.0021565503 -0.010210876 0.010714545 0.013523999 0.008840504 -0.0016136464
0.0020440966 -0.0022491135 -0.0076991194 -0.0007559283 0.010807014 0.00042811417 -0.007912791 0.0011740437
0.006231109 -0.0032469134 -0.0068673985 0.0040143146 -0.0029116576 0.008122365 -0.006654708 0.0012908826
0.00072133815 -0.0036071732 0.006638599 0.008214258 -0.005874514 0.0063815094 -0.00054454966 0.005819247
0.013699482 -0.0037451517 0.011691964 -0.011975158 -0.011991441 0.0074985125 0.012739725 -0.007887981
-0.003948505 -0.0054682153 -0.0035453115 -0.007058424 0.014374496 0.007702858 -0.0046372786 -0.011025782
-0.0043468764 -0.013498704 0.0017227866 0.0056774556 -0.007750997 0.006006664 -0.0013743553 0.0061636153
-0.0013999006 -0.009854807 0.0026190444 -0.017745895 0.0006338601 0.010600842 0.0017476392 -0.0090446165
0.009463074 0.011296775 -0.0022027397 0.00048595152 0.014262396 0.0024413725 -0.0031341712 -0.00351079
-0.0047007143 -0.00023346844 -0.011788663 0.009851909 0.0031103222 0.002311985 0.002985233 0.0052839527
0.0019462005 -0.01371004 -0.012906032 -0.0016522019 -6.577809e-05 -0.0050215414 0.0035230797 0.0027377321
0.0014349859 -0.001526452 0.0048097223 0.004489304 0.0035621251 -0.0024557812 0.0011450696 0.0017472459
0.008791024 -0.012706432 0.011838401 -0.0038349472 0.009057649 -0.0038948942 -0.0014836238 -0.002052458
00000000: 63c1 143b 34c8 a4b9 3a86 40b9 bd49 273b
00000010: c711 8e3b 2e02 bbbb 6bec 88bb 3cb6 b03b
00000020: 1d76 14bb 4c88 23bc a63a 153b d773 ea39
00000030: bb58 453c de89 b9bb 2a39 fcbb ca01 80bc
00000040: efb7 c63b 57e5 133c f380 b8bb 29a6 833b
00000050: e965 b83a ffd4 663c a247 0cbb c716 4d3c
00000060: 2070 48bb 3a4f 17bc 3381 88bb 13d1 c3ba
00000070: c1cf 2db8 bbed d9bb e710 93ba d332 2fbb
00000080: 1856 08bc c606 903b bd35 eb3a 45bc 4eba
00000090: 00a4 16bb 8ff0 983b 5b9f c2ba 33f2 f73a
000000a0: 7b6a 12bc 9325 7639 53ed 033c 3fcb f83b
000000b0: f58c 2b3c 279e 90bc 47ec bfba c3ce ebb9
000000c0: 50be afbb 0093 12bc d74c 353b 5855 f33b
000000d0: 4f24 313b cdd0 0e3b 671c 823b 454e 99ba
000000e0: 226d c73b 3b69 d93a 4018 d9b9 cb08 c0bb
000000f0: 186e 27bb 5f3a 33bc c34f 2e3c bb29 7cbb
00000100: 3767 a9ba 18d4 e7b9 ede2 d8bb 1e40 42bc
00000110: 5e48 c7bb fbb3 b6bb 338e d53a df87 aa39
00000120: c318 ce3a 26ec 10bb d37f 5c3a a96a 153c
00000130: 983b 43bb 5277 14b9 7976 c4bb f29b 773a
00000140: 24fe b7bb 60f8 b8bb 7607 3b3a 252b 46bc
00000150: 8f3f 66ba 8e80 b1ba d8ed 43bb c3b4 7c3a
00000160: 9c70 91bb 60fd e13b d6c3 cc3b c7ac 043c
00000170: 9364 3dbc c3dd 3e3c 9f11 b2bb ca3d 683b
00000180: 7f6d e9bb 8b9a 623c 953d ca3b 4c4c 02bc
00000190: 0995 a03b c48a 963b 97fc 413b bbcb 063c
000001a0: 1bd2 e93b 6b78 35bc d01c 063c a18e bcbb
000001b0: 91f8 3fbb 9a60 9bbb 55b6 d23b 1724 a9bb
000001c0: 03bf 823b 67ba 2cba 57e8 e93b 6943 063c
000001d0: 1368 a7ba 6f4b 2b3c f09a 8a3b 2a46 fb3b
000001e0: d39d 713b 8c62 0bbc 9709 b639 e8ac 0a3c
000001f0: d396 b43b 2fdc 10ba f745 c0b9 e380 a2bb
00000200: f706 6f3b ffa1 1e3c 41d2 443b f58b cf3b
00000210: 57db 79bb 59e4 1d3b 5a1b 963b 45cc 7dbb
00000220: 3d62 a7bb 7f5f 6dbb 91d0 a23b 88ed 14bb
00000230: 1d68 c43b ced7 03bb 4ae5 d6bb a3bc ccbb
00000240: 4843 213b 0fff f6bb 7f96 233c 6028 d2bb
00000250: df5f 8a3b 417a c4bb 3060 6d3a e4ab 33bb
00000260: e283 883b b5a9 aa3b e954 0dbb 854b 27bc
00000270: 0f8c 2f3c c393 5d3c c3d7 103c fd80 d3ba
00000280: 40f6 053b dd65 13bb e548 fcbb 7d29 46ba
00000290: e70f 313c 8374 e039 a7a4 01bc 5fe2 993a
000002a0: 552e cc3b 2bca 54bb ea07 e1bb 838a 833b
000002b0: 82d1 3ebb ab13 053c bd0f dabb d532 a93a
000002c0: 2f18 3d3a 5366 6cbb 9b88 d93b 1895 063c
000002d0: ff7e c0bb fb1b d13b 1cc0 0eba 62af be3b
000002e0: cb73 603c 3871 75bb a78f 3f3c 7433 44bc
000002f0: c077 44bc 15b6 f53b 48ba 503c 973c 01bc
00000300: 7662 81bb b72e b3bb 7558 68bb 5a4a e7bb
00000310: 0283 6b3c 4268 fc3b 50f4 97bb 7ba5 34bc
00000320: 3e70 8ebb ab29 5dbc 20cf e13a f309 ba3b
00000330: 13fc fdbb 8dd3 c43b b623 b4ba 27f8 c93b
00000340: df7c b7ba 0e76 21bc 46a4 2b3b d75f 91bc
00000350: a229 263a 27af 2d3c 0a11 e53a df2f 14bc
00000360: 020b 1b3c 1c16 393c d75b 10bb 4fc7 fe39
00000370: d3ac 693c 6fff 1f3b ab66 4dbb 4815 66bb
00000380: 7308 9abb 35cf 74b9 3d25 41bc e769 213c
00000390: 8cd6 4b3b ac84 173b e6a3 433b 0225 ad3b
000003a0: a717 ff3a 13a0 60bc d273 53bc b28e d8ba
000003b0: 58f2 89b8 be8b a4bb 78e3 663b 866b 333b
000003c0: 2316 bc3a 3b13 c8ba e09a 9d3b 031b 933b
000003d0: 8b72 693b 2cf1 20bb 2916 963a d803 e53a
000003e0: 3a08 103c a32e 50bc daf5 413c bd53 7bbb
000003f0: 8966 143c 7b41 7fbb 2776 c2ba 8882 06bb

action_model._discrete_distribution.branches.0.bias f4 [7]
0.0 0.0 0.0 0.0 0.0 0.0 0.0
00000000: 0000 0000 0000 0000 0000 0000 0000 0000
00000010: 0000 0000 0000 0000 0000 0000

onnx::Div_90 f4 [68]
0.015428498 0.2482345 0.07992958 0.20833531 0.015428498 0.29554966 0.08422295 0.21794105
0.015428498 0.25876212 0.08138656 0.2012016 0.015428498 0.35047498 0.10630468 0.2379216
0.015428498 0.26836133 0.07380692 0.2095249 0.015428498 0.33870462 0.057645157 0.22999683
0.015428498 0.231693 0.030848732 0.20216267 0.015428498 0.27206975 0.04360656 0.21867031
0.015428498 0.19598526 0.0533817 0.20258982 0.015428498 0.2375204 0.037773203 0.20669706
0.015428498 0.19985305 0.0462463 0.20560488 0.015428498 0.21993077 0.04874214 0.18856536
0.015428498 0.22520123 0.03448603 0.20070824 0.015428498 0.19654334 0.03448603 0.18245918
0.015428498 0.242311 0.051115144 0.20456177 0.015428498 0.20416704 0.051115144 0.18972877
0.015428498 0.20416704 0.051115144 0.18972877
00000000: d0c7 7c3c 2f31 7e3e 1fb2 a33d da55 553e
00000010: d0c7 7c3c 4952 973e 157d ac3d f02b 5f3e
00000020: d0c7 7c3c 787c 843e ffad a63d cb07 4e3e
00000030: d0c7 7c3c 7571 b33e 45b6 d93d b8a1 733e
00000040: d0c7 7c3c a866 893e 1528 973d b28d 563e
00000050: d0c7 7c3c b16a ad3e 541d 6c3d 4a84 6b3e
00000060: d0c7 7c3c ee40 6d3e 7bb6 fc3c bb03 4f3e
00000070: d0c7 7c3c ba4c 8b3e cb9c 323d 1ceb 5f3e
00000080: d0c7 7c3c 5cb0 483e c5a6 5a3d b573 4f3e
00000090: d0c7 7c3c 8c38 733e 13b8 1a3d 65a8 533e
000000a0: d0c7 7c3c 47a6 4c3e c36c 3d3d 168a 523e
000000b0: d0c7 7c3c 8835 613e d7a5 473d 4717 413e
000000c0: d0c7 7c3c 279b 663e 3941 0d3d 7686 4d3e
000000d0: d0c7 7c3c a842 493e 3941 0d3d 94d6 3a3e
000000e0: d0c7 7c3c 6020 783e 1d5e 513d a478 513e
000000f0: d0c7 7c3c 2a11 513e 1d5e 513d 4248 423e
00000100: d0c7 7c3c 2a11 513e 1d5e 513d 4248 423e

onnx::Div_96 f4 [37]
7.709412 0.22952871 7.175709 0.015428498 0.2726554 0.015428498 9.923509 0.015450517
11.479474 0.015428498 0.27394962 0.015428498 0.19533432 0.0912296 0.4187687 0.42674604
0.49374473 0.41892415 1.3406678 1.26135 0.015428498 0.25474638 0.69939953 0.015428787
0.7042222 0.28916124 0.22479497 0.22479022 0.24155761 0.24151148 0.12895362 0.94597954
0.27530253 0.694509 0.01544929 6.0923424 0.2891472
00000000: 81b3 f640 9309 6b3e 689f e540 d0c7 7c3c
00000010: 7d99 8b3e d0c7 7c3c b1c6 1e41 2a24 7d3c
00000020: edab 3741 d0c7 7c3c 2043 8c3e d0c7 7c3c
00000030: b805 483e 96d6 ba3d da68 d63e 757e da3e
00000040: 1ccc fc3e 3a7d d63e 019b ab3f eb73 a13f
00000050: d0c7 7c3c 1e6e 823e d90b 333f 06c9 7c3c
00000060: e847 343f f10c 943e a730 663e 682f 663e
00000070: e15a 773e c94e 773e 6b0c 043e b72b 723f
00000080: 74f4 8c3e 58cb 313f 051f 7d3c 78f4 c240
00000090: 1a0b 943e
