results/NewTest14/BoxingAgent/BoxingAgent-141227.onnx (onnx, 316476 bytes, 11 tensors)

network_body.observation_encoder.processors.0.normalizer.running_mean f4 [33]
00000000: ddf0 be3f e281 6d41 0104 71c1 ff18 3fb2
00000010: 7492 033f be91 8731 8797 9dbe 4718 b038
00000020: 24d6 b6bf 4d18 5431 7396 013f 9108 5fb1
00000030: aee1 6f3f 3c50 713f 7a37 da3c 65c8 9e3e
00000040: f4b9 763f d02d 793f 93f6 20bb 0000 0000
00000050: c155 d9ba 0cac 07bc b4d2 8f36 df18 57bd
00000060: b827 fc3e 6dcc 023f 3066 fa3e 45af 043f
00000070: 8ba0 f63e 41a2 373c 213e 133f f9ae 80bd
00000080: 1cb2 c241
1.4917256 14.84421 -15.0634775 -1.1123347e-08 0.51395345 3.945586e-09 -0.3077967 8.396856e-05
-1.42841 3.0863874e-09 0.5062019 -3.245564e-09 0.93703735 0.9426305 0.026637781 0.31012264
0.9637749 0.9733553 -0.0024561032 0.0 -0.0016581343 -0.008280765 4.286261e-06 -0.052513953
0.49249053 0.5109318 0.48906088 0.5182994 0.4816936 0.011208118 0.57516676 -0.062833734
24.336967

network_body._body_endoder.seq_layers.0.weight f4 [256, 33]
00000000: c771 3abe 09d3 68be 917c 9cbd 656e 46be
00000010: 88a0 493d 6751 d7bd 6831 b13c 2562 2cbd
00000020: 67d7 a1bd de14 f13d 23ff 2ebe 4c6a 3c3d
00000030: 0c3a 51be 04bf e7bd f002 82be 5a5a 0fbd
00000040: 72e8 f83d 67f0 c83d ad22 383d 6c93 3b3d
00000050: 989b 0f3e 164e a53d 1f67 83bd f3e7 a0be
00000060: f75d 96be 45b4 043e 35c4 77bd 14e4 18be
00000070: d661 5bbe a4d6 fa3c b8da 773e ece2 083e
00000080: 7347 3bbd 04a2 c33d 2ee8 943b d624 333e
00000090: 7674 1f3e 09d0 c43d fdd1 77be d9da 05be
000000a0: 9a76 343e 181a a63d 838d 6ebc 83ca 1d3d
000000b0: 97d5 0d3d a190 21be d3c4 c2be 2188 dcbc
000000c0: 75eb 133e a009 81be faf6 88be 0ea2 9ebe
000000d0: fb96 cd3c 5b42 533e 7d22 163e 7d5d 773d
000000e0: bc7e 1abe 97ca eebd 8de8 b4bd 48c3 443e
000000f0: e27f b73c 6fbf 31bd 1bc7 463e 34ef b73e
00000100: 1c6a 96be 231e dabd 8d26 a5be 2df4 653d
00000110: f4ae db3d 1910 363e 4587 4dbe b5d5 a63d
00000120: f5fe 3ebe 0151 76bc c615 8dbd fe1f 103e
00000130: f3ca ef3d 7370 0abe f331 7b3d 4d3f 3c3e
00000140: 8945 a1bc 77a1 2d3e d95f 2dbd ffea 9d3d
00000150: 7b8a 70be 1e50 7fbd b65e 8bba 9741 053d
00000160: 8778 a7bd 8fca 3cbe 0b41 943d d1b1 0e3e
00000170: 3221 7a3d 3bad 863e 2a10 7f3d 78e7 353e
00000180: 0979 d2bd e8bb 4dbe 2c7d aa3e 8773 08bc
00000190: 695e 7fbe e828 85bd 4452 1d3d 8b41 d6be
000001a0: 8c5f c83d 093d 263c 4f89 803d 2170 463d
000001b0: 27ee 5c3e b6ec f73d 2e01 95be 35dd 383e
000001c0: 4e8b b2bd e33d 2bbd 3620 b03d 830c 90be
000001d0: bfd2 823e 9046 eabe 6ccf bdbc 9c02 70be
000001e0: 61c5 dfbc f0b7 a4bd 7953 a73e 5f9c 2c3e
000001f0: 2b65 553e e1d5 393e 6109 bcbd 8466 0a3c
00000200: c51f 90be 0fc1 903d 4abc 28be ea96 00be
00000210: 2e6b fe3d 8f1c adbe 84ca 26be 7c8d f3bd
00000220: e240 7abd c16a 0bbd fe3e c3bd dfb8 483e
00000230: dbde 15bc 73eb cebd 720b e63d a572 f33b
00000240: 10b7 023e 3f31 a5bc c5c5 4e3e e913 c73e
00000250: e86d 733d da0a 1e3d 8289 59bd d69b 2a3d
00000260: 80da 4bbe 78e5 cbbe 2378 4fbe 1878 c23d
00000270: 88bf a23e 31d1 9abd 3ba0 dfbe 544e 3f3d
00000280: 5cf5 33be d303 803d 2223 89bc f99e 09be
00000290: 83e2 08be aa60 913e a575 c5bd 4dad 8bbd
000002a0: 4864 af3d ed72 a5bb 3ffe 4abd e34b a3be
000002b0: 8cd3 233d 292c d4bd 24ee a3be 0593 9abd
000002c0: c252 f13c 2ec9 cfbd dcb1 6bbd 7391 66be
000002d0: a62a a4bc 0133 003e 8675 7cbc f986 d93e
000002e0: cf34 26be 34d8 ee3d 6e4a 38be f252 ca3d
000002f0: 26dd 5fbe 5043 41be 9cb1 ea3c 5a25 19be
00000300: c2c1 adbe 1160 babd 2e71 66bd d448 303e
00000310: f06c e53d 0756 083e b07a 863e 0301 f33c
00000320: adaf 83bc d54d 40be 93b9 6e3e bd55 74be
00000330: 5763 1c3e f16c ba3d 976c 52be 9b4c a33d
00000340: e200 0abd 0586 cabb b021 953d 706d 07be
00000350: 684c c33d ef8d e4bc 62f7 7abd 5716 fc3d
00000360: bb3e 31bd e317 a63e 3ab1 5fbb f757 90be
00000370: 1315 1abe 14a1 c2bd 341e 59be 947a 893e
00000380: f337 16bd 5229 c9be 65f0 083e c635 1e3e
00000390: 4747 5abd 6373 55bd baf1 b0bd 1e20 353c
000003a0: e929 be3d 6e84 86be 734c 513e 8380 133e
000003b0: a3f0 463e 7e79 a53e b3aa 023f d460 86be
000003c0: b341 dfbd 3dba 563c d7b8 023e e5c5 993d
000003d0: af9b d4bd f583 283d 4f69 0dbe be34 943e
000003e0: 465d bebd eb52 273e d757 29be b9b4 7f3e
000003f0: 5239 cabc 3135 a43e bee8 0bbd 2d13 3fbd
-0.18207465 -0.22736754 -0.07640947 -0.1937805 0.04922536 -0.10513573 0.021630004 -0.042085785
-0.07902413 0.11771558 -0.17089514 0.04599981 -0.204323 -0.1131573 -0.25392866 -0.034998275
0.121537104 0.09811478 0.044954944 0.04579489 0.14024198 0.08071534 -0.06416153 -0.31426963
-0.29368564 0.12959392 -0.060489852 -0.14930755 -0.2142404 0.030619927 0.24204528 0.13367814
-0.045722436 0.095523864 0.0045442795 0.1749452 0.1557177 0.09609992 -0.24201198 -0.13071765
0.17623368 0.08110446 -0.014560106 0.03852321 0.034627523 -0.15777828 -0.3804079 -0.02692038
0.14445288 -0.25202656 -0.26750928 -0.30983013 0.025096407 0.20630781 0.14661594 0.06039189
-0.15087408 -0.11659735 -0.08833418 0.19215119 0.022399846 -0.043395456 0.1941189 0.35924685
-0.2937783 -0.106502794 -0.32255974 0.056141067 0.10726729 0.17779578 -0.20071132 0.0814623
-0.18651946 -0.015033961 -0.068889186 0.14074704 0.11708631 -0.13519458 0.061326932 0.18383522
-0.019686477 0.16956125 -0.042327736 0.077108376 -0.23490326 -0.062332265 -0.0010633084 0.032533254
-0.08177286 -0.18436645 0.072389685 0.13935019 0.061066814 0.2630404 0.062271275 0.1776408
-0.10276992 -0.20091212 0.33298624 -0.008328325 -0.24938358 -0.06501943 0.038408533 -0.4184688
0.09783849 0.010146388 0.062761895 0.04844678 0.21575223 0.12105696 -0.29102463 0.18053134
-0.087179765 -0.041807067 0.08599894 -0.28134546 0.25551412 -0.4575696 -0.023170196 -0.23438495
-0.027315797 -0.08042896 0.32680872 0.16856526 0.20839374 0.18147995 -0.091814764 0.008447293
-0.28149238 0.07068073 -0.16478077 -0.12557569 0.12422787 -0.3381085 -0.16288191 -0.118922204
-0.061097033 -0.034037355 -0.09533499 0.19601773 -0.009147371 -0.10103502 0.11232652 0.007429438
0.12765145 -0.020165084 0.2019263 0.38882378 0.059430987 0.038584568 -0.053109653 0.041652523
-0.1990757 -0.39823508 -0.20260672 0.09495562 0.31786752 -0.07559431 -0.43676934 0.04670556
-0.17574066 0.062507294 -0.016740385 -0.1343955 -0.13367657 0.2839406 -0.096415795 -0.06820164
0.08564049 -0.0050491006 -0.049558874 -0.31893834 0.03999667 -0.103599854 -0.32017624 -0.07547573
0.029458407 -0.10145794 -0.057542667 -0.22516422 -0.020039868 0.12519456 -0.015408879 0.42485788
-0.16231082 0.11662331 -0.17997143 0.09879102 -0.21861705 -0.18873334 0.028649144 -0.14955655
-0.33936888 -0.091003545 -0.05626028 0.17215282 0.11202419 0.13314067 0.26265478 0.029663568
-0.01607498 -0.1877969 0.23312978 -0.23860832 0.1527227 0.0910281 -0.20549236 0.07973596
-0.03369225 -0.006180527 0.07281816 -0.13225341 0.09536058 -0.02789971 -0.06127108 0.123089485
-0.043272715 0.324401 -0.0034132735 -0.28192112 -0.15047102 -0.095033795 -0.21202928 0.26851332
-0.03667445 -0.39289337 0.13372953 0.154502 -0.05329063 -0.052111994 -0.08639856 0.011055021
0.092853375 -0.2627291 0.2043932 0.14404492 0.19427733 0.32319254 0.51041716 -0.2624575
-0.10901203 0.013105926 0.12765823 0.075084485 -0.10381257 0.04114147 -0.13809703 0.2894649
-0.09295134 0.16340224 -0.16537414 0.24971284 -0.024685536 0.32071832 -0.034157507 -0.046649147

network_body._body_endoder.seq_layers.0.bias f4 [256]
00000000: aade 97ba e673 db37 dc1f 29ba 87df 243c
00000010: 7b7e 333a 2658 a6ba d2ca 403c 1621 1f3c
00000020: 1fbf 8b3a 5443 2b3c eaab f5bb 9d1f be3a
00000030: a4dc 883b e352 08bb 3d1b cfba 6877 4d3b
00000040: f299 483b d2d6 e33a 7988 3c3b b1d1 493b
00000050: a11d 3abb 1bba 83ba c100 4aba 1aa8 4f3b
00000060: 339d 963b d5ff 7c3b 3b8b f4ba ab98 c33a
00000070: 16db cf3a baee f9ba 98ad 0139 73d3 cdbb
00000080: cd7a 903b 3b83 1fba 2113 ab3b 9a42 6aba
00000090: 503e d53b c50e f5ba a33a f83b 0f25 463b
000000a0: 3930 683b 69ea be3b 6500 afbb 2b14 413b
000000b0: 2b83 b83b 693c baba f4a5 5f3b 896d f63b
000000c0: 66aa d03b b051 7a3b 8497 5ebb 3675 d3bb
000000d0: 6b37 d9bb 009b c4ba 5936 803b 0871 3f3b
000000e0: efeb e939 788d 123c b306 95ba 0d3c c63b
000000f0: 6709 c43a b448 98bb 3cdc 963b f055 c13b
00000100: 61db b43a 2035 95ba 6a12 ea3a 807f 3cbb
00000110: 4c10 c9bb 0313 193b 867d 29bb ecbb 2f3b
00000120: 207c 4b3b 30a2 8bbb 6bda 7d3b e132 cd3a
00000130: feff 8a3b 7f40 fc3a 22a5 cd3b 550d a73b
00000140: d0ae 093c 9fca 7dbb 285e 8db9 ee0d 933b
00000150: 1de6 7ebb 0ad8 003b 3e9a b03b 403a c9bb
00000160: c761 a83b 000f d23b ceca f83b 9b25 9eba
00000170: 9085 9ab8 8e8c 113b 3893 36b9 e40e d2ba
00000180: 3bd1 ec3b 8885 0e3c d642 eabb c9f2 8dbb
00000190: 3210 fabb ef4d 99bb a3ac ffba a57d 9dba
000001a0: 1551 48b9 d627 e73b d0fd 5a3b b17a 113b
000001b0: 6afe 63bb 2a73 aa3b bf8b 0cbc a8b5 163c
000001c0: 5576 17bc 90c6 d2ba ed4c e93b 7aa0 08bc
000001d0: a994 873b d78c a23b 76f4 be3b 11ed 483c
000001e0: 28b6 223b 0ce6 023b ffb5 15bb 575c 0a3b
000001f0: a50b 193c 225e 023c 112f 62bb 6c7e ac3b
00000200: a8fd d9bb e65c e4bb ccf9 873b 6ce5 363b
00000210: abb1 843b e662 d13b 3f86 6ebb 734c 673a
00000220: 86ca 69b9 03e2 d83a a4c4 6a3a 586f d9bb
00000230: 5208 5cbb 662b 973b 22fe 0f3b e6c0 013b
00000240: 8880 2cbb 557f 8e3b 96f2 11bc c249 10bb
00000250: 20fa 29bb 5834 4cba e95a 15bc 36a3 07bb
00000260: 3f98 cc3a 9f00 1dbb c39b 1b3c dc12 983b
00000270: 89e5 92bb af2a 373b b329 823a 7fa8 f8b8
00000280: 39e9 fa3b c95e eb3a c4a2 803a 16d7 0aba
00000290: cd45 3bbc fd94 a73b afb7 28ba 47de c33b
000002a0: f185 d6bb 1553 ee39 a047 5f3c c57b be3b
000002b0: f7cc bfb9 cb84 a8bb 3543 3f3c 8eaf 3f3a
000002c0: 8b17 33bc 07bd 79ba cbfb afba f1e5 92bb
000002d0: 9e29 3abc 36c4 023b bafc 5abb 3626 903b
000002e0: eac3 82bb d2aa d33b 0cb6 f33b 06b5 323b
000002f0: 18a9 32bc 92b0 953b 8ebd 7a3b 511f 533b
00000300: 5e59 92bb e3ea 763a e3be cf3b 90f0 d5bb
00000310: efb0 063b 61cc 2b3b 86c1 e0bb daad b13b
00000320: 926a 0a3b 35a7 5ebb 6777 383b 1830 f3ba
00000330: 5fbe f4bb 16ac cfbb 590e 0e3a 3df1 c0bb
00000340: a871 1abc 48e6 4b3c ac12 173a 511f c7bb
00000350: 0eca 623b 5b74 8ebb 47cf a73a 8ce9 a13b
00000360: 1235 2bbb 605c a93a 2c18 663b ddf8 6ebb
00000370: 1863 e03b c331 573b 0eb3 f13b 4f3a ab3b
00000380: 8e2f b0ba e4bc 3f3a 32e5 553b 732d 813b
00000390: 8626 e43a cab0 06bb 449e 9cb8 b37c 79b9
000003a0: a6e1 063c 0bf9 a339 adb3 ddbb b531 3f3a
000003b0: e8b2 a33b d29a 323c ae7d a73b 4c36 61ba
000003c0: c8f8 a63b d559 55b9 c0f5 86bb 23fe 0a3b
000003d0: a8d8 b1bb 68df 093b 2513 d83b 76de dfb9
000003e0: 25fc 22bb bbd0 2ebc 3b90 803b e7b1 bfbb
000003f0: 69ac f6bb aab6 553b 44e0 2dbb 3868 28bc
-0.0011586745 2.6160804e-05 -0.0006451586 0.010063059 0.0006847155 -0.0012691065 0.011767106 0.009712478
0.0010661817 0.010453064 -0.0074973004 0.0014505271 0.004176693 -0.0020801357 -0.0015800964 0.003135169
0.0030609337 0.0017382747 0.0028767867 0.0030795152 -0.0028399008 -0.0010049971 -0.0007705801 0.003168589
0.0045963763 0.0038604636 -0.0018657217 0.0014922818 0.0015858139 -0.0019068338 0.00012367067 -0.00628131
0.0044091702 -0.00060849235 0.005220786 -0.0008936316 0.0065076724 -0.0018696418 0.0075753494 0.003023449
0.0035429134 0.0058262837 -0.005340623 0.0029461484 0.005630871 -0.0014208677 0.0034126015 0.007520382
0.0063679693 0.0038195662 -0.0033964822 -0.0064531816 -0.006628921 -0.0014999807 0.0039127287 0.002921166
0.00044617007 0.008944862 -0.0011369794 0.006049639 0.0014956415 -0.0046473388 0.0046038907 0.005900137
0.001379829 -0.001138363 0.0017858271 -0.002876252 -0.006135976 0.002335728 -0.0025862171 0.002681489
0.0031049326 -0.0042612776 0.0038734924 0.0015655422 0.0042419424 0.0019245296 0.006275789 0.005098025
0.008403495 -0.0038725508 -0.00026963768 0.0044877445 -0.0038894482 0.001966002 0.005389481 -0.006140977
0.005138609 0.0064104795 0.0075925356 -0.0012065651 -7.36817e-05 0.0022209021 -0.00017411716 -0.0016026166
0.0072270907 0.0086988285 -0.0071490807 -0.0043319208 -0.007631325 -0.00467848 -0.0019506406 -0.0012015594
-0.00019103692 0.0070543094 0.0033415444 0.0022198374 -0.0034789094 0.005201717 -0.00857824 0.009198584
-0.009244521 -0.0016080905 0.007119766 -0.008339042 0.0041375947 0.004960637 0.005827482 0.012263552
0.0024827812 0.0019973544 -0.0022844074 0.0021112168 0.009341155 0.007957013 -0.0034512917 0.005264094
-0.0066525526 -0.006969082 0.004149651 0.0027907742 0.0040495 0.0063899634 -0.0036395935 0.00088233425
-0.00022296057 0.0016546849 0.00089556933 -0.0066355877 -0.0033574295 0.004613328 0.0021971543 0.0019798814
-0.0026321728 0.0043486753 -0.008907935 -0.002201662 -0.002593644 -0.0007789782 -0.009115913 -0.0020696647
0.0015609338 -0.002395667 0.009497586 0.00464092 -0.004482929 0.0027949025 0.000993064 -0.000118569464
0.007657197 0.0017957325 0.0009814133 -0.00052963325 -0.011430216 0.0051141963 -0.00064360624 0.0059774253
-0.006546729 0.00045456798 0.013627917 0.0058130943 -0.0003658307 -0.0051427833 0.011673738 0.00073122315
-0.010930906 -0.00095267635 -0.001342648 -0.0044829776 -0.011362461 0.0019953377 -0.0033414797 0.0043990863
-0.00399064 0.0064595724 0.007437473 0.0027268543 -0.010904573 0.004568168 0.0038259956 0.003221471
-0.00446622 0.0009419156 0.006339894 -0.0065289214 0.0020552238 0.0026214349 -0.0068590073 0.005422336
0.002112065 -0.0033974175 0.0028147341 -0.0018553762 -0.007468983 -0.006337653 0.0005419008 -0.005888133
-0.009426512 0.01244504 0.0005762975 -0.0060767313 0.0034605297 -0.0043473667 0.0012802862 0.004941171
-0.0026124162 0.0012921207 0.0035109622 -0.0036464252 0.0068477504 0.0032836057 0.0073760813 0.005225457
-0.0013441907 0.00073142187 0.0032637832 0.0039421855 0.00174065 -0.0020552152 -7.468139e-05 -0.00023792945
0.00823251 0.00031275334 -0.006765804 0.00072934787 0.0049956925 0.01090117 0.0051114177 -0.000859116
0.005095575 -0.00020346728 -0.004118651 0.0021208606 -0.0054274388 0.0021037702 0.006594079 -0.0004269962
-0.0024869528 -0.010669882 0.0039234436 -0.005850065 -0.007527877 0.0032610097 -0.0026531378 -0.010278754

network_body._body_endoder.seq_layers.2.weight f4 [256, 256]
00000000: 8673 8b3d e947 84bd da53 2f3c 1dcb 403d
00000010: 5f5e 0cbd 17f0 a1bb 1937 2abd 627a 64bd
00000020: 6f89 c43d 62fe d3ba b12c d83d be01 eeb9
00000030: 1706 e13c 6af6 11bc 8bac 653d 3c90 ea3c
00000040: 3d3a de3c dd99 35bd fcf2 25be 77a4 343d
00000050: aebe acbd 3d92 2cbd e58c d73d 2464 f0bc
00000060: 8b7d b53c 7c28 153d 8787 333d 4d7f 4dbc
00000070: 415f a53b c64c 5bbd c304 46bd d164 a2bd
00000080: 5590 443d 083c 3cbd df74 ec3b 8070 51bc
00000090: d786 0a3e 4188 0abe dfae 35bd 0305 393d
000000a0: 3751 d9bc 4d9b b53c 97ee 433d ec5b b43d
000000b0: f2fd a0bd 76c4 5abd 3309 07bd 3d22 8b3c
000000c0: 869d 85bd fdba acbd 2d9c b5bd c4bb d1bc
000000d0: 8797 54bd 0d0b 783d b8ce b93d 05f8 9d3d
000000e0: a0bf 8c3d b68f 2c3d ff41 35bc b9d4 c6bc
000000f0: f163 e13d 768e cf3b 9ea1 18bd 6eaa 9d3d
00000100: 2dc1 98bd 54de 36bc 5043 113d 6c95 a73c
00000110: edc2 413d 0741 35bc d08b 393d 5aea b2bd
00000120: dc42 e23d a68f 92bd 3c4f 1d3d 0a1c ad3c
00000130: 9239 4e3d a817 afbb 9855 243d 9808 ec3c
00000140: 07ea 7c3c 2d7a 62bd 0767 bc3d 2043 35bd
00000150: 62da 2ebd 228d f4bb 7dea c6bc ff5c 683c
00000160: 0b30 a93c b10f 8a3d 5559 5b3d 4b11 febc
00000170: f67e 853d 2318 efbc dd9b 85bd 7c97 a83b
00000180: c890 80bd 46ec 883d 1628 1ebd 592b 52bd
00000190: dfe3 c7bd caa4 84bd 1487 a1bd c62f 68bb
000001a0: 575f bcbc ec2b 12bd f75f 703c 0092 efbd
000001b0: fa33 c0bd 2d29 b4bb 55a7 da3b 2bcb c13b
000001c0: 6f15 153d f5cf c6bd 7d3f 3a3c c3d1 a9bd
000001d0: 4405 05bd 8565 05bd dcfe 6c3d 527a cc3d
000001e0: e6e7 f7bc 57a4 8b3d b1ec ecbd 7cbb 183d
000001f0: 83f3 be3c 58ff 033d d359 82bd 8047 38bc
00000200: ba68 26bd 1cd7 36bb ead3 cb3d ae5b 9dbc
00000210: 87ea 06be 2a4f 133d 0ecf 09bd c42d 853d
00000220: 6a34 cfbd bab8 bebd 82c8 873d 48ce 9e3d
00000230: 1de7 46bd 8dd9 d23d 663f abbd c684 9fbd
00000240: a673 823d 3c6a 2fbd 7ee9 41bd 992e 0b3c
00000250: fc90 153d 58fc 8c3d 98a6 e3bd feb3 02bd
00000260: 1da4 4b3b 70d5 d8bd 4d6c e93d 052d d739
00000270: 05ce 0fbc b6b6 8c3d e002 af3c 754c c8bc
00000280: b937 c93c 78e6 153d 3653 ca3d 4f2e 19bd
00000290: 6ae6 d0bd 2eb1 d13d 1c37 ac3c fb63 143c
000002a0: e36b 39bd c220 90bc 06f7 1c3c 7b09 8f3c
000002b0: fcb8 acbc 1013 f63c 3d6b 7d3c 61fc 4abd
000002c0: 1ed3 1ebd d394 603d 58a3 c8bc 24f0 3abc
000002d0: 5834 913d 1f27 f7bc e218 923c 28c4 82bd
000002e0: 06f6 abbd 843a f93d 0ea8 a23d c1bc 223d
000002f0: 1655 a43c 0c4f d5bc 1f52 7bbd 2fc0 65bd
00000300: bc34 873d bbe2 bdbd 2f47 8c3d 0dcc 97bd
00000310: ac53 86bd 2b51 9bb9 5de6 133d 6d73 aa3d
00000320: 1282 8cbd 24f5 a83d 20d6 a0bd 2ae8 01be
00000330: 762f 6b3d cc4f 16bd af77 9d3c a303 33bd
00000340: fed2 b43d 0b7a 90bd b6d7 56bd a91d 87bd
00000350: 1f1f 63bd c982 71bc a26e 223d dc3f f2bc
00000360: b656 95bc e52c 1d3b 0072 533c 842e a23a
00000370: bbe3 be3d 16ac c73c 1638 273c 8a57 5bbd
00000380: 6061 ca3a 08d8 b4bc 9587 dcbb fe7b 8cbd
00000390: 0c3c 44bd dd54 81bd fbed da3d d7a2 f2bc
000003a0: 57d4 7fbc 6c59 17be 8de1 52bc 29c9 2f3d
000003b0: 9a1c 893d eae2 22bd 74f7 e93c f678 c8bd
000003c0: 8f51 d4bc a99e 26be df5c 03bd 35a9 bb3c
000003d0: 7ad6 3cbd a3d1 223d d19b 9b3b 0aaf 4cbd
000003e0: 61bf d0bc e5b8 a0bd fd7b 35bb 1193 89bd
000003f0: e930 29bd 2975 ae3d 38f4 bebd a281 21bc
0.06809144 -0.06459028 0.010701144 0.047068704 -0.034269687 -0.004941951 -0.04155645 -0.055780776
0.09596526 -0.0016173834 0.10555399 -0.00045396195 0.027468724 -0.008908847 0.056072753 0.02863323
0.02712738 -0.04433619 -0.16205972 0.04410216 -0.08434807 -0.04213165 0.105249204 -0.029344626
0.02215459 0.036415562 0.04383042 -0.012542558 0.0050467555 -0.053540014 -0.048344385 -0.079293855
0.04798921 -0.045955688 0.0072160806 -0.01278317 0.13528 -0.13528539 -0.044356223 0.045170795
-0.026527984 0.02216878 0.04783496 0.08806595 -0.07860936 -0.053410016 -0.032967757 0.0169841
-0.06524186 -0.08434103 -0.08867679 -0.025602229 -0.05190232 0.060557414 0.090726316 0.077133216
0.06872487 0.04212924 -0.011063098 -0.024271356 0.110053904 0.0063341213 -0.037263505 0.076985225
-0.0745872 -0.011161406 0.035464585 0.020456992 0.047305036 -0.011062867 0.04529935 -0.08736105
0.11047909 -0.07156305 0.038405642 0.021131534 0.050347872 -0.005343396 0.04012069 0.028812692
0.015436656 -0.055292297 0.091993384 -0.04425347 -0.042688735 -0.0074631134 -0.024281735 0.014182328
0.020652791 0.06741274 0.05355199 -0.031014105 0.065183565 -0.029186314 -0.06523869 0.0051450115
-0.06277615 0.066856906 -0.038612448 -0.05131087 -0.0976026 -0.064767435 -0.07887092 -0.0035428866
-0.02299468 -0.03568642 0.014671317 -0.11697769 -0.09384914 -0.0054980726 0.0066727796 0.005914112
0.036397394 -0.097076334 0.011367676 -0.08291962 -0.032475725 -0.03256752 0.05786024 0.09984268
-0.030261945 0.06818455 -0.11568583 0.037288174 0.023309475 0.032225937 -0.06364789 -0.011247516
-0.04062722 -0.0027899211 0.09952529 -0.019208755 -0.13175403 0.03596417 -0.03364473 0.0650287
-0.10117419 -0.093125775 0.06630041 0.07754189 -0.04856025 0.10295401 -0.08361702 -0.077889964
0.063697144 -0.042825922 -0.047341816 0.0084949965 0.03651522 0.06884068 -0.111157596 -0.031909935
0.003107316 -0.10587585 0.1139761 0.00041041538 -0.008777146 0.06870787 0.021363676 -0.02445052
0.024562703 0.036596745 0.098791525 -0.03739768 -0.10200198 0.102388725 0.021022372 0.00905704
-0.045268904 -0.017593745 0.009580379 0.017460575 -0.021084301 0.030038387 0.015467462 -0.049557094
-0.038775556 0.05482943 -0.02449195 -0.011409793 0.07090062 -0.030170022 0.01783413 -0.0638507
-0.083965346 0.12169364 0.0794221 0.03973079 0.020060103 -0.026038669 -0.061357614 -0.056091484
0.06601855 -0.09271761 0.06849515 -0.074119665 -0.06558928 -0.0002962438 0.036108363 0.08322797
-0.068607464 0.08249882 -0.07853341 -0.1268622 0.05741831 -0.036697194 0.019222109 -0.04370464
0.08829306 -0.07054528 -0.05245181 -0.06597454 -0.0554496 -0.014740654 0.03965629 -0.029571466
-0.018229824 0.0023983058 0.012905598 0.0012373482 0.0932078 0.02437405 0.010206243 -0.05355028
0.0015440397 -0.022075668 -0.00673003 -0.06859587 -0.047908828 -0.063150145 0.106899224 -0.029618664
-0.015614591 -0.14780205 -0.012871158 0.04291645 0.066949084 -0.039767183 0.028560378 -0.097886965
-0.025917796 -0.16271462 -0.03207099 0.022907833 -0.04610298 0.039750706 0.0047487994 -0.049971618
-0.025481882 -0.07847766 -0.002769231 -0.06717504 -0.04130641 0.0851844 -0.09323925 -0.009857567

network_body._body_endoder.seq_layers.2.bias f4 [256]
00000000: 4856 0c3c 4805 1f37 9c92 84bb 9569 c6bb
00000010: 64c2 3e3b 00c5 3ebb ec32 c9bb 6387 c13b
00000020: 7699 99bb 7847 07bb 69d5 86bb 9b60 993a
00000030: 35dd c0ba a722 87bb 1d84 b1bb 80fc b5ba
00000040: 3681 c5bb 8f4e 36ba 521b f23a 89e5 6bbb
00000050: e364 f83b e429 9cba f063 b33a 2f14 b9b9
00000060: c61f d539 e970 c33b 31cc 78bb 67bd 4a38
00000070: 8e5e 56ba ea32 ed3a 8e75 163c 24f7 ebba
00000080: 1afb 61b8 32d0 a33a 77ca 0b3c 48a0 a1bb
00000090: d67b b2ba 2389 0dbb 96c8 5a39 c675 2abc
000000a0: eddf 083b dfbe c73b 16ff bb3a e496 6c3b
000000b0: 1108 93bb d6be 753b fa22 83bb 2c64 0a3b
000000c0: 0cf2 213b ecd3 84bb 8e89 6cba 8ebc 1b3b
000000d0: 7893 e0ba 9bdc a53b aefb 70b9 63c1 db3b
000000e0: c728 45bb e065 1fba f465 3f3b 87e3 a03a
000000f0: b7cd b8bb 6900 d33b ffd3 323c 3e47 ad3a
00000100: 795d 733b 5612 ebbb ab8d 0cba 50c7 2f3c
00000110: 6e53 2d3c 4435 fdba 9c20 75b9 4101 d3ba
00000120: 97de 8cbb 8d8e e7ba a436 d7bb c052 8cba
00000130: 65f2 0b3b 43a5 32bb af6d a83b 34d0 55ba
00000140: b4c6 99ba ac9f 833b de81 94ba 55c7 a73b
00000150: 926d b439 1806 1f3b aee3 0a3c bd90 b3ba
00000160: 7c43 40ba f8a3 3fbb 03ec a13a d4d2 b4bb
00000170: 3805 bf3b d499 fbba 5b0b 03bc 5864 883a
00000180: 09e6 4e3b ce35 8f3b e477 1bbc 71a9 9bba
00000190: a84a e13b 542c 12bb 3798 873b 086d 1c39
000001a0: 104a 59ba 2d4c 6dbb 88f3 573c 7e76 823b
000001b0: a82b f6b9 7e1d a63b e10d 163b ab2d 81bb
000001c0: c105 873b 37f4 f0ba 6715 d03b 907f b639
000001d0: 387d 40bb 5de2 963b 8f29 093c 8a97 18bb
000001e0: 6a41 9d3a c656 5439 d815 1bbc 8e58 933b
000001f0: 042d d1b9 bf82 503b 7d46 b83b c61d a33b
00000200: 58b8 dbba 7211 d23b 4261 1d3b 8a44 693a
00000210: 1091 cb3b 7233 4d3b 3892 d0b9 22c2 2f3a
00000220: 80db 63bb 6cd7 feba 55c7 11bb a98e a03b
00000230: 03e5 653b e3e3 013c 0460 3dba ce67 57bc
00000240: d747 3bba ac77 b13b a7d0 523b 48ce 683a
00000250: 6a1a cdbb 2097 7e3a 16e7 0e3c 5eb3 9abb
00000260: d865 15bb ecc7 c63b d2b5 a63a a0e7 91ba
00000270: 126b 143b 5463 be3b 674d ea3b 5a0c 30bb
00000280: cefd 423b 6dc3 63ba fc27 f33b 6d41 b23a
00000290: 21ae b73b 843f 77bb 7aea c2bb 3878 8aba
000002a0: aad2 aabb 26db e63b c71c 57ba 0b49 8b3b
000002b0: dfcf 95ba 5ca1 d6ba d540 ba3b ec71 c03b
000002c0: fec5 fe3a 4a02 b23b 1d46 a43b 1606 5aba
000002d0: 2133 d13b 7178 d8bb 0ef7 a239 04a4 f6bb
000002e0: 76f6 aa3b 79ef 1abc ed3f 0e3c 4b02 143b
000002f0: 942c ec3a bb97 ce3b efb6 913b 64c3 9f3b
00000300: c732 93bb d9c3 aabb 93b3 61bb 3247 063a
00000310: a86c 04bc 9c5d f2ba 3514 e4ba 6ca3 3c3b
00000320: b9b7 c1b9 38ba d93b 7b31 39bb 0c04 b8bb
00000330: 1c6d 47ba a8a3 af3b 9ba3 283b 7539 e4ba
00000340: 1f7c 663a 92cc 0d3b e129 fe3b 3b20 de3b
00000350: 49d3 d83b e6f8 6d3b 6441 5fba 0bdf 2b3b
00000360: 5a8d aa39 6639 003c a0bb 05bc 1c92 013c
00000370: a098 85bb fa3a 08b8 dac9 1cb9 5a3e 853a
00000380: 6220 d0bb 85c3 763b 977b fe3b 5e50 c8bb
00000390: 1d90 e23b 8120 663b c831 a23b 1cb6 d7bb
000003a0: 0bc3 df3a 3ddc 3a3b 873f 573b 686c 0dbc
000003b0: 2f77 47bb 1c36 e43b 063d 97bb e801 fa39
000003c0: f972 61bb 9fc5 1b3c 7178 d13b 42c2 f53b
000003d0: db46 e13b d079 afba 1ad2 d23a 777b d53b
000003e0: a516 91bb 1425 f63b 8c70 aebb ccaa 6b3a
000003f0: 7d49 36bc 685d 903b 6088 57ba 6ce0 6d3a
0.008565493 9.478368e-06 -0.0040457975 -0.006055067 0.0029107565 -0.002910912 -0.0061401036 0.005906032
-0.0046874834 -0.0020641964 -0.004114796 0.0011701764 -0.0014714362 -0.004124004 -0.0054173605 -0.0013884455
-0.006027366 -0.0006954455 0.0018471277 -0.0035994968 0.007580386 -0.001191434 0.00136864 -0.00035300988
0.000406502 0.0059643877 -0.0037963504 4.8336948e-05 -0.0008177542 0.0018096839 0.009183301 -0.0018002731
-5.3878037e-05 0.001249796 0.008532158 -0.004932437 -0.0013617228 -0.0021596632 0.00020864824 -0.010404056
0.0020885423 0.0060957517 0.0014342989 0.003610068 -0.0044870456 0.003749778 -0.0040019723 0.0021116836
0.0024710922 -0.0040535834 -0.0009023183 0.002376351 -0.0017133793 0.0050616986 -0.00022981942 0.006706403
-0.003008412 -0.0006080549 0.0029205056 0.001227484 -0.0056397575 0.006439258 0.010914802 0.0013220084
0.0037134571 -0.0071738167 -0.00053616863 0.010728672 0.010578973 -0.0019318243 -0.00023377169 -0.0016098396
-0.0042989957 -0.0017666385 -0.006567793 -0.0010705814 0.0021354195 -0.0027259148 0.0051400284 -0.000815633
-0.0011732192 0.004016837 -0.0011330207 0.005120198 0.00034413912 0.0024265107 0.008477135 -0.0013699752
-0.00073342747 -0.002924202 0.0012353662 -0.0055182967 0.0058294795 -0.0019195625 -0.007998313 0.0010405881
0.0031570217 0.0043704277 -0.009489033 -0.0011876059 0.006875355 -0.0022304254 0.0041380185 0.00014917937
-0.0008288929 -0.0036208734 0.013180621 0.0039814105 -0.00046953303 0.0050694337 0.0022896456 -0.0039422116
0.004120559 -0.0018383329 0.0063502076 0.00034808787 -0.0029371511 0.0046046213 0.008371725 -0.0023283684
0.0011997644 0.00020250221 -0.009465657 0.0044966405 -0.00039897126 0.0031816212 0.0056236372 0.0049779145
-0.0016763313 0.006410771 0.002401427 0.0008898458 0.006212361 0.0031311181 -0.00039781793 0.0006704648
-0.0034768283 -0.0019442863 -0.0022244055 0.004899819 0.0035079129 0.007927868 -0.0007224085 -0.013147308
-0.0007144189 0.0054158773 0.0032167824 0.0008880836 -0.0062592523 0.00097118504 0.008722087 -0.0047210893
-0.00227963 0.006066313 0.0012718982 -0.0011131652 0.0022646827 0.0058101807 0.0071503404 -0.002686283
0.002975333 -0.00086884835 0.007420538 0.0013599821 0.0056054746 -0.0037727067 -0.005948362 -0.0010564392
-0.0052131014 0.0070451675 -0.0008205887 0.0042506508 -0.0011429748 -0.0016374993 0.005683998 0.0058729555
0.0019437668 0.005432402 0.005013241 -0.0008316947 0.006384269 -0.0066061546 0.00031083118 -0.0075268764
0.0052173687 -0.009456509 0.008682233 0.0022584375 0.0018018656 0.006304709 0.004446856 0.0048755873
-0.004492137 -0.005211335 -0.003443931 0.0005122303 -0.008082546 -0.0018491033 -0.0017401042 0.002878393
-0.00036948713 0.0066445135 -0.0028258252 -0.005615717 -0.0007607506 0.0053600855 0.0025732282 -0.0017412143
0.0008792299 0.0021636826 0.007756457 0.0067787445 0.006616984 0.0036311685 -0.0008516519 0.0026225473
0.00032530242 0.007826185 -0.008162409 0.00790837 -0.004077032 -3.2479853e-05 -0.00014952515 0.0010165677
-0.0063515166 0.003765316 0.007766198 -0.006113096 0.0069141523 0.0035114589 0.004949782 -0.0065829884
0.0017071677 0.002851262 0.0032844262 -0.008631803 -0.003043603 0.006964458 -0.004615429 0.00047685136
-0.0034400804 0.009507566 0.0063925316 0.007499964 0.0068749017 -0.0013387743 0.0016084344 0.0065149623
-0.0044277483 0.0075117443 -0.005323475 0.00089899893 -0.011125919 0.004405666 -0.00082219206 0.0009074274

action_model._continuous_distribution.log_sigma f4 [1, 3]
00000000: eb45 853c f8b4 653c c9b0 a03b
0.016268691 0.014020197 0.004903887

action_model._continuous_distribution.mu.weight f4 [3, 256]
00000000: 1905 833c e397 d03a 3554 02bb a2e2 8bbc
00000010: 418a c53b d8ab 77bc ee2d babc 6a1c b33c
00000020: f478 57bc a850 d33a 6492 f8bb 1306 9ebb
00000030: bad1 a7ba 576d 8fbc 1c83 62bc 6504 81bc
00000040: 1717 59bc ba5d c03b ae2c c23b 953b 30bc
00000050: 0d43 563c 579b 43bb 1903 ec3a f58c 823b
00000060: 7ad0 d63b e3ce 973c fcaa 93bc 6dc4 83bb
00000070: 080a 14bb 6879 143c e404 b03c 94ac 203a
00000080: 0ae3 103a 7f13 833c c655 b73b 031c 66bc
00000090: 1561 443b 24bd 023b 5c77 bbbb d0d2 d63a
000000a0: 35e2 d33b fcac 023c d279 ca3b 2e44 1a3b
000000b0: 8e98 aabc 4a11 d13c beb5 9dba 410b d23b
000000c0: 5a70 af3a 54e9 813b 4c55 01bc cdef 04bd
000000d0: 8cae 96bc 5a87 f13b 4ba0 363c 7ff0 a53c
000000e0: f0ac 93bb a62a 4b3b 691f 3abc 40ed 3e3c
000000f0: 6f4c 9abc a84b b03b 9de4 353c 1749 e3bb
00000100: b598 39bb 694e d3bc 9c76 62bc 7b25 e03b
00000110: ae08 fbba 0443 49bb 8d2f 4dbc 2cbe 3bbc
00000120: 228f 22bc 8039 f2bb 5e32 a6bc f094 3638
00000130: d9c7 7e3b babe 0bbc f2b0 aa3c 3174 f33a
00000140: 03b9 4ebc 0b43 5d3c c882 01bc c197 b13c
00000150: e8a4 06bc 4566 f13b 4dd5 b13b da1a 6ebb
00000160: 7165 893b 0b10 a1bb 55ca b3b9 8558 29bc
00000170: ee09 573b eeef a2bb 01b8 debb 94bb a7ba
00000180: f48b de3b 6704 393c 6db8 9fbc ff6a 1abc
00000190: ec76 a03c 1691 06bc 0953 0b3c 7adb 0bbc
000001a0: 32f4 ac39 4aeb 91bc 005c c1b9 da77 013c
000001b0: 845d eab9 d9ef a23c e94a bf3c 0ca9 a63b
000001c0: 02f7 513c b2c7 3abc 48ef 1a3d c7ac 5dbc
000001d0: 33ba d3bb 5c9b e03c 742f da3c 1d08 22bb
000001e0: fb85 be3b 9277 3f3c d734 a7bc fda1 aa3c
000001f0: 023f 01bc 7da3 d23a 5c23 233c aa43 413c
00000200: dc5b 3fbb 0cf3 f83c 9ec8 4d3c 80d8 83bb
00000210: 340d 503c 2dde 3a3c 4453 c0bb e20c ff3b
00000220: 19c5 17bc 6e4d b2bb d28f 153a 3ad8 a63b
00000230: e8ec 8c3c bb08 d73c 55d2 52bb d16d 43bc
00000240: 5d37 54bb 8b11 15bb 490e 773b ee44 c7ba
00000250: 60fc 47bc 423b 3a3c 8648 7f3c 88fd 9dbc
00000260: 4d76 44ba f6dc a73c 01f2 d13c 2646 36bc
00000270: 3055 413c 455d d33a d2b2 9a3b 37ea 9abc
00000280: 9ebd ae3c ff79 10bc d337 86ba fae1 0b3c
00000290: b396 3abb a5cc 23b9 5bf5 a8bb dd87 ab3b
000002a0: 21be acbb a92d 1cbc 020c 59bb 5ae4 df3c
000002b0: 1653 973c c467 eebb e6a9 aa3c 8b99 503c
000002c0: 427e 59bc fedb 513c 0b6e a93c 3a7a d53b
000002d0: 92cb 1f3b 16f7 cebc 2f92 873c 65bf 44bc
000002e0: 912d 203c 148f debc 4bf4 823c 4be6 0cbb
000002f0: 8374 7e3b a692 1dbb 1b9a dd3b 550d dc3b
00000300: 5651 8fbb de20 85bb 92f6 4d3a 18dd 10bb
00000310: 8bcc 9abc 4d37 c13b 5d99 29bc 66f1 4d3b
00000320: 6975 a239 1a20 e33c dfc9 0cbc a25f 1cbc
00000330: 39b0 1bbb 6098 3b3b e477 273c b14d 38bb
00000340: e7a8 453c a971 89bb fb0e ea3b d096 fa3c
00000350: 862c 363c 74fc bd3c 7a79 56bc 5ed5 d13a
00000360: 5bf5 8bbc 4ca7 983c 767c e5bc 9e25 813c
00000370: c3eb 28bc 161e 173b 2331 94bb 4ca0 abbb
00000380: 00b6 14bd 011f 453c 6675 163b 0779 3ebc
00000390: eb5d 6d3c 1473 baba e082 0b3c 82ef e7bb
000003a0: 8eee 8e3c ee2b 873c d457 783c 9f8f f9bc
000003b0: 3dd9 c2bb a13b 1a3c 4495 1a3b f1bf 213b
000003c0: 14e2 d3ba 3cd5 e43c 7a79 d73b 30cf d63c
000003d0: 832a 713c 9b26 84bc 6d85 0c3c cd36 a33b
000003e0: cd6b 82bc a52c a23c 95ac 11bd 794b 3d3b
000003f0: fba6 6dbc 8134 1639 1ecd 33bc 028f 45ba
0.015993642 0.0015914406 -0.0019886617 -0.01707584 0.006028444 -0.015116654 -0.02272698 0.021864135
-0.013151396 0.001612206 -0.0075858105 -0.0048225014 -0.0012803592 -0.017508192 -0.013825204 -0.015749166
-0.013250134 0.005870548 0.0059257364 -0.010756393 0.01307751 -0.0029847228 0.0018006294 0.0039840885
0.006555614 0.018531268 -0.018025868 -0.0040212185 -0.0022588987 0.009062149 0.021486707 0.0006129232
0.00055269955 0.016000507 0.005594942 -0.014044764 0.0029965092 0.0019949162 -0.005721016 0.0016389731
0.006466175 0.007975813 0.006179073 0.0023539173 -0.020824697 0.02552094 -0.0012032313 0.006410033
0.0013384924 0.0039645825 -0.0078938715 -0.032455254 -0.018393777 0.0073708715 0.011146615 0.020256279
-0.0045066997 0.0031000762 -0.011360028 0.0116532445 -0.018835275 0.0053801127 0.011101869 -0.006936203
-0.002831978 -0.025794225 -0.013822224 0.0068404055 -0.0019152367 -0.003071011 -0.012523544 -0.011458915
-0.009921821 -0.0073921084 -0.020287689 4.353089e-05 0.0038876443 -0.0085293595 0.020836327 0.0018574056
-0.012617352 0.013504754 -0.007904716 0.021678807 -0.008218028 0.007366928 0.0054270388 -0.0036331923
0.004193001 -0.0049152425 -0.0003429229 -0.010336046 0.0032812315 -0.0049724495 -0.0067968373 -0.0012796992
0.006791586 0.0112925535 -0.01949712 -0.009424924 0.019587956 -0.008213302 0.008503684 -0.008536214
0.00032988336 -0.01781239 -0.00036880374 0.00790211 -0.00044701633 0.019889759 0.02335115 0.00508607
0.012815239 -0.01140015 0.037825853 -0.013529963 -0.0064614057 0.027417831 0.026633956 -0.0024724074
0.0058143116 0.011686223 -0.020410938 0.020829195 -0.007888557 0.0016070452 0.009957161 0.0117959175
-0.002919904 0.030389331 0.012560038 -0.0040236115 0.01269846 0.01140551 -0.005869301 0.007783518
-0.0092633 -0.0054413592 0.000570533 0.005091694 0.01720281 0.02624928 -0.0032168825 -0.011928038
-0.0032381632 -0.0022746052 0.0037697724 -0.0015203038 -0.012206167 0.011366667 0.015581256 -0.019285932
-0.0007494435 0.020491105 0.025628092 -0.011125123 0.011800095 0.0016125819 0.004721024 -0.01891051
0.02133065 -0.008818149 -0.0010240026 0.008537764 -0.0028471171 -0.00015621127 -0.005156202 0.005234702
-0.0052716886 -0.009532371 -0.003311873 0.027330566 0.018472236 -0.0072755534 0.020832967 0.01273192
-0.013274731 0.012808798 0.020682355 0.0065148147 0.0024382812 -0.025264304 0.016549198 -0.012008523
0.009776489 -0.027167834 0.015985629 -0.002149957 0.003882677 -0.0024043708 0.0067627556 0.0067154565
-0.0043737097 -0.004062756 0.0007856871 -0.0022104438 -0.018896362 0.005896485 -0.010351506 0.0031424402
0.00030986525 0.027725268 -0.008593052 -0.009544285 -0.002375616 0.0028624758 0.010221455 -0.002812248
0.012064195 -0.0041944575 0.007142899 0.030589491 0.011119014 0.023191668 -0.013090486 0.0016009023
-0.017084768 0.01863446 -0.02801345 0.015765008 -0.010310116 0.0023058704 -0.004522459 -0.0052376147
-0.03630638 0.012031318 0.0022958159 -0.011625535 0.014487724 -0.001422497 0.00851509 -0.007078112
0.017447736 0.01650044 0.015157659 -0.030463992 -0.005946307 0.009413631 0.0023587504 0.0024681056
-0.0016165399 0.02793371 0.0065757604 0.026221842 0.014719608 -0.01613169 0.008576733 0.004980898
-0.015920544 0.019796679 -0.035564978 0.0028884097 -0.014505143 0.00014324674 -0.010974197 -0.00075362634

action_model._continuous_distribution.mu.bias f4 [3]
00000000: fb6b 073c b956 f13a e8f3 82b8
0.008265491 0.0018412686 -6.244314e-05

action_model._discrete_distribution.branches.0.weight f4 [7, 256]
00000000: 61ac 71bc d881 5b3a a379 44bc 462a 43bc
00000010: dc1d 983b 8d89 5aba 536d 923b 2c49 1dbc
00000020: 8ad4 c5bc a168 c339 c7f6 543b 8d01 1dbb
00000030: 93c2 a2bb ff2b 973b ea6a 07bc 68c2 803c
00000040: 6434 143c afd3 c93b a1cc 57bb e208 ed3b
00000050: 36c0 b53b 30bf 9139 5dd6 993c 9813 af3b
00000060: f3a4 cbbc 12c9 1b3b 471e 6ebc 5d45 babc
00000070: ba80 ecbb a169 52bc 1cf8 d23c 3be0 653c
00000080: c4a7 0b3c 4e90 743b bd2c 9f3c a418 36bc
00000090: 16fb 4fbc 28f7 ca3b d806 d6ba e25f 04bb
000000a0: f822 913a 5add f2bb 4365 5dbc b985 14ba
000000b0: c81e 523c 10bf 72bb 7f2f 10bb aeb4 64bb
000000c0: 2e20 6c3b 18b9 b2ba 1bb5 7bbc c408 dcbb
000000d0: c58e c33a b734 5cbb 5c12 07bb 4d75 913b
000000e0: 13b8 86ba cef5 67bb 459c 61bc ed7e 083b
000000f0: 8551 4d3c 578a 033c f90c ed3b 4ac3 b1bb
00000100: af28 1f3c a2ba fcbb 5609 94ba 7123 d63b
00000110: 9e98 ccbc 5775 0d3c 71f2 4ebb 0325 4cbc
00000120: b83c 13bc 523e 4d3c 0014 593c 2426 2f3b
00000130: 80f4 4cbc 388e c9ba 8390 9d3c dbe9 6bbb
00000140: 7e53 87ba f28f 11bc b4cc 643c 819d 083b
00000150: 3925 2a3c 420d 61bb c40b 2c3c 76c8 653b
00000160: e07b ccbb 50a8 f0bb f695 823b 67dd b3bb
00000170: e694 0cbc d56e 273c ccac cb3a 274c c3ba
00000180: 7f2f 07bb 179e 4abc 85f9 c6bb 4c28 7dbc
00000190: 73c9 afbb db1b 8c3b ecec 363b 2eda f339
000001a0: 80ff 923a b697 b4bb 9a82 b13b bf4b ec3b
000001b0: f33f 953a c344 153d dc5c 22bb aa1c 15bc
000001c0: 32f7 33bc 9278 c7ba 2a57 8e3a adc0 a6bc
000001d0: 84f5 a8bb 13a4 b83b 4bd7 5a3b 70f3 57ba
000001e0: 4fac 86bb 6c3a 1d3c 187b b03b 6189 89bb
000001f0: 7113 10bc 4d6e 98bc 1f8c 943b a47d 273b
00000200: 2bc2 4cba 3212 bf3b b9c1 733a 5e6a 703c
00000210: 95c1 82ba d12f 06bc e09f 05bb fe1e 95bb
00000220: c111 8b3c 7cfd efbb b7a2 603c 38a7 653c
00000230: c61f 293a 6c1e 66bc f030 b9bb 13bf b1ba
00000240: 1d21 433c e85c 41bc d93e 9cbc a15c 103c
00000250: b63a 0abc ab62 c83a 93ae 0e3c 59e1 6e3c
00000260: 6c1f 303b b0af f8ba 542c f63a 945f 663b
00000270: 70c8 b73b 56b5 1a3c a0a9 75bb 196f 423c
00000280: 4f13 7abb 7658 01bc b912 84bc 7cbc e43b
00000290: 4a54 1fbc 7a2e 603c 6ef1 d7ba aef6 d2bb
000002a0: 3fff 3dbb a038 2a3c a5b9 c8bb 38bd 21bc
000002b0: 593c 9fbb d8e5 66bc 73ae f23b 2d50 323c
000002c0: fea4 083c 1a6e 5ebb 5b49 08bc 5bc2 323c
000002d0: 785c 0dbc 006f 513c c721 603c ebb6 333c
000002e0: 6c82 2fbb febe d13a 5fcb 483b 6299 cbbc
000002f0: 92e8 c73c d94d 5a3c 7b71 3cbc ca20 13bc
00000300: 0d3d 8a3c f3c3 e73b a7fe 3f39 b340 a4ba
00000310: 4d0e 24bb 7e36 57bc 40ae 46ba 46d7 c5bb
00000320: f43a 86bb af75 49bc 334e 80bb 91e4 843c
00000330: 2151 a13c 91e7 a43c b01b f53b 3c6e 8bbb
00000340: 3461 98b9 a3d3 93bc c4c1 03bc 9198 c3bb
00000350: 1ff2 373c 7778 9dbc 4cff f43a f317 9c3b
00000360: ffb8 2338 a7e4 63bc f1d5 373b 5921 86bb
00000370: 42f7 98b9 b6c4 ebbb b5ef a23c 3a06 2e3b
00000380: 4ad8 39ba c11e babb 8417 813c a9c9 82bc
00000390: a216 a0bc 821b 6bbc a68e 51bc d36e 9cbb
000003a0: 1d03 da3b ba20 02bd 43e2 90bb 9011 db3a
000003b0: 9630 b2bb 673d 02bb f1b9 70bc 06e8 45bc
000003c0: 3e50 7dbb df4b 913c b5af 3ebc 62c6 d7bb
000003d0: 57fa 383b 3dc1 9cbc f00c 15bc 95ef a9bb
000003e0: 4aa7 1e3c d2c2 4abb 72f5 08bc 1812 3c3b
000003f0: 22ca 3bbc 2800 4c3c 787e c6bb 81bb 223c
-0.014750571 0.0008373535 -0.011991891 -0.011911934 0.0046422314 -0.00083365367 0.004468599 -0.009599965
-0.024149198 0.00037271253 0.0032495724 -0.0023957223 -0.0049670427 0.004613399 -0.008265236 0.0157177
0.009045694 0.006159268 -0.0032928365 0.007233725 0.005546595 0.00027799 0.018778974 0.005342912
-0.024858927 0.002377097 -0.014533586 -0.022738153 -0.007217494 -0.012842567 0.025753073 0.0140305115
0.008523885 0.0037317458 0.019430513 -0.011114273 -0.012694141 0.006194014 -0.0016328944 -0.0020198752
0.0011073044 -0.007411641 -0.013512912 -0.0005665678 0.012824722 -0.0037040152 -0.0022000966 -0.0034897733
0.0036029923 -0.0013635485 -0.015363003 -0.006714912 0.0014919868 -0.0033600756 -0.0020610308 0.004439032
-0.0010278247 -0.0035394314 -0.013770168 0.0020827607 0.012531643 0.008028588 0.0072342125 -0.0054248916
0.00971429 -0.007712678 -0.0011294286 0.0065349867 -0.024975117 0.008633933 -0.0031577612 -0.012459996
-0.008986644 0.012527065 0.013249397 0.0026725614 -0.012509465 -0.0015377467 0.019233948 -0.0035997543
-0.0010324565 -0.008884417 0.013964821 0.0020845833 0.010384851 -0.0034340178 0.010500852 0.003506211
-0.006240353 -0.007344283 0.003985162 -0.0054890397 -0.008580422 0.0102192955 0.0015539168 -0.0014900015
-0.0020627675 -0.012366793 -0.0060722255 -0.015451502 -0.005364591 0.0042757816 0.0027912213 0.00046511128
0.0011215061 -0.0055112494 0.0054171802 0.007211178 0.0011386856 0.03644253 -0.0024774587 -0.009101072
-0.010984229 -0.0015218428 0.0010859717 -0.020355547 -0.005156221 0.0056347935 0.0033392485 -0.0008237874
-0.0041098963 0.009596448 0.0053857677 -0.004197285 -0.008793698 -0.018607283 0.0045333053 0.0025557065
-0.00078109157 0.0058310265 0.0009298581 0.014673797 -0.0009975905 -0.008190111 -0.0020389482 -0.0045508137
0.01697624 -0.007323919 0.013710669 0.014016919 0.0006451573 -0.014045339 -0.0056515858 -0.0013560973
0.01190975 -0.011801936 -0.019072937 0.008811147 -0.008436849 0.0015288194 0.008708614 0.014580094
0.0026874198 -0.0018973257 0.0018781521 0.0035152184 0.005608611 0.009442648 -0.0037485138 0.011867308
-0.0038158481 -0.007894626 -0.016122209 0.006980477 -0.009724686 0.013682956 -0.001647515 -0.006438098
-0.002899125 0.010389477 -0.006125646 -0.009871773 -0.004859489 -0.014092885 0.00740605 0.010883373
0.008340118 -0.0033940137 -0.008318271 0.010910596 -0.008628003 0.012782812 0.013679928 0.010968904
-0.0026780618 0.0016002355 0.0030638797 -0.024853412 0.02440289 0.013324224 -0.011501665 -0.0089799855
0.016874814 0.0070729195 0.00018310045 -0.0012531489 -0.0025032938 -0.013135551 -0.0007579066 -0.0060376255
-0.004096383 -0.012296124 -0.003915572 0.01622227 0.019692006 0.02012995 0.0074801072 -0.0042550843
-0.0002906412 -0.018045252 -0.008041803 -0.005969115 0.01122716 -0.019222481 0.0018691807 0.004763597
3.903452e-05 -0.013909495 0.0028051103 -0.004093331 -0.0002917592 -0.0071950806 0.019889692 0.0026554004
-0.00070894195 -0.0056799357 0.015758283 -0.0159653 -0.019542042 -0.01434982 -0.012790358 -0.0047739535
0.006653203 -0.03176949 -0.0044215037 0.0016713608 -0.005437921 -0.0019873024 -0.014692769 -0.0120792445
-0.0038652564 0.017736373 -0.0116385715 -0.0065849284 0.0028225386 -0.019135112 -0.009097323 -0.005186031
0.0096834395 -0.0030938876 -0.0083593 0.0028697308 -0.011461766 0.012451209 -0.0060575567 0.0099324

action_model._discrete_distribution.branches.0.bias f4 [7]
00000000: 2f43 c03b 80e8 313c a39c 16bc e9f4 22bb
00000010: 56c0 b33b bcb9 2339 6767 03bc
0.005867384 0.010858655 -0.009192619 -0.0024865216 0.0054855747 0.00015614083 -0.0080202585

onnx::Div_70 f4 [33]
00000000: 5e79 5941 1634 223d e264 6041 a163 2e3b
00000010: 9cdc 8e3e a163 2e3b d6eb 9941 8d2a 393b
00000020: d742 9741 a163 2e3b 1a12 903e a163 2e3b
00000030: 7def 1f3e 4267 173e cee8 243e 86d3 ec3e
00000040: 875a 3f3e 46ee 243e 9f60 0b3e a163 2e3b
00000050: 8ec7 053e 1267 333f af74 2e3b 801d 363f
00000060: af84 933e a290 823e 9a90 823e 5114 7d3e
00000070: 2d14 7d3e bcae d03d c9d3 923e 3ac2 313f
00000080: 01a3 3b41
13.592131 0.039600454 14.02463 0.0026609676 0.27902687 0.0026609676 19.240154 0.0028254122
18.907637 0.0026609676 0.2813881 0.0026609676 0.15618701 0.14785483 0.16104433 0.4625513
0.18686877 0.16106519 0.13611077 0.0026609676 0.13064405 0.7007915 0.0026619842 0.71138763
0.28812167 0.2550097 0.25500947 0.24714781 0.24714728 0.10189578 0.28677204 0.6943699
11.727296
