results/test5/BoxingAgent/BoxingAgent-14552.onnx (onnx, 409187 bytes, 13 tensors)

network_body.observation_encoder.processors.0.normalizer.running_mean f4 [84]
0	0x00000000	0.0
1	0x3f3882ba	0.7207447
2	0x3e65e0a5	0.22448976
3	0x3f3031a5	0.6882575
4	0x00000000	0.0
5	0x3f36ae64	0.7135985
6	0x3e68571e	0.22689483
7	0x3f2fe90a	0.68714964
8	0x00000000	0.0
9	0x3f3999ef	0.7250051
10	0x3e63c441	0.22242834
11	0x3f305fed	0.6889637
12	0x00000000	0.0
13	0x3f3685de	0.71298015
14	0x3e690b3d	0.22758193
15	0x3f3005ed	0.6875904
16	0x00000000	0.0
17	0x3f395663	0.7239744
18	0x3e65cea4	0.22442108
19	0x3f3034a8	0.6883035
20	0x00000000	0.0
21	0x3f37e09d	0.7182711
22	0x3e63462c	0.22194737
23	0x3f301e29	0.6879602
24	0x00000000	0.0
25	0x3f3a4510	0.7276163
26	0x3e63a03c	0.22229093
27	0x3f3057cb	0.6888396
28	0x00000000	0.0
29	0x3f38afc5	0.72143203
30	0x3e61b9e1	0.22043563
31	0x3f30b8c2	0.6903192
32	0x00000000	0.0
33	0x3f396866	0.72424924
34	0x3e664cb9	0.22490205
35	0x3f304860	0.68860435
36	0x00000000	0.0
37	0x3f3a378d	0.72741014
38	0x3e5f6773	0.21816806
39	0x3f317af5	0.6932824
40	0x00000000	0.0
41	0x3f3831ac	0.71950793
42	0x3e6acd8e	0.22929975
43	0x3f305f2a	0.6889521
44	0x00000000	0.0
45	0x3f3a4e10	0.72775364
46	0x3e60f3be	0.2196798
47	0x3f31bbce	0.6942719
48	0x00000000	0.0
49	0x3f360c47	0.71112484
50	0x3e70feb5	0.23534663
51	0x3f308f47	0.68968624
52	0x00000000	0.0
53	0x3f394d64	0.72383714
54	0x3e65f2aa	0.2245585
55	0x3f31f328	0.6951165
56	0x00000000	0.0
57	0x3f33d05c	0.70239806
58	0x3e787416	0.24263033
59	0x3f3150b5	0.69263774
60	0x00000000	0.0
61	0x3f368a60	0.71304893
62	0x3e6fde82	0.23424724
63	0x3f31ece4	0.6950209
64	0x00000000	0.0
65	0x3f32248e	0.6958703
66	0x3e7edb4c	0.24888343
67	0x3f3230bc	0.6960561
68	0x00000000	0.0
69	0x3f34b187	0.70583385
70	0x3e7657b6	0.24056897
71	0x3f320803	0.69543475
72	0x00000000	0.0
73	0x3f301a2c	0.68789935
74	0x3e83e57a	0.25761014
75	0x3f334aa2	0.70035756
76	0x00000000	0.0
77	0x3f33e261	0.702673
78	0x3e781a0a	0.24228683
79	0x3f3224b5	0.6958726
80	0x00000000	0.0
81	0x3f2f3d85	0.68453246
82	0x3e86acfc	0.26303852
83	0x3f343715	0.7039655

network_body.observation_encoder.processors.2.normalizer.running_mean f4 [37]
0	0x3f10ff91	0.56639963
1	0x416d802d	14.843793
2	0xc16529ee	-14.322737
3	0xb131ed00	-2.5891609e-09
4	0x3f02cd80	0.5109482
5	0x3083c719	9.588091e-10
6	0xbf8eaf91	-1.1147329
7	0x39eb9970	0.00044937013
8	0xbea007e6	-0.31256026
9	0xb1a5eca3	-4.8290345e-09
10	0x3efbfa8d	0.49214593
11	0x318a2261	4.020237e-09
12	0x3f75793f	0.9588813
13	0x3f6b1e67	0.91843265
14	0x3c17fc31	0.009276436
15	0x3e97871e	0.29595274
16	0x3f0cfdaa	0.5507456
17	0x3f7d9b8f	0.9906549
18	0x3e8bfde0	0.2734213
19	0x3f9703f4	1.1798081
20	0x3c89a18b	0.016800663
21	0x3d7adfe0	0.06124866
22	0x00000000	0.0
23	0x3c041fb6	0.008064201
24	0xbd6a8f39	-0.057265494
25	0x383d30ba	4.510649e-05
26	0xbd1043d0	-0.03522092
27	0x3eeba15d	0.46021548
28	0x3efdc4a1	0.49564078
29	0x3f01192e	0.50429046
30	0x3f00a460	0.50250816
31	0x3efeae40	0.49742317
32	0x3a3991a3	0.00070788915
33	0x3f32128c	0.6955955
34	0x3f175d15	0.59126407
35	0xbdcbd530	-0.09952772
36	0x416d802d	14.843793

network_body._body_endoder.seq_layers.0.weight f4 [256, 121]
0	0xbd5c31fb	-0.053758603
1	0xbdf9a16b	-0.12188991
2	0x3dfdbacf	0.123891465
3	0x3d91d066	0.07119827
4	0x3dcd6508	0.10029036
5	0xbd4dd971	-0.050256196
6	0xbdcba9c5	-0.0994449
7	0xbd9f12ef	-0.07767283
8	0x3d89fbdf	0.06737494
9	0x3d3e9d76	0.046536885
10	0x3d85714c	0.0651575
11	0xbe20b0ea	-0.15692487
12	0xbe1a8638	-0.15090263
13	0x3ce76270	0.02824518
14	0x3d645d29	0.055752907
15	0xbd609977	-0.054833855
16	0xbdee7a2c	-0.11644396
17	0xbd913a48	-0.070911944
18	0xbdf00172	-0.11719026
19	0xbd952e16	-0.07284181
20	0x3e0ef8d0	0.13962102
21	0xbde0ec00	-0.109825134
22	0x3c6428f0	0.013925776
23	0x3ccdc006	0.025115978
24	0xbca423f0	-0.020036668
25	0xbdfec2e9	-0.1243952
26	0xbd48e0fa	-0.04904268
27	0x3cc08546	0.02350105
28	0xbd7dd3fc	-0.061969742
29	0x3c5c3811	0.013441102
30	0x3d82d45b	0.0638816
31	0x3d623a08	0.055231124
32	0xbe236224	-0.15955406
33	0xbe0f3f31	-0.1398895
34	0x3cb0d707	0.021586908
35	0x3d274071	0.04083294
36	0xbddb4316	-0.10706155
37	0x3b9116a8	0.0044277497
38	0x3d36263e	0.044470064
39	0xbcbc5783	-0.022990948
40	0x3cc575d9	0.024104046
41	0xbe3053b9	-0.17219438
42	0x3d84b3cb	0.06479605
43	0x3bf856ef	0.0075787227
44	0xbd43ba86	-0.047785304
45	0xbdc25502	-0.0948887
46	0x3c390feb	0.011295299
47	0x3da9276a	0.08259471
48	0x3ca476d9	0.020076202
49	0x3caf178b	0.02137353
50	0xbe5a3ba6	-0.21311817
51	0xbd9354a4	-0.07193878
52	0xbd042177	-0.032258477
53	0xbdeb0560	-0.114756346
54	0x3dba83ed	0.09107194
55	0xbc09f3a9	-0.0084199095
56	0x3cca5c8b	0.024702331
57	0xbd80232e	-0.0625671
58	0x3c8e819a	0.017395783
59	0x3d84ebf8	0.0649032
60	0x3d84acf2	0.06478299
61	0x3d29316c	0.041306898
62	0x3b42afdb	0.0029706869
63	0xbd65876c	-0.05603735
64	0xbbbc2c90	-0.005742617
65	0xbdf08d7f	-0.11745738
66	0x3d120fd9	0.035659645
67	0x3cd773b0	0.026300281
68	0x3df1ff1e	0.11816238
69	0x3c65ceac	0.014026325
70	0xbdd1cbd9	-0.10243959
71	0xbdc06620	-0.09394479
72	0xbc04177f	-0.0080622425
73	0x3dae028e	0.08496581
74	0x3de16ed3	0.11007466
75	0xbd90796d	-0.0705441
76	0x3dcea282	0.1008959
77	0x3db2edac	0.087367386
78	0xbb0ed061	-0.0021791684
79	0x3cdc9e04	0.026930816
80	0x3d240718	0.040045828
81	0xbd8c17df	-0.068404905
82	0xbd704b91	-0.058665816
83	0x3d74e14e	0.05978518
84	0x3d7b97e9	0.06142417
85	0x3cc523ee	0.024064984
86	0x3b1c273d	0.0023827099
87	0xbda18544	-0.078867465
88	0xbd406f4c	-0.04698114
89	0xbd8da6b8	-0.06916565
90	0xbc2470c2	-0.010036649
91	0x3d061265	0.032732386
92	0x3e1d5ccb	0.15367429
93	0x3dbc4f20	0.091947794
94	0xbd9b0bb3	-0.07570591
95	0x3cb1b80a	0.021694202
96	0xbdda1be8	-0.10649854
97	0xbd33290b	-0.043740314
98	0xbd07aaae	-0.033121757
99	0x3dfec114	0.124391705
100	0x3b8a4d58	0.004220646
101	0x3c690a5e	0.014223663
102	0xbcf1adf7	-0.029501898
103	0x3da67956	0.08128612
104	0xbc623a43	-0.013807836
105	0xbcd2444e	-0.025667336
106	0xbc0f53a3	-0.008747968
107	0xbd838175	-0.06421176
108	0x3c9676be	0.018367168
109	0x3cafde9e	0.021468457
110	0xbdffaabc	-0.12483737
111	0x3bdd0b22	0.006745712
112	0x3cee809f	0.029114066
113	0x3d275c66	0.040859602
114	0xbdc1e0d8	-0.09466714
115	0x3d3fef52	0.046859093
116	0xbde5bb4c	-0.11217365
117	0xbcc982a9	-0.024598436
118	0x3d74ef9d	0.059798826
119	0x3d1c3de0	0.038144946
120	0xbd996e2c	-0.07491717
121	0x3dbc8fe6	0.09207134
122	0xbcf74d8b	-0.030188343
123	0x3dce2c83	0.10067084
124	0xbdfefc18	-0.12450427
125	0x3da463bb	0.080268346
126	0x3e10eec3	0.1415358
127	0x3dfe2d92	0.124110356
128	0xbdf59e39	-0.11993069
129	0x3d7ae5c3	0.061254274
130	0x3b1a59be	0.0023552026
131	0x3ce9bd2e	0.02853259
132	0x3e382e93	0.17986517
133	0x3d555018	0.052078336
134	0x3e02d5d3	0.1277688
135	0xbdd2fec3	-0.10302498
136	0xbd844037	-0.064575605
137	0x3e0cd473	0.13752918
138	0x3e1181c9	0.14209665
139	0x3da9a92d	0.08284221
140	0x3c92f835	0.01794062
141	0xbb8fde5f	-0.0043905224
142	0x3df8abe1	0.12142158
143	0xbe098517	-0.13429676
144	0xbde4a7ab	-0.111647926
145	0x3ac1b73f	0.0014779343
146	0x3c175457	0.009236417
147	0xbdb79b2c	-0.089651436
148	0xbd6060bb	-0.05477975
149	0xbd18ed47	-0.03733566
150	0x3e425679	0.18978299
151	0xbcb6ba33	-0.022305584
152	0xbd1073d4	-0.035266712
153	0x3c973950	0.018459946
154	0x3d26d952	0.040734597
155	0xbd539920	-0.051659703
156	0x3e0bd321	0.13654758
157	0x3d136d25	0.03599276
158	0xbd5a220b	-0.053255122
159	0xbcffadc5	-0.03121079
160	0xbe603bcc	-0.2189781
161	0xbdbb91bc	-0.09158656
162	0x3c908485	0.017641315
163	0x3dca0c9a	0.09865685
164	0xbd85c8c9	-0.06532437
165	0xbdb09080	-0.08621311
166	0xbc748002	-0.014923098
167	0xbd09295d	-0.033486713
168	0x3ba9309c	0.0051632654
169	0xbdbe15df	-0.09281515
170	0xbe021508	-0.12703335
171	0xbda44124	-0.08020237
172	0x3c0b0bbc	0.008486684
173	0xbd916d0e	-0.07100879
174	0xbe1a6fcd	-0.15081711
175	0x3e35c52f	0.17751001
176	0xbd2d644d	-0.042331982
177	0xbd3c0916	-0.045907103
178	0xbd11fef8	-0.035643548
179	0x3bc05c70	0.0058703944
180	0x3dcf90c3	0.10135033
181	0xbe0ca8e1	-0.13736297
182	0x3da8fec3	0.08251717
183	0xbd716f51	-0.05894405
184	0xbda49f4a	-0.080381945
185	0x3c6ce3a9	0.014458575
186	0x3ca13b84	0.0196817
187	0xbd0517db	-0.032493453
188	0x3c237b2e	0.009978099
189	0x3b93840e	0.004501826
190	0x3e8e9103	0.2784501
191	0xbcda96df	-0.026683269
192	0x3dcace89	0.09902675
193	0x3dc5e386	0.09662537
194	0xbcea3daf	-0.028593866
195	0xbd8bfe75	-0.06835643
196	0x3d787c96	0.06066569
197	0xbd22af2a	-0.03971783
198	0x3c4acb7e	0.012377618
199	0x3ad29bce	0.0016068162
200	0xbba164bb	-0.004925338
201	0x3c7b44e9	0.015336254
202	0xbd0be019	-0.034149263
203	0xbe2183a6	-0.15772876
204	0xbd909bde	-0.07060979
205	0x3c81c7d6	0.01584236
206	0x3dcfa87d	0.101395585
207	0x3db2e95b	0.08735915
208	0xbd2c91f7	-0.04213139
209	0x3de597ee	0.11210619
210	0xbd4a77c1	-0.049430612
211	0xbd057a6a	-0.032587446
212	0x3c923aef	0.017850367
213	0xbd923031	-0.07138098
214	0x3cffa374	0.03120587
215	0xbcb55910	-0.022137195
216	0xbd42b980	-0.047540188
217	0x3d7a995a	0.061181404
218	0x3ab12e0a	0.0013517749
219	0x3d8cd8ea	0.068773106
220	0xbd0cb8b1	-0.034355823
221	0x3de5e32c	0.1122497
222	0x3d9455c1	0.07242919
223	0xbd2241e7	-0.03961363
224	0x3dd3a84c	0.103348345
225	0x3cca8b11	0.024724515
226	0x3dfbbb85	0.12291626
227	0xbd8704d8	-0.06592721
228	0xbda66470	-0.08124626
229	0xbd35ea3c	-0.044412836
230	0x3dada051	0.084778436
231	0xbdba3e9b	-0.09093972
232	0xbd1caa2a	-0.03824822
233	0xbd40ee1c	-0.04710208
234	0x3d62411f	0.055237886
235	0x3e602042	0.21887305
236	0xbd2d38bd	-0.042290438
237	0xbd1f9127	-0.038956787
238	0xbda210b3	-0.079133414
239	0x3d044f7d	0.03230237
240	0xbd579313	-0.052630495
241	0x3e17d494	0.14827186
242	0x3cf28bcf	0.029607682
243	0x3d51932a	0.051165737
244	0xbc5bc503	-0.0134136705
245	0xbc93ef69	-0.018058496
246	0xbc7c87bf	-0.015413224
247	0xbdcc81ce	-0.09985696
248	0xbcf42618	-0.02980332
249	0x3db60f5f	0.088896506
250	0xbde02675	-0.10944835
251	0xbd3dfd0e	-0.04638391
252	0x3c086b3d	0.008326349
253	0x3d248e35	0.04017468
254	0x3cd79206	0.026314747
255	0x3da4cfc6	0.08047442

network_body._body_endoder.seq_layers.0.bias f4 [256]
0	0xbb96a4bc	-0.0045972746
1	0x3bd40310	0.0064700916
2	0x3b6a2293	0.0035726174
3	0x3b2b1a9c	0.002610839
4	0x3c091b25	0.008368288
5	0x3c023592	0.0079473425
6	0x3bb7a9cd	0.0056049586
7	0x3b8eb9cd	0.0043556453
8	0xb9c85dd3	-0.00038216877
9	0x3b012a08	0.001970889
10	0x3be1dd3e	0.006892829
11	0x3bc1fea6	0.005920249
12	0x3c14b0d0	0.0090753585
13	0x3b370482	0.002792627
14	0xbba4e9cb	-0.005032753
15	0x3b1a1e61	0.0023516642
16	0x3bd6e39b	0.0065578944
17	0x3bacf65e	0.0052783927
18	0xb9599e6c	-0.0002075375
19	0x3b91c616	0.0044486625
20	0x390e250e	0.00013555979
21	0x3b6c361e	0.0036042999
22	0x3c07153c	0.008244809
23	0x3b8e9d0a	0.0043522166
24	0xbb79063a	-0.0037998096
25	0xbb078eaf	-0.0020684411
26	0x3ba54f6e	0.005044869
27	0xba91862d	-0.001110261
28	0x3c07dc3e	0.008292256
29	0xba6e7fd2	-0.0009098026
30	0x3c000d3d	0.007815656
31	0x3bc1493b	0.0058986223
32	0xbb8acd0a	-0.0042358683
33	0xbbc4089c	-0.0059824716
34	0x3a3ae767	0.00071298186
35	0x3b02329c	0.0019866591
36	0x3b870dd0	0.0041215196
37	0x3abf483b	0.001459367
38	0x3a24b89c	0.00062836125
39	0x3b1bfc40	0.0023801476
40	0x3bc5ed7f	0.0060402746
41	0x3ba409e2	0.005006061
42	0x3be2d696	0.0069225533
43	0x3bf6d7e9	0.0075330627
44	0x3bd1ec34	0.0064063314
45	0x3be31a6a	0.006930639
46	0x3ba02e97	0.0048883664
47	0xbb0dbf07	-0.0021628754
48	0x3b07a830	0.0020699613
49	0x3b0598b1	0.00203852
50	0x3be576bf	0.007002681
51	0x3b8dd267	0.0043280604
52	0x3bc05959	0.005870026
53	0x3bcb8144	0.006210478
54	0x3a8a0094	0.0010528737
55	0xb9ddeb15	-0.00042327555
56	0xbb0f5b9e	-0.0021874676
57	0x3b9f31dc	0.0048582386
58	0xbb85dbb4	-0.0040850285
59	0xbba6d6d1	-0.005091526
60	0x3bacd4ee	0.0052744066
61	0xbb46dabd	-0.003034278
62	0x3be8db41	0.007106215
63	0xbb8e7888	-0.0043478645
64	0x3b975e4b	0.004619395
65	0xbba689e1	-0.0050823544
66	0xba80ee47	-0.0009836637
67	0x3bdbdb95	0.006709526
68	0x3bb500ec	0.0055237915
69	0x3be7e73f	0.007077127
70	0x3b8c2847	0.0042772624
71	0x3bc507d4	0.006012896
72	0xbbcecc73	-0.0063109933
73	0x3b8c4648	0.004280839
74	0x3bac9063	0.0052662357
75	0x3b9612fe	0.0045799008
76	0xbba9c58f	-0.0051810215
77	0x3b882cd5	0.004155735
78	0x3c11a28f	0.008888855
79	0x3bbb3753	0.0057133823
80	0x3c0144d9	0.00788995
81	0x3c0176cd	0.0079018595
82	0xbb56e17d	-0.003278821
83	0x3bb80d1d	0.0056167976
84	0xbb25ba80	-0.0025288165
85	0x3baed75c	0.0053357314
86	0x3b311795	0.0027022113
87	0xba54f24f	-0.0008123265
88	0xbb204d14	-0.0024460005
89	0x3b63dc02	0.0034768586
90	0x3aab670f	0.0013076979
91	0x3c0ad948	0.008474655
92	0xbb388af0	-0.0028158985
93	0x3b903bd8	0.004401665
94	0x3be8afc3	0.0071010306
95	0x3bcde6bc	0.006283609
96	0xb9e967d8	-0.00044518593
97	0x3b2414f9	0.0025036915
98	0xbbe25053	-0.006906548
99	0x3acdd240	0.0015702918
100	0x3b1499f7	0.0022674778
101	0xba01f88f	-0.00049579976
102	0x3bd1b0fd	0.0063992725
103	0x3b3171b4	0.002707583
104	0x3b198166	0.0023423075
105	0xbb59840b	-0.0033190276
106	0x3b816fce	0.0039500957
107	0x3bb43e41	0.0055005853
108	0x3c0753a3	0.008259687
109	0x3be5641b	0.007000459
110	0x3ba83741	0.00513354
111	0x3ad3a888	0.0016148249
112	0x3bef54ea	0.0073038237
113	0xbbc8b94f	-0.006125606
114	0xb9afe2d3	-0.00033547598
115	0x3b43fe07	0.002990605
116	0xba97cde4	-0.0011581746
117	0x3bdd107d	0.0067463503
118	0x3b415290	0.0029498674
119	0x3ba906e8	0.005158294
120	0xbbae973f	-0.0053280885
121	0x3b6fe810	0.0036606826
122	0x3bcd0b87	0.0062574777
123	0x3b95d019	0.0045719263
124	0x3c019560	0.007909149
125	0xbacf8087	-0.0015831151
126	0xbb8a4719	-0.0042199013
127	0xbbb057f4	-0.0053815786
128	0xbbd17459	-0.0063920435
129	0xb995d450	-0.0002857768
130	0x3a8b66de	0.0010635515
131	0xbc027959	-0.007963502
132	0x3c04ff9e	0.0081175845
133	0x3b09c683	0.0021022863
134	0x3b993e09	0.0046765846
135	0x3a37152b	0.000698405
136	0xbbcb94e9	-0.00621282
137	0x3be2ff12	0.0069273794
138	0x3bce6d7e	0.0062996736
139	0x3b2429f6	0.0025049425
140	0xbbf01702	-0.0073269615
141	0x3abcc9a5	0.0014403356
142	0xbaaf6686	-0.0013381995
143	0x3b755bd8	0.0037438776
144	0x3b8b8736	0.0042580618
145	0x3bcc4735	0.0062340745
146	0x3bc642f1	0.0060504605
147	0x3bb7b329	0.0056060744
148	0x3b83e032	0.004024529
149	0xbc01c682	-0.007920863
150	0x3b9fd1b9	0.004877296
151	0x3bac268c	0.0052536186
152	0xbb81b99c	-0.003958894
153	0x3a814788	0.0009863237
154	0xbb8ffbba	-0.004394022
155	0xbba7535d	-0.005106373
156	0xb915a8b4	-0.00014272594
157	0xba9f6443	-0.0012160618
158	0x3ace3371	0.0015731883
159	0xba915fdf	-0.0011091194
160	0x3c01740f	0.007901206
161	0x3b35c690	0.002773676
162	0x3b43e015	0.0029888202
163	0xbb1cd81a	-0.0023932518
164	0x3babf54d	0.005247748
165	0xba805db9	-0.0009793557
166	0x3b81b4be	0.0039583137
167	0x3a808d6e	0.0009807774
168	0xbb08b3fe	-0.0020859237
169	0x3bcaa8f2	0.0061846906
170	0xbb9cc15f	-0.004783794
171	0x3bd4eaf6	0.006497736
172	0x393d5b31	0.00018058416
173	0xbbac12e2	-0.0052512744
174	0x3a2336fb	0.0006226149
175	0x3c0251e0	0.007954091
176	0x3bf33f75	0.007423336
177	0x3bbfb083	0.0058498993
178	0x3be906a5	0.007111388
179	0x3ad70242	0.0016403871
180	0x3bab758b	0.005232518
181	0x3bbb00c0	0.0057068765
182	0x3b368603	0.0027850873
183	0x3bf2707b	0.0073986626
184	0x3bb97ac5	0.005660387
185	0xbbe68a05	-0.007035496
186	0xb9f56934	-0.00046808424
187	0x3c0f634c	0.008751702
188	0x3bc99bb5	0.006152595
189	0x3bb8b03f	0.0056362445
190	0xbb2d809f	-0.002647437
191	0xbbf42df9	-0.0074517694
192	0x3a886dfd	0.0010408756
193	0xbad6f63b	-0.0016400287
194	0x3976f6c1	0.00023552311
195	0x3b095816	0.0020957044
196	0xba676791	-0.0008827383
197	0x3b9322e0	0.0044902414
198	0x3bc1e4f5	0.0059171864
199	0x3a7e12d2	0.00096921355
200	0xbb6c2003	-0.0036029823
201	0xbbdd550e	-0.006754524
202	0x3a4d7504	0.0007837566
203	0x3a91cf3c	0.0011124383
204	0x398d9ff1	0.0002701278
205	0x3a3319e7	0.0006832168
206	0x3af33823	0.0018556159
207	0xbaa442bc	-0.0012532095
208	0x3c0011ba	0.007816726
209	0xbbd33b0a	-0.006446247
210	0xbb0d9808	-0.002160551
211	0x3be59204	0.007005932
212	0x3b7292e9	0.0037013835
213	0xba90ad28	-0.0011037933
214	0xbb6975ae	-0.003562312
215	0xb98ba5ec	-0.00026635767
216	0x3bf8b77f	0.007590234
217	0x3bf8d10b	0.0075932792
218	0x3bdc9bec	0.0067324545
219	0x3ac57b22	0.0015066604
220	0x3bc5f32f	0.0060409526
221	0x3a53bd18	0.00080771884
222	0x3adaa43e	0.0016681028
223	0x3b66fe25	0.0035246697
224	0x3aa3897d	0.0012476888
225	0xb962a787	-0.00021615448
226	0x3a3792e4	0.00070027844
227	0x3aa032c0	0.0012222156
228	0x3c101a2c	0.008795302
229	0xbb95919d	-0.0045644776
230	0x3bbc0d15	0.005738864
231	0xbbe27e3c	-0.006912021
232	0x3bf0ccfb	0.0073486543
233	0x3be89f99	0.0070991036
234	0x3bbab9fb	0.00569844
235	0xba51cf88	-0.0008003642
236	0xbb7f43be	-0.003895029
237	0x3b80114c	0.003908312
238	0x3b2741ae	0.0025521326
239	0x3bf04d4f	0.0073334347
240	0x3bf70903	0.007538916
241	0x3bf4463d	0.007454662
242	0x3bf497ea	0.0074643986
243	0xbb7c2408	-0.0038473625
244	0x3bc254db	0.0059305257
245	0x3a6693e2	0.000879584
246	0xbbbfd3d5	-0.00585411
247	0x3b69802a	0.003562937
248	0x3b59ea53	0.003325124
249	0x3aecc1b0	0.0018063094
250	0x3be32709	0.0069321436
251	0x3bbe7250	0.005811967
252	0xbba53a78	-0.0050423704
253	0x3b7525b0	0.0037406497
254	0x3b575d86	0.003286214
255	0xbb98f445	-0.004667791

network_body._body_endoder.seq_layers.2.weight f4 [256, 256]
0	0x3d92826b	0.071537815
1	0x3d1f6e59	0.038923595
2	0x3d4330d5	0.04765399
3	0x3dbaad0c	0.09115037
4	0xbd77c13c	-0.060487017
5	0x3dc855d1	0.09781993
6	0xbb8cf8e8	-0.004302133
7	0x3ad16c22	0.0015977661
8	0x3bab7d65	0.005233454
9	0xbd80537d	-0.06265924
10	0x3d1f480c	0.03888707
11	0xbd03616b	-0.032075327
12	0x3d825374	0.06363574
13	0xbd002d6e	-0.031293325
14	0xbb0936c1	-0.0020937177
15	0x3dab7fc4	0.08373979
16	0xbbc90b40	-0.0061353743
17	0xbdad9b22	-0.08476855
18	0x3d546015	0.051849443
19	0x3d442314	0.047885016
20	0xbb01b9be	-0.001979455
21	0x3c4291c8	0.011875577
22	0xbe0343e7	-0.12818871
23	0x3d6a590f	0.05721384
24	0xbcccba56	-0.024991196
25	0xbd71d93c	-0.05904506
26	0xbd248db8	-0.040174216
27	0xbd8fae17	-0.07015627
28	0xbe20e3bb	-0.15711872
29	0x3b8e2a63	0.004338549
30	0xbce30a73	-0.027714944
31	0xbcfa28c9	-0.030537026
32	0x3d67f308	0.056628257
33	0xbcf7d01d	-0.030250603
34	0xbde8a469	-0.11359484
35	0x3d1dd35a	0.03853164
36	0x3da29a3c	0.07939574
37	0x3c0d638f	0.008629694
38	0xbd989b95	-0.0745155
39	0xbd8eda51	-0.06975234
40	0xbc23ded1	-0.010001854
41	0x3b9ff802	0.0048818598
42	0x3d99828a	0.074956015
43	0xbe17a752	-0.14809921
44	0xbd097d59	-0.033566806
45	0xbd90e781	-0.07075406
46	0x3ccada34	0.02476225
47	0x3c90b4aa	0.017664272
48	0x3c1277d4	0.008939702
49	0x3ce9e66d	0.028552258
50	0x3dbdcbde	0.092674
51	0x3d6d3a10	0.0579167
52	0x3c77d654	0.015126783
53	0xbd3fd78c	-0.04683642
54	0x3d55a16f	0.05215591
55	0x3c88529a	0.01664095
56	0xbd986379	-0.07440848
57	0xbc82e4ad	-0.015978182
58	0xbd3ea174	-0.046540692
59	0xbcea6372	-0.028611872
60	0xbc9c4dc7	-0.019080056
61	0xbd768343	-0.060183775
62	0x3cc2a19a	0.023758698
63	0x3bad202c	0.005283376
64	0xbd0bafd0	-0.034103215
65	0xbe0de1f4	-0.13855726
66	0xbd6f0fce	-0.058364682
67	0x3d191a46	0.037378572
68	0xbd9d4ca9	-0.076806374
69	0x3d13a312	0.036044188
70	0xbd730d52	-0.059338875
71	0xb9fced0f	-0.00048241808
72	0xbdcfabfe	-0.10140227
73	0x3be4be1c	0.0069806706
74	0xbc9d60ff	-0.01921129
75	0xbc2c8271	-0.0105291465
76	0xbd68f1a1	-0.05687106
77	0x3ca44217	0.020051045
78	0x3cacb218	0.021081015
79	0xbdbc6d81	-0.09200574
80	0x3d128163	0.035767924
81	0x3ca8343c	0.02053272
82	0x3daee22d	0.08539233
83	0xbd0dff5b	-0.034667354
84	0xbe08b84c	-0.13351554
85	0xbc95cd57	-0.01828639
86	0x3cf80396	0.030275147
87	0x3d577b78	0.052607983
88	0x3e04373e	0.12911698
89	0x3d4e133e	0.05031132
90	0x3d06dae8	0.03292361
91	0xbcc6f760	-0.02428788
92	0xbd899ce1	-0.067193754
93	0x3d4e0c4a	0.05030469
94	0xbc287b45	-0.010283296
95	0xbb45c92f	-0.003017973
96	0x3d019f72	0.0316462
97	0xbd831f0e	-0.064024076
98	0x3da1400b	0.07873543
99	0xbdda0893	-0.10646167
100	0x3d56af94	0.052413538
101	0x3d53f80a	0.05175022
102	0xbd029bbe	-0.03188681
103	0x3d23b920	0.03997147
104	0x3cf9ec16	0.030508082
105	0x3cecccd7	0.028906269
106	0xbd6c174e	-0.057639413
107	0x3c8fddab	0.017561754
108	0x3d594e31	0.053053085
109	0xbd9ee936	-0.07759325
110	0xbd3f3243	-0.046678793
111	0x3d512c45	0.05106761
112	0xbc60fda1	-0.013732345
113	0xbddcdf5f	-0.10784792
114	0xbd86cf5f	-0.06582522
115	0xbd31bbe6	-0.043392085
116	0x3d8551e9	0.06509764
117	0x3d7c7326	0.06163325
118	0x3d27a745	0.040931005
119	0x3c48858c	0.012238871
120	0xbc4d287b	-0.012521858
121	0x3e5e2c01	0.21696474
122	0xbd63b375	-0.055591065
123	0x3d55cdb0	0.052198112
124	0x3d290bab	0.041270893
125	0x3abb1903	0.0014274422
126	0x3d175256	0.036943756
127	0x3da595d5	0.08085219
128	0x3d61e35a	0.05514846
129	0x3d4ae022	0.049530156
130	0x3d36dd95	0.04464491
131	0xbd9e2096	-0.07721059
132	0xbc9d78a2	-0.019222561
133	0x3cf1c488	0.029512659
134	0x3cdae583	0.026720768
135	0x3d935d60	0.07195544
136	0xbd0d96ef	-0.03456777
137	0x3e2ac0cb	0.16675107
138	0xbcc92e3c	-0.02455818
139	0x3d06d25c	0.032915458
140	0xbd1886a5	-0.037237782
141	0x3bddd9d4	0.006770352
142	0x3dc3277d	0.09529016
143	0xbd9d4cf3	-0.076806925
144	0xbd743406	-0.059619926
145	0xbdccb889	-0.09996135
146	0x3cc6d08e	0.024269368
147	0x3e04383a	0.12912074
148	0x3d7ceb35	0.06174775
149	0x3c1240bb	0.008926566
150	0xbbe71cf9	-0.0070530144
151	0x3e3c58ca	0.18393245
152	0x3d342851	0.04398376
153	0x3d437b24	0.047724858
154	0xbc844834	-0.01614771
155	0xbbd02482	-0.0063520083
156	0xbdf19fee	-0.11798082
157	0xbc8ba066	-0.017044257
158	0xbd514d2e	-0.051098995
159	0x3b91de71	0.004451566
160	0xbcf2dd60	-0.029646575
161	0x3c0b7efd	0.008514163
162	0x3b7b1d89	0.0038317165
163	0xbc5a8a3a	-0.01333862
164	0xbd6ff670	-0.05858463
165	0xbd89fd60	-0.067377806
166	0x3d324e14	0.043531492
167	0x3d12bd95	0.03582533
168	0x3cd0cc92	0.025488172
169	0xbdb2b92c	-0.08726725
170	0x3db306be	0.0874152
171	0x3dbb43ab	0.09143766
172	0xbb57faaa	-0.0032955804
173	0xbd08f6ab	-0.033438366
174	0x3c7a7360	0.015286297
175	0x3db024e9	0.0860079
176	0x3d143450	0.0361827
177	0x3c543057	0.012950978
178	0xbcdf1e50	-0.027236134
179	0xbd470b48	-0.048594743
180	0xbbc7bb92	-0.006095358
181	0xbd2209bd	-0.03956007
182	0xbd4f4e6e	-0.050611906
183	0x3d2a7adc	0.041621074
184	0x3ccde90d	0.025135541
185	0x3d89952d	0.06717906
186	0xbe08c604	-0.13356787
187	0xbe3113f9	-0.17292775
188	0xbd51f982	-0.05126334
189	0xbd82087c	-0.063492745
190	0x3db25ef4	0.08709517
191	0x3dd0ed38	0.10201496
192	0x3d989277	0.07449811
193	0xbd873fdf	-0.06603979
194	0xbd0d6149	-0.034516606
195	0x3c3d9aa9	0.011572518
196	0xbd17fc3d	-0.037105788
197	0xbc1e0ffc	-0.009647366
198	0xbc944a74	-0.018101908
199	0xbc463ae2	-0.012099
200	0x3c128315	0.008942385
201	0x3a1f0a16	0.00060668716
202	0x3dd384d1	0.10328067
203	0xbd75ec49	-0.060039792
204	0xbc682c24	-0.01417068
205	0xbd3b64ae	-0.045750313
206	0xbcc94413	-0.024568593
207	0x3cfeaf21	0.031089367
208	0x3e295d5c	0.1653952
209	0xbd16cdcb	-0.036817353
210	0xbb854124	-0.0040666033
211	0x3d10f8ac	0.035393402
212	0xbdae358e	-0.085063085
213	0x3c9eaca4	0.01936943
214	0x3c5bcd8e	0.013415707
215	0xbdb0cfa1	-0.08633352
216	0x3c7fc1e1	0.015610189
217	0x3dd9c342	0.106329456
218	0xb930fc37	-0.00016878625
219	0x3cc6ceef	0.024268596
220	0x3e0f8f4f	0.14019512
221	0xbd22f4e4	-0.039784327
222	0xbcb84cd5	-0.022497574
223	0xbd78f7a1	-0.060783032
224	0xbb917824	-0.0044393707
225	0x3d489c57	0.048977222
226	0x3e0bfd9b	0.13670962
227	0x3d3d59dc	0.046228275
228	0xbcd74cf3	-0.02628181
229	0x3dab0a30	0.083515525
230	0xbcfc8865	-0.030826757
231	0x3d067432	0.032825656
232	0xbd8dc0c7	-0.06921535
233	0x3cb87136	0.02251492
234	0xbd456c0d	-0.04819875
235	0xbd92ef0b	-0.071745
236	0xbcd29cdf	-0.025709568
237	0xbe1119e3	-0.14170031
238	0xbc0ae63a	-0.008477742
239	0x3e1304eb	0.14357345
240	0xbd5d960f	-0.054098185
241	0xbde59432	-0.11209907
242	0xbcb50783	-0.022098308
243	0xbd8a66e5	-0.06757907
244	0xbd32d46d	-0.043659616
245	0x3cbf0f80	0.02332282
246	0x3ded1798	0.11576766
247	0x3c3facaf	0.011698886
248	0xbde29521	-0.110636
249	0x3d814a58	0.06313008
250	0x3cc90324	0.02453763
251	0xbd36eb97	-0.04465827
252	0x3daa8988	0.08327013
253	0xbcede6a4	-0.029040642
254	0xbceabd57	-0.028654737
255	0x3c1e152a	0.009648601

network_body._body_endoder.seq_layers.2.bias f4 [256]
0	0xbb56904d	-0.0032739819
1	0x3bf9538d	0.007608837
2	0x3a017866	0.00049389
3	0x3b8c26a9	0.0042770696
4	0x3bdc1013	0.0067157834
5	0xbbb59b1b	-0.0055421717
6	0xba1c0ef2	-0.0005953155
7	0xbbe50ff7	-0.0069904285
8	0x3bf45b75	0.0074571916
9	0xbb161358	-0.0022899713
10	0x3ad18504	0.0015985076
11	0x3bf362ff	0.0074275727
12	0x3a8b19b6	0.0010612521
13	0x3b032d48	0.0020016003
14	0xbbb1917c	-0.0054189544
15	0xbb220e79	-0.0024727865
16	0x39f7bc64	0.00047251873
17	0xbb0df0a5	-0.0021658328
18	0x3b8d1f44	0.0043067057
19	0x3bded33e	0.0068000844
20	0x3ba0f5b5	0.004912103
21	0xbb9978b4	-0.0046835784
22	0x3ab1a7f9	0.0013554088
23	0xbade2f24	-0.0016951305
24	0x3c056656	0.008142075
25	0xbbefd47f	-0.0073190327
26	0xbb1946d6	-0.0023388169
27	0x3bd2dded	0.006435147
28	0xb987b02a	-0.0002588046
29	0x3af839d9	0.0018938138
30	0x3bf625c2	0.0075118253
31	0x3b89be1a	0.00420357
32	0x3ad2ba03	0.0016077164
33	0x3b542305	0.0032369506
34	0x3b0944db	0.0020945582
35	0xbbaf3c98	-0.0053477995
36	0xbb2c3594	-0.0026277052
37	0x3ba89314	0.005144486
38	0x3c01359c	0.007886317
39	0xbb8391d2	-0.004015186
40	0xba70fe4b	-0.0009193166
41	0x3c0652d2	0.008198457
42	0x3b7247e9	0.0036969131
43	0x3beeb6e9	0.007284988
44	0xba9fa4a1	-0.00121798
45	0x3ba71748	0.005099211
46	0xbc083896	-0.008314272
47	0x3aab1acf	0.0013054254
48	0xba3b104e	-0.00071359135
49	0x3b317716	0.0027079037
50	0x3b5f79cf	0.0034099703
51	0x3b050a1a	0.002030021
52	0xba9d9060	-0.0012021177
53	0x3c04d0ea	0.00810645
54	0xbba3f5d6	-0.005003671
55	0x3bc1fa8e	0.005919761
56	0x3b2844d3	0.0025675788
57	0xbb4cc335	-0.0031244282
58	0x3bc90603	0.00613475
59	0x3b8d6f3c	0.0043162387
60	0xbb58a4d5	-0.0033057232
61	0x3bb96dd5	0.005658845
62	0x3b23b75d	0.002498112
63	0xb99d8b24	-0.0003004904
64	0xbb2aed9c	-0.0026081568
65	0x3bfc1e8e	0.007694072
66	0x3c0d4854	0.008623201
67	0xbc08e006	-0.008354193
68	0x3b95ed3c	0.0045753997
69	0xbbcc70c9	-0.006239031
70	0xbbc1571e	-0.0059002778
71	0x3baa0b1c	0.0051893126
72	0xba4da8f9	-0.0007845308
73	0xbbde773e	-0.006789117
74	0x3bbb05ec	0.005707493
75	0x3bd960ef	0.00663387
76	0xbc082185	-0.008308773
77	0x3b1cc7ad	0.0023922727
78	0x386893dc	5.5450815e-05
79	0xbb617bb4	-0.0034406008
80	0x3bf41013	0.0074482053
81	0x39c6015b	0.00037766513
82	0xbb4884ca	-0.0030596727
83	0x3b6ecd5c	0.0036438322
84	0x3b57049d	0.0032809146
85	0x3bc975b4	0.0061480645
86	0x3ac88e37	0.0015301172
87	0xbb3dd950	-0.002896864
88	0xbbba1489	-0.0056787175
89	0x39a5385a	0.00031513238
90	0x3b99d02f	0.004694007
91	0xbbdf73a0	-0.0068192035
92	0x3c09a29b	0.008400585
93	0x3b9ba090	0.004749365
94	0xbbd5a531	-0.0065199365
95	0xbbbf6d2a	-0.005841871
96	0xbba9403f	-0.0051651294
97	0xbb985f93	-0.004650065
98	0x3a7dce32	0.00096819096
99	0xbb69a3cd	-0.0035650611
100	0x3bdf97ec	0.0068235304
101	0xbb56d86f	-0.0032782813
102	0xb9f5b2af	-0.0004686317
103	0x3c125661	0.008931727
104	0x3ba91323	0.005159752
105	0x3b9aa244	0.0047190506
106	0x3b8f7017	0.004377376
107	0xbbc8f01a	-0.006132138
108	0x3bd6d783	0.0065564527
109	0xba80381d	-0.0009782348
110	0x3b2b9067	0.00261786
111	0xbb4fa693	-0.003168498
112	0xbba52a98	-0.005040478
113	0xbba65cab	-0.005076965
114	0xbb4573c8	-0.0030128825
115	0x3a40a478	0.00073487265
116	0xba4f6baf	-0.00079124694
117	0x3a84ecb4	0.0010141344
118	0x3aeecbe1	0.001821872
119	0x3b39a3b9	0.0028326346
120	0xbb06b62e	-0.0020555365
121	0xbbedb889	-0.0072546643
122	0xbbf7d811	-0.007563599
123	0xbbeaed69	-0.007169415
124	0x3c06585f	0.00819978
125	0x3a599736	0.0008300425
126	0x3a901e2d	0.0010995321
127	0x3bef2a28	0.0072987266
128	0x3986861a	0.00025658385
129	0x3b13f798	0.0022577997
130	0xbb724ee7	-0.00369733
131	0x3bbddcf9	0.0057941643
132	0x3b1d7182	0.0024023955
133	0x3bcb3b91	0.006202169
134	0x3bde655c	0.0067869853
135	0x3bc9eea5	0.006162482
136	0xbbfbe9ff	-0.0076878066
137	0x3b923683	0.0044620647
138	0x3bfbe73b	0.007687477
139	0xbb810640	-0.0039375126
140	0xbbe3f87d	-0.0069571123
141	0x3b549bf2	0.0032441583
142	0xbbcdcbc7	-0.0062803957
143	0x3beb23dd	0.007175906
144	0x3b17b901	0.0023151042
145	0x3b8e9598	0.004351329
146	0x3be7886d	0.007065824
147	0x3bac39ca	0.0052559124
148	0xbbd9ab90	-0.0066427663
149	0x3ba764f7	0.0051084715
150	0x3be566a8	0.007000763
151	0x3901740a	0.00012345627
152	0x3b194aad	0.0023390457
153	0x3bfb841b	0.0076756603
154	0xba35ba66	-0.00069323776
155	0x3b864fe7	0.0040988806
156	0xbad1398d	-0.0015962586
157	0x3b932322	0.004490272
158	0xbc02bfc0	-0.007980287
159	0x3b56a0b6	0.00327496
160	0x3bc9ede8	0.006162394
161	0x3baa153b	0.005190519
162	0x3bd46a2c	0.0064823832
163	0x3aeba778	0.0017978987
164	0x3b5dee79	0.0033864065
165	0xbbbd29b4	-0.0057727937
166	0x3b279694	0.002557193
167	0x3bee082a	0.007264157
168	0x3b0684ba	0.0020525889
169	0xbb5b3bab	-0.0033452313
170	0x3aee7a3e	0.001819439
171	0x3b6a2b75	0.0035731469
172	0xbc018bed	-0.007906896
173	0x3b786099	0.0037899374
174	0xbbb75310	-0.0055946186
175	0x3a8a43aa	0.001054873
176	0xbbdc0d36	-0.006715442
177	0x3aca3d9d	0.0015429739
178	0x3b31ed9f	0.002714969
179	0x3bf45a10	0.0074570253
180	0xb9af1d75	-0.00033400548
181	0xb83fc214	-4.5718698e-05
182	0x3be4cbb6	0.006982292
183	0x3aed209f	0.0018091387
184	0x3b656798	0.0035004374
185	0xbb85a254	-0.004078189
186	0x3a8ecf5a	0.0010895536
187	0x39e85f80	0.0004432164
188	0x388667f2	6.408979e-05
189	0x3b5e1a6e	0.0033890265
190	0xbbd5ae75	-0.006521041
191	0x3b7644a9	0.0037577546
192	0x3bd0dc27	0.0063739005
193	0xbc017771	-0.007902012
194	0xba5fdf04	-0.0008540007
195	0x3bb56474	0.0055356566
196	0xbb811ec0	-0.0039404333
197	0xbb7272a0	-0.0036994591
198	0xbb8bd11d	-0.0042668716
199	0x3b412116	0.0029469184
200	0xbbf3c1f3	-0.007438892
201	0x3b3c27c2	0.002871022
202	0x3b392c29	0.0028255081
203	0x3becd866	0.007227945
204	0xbbe53502	-0.0069948444
205	0xbb6d07d7	-0.0036168003
206	0xbb889998	-0.0041687004
207	0xbbbcc48e	-0.005760736
208	0xbb5f218e	-0.00340471
209	0xbb410479	-0.0029452129
210	0x39cf16ab	0.00039499006
211	0x3bd93ec0	0.006629795
212	0xbb1f5ad6	-0.0024315617
213	0x3c04b4fe	0.0080997925
214	0x3bb7e074	0.0056114737
215	0x3beadd07	0.007167462
216	0xbaca2406	-0.0015422113
217	0xbb242a3e	-0.0025049592
218	0xbadfd063	-0.0017075654
219	0xbb3371c5	-0.0027381044
220	0xbbe354cc	-0.006937599
221	0xbb1db7a6	-0.0024065762
222	0x3bc0da2d	0.0058853836
223	0xbbad971d	-0.005297555
224	0xbab892e8	-0.0014081867
225	0x3b268467	0.0025408508
226	0xbb520f4f	-0.0032052582
227	0x3bbecbd7	0.0058226394
228	0x3b1bc94a	0.00237711
229	0xbb48d3e7	-0.0030643882
230	0xb94d7092	-0.00019592259
231	0x3c09dc40	0.008414328
232	0x3ba952fe	0.005167364
233	0xbbe3a1c9	-0.0069467765
234	0xbb92d229	-0.0044806194
235	0x3bcb9e5b	0.006213946
236	0x3b7ed496	0.0038884035
237	0x3c06ce60	0.008227915
238	0xbae0e7b4	-0.0017158897
239	0x3ac83ea9	0.0015277463
240	0x3ae7c7ac	0.0017683408
241	0x3b73336a	0.0037109503
242	0xbb82f6ff	-0.0039967294
243	0xbaf8329e	-0.0018935984
244	0x3c0d60a4	0.008628998
245	0x3b5bd830	0.0033545606
246	0x3b71bb5f	0.0036885364
247	0x3c040d3f	0.008059799
248	0x3b63c83c	0.00347568
249	0x3b76f740	0.0037683994
250	0x3baf2495	0.005344937
251	0xbabb2bbd	-0.0014280003
252	0xbb1086ec	-0.0022053076
253	0xbbe1d581	-0.0068919067
254	0x3baab15b	0.0052091307
255	0xbb462ff6	-0.003024099

action_model._continuous_distribution.log_sigma f4 [1, 3]
0	0xbb8c4454	-0.0042806063
1	0xbaff1502	-0.0019461217
2	0x3a091f74	0.0005230822

action_model._continuous_distribution.mu.weight f4 [3, 256]
0	0xbb831cdd	-0.0040012435
1	0x3b07ded0	0.0020732172
2	0xb9f6f726	-0.00047104916
3	0xbaf36d82	-0.0018572065
4	0xbc666612	-0.014062421
5	0xbcb1f96a	-0.021725375
6	0xbc428acb	-0.011873911
7	0xbbe9bda1	-0.007133201
8	0x3ab766b2	0.0013992398
9	0x3cc7d355	0.024392763
10	0xbc301243	-0.010746541
11	0xbb2d11ff	-0.0026408432
12	0xbc029e6c	-0.007972341
13	0x3cebda8f	0.02879074
14	0xbb4f19eb	-0.0031601142
15	0xbc050676	-0.008119216
16	0xbc26694e	-0.0101569425
17	0xbb48a429	-0.0030615425
18	0xbb081298	-0.0020763036
19	0xbbb8ffe9	-0.0056457412
20	0x3c06be30	0.008224055
21	0x3c980707	0.018558038
22	0xbc1b90cb	-0.009494971
23	0xbc86f09a	-0.01647215
24	0xbbcdb1a7	-0.0062772813
25	0x3bb7c6dc	0.0056084227
26	0xbbeb6d39	-0.007184651
27	0xbb908bc6	-0.0044111935
28	0x3b250ffb	0.0025186527
29	0x3aadca91	0.0013259222
30	0x3bd0c8ea	0.006371607
31	0x3b30873c	0.0026936075
32	0x3b94c813	0.0045404523
33	0x3bdbdf13	0.006709942
34	0x3b2ef18c	0.0026694266
35	0x3c236631	0.009973095
36	0x3ab1148c	0.0013510152
37	0x3c27070f	0.010194554
38	0xbc4026eb	-0.011728029
39	0xbc298c34	-0.010348368
40	0xbc83648c	-0.016039155
41	0x3b9a1e6d	0.004703334
42	0xbc2a169d	-0.010381368
43	0xbc2c62fd	-0.0105216475
44	0xbc83eba4	-0.016103573
45	0xba3f28f1	-0.00072921725
46	0x3be5f55c	0.0070177745
47	0x3cbaad61	0.022787752
48	0xb9511ec2	-0.00019943251
49	0x3c3c7bb9	0.011504107
50	0xbc02c9dd	-0.007982698
51	0xbc426284	-0.011864308
52	0xbcce03d5	-0.025148312
53	0xbbf57c9d	-0.0074916617
54	0xbb990c65	-0.004670667
55	0x3c52ab29	0.012858191
56	0x3c188ed9	0.009311401
57	0x3b7c46fd	0.003849446
58	0x38468940	4.7334703e-05
59	0xbcc7a43b	-0.024370303
60	0xbb214cf7	-0.0024612525
61	0xbc1d2925	-0.009592329
62	0xbb1f4c95	-0.002430712
63	0xbbbe9ffa	-0.0058174105
64	0x3aff6a45	0.0019486627
65	0x3c002ff6	0.007823935
66	0x3bb57e2b	0.005538722
67	0x3c389d59	0.011267983
68	0xbc1d73a1	-0.009610088
69	0xbc4de865	-0.012567614
70	0x3c70d602	0.014699461
71	0xbb965b6d	-0.0045885355
72	0xbbbacf23	-0.005700962
73	0x3a45a05f	0.0007538851
74	0x3cb6a639	0.022296058
75	0x3b3b1192	0.0028544408
76	0x3c90640f	0.017625837
77	0x3bab26ab	0.0052231154
78	0x398aab23	0.00026448918
79	0x3a2b4cea	0.00065345934
80	0xbcb4ea71	-0.022084447
81	0xbbc144bc	-0.0058980864
82	0x3c726e8e	0.014796866
83	0x3c6c6eee	0.014430745
84	0xbc6e7e31	-0.014556454
85	0x3ca4fd55	0.02014033
86	0x3bbdaf7a	0.0057887407
87	0x3b4b85e8	0.0031055156
88	0xbb7818a8	-0.0037856493
89	0x382020e4	3.8177604e-05
90	0xbac49f5d	-0.0015001107
91	0xbc4e4052	-0.012588577
92	0xbbbc3fbb	-0.005744902
93	0x3b2d8478	0.0026476663
94	0xbc4a06fe	-0.012330769
95	0x3af66bda	0.0018800453
96	0x3b39075b	0.0028233144
97	0x3c957e73	0.018248772
98	0x3b63b2a1	0.0034743922
99	0x3d0474fe	0.032338135
100	0xba58e0c8	-0.0008273241
101	0xbb1adaf2	-0.0023629037
102	0x3b15e74f	0.0022873466
103	0xbb89d5ba	-0.0042063864
104	0xbb03c8b4	-0.0020108642
105	0xbc495ce1	-0.01229021
106	0xbcf7be8f	-0.030242233
107	0x3b6dd197	0.0036288255
108	0x3c5420e9	0.0129472995
109	0x3a8261e9	0.0009947392
110	0x3b8637e5	0.0040960186
111	0x3cc88385	0.024476776
112	0x3c7e8647	0.015534944
113	0x3c833065	0.016014287
114	0xbcd56e4e	-0.026053574
115	0x3c9343e6	0.017976712
116	0x3c39b33f	0.0113342395
117	0x3c6a98b9	0.0143186385
118	0x3cd7fb95	0.02636508
119	0x3a66525c	0.0008786076
120	0x3ac6284b	0.0015118209
121	0x3af30a75	0.0018542545
122	0x3a1f2e17	0.00060722366
123	0xbbadb637	-0.0053012627
124	0xbb70be99	-0.0036734699
125	0x3c40a838	0.0117588565
126	0x3a8c46e1	0.0010702276
127	0x3bdabb29	0.0066751433
128	0x3b9d5e4e	0.0048025018
129	0xbc854b54	-0.01627127
130	0x3c276b6e	0.010218484
131	0xbb792bff	-0.0038020608
132	0x3bd3a77d	0.006459175
133	0xbc6ecdac	-0.014575403
134	0x3c156859	0.009119117
135	0x3c8934f0	0.016748875
136	0xbc5ee5cd	-0.013604593
137	0x3d01b415	0.03166588
138	0x3b2ed151	0.0026675055
139	0xbab1498d	-0.0013525948
140	0xbb96e752	-0.0046052122
141	0xbc382225	-0.011238609
142	0xbb7379c2	-0.003715143
143	0xbbd2b7f2	-0.0064306194
144	0x3c003197	0.007824323
145	0x3bf61b81	0.007510603
146	0x3c886c5b	0.01665323
147	0x3c8885e7	0.016665412
148	0x3b8f3ebf	0.0043714936
149	0x3a92be17	0.0011195567
150	0xbb7d3bc0	-0.003864035
151	0xbc035f29	-0.008018293
152	0x3cb10bc5	0.021612057
153	0x3b90effb	0.004423139
154	0xbd22d52d	-0.03975408
155	0x3c5c26cf	0.013436987
156	0x3b9f5b01	0.0048631434
157	0xbca73700	-0.020411968
158	0x3c091c4a	0.008368561
159	0xbba0ceb1	-0.004907452
160	0xbcba783b	-0.022762408
161	0xbcb921b4	-0.022599079
162	0xbb202aee	-0.002443965
163	0x3c823dac	0.015898548
164	0xbb3d694e	-0.0028901878
165	0xbc77696a	-0.015100816
166	0x3c1ffa95	0.009764333
167	0x3c2fdcfb	0.010733838
168	0xbca682ba	-0.020326007
169	0x3b7cb338	0.003855897
170	0x3c8f6649	0.017504828
171	0xbb3c8f6a	-0.0028772005
172	0x3b719b8d	0.0036866397
173	0xbba863f8	-0.0051388703
174	0xbafb1418	-0.0019155769
175	0x3c51535f	0.012776225
176	0x3b5d9fd9	0.00338172
177	0x3afa7f40	0.001911141
178	0x3c7fca51	0.015612201
179	0x3b584e3c	0.0033005616
180	0x398e416c	0.00027133094
181	0xbbe40ffb	-0.006959913
182	0xbc942dc1	-0.018088223
183	0xbcc52069	-0.024063306
184	0x3b1241c4	0.0022317031
185	0xbbae7059	-0.0053234515
186	0x3b1f549e	0.002431191
187	0xbb8d7b20	-0.004317656
188	0xbc5beb6e	-0.01342283
189	0x3b463251	0.0030242393
190	0x3b827825	0.0039816075
191	0x3c987aa7	0.018613173
192	0x3ab0f0fd	0.0013499554
193	0xbc46f102	-0.012142422
194	0x3c4720bd	0.0121538015
195	0xbca527fb	-0.020160666
196	0xbb0e5492	-0.0021717888
197	0xbc639f3b	-0.013892944
198	0x3c5b00d3	0.013366896
199	0x3c3e1ee6	0.011604046
200	0x3c18e173	0.009331095
201	0xbc5279a1	-0.012846381
202	0x3c44165b	0.011968221
203	0xbc157c18	-0.009123825
204	0xbcd6f36a	-0.026239116
205	0xba284817	-0.00064194336
206	0x3c65c2af	0.014023467
207	0x3c02263e	0.007943688
208	0x3cccdbaa	0.025007088
209	0xba3b6ba2	-0.00071495224
210	0xbc31aa2a	-0.010843793
211	0x3c4155e4	0.011800263
212	0xbbf0c6d1	-0.0073479195
213	0xbb74de9c	-0.003736413
214	0x3b850f85	0.004060688
215	0x3bbbb9b8	0.0057289265
216	0x3c94defa	0.01817273
217	0xbcb5e9f6	-0.022206288
218	0xbbdfb391	-0.006826826
219	0x3be07193	0.0068494766
220	0xbc1f6c36	-0.009730389
221	0xbc8c1d7f	-0.017103909
222	0x3b1f1203	0.002427221
223	0x3c408891	0.01175131
224	0x3c80a1fd	0.015702242
225	0xbc35d408	-0.0110979155
226	0x3a3151ee	0.00067642226
227	0x3b0e2ccf	0.0021694188
228	0xbb5cdac4	-0.003369973
229	0xbc022698	-0.007943772
230	0x3ca1fbe7	0.019773437
231	0x3caeeb16	0.021352332
232	0x3b938e54	0.004503051
233	0x3c504743	0.012712303
234	0x3b8f101d	0.0043659345
235	0x3a1e8ed8	0.0006048507
236	0xbc3ce51d	-0.011529234
237	0x3a2f438e	0.00066857866
238	0x3be858fa	0.007090685
239	0xbbf4c92a	-0.0074702697
240	0x3a5630a6	0.00081707013
241	0x3b591f50	0.0033130236
242	0x3b8a3cf4	0.004218692
243	0xbc6f46a4	-0.014604244
244	0x3bb5388a	0.0055304216
245	0xbc0ad942	-0.00847465
246	0xbc5fc222	-0.013657125
247	0x3a343bed	0.0006875385
248	0x3b3bb840	0.0028643757
249	0xbc678567	-0.014130927
250	0xbbc9dcc3	-0.00616035
251	0xbc05b485	-0.008160715
252	0xb9d3a993	-0.000403714
253	0xbb95e947	-0.004574928
254	0xbcebcb24	-0.028783388
255	0xbc9cff5a	-0.01916473

action_model._continuous_distribution.mu.bias f4 [3]
0	0xb9a76ade	-0.00031932344
1	0x3b0a01ac	0.0021058125
2	0x3b28e96f	0.0025773903

action_model._discrete_distribution.branches.0.weight f4 [7, 256]
0	0xbb033295	-0.0020019163
1	0x3b60441f	0.003422029
2	0x3b719e73	0.0036868125
3	0x3b5fef8d	0.0034169883
4	0x3c4e11d7	0.012577496
5	0xbbc70b8a	-0.0060743736
6	0x3aad40ad	0.0013218127
7	0xbc36d0f9	-0.011158221
8	0x3c3e61a8	0.011619963
9	0xbbc13991	-0.005896755
10	0x3a933ebc	0.0011233906
11	0x3c1bb95c	0.009504642
12	0x3c008458	0.007844053
13	0xbbca6ed4	-0.0061777625
14	0xbb9b950c	-0.0047479924
15	0xbaa65093	-0.0012688808
16	0xbaddd55c	-0.0016924548
17	0x3b8bbf9c	0.004264785
18	0x3bf6e423	0.0075345202
19	0x3c2fb26c	0.010723691
20	0x3c3f8c7a	0.011691207
21	0x3b4ad5e4	0.0030950243
22	0xbb8a2388	-0.0042156614
23	0x3bd96e07	0.0066354307
24	0x39bd61b8	0.00036121695
25	0xbc25fb9e	-0.010130791
26	0xbb70dd2b	-0.003675292
27	0x3b7701dc	0.0037690317
28	0x3b1b4ada	0.0023695738
29	0x3bc83291	0.0061095436
30	0xbb6537fb	-0.0034975994
31	0x3c12e979	0.008966797
32	0x3c0c6160	0.008568138
33	0x3bc4aa4c	0.0060017463
34	0xbb9bb8ad	-0.0047522397
35	0xbb87c1c3	-0.0041429712
36	0xbc8282f1	-0.015931578
37	0x3b862f4a	0.0040949928
38	0x3c88e54a	0.016710896
39	0x3b138b89	0.002251359
40	0xbb969c08	-0.004596237
41	0x3c08dd28	0.008353509
42	0xb9d57d81	-0.00040720034
43	0x3a9cad1d	0.0011953447
44	0xbade4b17	-0.0016959634
45	0x3c2a0a9f	0.010378509
46	0xbc66d7e0	-0.014089555
47	0x3b97b979	0.0046302644
48	0x3b3f6efa	0.0029210434
49	0x3b604ce0	0.0034225509
50	0x3b367aa2	0.002784409
51	0x3be2a874	0.006917054
52	0xbc0754f0	-0.008259997
53	0x3be62337	0.007023241
54	0xbb83a55a	-0.004017514
55	0x3c5356ab	0.012899081
56	0x3c133042	0.0089836735
57	0xba880db6	-0.0010380063
58	0x3c1f444e	0.009720875
59	0x3c08036a	0.008301595
60	0x3c8471f9	0.016167628
61	0x3c34517e	0.011005757
62	0xbb8dc557	-0.0043265033
63	0xbc83e601	-0.016100885
64	0x3b755ba0	0.0037438646
65	0x3a40401a	0.00073337706
66	0x3c3978a9	0.0113202715
67	0xbc2e834b	-0.01065142
68	0x37985725	1.8160392e-05
69	0xbbcf7e41	-0.0063321893
70	0xbb72f769	-0.0037073737
71	0x3be24954	0.006905714
72	0x3c854659	0.016268896
73	0xbbca5d27	-0.0061756554
74	0x3af332d1	0.0018554573
75	0x3c25a423	0.010109934
76	0xbc82ed47	-0.015982283
77	0xb84a6dff	-4.8262995e-05
78	0x3c53278c	0.012887847
79	0xbb851f4c	-0.004062569
80	0x3c87def3	0.016585803
81	0xbae79319	-0.001766774
82	0x3a95c7d4	0.0011427351
83	0x3c54af8d	0.012981308
84	0x3b9b26c8	0.0047348477
85	0x3ba43180	0.0050107837
86	0xbb46fd01	-0.0030363204
87	0x3b04567c	0.002019315
88	0xbc087def	-0.008330806
89	0xbba07470	-0.004896693
90	0xba94b969	-0.001134676
91	0xbcae81c4	-0.021302111
92	0x3c96dd89	0.018416183
93	0xbc52917b	-0.012852068
94	0xbc55fd65	-0.013060902
95	0xbba88d62	-0.0051438073
96	0xbb4a53c1	-0.0030872675
97	0xbc54a971	-0.012979851
98	0xbc4144ad	-0.011796159
99	0x3b522146	0.003206329
100	0xba0fe58f	-0.0005489224
101	0xba115a13	-0.0005544733
102	0xbaedbaff	-0.0018137394
103	0x3c5307d6	0.012880286
104	0x3ab2fa08	0.0013654837
105	0xbb8427e1	-0.0040330742
106	0x3b89475d	0.0041894154
107	0xba04870d	-0.00050555245
108	0xbc2a71a6	-0.010403072
109	0xbab7ec66	-0.0014032244
110	0x3c5bfee5	0.013427471
111	0xbb1215a5	-0.0022290733
112	0xbc2232e6	-0.00989983
113	0x3b860f58	0.0040911846
114	0x3a6f0999	0.00091185566
115	0x3c6ba076	0.014381519
116	0x3c08ed54	0.008357365
117	0x3c077f57	0.008270106
118	0x3bbd2f6b	0.005773475
119	0x3b03dce5	0.0020120677
120	0x3bab402e	0.0052261567
121	0xbc2b56d6	-0.010457715
122	0xbc3bb937	-0.011457733
123	0xbbcab513	-0.0061861365
124	0x3c34fe84	0.011047009
125	0x3c17bcb5	0.0092613
126	0x3c38d46f	0.011281117
127	0x3bc515c0	0.0060145557
128	0x3b6a3e7f	0.0035742817
129	0x3b7f346b	0.0038941156
130	0xbbd7372c	-0.0065678563
131	0x3c5774e8	0.013150431
132	0x3b83c3d6	0.004021148
133	0x3c4a7444	0.012356821
134	0x3b8e0e40	0.004335195
135	0x3ba60516	0.0050665243
136	0xbc14ed96	-0.009089848
137	0x3c2ec62b	0.010667364
138	0x3c808fc8	0.01569356
139	0xb8ea11aa	-0.0001116128
140	0xbb6bd47b	-0.0035984803
141	0x3bb27a83	0.0054467334
142	0xbc0b475b	-0.008500899
143	0xbb6827a8	-0.0035424028
144	0x3c5fbb10	0.013655439
145	0x3bd4029f	0.006470039
146	0xbbbd680f	-0.005780227
147	0xbb592346	-0.0033132597
148	0xbc55dd3a	-0.013053233
149	0x3c82fbb6	0.015989166
150	0x3bf30d17	0.007417332
151	0x3b9818b8	0.0046416186
152	0xbbb0cb3c	-0.005395321
153	0x3c4afab0	0.01238887
154	0xbc3bd701	-0.011464835
155	0x3be56732	0.007000827
156	0xbb09b0ea	-0.002100999
157	0x3b8a7d9d	0.0042264
158	0xbcaae2e7	-0.020860149
159	0xba038599	-0.0005017161
160	0x3c653f79	0.013992184
161	0x3a80ee63	0.000983667
162	0xbb477d24	-0.003043958
163	0x3c26293b	0.010141666
164	0x39948a8a	0.0002833198
165	0xbc05fb49	-0.008177587
166	0xbab81f4a	-0.0014047411
167	0x3c85ad91	0.016318114
168	0x3a1125f3	0.0005536966
169	0x3b5e8052	0.0033950997
170	0x3bbf2960	0.0058337897
171	0xbc3f329a	-0.011669779
172	0xbc82d9c7	-0.015972985
173	0x3ac87ae6	0.0015295416
174	0xbb2121d1	-0.0024586807
175	0x3c150a2c	0.009096663
176	0xbc382b57	-0.011240802
177	0xbbd3d4b6	-0.006464566
178	0xbaea56d0	-0.0017878655
179	0x3b19b53f	0.0023453978
180	0xbbda18a5	-0.00665577
181	0xbb472447	-0.0030386613
182	0x3a8646c7	0.0010244482
183	0x3aca4d7d	0.001543447
184	0x3b0e9fd8	0.0021762755
185	0x3a0345cf	0.0005007656
186	0x3c472f4d	0.0121572735
187	0x3bb21be3	0.0054354533
188	0x3b7579f3	0.003745672
189	0xbbf0f2a4	-0.0073531438
190	0x3ba2eb2c	0.0049718823
191	0x3c3a699b	0.011377717
192	0x3b1d1ffa	0.0023975358
193	0x3c4dfd25	0.012572561
194	0x3bb0d5b8	0.005396571
195	0x3b6316f1	0.0034651125
196	0x3b24a0a3	0.002512016
197	0x3b96c165	0.004600691
198	0x3b7c25ad	0.0038474605
199	0xbb85fa20	-0.004088655
200	0xba41297a	-0.0007368546
201	0x3a50dcd4	0.0007967476
202	0xbab3c586	-0.0013715483
203	0x3bea999a	0.007159424
204	0x3b1622ae	0.0022908854
205	0x3b2019aa	0.002442936
206	0x3c10b329	0.008831778
207	0xbcaaa3d8	-0.02083008
208	0xbb78f0ea	-0.0037985393
209	0x3afa87a4	0.001911391
210	0x3bda69d2	0.006665447
211	0x3c318b0b	0.010836373
212	0x3c4589b9	0.012056761
213	0x3cad53c9	0.021158116
214	0x3ca6ec8b	0.020376464
215	0x3b841acb	0.0040315143
216	0x3c1d888c	0.009615075
217	0xbbb4e927	-0.005520958
218	0xbb92ffb9	-0.004486051
219	0xbaf24c2e	-0.0018485838
220	0xbc272dd8	-0.010203801
221	0xbba340e3	-0.0049821003
222	0x3c5a3279	0.013317698
223	0xbb62117b	-0.0034495282
224	0x3b652c70	0.0034969114
225	0xbb948f47	-0.0045336816
226	0xbb96d742	-0.0046032974
227	0x3b8d5fc9	0.004314397
228	0xbb4f2fa3	-0.0031614087
229	0x3bdea867	0.0067949775
230	0x3beeff49	0.007293616
231	0x3b668651	0.0035175274
232	0x3b77d88a	0.0037818276
233	0xbc03ebdd	-0.00805184
234	0xbca6e5d2	-0.020373259
235	0x3bbd957f	0.0057856436
236	0x3c3d542d	0.011555714
237	0x3aee3d6b	0.0018176263
238	0x3c0a91d9	0.008457624
239	0xbbe20f00	-0.006898761
240	0x3bcf42f6	0.006325121
241	0xbbdb0a21	-0.006684557
242	0xbbb8a27b	-0.0056346036
243	0x3be6e0ef	0.007045857
244	0x3c78dd6e	0.015189512
245	0x3adbc084	0.0016765748
246	0x3bdb4774	0.0066918675
247	0x3c4d6b67	0.012537814
248	0xbb4d3171	-0.0031309987
249	0xbb8620dc	-0.0040932726
250	0x3b82b2d2	0.003988602
251	0xb9f8702b	-0.00047385818
252	0x3babe53e	0.0052458337
253	0x3a06375b	0.0005119943
254	0x3c151f61	0.00910172
255	0x3ae71226	0.001762931

action_model._discrete_distribution.branches.0.bias f4 [7]
0	0x3bf54e56	0.007486145
1	0xbc0315be	-0.008000789
2	0xbbfc8d95	-0.0077073076
3	0xbc020bc3	-0.0079373745
4	0xbbf94dc5	-0.007608148
5	0x3c046131	0.008079813
6	0x3c063419	0.008191132

onnx::Div_90 f4 [84]
0	0x3c07d051	0.008289413
1	0x3ee5bd48	0.44870973
2	0x3ed5ac0d	0.41732827
3	0x3e84a549	0.25907353
4	0x3c07d051	0.008289413
5	0x3ee780e4	0.45215523
6	0x3ed67adb	0.41890606
7	0x3e850116	0.2597739
8	0x3c07d051	0.008289413
9	0x3ee4a744	0.44658864
10	0x3ed4f8b4	0.41595995
11	0x3e83ed58	0.25767016
12	0x3c07d051	0.008289413
13	0x3ee7a71d	0.45244685
14	0x3ed6b577	0.41935322
15	0x3e85b836	0.26117104
16	0x3c07d051	0.008289413
17	0x3ee4eb24	0.44710648
18	0x3ed5a618	0.41728282
19	0x3e8414a2	0.25796992
20	0x3c07d051	0.008289413
21	0x3ee65bae	0.4499182
22	0x3ed4ce96	0.41563863
23	0x3e860f01	0.26183322
24	0x3c07d051	0.008289413
25	0x3ee3f992	0.44526345
26	0x3ed4ecaf	0.41586825
27	0x3e84201b	0.25805745
28	0x3c07d051	0.008289413
29	0x3ee590e2	0.448371
30	0x3ed44981	0.4146233
31	0x3e863532	0.2621246
32	0x3c07d051	0.008289413
33	0x3ee4d914	0.44696867
34	0x3ed5cfaf	0.41760013
35	0x3e8492db	0.25893292
36	0x3c07d051	0.008289413
37	0x3ee40760	0.44536877
38	0x3ed37fec	0.41308534
39	0x3e868df0	0.26280165
40	0x3c07d051	0.008289413
41	0x3ee60cc2	0.44931608
42	0x3ed74714	0.42046416
43	0x3e850a9a	0.2598465
44	0x3c07d051	0.008289413
45	0x3ee3f05c	0.44519317
46	0x3ed40693	0.41411266
47	0x3e866d9d	0.26255503
48	0x3c07d051	0.008289413
49	0x3ee818fb	0.4533156
50	0x3ed93d5d	0.4242963
51	0x3e859906	0.2609331
52	0x3c07d051	0.008289413
53	0x3ee4f426	0.4471752
54	0x3ed5b1fc	0.41737354
55	0x3e86966f	0.26286647
56	0x3c07d051	0.008289413
57	0x3eea206b	0.45727858
58	0x3edb8596	0.42875355
59	0x3e860dfd	0.26182547
60	0x3c07d051	0.008289413
61	0x3ee7a2e0	0.4524145
62	0x3ed8e337	0.4236085
63	0x3e86f4ed	0.2635874
64	0x3c07d051	0.008289413
65	0x3eeb93df	0.46011254
66	0x3edd6981	0.43244556
67	0x3e865eb3	0.26244125
68	0x3c07d051	0.008289413
69	0x3ee95712	0.45574242
70	0x3edae282	0.42750937
71	0x3e872e1d	0.2640237
72	0x3c07d051	0.008289413
73	0x3eed4604	0.4634248
74	0x3edff277	0.43739673
75	0x3e866d02	0.2625504
76	0x3c07d051	0.008289413
77	0x3eea1074	0.45715678
78	0x3edb6a87	0.4285471
79	0x3e873007	0.2640383
80	0x3c07d051	0.008289413
81	0x3eedf717	0.46477577
82	0x3ee17705	0.44036117
83	0x3e867e7a	0.2626837

onnx::Div_96 f4 [37]
0	0x40f18075	7.546931
1	0x3dfc9688	0.12333399
2	0x40ff44b6	7.9771376
3	0x3c07d051	0.008289413
4	0x3e946243	0.28981218
5	0x3c07d051	0.008289413
6	0x412cf8aa	10.810709
7	0x3c09ea00	0.008417606
8	0x412f228f	10.945937
9	0x3c07d051	0.008289413
10	0x3e96f953	0.29487094
11	0x3c07d051	0.008289413
12	0x3df1c90b	0.11805924
13	0x3e3e1df6	0.18566117
14	0x3dc51135	0.096224226
15	0x3ee9c047	0.45654508
16	0x3efeb6a7	0.49748728
17	0x3dc5c892	0.096573964
18	0x3ef107ff	0.47076413
19	0x3fbf8c38	1.4964666
20	0x3d9ea429	0.07746155
21	0x3f83f8f0	1.0310345
22	0x3c07d051	0.008289413
23	0x3f48ffac	0.78515124
24	0x3f313a61	0.69229704
25	0x3c07d881	0.008291365
26	0x3f37f10a	0.7185217
27	0x3e919fda	0.2844227
28	0x3e7f6a6f	0.24942945
29	0x3e7f6abe	0.24943063
30	0x3e71b039	0.2360238
31	0x3e71b007	0.23602305
32	0x3d60d4b4	0.05489035
33	0x3f3789ff	0.7169494
34	0x3e922a2c	0.285478
35	0x3f35b527	0.7097954
36	0x3dfc9735	0.12333528
