results/NewTest5/BoxingAgent/BoxingAgent-4193.onnx (onnx, 318607 bytes, 10 tensors)

network_body.observation_encoder.processors.0.normalizer.running_mean f4 [36]
0	0x3fa32f10	1.2748737
1	0x416d765c	14.841396
2	0xc136e8d2	-11.431841
3	0x32915810	1.6920268e-08
4	0x3eee82b1	0.46584085
5	0x32872a54	1.5735317e-08
6	0xc08c222c	-4.3791714
7	0x39299e84	0.00016176148
8	0xc137ce2d	-11.487836
9	0x3223cb23	9.534037e-09
10	0x3efe6388	0.4968531
11	0xb112cba0	-2.1361544e-09
12	0x3f7d06b1	0.98838335
13	0x3f7ddfe6	0.99169767
14	0x00000000	0.0
15	0x00000000	0.0
16	0x00000000	0.0
17	0x3f7ff060	0.9997616
18	0x00000000	0.0
19	0x32383f06	1.07245395e-08
20	0x00000000	0.0
21	0xb358ab52	-5.0447234e-08
22	0xbe644855	-0.22293217
23	0x37522e48	1.2527751e-05
24	0xbec69d44	-0.3879186
25	0x3efff11f	0.49988648
26	0x3ee3c30a	0.4448474
27	0x3f0e0edb	0.5549142
28	0x3f03a56b	0.5142428
29	0x3ef895e9	0.48551872
30	0x00000000	0.0
31	0x3f39cdf5	0.7257989
32	0x3f16d42c	0.589175
33	0x3d6c8f7e	0.057754032
34	0x416d765b	14.841395
35	0x41d8d4db	27.103933

network_body._body_endoder.seq_layers.0.weight f4 [256, 36]
0	0xbe795a24	-0.24350792
1	0xbdf77bca	-0.12084158
2	0xbe175400	-0.14778137
3	0x3e3a56f2	0.1819723
4	0xbe67c4c7	-0.22633658
5	0xbdb4904a	-0.088165835
6	0x3e0d38e0	0.13791227
7	0xbd1b3f54	-0.03790219
8	0x3cd51b1b	0.026013901
9	0xbe6e25e2	-0.23256639
10	0xbdb2ee7f	-0.08736896
11	0xbd90d2ea	-0.07071479
12	0xbe972110	-0.29517412
13	0x39561a60	0.00020418456
14	0xbb9dd7f6	-0.0048170043
15	0xbe397627	-0.18111478
16	0x3c1c3d50	0.009536102
17	0x3da64483	0.08118536
18	0x3e86b88c	0.26312673
19	0xbdd00052	-0.10156311
20	0xbdebd1d0	-0.11514628
21	0xbd855ce5	-0.06511859
22	0x3cd8c4df	0.026461063
23	0xbe0790b0	-0.13238788
24	0x3ee3939e	0.4444856
25	0x3c9f4ff0	0.019447297
26	0x3e0e6096	0.13904032
27	0x3e39bb92	0.18137959
28	0x3df83626	0.12119703
29	0xbe687bcb	-0.22703473
30	0x3e62ca43	0.22147469
31	0x3ed3cf96	0.41369313
32	0xbe1ce352	-0.15321091
33	0x3d1f45ae	0.03888481
34	0x3ecb0050	0.39648676
35	0xbce638fb	-0.028103342
36	0xbd9344b4	-0.071908385
37	0xbdc68652	-0.09693588
38	0x3e59990e	0.21249792
39	0xbdaf0dee	-0.08547579
40	0xbdcd9e58	-0.10039967
41	0xbdaeaf13	-0.085294865
42	0x3dbd52ae	0.092442855
43	0xbd86686f	-0.06562888
44	0x3c853a15	0.016263047
45	0xbe21a535	-0.15785678
46	0xbe7d26b4	-0.24721795
47	0xbe7e69d3	-0.24845056
48	0xbe1087fa	-0.14114371
49	0x3e19c8ca	0.15018001
50	0x3ec105d4	0.3769976
51	0xbeac9723	-0.33709058
52	0x3e394f3c	0.18096632
53	0xbcd44d84	-0.025915869
54	0xbd5a65d0	-0.053319752
55	0x3e6ad50b	0.22932832
56	0xbd314eee	-0.043288164
57	0xbe25fab5	-0.16208918
58	0xbd93bde1	-0.07213951
59	0xbea6000a	-0.32421905
60	0xbe097535	-0.13423617
61	0xbd87ab0f	-0.06624424
62	0xbd7fa21a	-0.06241045
63	0x3e02fbb3	0.12791328
64	0xbe33fe2c	-0.17577428
65	0x3d61f91c	0.05516921
66	0x3dbf6ab3	0.09346523
67	0x3d1dc4c4	0.03851773
68	0x3cc40454	0.023927845
69	0xbdabb860	-0.08384776
70	0x3d806b78	0.06270498
71	0xbdd1e192	-0.10248102
72	0xbe1249dd	-0.14285989
73	0xbdecb09b	-0.11557122
74	0xbd77d470	-0.06050533
75	0xbe292de8	-0.16521418
76	0xbe093ef9	-0.13402928
77	0x3db21bb4	0.0869669
78	0x3c38652c	0.01125459
79	0x3e914d7c	0.28379428
80	0x3e9d7a0a	0.3075717
81	0xbe895608	-0.2682345
82	0xbda6174b	-0.081099115
83	0xbe85a4a6	-0.2610218
84	0x3db65bdc	0.089042395
85	0xbe0f1664	-0.13973385
86	0x3e217d54	0.15770465
87	0x3c4ae126	0.012382781
88	0x3dcb5a8e	0.09929381
89	0xbde0799a	-0.10960694
90	0xbd4a41c7	-0.049379136
91	0x3c86957e	0.016428705
92	0x3b9deb42	0.0048193047
93	0x3e359c66	0.17735443
94	0xbea6c228	-0.32570004
95	0xbe6bf64b	-0.23043172
96	0xbd27e0b6	-0.040985785
97	0x3e8e3327	0.277734
98	0x3e2c6dc7	0.16838752
99	0xbd327b82	-0.043574817
100	0x3c0ad3f8	0.008473389
101	0xbdeac33f	-0.114630215
102	0xbe003f3a	-0.12524119
103	0x3debe107	0.1151753
104	0x3cd85a02	0.026410107
105	0x3c8590bf	0.016304372
106	0xbe4399a7	-0.19101582
107	0x3e57c21c	0.2107014
108	0x3d3f6037	0.046722617
109	0x3e0f249b	0.13978808
110	0x3d66397e	0.056207173
111	0x3a51be1e	0.0008001047
112	0xbd9a7350	-0.07541525
113	0xbe23cc29	-0.1599585
114	0xbd4beb34	-0.049784854
115	0x3d9e51b5	0.07730428
116	0xbd8f78d5	-0.07005469
117	0x3e6120bf	0.21985148
118	0xbc04b09c	-0.008098748
119	0x3e18b95e	0.14914462
120	0x3e5837aa	0.21114984
121	0x3d056dac	0.032575294
122	0x3e7e447f	0.24830817
123	0xbe0161bd	-0.1263494
124	0x3ec4442e	0.38333267
125	0x3e5be570	0.21474242
126	0x3b51789e	0.0031962763
127	0xbef44deb	-0.47715697
128	0xbe992151	-0.2990823
129	0x3d519a76	0.051172696
130	0x3e2aa3b0	0.16664004
131	0x3d67c68e	0.05658584
132	0xbed71afe	-0.4201278
133	0x3e3ab816	0.18234286
134	0xbd8fc700	-0.07020378
135	0xbb963b56	-0.00458471
136	0xbdd7603b	-0.105164014
137	0xbdbcd3fb	-0.092201196
138	0x3e4dbd57	0.20091759
139	0x3db7e243	0.08978703
140	0x3e0b1eed	0.13586016
141	0x3da856b8	0.08219665
142	0xbdfdcc6c	-0.12392506
143	0xbe0c2da2	-0.13689283
144	0xbc9d4815	-0.01919941
145	0xbd39ca42	-0.045358904
146	0x3e3b10e3	0.1826816
147	0xbcb22bba	-0.021749366
148	0x3e39482a	0.18093935
149	0x3e827798	0.25481868
150	0x3e6e8c7a	0.23295775
151	0x3d09b948	0.033623964
152	0xbdb8083b	-0.08985945
153	0xbd55aba0	-0.052165627
154	0xbe09e96f	-0.13467954
155	0x3e7e3237	0.24823843
156	0x3ecce692	0.4001966
157	0x3e1dcadb	0.15409414
158	0xbd51b083	-0.051193725
159	0x3de564ee	0.112008914
160	0x3d9f7303	0.077856086
161	0x3dc7464f	0.09730207
162	0xbd0c2a30	-0.03421992
163	0xbe17352a	-0.14766374
164	0xbd1a2d27	-0.037640717
165	0x3e526e03	0.20549779
166	0x3e4eeb93	0.20207052
167	0xbd6dbac2	-0.058039434
168	0xbd9ae2ee	-0.07562815
169	0xbea7d4ca	-0.32779533
170	0x3daeb214	0.085300595
171	0xbe41c82f	-0.1892402
172	0x3e6691af	0.22516511
173	0xbc3af196	-0.011410138
174	0xbce65888	-0.028118387
175	0xbd74f48b	-0.059803527
176	0xbca9a13f	-0.020706771
177	0x3e37e09c	0.17956775
178	0x3e5313a2	0.20612958
179	0xbe39463a	-0.18093196
180	0x3e14edc5	0.14543827
181	0x3e3be747	0.18349944
182	0xbe09caa3	-0.13456206
183	0x3d229f1c	0.03970252
184	0xbdb64698	-0.089001834
185	0x3e247718	0.16061056
186	0x3e791884	0.24325758
187	0xbe044a6e	-0.12919018
188	0x3e67f6f7	0.22652803
189	0x3cc743af	0.024324266
190	0x3d46a21c	0.048494443
191	0x3e2ca6ea	0.16860548
192	0xbd6491bc	-0.055803046
193	0xbd486510	-0.048924506
194	0x3e82cdcc	0.25547636
195	0xbdbee112	-0.093202725
196	0xbdc63733	-0.09678497
197	0xbe18a45c	-0.14906448
198	0xbe082b53	-0.13297777
199	0x3e47a11c	0.19495052
200	0x3dc0f8d6	0.09422462
201	0xbd8b6eba	-0.06808229
202	0xbd9c183e	-0.07621811
203	0x3ddb18a6	0.10698061
204	0xbd8bdb7d	-0.068289734
205	0xbcd161b0	-0.025559276
206	0x3dc0c163	0.094118856
207	0x3e93f1b4	0.28895342
208	0xbd8b8c7d	-0.068139054
209	0x3db5dbaa	0.08879788
210	0xbe2ed5af	-0.17073701
211	0x3d7579df	0.05993068
212	0x3cd45a96	0.025922101
213	0x3d8320de	0.06402753
214	0x3f197fe8	0.59960794
215	0x3dcafd28	0.09911567
216	0x3e8c2688	0.27373147
217	0xbdeef58e	-0.116679296
218	0xbd8bc1ba	-0.0682406
219	0xbe0846cf	-0.13308261
220	0x3ebe5f92	0.3718229
221	0x3d44786a	0.0479664
222	0xbce9d83a	-0.028545488
223	0xbc8261ce	-0.015915778
224	0x3e317fab	0.17333858
225	0xbeaa939c	-0.33315742
226	0x3dc87b4b	0.09789141
227	0xbe51abb3	-0.20475654
228	0x3cdfd80c	0.027324699
229	0x3e21903c	0.15777677
230	0x3c4c24ff	0.012459992
231	0xbd18e1b1	-0.03732461
232	0xbdc8cbc2	-0.09804489
233	0xbe031dd8	-0.12804353
234	0x3d5f8f2e	0.054579906
235	0x3e03f7c4	0.12887484
236	0x3cc34e52	0.023841057
237	0x3ea37efe	0.31932825
238	0xbe16b4c4	-0.14717394
239	0x3d7a2fe4	0.06108083
240	0xbde11458	-0.109902084
241	0x3e50c97c	0.2038936
242	0x3e3b78ae	0.18307754
243	0xbdd8dffa	-0.10589595
244	0xbdcf3e36	-0.10119288
245	0xbd4393d0	-0.047748387
246	0x3db5518c	0.088534445
247	0xbde1fc4a	-0.110344484
248	0xbde2b80a	-0.11070259
249	0xbdf185c0	-0.11793089
250	0xbe2bb0e4	-0.16766697
251	0xbec00e2c	-0.37510812
252	0x3d8bf607	0.06834035
253	0x3d418497	0.04724559
254	0xbc91c655	-0.017794767
255	0xbde9394e	-0.11387883

network_body._body_endoder.seq_layers.0.bias f4 [256]
0	0x00000000	0.0
1	0x00000000	0.0
2	0x00000000	0.0
3	0x00000000	0.0
4	0x00000000	0.0
5	0x00000000	0.0
6	0x00000000	0.0
7	0x00000000	0.0
8	0x00000000	0.0
9	0x00000000	0.0
10	0x00000000	0.0
11	0x00000000	0.0
12	0x00000000	0.0
13	0x00000000	0.0
14	0x00000000	0.0
15	0x00000000	0.0
16	0x00000000	0.0
17	0x00000000	0.0
18	0x00000000	0.0
19	0x00000000	0.0
20	0x00000000	0.0
21	0x00000000	0.0
22	0x00000000	0.0
23	0x00000000	0.0
24	0x00000000	0.0
25	0x00000000	0.0
26	0x00000000	0.0
27	0x00000000	0.0
28	0x00000000	0.0
29	0x00000000	0.0
30	0x00000000	0.0
31	0x00000000	0.0
32	0x00000000	0.0
33	0x00000000	0.0
34	0x00000000	0.0
35	0x00000000	0.0
36	0x00000000	0.0
37	0x00000000	0.0
38	0x00000000	0.0
39	0x00000000	0.0
40	0x00000000	0.0
41	0x00000000	0.0
42	0x00000000	0.0
43	0x00000000	0.0
44	0x00000000	0.0
45	0x00000000	0.0
46	0x00000000	0.0
47	0x00000000	0.0
48	0x00000000	0.0
49	0x00000000	0.0
50	0x00000000	0.0
51	0x00000000	0.0
52	0x00000000	0.0
53	0x00000000	0.0
54	0x00000000	0.0
55	0x00000000	0.0
56	0x00000000	0.0
57	0x00000000	0.0
58	0x00000000	0.0
59	0x00000000	0.0
60	0x00000000	0.0
61	0x00000000	0.0
62	0x00000000	0.0
63	0x00000000	0.0
64	0x00000000	0.0
65	0x00000000	0.0
66	0x00000000	0.0
67	0x00000000	0.0
68	0x00000000	0.0
69	0x00000000	0.0
70	0x00000000	0.0
71	0x00000000	0.0
72	0x00000000	0.0
73	0x00000000	0.0
74	0x00000000	0.0
75	0x00000000	0.0
76	0x00000000	0.0
77	0x00000000	0.0
78	0x00000000	0.0
79	0x00000000	0.0
80	0x00000000	0.0
81	0x00000000	0.0
82	0x00000000	0.0
83	0x00000000	0.0
84	0x00000000	0.0
85	0x00000000	0.0
86	0x00000000	0.0
87	0x00000000	0.0
88	0x00000000	0.0
89	0x00000000	0.0
90	0x00000000	0.0
91	0x00000000	0.0
92	0x00000000	0.0
93	0x00000000	0.0
94	0x00000000	0.0
95	0x00000000	0.0
96	0x00000000	0.0
97	0x00000000	0.0
98	0x00000000	0.0
99	0x00000000	0.0
100	0x00000000	0.0
101	0x00000000	0.0
102	0x00000000	0.0
103	0x00000000	0.0
104	0x00000000	0.0
105	0x00000000	0.0
106	0x00000000	0.0
107	0x00000000	0.0
108	0x00000000	0.0
109	0x00000000	0.0
110	0x00000000	0.0
111	0x00000000	0.0
112	0x00000000	0.0
113	0x00000000	0.0
114	0x00000000	0.0
115	0x00000000	0.0
116	0x00000000	0.0
117	0x00000000	0.0
118	0x00000000	0.0
119	0x00000000	0.0
120	0x00000000	0.0
121	0x00000000	0.0
122	0x00000000	0.0
123	0x00000000	0.0
124	0x00000000	0.0
125	0x00000000	0.0
126	0x00000000	0.0
127	0x00000000	0.0
128	0x00000000	0.0
129	0x00000000	0.0
130	0x00000000	0.0
131	0x00000000	0.0
132	0x00000000	0.0
133	0x00000000	0.0
134	0x00000000	0.0
135	0x00000000	0.0
136	0x00000000	0.0
137	0x00000000	0.0
138	0x00000000	0.0
139	0x00000000	0.0
140	0x00000000	0.0
141	0x00000000	0.0
142	0x00000000	0.0
143	0x00000000	0.0
144	0x00000000	0.0
145	0x00000000	0.0
146	0x00000000	0.0
147	0x00000000	0.0
148	0x00000000	0.0
149	0x00000000	0.0
150	0x00000000	0.0
151	0x00000000	0.0
152	0x00000000	0.0
153	0x00000000	0.0
154	0x00000000	0.0
155	0x00000000	0.0
156	0x00000000	0.0
157	0x00000000	0.0
158	0x00000000	0.0
159	0x00000000	0.0
160	0x00000000	0.0
161	0x00000000	0.0
162	0x00000000	0.0
163	0x00000000	0.0
164	0x00000000	0.0
165	0x00000000	0.0
166	0x00000000	0.0
167	0x00000000	0.0
168	0x00000000	0.0
169	0x00000000	0.0
170	0x00000000	0.0
171	0x00000000	0.0
172	0x00000000	0.0
173	0x00000000	0.0
174	0x00000000	0.0
175	0x00000000	0.0
176	0x00000000	0.0
177	0x00000000	0.0
178	0x00000000	0.0
179	0x00000000	0.0
180	0x00000000	0.0
181	0x00000000	0.0
182	0x00000000	0.0
183	0x00000000	0.0
184	0x00000000	0.0
185	0x00000000	0.0
186	0x00000000	0.0
187	0x00000000	0.0
188	0x00000000	0.0
189	0x00000000	0.0
190	0x00000000	0.0
191	0x00000000	0.0
192	0x00000000	0.0
193	0x00000000	0.0
194	0x00000000	0.0
195	0x00000000	0.0
196	0x00000000	0.0
197	0x00000000	0.0
198	0x00000000	0.0
199	0x00000000	0.0
200	0x00000000	0.0
201	0x00000000	0.0
202	0x00000000	0.0
203	0x00000000	0.0
204	0x00000000	0.0
205	0x00000000	0.0
206	0x00000000	0.0
207	0x00000000	0.0
208	0x00000000	0.0
209	0x00000000	0.0
210	0x00000000	0.0
211	0x00000000	0.0
212	0x00000000	0.0
213	0x00000000	0.0
214	0x00000000	0.0
215	0x00000000	0.0
216	0x00000000	0.0
217	0x00000000	0.0
218	0x00000000	0.0
219	0x00000000	0.0
220	0x00000000	0.0
221	0x00000000	0.0
222	0x00000000	0.0
223	0x00000000	0.0
224	0x00000000	0.0
225	0x00000000	0.0
226	0x00000000	0.0
227	0x00000000	0.0
228	0x00000000	0.0
229	0x00000000	0.0
230	0x00000000	0.0
231	0x00000000	0.0
232	0x00000000	0.0
233	0x00000000	0.0
234	0x00000000	0.0
235	0x00000000	0.0
236	0x00000000	0.0
237	0x00000000	0.0
238	0x00000000	0.0
239	0x00000000	0.0
240	0x00000000	0.0
241	0x00000000	0.0
242	0x00000000	0.0
243	0x00000000	0.0
244	0x00000000	0.0
245	0x00000000	0.0
246	0x00000000	0.0
247	0x00000000	0.0
248	0x00000000	0.0
249	0x00000000	0.0
250	0x00000000	0.0
251	0x00000000	0.0
252	0x00000000	0.0
253	0x00000000	0.0
254	0x00000000	0.0
255	0x00000000	0.0

network_body._body_endoder.seq_layers.2.weight f4 [256, 256]
0	0x3d86b1c4	0.06576875
1	0x3d5232a3	0.051317822
2	0xbbbfb809	-0.005850796
3	0xbdb89595	-0.090129055
4	0xbc8ee240	-0.017441869
5	0x3d3952e3	0.045245063
6	0x3d05f4b2	0.032704063
7	0x3d86f9d7	0.06590622
8	0x3cccd21d	0.025002534
9	0xbd1ba7c4	-0.03800179
10	0x3c78dcce	0.015189363
11	0xbd897ea1	-0.06713606
12	0x3d532dd6	0.051557384
13	0xbc2bd30c	-0.010487329
14	0x3cdcee63	0.02696914
15	0xbd858168	-0.06518823
16	0x3d163c4d	0.0366786
17	0x3d0771b5	0.033067424
18	0x3cc841f6	0.024445515
19	0x3afc4b07	0.0019248434
20	0x3dd6a36f	0.10480391
21	0xbaa1a2cc	-0.0012331842
22	0x3d419c75	0.04726835
23	0xbce57fa0	-0.028014958
24	0xbd7f125c	-0.06227337
25	0x3c03e318	0.008049749
26	0xbcc4ad40	-0.024008393
27	0xbd045652	-0.032308884
28	0xbd1b3f61	-0.03790224
29	0xbd1fcdf8	-0.039014786
30	0xbb4fd125	-0.0031710353
31	0x3d9aa1c4	0.075503856
32	0x3ddb3873	0.10704126
33	0x3dd3f6f8	0.1034984
34	0x3d245fc2	0.040130384
35	0x3c9778b0	0.018490165
36	0x3da6fff4	0.08154288
37	0x3d2682e8	0.040652186
38	0x3d806ce3	0.062707685
39	0xbcd0a011	-0.02546695
40	0x3d9c064e	0.0761839
41	0x3d101d9d	0.03518449
42	0xbd2a295c	-0.04154335
43	0x3db49e92	0.088193074
44	0x3d1aabbf	0.037761446
45	0x3d2d5697	0.042318907
46	0x3d5908b1	0.052986804
47	0x3d06ed12	0.03294093
48	0xbdfe5246	-0.12418036
49	0xbe093bb2	-0.13401678
50	0x3cfcebd2	0.030874167
51	0x3c1976ef	0.009366735
52	0xbdfa7fa1	-0.122313745
53	0xbb1e5a5a	-0.002416274
54	0x3cc06e01	0.023489954
55	0xbb4e7ed5	-0.0031508703
56	0x3d5b02ab	0.05346934
57	0xbd6c1749	-0.057639394
58	0xbd00a70c	-0.03140931
59	0xbd9039c4	-0.07042268
60	0x3d1b7bea	0.03795997
61	0xbcf508ca	-0.029911418
62	0x3d40b736	0.047049724
63	0x3cae49ff	0.021275518
64	0xbd8a7e8b	-0.067624174
65	0xbc1e99a0	-0.009680182
66	0xbe415b33	-0.18882446
67	0x3c46842b	0.012116472
68	0x3bc8adb7	0.006124224
69	0x3aa9a627	0.0012943194
70	0xbcaf8673	-0.021426415
71	0x3deb0608	0.1147576
72	0x3d15c6e5	0.036566634
73	0xbc40ba8d	-0.011763227
74	0xbc920b20	-0.01782757
75	0x3c8a549a	0.016886044
76	0x3d5547c1	0.052070383
77	0x3ca52587	0.020159496
78	0x3d43b0b4	0.04777594
79	0x3bfd92dd	0.0077384547
80	0xbddbf2a8	-0.107396424
81	0x3c1a6117	0.009422562
82	0xbbdac21a	-0.0066759707
83	0xbb8b058f	-0.004242606
84	0xbd84c799	-0.06483383
85	0xbdac1f77	-0.08404439
86	0x3c58fe3e	0.01324421
87	0x3cb06f11	0.021537336
88	0x3c8b0c27	0.016973568
89	0x3add8f5e	0.0016903689
90	0xbd77df8f	-0.060515936
91	0xba5e2328	-0.00084738666
92	0x3d2dd0fb	0.042435627
93	0x3d3b1a2f	0.045679267
94	0xbc9a8e90	-0.018866807
95	0x3d182af1	0.037150327
96	0xbd632e28	-0.05546394
97	0xbd6bb718	-0.05754766
98	0x3d15bd45	0.036557455
99	0xbce8309f	-0.028343497
100	0xbb752183	-0.0037404008
101	0xbd6f9f9f	-0.058501836
102	0x3aa0faa7	0.0012281731
103	0xbcca115a	-0.024666477
104	0x3d317f56	0.043334328
105	0x3d0ed038	0.03486654
106	0x3d00233a	0.031283595
107	0x3ca1c30b	0.019746324
108	0xbd59eba6	-0.053203247
109	0x3da4618a	0.080264166
110	0x3d3c44d5	0.04596408
111	0xbbaaba19	-0.005210173
112	0xbdb227c9	-0.08698995
113	0xbc09546c	-0.008381944
114	0xbc9952df	-0.018716274
115	0xbd8d258b	-0.068919264
116	0xbd1288de	-0.035775058
117	0x3cfd6ce9	0.030935721
118	0xbc5a1d4c	-0.013312649
119	0xbd9f1958	-0.07768506
120	0xbce86523	-0.028368538
121	0x3b09e6db	0.0021042142
122	0x3d01f244	0.031725183
123	0xbd43c597	-0.04779586
124	0x3c6a3919	0.01429584
125	0x3dba6075	0.09100429
126	0xbd9e99e8	-0.07744199
127	0x3be1c096	0.006889413
128	0xbb680cb1	-0.0035407955
129	0x3d4c9d71	0.049954835
130	0x3b87af2f	0.0041407566
131	0x3d79ad0f	0.060956057
132	0x3c9d37a7	0.019191576
133	0xbcbde07b	-0.02317833
134	0xbd55d15f	-0.052201625
135	0xbdbfde95	-0.09368626
136	0x3c0a1aef	0.008429273
137	0x3d316b78	0.04331538
138	0xbb473bf5	-0.0030400727
139	0xbd021308	-0.03175643
140	0xbdcd1652	-0.10014023
141	0xbd656122	-0.056000836
142	0xbce51c4b	-0.027967593
143	0x3c4c6cea	0.012477139
144	0xbbaa21a1	-0.005191997
145	0x3de13f83	0.10998442
146	0xbdb08375	-0.086188234
147	0x3cd577a3	0.026058024
148	0xbd487751	-0.048941914
149	0x3cc80fe8	0.024421647
150	0xbb3e76ff	-0.0029062626
151	0x3d124542	0.03571058
152	0x3d70897a	0.058724858
153	0xbc38acab	-0.011271636
154	0x3d1b95fe	0.03798484
155	0x3d99cd54	0.07509866
156	0xbab1896a	-0.0013544981
157	0x3d75ea6c	0.060038015
158	0x3d5018f2	0.05080504
159	0xbd8db9a9	-0.069201775
160	0xbcf4e5e0	-0.02989477
161	0x3c1d8b27	0.009615696
162	0xbd104c11	-0.035228793
163	0xba7e0dab	-0.0009691368
164	0xbd7e8025	-0.062133927
165	0xbd49b93e	-0.049248926
166	0xbccc56f0	-0.024943799
167	0xbbdc7627	-0.006727952
168	0xbd2ad16f	-0.041703638
169	0x3c997e20	0.018736899
170	0x3c9d8f30	0.019233316
171	0x3b626905	0.003454746
172	0xbbbe626b	-0.005810072
173	0xbc686bac	-0.014185827
174	0xbba1d84f	-0.004939116
175	0xbcd09667	-0.025462342
176	0x3d303a75	0.0430245
177	0xbda3e7d0	-0.08003199
178	0x3d970092	0.07373156
179	0x3d6e4e3f	0.05818009
180	0xbcad35ed	-0.021143878
181	0x3e060477	0.1308764
182	0xbd1a0f20	-0.03761208
183	0xba10efa1	-0.00055288716
184	0xbd0e78b9	-0.0347831
185	0xbc17b797	-0.00926008
186	0xbc60c272	-0.013718234
187	0x3d6adbad	0.057338405
188	0xbbcc0a52	-0.006226816
189	0x3d19c013	0.037536692
190	0x3da0e3cc	0.07855949
191	0x3c2b4596	0.010453602
192	0x3dba79c1	0.09105254
193	0xbaba79e1	-0.0014226997
194	0x3ca031cc	0.019554995
195	0x3d71b693	0.059012007
196	0x3b6e0736	0.0036320216
197	0xbd960f5a	-0.07327147
198	0x3cbe2462	0.023210708
199	0x3caa5c25	0.020795891
200	0xbda35509	-0.079752035
201	0x3c95ae7e	0.01827168
202	0xbd0a6b38	-0.033793658
203	0x3c44230a	0.011971245
204	0x3c60d635	0.013722946
205	0xbd99dbd4	-0.07512632
206	0x3bea1acd	0.007144308
207	0xbdd89993	-0.10576167
208	0x3c6b5dfc	0.014365669
209	0x3c54c52a	0.012986461
210	0xbbfcf2d4	-0.007719377
211	0xbd17cd31	-0.03706092
212	0x3d134294	0.035952166
213	0xbb2ba636	-0.0026191599
214	0xbdf8c9b9	-0.121478505
215	0x3d37a68d	0.04483657
216	0x3e04f8a8	0.1298548
217	0x3d921c79	0.07134337
218	0x3d793458	0.060840935
219	0xbdecf7eb	-0.11570724
220	0xbc552b38	-0.013010792
221	0x3c2c451e	0.010514526
222	0x3da0b372	0.078467265
223	0x3ce581be	0.028015967
224	0x390aa64d	0.00013222657
225	0xbdeba383	-0.11505797
226	0xbd01bb31	-0.03167266
227	0x3c5d70ce	0.013515664
228	0xbe123bb7	-0.14280592
229	0x3c9aba31	0.018887611
230	0xbda1bbe6	-0.07897167
231	0xbd6a4634	-0.057195857
232	0xbd9f6f22	-0.07784869
233	0xbd3bd3fd	-0.045856465
234	0xbd6a1323	-0.057147156
235	0xbddd94b1	-0.10819376
236	0x3d1e1a2a	0.03859917
237	0x3dbf6153	0.09344735
238	0xbd3b6816	-0.04575356
239	0x3cd2dbcd	0.025739575
240	0xbc507916	-0.012724182
241	0x3d87a0ef	0.066224925
242	0xbe0bae17	-0.13640629
243	0x3dd9a177	0.106265
244	0x3e20508f	0.1565573
245	0x3d956898	0.0729534
246	0xbc2773f3	-0.010220516
247	0x3d8c3f17	0.06847971
248	0x3d829044	0.06375173
249	0xbd79cdc5	-0.060987253
250	0x3d4a4c3e	0.049389116
251	0x3cb08e68	0.02155228
252	0x3d6a21d6	0.057161175
253	0xbc9b887b	-0.018985977
254	0x3d56e5a8	0.05246511
255	0xbbf78f5f	-0.007554933

action_model._continuous_distribution.log_sigma f4 [1, 3]
0	0x00000000	0.0
1	0x00000000	0.0
2	0x00000000	0.0

action_model._continuous_distribution.mu.weight f4 [3, 256]
0	0x3bcc847c	0.0062413793
1	0xbc8fc7fd	-0.017551417
2	0xbb1bf05f	-0.0023794395
3	0xbbeab1e0	-0.0071623176
4	0x3bc25e17	0.0059316265
5	0xbcf5c2b2	-0.030000065
6	0x3c59edc2	0.013301315
7	0xbcb1ab73	-0.021688199
8	0x3ced577d	0.028972382
9	0x3b84be88	0.0040510334
10	0xbc3d4080	-0.0115510225
11	0x3c00ee6f	0.007869347
12	0xbc9193e7	-0.01777072
13	0xbc45922a	-0.012058774
14	0x3bed34c5	0.0072389566
15	0xbcec3922	-0.028835837
16	0xbcc7842b	-0.024355015
17	0xbbfcd03f	-0.0077152546
18	0xb8d40db7	-0.00010111502
19	0x3c0a13e7	0.008427597
20	0xbc6d2d43	-0.014476123
21	0xbb1f84f7	-0.0024340728
22	0xbc9a6a15	-0.018849412
23	0xbc8683d5	-0.016420284
24	0xbc0f93a5	-0.008763229
25	0x3c0b9629	0.008519688
26	0x3bb87645	0.005629333
27	0x3c7ee195	0.015556713
28	0xbc6c090b	-0.014406453
29	0x3c5b0eb2	0.013370203
30	0x3c83dbe7	0.016096069
31	0x3c3b3c97	0.01142802
32	0x3cc79eb2	0.024367664
33	0xbbc88033	-0.006118798
34	0xbc5bdcef	-0.013419374
35	0x3c2c5d20	0.01052025
36	0x3acdf8bf	0.0015714391
37	0xba8004ad	-0.0009767018
38	0xbb24f089	-0.0025167784
39	0xbb49024f	-0.0030671542
40	0x3b6ca575	0.0036109362
41	0x3c5d239b	0.013497259
42	0x3b9bd3cb	0.0047554723
43	0x3c2975e0	0.010343045
44	0x3a617b9b	0.00086014875
45	0xbbb9dc3b	-0.0056720055
46	0x3cb1fc48	0.021726742
47	0x3c0a97bf	0.008459031
48	0x3cab4672	0.020907614
49	0x3cb155ee	0.02164742
50	0xbc0c1ae7	-0.008551336
51	0x3d06e15b	0.03292976
52	0xbc51b930	-0.0128005
53	0x3c05a543	0.008157077
54	0xbbceff33	-0.006317043
55	0xbcd421c3	-0.025895005
56	0x3bd68d15	0.00654758
57	0x3cece1a2	0.028916184
58	0xbad65605	-0.001635254
59	0xbb4fcb97	-0.0031707042
60	0xbc6b4663	-0.014360043
61	0xbc2fd404	-0.010731701
62	0xbc489dbb	-0.012244637
63	0xbc2030d4	-0.0097772665
64	0x3b375823	0.0027976118
65	0xbbabb209	-0.0052397293
66	0x3b2ea202	0.0026646857
67	0xbc7f9643	-0.01559979
68	0xbc300efc	-0.01074576
69	0xbbf437d2	-0.0074529434
70	0x3cd3690b	0.025806924
71	0x3b944765	0.0045251125
72	0x3b38131f	0.002808757
73	0x3bb3cc5f	0.0054870094
74	0xbc416be1	-0.0118055055
75	0xba0b4706	-0.00053130125
76	0x3aee7ba8	0.0018194811
77	0xbc7baad0	-0.015360549
78	0xbc052c0f	-0.00812818
79	0x3ba1a1a7	0.0049326005
80	0xbbb2e3f2	-0.005459302
81	0x3bbdc851	0.005791702
82	0x3b3e5deb	0.0029047679
83	0x3bcac4a6	0.006187993
84	0xbc712ae7	-0.014719701
85	0x3bb93661	0.0056522344
86	0xbb0592af	-0.002038162
87	0x39d0b640	0.00039808638
88	0xbc2f0362	-0.010681959
89	0x3bb66f41	0.0055674617
90	0x39bd2431	0.00036075854
91	0x3bff2da2	0.0077874223
92	0x3c81fee7	0.015868617
93	0xbaed0630	-0.0018083509
94	0xbc8730fb	-0.016502848
95	0xbc3f1f1c	-0.011665132
96	0xbc81b1c4	-0.015831836
97	0x3c92317c	0.017845862
98	0xbc500d4d	-0.012698484
99	0xbc92d8b9	-0.017925607
100	0xbc7a828d	-0.015289915
101	0x3c7388a0	0.014864117
102	0xbad06f40	-0.0015902296
103	0x3a164fb1	0.0005733921
104	0xbb2b3a34	-0.002612722
105	0xbacee2d3	-0.0015784152
106	0x39a0183c	0.00030535634
107	0xbc1bf36f	-0.009518488
108	0xbb8a9008	-0.0042285956
109	0x3c9121e1	0.01771635
110	0x3c49ee26	0.012324845
111	0x3b7cd7d8	0.0038580801
112	0x3b807576	0.0039202524
113	0xbb9a64fa	-0.0047117444
114	0xbc2c4ab3	-0.010515857
115	0xba8a2ec5	-0.0010542503
116	0x3c1c608f	0.009544506
117	0xbbce0b82	-0.006287993
118	0xbc44e740	-0.012018025
119	0x3c979826	0.018505167
120	0x3c2233d3	0.009900051
121	0x3c5bdc70	0.013419256
122	0xbb7f4e9d	-0.003895677
123	0xbb9f0535	-0.0048529156
124	0xbc36e9c3	-0.011164132
125	0xbc0244c3	-0.007950964
126	0x3c0387fd	0.008028028
127	0xbaa1a77c	-0.001233324
128	0xbb30084f	-0.002686042
129	0xbcadc438	-0.021211728
130	0x3c55d06f	0.013050183
131	0xbb78829d	-0.0037919648
132	0x3b2223a0	0.0024740472
133	0x3cb5c11f	0.022186814
134	0xbc88bc13	-0.016691243
135	0xba3d2046	-0.0007214587
136	0xbb7e13ea	-0.0038769194
137	0x3bfd14df	0.0077234353
138	0xb9b262e2	-0.0003402448
139	0x3c8bc88f	0.017063407
140	0x3c58b14f	0.013225867
141	0xba723a40	-0.00092402473
142	0x3bea0f6a	0.007142951
143	0x3c29ffa1	0.010375888
144	0xbc56f3d5	-0.0131196575
145	0xb849d6e9	-4.8122285e-05
146	0x3bd97eea	0.006637444
147	0xbc51b52a	-0.012799541
148	0xbb1c9b76	-0.0023896373
149	0x3b93bedf	0.0045088376
150	0x3b283d18	0.002567118
151	0xbc3b0409	-0.011414536
152	0xbb57fead	-0.0032958195
153	0xbb947e85	-0.004531684
154	0xbc593a72	-0.013258563
155	0x3d08a62b	0.033361595
156	0x39066807	0.00012817989
157	0x3c87f336	0.016595464
158	0x3c53bfff	0.012924193
159	0xbbb7909f	-0.005601957
160	0xbbfd97fa	-0.0077390643
161	0x3cc1bd7a	0.02364992
162	0x3c53d1a2	0.012928398
163	0xbb8680e4	-0.0041047204
164	0x3aab0a0a	0.0013049257
165	0x3cb60dab	0.022223314
166	0xbc1802ba	-0.009277994
167	0xb9934206	-0.00028087216
168	0x3b7c72c3	0.0038520552
169	0xbab66e48	-0.0013918364
170	0x3a959c9f	0.0011414475
171	0xbce11b1f	-0.027478753
172	0x3c66b215	0.014080544
173	0x3c94eb25	0.018178532
174	0x3b02badc	0.0019947803
175	0x3b595538	0.0033162367
176	0xbbb9c2b8	-0.0056689642
177	0xbaa4cb36	-0.0012572769
178	0x3b62db07	0.0034615414
179	0xbb9b3182	-0.0047361264
180	0xbc24a868	-0.010049917
181	0xba550b43	-0.00081269833
182	0x3ca3f460	0.020013988
183	0x3bb11d9d	0.0054051415
184	0x3cc76a30	0.024342626
185	0xbbb333c5	-0.005468818
186	0x3c859532	0.016306493
187	0x3a5bb133	0.0008380592
188	0xbc9096f2	-0.017650101
189	0xbb884d6f	-0.0041596214
190	0x3b4ffd8a	0.0031736814
191	0x3ba253c2	0.0049538324
192	0xbc8bc12b	-0.017059883
193	0xbc556277	-0.013023964
194	0x3aca4469	0.0015431765
195	0xbac60dd3	-0.0015110321
196	0x3bbff47e	0.005858003
197	0x3c234826	0.009965932
198	0x3981ec05	0.00024780646
199	0xbb961db4	-0.0045811776
200	0x3b7cceda	0.0038575442
201	0xbc8abb19	-0.016934918
202	0xbc562e4d	-0.013072562
203	0xbc6dc312	-0.01451184
204	0xbc7508a7	-0.014955676
205	0x3c4aad4a	0.012370417
206	0x3bd080dd	0.006363018
207	0xbb9f539c	-0.004862262
208	0xbb879f25	-0.0041388446
209	0x3ba9caee	0.005181662
210	0x3b07ed7b	0.0020740915
211	0xbc97dff9	-0.018539416
212	0xba36a6db	-0.00069676124
213	0x3c1b7703	0.009488824
214	0x3c00b583	0.007855776
215	0xba213b4c	-0.00061504985
216	0x3c7c726a	0.015408138
217	0xbcb0aeae	-0.021567669
218	0xbb750113	-0.0037384673
219	0xbc923e5d	-0.017852003
220	0xbbc4b313	-0.0060027926
221	0x3ad7e18f	0.001647042
222	0xbc34b6ed	-0.011029941
223	0x3c942799	0.018085288
224	0xbc7b665f	-0.015344231
225	0x3bcb53be	0.006205051
226	0xbc80d173	-0.015724873
227	0xbb97bc3f	-0.004630595
228	0x3c4f22ed	0.012642604
229	0xbb2705d8	-0.002548566
230	0xba0f0d36	-0.00054569857
231	0x3b9df102	0.00481999
232	0xbc66b34b	-0.014080833
233	0x3b41d6f1	0.0029577578
234	0xb97dc20d	-0.0002420025
235	0xbc76642b	-0.01503853
236	0x3c2e5716	0.01064088
237	0xbc3e22d3	-0.011604982
238	0xbb6b7923	-0.0035930357
239	0x3afbacc2	0.0019201266
240	0x3a9fb222	0.0012183825
241	0x3c6b72d5	0.01437064
242	0x3ba7f663	0.005125807
243	0x3c15043a	0.009095246
244	0x3ad71bad	0.0016411446
245	0xbc90ab01	-0.017659666
246	0xbbb295c8	-0.005449984
247	0xbbd69163	-0.006548093
248	0xbc6bd76a	-0.01439462
249	0x3c9d85e1	0.019228877
250	0xbb84209f	-0.004032209
251	0x3c801975	0.015637139
252	0xbc3d940f	-0.011570944
253	0x3b2615a1	0.0025342482
254	0x3a54ca2a	0.0008117283
255	0x3c3513e1	0.011052103

action_model._continuous_distribution.mu.bias f4 [3]
0	0x00000000	0.0
1	0x00000000	0.0
2	0x00000000	0.0

action_model._discrete_distribution.branches.0.weight f4 [7, 256]
0	0xbc896bba	-0.016775
1	0x3bd63e2b	0.0065381727
2	0x3c05e3e8	0.008172013
3	0xbb73cf2b	-0.003720234
4	0x3af37042	0.0018572884
5	0xbb8fe5b3	-0.004391396
6	0x3a08d19f	0.0005219224
7	0xbbbacadf	-0.0057004537
8	0xbb57dc75	-0.00329378
9	0xbc4aba72	-0.012373554
10	0xb9654a5a	-0.0002186684
11	0xbc02403b	-0.007949884
12	0x3bfae4ff	0.007656693
13	0xbb7467e5	-0.0037293371
14	0xbbf16f38	-0.0073679946
15	0x3b9d36c4	0.0047977883
16	0x3a08eff3	0.00052237435
17	0x3ba0bfad	0.004905662
18	0xbc2b6eb8	-0.010463409
19	0x3c09ca2a	0.008410016
20	0xbb380850	-0.0028081127
21	0xba925e49	-0.0011167015
22	0xbba44013	-0.005012521
23	0x39b36ef5	0.0003422421
24	0x3b1fe0f6	0.0024395562
25	0xbc22d863	-0.009939286
26	0x3a1a5d6e	0.0005888556
27	0x3b74d3b7	0.0037357637
28	0xbbaea906	-0.0053302078
29	0x3afdbdad	0.0019358896
30	0x3c4955fd	0.012288568
31	0x3a9eb591	0.0012108554
32	0xbbb82d15	-0.0056206086
33	0xbb96092c	-0.00457873
34	0xbb1bffc6	-0.0023803576
35	0x3977c4d3	0.00023629078
36	0xbbb84090	-0.005622931
37	0xbaa0954f	-0.0012251529
38	0xba835eff	-0.0010022818
39	0x3bb67231	0.005567812
40	0x39cde942	0.00039274438
41	0x39f94063	0.00047540953
42	0xbab04f97	-0.0013451454
43	0x3a89afd7	0.0010504675
44	0xbac0b878	-0.0014703413
45	0x3bf972cd	0.0076125623
46	0xbbc617b9	-0.0060453084
47	0xba2a70b8	-0.0006501782
48	0x3b97753c	0.0046221297
49	0xbb4efbf0	-0.0031583272
50	0xbb314f59	-0.0027055352
51	0xb99500e5	-0.0002842016
52	0xbb9498b7	-0.0045348066
53	0xbba755a2	-0.005106644
54	0x3a1d1933	0.00059928297
55	0x3aa0be45	0.0012263736
56	0xbbdf6f23	-0.0068186685
57	0x3a772403	0.00094276684
58	0x3b62f097	0.0034628266
59	0x3b64cde8	0.0034912769
60	0xbaac90b5	-0.0013165685
61	0xbbcf24af	-0.0063215117
62	0xbad10fdf	-0.0015950165
63	0xbb9137c3	-0.004431696
64	0xbb8fa664	-0.004383849
65	0xbafab5d0	-0.0019127671
66	0xb9998db3	-0.00029288008
67	0x3bfedcb2	0.007777774
68	0xbbd0a398	-0.006367158
69	0xbb37eada	-0.0028063566
70	0xba39b611	-0.000708432
71	0xbae4212a	-0.0017404903
72	0xbb44edb0	-0.00300489
73	0xbb968399	-0.0045933244
74	0x3b341e17	0.0027483755
75	0x3a8b1f80	0.0010614246
76	0xbaf02957	-0.0018322867
77	0xbb03e4b8	-0.002012534
78	0xb9fb8d52	-0.00047979743
79	0x3b9b1c3a	0.0047335895
80	0xbac52b89	-0.0015042882
81	0x3b3735cb	0.0027955647
82	0x3b816693	0.0039489954
83	0x3add429b	0.0016880812
84	0x3a0bdc1b	0.00053352275
85	0x3b9e872e	0.004837892
86	0xbc610078	-0.013733022
87	0xbb2bc771	-0.0026211406
88	0xbbc949c8	-0.0061428286
89	0x3c17d8be	0.009267984
90	0x3b9e693b	0.004834322
91	0x3a97d68f	0.0011584329
92	0xb9065cdc	-0.00012813829
93	0xbb090395	-0.0020906676
94	0x37da7b88	2.6045149e-05
95	0x3bf6ea9d	0.0075352923
96	0x3b7b43da	0.0038340003
97	0x3ae0bb5d	0.0017145682
98	0x3bead710	0.0071667507
99	0x3c83e1d6	0.016098898
100	0xbbc73657	-0.006079476
101	0x3c3d1df4	0.011542786
102	0x3b09145c	0.0020916676
103	0xbc6b7615	-0.014371415
104	0x3ba71644	0.00509909
105	0x3caec583	0.021334415
106	0xbbab65d5	-0.005230645
107	0xbb7afbdf	-0.00382971
108	0xbbca5f79	-0.006175932
109	0x3bd45877	0.0064802724
110	0x3b783a67	0.0037876607
111	0x3b189d5f	0.002328716
112	0xbc018d47	-0.007907218
113	0x3c8691d2	0.016426954
114	0x3aefbe78	0.0018291017
115	0x3be0efbd	0.0068645165
116	0x3b2a133d	0.0025951408
117	0xbc12c1e2	-0.008957358
118	0xbbc8cc20	-0.006127849
119	0x3c5287a3	0.012849721
120	0xbb49c104	-0.0030785212
121	0x3c10c06c	0.008834939
122	0xbb318377	-0.0027086416
123	0xbbedc5a7	-0.007256228
124	0xbbad50d7	-0.005289178
125	0x3aaacddb	0.001303132
126	0xbbf41748	-0.0074490644
127	0xba2707a7	-0.0006371685
128	0xbb099133	-0.0020991086
129	0xbb34803b	-0.0027542252
130	0xbc4f39e2	-0.012648078
131	0xbb009cdd	-0.0019624748
132	0x3bef45a5	0.0073020034
133	0x3c0339ae	0.008009357
134	0xbb454b77	-0.0030104795
135	0xbb11133f	-0.0022136716
136	0xbb73b768	-0.0037188176
137	0x3beeaea0	0.0072840005
138	0xbbbc2c63	-0.005742596
139	0xbca4da38	-0.020123586
140	0x3abcc16e	0.0014400908
141	0xbbc6e583	-0.0060698404
142	0xbb8cd683	-0.0042980327
143	0x3b246e6a	0.0025090226
144	0xbc488208	-0.012238033
145	0x3be5cecd	0.007013178
146	0xbaf0649f	-0.0018340534
147	0x3a9f55a7	0.0012156264
148	0x3b99a8ca	0.0046893107
149	0xbbea0487	-0.007141653
150	0xba23c03c	-0.00062466017
151	0xbb943ffd	-0.0045242296
152	0x3b74f50f	0.0037377512
153	0xbb1afa82	-0.002364785
154	0x3b53f783	0.0032343573
155	0x3bf591bd	0.00749418
156	0x3b5e4810	0.0033917464
157	0x3c33173b	0.010930832
158	0xba4fab62	-0.00079219614
159	0x3bfb4cab	0.0076690516
160	0x3b808edf	0.0039232816
161	0x3c1efb80	0.009703517
162	0x3b725e8d	0.0036982626
163	0xbb3a3ac2	-0.002841637
164	0x3ab01664	0.0013434407
165	0x3b55ffc3	0.0032653667
166	0x3867dd53	5.5280816e-05
167	0x398a1d90	0.00026343437
168	0x3b257148	0.0025244523
169	0x3bd07b42	0.0063623497
170	0xbc17e2c2	-0.009270372
171	0xbc54a847	-0.012979574
172	0x3ae237f8	0.0017259112
173	0x38fcf675	0.000120622026
174	0xbc1c683f	-0.009546339
175	0xbbb80a27	-0.0056164446
176	0x3b089ac7	0.0020844208
177	0x3bc47162	0.0059949616
178	0x3c4ea3bf	0.012612282
179	0xbc3fbdfd	-0.011703012
180	0x3baab399	0.005209398
181	0x3c164713	0.009172219
182	0x3942d83f	0.0001858184
183	0x3b132583	0.0022452779
184	0x3bce163a	0.0062892707
185	0x3b3b7d6b	0.002860869
186	0x3c2ff658	0.010739885
187	0x3b977063	0.004621552
188	0xbc4326c4	-0.011911098
189	0xbad29de8	-0.0016068788
190	0xbc288382	-0.01028526
191	0x3b456fb3	0.0030126392
192	0x3b578e72	0.00328913
193	0x3c41bb23	0.011824402
194	0x3b6d0883	0.0036168403
195	0xb94161c3	-0.00018442333
196	0x3b753657	0.0037416422
197	0x3bbceccb	0.0057655326
198	0x3c050aac	0.00812022
199	0x3bf32af2	0.007420891
200	0x3b1f50ad	0.002430956
201	0xbb952fef	-0.0045528333
202	0x3ab72ee7	0.001397577
203	0x3c22b701	0.009931327
204	0x39255938	0.00015768863
205	0xbae280b5	-0.0017280789
206	0x3aed92ca	0.0018125412
207	0xbc8ab30c	-0.01693108
208	0xbba7bff0	-0.0051193163
209	0xb805e3cd	-3.1921827e-05
210	0xba606955	-0.00085606176
211	0xbbe1f393	-0.0068954914
212	0xbbfeea50	-0.007779397
213	0xbb238a7f	-0.0024954376
214	0x3a7f538d	0.0009739928
215	0xba01c380	-0.0004950091
216	0x3b83dfb6	0.004024471
217	0xbb704a00	-0.0036665201
218	0xbb6563a7	-0.0035002024
219	0xbc2c0cb5	-0.0105010765
220	0x3b250fa0	0.0025186315
221	0xbc36e59d	-0.0111631425
222	0x38b0a755	8.423502e-05
223	0x3c5c9360	0.013462871
224	0xbbe101af	-0.006866656
225	0xbbfa046a	-0.0076299207
226	0x3b4e7f2f	0.0031508913
227	0xbb67e4f0	-0.003538426
228	0xbb95994d	-0.004565394
229	0xbb982f57	-0.004644315
230	0xbb2362d2	-0.0024930728
231	0xbafe0207	-0.0019379266
232	0xba960d5b	-0.0011448072
233	0x3b800517	0.0039068568
234	0xbbcefae5	-0.00631653
235	0xbb095b07	-0.0020958798
236	0xbbce6425	-0.0062985593
237	0x3b9638c7	0.004584405
238	0x3c644642	0.013932766
239	0x3b6c6483	0.0036070652
240	0x3c33c30a	0.010971794
241	0xbc0c6a09	-0.008570203
242	0x38f86af0	0.0001184548
243	0x3b8cdff7	0.0042991596
244	0xbbeffb48	-0.007323656
245	0xbb8f57be	-0.0043744734
246	0x3be9f112	0.0071393335
247	0x3be2b22b	0.006918212
248	0xbbcd467b	-0.0062645054
249	0xbbc0a486	-0.0058789877
250	0xbbbbfd3b	-0.0057369745
251	0xbb308621	-0.0026935416
252	0xbb7eb1bb	-0.003886326
253	0x3ba5df7e	0.0050620427
254	0xbbd3c867	-0.006463099
255	0xbb1281cf	-0.0022355204

action_model._discrete_distribution.branches.0.bias f4 [7]
0	0x00000000	0.0
1	0x00000000	0.0
2	0x00000000	0.0
3	0x00000000	0.0
4	0x00000000	0.0
5	0x00000000	0.0
6	0x00000000	0.0

onnx::Div_70 f4 [36]
0	0x4165d688	14.364876
1	0x3e6b3b6d	0.22971888
2	0x417bc27e	15.734983
3	0x3c7cfdcb	0.015441368
4	0x3e873352	0.26406342
5	0x3c7cfdcb	0.015441368
6	0x4180d704	16.104988
7	0x3c7f1030	0.015567824
8	0x41a72979	20.89525
9	0x3c7cfdcb	0.015441368
10	0x3e8f713b	0.28016075
11	0x3c7cfdcb	0.015441368
12	0x3cd8bb3d	0.02645647
13	0x3cd6d9c6	0.02622689
14	0x3c7cfdcb	0.015441368
15	0x3c7cfdcb	0.015441368
16	0x3c7cfdcb	0.015441368
17	0x3cb2e0c6	0.021835696
18	0x3c7cfdcb	0.015441368
19	0x3c7cfdcb	0.015441368
20	0x3c7cfdcb	0.015441368
21	0x3c7cfdcb	0.015441368
22	0x3f12c913	0.57338065
23	0x3c7cff00	0.015441656
24	0x3f2fbf00	0.6865082
25	0x3e93cec8	0.288687
26	0x3e92b978	0.28657126
27	0x3e92bf78	0.28661704
28	0x3e8604d9	0.26175573
29	0x3e860322	0.26174265
30	0x3c7cfdcb	0.015441368
31	0x3f2fcb16	0.6866926
32	0x3e92983e	0.28631777
33	0x3f3386d9	0.70127636
34	0x3e6b3c97	0.22972332
35	0x4129b5d9	10.606896
