results/test9/BoxingAgent.onnx (onnx, 409187 bytes, 13 tensors)

network_body.observation_encoder.processors.0.normalizer.running_mean f4 [84]
000000 00 00 00 00 45 fe 31 3f 45 17 7e 3e fc 99 3f 3f
       0.0 0.6952861 0.24813564 0.74844337
000010 00 00 00 00 35 a2 30 3f 60 c7 81 3e ba c7 3f 3f
       0.0 0.6899751 0.25347424 0.74914134
000020 00 00 00 00 b3 44 33 3f 04 29 7b 3e da 80 3f 3f
       0.0 0.700267 0.24527365 0.74805987
000030 00 00 00 00 02 07 2f 3f 94 08 85 3e c7 00 40 3f
       0.0 0.6837007 0.25983107 0.75001186
000040 00 00 00 00 39 53 34 3f 54 91 78 3e 99 63 3f 3f
       0.0 0.7043949 0.24274188 0.7476135
000050 00 00 00 00 3c df 2d 3f f3 ce 85 3e 42 92 3f 3f
       0.0 0.67918754 0.26134452 0.74832547
000060 00 00 00 00 88 90 34 3f 98 d5 75 3e f0 f1 3e 3f
       0.0 0.7053304 0.24007261 0.7458792
000070 00 00 00 00 f0 0d 2c 3f 67 83 87 3e a4 ef 3e 3f
       0.0 0.67208767 0.2646744 0.7458441
000080 00 00 00 00 64 e3 33 3f 35 49 78 3e 5f c2 3e 3f
       0.0 0.70268846 0.24246676 0.74515337
000090 00 00 00 00 a1 98 2a 3f 72 d6 88 3e 25 44 3e 3f
       0.0 0.66639143 0.2672611 0.7432273
0000a0 00 00 00 00 88 90 34 3f 73 57 76 3e 6c be 3e 3f
       0.0 0.7053304 0.24056797 0.7450931
0000b0 00 00 00 00 b2 84 29 3f 8e 4d 8a 3e fe 9e 3d 3f
       0.0 0.662181 0.27012295 0.7407073
0000c0 00 00 00 00 38 c1 34 3f 5f 62 77 3e de f5 3e 3f
       0.0 0.7060733 0.2415862 0.74593914
0000d0 00 00 00 00 39 c0 29 3f 0b 3f 89 3e 39 e7 3c 3f
       0.0 0.66308933 0.2680591 0.7379032
0000e0 00 00 00 00 f6 d6 35 3f 9e a6 74 3e d1 30 3f 3f
       0.0 0.7103113 0.23891684 0.7468386
0000f0 00 00 00 00 79 47 2a 3f 7b dd 86 3e 47 51 3c 3f
       0.0 0.6651531 0.2634085 0.7356152
000100 00 00 00 00 12 43 35 3f 04 ae 76 3e 69 06 3f 3f
       0.0 0.70805466 0.24089819 0.74619156
000110 00 00 00 00 34 1c 2a 3f 58 30 86 3e 76 c6 3b 3f
       0.0 0.66449285 0.26208758 0.733497
000120 00 00 00 00 0f d5 34 3f e1 16 7a 3e 0e fa 3e 3f
       0.0 0.706376 0.2442279 0.74600303
000130 00 00 00 00 2c 13 2a 3f e3 aa 85 3e de b6 3b 3f
       0.0 0.66435504 0.2610694 0.7332591
000140 00 00 00 00 04 55 34 3f 29 d6 7b 3e 1d b0 3e 3f
       0.0 0.70442224 0.24593414 0.7448748

network_body.observation_encoder.processors.2.normalizer.running_mean f4 [37]
000000 09 df bb 3f 64 81 6d 41 18 fa 5f c1 4b 40 84 32
       1.467744 14.8440895 -13.998558 1.539606e-08
000010 13 e4 fa 3e 99 9b 48 b2 21 66 a6 bf 68 59 30 39
       0.49002132 -1.1676911e-08 -1.2999917 0.00016817974
000020 c9 f1 42 bf dc 0b 06 33 db 51 01 3f 4c f9 2d 31
       -0.76150185 3.1210092e-08 0.50515527 2.5316522e-09
000030 44 b1 76 3f 8a 2a 71 3f 7a 59 96 3e 84 00 72 3e
       0.96364236 0.94205534 0.2936514 0.23633009
000040 43 23 bc 3e 76 d1 34 3f 51 58 58 3e 1b b2 8f 3b
       0.36745653 0.7063211 0.2112744 0.0043852455
000050 00 00 00 00 1a 02 21 3c b3 98 7c bd 66 54 94 37
       0.0 0.009827161 -0.061669063 1.7682276e-05
000060 03 a1 31 bd b1 fd fa 3e 0d 95 f8 3e ac b3 03 3f
       -0.043366443 0.49021676 0.48551217 0.5144603
000070 a3 db 07 3f 1f 45 f0 3e 95 e4 65 3d f6 a3 56 3e
       0.53069514 0.46927735 0.056126196 0.20960984
000080 90 90 0d 3f 90 67 56 bc 64 81 6d 41 8b e9 5a 41
       0.5529871 -0.013086215 14.8440895 13.682017
000090 2e ea 00 3f
       0.5035733

network_body._body_endoder.seq_layers.0.weight f4 [256, 121]
000000 45 95 5b 3e 94 9f 00 3d cb 6e 55 3c f4 ef 01 3e
       0.2144366 0.031402186 0.013026903 0.12689191
000010 95 b2 69 bc a3 44 d1 bd d5 d9 9c 3c a1 9a 31 3d
       -0.014263769 -0.102181695 0.01914684 0.043360356
000020 ba 8c 8e bd e0 60 49 3e 8f 6a 73 bb 1f a0 c5 bc
       -0.06960435 0.19665861 -0.0037142371 -0.024124203
000030 ad 75 c3 3d 7d 82 ca bd d0 56 1c 3c cf ad 19 bd
       0.09543929 -0.0988817 0.009542182 -0.037519272
000040 e3 2e ba 3d 63 b9 af bd f1 af 0e bd 5c 0a ab bc
       0.09090974 -0.085802816 -0.03483576 -0.020878963
000050 3b b6 52 bb ba d9 0c bd d6 e0 7c 3d b5 12 06 3d
       -0.0032152075 -0.034387328 0.061737858 0.032732684
000060 8d 3f a5 3d e7 20 90 bd 8d ea 9f bd 74 11 21 3d
       0.08068762 -0.070375256 -0.07808409 0.039323285
000070 f2 07 45 be 0b 53 fa ba 21 4e 0f 3e 47 04 34 3d
       -0.19241312 -0.0019098235 0.13994648 0.04394939
000080 88 87 0d bd f7 9b 12 3d 87 3a 8b bd e3 91 f8 bd
       -0.03455308 0.03579327 -0.067982726 -0.12137201
000090 7f 6e f2 bd d4 c4 a5 bd 5d e8 3e 3e 98 67 a9 bc
       -0.11837482 -0.080941826 0.18643327 -0.02067928
0000a0 ce 86 2e 3c 73 8f 4b 3c c5 5c 9e 3c 45 89 e1 3c
       0.010652257 0.012424338 0.019331345 0.027531276
0000b0 9e 1e 68 bd 1f ef 1a be 40 9c 66 bc 4f e7 f5 bd
       -0.056669824 -0.1513028 -0.014075339 -0.12007009
0000c0 89 11 b7 3d 40 da c7 3c 9e c4 aa bc 4d 62 5c 3d
       0.089388914 0.024396062 -0.020845708 0.053804684
0000d0 a5 6a 13 3e b5 00 22 bc 69 12 39 bd 73 f5 95 bd
       0.1439615 -0.009887864 -0.045183573 -0.07322206
0000e0 28 9f 2e 3d 2c ff 07 be 97 7d 09 3c 36 9b 21 bc
       0.042632252 -0.13280934 0.008391759 -0.009863665
0000f0 ec f0 bb 3d 7a 05 f5 bc ed a4 48 3d 98 f5 83 3d
       0.091768116 -0.029909838 0.04898541 0.06443328
000100 cb 8a 3c bd e9 80 4e bc cd ee 98 bd f0 98 0c be
       -0.0460308 -0.012603977 -0.07467423 -0.13730216
000110 a8 28 f9 bc 18 03 43 bc c0 56 0f be d0 84 3f bd
       -0.030414894 -0.011902593 -0.13997936 -0.04675752
000120 e3 9b f4 bc be fc 99 3d f3 ef b7 bd 2c dc 98 bd
       -0.029859489 0.0751891 -0.089813136 -0.074638695
000130 58 bb bc 3d 90 89 65 3c 47 c9 ee 3d 3e 70 81 be
       0.092154205 0.014009848 0.11659484 -0.25280946
000140 92 75 2e 3d 26 57 54 bd f4 ea 84 bd 13 29 f1 3d
       0.042592593 -0.051840924 -0.06490126 0.117754124
000150 29 9d 00 3d 37 7d 62 bd 36 8a 4d be 6b c4 9b 39
       0.03139988 -0.055295195 -0.20072255 0.00029710247
000160 bc 8f 06 3e e6 3f 36 3e ce 1b a2 3c e1 72 d4 3d
       0.13140768 0.17797813 0.019788649 0.10373474
000170 4e b2 09 3a 9f 86 00 3e a3 21 e0 3d 7c 30 c9 3c
       0.0005252705 0.12551354 0.10943916 0.024559252
000180 9b 86 c7 3d 7b ee 88 bd eb e9 87 3d 7e 15 c8 3c
       0.09742471 -0.066861115 0.06636413 0.02442431
000190 8a 57 ac 3d 51 4e 93 bd 7f 54 82 bd fa ff 01 bd
       0.08415134 -0.07192672 -0.063637726 -0.03173826
0001a0 b5 1e 6f 3d b7 90 9a 3c 75 93 57 3d 38 38 2a 3d
       0.058378894 0.018867834 0.05263086 0.04155752
0001b0 88 71 62 3c d4 bf ec 3d 82 ae d3 bb a4 da 8d bd
       0.013821013 0.11560026 -0.006460012 -0.06926468
0001c0 3c a0 91 bd 75 26 9d bd 4d d4 e8 bd 0b 77 72 3d
       -0.071106404 -0.07673351 -0.11368618 0.05919556
0001d0 86 ac 02 bd ab 3a 1d bd 5d cc 95 3d 14 ef f5 bc
       -0.031902812 -0.03838603 0.0731437 -0.030021228
0001e0 ac 98 10 3e ae c1 2a 3d b2 4b 26 3e 6e e5 7e 3c
       0.1412074 0.041688614 0.16239813 0.01555763
0001f0 de f1 98 3d 5d d1 b5 bd 85 36 8c 3d 91 8a 8d bc
       0.074680075 -0.088778235 0.06846336 -0.017277988
000200 15 f0 69 3e 43 46 da bd f0 80 92 bd 67 ea 7b bd
       0.2284549 -0.106579326 -0.07153499 -0.06150284
000210 7e bd 51 bc 8c 3e 55 bd 63 ff cb 3d c8 14 25 3d
       -0.012801526 -0.052061602 0.099608205 0.04030302
000220 9d 4e 98 3c a3 33 d4 bc ac 90 96 bd 2c 62 16 be
       0.018592173 -0.025903529 -0.07351813 -0.14685887
000230 4a b6 74 be 1b 41 94 bd 92 34 eb 3c b8 7c ad bc
       -0.23897663 -0.072389804 0.02871159 -0.021177635
000240 38 e4 bd bc 0f 9c df bd a2 43 ef 3d 50 6d 1a bc
       -0.023180112 -0.10918438 0.11682822 -0.009425476
000250 46 3e 8c bc 49 f7 0b be c1 ee 39 3d d0 dd d4 bd
       -0.017119538 -0.1366855 0.04539371 -0.1039387
000260 df b7 55 bd a1 fa 2a bd a1 76 95 bb 18 c1 67 bd
       -0.052177306 -0.041742925 -0.004561261 -0.056580633
000270 80 69 59 bd ae 32 e7 3c cf a9 5a bd 77 c7 bd b8
       -0.05307913 0.028222408 -0.0533846 -9.0493755e-05
000280 44 96 12 bd 98 40 5d be 8e 6f 9d 3d df 91 b6 3d
       -0.035787836 -0.21606672 0.07687293 0.089145415
000290 78 56 b8 bd 0a 19 00 3e ee 4b a9 bc 27 8a 02 bd
       -0.090008676 0.12509552 -0.020666089 -0.031870034
0002a0 1f cb cc bd 9f 78 c4 3c 45 38 0d be 66 11 d9 bd
       -0.0999968 0.023983298 -0.13790996 -0.105990216
0002b0 9f 32 eb 3d 1f 1e 6c be 86 3f 18 3e 5b 20 da bd
       0.114842646 -0.23058365 0.14867982 -0.106507026
0002c0 4d 2d 93 bd cb 3a 35 bd a0 47 81 3d 89 f9 dd bd
       -0.07186375 -0.044245522 0.063124895 -0.10838611
0002d0 99 79 11 bd f5 a0 06 be 01 c6 27 3c 9d 4c 44 be
       -0.035516355 -0.13147338 0.010240079 -0.1916985
0002e0 ae 5f 14 bd 92 4a 5f bc 53 e4 8e 3d e3 d2 8b 3c
       -0.03622406 -0.013628619 0.06977143 0.017068332
0002f0 87 93 aa bc 7c f2 d7 bd de b7 8a bd 4f 9e 87 3d
       -0.0208223 -0.10544297 -0.06773351 0.06621992
000300 15 51 88 3b 4a b1 16 be 8d 03 ae bd 10 d0 c0 3d
       0.0041600564 -0.14716068 -0.08496771 0.09414685
000310 74 2e fe 3d 4f 95 d3 bd f2 61 44 3c 9f f4 0a 3e
       0.12411204 -0.10331213 0.011986243 0.13569878
000320 8c db 2e bd 8b 11 2a 3e fc d1 f9 3d 35 ec 18 3d
       -0.042689845 0.16608255 0.121982545 0.03733464
000330 a9 2a 06 be 8a 0c 23 3e 7b 81 d3 3d 48 e5 ad 3d
       -0.13102211 0.15922752 0.10327431 0.084909976
000340 53 1a e9 bd 35 24 23 be 32 5d c4 3b 02 bd 49 bb
       -0.11381974 -0.1593178 0.005992555 -0.0030782823
000350 69 29 18 bc 19 43 b7 bd 12 16 4a 3d 26 58 de bd
       -0.009287217 -0.08948345 0.049337454 -0.10856657
000360 da 58 c0 3d 81 03 d0 bd ea ed 08 be 51 01 5e 3c
       0.09391947 -0.10156918 -0.13372007 0.013550119
000370 1f 05 f5 3d 15 24 9b bc 13 c1 dd 3d 09 6c 14 3c
       0.119638674 -0.018938104 0.108278416 0.009058961
000380 ab 02 12 3e 4a 3b 09 be c9 f9 53 3e 66 b1 8a bc
       0.1425883 -0.13401523 0.20700754 -0.016930293
000390 a0 8e 6d bd 5b ff ae 3d 33 29 91 bd 6c 75 e7 3d
       -0.057997346 0.08544799 -0.07087936 0.11301693
0003a0 79 f9 8a 3d 02 20 67 3d 21 6d 3e bd ef 90 00 be
       0.067858644 0.05642701 -0.046490792 -0.12555288
0003b0 1f 92 35 bd 14 4b de bd d0 8d db 3d 15 15 ea 3d
       -0.044328805 -0.10854164 0.10720408 0.11429802
0003c0 fd b9 49 be 6c 76 43 3e 20 e8 ba bd 60 14 a3 3d
       -0.19699855 0.19088143 -0.091263056 0.079628706
0003d0 a2 47 05 3d 11 bc ec 3d 43 0c bb bd d2 47 0a 3e
       0.032539017 0.11559308 -0.09133198 0.1350396
0003e0 bb f0 40 3d 4b 1b 4c 3d 53 85 a9 bc 91 3b 36 3d
       0.04710458 0.049830716 -0.020693457 0.0444904
0003f0 0b dd 47 3e 0f d2 6e bd f8 26 5e bd ce 78 fe 3b
       0.19517915 -0.058305796 -0.054236382 0.007765866

network_body._body_endoder.seq_layers.0.bias f4 [256]
000000 8e 0b c7 39 3e 4e 09 3c 9a 4c 88 b9 6d dd 24 3c
       0.00037964847 0.008380471 -0.00025997014 0.010062558
000010 e2 9e bf 3a d0 cd 51 3b 5e dd b3 3b 48 b2 a1 3b
       0.0014619494 0.0032013543 0.0054890355 0.004934583
000020 22 6e 8f 3b f5 70 be 3b e7 a3 a0 3b 04 35 0b 3b
       0.0043771425 0.0058118054 0.004902351 0.0021241317
000030 71 47 d3 39 82 c0 0c bb e1 39 bf bb 28 4c 99 3b
       0.00040298284 -0.0021477048 -0.005835757 0.004678268
000040 18 22 bc bb 02 12 8f ba 8c b5 2c 3b 44 c7 82 3a
       -0.005741369 -0.0010915401 0.0026353328 0.0009977599
000050 e3 99 c3 3b f7 ec 42 bb 2e 67 50 bb e1 2c 94 bb
       0.0059692725 -0.0029743293 -0.003179978 -0.0045219515
000060 f3 b7 4f bb 09 b5 0a 3c 23 55 18 3b 80 f7 cb 3a
       -0.0031695336 0.008466014 0.0023244105 0.0015561432
000070 ce d4 51 ba d1 6b d5 3b 6f 43 68 bb c2 26 4d bb
       -0.00080044277 0.006513097 -0.0035440584 -0.003130362
000080 07 c8 36 3a a6 af c6 bb d7 5c 54 bb b4 4c 0f ba
       0.00069725554 -0.0060634194 -0.003240397 -0.0005466447
000090 ef 72 c8 ba 56 99 92 3b b1 8f d6 3b f1 70 85 3b
       -0.0015293042 0.0044738455 0.006547891 0.0040723016
0000a0 36 73 a3 3b 9e 62 f1 3a c1 69 f2 bb 5e a1 4c 3c
       0.0049880994 0.0018416231 -0.0073978608 0.012489645
0000b0 87 02 87 3c 34 aa 83 3b 22 dc a8 3b 82 5f 3b bb
       0.016480697 0.0040180925 0.005153195 -0.0028590863
0000c0 3b 3f 46 3c 0c 43 64 3b eb 06 cf 3a 12 1d ec 3b
       0.012100036 0.0034830002 0.0015794908 0.007205614
0000d0 72 ea ad ba 17 d4 62 3b 55 85 0d 3c 4a 65 91 bb
       -0.0013268723 0.0034611279 0.008637746 -0.0044371234
0000e0 78 d1 11 3c 66 8f a6 3b 02 26 4c bb 5a 2a 81 3b
       0.008900039 0.0050830124 -0.0031150584 0.0039418163
0000f0 52 47 6d ba 1b 5e 03 3b 80 08 a6 bb 2d 74 2a 3b
       -0.000905146 0.0020045105 -0.0050669312 0.0026009188
000100 2f 6f 03 ba d3 78 24 3c 54 88 87 3b 69 9a 97 38
       -0.0005013821 0.010038572 0.0041361246 7.229002e-05
000110 8b b2 09 3b a5 24 e8 3b 21 b7 20 3b 8e cd 88 bb
       0.002101096 0.0070844465 0.0024523216 -0.0041748947
000120 6c f2 9e 3b 49 69 a0 ba 32 c2 8a ba 7c cf 40 3b
       0.0048506763 -0.0012238409 -0.0010586439 0.0029420545
000130 7a 8d 64 bb 40 3a 55 bb f6 10 e1 39 5f 93 bc 3a
       -0.0034874366 -0.003253594 0.0004292798 0.0014387182
000140 3a 08 17 3b 81 c0 ff bb cd 6d 64 3b 5b 43 d4 3b
       0.0023045675 -0.0078049307 0.0034855485 0.006477756
000150 02 46 d4 3b cc 78 da 3b 7f 8b 19 3c eb 67 2f bc
       0.006478072 0.006667232 0.009371637 -0.010705928
000160 8a bc 45 bb fc c0 c2 3b c0 78 d4 bb 41 4a 3c 3c
       -0.0030172192 0.0059434157 -0.006484121 0.011492313
000170 a4 52 70 39 bb a0 19 3c 3d 84 19 3b cb 1c cc 3b
       0.0002291897 0.0093767 0.0023424767 0.0062290183
000180 9e c4 f4 bb 85 34 0b 3c 42 94 05 3b 1c 20 fb 3b
       -0.0074697277 0.008496408 0.0020382558 0.00766374
000190 7d b6 38 3c b9 7c 9e 3b 7d a5 3c 3c 93 53 7c 3a
       0.011273977 0.0048366454 0.011514065 0.00096254906
0001a0 1d ca 2a 3c 27 a7 11 3c 42 d9 2f 3b 58 ff 99 3b
       0.010424164 0.00888995 0.0026832377 0.004699629
0001b0 e6 3f 5b b8 6f ce 0e 3b 58 3f 28 3b b8 04 3f bb
       -5.227318e-05 0.0021790524 0.0025672521 -0.00291471
0001c0 cc 3f c7 3b be 78 43 bb 96 6b 00 3b a7 2c 73 bb
       0.006080603 -0.0029826607 0.0019595376 -0.0037105472
0001d0 56 30 30 bb c9 e2 99 3b 35 ce 5c 3a bc fd 90 bb
       -0.002688428 0.0046962244 0.0008423061 -0.0044247787
0001e0 10 b6 09 bb 56 eb b0 3b 58 67 27 3c 86 e3 71 3b
       -0.0021013059 0.005399148 0.01021751 0.0036909296
0001f0 a2 cf 9d 3a 3d 97 86 bb 7d 5a 06 3c 3e 50 d7 bb
       0.0012040029 -0.0041073845 0.008200285 -0.006570845
000200 e2 a4 d8 38 c3 f4 f6 3a f4 2e bb bb c1 16 e7 3b
       0.000103303944 0.0018841255 -0.0057123844 0.007052273
000210 de a8 02 39 cb 18 8d bb 22 8c bb 3b c7 d8 b1 3b
       0.00012460674 -0.004305934 0.0057234922 0.005427453
000220 db 0e 96 3b d7 ea 53 bc 68 1e e5 3b 66 6f c4 3a
       0.0045794076 -0.012934408 0.00699215 0.0014986813
000230 63 6a f4 3b 1f 29 a5 3b 1d 17 98 3b 84 ff 20 3c
       0.0074589713 0.0050403024 0.004641427 0.009826545
000240 28 fe 75 3c 06 a3 43 3c ac 9a 44 3b f7 75 c0 bb
       0.015014209 0.011940723 0.0029999418 -0.0058734375
000250 8a 78 fd b9 75 4b 49 b8 8a 8a 53 3b d2 5a 9b 39
       -0.0004834573 -4.799241e-05 0.003227862 0.0002963157
000260 ff 8e 29 bb fb 43 60 3c ec 82 97 bb fa b4 23 bb
       -0.0025872586 0.013688083 -0.0046237614 -0.0024979697
000270 46 2e 12 3c cc b9 ce ba 1d ed ab 3b 97 da bb bb
       0.008922165 -0.0015771925 0.005246772 -0.005732845
000280 c1 28 1e 3c 8b eb 42 3c 36 f5 57 3a 38 8d c1 3a
       0.009653271 0.011896978 0.00082381384 0.0014766818
000290 4f 73 ff b9 31 91 ad b9 2a 6e 3f 3b e2 df 16 bc
       -0.00048723302 -0.00033105307 0.002920995 -0.009208651
0002a0 8b 81 4c bc aa 60 43 3c 82 4f 2d 3b 4f cf 56 3b
       -0.012482057 0.011924902 0.0026445095 0.0032777374
0002b0 9e bf ab 39 7a bd 3e 3b 64 8e 67 bb c3 0c 28 3a
       0.00032758428 0.0029104636 -0.0035332674 0.0006410593
0002c0 3f d4 e6 3b 3f 35 01 3c 17 3a cd 3b 60 58 dd 3a
       0.0070443447 0.00788623 0.0062630284 0.00168873
0002d0 58 fc a3 3b 66 8b 0c 3c fe b7 3d 3b e5 d1 bf 3a
       0.005004447 0.008578157 0.002894878 0.0014634697
0002e0 d6 27 7b bb 26 52 00 b9 18 3b 4b 3c 92 5e a2 3b
       -0.0038323305 -0.00012237634 0.012404226 0.0049551213
0002f0 cc 7c d7 bb f5 65 ef 3b 99 fc 70 3b 9c ff de 3a
       -0.0065761562 0.0073058554 0.0036771654 0.0017013433
000300 63 3d bc 3b 58 e9 93 b9 e3 e0 23 3c 60 7b 04 39
       0.0057446226 -0.0002821188 0.010002348 0.00012634462
000310 fd 57 4e 3a cf b1 96 3b f9 16 41 3a c3 dd ea bb
       0.00078713876 0.004598833 0.0007365789 -0.0071675493
000320 fd a9 89 b9 b0 1a 96 3a aa 4d b4 3b 61 e5 ad 3b
       -0.00026257327 0.0011452045 0.0055024223 0.005306885
000330 38 44 12 3b d9 3a a2 bb 86 19 de 3b bd 1a f3 ba
       0.0022318494 -0.004950863 0.006777945 -0.0018547397
000340 72 a7 2c bb 3e 58 21 3c 39 dd 44 bb f7 83 bb 3b
       -0.0026344922 0.009847699 -0.0030039086 0.0057225185
000350 03 1f a8 bb 4d bf a5 3b 73 7c 0b 3c b9 01 e4 ba
       -0.00513065 0.005058205 0.008513558 -0.0017395533
000360 fc cb 6c ba 1c 39 fd 3b 26 d2 d1 3b 89 07 9e 3b
       -0.00090330816 0.0077277552 0.0064032255 0.0048226756
000370 9b 34 94 bb 8e 10 34 bb bf 5a 6b 3b 1b b2 8d bb
       -0.0045228726 -0.0027475688 0.0035912243 -0.0043242103
000380 09 66 0a 3b 0e 00 17 ba 5f b0 ac bb 35 fd de ba
       0.0021117947 -0.0005760201 -0.0052700485 -0.0017012717
000390 8c ac 4a 3c ab 15 bf bb eb c3 89 bb 12 4e ba 39
       0.01237024 -0.0058314404 -0.0042042634 0.00035534851
0003a0 e8 34 a4 3a 0b 01 b4 ba e7 a9 58 bb 65 c3 d0 3a
       0.0012527974 -0.0013733221 -0.0033060254 0.0015927373
0003b0 10 bb 09 3c 03 1a 2b 3b cb 28 b4 3a cb bf ac bb
       0.008406416 0.0026108033 0.0013745067 -0.005271887
0003c0 b8 08 7d 3b 31 b8 3e bb b6 a1 d4 3b 6b 2e aa 3b
       0.0038609933 -0.0029101486 0.006489004 0.0051935217
0003d0 85 bb 14 3b a9 91 1e ba 41 35 18 3c a2 e8 0f bb
       0.0022694778 -0.0006048927 0.0092900405 -0.0021958728
0003e0 96 1f c7 3b 0b 7f 70 3b c3 5e f2 3a 0e 19 68 3b
       0.0060767634 0.0036696817 0.0018491376 0.0035415324
0003f0 25 83 38 3b e0 39 7e 3b 66 e8 73 3a be 9e ea 39
       0.002815434 0.003879182 0.00093043444 0.0004475023

network_body._body_endoder.seq_layers.2.weight f4 [256, 256]
000000 02 d2 7a 3c 3e 31 ce bc 7f e4 04 b9 46 a0 01 3d
       0.015308859 -0.025169965 -0.00012673622 0.03164699
000010 43 85 c5 3c 97 f6 ec 3c d2 53 b2 bc 60 6e 73 bd
       0.024111396 0.028926177 -0.021768484 -0.059431434
000020 69 3f ec bd 74 3b fb 3a 0a d3 46 3d 0d 66 52 bd
       -0.11535532 0.0019167499 0.048541106 -0.051366854
000030 10 7e cf bd d2 57 95 3c 16 f6 a6 3c 18 32 a6 bd
       -0.101314664 0.018230353 0.020381015 -0.081150234
000040 bc 0a 91 bc 4e ce 17 3d e1 b2 16 bd 3a f8 d5 3b
       -0.017705314 0.03706198 -0.036791686 0.006529835
000050 c1 a1 76 3d 30 64 a1 bd bf 84 2e bc 60 37 39 3d
       0.060212854 -0.078804374 -0.010651766 0.045218825
000060 25 9d 6e bd 9d 91 b0 bd 2f 19 60 3d 5d 62 de 3c
       -0.058255333 -0.086215235 0.054711517 0.027146513
000070 f7 05 b2 bd 97 bd e8 bd 01 14 9d bb 79 15 0b 3c
       -0.08692544 -0.113642864 -0.0047936444 0.008489006
000080 82 b2 69 bc 3b d8 ee bd f4 90 72 3c 88 c9 fb bb
       -0.014263751 -0.116623364 0.014805067 -0.0076839365
000090 e0 12 6a bc 96 fb 96 bc 51 67 1a 3d 8c 1e df bd
       -0.014286727 -0.018430512 0.037696186 -0.10894498
0000a0 49 2a 62 3b eb a4 5f bd 47 b5 21 3e 1a 0b 12 bc
       0.0034510067 -0.054600637 0.15791808 -0.00891378
0000b0 5f 8b e9 bd 99 cd 1e bd 11 1d 2e 3c 31 65 15 3d
       -0.11403536 -0.038770292 0.010627047 0.036473457
0000c0 af db 8f bb 9f 6f e8 3c 96 eb 0c bd f1 51 c9 3d
       -0.004390202 0.028373538 -0.03440436 0.09830082
0000d0 20 4f b7 bd 89 6f 67 3d 2b 3c fb 3c ea 72 3b bc
       -0.08950639 0.056502853 0.030668339 -0.011440972
0000e0 56 77 83 3c 64 e7 cd bd 64 61 01 3d a3 66 b1 bd
       0.016048115 -0.100539 0.03158702 -0.086621545
0000f0 23 36 a6 3d 12 3d fa bd 27 26 5f 3d 52 44 c0 3c
       0.081157945 -0.122186795 0.054479744 0.023470078
000100 81 eb 4e bc 89 33 81 3d f0 01 d5 bd 18 31 a5 3b
       -0.012629391 0.06308658 -0.1040076 0.005041253
000110 09 87 08 3e b8 68 86 bd 50 52 19 bd da 1d 99 bd
       0.13332762 -0.06562942 -0.037432015 -0.07476397
000120 3e 89 bf bc ca bb 29 3d e8 d6 46 bc af 22 3c bd
       -0.023380872 0.041438855 -0.012136199 -0.045931514
000130 58 d7 66 3d 80 a4 1e 3e c3 d9 e5 bc d6 6c 99 3c
       0.05635771 0.1549244 -0.028057938 0.018728655
000140 9b 90 47 3c 8c 9d f9 3c d0 20 be bc 45 54 74 bb
       0.012180473 0.030470632 -0.023209006 -0.0037281674
000150 22 95 a7 bd ee 5e 98 bc eb df 86 ba 80 20 07 bd
       -0.08182742 -0.018599954 -0.0010290121 -0.03298998
000160 5e 71 42 3d 1f c4 85 bd ac 1b 6f bd e8 ff b3 3c
       0.047471397 -0.06531548 -0.058376 0.021972612
000170 26 50 2a be 40 a4 70 3d f5 3a e2 3b 5a 30 fe bb
       -0.16632137 0.05875039 0.006904001 -0.007757229
000180 b4 4d b3 bd f9 e0 18 bd f1 dd 10 3e 88 f7 00 be
       -0.08755055 -0.037323926 0.14147164 -0.12594426
000190 90 31 a0 bd ba 10 66 3d 49 fe 4c bd 3e 65 e5 3c
       -0.07821953 0.056168295 -0.050047193 0.028002378
0001a0 42 20 d8 bc d6 00 9f 3b 61 97 3f bd e4 1f 32 bb
       -0.02638257 0.0048523946 -0.046775226 -0.0027179653
0001b0 53 3e 06 3d c7 e8 ae bd 0d 30 b8 bd 42 55 c4 3b
       0.03277428 -0.085404925 -0.0899354 0.005991609
0001c0 7a 13 62 3c 49 af e0 ba da 56 da 3d 49 84 05 be
       0.013798589 -0.0017142083 0.10661097 -0.13038744
0001d0 5e 39 6d 3d d6 dc 56 3d 9e 10 f0 bc 2a b7 15 be
       0.057916038 0.0524567 -0.029304799 -0.14620653
0001e0 96 8b 5b 3c 66 1f 6e 3c dd 96 1c bd ca 0b 83 3c
       0.013399979 0.014533853 -0.038229812 0.015996832
0001f0 b9 15 a2 bc bb ec 29 bc d0 6a c1 3d 9a c1 29 bd
       -0.019785749 -0.010371382 0.09444201 -0.0414444
000200 32 95 9f 3c e3 a4 9c bd a2 a0 4b 3d c7 5f 31 bd
       0.019480322 -0.07648637 0.04971374 -0.04330423
000210 30 69 e9 bd c8 87 dc 3b ff 2a 72 3d e4 3c 3a 3d
       -0.11397016 0.0067300536 0.059123036 0.045468226
000220 9c db 03 bd db 79 0b 3d 53 e2 41 3c e3 e3 2f bd
       -0.032191858 0.034051757 0.011833745 -0.04294194
000230 dc cd 1a 3d 10 71 92 bd 9c f0 ed 3c 1e 60 eb 3d
       0.03779398 -0.07150471 0.029045396 0.11492942
000240 a1 a7 be bd ba 54 b3 3c b4 82 5c bd a9 ea 20 be
       -0.093093164 0.021890987 -0.053835586 -0.15714516
000250 f5 6a 08 3d 62 0b 49 3d a0 70 ba bc 7f 05 97 3d
       0.033305127 0.04908312 -0.022758782 0.07374095
000260 96 27 c0 bd 8c 74 2f bd 0f a8 b0 bd 3e 12 e4 bd
       -0.093825504 -0.042835757 -0.08625805 -0.11136292
000270 a6 15 53 3c f2 a1 8f 3c 3f f7 3d 3d f5 c5 14 3e
       0.012883579 0.017533276 0.04637837 0.1452864
000280 43 aa 44 3d bd e2 8f bd 6c eb 9c bd 5d 48 e1 3d
       0.048013937 -0.07025669 -0.07662091 0.1100013
000290 0b 95 e4 bc bf 47 eb bc fb 7b c0 bc ca cc 99 bd
       -0.0279031 -0.028720735 -0.023496618 -0.075097635
0002a0 85 94 93 3d be a8 b8 3d 73 da c1 3d 77 7e dc 3b
       0.07206062 0.0901656 0.09465494 0.006728943
0002b0 00 d5 01 3d 23 9a 70 bb 6f fb a4 bd 75 05 74 3c
       0.031697273 -0.0036712966 -0.0805577 0.014893879
0002c0 23 af 93 3d 7b 9b 9c ba c6 4f c4 3d cd 3a 63 3b
       0.07211139 -0.0011948192 0.09585528 0.00346725
0002d0 cd 67 4d 3c 27 90 88 3a c0 a9 7e bd 38 71 00 bd
       0.012536955 0.0010418937 -0.062173605 -0.031357974
0002e0 af bf 99 bd 94 f0 05 bd b8 89 df bc ac 06 1d 3d
       -0.07507264 -0.032700136 -0.02728735 0.03833644
0002f0 71 17 24 3d f7 c8 7c bd 84 f8 d4 bc a1 8f 9b bd
       0.040061418 -0.061715093 -0.025997408 -0.075957544
000300 08 24 b1 bd ea b7 da 3d 73 b8 84 3d af 9d e2 bc
       -0.086494505 0.1067961 0.064804934 -0.02766308
000310 99 1f 4d bd 26 a4 c1 bd a4 06 04 3e b6 b0 00 bd
       -0.050078962 -0.09455137 0.12893158 -0.031418525
000320 57 4a 4e bd f8 1e 7b 3d 93 f8 b1 3d 7d 20 a9 bd
       -0.050363865 0.06130883 0.0868999 -0.0825815
000330 81 63 0a bd 4e e4 81 3c e9 24 df 3b 7d 44 6e bd
       -0.0337863 0.015855934 0.00680982 -0.058170784
000340 18 8c f2 3c 08 79 35 3d 29 60 a6 bb f7 f2 74 bd
       0.029607818 0.044304878 -0.005077381 -0.05980202
000350 ad 34 55 3d 61 2e be 3b e2 f9 28 3d a4 fc 0a 3d
       0.05205219 0.0058038686 0.04125393 0.033932343
000360 7b 6c a4 3d e2 53 25 3d cc d2 e1 3c 96 13 41 bd
       0.080285035 0.0403632 0.027566336 -0.04713782
000370 12 fd 81 3d 2c 42 1f 3d aa ce 05 3d 43 7d eb bd
       0.063470975 0.038881466 0.032667793 -0.11498501
000380 e4 bb e8 bd 5a cb 93 3b f2 84 96 3d 73 4b 03 3c
       -0.11363962 0.0045103254 0.07349576 0.008013594
000390 cd d6 af 3c 79 06 67 bd c2 03 47 3d ae ad 11 be
       0.02146473 -0.056402657 0.048587568 -0.1422641
0003a0 1a 74 8d bd 71 00 d4 bc 32 ad 1b 3d 9a 71 ce bc
       -0.0690691 -0.025879117 0.03800697 -0.025200654
0003b0 11 77 4d bd 3c 96 57 bc 11 40 09 be b7 76 0b bd
       -0.05016238 -0.013158377 -0.13403346 -0.034048762
0003c0 a7 b9 fc 3d 0a f4 0d bd 74 2d 6c bc b6 2a 89 bd
       0.12340098 -0.034656562 -0.014415134 -0.066975996
0003d0 40 b2 25 bc 7d f2 5e 3d 16 6e a2 3d 66 8a 10 38
       -0.010113299 0.054430474 0.079311535 3.446117e-05
0003e0 27 df a3 3d db 89 e1 bd da e9 e8 bd c1 f4 8d 3d
       0.08001547 -0.11012622 -0.11372729 0.06931449
0003f0 22 ab 0e 3d 80 c4 8d bb 7e 56 25 bd a9 57 84 bd
       0.034831174 -0.004326403 -0.04036569 -0.06462032

network_body._body_endoder.seq_layers.2.bias f4 [256]
000000 87 07 ef ba b2 a8 b8 3a fa d0 cb 3b df 86 83 bb
       -0.0018236496 0.0014088361 0.0062199803 -0.0040138806
000010 52 e5 0c 3a 08 d1 ad 3a f6 aa d3 3b 16 93 bf 3a
       0.00053747476 0.0013261149 0.006459589 0.0014615979
000020 db d6 c7 3b f3 cc 3a 3c 75 23 c7 3b 49 6b cc 3a
       0.006098611 0.011401403 0.006077225 0.0015595938
000030 bb d3 04 3a c9 28 25 3b 8b 10 02 3b 50 57 d9 bb
       0.00050669507 0.0025201312 0.0019846286 -0.006632723
000040 c9 e4 8b bb 0a 6a af 3b 69 da 1d 3c fc 3a 08 3c
       -0.0042692167 0.005353217 0.009634593 0.008314844
000050 e2 cd 0a 3c 09 09 94 bb fd ae 55 3b 17 60 80 3b
       0.008471938 -0.0045176786 0.0032605522 0.003917705
000060 05 aa ee 3a e5 b5 23 bb c8 ab 74 bc 56 7d 8d 3a
       0.0018208629 -0.0024980244 -0.014933534 0.0010794799
000070 ac a3 5c bb 5b 08 d9 ba 5f 02 86 3c 14 ce d3 bb
       -0.0033666892 -0.0016558276 0.016358553 -0.0064637754
000080 d2 d4 9f 3b df 12 b6 bb 7d e2 e3 ba a0 cf fa ba
       0.004877665 -0.005556449 -0.0017386224 -0.0019135363
000090 7e 67 3a 3b 5f 56 76 ba ce 8a 7e 3a 2d b9 bb ba
       0.0028443034 -0.00093970256 0.00097100146 -0.0014322154
0000a0 fc f1 a6 ba ca db 3f bb b2 17 3e bb 21 be 50 bc
       -0.0012736912 -0.0029275292 -0.0029005823 -0.012740643
0000b0 c6 8b 69 3c 3e 8f 9e bb 33 4f e5 ba 3e 77 31 3c
       0.014254516 -0.004838853 -0.0017494917 0.010831652
0000c0 73 09 8d b9 5c 56 12 3b a3 b8 4d 3b 1a 56 2d bc
       -0.00026900656 0.0022329306 0.003139057 -0.01057961
0000d0 c2 0b d5 39 58 49 0c 3c 13 63 17 bb d2 1b ad 3b
       0.00040635286 0.008562408 -0.0023099824 0.0052828575
0000e0 9e 1c 8c 3a b0 f3 56 bb f5 3a bf 3b ff a0 c4 3b
       0.0010689681 -0.0032799058 0.0058358856 0.0060006375
0000f0 66 40 6f bb a3 25 69 3c cb ac 5a bb 88 ed d9 39
       -0.003650689 0.014230165 -0.0033367153 0.0004156644
000100 d4 5d 87 3b 7a 45 87 3a 86 ce 69 bb 34 0a 03 3c
       0.004131058 0.0010320388 -0.0035676076 0.007998038
000110 85 ce a2 bb e9 1a 0f 39 93 07 95 3b 09 da 35 3b
       -0.0049684667 0.00013647568 0.004548022 0.0027748367
000120 50 60 9d 3b b3 61 03 3c 94 f4 a8 3a d3 82 be 3a
       0.004802741 0.008018899 0.0012890273 0.0014534838
000130 67 b1 ba 3b 40 9b 70 3b e5 75 d9 3b 97 be 54 3b
       0.0056974175 0.003671363 0.0066363686 0.0032462233
000140 36 44 14 ba 15 ed 22 3b 20 ad cd 3b b1 45 14 bc
       -0.0005655916 0.002486055 0.0062767416 -0.009049819
000150 54 be c6 39 61 37 99 ba f5 4f db 3b 64 46 d9 bb
       0.00037907308 -0.0011689478 0.006692881 -0.0066307057
000160 07 20 2a 3c 84 19 33 3c 3e 57 b9 b9 15 9d c5 3a
       0.0103836125 0.010931376 -0.0003535095 0.0015076721
000170 4a e9 b3 39 bd 21 c8 3b a5 8b 8d 3b 0f 22 fa bb
       0.00034315354 0.0061075375 0.0043196254 -0.0076334546
000180 e9 05 85 bb 67 63 12 3b 54 9e 26 bb 8d 9f 93 3b
       -0.0040595424 0.002233708 -0.002542396 0.004505104
000190 24 45 5b ba 6c 0a 15 3b d3 99 25 bb 97 e4 7f 39
       -0.000836449 0.0022741808 -0.0025268688 0.00024403851
0001a0 4b 73 88 3b 76 9f 19 3a ad e8 90 3a a2 65 8a bb
       0.0041641346 0.00058602483 0.0011055671 -0.0042235414
0001b0 ff 96 11 3b fd 0e 35 3b d8 7f 47 3b 87 b4 bc bb
       0.0022215245 0.0027627342 0.003044119 -0.005758825
0001c0 94 cf 79 3b 74 6d 16 3b 5d 19 a5 3b 36 f6 4d 3a
       0.003811811 0.0022953423 0.005038424 0.00078568177
0001d0 1d 83 8a 3c a7 ab f6 bb e0 c4 8c 3b 04 98 ba 3b
       0.016908223 -0.007527787 0.0042959303 0.005694391
0001e0 1b 15 18 ba c4 2a a8 3b 09 23 6a bb f8 fe af 3a
       -0.0005801485 0.005132051 -0.003572645 0.0013427427
0001f0 29 a2 19 3a a7 6f b4 ba 10 9c c8 3a bc a4 04 bc
       0.00058606506 -0.0013766185 0.0015305299 -0.008095916
000200 32 aa 94 ba 94 be 1e 37 18 39 2e ba 97 85 f4 3b
       -0.0011342226 9.461906e-06 -0.0006646081 0.007462214
000210 e0 2d b8 38 0d 4f c8 bb c7 09 94 3b d4 d7 f4 3b
       8.7823486e-05 -0.006112939 0.004517767 0.007472018
000220 da 73 2a bc 82 13 11 3c 04 50 7a 3a bd 45 2c bc
       -0.010403598 0.008854749 0.00095486664 -0.010514674
000230 44 c0 9a 3b 26 fd a2 3b c5 10 32 3b a7 b8 9a ba
       0.004722627 0.0049740253 0.002717064 -0.0011804298
000240 23 8f da 3a fd b7 b7 3a 57 29 08 bb 07 ff 47 3b
       0.0016674738 0.0014016625 -0.0020776594 0.0030516998
000250 d5 4c b7 3b 81 51 2d 3c 46 ad 58 3a ae 9b 08 3a
       0.005593876 0.010578514 0.0008265566 0.00052111864
000260 5d ba 66 3b 63 b2 58 ba bd ef 6e 3b 40 c7 cb bb
       0.0035206296 -0.0008266328 0.0036458813 -0.006218821
000270 f2 22 52 bb 6b 50 99 bb 2e 3c af 3a 35 ae 5d bb
       -0.0032064286 -0.004678776 0.0013369375 -0.003382576
000280 6b 2c dd bb f6 87 04 bc e3 4e c5 3b ca 6c 57 bb
       -0.00674968 -0.008089056 0.006021367 -0.003287124
000290 80 56 1b ba d3 b6 0c 3c c4 40 0d 3b f8 b6 9a 3b
       -0.000592567 0.008588511 0.0021553496 0.0047215186
0002a0 00 0b 0a 3c c4 35 47 bb 30 99 88 3b 68 92 2c bc
       0.008425474 -0.0030397037 0.004168652 -0.010532953
0002b0 7e 51 5f 3a 26 f3 7c 3b f3 a3 d6 3a 3f f5 6b bc
       0.0008518918 0.0038597076 0.0016375765 -0.014401733
0002c0 89 d1 ef 3b 8f 32 c3 3b ee e8 1b ba b4 49 f9 b9
       0.0073186797 0.005956955 -0.000594749 -0.00047547894
0002d0 28 86 e9 bb 6a de 4b 3c a8 e1 bb 3b 47 ce 1d 3c
       -0.0071265884 0.012443164 0.0057336874 0.0096317
0002e0 3a 04 cc 3b 97 ee 38 bb 87 47 25 bb ed 82 24 bb
       0.00622609 -0.0028218383 -0.0025219636 -0.0025102452
0002f0 8c c5 08 3b 6b 2b ce 3b a9 0a 1d 3c 9f 18 98 3a
       0.00208697 0.006291797 0.009585061 0.0011604017
000300 1d a2 52 3b 6b 21 84 3a 94 2b 27 3b 84 2d 49 bc
       0.0032140084 0.001008076 0.0025508152 -0.012278918
000310 de 6f 0a 3c 5f 2c 1f ba ed 66 3a bc 57 67 fa 3b
       0.008449523 -0.00060719805 -0.0113770785 0.0076417136
000320 43 f9 f6 bb e5 46 df ba af be 01 3a 01 61 80 3a
       -0.0075370385 -0.0017034678 0.00049493735 0.0009794534
000330 6f 9d b7 3a d4 7b a0 3a cd 2f d5 39 09 6a a8 3b
       0.0014008711 0.0012243935 0.0004066214 0.0051395935
000340 30 31 1b 3c 95 af 12 bb 8c 1a 84 3b b9 40 3f 3b
       0.009472176 -0.0022382487 0.004031485 0.0029182865
000350 a8 85 0f 3a 25 ec eb bb 85 ba 86 3b d6 8a b3 bb
       0.00054749334 -0.0071997815 0.0041115903 -0.005479197
000360 7a 1b 5a 3b ac 40 72 3b 39 bf b7 3b 52 85 33 bc
       0.0033280537 0.0036964817 0.0056075123 -0.010957079
000370 4e 49 5a ba 7c 2b 13 bb 60 b6 af bb be 0d 30 3c
       -0.0008326963 -0.0022456339 -0.005362317 0.010745464
000380 25 83 67 3a 64 18 66 3c b7 51 b9 3b ae ec 06 ba
       0.0008831493 0.014043901 0.005655493 -0.00051469624
000390 ec 88 31 bb 3d e2 eb 3b 99 ab fe ba b9 c7 98 3b
       -0.0027089668 0.0071986006 -0.0019429802 0.0046624807
0003a0 18 c9 3b 3b 16 b5 2a 3c f7 b6 40 3c 07 ec 08 3c
       0.0028653797 0.010419151 0.011762372 0.008357055
0003b0 44 15 36 bb 64 a9 06 3c d4 1f c8 3b 81 d5 a0 bb
       -0.0027783671 0.008219097 0.00610731 -0.004908264
0003c0 d2 51 86 bb 4b 10 0e 3b 18 71 a0 bb 02 46 da 3a
       -0.004099109 0.0021677192 -0.0048962943 0.0016652944
0003d0 10 94 ed 38 65 b7 5f 3c 52 ab af 3a 9e 70 16 3c
       0.000113286194 0.0136545645 0.0013402498 0.0091821235
0003e0 26 80 ba 3a ee 8b 24 3c 14 f6 51 3b 8f 65 19 3b
       0.0014228865 0.010043127 0.0032037543 0.002340648
0003f0 53 29 87 bb 9d 6e 5b 3b a6 b2 fc 3b 8a 56 35 3b
       -0.0041247993 0.0033482679 0.0077117262 0.002766999

action_model._continuous_distribution.log_sigma f4 [1, 3]
000000 62 32 66 3b a3 69 cb ba 24 75 26 3c
       0.0035125245 -0.0015519153 0.010159764

action_model._continuous_distribution.mu.weight f4 [3, 256]
000000 e2 af fd 3c 1e 3f 41 3c a0 8b ff 3c 20 00 82 3c
       0.030967657 0.0117948335 0.031194508 0.0158692
000010 cc 23 6c 3c c4 9c 9b 3c c3 c2 6e 3c b2 01 12 bb
       0.0144128315 0.01899565 0.014572802 -0.0022278843
000020 52 f4 d8 3b d9 64 24 3c b0 89 66 bc e7 7f f6 bb
       0.006620922 0.01003381 -0.014070913 -0.0075225714
000030 e6 18 29 bc f6 e5 72 bc e9 25 17 3c fa 9a c3 3c
       -0.010320878 -0.014825335 0.009225347 0.02387761
000040 7e 29 2b bc 66 96 80 bb 61 08 77 3c f7 cd 1e 3c
       -0.010446904 -0.003924179 0.015077681 0.0096926605
000050 29 c1 07 3b b1 dd 4d bb a3 3d a3 bb 07 35 d6 3b
       0.0020714498 -0.0031412656 -0.004981713 0.006537083
000060 6e fc 0d bc 8c c4 59 bc ad 08 6c b9 d8 c0 db 3c
       -0.008666141 -0.013291489 -0.00022509946 0.026825354
000070 70 95 ce 3c 2f af ea ba 6c de f3 ba 47 98 1a 3b
       0.025217742 -0.0017904992 -0.0018605716 0.00235893
000080 e1 55 79 bc 93 1f 9d 3c fd 75 86 3c e1 26 42 bb
       -0.015218229 0.019180095 0.016413683 -0.0029625224
000090 f8 1c d2 bc b6 c7 25 bb 57 7a 25 bb 4b 62 8a bb
       -0.025648579 -0.002529604 -0.0025249922 -0.004223143
0000a0 ae 07 5e 3c 30 0a 46 3c f1 ae 07 bc de 37 68 bb
       0.013551636 0.01208739 -0.008281455 -0.003543369
0000b0 09 11 66 bb bd c0 04 3d a8 00 42 bb 2f c3 3c 3c
       -0.0035105369 0.032410372 -0.0029602442 0.011521145
0000c0 01 99 e6 bc df fe b4 bc 72 87 99 bb c5 a6 a7 3b
       -0.02814913 -0.022094188 -0.004685336 0.005116316
0000d0 cd 1c 69 bc fd fd 70 3b 9f a1 a7 bc b6 e4 4d bc
       -0.014228058 0.0036772483 -0.02046281 -0.012566736
0000e0 3c e3 f9 bb 99 be 30 3b 17 a7 08 bd 8e c5 66 3a
       -0.0076259654 0.0026969074 -0.033362474 0.00088032417
0000f0 59 6b 3c bc fb 9a 39 bb cd 6b 1e bc 79 2f b3 bb
       -0.011500203 -0.0028321135 -0.009669256 -0.0054683057
000100 6e aa 72 3c f4 42 60 3c c5 a1 b8 3c 48 6e 20 bb
       0.014811141 0.013687838 0.022538075 -0.0024479795
000110 4f 5f 5c bb e2 21 03 3c 4d c8 87 3c a3 ce 83 bc
       -0.0033626144 0.008003684 0.016575003 -0.016089743
000120 22 83 ed 3b bf ea b2 bb 89 4a 54 3b a2 9c c8 bb
       0.0072482983 -0.005460113 0.003239306 -0.0061221877
000130 3d 2f a4 3c 34 65 86 bc ab 8d 28 3c 67 29 0d 3c
       0.020042056 -0.01640568 0.0102876825 0.008615828
000140 03 94 db 3c 06 34 23 bc bb 99 65 bc 5d 6e 80 bb
       0.026803976 -0.009961134 -0.014013703 -0.0039194063
000150 db 41 21 bc 19 06 02 bb 54 34 81 3c 6d 72 09 bb
       -0.009842361 -0.001984006 0.015772022 -0.0020972744
000160 d1 81 a5 bc 04 b9 b8 bb 2a 95 9b bc 23 d3 c1 3c
       -0.020203503 -0.00563729 -0.018992025 0.023660248
000170 b1 3d 5b bc e7 7c 81 bc 76 5b 80 3c 30 c9 6e bb
       -0.013381408 -0.015806628 0.015668612 -0.0036435835
000180 38 13 0a 3c 54 57 d5 bc ae 1e 0d 3d 44 5c eb 3c
       0.008427434 -0.026042618 0.034453087 0.02873052
000190 32 f0 c2 bc 9c bd 7f bb 6f a4 cf 3a ac fc 30 bc
       -0.023796175 -0.0039022928 0.0015841852 -0.010802429
0001a0 e6 d5 0f 3b 77 f8 78 3c c3 eb da bc f6 38 95 bc
       0.0021947562 0.015195957 -0.026723748 -0.018215638
0001b0 69 63 98 bb e5 36 81 bb f0 7d 46 3a c4 09 62 bb
       -0.0046505225 -0.0039433115 0.0007571867 -0.0034490684
0001c0 e7 52 7b bc 69 b2 ac bb 12 03 66 3b 12 10 7d 3a
       -0.01533959 -0.0052702916 0.0035097045 0.0009653579
0001d0 30 17 1b 3c 9f f5 15 3c dd 1b c6 bc c0 06 56 3c
       0.009465978 0.009152799 -0.024183208 0.013063133
0001e0 5d 95 0c 3c af 2a 99 3c eb 9b 8b 3c 59 ca 23 3c
       0.008580533 0.018697111 0.01704212 0.009996974
0001f0 62 16 c4 3b 24 c4 ad 3b 74 b7 f8 bb 8d f3 56 bc
       0.0059841136 0.005302923 -0.0075902287 -0.0131195905
000200 97 e4 14 bc c3 b6 e2 bb 15 4b 66 3c cc d8 d6 bb
       -0.009087703 -0.0069187596 0.014055987 -0.006556606
000210 7f 92 7c ba 2b 1b 55 bc 74 8a 21 3c 48 6a 01 3a
       -0.0009634867 -0.013006966 0.00985967 0.00049367966
000220 9e 41 2e 3c 26 7a 57 3c 2e bd c3 bc 21 46 ba ba
       0.010635762 0.013151681 -0.023893919 -0.0014211574
000230 68 65 a0 3b af 22 70 bb bc 11 e6 bb 4e dd 5e 3b
       0.004894901 -0.0036641767 -0.007021157 0.003400642
000240 17 c4 52 3c c5 85 a8 3c 51 ff 02 3c 17 de fc 3c
       0.012864134 0.020571599 0.0079954425 0.03086762
000250 27 e9 af 3a 36 64 98 3b 27 ea d1 bb 64 c4 eb 3b
       0.0013420925 0.004650618 -0.006406087 0.0071950424
000260 1d 7b b8 bb c9 54 3c 3c d5 73 31 3b c7 bb 0a ba
       -0.0056299106 0.011494824 0.0027077098 -0.0005292263
000270 18 a8 24 3c d5 70 66 bc 77 5d ad 3a e2 f4 af 3c
       0.010049842 -0.014064987 0.0013226707 0.021479074
000280 58 18 78 3c d4 8a 50 bc aa 7b b0 bc 5b 98 62 3b
       0.015142523 -0.012728412 -0.021543343 0.0034575674
000290 75 7d 90 bc f0 d1 ab 3b 84 c6 12 3d 9c b5 21 3c
       -0.017637948 0.0052435324 0.03583385 0.009869959
0002a0 04 24 1e bc a7 3f ba 3c 0d e9 b2 3a 6f a3 98 3a
       -0.0096521415 0.02273543 0.0013649777 0.0011645387
0002b0 ad b7 c7 bc c8 b8 2f 3c 78 ef fd ba be ce 26 3c
       -0.024379576 0.010725208 -0.0019373735 0.010181127
0002c0 6e 91 98 bc 8c 4a 97 3c d3 29 aa bc 37 4d be 3c
       -0.018624034 0.018468164 -0.020771896 0.023230178
0002d0 8d 62 22 3b e4 16 25 3c c2 13 d8 3c bd d7 3f bc
       0.002477798 0.010076258 0.026376609 -0.011709151
0002e0 ea c5 79 3c 5a e5 91 3c 91 e5 0a bb 1c 6a 46 bb
       0.01524494 0.017809559 -0.002119396 -0.0030275648
0002f0 a5 b3 37 3c c8 ab 1b bc 91 1e 04 3c 5b 74 29 bc
       0.011212264 -0.009501405 0.008063928 -0.010342683
000300 a3 29 1d bb ce 37 bc bc 6d 28 0c bc 4d 8b 80 bb
       -0.0023981116 -0.022975828 -0.00855456 -0.003922856
000310 93 39 32 bc 27 29 e3 3a 46 f5 b5 bb 85 ac 4b 3c
       -0.010877985 0.001733099 -0.0055529205 0.012431269
000320 41 30 0d 3c 18 56 07 bb ba ca 15 3d 85 af 6f ba
       0.008617462 -0.002065068 0.03657029 -0.0009143281
000330 bb 16 f9 3b 05 3a 48 bb 35 cf 89 bc cb 60 00 bc
       0.0076015866 -0.003055216 -0.016822437 -0.007835577
000340 c4 36 06 bb 9e 14 84 bc 49 d6 ad 3b bc 18 02 bd
       -0.002047942 -0.016123112 0.005305086 -0.03176187
000350 03 4c 65 bc bc 6a 93 bc e9 83 33 bb 8e 4a 18 bc
       -0.013995173 -0.01799523 -0.0027391857 -0.009295119
000360 36 b9 dc 3b bd 7b 0e bc b8 fe 13 3c 00 42 05 3c
       0.006735946 -0.008696494 0.009032898 0.008133411
000370 1a f7 af 3b cf 28 63 3b 27 70 7c 3b 31 61 95 bc
       0.005370033 0.0034661775 0.0038518996 -0.018234821
000380 a0 94 3f bc d1 86 8a ba fb 99 b8 3b 28 3c 63 bc
       -0.01169315 -0.0010568743 0.0056335903 -0.013869323
000390 ac 7a b8 bb 26 1e a2 bb f6 09 e9 3b 6d 11 72 3c
       -0.005629858 -0.0049474416 0.007111783 0.014774662
0003a0 18 aa 44 bc 7d 12 91 3b a3 61 15 3b 79 68 ae 3c
       -0.012003444 0.004427253 0.0022793792 0.02129005
0003b0 29 b1 77 3c 8c 18 ce bb 7e 92 af 3c ec 0b 14 3b
       0.015117922 -0.0062895473 0.021432158 0.0022590114
0003c0 f6 dc da bb 7d 79 04 3c 74 5d 51 39 29 11 aa 3a
       -0.0066791726 0.008085606 0.00019966607 0.0012975085
0003d0 54 c2 08 3c 52 84 93 bb eb aa 05 3c 4d 7e b3 ba
       0.008347113 -0.004501858 0.008158426 -0.0013694257
0003e0 09 4b ad 3b 2b 19 cf 3b 5c a3 06 3c ab 3a be 3c
       0.005288486 0.006320139 0.008217659 0.023221334
0003f0 16 4a 07 3c 93 6e 68 bc ec 29 b9 ba eb cb 8c 3c
       0.00825741 -0.014186519 -0.0014126874 0.01718708

action_model._continuous_distribution.mu.bias f4 [3]
000000 6e 4c c5 ba 7b 1d b8 3a 1b 19 24 bb
       -0.0015052685 0.0014046872 -0.0025039378

action_model._discrete_distribution.branches.0.weight f4 [7, 256]
000000 9c cf 7e ba 79 1d 13 ba d3 f8 49 bb 82 3f 3f bc
       -0.0009720267 -0.0005611997 -0.0030818477 -0.011672856
000010 b7 b8 3f 3b be d5 63 bb b1 6a 51 bc 70 5e 1e 3a
       0.0029254386 -0.0034764851 -0.012781785 0.0006041294
000020 f2 53 68 bc fe 6d 9b bb 44 80 a4 ba 4f c3 da 3a
       -0.01418017 -0.0047433367 -0.0012550433 0.0016690287
000030 7e b2 ef ba fe 38 e8 ba fe c7 6d bc 30 24 2c 3c
       -0.0018287448 -0.001771718 -0.014513014 0.010506675
000040 b4 89 48 3c 8d 31 4a bc 4d 29 7e ba a7 df 8b bc
       0.012239862 -0.012340915 -0.00096954854 -0.01707442
000050 d7 83 02 bc 02 9d 82 bb 8a 29 87 ba 4f 09 20 bb
       -0.007966003 -0.003986002 -0.0010312062 -0.002441961
000060 45 cf 03 bb 0a 7c 12 3a 66 77 06 3c b1 f4 ad ba
       -0.0020112556 0.0005587941 0.008207178 -0.0013271776
000070 62 01 8e ba d3 8e bf 3b 30 08 80 bb f3 15 27 3c
       -0.0010834152 0.0058458834 -0.003907226 0.010198104
000080 64 cc cf bb 65 47 0a 3c 37 5a d7 bb 22 c6 8e 3c
       -0.006341504 0.008439873 -0.0065720337 0.017428461
000090 99 fe 45 3b 46 86 13 3b 8d b5 fd bb 3c 81 64 3b
       0.0030211566 0.0022510453 -0.00774259 0.0034867069
0000a0 19 8b 90 bc 68 92 f9 3b 50 72 2f 3c cc 39 e3 bb
       -0.017644452 0.00761633 0.010708407 -0.00693438
0000b0 92 71 18 bc be 28 2a 3b 73 71 dc 3b 31 41 4e bc
       -0.009304421 0.0025964226 0.0067273914 -0.012588785
0000c0 e6 a8 94 3b 7e 6d bf 3b 40 34 2c 3c d4 46 90 b9
       0.004536736 0.00584191 0.010510504 -0.0002751859
0000d0 72 f1 28 3b 8a cb 13 3c 65 16 5f 3b 35 d8 d7 bb
       0.0025778678 0.009020695 0.0034040448 -0.006587053
0000e0 8e 8e 1c 3c ee 77 51 bb 8e 52 34 3b 35 90 f9 3b
       0.009555472 -0.0031962353 0.0027515027 0.007616068
0000f0 d8 4c b9 3b 1f ad 16 bc f7 05 48 3c 7d 1a 14 bc
       0.0056549124 -0.009196549 0.012208453 -0.009039518
000100 76 78 3b bc b2 b6 6f bb 21 d7 5f bb 40 06 0a 3b
       -0.011442294 -0.00365774 -0.0034155326 0.0021060854
000110 ac f7 5b 3c 87 fb 7b 3b 55 c2 37 bc ec 30 50 bc
       0.013425749 0.0038449483 -0.011215766 -0.012706976
000120 4f 7c 23 bc 15 61 81 bc 5c 6b 38 3c 1c ad 78 3c
       -0.009978368 -0.015793363 0.011256065 0.015177991
000130 a8 fd 22 3c f4 60 7b bb 7d 3e 5d bc 91 63 46 39
       0.009948172 -0.003835735 -0.013503668 0.00018919843
000140 74 5b fa 38 72 74 d2 3b c3 cb 27 3c ac 0d e0 3b
       0.000119379634 0.006422573 0.010241452 0.0068375673
000150 bc 5a 15 bb dc 25 1d bb 98 1a d4 b9 33 38 f0 3b
       -0.0022789678 -0.0023978865 -0.00040455605 0.007330918
000160 6d fd a3 3b 25 2c 41 bc aa 70 80 3b bc ea 12 bb
       0.005004576 -0.01179031 0.0039196806 -0.0022417745
000170 a0 09 99 3b c3 d2 f2 3a d6 fb 48 3b 59 20 9d 3b
       0.004670337 0.0018525947 0.0030667684 0.004795116
000180 c2 83 e0 ba ea 81 60 3b 62 57 d7 3b 91 f1 ac bb
       -0.0017129111 0.0034257122 0.006571696 -0.0052778204
000190 7f bd 67 3b 8c 2e 97 bb 56 00 4b bc 82 8a e5 3b
       0.0035360751 -0.004613703 -0.012390217 0.007005037
0001a0 85 02 a4 3a 6e 76 d0 bb 22 b5 f6 3a cb ec 77 bc
       0.0012512958 -0.006361774 0.0018822292 -0.015132139
0001b0 80 ec 8c bb 8c 41 79 bc ca 44 d6 3a 49 0c 19 b9
       -0.004300654 -0.0152133815 0.0016347405 -0.00014595794
0001c0 5f d6 3b bc 36 46 6e 3b ff 62 1d 3b d6 2f 9b 39
       -0.011464684 0.0036357767 0.0024015305 0.00029599544
0001d0 78 21 a4 3a 3c db 94 b9 1e 50 a1 3b b1 b1 72 bc
       0.0012522181 -0.00028392102 0.004922881 -0.014812873
0001e0 39 94 20 bc d2 ee 1b bb f0 ec 4e bb 02 2e 89 bb
       -0.009800964 -0.002379347 -0.0031574331 -0.0041863928
0001f0 57 ea 98 3b 68 b5 8d 3a 28 9c 07 bb 48 c5 2b 3b
       0.0046666074 0.001081151 -0.0020692442 0.0026210118
000200 4f b0 72 bc e9 4e 79 3c 2c 10 81 bb 8f 98 06 ba
       -0.014812543 0.015216568 -0.0039386954 -0.00051344273
000210 e4 0f 38 3c f3 18 d1 3a bb 97 76 3b c2 9f c1 3b
       0.011234257 0.001595287 0.003762706 0.005908937
000220 5e 47 b1 3b d9 4b 00 bc f7 7e 44 bb cf f2 ae 3c
       0.005410119 -0.0078305835 -0.0029982904 0.021356015
000230 59 7b 82 3a 03 af 88 3b 44 0d 89 bc ab f2 49 3c
       0.0009954973 0.0041712536 -0.016729958 0.012325923
000240 f5 35 e0 3b 42 8d 2f ba 0c 1f 1d bc c9 28 58 bb
       0.0068423697 -0.0006696769 -0.009589922 -0.0032983294
000250 58 0c 49 bc 07 fc 14 bc 8a 49 41 3c 3e d5 17 bc
       -0.012271009 -0.009093291 0.011797318 -0.0092671495
000260 3d 05 31 bb 96 56 8a bc 14 a8 37 b8 70 e5 47 3c
       -0.002701118 -0.01688699 -4.3787135e-05 0.012200698
000270 6d f2 77 3b 54 9c e3 bb be 08 7a 3c e1 34 f1 3a
       0.0037833706 -0.006946126 0.015260873 0.00184026
000280 a3 06 08 bb c4 82 03 3c ba 73 62 3b 88 b1 8c 3c
       -0.002075591 0.008026782 0.0034553842 0.017174497
000290 e6 a2 9e 3b a9 56 74 bc 34 bc 3f bc 02 a5 e0 bb
       0.0048411964 -0.0149132395 -0.011702586 -0.006855608
0002a0 85 a6 7c 3b 01 20 8f 3b d3 c5 32 3c 76 04 de bb
       0.0038551402 0.004367829 0.010911423 -0.006775434
0002b0 49 5d 2d 39 27 76 f9 bb 3e 0e 43 bc 4e 9e 22 3c
       0.00016533317 -0.007612962 -0.011905251 0.009925438
0002c0 e0 d3 a9 bb 88 54 f1 bb f0 ce 01 3c 4c a6 19 b8
       -0.005182728 -0.0073648132 0.007922873 -3.663292e-05
0002d0 63 bf 89 bb 21 a7 32 bc 5d 8b 57 bb 9e c5 f4 39
       -0.0042037233 -0.010904104 -0.0032889463 0.00046686543
0002e0 5f 9a 1e bb a6 c9 23 bb 96 c9 8e 3b 72 84 21 3c
       -0.00242009 -0.0024992018 0.004357527 0.009858238
0002f0 19 54 05 3a f3 f4 8c bb bb 6e 89 bb 10 ce ee 39
       0.0005086079 -0.004301661 -0.0041941083 0.00045548426
000300 d6 03 a9 bc bc ef 9a bb 86 ce 4a 3c 04 54 80 3b
       -0.020631712 -0.0047282856 0.012378341 0.0039162654
000310 4b 81 24 bc fd d0 8d bc 7f 90 ee 3b b9 24 04 bc
       -0.0100405915 -0.017311567 0.007280409 -0.008065396
000320 a9 1b 10 3b af 05 29 bb 38 5d 32 3c bc 4e 89 bb
       0.0021989143 -0.0025790741 0.010886483 -0.004190294
000330 95 86 28 bc ec 9c 16 3c 15 4a cc 3a f7 f8 fd bb
       -0.010285993 0.0091926865 0.0015586043 -0.007750626
000340 20 20 b1 bc d0 6f 05 3c f0 d9 54 3c d3 6c 34 3c
       -0.021621764 0.008144334 0.0129914135 0.011012274
000350 44 54 a9 ba 52 6d 80 3c b5 bf 1b ba 4f e5 5b 3c
       -0.001291879 0.015677128 -0.00059413473 0.013421371
000360 14 a2 fd b9 a6 27 02 bb 61 36 89 bb c3 57 d6 3b
       -0.00048376678 -0.0019860058 -0.0041873907 0.0065412237
000370 d0 80 a2 3b 18 9f bd 3b 6c 3a 0f 3c fb f6 c8 bb
       0.0049592033 0.0057867877 0.008741956 -0.006132958
000380 56 9f e7 bb a0 3c 36 bc 28 55 99 bc 37 6a 6a bb
       -0.007068555 -0.011122853 -0.018717363 -0.0035768875
000390 0f e6 b3 bb dc 5d 42 bc eb 8f 46 3b 83 4c fe bb
       -0.0054900716 -0.011863198 0.0030298184 -0.0077605858
0003a0 f2 78 39 3c 3b 81 2a bc 95 22 94 bb f7 1a 47 bc
       0.0113203395 -0.0104067875 -0.004520724 -0.012152425
0003b0 bb a3 1d bb ed f9 01 bc b7 2d 1a bc 8d 66 87 3b
       -0.002405389 -0.007933122 -0.009410313 0.004132098
0003c0 41 2b 94 3b 9e 61 f3 bb bd 0f 12 3c 9a 6a 0f 3c
       0.004521758 -0.0074274084 0.008914885 0.008753443
0003d0 7a 44 05 3b 34 38 ec bb 9a 09 56 3a 14 19 09 3c
       0.0020335005 -0.0072088484 0.0008164883 0.0083677955
0003e0 ca 15 00 3c 35 a7 e5 3a 5a 97 4e bc 5e 48 1a bc
       0.007817695 0.0017521145 -0.012609327 -0.009416668
0003f0 d0 d3 49 3c 98 5f 1f bc 1c bd d7 bb 88 01 93 bb
       0.012318566 -0.009727381 -0.006583823 -0.0044862665

action_model._discrete_distribution.branches.0.bias f4 [7]
000000 29 db 0a bc ed 8a 04 bc 0d 04 0e bc 20 ee 6d bb
       -0.008475103 -0.008089763 -0.008667958 -0.0036305264
000010 88 64 02 bc 6a 16 82 3c 62 8e 7c 3c
       -0.007958539 0.015879828 0.015414806

onnx::Div_90 f4 [84]
000000 24 e5 ab 3b 8d ae eb 3e 3a 2a dd 3e b9 e0 73 3e
       0.0052458216 0.4603161 0.4319628 0.23816194
000010 24 e5 ab 3b 28 d1 ec 3e 77 bc de 3e 79 31 76 3e
       0.0052458216 0.46253324 0.43503162 0.2404231
000020 24 e5 ab 3b 63 95 ea 3e d5 4d dc 3e 7a cd 71 3e
       0.0052458216 0.45817098 0.4302813 0.2361354
000030 24 e5 ab 3b 72 1c ee 3e a8 8c e0 3e 2e 68 78 3e
       0.0052458216 0.46506077 0.43857312 0.24258491
000040 24 e5 ab 3b fc a5 e9 3e 11 88 db 3e 3b c7 6f 3e
       0.0052458216 0.4563445 0.42877248 0.23415844
000050 24 e5 ab 3b ce 02 ef 3e d9 f8 e0 3e 10 0b 7b 3e
       0.0052458216 0.46681827 0.43939856 0.24515939
000060 24 e5 ab 3b e8 6e e9 3e a7 b4 da 3e 6a 42 6e 3e
       0.0052458216 0.45592427 0.42715952 0.23267522
000070 24 e5 ab 3b f1 5f f0 3e c3 e3 e1 3e 63 41 7d 3e
       0.0052458216 0.46948197 0.4411908 0.24731974
000080 24 e5 ab 3b a7 09 ea 3e 69 72 db 3e d6 fd 6c 3e
       0.0052458216 0.4571049 0.42860726 0.23143706
000090 24 e5 ab 3b 81 6c f1 3e 56 97 e2 3e 2e 33 7f 3e
       0.0052458216 0.47153094 0.44256085 0.24921867
0000a0 24 e5 ab 3b e8 6e e9 3e 1d dc da 3e 25 01 6d 3e
       0.0052458216 0.45592427 0.42746058 0.23144968
0000b0 24 e5 ab 3b 79 2c f2 3e 0e 5b e3 3e dc 60 80 3e
       0.0052458216 0.47299555 0.44405407 0.25073898
0000c0 24 e5 ab 3b f1 42 e9 3e e4 2c db 3e 31 02 6d 3e
       0.0052458216 0.45558885 0.42807686 0.23145367
0000d0 24 e5 ab 3b 88 03 f2 3e 39 ce e2 3e 6b 0e 81 3e
       0.0052458216 0.4726832 0.4429796 0.25206313
0000e0 24 e5 ab 3b 93 44 e8 3e 33 58 da 3e d4 1b 6d 3e
       0.0052458216 0.45364818 0.42645416 0.23155147
0000f0 24 e5 ab 3b 89 a5 f1 3e f4 8a e1 3e a0 6b 81 3e
       0.0052458216 0.47196606 0.44051325 0.25277424
000100 24 e5 ab 3b ce cc e8 3e 5a f6 da 3e 08 0c 6e 3e
       0.0052458216 0.45468754 0.42766076 0.23246777
000110 24 e5 ab 3b c4 c3 f1 3e a3 2d e1 3e cf e5 81 3e
       0.0052458216 0.4721967 0.4398013 0.25370643
000120 24 e5 ab 3b 00 31 e9 3e 78 fc db 3e 56 3e 6f 3e
       0.0052458216 0.45545197 0.42966056 0.23363623
000130 24 e5 ab 3b 0a ca f1 3e 3e e5 e0 3e d5 16 82 3e
       0.0052458216 0.47224456 0.43924898 0.25408044
000140 24 e5 ab 3b 5f a4 e9 3e ff 80 dc 3e d0 c7 70 3e
       0.0052458216 0.45633218 0.43067166 0.23513722

onnx::Div_96 f4 [37]
000000 f1 c1 d2 40 04 da 9f 3d 3a e3 e1 40 24 e5 ab 3b
       6.5861745 0.07805255 7.0589876 0.0052458216
000010 13 1f 9e 3e 24 e5 ab 3b 94 6d 23 41 08 da af 3b
       0.30883083 0.0052458216 10.214252 0.0053665675
000020 6d c7 2f 41 24 e5 ab 3b 00 f0 8f 3e 24 e5 ab 3b
       10.986188 0.0052458216 0.28112793 0.0052458216
000030 75 79 fb 3d f7 b1 21 3e a0 32 e9 3e 33 87 d9 3e
       0.122790255 0.15790544 0.45546436 0.4248596
000040 28 db f6 3e 43 34 e9 3e b2 ff da 3e 28 cc 79 3f
       0.48214078 0.45547685 0.42773205 0.9757714
000050 24 e5 ab 3b 7b 84 48 3f a6 f3 2f 3f af f2 ab 3b
       0.0052458216 0.7832715 0.68731153 0.005247436
000060 0d f3 38 3f 1c 53 94 3e 45 f4 61 3e c0 f4 61 3e
       0.72245866 0.28969657 0.22065838 0.22066021
000070 58 d8 52 3e 44 d7 52 3e 73 37 13 3e be 0c 7a 3f
       0.20590341 0.2058993 0.14376621 0.97675693
000080 1e ab 8e 3e 42 4d 34 3f cd da 9f 3d 1d a3 ca 40
       0.27864927 0.70430386 0.07805405 6.3324113
000090 d2 c7 93 3e
       0.28863388
