results/NewTest8/BoxingAgent.onnx (onnx, 320604 bytes, 11 tensors)

network_body.observation_encoder.processors.0.normalizer.running_mean f4 [37]
000000 07 75 66 3f de 7d 6d 41 ad 0e 62 c1 f9 0c 7b b0
       0.9002232 14.843229 -14.128583 -9.1331703e-10
000010 8f 45 03 3f 8c 86 0e b1 71 0a ca 3d 8c f6 8e 3a
       0.51278013 -2.07402e-09 0.09865273 0.0010907217
000020 e5 0c be bf ff bd b4 2e b4 c4 01 3f 26 57 0f b0
       -1.4847685 8.2192024e-11 0.5069077 -5.214694e-10
000030 2d 1d 7e 3f da fd 7d 3f 00 00 00 00 00 00 00 00
       0.9926327 0.9921547 0.0 0.0
000040 00 00 00 00 05 ff 7f 3f a0 92 99 42 40 95 b1 39
       0.0 0.99998504 76.78638 0.0003387127
000050 00 00 00 00 2b 95 5b bb 00 ea b6 b7 fb d3 4f 38
       0.0 -0.003350566 -2.1805055e-05 4.9550068e-05
000060 9d e9 84 bd 43 9c ff 3e aa e4 fc 3e b1 8c 01 3f
       -0.06489871 0.49923906 0.49393207 0.50605303
000070 32 ee 01 3f a9 21 fc 3e 00 00 00 00 56 74 38 3f
       0.5075408 0.4924443 0.0 0.72052515
000080 76 4d 11 3f 38 9c 8c bd de 7d 6d 41 2d cc c5 41
       0.5675882 -0.06865734 14.843229 24.724695
000090 12 ce 00 3f
       0.5031444

network_body._body_endoder.seq_layers.0.weight f4 [256, 37]
000000 b7 4f 87 3e 2c 67 af 3b 9c 16 49 be c1 7c 52 3e
       0.26428005 0.005352875 -0.19637531 0.20555402
000010 f4 94 5d be 7b 05 0e 3e 3d c0 22 3e 71 b6 64 3c
       -0.21638852 0.13869278 0.15893646 0.013959513
000020 e3 7e bc bd 98 b6 ed bc 16 91 73 3e 31 e0 bf 3c
       -0.09203889 -0.029017732 0.23785815 0.023422332
000030 48 a6 02 3e 24 b5 14 be 50 85 5c 3e 85 04 b9 3d
       0.12758744 -0.14522225 0.2153523 0.09034065
000040 56 a5 53 bd 56 9a 9c 3d 71 4e 9c 3c 60 ad a2 3d
       -0.05167135 0.07646625 0.019080373 0.07943225
000050 de 8f 36 3d 24 8f 46 be 31 d1 85 bc 06 ce 49 3d
       0.044570796 -0.19390541 -0.016335102 0.049268745
000060 a3 c6 f2 ba c3 d4 72 bd 4a 10 b7 bd 76 19 1a 3e
       -0.0018522333 -0.059284937 -0.08938654 0.15048775
000070 4f 36 19 3e 10 40 0c 3e 60 83 7a bc b5 0d d7 bd
       0.14962123 0.13696313 -0.015290111 -0.10500661
000080 c3 5a 3d 3e f9 54 41 bc 13 64 ab 3d 9a 89 90 bc
       0.18491654 -0.011800044 0.08368697 -0.017643739
000090 0e 95 e9 bd 28 85 55 3e c2 33 86 bd e2 a0 27 be
       -0.11405383 0.20851576 -0.06552841 -0.16369966
0000a0 b5 49 64 3e f4 95 e9 3d 01 54 39 3d a4 97 45 3d
       0.22293742 0.114055544 0.045246128 0.04824032
0000b0 b8 73 87 3e 02 9a 4a be 4b 3c 18 3e 34 38 84 bd
       0.26455474 -0.19785312 0.1486675 -0.064560324
0000c0 8e b7 ff bd 04 20 8f bd b6 4f 1b 3e 91 0d 00 3e
       -0.12486182 -0.06988528 0.15167126 0.12505175
0000d0 e1 30 7f 3e 43 3d 08 3e 98 1a 96 bd d4 e2 68 3c
       0.2492099 0.1330462 -0.07329291 0.014214236
0000e0 0e 00 18 be 5b 11 f4 bc 55 06 ac 3c f9 bf a6 3d
       -0.14843771 -0.029793432 0.020999113 0.08142085
0000f0 fe 5e 97 be 4c 08 3b bd c1 82 0b 3e d9 9f b3 3d
       -0.2956466 -0.04566221 0.13624097 0.08770723
000100 f4 12 50 3e 1e 99 ed 3d 5c 04 71 be 98 7b 88 3e
       0.2031973 0.116014704 -0.23536819 0.26656795
000110 d7 a9 e1 bc 29 06 67 be 22 6d 93 bd 51 10 20 be
       -0.027546806 -0.22560944 -0.0719855 -0.15631224
000120 c4 7f ea bd 4a 2e 17 bb 1b 60 1e 3e 83 69 9a 3e
       -0.114501506 -0.0023068362 0.15466349 0.30158624
000130 22 fa b0 3d 78 3f b8 3d 44 80 45 be 9c 5b b6 be
       0.08641459 0.08996481 -0.1928721 -0.35616767
000140 f6 3c 78 be 41 2f 08 be 7d 3a 4c be 4b 02 94 3e
       -0.24242005 -0.13299276 -0.19944187 0.28908
000150 0e 16 b7 3e e1 1d a9 3b 50 9f 78 bd b5 90 34 be
       0.35759014 0.0051610325 -0.060698807 -0.17633326
000160 a0 eb 0f be 7d 68 4b 3e 10 d6 8c be 19 11 d1 3d
       -0.14054728 0.19864078 -0.27507067 0.10208339
000170 4a 72 6c be 83 e7 92 bd 11 46 40 be 88 9f 44 bd
       -0.23090473 -0.071730636 -0.18776728 -0.048003703
000180 49 53 0c 3e 22 fe a7 3d c6 39 23 3d 8e cd 30 be
       0.13703646 0.08202769 0.03985002 -0.17265913
000190 39 d1 83 3e 4b 9c 11 be d8 aa bc bd fa cd 6d be
       0.25745562 -0.14219777 -0.09212273 -0.23223105
0001a0 aa 5d 3f bd 6e ee b2 be 1c 35 b5 3d 96 3a 04 3d
       -0.046720184 -0.34947532 0.088480204 0.032282434
0001b0 1d 12 54 3e a8 66 29 be 91 06 2c 3e 1a 7c 12 bd
       0.20710035 -0.16543067 0.1679938 -0.035762884
0001c0 30 24 63 be 98 12 4c bd 72 e0 2e 3e 31 58 9d 3d
       -0.22181773 -0.04982242 0.17077807 0.07682837
0001d0 cd e3 28 3d b1 73 16 be a7 94 3c be 06 ea ce 3d
       0.041232873 -0.1469257 -0.18416081 0.1010323
0001e0 e8 fa 97 3e f6 62 ed bd ea a7 d0 3d 56 d0 fd 3d
       0.29683614 -0.11591141 0.10188277 0.123932526
0001f0 2e 0e 04 be 1d 21 14 3d 71 ab ce bd a5 02 f9 bd
       -0.12896034 0.03616439 -0.100912936 -0.121587075
000200 7b 4b 0e 3e ba 2f 7f bd da d6 22 be f6 12 8d 3e
       0.13895981 -0.062301375 -0.15902272 0.2755353
000210 6a 17 cc be 3b e7 a3 be 97 39 dd bd 62 58 68 bd
       -0.39861614 -0.32012352 -0.10802 -0.056724913
000220 77 b7 a0 3d b2 9e d8 3e df 00 4a be 8e 95 19 bd
       0.07847493 0.42308575 -0.19726895 -0.037496142
000230 58 ae 53 be 0d 85 13 bd f8 e0 eb 3b de 10 c2 3c
       -0.20671976 -0.03601556 0.007198449 0.023689684
000240 e7 c7 8b 3d 9f 28 96 3d 04 a5 19 bf b6 d7 89 bd
       0.06825238 0.073319666 -0.6001742 -0.06730597
000250 8d 51 e4 3e 56 92 23 be 8d 53 76 3d 39 b9 90 3d
       0.44593468 -0.15973791 0.060138274 0.070665784
000260 ff 03 8b be d0 48 d4 3d 5f e0 aa bd 1d b8 dc bc
       -0.27151486 0.103654504 -0.08343577 -0.02694326
000270 4e d5 20 3c 42 f8 2a be 73 0c c4 bd e1 69 40 3e
       0.009816481 -0.16696265 -0.09572687 0.1879039
000280 d4 51 a8 3d 46 ba f5 bd 09 78 ed 3d c6 1e 99 3e
       0.082187325 -0.119984195 0.115951605 0.2990629
000290 5f 31 5f be 68 5a 18 3d 7e cb 66 3d 67 7b b7 3c
       -0.21796177 0.037195593 0.05634641 0.02239771
0002a0 b0 af 74 3e 8f b9 68 3d 90 46 46 bd e4 55 d8 3d
       0.23895144 0.056817587 -0.048407137 0.10563257
0002b0 86 08 f8 bd 29 d6 bc 3d 54 be 1c bd a0 7e 8d bd
       -0.12111001 0.09220535 -0.03826745 -0.069089174
0002c0 72 70 0d 3d e8 3b 16 3e 82 f3 39 be 81 97 40 bc
       0.034531064 0.1467129 -0.18159297 -0.011754871
0002d0 ee 08 a9 bd 14 e7 8a 3e 8a ee 76 bc 66 38 9b 3e
       -0.08253656 0.27129424 -0.015071521 0.30316466
0002e0 47 0a b7 be 5e 20 cf ba 7a 71 0a be 50 85 de bd
       -0.35750028 -0.0015802493 -0.1351985 -0.10865271
0002f0 95 2f 63 3e b4 97 b7 be 30 fb 1d bd 4d 52 fe bd
       0.2218612 -0.35857928 -0.03856963 -0.124180414
000300 10 76 bf bb 9b 97 d0 3d 89 fa 11 bd 7e ad b8 3d
       -0.0058429316 0.101851664 -0.03563932 0.09017466
000310 6d 9b af bd f4 b1 5b be bc 31 85 3b 52 52 c1 bc
       -0.08574567 -0.21454602 0.0040647667 -0.023598824
000320 b0 75 e4 bc 3d 74 50 be 48 6e 7f be 2b 0c 99 3c
       -0.027888149 -0.20356841 -0.24944413 0.01868256
000330 a3 a7 52 be 93 03 a1 bd c0 8e 9c 3e 52 5e 8c 3d
       -0.20571761 -0.0786201 0.3057766 0.06853928
000340 e8 58 5e 3d d7 f9 bb 3d 96 ff 0a bd 62 90 4c 3d
       0.054284006 0.091785125 -0.033935152 0.04994238
000350 73 88 40 3e 68 58 73 3e 3d c0 93 bd 3f 41 1e be
       0.18802051 0.23764193 -0.07214401 -0.15454577
000360 72 52 32 3e e2 68 09 3e 75 06 3c be b7 66 4c bd
       0.17414263 0.13418916 -0.18361838 -0.049902644
000370 78 97 80 3e 38 78 06 3e c4 9d 17 3e 65 d7 eb 3d
       0.2511556 0.13131797 0.14806277 0.115156926
000380 bb 7e 7c bd 73 f7 83 3c bd ec 6c 3e df 41 54 3e
       -0.061644297 0.016109204 0.23137183 0.20728253
000390 e1 ec b4 be 4c 0c 9c bc 8d 67 2b bd 4d 12 15 3d
       -0.35336974 -0.019048832 -0.0418468 0.036394406
0003a0 e1 b4 99 bd 71 35 d6 3d 07 ae 3a 3d 02 d5 0e be
       -0.07505203 0.10459412 0.04557612 -0.13948444
0003b0 fd 80 a6 3e 2c 20 ef bd 93 f6 a8 3d 7f 98 5f bd
       0.32520285 -0.11676058 0.08250155 -0.05458879
0003c0 07 7e 25 be 00 9a 57 3e 58 ef e5 bc 90 70 2b be
       -0.16161357 0.2105484 -0.02806823 -0.16742158
0003d0 0d 1c 59 3e 9e 8f 8b 3e 2d 6e 3c be 3b 6f 4f be
       0.21202107 0.2725801 -0.18401404 -0.20257275
0003e0 d6 ae a9 3e ca 4d ba 3e bf c1 20 3e 10 54 43 bc
       0.33141202 0.36387473 0.15698908 -0.0119218975
0003f0 15 71 1b be d8 0f 81 be 9d 1d 4a 3e 98 db 1b 3e
       -0.15179856 -0.252074 0.19737859 0.15220487

network_body._body_endoder.seq_layers.0.bias f4 [256]
000000 fd a8 86 3a 7e 22 1d 3c 53 f6 07 3c df 3f e6 3b
       0.0010273751 0.009590743 0.008298474 0.007026657
000010 3f 7e 37 3c a8 30 04 3b d4 79 60 3c 05 db cb bb
       0.011199533 0.0020170603 0.013700921 -0.0062211775
000020 7b 5d 7f 3a 06 ab 13 3c 16 27 a1 3b cb c7 b7 3b
       0.00097414077 0.009012943 0.0049179895 0.005608534
000030 32 08 42 bb 46 d0 86 3c 02 56 e2 3a ba 87 d4 3b
       -0.0029606936 0.016456734 0.0017268064 0.0064859064
000040 74 a2 ca ba 19 86 3a 3c d0 88 00 3c ee ad 27 3c
       -0.0015459792 0.01138451 0.007845119 0.010234339
000050 b2 35 08 3c 74 96 3c 3c b8 b6 94 bb cd b0 eb ba
       0.008313583 0.01151048 -0.0045383833 -0.0017981768
000060 fd 28 01 bc d7 a6 26 39 9a 7d d6 b9 96 0d e8 3b
       -0.0078833075 0.00015893146 -0.0004091084 0.0070816977
000070 e3 7d 14 3c ae 91 bc 3b 13 12 1b bc c5 4a 02 3c
       0.009063217 0.005754671 -0.009464758 0.007952397
000080 79 08 34 3c 2f a2 ae 3a d7 5b cb 3b 25 06 13 bc
       0.010988348 0.0013323481 0.0062060165 -0.008973633
000090 67 9c 90 3c fb 76 d6 3a e7 77 87 3a c5 4a cb 3b
       0.017652703 0.0016362363 0.0010335416 0.0062039816
0000a0 8a 81 8a 3b 3f 7c 83 bb 00 7a 83 3b f8 ea 80 3b
       0.004226868 -0.004012614 0.0040123463 0.0039342605
0000b0 2d 4f 6c 3b 5a f9 17 3c 54 74 18 3b bc d8 c3 ba
       0.0036057935 0.009275759 0.0023262696 -0.0014941911
0000c0 1e a5 09 3c cd f0 4e 3c ed 6f c5 bb b4 56 b6 3b
       0.008401183 0.012630654 -0.0060253055 0.005564535
0000d0 fa 6f a8 bb 08 f3 31 39 22 84 88 3c 5d a0 a4 ba
       -0.005140302 0.00016970572 0.016664568 -0.0012559999
0000e0 f7 aa 61 bb 7c 1e 36 3a 4b c2 83 3b 1e 56 85 bb
       -0.0034434178 0.00069472915 0.0040209643 -0.004069104
0000f0 9d 3a a7 3b 4f 59 5f 3c c0 d9 0a bc f2 03 28 3c
       0.005103423 0.013632133 -0.008474767 0.010254847
000100 6e 6f 09 39 db 53 cc ba 4d 59 33 3b 58 e8 b8 3b
       0.00013106849 -0.0015588956 0.002736646 0.005642932
000110 40 7c 7b 3b 18 6f f0 3b be 80 b3 3a e5 e2 07 bb
       0.003837362 0.007337462 0.0013694984 -0.0020734605
000120 5f fc d2 bb 64 9f 09 bb 04 6a 36 3c 56 0b 18 3c
       -0.0064387764 -0.0020999545 0.0111336745 0.009280046
000130 ae 4a a8 ba 4d 90 14 3c 2c af ff 3b 59 d1 67 3b
       -0.0012839639 0.009067607 0.0078028645 0.0035372584
000140 29 f2 44 39 93 5d 49 ba d5 db f8 3b f2 28 ce bb
       0.00018782228 -0.0007681485 0.0075945654 -0.006291502
000150 fc d7 b6 3b 95 b0 fb 3b e4 5e 30 3c b2 ae 3f bc
       0.0055799466 0.0076809623 0.010764811 -0.011699365
000160 11 38 53 3c cf 8e c0 3b a3 a3 bf 39 91 90 19 3c
       0.012891785 0.005876399 0.00036552278 0.009372846
000170 0c 82 1f 3c 66 63 01 3c 0a 31 1e bc 61 d1 56 bb
       0.009735595 0.007897234 -0.0096552465 -0.0032778608
000180 4b 3a 2d bc d7 1d be 3a 8e 1c 90 bb ab d5 0f 3c
       -0.01057298 0.0014504743 -0.0043979352 0.00877897
000190 ba 1d 0f 3b 1b 0f 48 3c 5b 1d b4 bb 72 e7 ff 3a
       0.0021837787 0.012210633 -0.0054966635 0.0019523932
0001a0 4b f3 5f ba 20 76 9f 3b ee 16 87 bb 0f 9b bb ba
       -0.00085430284 0.0048663765 -0.0041226065 -0.0014313179
0001b0 aa 19 4e 3c a0 fa d6 3a e5 0e d6 3a 7e b3 b0 3b
       0.012579361 0.0016401596 0.0016331343 0.005392491
0001c0 b3 54 5c 3c dc 6b e5 ba 12 e8 bd bb bc 88 fa 39
       0.013447928 -0.0017503458 -0.005795487 0.0004778559
0001d0 03 9d 43 bb cf f8 85 ba dc a4 19 3b b0 7c f3 3a
       -0.0029848225 -0.0010221245 0.002344421 0.0018576588
0001e0 2a 77 db 3b 24 e8 d5 3b dd 81 87 3c eb a1 c0 39
       0.006697555 0.0065279175 0.016541416 0.00036741732
0001f0 3b 5c a3 3b a0 0e 49 3c cc a7 3f bb ac 5d ad 3a
       0.00498536 0.012271553 -0.0029244302 0.0013226769
000200 2a f9 84 bb d6 2f 0b 3c a8 ea 8f 3b ec c4 8c 3b
       -0.004058023 0.008495292 0.004391987 0.004295936
000210 a1 07 29 3a 2f e5 49 ba 1f 88 91 39 12 80 c0 3b
       0.0006447975 -0.00077016925 0.00027757973 0.005874642
000220 29 ba 9b 3b 45 22 a8 3b 6e 80 9d bb 30 49 02 bb
       0.0047524166 0.0051310384 -0.00480657 -0.001988005
000230 a4 ac 58 3b 19 c8 8d 3a a8 29 c6 bb 6f 1f fc 3b
       0.0033061886 0.001081708 -0.0060474463 0.007694177
000240 9d a0 85 3b 9d 94 46 3b 2e 10 25 3c 7f a1 f3 bb
       0.0040779845 0.0030300983 0.010074658 -0.0074350233
000250 cd 45 9b ba b2 7b 0a 3b 32 a1 2f 3c 25 b2 a2 3b
       -0.0011846364 0.0021130857 0.010719584 0.004965084
000260 62 6b bd bb ec 69 06 3c 86 f1 3e 3b 60 bf 4f 3b
       -0.0057806233 0.008203965 0.0029135658 0.0031699762
000270 25 9a 42 3c ae 2f ae bb ad 97 87 bb 13 eb 85 bb
       0.011877571 -0.0053157425 -0.004137954 -0.004086861
000280 88 9d 98 bb d9 d4 0c bb 65 19 8d b9 f0 8d 81 3c
       -0.004657451 -0.0021489172 -0.00026912536 0.015814751
000290 46 00 51 bb 52 b5 a6 3a 65 5c 70 bb b4 66 27 3b
       -0.0031891032 0.0012718833 -0.0036676165 0.0025543394
0002a0 12 b2 2c 3c 68 66 88 3b 5e b3 26 3c 12 c9 4a bb
       0.010540502 0.0041625984 0.0101746 -0.00309426
0002b0 69 fe c2 3b cd ae a8 3b f7 0f 5f 3c 51 e4 6c 3c
       0.005950738 0.005147791 0.013614646 0.014458732
0002c0 31 d4 9a ba d5 7e 28 3c b4 1f cc 3a 54 df 7b ba
       -0.0011812506 0.010284145 0.0015573413 -0.00096081686
0002d0 0b 6f 56 3b 32 98 88 bb ce bd bd bb 40 51 f3 3b
       0.0032719995 -0.0041685337 -0.0057904487 0.0074254572
0002e0 47 93 df 3b 09 87 51 bb de 10 cf 3b 88 d2 f1 39
       0.0068229767 -0.0031971356 0.0063191494 0.0004612396
0002f0 c1 f0 92 3b 6b 3b aa 3a 79 8c aa bb 67 d2 1f 3c
       0.0044842665 0.0012987679 -0.005204734 0.009754754
000300 04 bb f3 b9 46 d4 17 3c 27 8b 07 3c f1 73 10 3b
       -0.0004648791 0.0092669185 0.008272923 0.0022041763
000310 ec 95 01 bb dd 91 d5 3a d9 d4 b3 39 00 eb af 39
       -0.0019773198 0.0016294081 0.00034300124 0.0003355369
000320 ba b2 ab 3b e7 dd 8e ba d9 35 a2 3b 90 52 ce ba
       0.0052398117 -0.0010899872 0.004950267 -0.0015741158
000330 da b2 64 3a 0e 66 1b 3b db 15 09 3c 5d 6b fd 3b
       0.0008724161 0.0023711952 0.008367027 0.007733746
000340 37 07 15 3c 64 4d 56 3b ac 49 24 3c a4 c3 99 3b
       0.009095958 0.0032699937 0.01002733 0.0046925116
000350 31 fb ec 3b cc c1 1d 3c 3e 8f 9e 3b 08 12 87 3a
       0.007232093 0.009628724 0.004838853 0.0010305056
000360 75 2c 43 3c 0e 39 3e 3a ef 75 4d 3b 25 35 f9 bb
       0.011912455 0.00072564266 0.0031350811 -0.0076052123
000370 fc 82 fd 3b 10 68 0e 3b 34 05 91 3a 8f b0 d0 ba
       0.007736562 0.0021729507 0.0011064173 -0.0015921759
000380 50 b5 c0 bb e6 3a c5 bb 5a d4 91 3a 9b dd 8f 3b
       -0.005880989 -0.006018984 0.0011125908 0.004390431
000390 50 61 f3 ba fa d8 c7 b9 e2 0f 78 3b 1f 3d 38 ba
       -0.001856843 -0.00038117898 0.0037851264 -0.0007028151
0003a0 49 51 09 3b 47 f4 d3 b9 bf 08 ee 39 81 81 a4 3b
       0.002095299 -0.00040427057 0.00045401414 0.005020321
0003b0 81 50 e1 3b 86 63 1d 3c 5f cc fb 3b a6 7e b8 ba
       0.006876052 0.009606248 0.007684275 -0.001407583
0003c0 29 9a 46 3c 35 ee 38 3c 92 5d 86 3b 32 ff c5 39
       0.012121716 0.011287262 0.00410051 0.00037764903
0003d0 e8 0e 90 3b 75 47 d4 bb 83 d6 c3 3b 79 cc 05 bc
       0.004396308 -0.006478245 0.0059764995 -0.008166426
0003e0 b2 33 e2 3a 25 dc 47 bc a8 6f 99 3a 6a fc 1a 3c
       0.0017257838 -0.012198483 0.001170625 0.009459594
0003f0 13 87 b0 bb ed 7f 19 bb 7d 71 99 3b 8b 92 c7 bb
       -0.005387196 -0.0023422197 0.0046827183 -0.0060904673

network_body._body_endoder.seq_layers.2.weight f4 [256, 256]
000000 e2 82 aa 3b 5c f4 4a bb c2 f1 28 3d 60 f5 28 3d
       0.0052035907 -0.0030968403 0.041246183 0.041249633
000010 db bb 81 bc 04 df 63 3c 02 53 15 bd 7f 39 eb bd
       -0.015836647 0.013908152 -0.036456116 -0.11485576
000020 28 64 69 bc 10 fe 51 3c c8 7d f1 bc 96 0d e9 3c
       -0.0142450705 0.012816921 -0.029478922 0.028448861
000030 8f 6b d8 bc 16 30 d0 bb 7f 57 1d 3e d2 da e6 3c
       -0.026418475 -0.0063533885 0.15365408 0.028180514
000040 d8 96 36 3d 5a 6c d6 bd ff 3f a6 bd 22 22 83 3d
       0.04457745 -0.10469885 -0.08117675 0.06402995
000050 a5 a4 31 3d 25 a8 91 3d a5 96 e4 ba 19 71 96 3d
       0.043369908 0.07112149 -0.0017439915 0.073457904
000060 79 6d c7 bd a2 5a f4 bd 29 cb a9 bc f2 bf bd 3d
       -0.09737677 -0.11931349 -0.020726757 0.09265126
000070 c7 e8 b6 bc c9 b5 9d 3d 8e da 54 3c 6b 21 70 3d
       -0.022327794 0.077006884 0.012991561 0.05862562
000080 a1 77 1e bd de d0 87 b9 7f 2d 84 bc dd a9 86 bc
       -0.038688306 -0.00025904825 -0.016134975 -0.016438419
000090 fd 1e 56 3d 70 06 d7 bb c4 36 b1 bc 8a 57 3a 3d
       0.052275646 -0.0065620467 -0.02163256 0.04549364
0000a0 bb 85 18 be 8a d8 57 bb ae ac 5e 3e 5e 0a 78 bc
       -0.14894764 -0.0032935464 0.2174556 -0.0151391905
0000b0 35 d5 c3 3c d0 99 89 bd ec 81 bd 3d e2 a6 0d 3d
       0.023905376 -0.067187905 0.09253296 0.03458298
0000c0 98 74 1e 3d 62 3e ac 3d 35 74 09 3e 72 81 97 3d
       0.03868541 0.08410336 0.13423236 0.073977366
0000d0 97 6d ea 3b 34 44 8d bd e2 53 b2 bc b6 9d be 3c
       0.0071541774 -0.06897774 -0.021768514 0.023268562
0000e0 47 ce 7d bb 47 2c 2b 3d 59 46 4c bc 3b 2a b9 3d
       -0.0038727687 0.041790273 -0.012467944 0.09041258
0000f0 aa 77 81 3b eb c1 a0 bd f1 ca 5b bd 51 e1 7c bd
       0.0039510326 -0.07849487 -0.053660337 -0.061738316
000100 47 83 16 3e 95 4e e3 3d 3f bf 7a bd 5c 5a 52 3d
       0.14698516 0.11098973 -0.061217543 0.051355705
000110 a5 22 2a 3d dd d3 46 3d 51 1a f8 bc a8 3e 94 bd
       0.041536946 0.048541892 -0.030285986 -0.07238513
000120 94 80 bb 3c c0 52 21 bd 91 54 a1 3b 5d 8a ad 3d
       0.02288846 -0.039385557 0.004923411 0.08473656
000130 7c 28 39 bd 4f d6 44 bd ec be 86 bd d4 06 3e 3d
       -0.045204625 -0.048055943 -0.06579384 0.04639323
000140 4c 59 5d 3b 52 d8 16 bd 56 47 51 3d a9 40 7a bd
       0.003377515 -0.036827393 0.051093422 -0.06109682
000150 ce 6c 83 bd 37 a6 9d 3d 30 38 84 3d 00 5c 17 bd
       -0.06417237 0.076977186 0.064560294 -0.036952972
000160 31 16 68 3d 52 58 60 3d e4 6d 0a 3d 3c 11 39 3d
       0.05666179 0.05477173 0.033796206 0.04518245
000170 46 f2 4c be dc 1d 91 bd c6 11 c3 bc f4 5c 47 3b
       -0.20014295 -0.07085773 -0.023812186 0.0030420395
000180 71 08 c7 3c 52 00 55 bc 11 0d 39 bd 35 e8 36 bd
       0.024296017 -0.013000565 -0.045178477 -0.044655044
000190 d2 4e 21 3d 3d 63 ae bd d0 52 17 3d 4d 5b 6c 3c
       0.03938181 -0.08515022 0.03694421 0.014426065
0001a0 22 16 91 bd 1b 7f cf 3d c2 ac 6b bd b4 49 af 3c
       -0.070842996 0.10131665 -0.0575378 0.02139745
0001b0 14 f3 34 bd 2e 11 00 3d 8e 84 20 bd 87 fb 33 be
       -0.04417713 0.031266384 -0.039188914 -0.17576419
0001c0 fb 23 4c bd b7 d1 4d 3d b3 ab 41 3d c1 d2 4a 3d
       -0.049839 0.050248828 0.047282886 0.049517397
0001d0 c8 39 22 3d 6e ca 20 3c 7f e4 9a bc 99 50 2c 3d
       0.039605886 0.009813888 -0.018907784 0.04206905
0001e0 66 78 3f bd b5 2d b1 3d 82 14 b8 bc a9 a0 22 3d
       -0.04674568 0.08651296 -0.022470716 0.039704
0001f0 d6 0c 6d 3c cd d1 7a bd de f1 f3 bd 85 ab 35 bc
       0.014468392 -0.061235238 -0.11911367 -0.011088257
000200 d0 e8 7a bd a7 80 3a bd 2e 5c 92 3c 98 5f 6b bd
       -0.061257184 -0.04553285 0.01786622 -0.057464212
000210 f4 62 34 3d 4e a7 09 bd 7d 58 44 bd cf 2c bb bc
       0.04403968 -0.03360682 -0.04793595 -0.022848515
000220 8f 5c 6b bd 98 04 0a 3c 08 9b fd 3c b7 70 45 3d
       -0.057461318 0.008423947 0.030957714 0.048203196
000230 73 e7 2c 3d cd 2e 39 bd e2 0e ab bc 65 dc be bc
       0.042212915 -0.04521065 -0.02088112 -0.023298452
000240 61 b9 90 3d c0 3b ca bd a0 b3 dc 3c 57 7c 0c be
       0.07066608 -0.09874678 0.02694112 -0.13719307
000250 7d c9 10 3d cc b7 84 bc 38 c9 c1 3d 1e ae 9d 3d
       0.035348404 -0.016200922 0.094622076 0.07699226
000260 e7 54 f6 3b 29 f6 a5 3d 78 a8 a6 3c aa 1a ae 3d
       0.0075174454 0.08103592 0.020344004 0.085011795
000270 ca 54 44 3d a2 9a ee 3d fd 56 02 be 7d 98 1f 3d
       0.047932424 0.116505876 -0.12728496 0.038963784
000280 e2 3c 62 bd c2 8f 23 3d 92 e0 1c bd 81 02 82 bd
       -0.055233844 0.03993202 -0.038300104 -0.06348134
000290 4d 99 29 3d 63 85 17 bd 5d 17 9e 3d 62 75 af bd
       0.041405965 -0.036992442 0.077193 -0.08567311
0002a0 5e 72 3a b9 e2 f8 39 bd f0 9e 27 bd 49 aa 8e bd
       -0.00017780947 -0.04540337 -0.04092306 -0.06966073
0002b0 d2 57 56 bd 52 a5 16 3c 8e b1 8e bb 9e 66 eb 3c
       -0.052329846 0.009194689 -0.0043546623 0.028735455
0002c0 b2 a6 99 bb f9 53 d8 3b a4 a1 00 3e f1 14 5f 3d
       -0.004689061 0.006601807 0.12561661 0.05446333
0002d0 4e 8c 20 bd 50 58 64 bd 34 20 b6 3c cd 5c ae bc
       -0.039196305 -0.055748284 0.022232153 -0.021284485
0002e0 9e 7a 54 3d 60 67 8b bc 65 4e 05 3c 90 37 99 3c
       0.05187475 -0.017017066 0.0081363665 0.018703252
0002f0 cf a9 b1 bc 93 d7 36 3c c5 d3 8b bd 86 1f 0c bd
       -0.021687416 0.011159795 -0.06827501 -0.03420975
000300 c1 15 b2 bc fd 8b 0f bc 81 f8 7e 3d e8 7a be 3d
       -0.021738889 -0.008761403 0.06224871 0.09300786
000310 45 5d 14 3e 12 fd 21 3d 83 a4 51 3d a7 54 50 3d
       0.14488705 0.039547987 0.05118228 0.05086198
000320 08 64 8a bd 54 37 26 bd 5f 62 83 3d 6a 9f 27 bd
       -0.06757361 -0.04058011 0.06415247 -0.040923513
000330 d8 87 71 bd a2 2d 13 3d 5c e3 51 3b 35 25 03 3d
       -0.05896744 0.03593219 0.0032026386 0.032017905
000340 6f b4 14 3d 82 09 51 3c be 55 35 3d 3d 60 c0 bc
       0.036304887 0.0127586145 0.044271223 -0.02348339
000350 e5 4b 2c 3d 91 d3 93 3c c8 8e 92 bd 7a 93 33 bd
       0.042064566 0.018045219 -0.071561396 -0.043841816
000360 11 b7 9e 3c 6b ba f2 bd c4 0f e9 bd fa 07 3f bd
       0.019374402 -0.11851963 -0.1137996 -0.046638466
000370 83 13 12 3d d8 17 b8 3d a3 b7 4b 3d 54 b0 7f 3c
       0.03566314 0.08988923 0.049735676 0.015606005
000380 13 b6 b1 bc 03 bb 27 bc a5 d8 b0 3d 69 db a4 3a
       -0.021693265 -0.010237458 0.08635072 0.0012577596
000390 31 94 db bc cf c4 1e 3d 32 93 30 3c 7c 37 f6 bd
       -0.026804062 0.03876191 0.010777282 -0.120223016
0003a0 da 88 81 bb 01 b5 88 bd 6a d3 8d bd 57 2a 2e 3e
       -0.0039530816 -0.06675149 -0.0692509 0.17008339
0003b0 07 d2 80 3d 80 f1 a2 bd 41 2d 93 bd 5e a8 d3 3c
       0.062900595 -0.07956219 -0.07186366 0.02583712
0003c0 72 17 b8 3d 01 d5 14 3d d5 5d 2f bd a9 7f 94 3d
       0.08988847 0.03633595 -0.042814095 0.07250912
0003d0 6d a2 30 be 82 57 1a be 9b 4f a7 bd 7c f6 cb 3c
       -0.1724946 -0.15072444 -0.081694804 0.024897806
0003e0 5e 52 b2 bc c2 fb 00 3c 13 5c 9b 3c b4 f8 90 3c
       -0.021767791 0.007872524 0.018964803 0.017696716
0003f0 01 54 83 bc e1 3c 35 3d 6a 6e 71 3a 4b b8 2c bc
       -0.016031267 0.04424751 0.00092098734 -0.010541986

network_body._body_endoder.seq_layers.2.bias f4 [256]
000000 5a be ef 3b d3 52 fd bb 26 3b cb bb af 6c 31 bc
       0.007316393 -0.0077308207 -0.0062021194 -0.010829135
000010 b0 5d a6 3b 2b 5a 56 3c c2 84 04 bc f2 eb ab 3b
       0.0050770864 0.013083021 -0.008088293 0.0052466327
000020 c7 4b 4e 3c c8 32 3f ba 8d 54 6b 3b 52 79 a0 3b
       0.012591309 -0.0007293639 0.003590855 0.004897275
000030 be 6f e3 3b d3 a7 5e bb 20 90 1b 3c ae af 48 3b
       0.006940811 -0.0033974543 0.009494811 0.0030622291
000040 ed 93 9c 3b ab da 03 bc 5d 72 63 3a 73 44 f1 3b
       0.0047783763 -0.00804774 0.0008676404 0.007362896
000050 9b fe 99 3a c4 1c 0c 3c 56 7d 07 ba 41 61 67 3b
       0.0011748852 0.00855178 -0.0005168518 0.003530577
000060 f0 ff ce bb 81 04 04 3c f1 ad 29 3c 8a 7a 92 3b
       -0.006317131 0.008057714 0.010356412 0.004470174
000070 bb 3f e5 3b 0b 4a ed b9 99 70 35 bb 2e 03 73 bb
       0.0069961227 -0.0004525933 -0.0027685522 -0.0037080753
000080 06 e8 80 3a aa bc b1 bb 1d d6 af 3b 4d c1 ae bb
       0.0009834773 -0.005424102 0.0053661005 -0.005333102
000090 c7 51 72 bb 8d 7b 0a 3c 1e 12 91 bb 18 28 19 3c
       -0.0036975013 0.008452308 -0.0044272086 0.009347938
0000a0 10 38 d2 bb bf 1a 10 bc a4 ab 9b ba bc 4a f4 bb
       -0.0064153746 -0.008795439 -0.0011876714 -0.007455198
0000b0 46 3a 92 bb c0 43 00 3c ec 54 eb b9 59 ce a3 bb
       -0.004462513 0.007828653 -0.00044885965 -0.004998964
0000c0 0b 2c 3a 3a 4e 44 45 bb f4 ff 0c 3b 27 1f 11 3c
       0.00071019 -0.0030100527 0.0021514865 0.008857525
0000d0 32 c5 b2 3a 8c 55 bf bb 49 07 8a 3c 76 a5 78 ba
       0.0013639091 -0.0058390554 0.016849177 -0.0009485105
0000e0 f9 16 5a bb 62 01 cd bb a9 93 52 ba 20 57 9d 3b
       -0.0033277853 -0.0062562684 -0.00080328673 0.004801646
0000f0 5b bb c5 3b 4d 80 34 3c 8b 93 7c 3a a7 a0 10 bb
       0.0060342974 0.011016917 0.0009635023 -0.0022068413
000100 dc 60 84 3b e6 7e 83 3b ee 6d f5 b9 43 04 8c bb
       0.004039867 0.00401293 -0.00046811946 -0.004272969
000110 26 8c 67 3c 44 4e 2a 3b 9d b8 8a 3b 75 f6 dc 3b
       0.014132535 0.0025986591 0.0042334334 0.006743247
000120 db 16 31 3b 8a a2 d6 ba 02 8f 40 3c c8 fa b2 3b
       0.002702168 -0.0016375345 0.011752846 0.0054620244
000130 3b 70 39 3c 2a e2 d7 bb dc 52 ed 3a 32 11 c3 3b
       0.011318262 -0.00658824 0.0018106359 0.0059529776
000140 d8 fb a6 bb a2 fb 23 bc f6 9f 42 3b 82 8c 36 bb
       -0.00509594 -0.010008724 0.0029697395 -0.0027854745
000150 0b d4 f5 3a ea d2 16 3c a1 8c 40 bb 14 53 d9 3b
       0.001875521 0.009205559 -0.0029380696 0.006632218
000160 61 a3 10 3c ba 6b 72 3a 3e 30 bf 3b 3d d1 01 bc
       0.008828015 0.000924762 0.0058346083 -0.007923421
000170 f4 ca a4 bb 3f 4f 01 3c 9d ed 86 ba 75 43 cb 3b
       -0.0050290767 0.007892429 -0.0010294203 0.00620311
000180 a4 0d 1a 3b d4 5a 8c 3a 8a 2c de 3b fe 4a 11 bc
       0.0023506666 0.0010708221 0.006780212 -0.008867977
000190 cf 53 1a bc 8a e8 23 bc f4 14 01 3c c6 2b 9b bb
       -0.009419396 -0.010004172 0.007878531 -0.004735443
0001a0 f9 65 1f bc c0 47 8b bb 12 2c a9 bb 6b 72 02 bc
       -0.009728902 -0.0042504966 -0.0051627243 -0.00796185
0001b0 79 70 af 3b 7e cf 21 bc 29 ad 31 3c d4 77 c0 3b
       0.005353984 -0.00987613 0.010844507 0.0058736596
0001c0 92 26 65 39 35 f7 20 bb 24 a7 69 bc 51 3a e9 bb
       0.0002185351 -0.002456141 -0.014261041 -0.0071175476
0001d0 54 30 11 3a a4 aa 0d bc d3 fe 88 3a 99 cb d5 bb
       0.00055385125 -0.008646641 0.001045192 -0.006524515
0001e0 30 a1 d2 3b ec 5c 0e 3c a1 f3 9b bb d3 ff 96 ba
       0.0064279065 0.0086891465 -0.0047592674 -0.0011520333
0001f0 50 27 af bb 95 a2 85 bb 44 49 3a bc 38 a6 c2 3b
       -0.0053452626 -0.004078219 -0.011370007 0.005940225
000200 34 d5 21 3b 0c cb b2 3b 35 91 35 3a 27 2d a1 3a
       0.002469373 0.005456334 0.00069262396 0.0012296782
000210 ce 72 15 bc c3 7a d2 3b 57 42 8a bb 7b c5 83 3b
       -0.00912161 0.0064233257 -0.004219334 0.0040213442
000220 cc 2e 4c 3c e9 43 ca 3b 0e 86 d0 3b 18 b4 eb 3b
       0.012462329 0.0061726463 0.006363637 0.0071930997
000230 14 4f bb bb bd 15 29 bc d6 2f 2e 3c f3 da e1 3b
       -0.005716214 -0.010320124 0.010631522 0.006892556
000240 8c c4 8a 3a f7 da 91 bb 64 00 7b 3c 9f ac 0c 3b
       0.001058714 -0.0044511515 0.015319917 0.0021465195
000250 28 e6 4c 3c ec 1d 59 3c 0f ae 4b 3b 7b 2c a8 bb
       0.012506045 0.013251763 0.0031079089 -0.0051322556
000260 58 18 e0 3b e4 5d e1 3b 03 d3 83 3b c5 fd 3c 3b
       0.0068388395 0.0068776477 0.0040229573 0.0028837782
000270 6c e6 94 3b 70 a2 ba 3b b8 17 3e 3c b3 ae 11 bc
       0.00454407 0.0056956336 0.011602335 -0.008891749
000280 57 b7 51 3b 73 9c fc 3b d9 57 6b bb 80 06 a4 bb
       0.0032000148 0.00770908 -0.0035910516 -0.0050056577
000290 8c 99 62 bb 98 bb 06 3c d9 4f 3e ba bd 64 f6 3b
       -0.0034576384 0.008223437 -0.0007259823 0.007519333
0002a0 56 61 1b 3a 34 a4 a9 3a 2f d8 2d bc 31 1e ff 3a
       0.0005927285 0.0012942613 -0.010610624 0.0019463954
0002b0 b6 12 88 bb 1f b9 99 ba a6 d1 d8 ba 48 e2 0b bb
       -0.004152621 -0.0011728144 -0.0016541972 -0.002134459
0002c0 f1 34 df ba dd 28 9e bb 7f 1f 5d 3b f5 58 09 3c
       -0.0017029328 -0.0048266486 0.0033740697 0.008383025
0002d0 d9 73 3c 3b 03 9f 84 3b 58 c3 a6 3a 3a 96 98 bb
       0.0028755574 0.004047276 0.0012723012 -0.0046565803
0002e0 00 60 11 3c 01 d7 cc 3a cd 58 25 3c 87 21 50 bc
       0.008872986 0.0015628041 0.010091973 -0.012703306
0002f0 1f a7 0f bc 22 84 b7 3b 72 ec 0d 3c 98 46 ed b9
       -0.008767872 0.0056004683 0.00866233 -0.0004525676
000300 f4 2c f6 3b d4 8d 2e ba f3 3b 08 bc d2 7d ab 3b
       0.007512683 -0.0006658707 -0.008315074 0.005233505
000310 90 8d ed bb 78 e4 3d 3b 13 ca 26 3c c4 ad 32 3c
       -0.0072495416 0.002897529 0.010180014 0.010905687
000320 5a 79 29 bc af ff 9a bb a1 29 61 bb 45 e2 15 bc
       -0.010343874 -0.004730187 -0.0034357088 -0.009148185
000330 3e b4 f4 3a 4d f1 eb 3b ad 44 3d b9 7f d6 1a 3c
       0.0018669439 0.007200396 -0.00018050028 0.009450554
000340 72 eb 9f 3b ae 8a 00 bc 1b 17 4a 3c 36 d8 0b 3b
       0.004880362 -0.007845564 0.01233461 0.0021338589
000350 f8 de ec bb a2 cb 48 bc 55 76 01 3c 05 3d 8e 3b
       -0.0072287284 -0.012255581 0.007901748 0.00434077
000360 07 a3 2f 3c 42 e1 c3 39 f2 55 c5 bb 0c a5 08 3c
       0.010720021 0.00037361128 -0.0060222084 0.0083401315
000370 9e 5a b1 3b 84 c0 7c bb 27 e4 78 3b 7f ec 9a bb
       0.0054124137 -0.0038566897 0.0037977786 -0.0047278996
000380 97 c4 77 bb 41 5b 04 3c a5 0e d1 bb 6d 45 97 3b
       -0.0037806386 0.008078397 -0.0063799196 0.0046164305
000390 cc ca 9b 3b c3 f5 9a 3b e8 42 ac bb e2 c7 fe 3a
       0.0047544 0.004729004 -0.0052569993 0.0019438232
0003a0 d4 e0 eb 3b 56 62 15 3c 49 a4 e9 ba 28 90 6e 3b
       0.0071984325 0.009117683 -0.001782545 0.0036401842
0003b0 e3 f1 18 3c ca 83 db bb b3 c0 0f bc 98 29 11 3c
       0.009335014 -0.00669906 -0.00877397 0.008860014
0003c0 bc 66 99 bb db 6e ac 3b 4c 6d 41 3b e6 a4 70 bb
       -0.0046814363 0.0052622384 0.002951461 -0.003671938
0003d0 98 0f 5c bb 5a 60 d7 bb 88 ff 16 3b 82 e3 c0 3b
       -0.003357863 -0.0065727653 0.0023040492 0.005886496
0003e0 19 cf 5f 3b 7b f0 56 bb ae ad 9c 3a 09 6d 76 ba
       0.003415054 -0.0032797146 0.0011953616 -0.0009400403
0003f0 61 bb c5 3b d8 4b a1 3b 55 c4 75 3c d2 28 15 3c
       0.0060343 0.0049223714 0.0150004225 0.009103971

action_model._continuous_distribution.log_sigma f4 [1, 3]
000000 99 b3 04 3b 39 0d e2 39 6a cb bb 3b
       0.002024865 0.0004311593 0.005731036

action_model._continuous_distribution.mu.weight f4 [3, 256]
000000 d2 e8 67 bb 10 92 be 3a 43 81 80 3c cf f0 1a 3a
       -0.0035386574 0.001453938 0.015686637 0.0005910517
000010 1a 39 ad bc 17 e1 3f bc 96 c6 2f bc fd aa 93 3b
       -0.021145392 -0.01171138 -0.010728499 0.0045064674
000020 99 2a 20 bc eb 79 3a bc f0 a7 58 3b bb 25 99 3b
       -0.009775781 -0.011381607 0.0033059083 0.0046736873
000030 24 87 48 bc ac 82 96 bc aa 05 ca bb ca 2d 64 3c
       -0.012239251 -0.018372856 -0.006165226 0.013926933
000040 97 2a 9f 3c f8 a4 8a 3c 0c 3c c9 3c c5 e2 6a ba
       0.019429488 0.016924366 0.024564765 -0.0008960183
000050 8f f9 b0 bb ed 4b 47 3c b7 18 9c bc fa 6a 63 bc
       -0.0054008435 0.012164098 -0.019054754 -0.013880486
000060 61 25 82 3b 0a c4 95 bc dd cb 29 bc 44 05 1c 3c
       0.003971741 -0.018281955 -0.010363546 0.00952274
000070 ba a7 a9 3b ce cd 82 3c 8a a4 8f bb 69 23 d7 3b
       0.0051774653 0.015967276 -0.0043836283 0.0065655005
000080 05 2a ac 3c 46 2e 34 3c b0 16 46 3c 49 e2 93 3c
       0.02101613 0.010997361 0.01209037 0.018052237
000090 a1 a5 f3 bc d3 5b 9c 3b 6c eb 0c bc 89 20 e4 bc
       -0.029742064 0.0047716885 -0.008601051 -0.027847545
0000a0 2d 9b 9e ba bc 9a ff bb 60 22 b1 bc a5 e5 05 bc
       -0.0012100689 -0.007800428 -0.021622837 -0.008172427
0000b0 2f 0c a6 bc ed d0 b6 bb 58 e8 c1 3b 8b f7 09 bc
       -0.020269481 -0.005579105 0.00591759 -0.008420835
0000c0 8a 24 1f bc 22 d2 8d bb d3 67 89 3c ba cd 22 bb
       -0.009713301 -0.0043280283 0.01677314 -0.002484186
0000d0 80 49 96 bb 73 a9 78 bc e1 4e 33 bc 4e 82 81 3c
       -0.0045863986 -0.015177119 -0.010944099 0.015809204
0000e0 b6 27 45 bc e7 42 d3 3c 3f a3 f7 3b b7 8d cb b9
       -0.012033394 0.025788737 0.0075573022 -0.00038824763
0000f0 c5 76 dc 3b f3 47 88 3c af b7 e9 3b 00 92 eb 3a
       0.0067280256 0.01663587 0.0071324925 0.0017972589
000100 2d af 65 bc 80 70 52 3c d9 62 47 3c 70 94 f9 ba
       -0.014018816 0.012844205 0.012169563 -0.001904143
000110 11 ee 99 bb b2 6f c3 3c 40 06 06 bc 9b 1c 15 bc
       -0.004697569 0.023856971 -0.008180201 -0.009101058
000120 08 91 b4 3c 91 62 7b bb e9 6d 66 bc c4 bd 47 3b
       0.022041813 -0.003835831 -0.014064291 0.00304781
000130 55 1b 0b bb 12 d0 12 bb a8 3b 13 3c ff 2a 1f 3b
       -0.0021226008 -0.0022401852 0.008986391 0.0024287102
000140 19 ef 0b bc 00 7f c5 3c f4 60 96 bc e1 cd 02 bd
       -0.008540892 0.02410841 -0.018356778 -0.031934623
000150 de 8f da 3c 3a e5 01 3c 57 e7 67 3c e2 3d 8d 3b
       0.02667993 0.007928187 0.014154277 0.0043103555
000160 56 4c 62 bc a6 a5 9c bc 7f dc 87 3b d2 a7 e2 3b
       -0.013812145 -0.019121956 0.004146158 0.0069169784
000170 bf 99 79 bc 2c ba a7 3b f2 83 3f 3a b5 40 fb bb
       -0.01523441 0.005118629 0.0007305733 -0.007667626
000180 6d 46 3f b9 4a 54 d3 3b 1b 1b 4c 3c ac 0a e3 3a
       -0.00018241415 0.006449257 0.012457634 0.0017321906
000190 a2 10 2c 3b 6d a9 a9 bb 32 fc 81 bb 64 54 22 3c
       0.002625503 -0.005177668 -0.0039668316 0.009907816
0001a0 71 b1 9d 3b f7 6f f5 3b 0a 61 6c 3b ac 70 e0 bb
       0.0048124124 0.007490154 0.0036068582 -0.006849369
0001b0 09 09 88 bb 7f 61 81 3b 5c c1 7e bb 79 fb 57 3c
       -0.0041514677 0.00394839 -0.0038872575 0.013182514
0001c0 be c8 85 3b d0 e1 82 3c e8 34 35 3c cb 74 51 bc
       0.004082768 0.015976816 0.011059977 -0.012784193
0001d0 31 c0 62 bc 48 2c 05 3c e8 46 e2 bc 93 3f 60 3c
       -0.013839767 0.008128233 -0.027621701 0.013687032
0001e0 f8 d3 55 bc 5d bf 69 3c 1f c1 97 3c 9d 61 0f 3d
       -0.013051026 0.014266816 0.018524705 0.0350052
0001f0 3b 12 00 bd aa c2 ef bb 5e ef 89 3b cb da 6e 3c
       -0.031267386 -0.007316907 0.004209443 0.0145785315
000200 54 30 8f bb 8d 9c c3 bb 38 33 c7 3b cf 3a a0 bb
       -0.004369775 -0.00596959 0.006079104 -0.004889823
000210 53 48 a3 bb 5c 8d 94 b9 b4 64 0b 3c cc 63 35 3c
       -0.004982987 -0.0002833408 0.008507896 0.011071157
000220 6c 7b d7 3b 15 84 81 3b 3b 2d 61 3c 74 b1 d1 bc
       0.0065759923 0.003952513 0.013743694 -0.025597312
000230 8d 17 7c 3c 6f 03 34 bb 4c 08 61 3a 35 f0 df bb
       0.015386474 -0.0027467867 0.0008584305 -0.006834055
000240 fd 4b a1 3b a1 18 c9 3a bb 0b a0 bc 01 3b ee 3c
       0.0049223886 0.0015342423 -0.019536844 0.02908087
000250 e2 0c 93 bc b1 17 e0 bc 92 da 95 bc e0 dd 08 3c
       -0.017950479 -0.027355047 -0.018292699 0.00835368
000260 e1 60 42 bc a2 bd 3f 3b 13 eb 19 3c 9e 9d 46 bc
       -0.011863918 0.0029257317 0.009394425 -0.01212254
000270 bc 8d 3f bb 27 81 9e bb a0 bb 66 bb 97 4b 29 bc
       -0.0029228767 -0.0048371735 -0.0035207048 -0.010332963
000280 92 0f a0 bb 75 72 03 3c 30 13 86 b9 0d fd bb 3c
       -0.0048846686 0.008022894 -0.00025572767 0.022947812
000290 f8 93 c7 ba d0 28 a7 bc f3 c7 1e bc 24 7a 1f ba
       -0.0015226593 -0.020405203 -0.009691226 -0.0006083569
0002a0 08 0d 23 3b a0 bc 91 bc 9d 3f c9 b9 47 04 ca bc
       0.0024879593 -0.017790139 -0.00038385103 -0.024660243
0002b0 f7 48 be 3c e5 7a 31 3b 95 e5 75 3c 5f 11 ab ba
       0.023228152 0.0027081307 0.01500835 -0.0013051442
0002c0 d4 b8 e1 bc 8d 2a f4 3b dc db ff bb 01 e5 df bc
       -0.027553953 0.0074513615 -0.0078081917 -0.027330877
0002d0 e0 ad fd bb a7 b0 30 3c e6 05 e8 bb b8 91 95 bc
       -0.007741675 0.010784305 -0.0070807813 -0.01825796
0002e0 0e e4 59 bc e0 fc 13 3c 87 14 43 bc 5d 06 91 3a
       -0.013299001 0.009032458 -0.01190675 0.0011064518
0002f0 3c a4 b1 bc b9 81 ad bc 69 b1 62 bb 60 cb 12 bc
       -0.021684758 -0.02118002 -0.0034590608 -0.008959621
000300 c4 8f ad 3c 2f 85 ac 3c 28 df 68 3c 91 66 b0 3c
       0.021186717 0.0210596 0.014213361 0.021533282
000310 d6 b4 14 bc 6a a6 89 3c c5 77 53 bb e9 f3 9b ba
       -0.009076318 0.016802985 -0.0032267433 -0.0011898252
000320 d3 8a 56 3c d3 46 83 bc 51 42 be 3a d0 83 92 bb
       0.013094622 -0.016024983 0.0014515613 -0.0044712797
000330 8e 41 90 3a c6 c5 8f 3c 75 36 ca 3b 49 0d 8c bc
       0.0011005865 0.01755036 0.0061710426 -0.017096179
000340 21 56 b7 3a 92 1e 43 bc de a7 ee ba c3 9b 5b 3c
       0.001398746 -0.011909144 -0.0018207987 0.013403836
000350 4c 04 a2 bb e4 28 eb 3b 55 4a 92 3b a2 9a 52 bc
       -0.00494436 0.0071765054 0.0044644275 -0.01285425
000360 9a 3e d2 bb 86 cc e2 bb 82 e2 a1 bb 72 0e 3a 3c
       -0.006416154 -0.0069213537 -0.004940332 0.011355983
000370 b4 78 af bb 7a 7e af bb c9 a4 65 ba c5 91 d7 bb
       -0.005354965 -0.0053556534 -0.00087602116 -0.0065786564
000380 7a 54 20 3c 10 f5 12 3c af 8d 39 bc 31 2e 80 3c
       0.009785766 0.00896956 -0.011325284 0.015647026
000390 a4 51 57 3c ba 7c 96 3b 8a 82 84 3c 54 87 29 bc
       0.013142023 0.0045925053 0.016175527 -0.010347206
0003a0 06 8c 5e 3a fd a8 fa bb f0 66 4c 3c 34 a1 96 bb
       0.0008489493 -0.0076495395 0.012475714 -0.0045968536
0003b0 2f 0f b8 bb e2 14 9f bb 5b f1 83 3c a3 a3 01 bc
       -0.0056170444 -0.0048547843 0.016106298 -0.007912549
0003c0 0c 7a f6 bb 38 5e 56 bc bf 1a 01 3d b3 0b ba 3b
       -0.0075218733 -0.013083987 0.031519648 0.005677664
0003d0 3d 01 35 bb b9 84 12 3b 2d 53 4e 3c f6 5a 68 3b
       -0.0027619146 0.002235694 0.012593073 0.0035454608
0003e0 28 2d 42 bc fb 00 63 bc f0 e4 86 bb f6 a2 5d bc
       -0.011851586 -0.013855214 -0.004116647 -0.013527622
0003f0 13 79 20 3c c3 a6 11 3d a0 91 51 bb e4 83 bb 3b
       0.009794491 0.035559427 -0.0031977668 0.0057225097

action_model._continuous_distribution.mu.bias f4 [3]
000000 18 24 77 3a 61 ae 9f 3b 68 d5 b2 bb
       0.00094276806 0.0048730825 -0.005457569

action_model._discrete_distribution.branches.0.weight f4 [7, 256]
000000 11 c8 e4 bb 3f 8c 28 3c 65 7d 7a bc 68 62 f2 3a
       -0.0069818576 0.0102873435 -0.015288685 0.0018492462
000010 4c 89 85 3b a4 76 48 3b 5f d0 df bb 6e 67 c6 bb
       0.004075205 0.0030588293 -0.0068302597 -0.0060548102
000020 c0 8d f5 3b 0b 85 9b 3c 59 f2 e5 bb 9b 7a d1 3b
       0.0074937046 0.018984338 -0.0070174155 0.0063927895
000030 9d a8 71 bb 47 8e 1c 3b ea cd 63 3a 08 43 5d bc
       -0.0036874183 0.0023888515 0.00086900464 -0.013504751
000040 e2 6d ed 3a 80 f6 22 bc 02 d9 34 bc 34 31 d8 3a
       0.0018114413 -0.0099464655 -0.011038067 0.0016494156
000050 6f 38 6f 3a 6f 61 91 3a 7a f2 ee 3a 45 d1 a7 3b
       0.0009125536 0.001109166 0.0018230223 0.0051213824
000060 89 f8 21 ba ea b3 e7 3b 9d 92 14 3c 09 28 00 bb
       -0.0006178697 0.007071008 0.009068158 -0.0019555113
000070 ea bd 0c bb 6e b6 c1 bb d0 c5 eb 3b 7d 09 1b bc
       -0.0021475502 -0.00591164 0.007195212 -0.009462711
000080 e6 4c 20 bb 9d fd f5 bb 27 ce 8c bb 84 83 49 3c
       -0.0024459898 -0.0075070397 -0.004297036 0.012299422
000090 7f 8c 55 bb 1f 2c 48 bc 17 af dd 3a 5c 92 36 bb
       -0.0032584963 -0.012217551 0.0016913143 -0.0027858233
0000a0 71 ab 0f 3c b2 ea 1c bc 1f 0c 82 3b ea d4 af bb
       0.008768902 -0.00957744 0.00396873 -0.0053659575
0000b0 c5 fa 94 3b 5f 7f 80 bb f1 82 a1 ba 5c 0b 25 ba
       0.0045464956 -0.003921434 -0.0012322349 -0.0006295943
0000c0 95 6c 14 3c 24 27 b5 3b ec c4 a5 3b 44 47 eb 3b
       0.009059091 0.0055283476 0.0050588753 0.0071801264
0000d0 9c 35 63 bb 26 41 46 bc e6 6a 79 3b 77 77 8f bc
       -0.0034669405 -0.012100494 0.0038058101 -0.01751302
0000e0 11 4f 55 bc fe 57 8b ba 27 a4 21 bb 89 ec 6d 3b
       -0.013019339 -0.0010631082 -0.0024664493 0.0036304316
0000f0 4e 7e b7 3b 7c 09 90 3c 1d 2c 8d bc 98 f9 2e bc
       0.0055997735 0.017582648 -0.017232949 -0.010679625
000100 a5 44 d8 3b 27 96 49 bc a6 90 18 bc fe 91 31 3b
       0.00659998 -0.0123038655 -0.009311831 0.0027095075
000110 6d 2e 5d 3c 66 36 89 3b 9f 6d 9d 3c 86 3d e5 3b
       0.013499838 0.004187393 0.01921731 0.0069958596
000120 27 1d d6 3a 80 b4 0d bc 3b 76 f1 3b d6 d6 ba bb
       0.0016335592 -0.008648992 0.0073688305 -0.00570188
000130 45 37 ab 3b ca f7 bc 3b bd 5b 69 bc 71 88 c9 3b
       0.0052250945 0.0057668434 -0.0142430635 0.0061502983
000140 ac 33 19 bc 07 0c 5b bc bd 38 47 3c e6 24 f7 3b
       -0.009350698 -0.013369567 0.012159524 0.0075422404
000150 23 3c 09 bc dc d3 14 3b e5 d3 c4 3b 52 c3 73 3c
       -0.008376154 0.0022709286 0.006006705 0.014878111
000160 66 ac 0c 3c cd 71 32 3c 97 57 a9 b9 83 a7 91 bb
       0.008586025 0.01089139 -0.0003229945 -0.004445018
000170 28 56 52 bb 1f 70 7b bb 9c da 09 bb 1e 55 e6 bb
       -0.003209481 -0.003836639 -0.0021034842 -0.0070291897
000180 0b df 18 3c a3 2c 2b 3b 06 8c 5d bb d7 08 27 3b
       0.009330521 0.0026119135 -0.0033805384 0.0025487447
000190 92 53 b7 3b 25 88 16 bb ca 17 d8 3b da b9 15 3a
       0.005594679 -0.0022969332 0.0065946328 0.0005711593
0001a0 52 6e b4 bb 08 c7 01 bc e3 e9 62 ba f6 f1 7e ba
       -0.0055063153 -0.007920988 -0.00086560677 -0.0009725386
0001b0 50 de 88 b9 a5 6b b6 bb 3a cc 93 3b bb 82 01 bc
       -0.00026105577 -0.0055670314 0.0045104297 -0.007904704
0001c0 f3 09 b4 3c 96 1a 18 3c 9e 76 4a bc c6 9b 08 3b
       0.0219774 0.009283682 -0.012357382 0.0020844801
0001d0 3a 1f 89 bb d3 b9 30 bc 4c 52 60 3b b0 11 19 3b
       -0.0041846307 -0.010786491 0.003422874 0.002335649
0001e0 ae 1a f0 bb 1b 4e 3a 3c 98 e1 06 3b 22 87 0c 3a
       -0.007327399 0.011371161 0.0020581242 0.00053607125
0001f0 bf e7 8b bb 0b 0b 17 b9 0e 79 b7 bb 6a b7 47 bb
       -0.0042695696 -0.00014404596 -0.0055991476 -0.0030474314
000200 45 12 87 39 70 41 12 39 ec bb d8 3a 83 26 6a 3c
       0.00025762818 0.00013948022 0.0016535497 0.0142914085
000210 ee e1 be bb b9 b0 05 bc 72 6a 09 3b 0f 66 ca bb
       -0.0058252728 -0.00815981 0.0020967987 -0.006176717
000220 72 12 d8 3b 39 96 cb b9 d5 07 4b 3b e2 5d 54 3a
       0.0065939957 -0.00038831102 0.003098001 0.0008101148
000230 8b b8 a0 3b 43 94 88 3b c8 b7 08 bb 75 6d 10 3b
       0.0049048117 0.004168065 -0.0020861495 0.0022037898
000240 2a 1d 6e 3c fa 1a 93 3a e0 89 01 3b 60 44 97 b9
       0.01453332 0.001122325 0.0019766018 -0.00028851908
000250 a7 c0 16 3c 42 2e 7f 3c f9 f1 1f bc 41 1c cf 3b
       0.009201205 0.015574994 -0.009762281 0.006320507
000260 10 5a 40 bb a0 8b 7b ba e8 28 14 bb 10 f3 24 bc
       -0.0029350556 -0.0009595696 -0.002260739 -0.010067716
000270 cd e8 9b 3b 55 d3 16 bc d1 da 9f 3b b5 98 7f ba
       0.0047579766 -0.009205659 0.00487838 -0.0009750233
000280 24 4c 44 bb bc 12 59 3b f1 21 49 bc cb 72 39 ba
       -0.002995261 0.0033122739 -0.012276159 -0.00070742954
000290 1d 9a 22 bc 37 ff ba 3b 36 34 c3 bb 08 45 00 3b
       -0.009924439 0.0057066935 -0.0059571518 0.0019572396
0002a0 58 8a fe b9 a2 b6 b9 3b 3a db 49 ba 76 3e 63 3b
       -0.0004854973 0.0056675235 -0.0007700209 0.003467468
0002b0 23 cc b9 b8 ca e3 54 3b c1 55 34 bc 9c 91 a6 3b
       -8.859511e-05 0.0032484406 -0.011006773 0.005083276
0002c0 9b 42 d5 3b 61 65 27 bb d0 71 27 bb 80 f2 1a ba
       0.006508184 -0.0025542604 -0.0025550015 -0.0005910769
0002d0 ff 55 1e 3b 03 23 95 3c 97 d2 87 ba 7e c9 43 bc
       0.0024160144 0.018205171 -0.0010362443 -0.011949895
0002e0 9a 48 87 ba ce fa 4f bb 3b 93 98 3b d8 78 30 bc
       -0.001032132 -0.0031735185 0.004656223 -0.010770999
0002f0 6b 9a b4 bb 38 84 e2 3a b8 c8 b2 bb fd 72 0b 3b
       -0.005511572 0.0017281836 -0.0054560564 0.0021278255
000300 c6 47 87 3b bb cb 71 3c 88 9f 42 3b 4b e0 22 bc
       0.004128429 0.014758046 0.0029697139 -0.009941171
000310 e9 79 2e ba 74 4c e6 3b 1d 96 72 bb e4 8d 17 3c
       -0.0006655739 0.007028157 -0.0037015744 0.009250138
000320 b8 3f e6 bb 17 6f 0a 3c 3d 83 05 3c 02 0d 47 bb
       -0.007026639 0.008449337 0.008148965 -0.0030372743
000330 7a d4 52 bc 61 66 d2 3b a0 9f 2e 3c 70 e8 cf bb
       -0.012868041 0.006420896 0.010658175 -0.0063448474
000340 cf ac d0 ba 46 6e ba bb 15 b9 00 3c a6 4b 9d 3b
       -0.0015920642 -0.005689415 0.007856627 0.0048002778
000350 fe e9 db 3a bf 62 96 3a 55 84 70 3b 69 3d c9 3b
       0.0016778109 0.001147352 0.003669997 0.006141354
000360 b4 9b b0 38 75 4e 41 3b 00 0f 08 bc 49 35 57 3c
       8.421336e-05 0.0029496227 -0.0083043575 0.013135263
000370 70 15 b5 bb 87 cf 97 bb 5f 71 a7 bb ee c3 ec b9
       -0.005526237 -0.0046328935 -0.0051099504 -0.00045159407
000380 63 bb 37 3c 2f 05 d8 3a 38 c4 14 3b fc 8b 80 3c
       0.01121411 0.0016481037 0.0022699963 0.01569175
000390 ea 3f ce bb 1e 5c 5f ba d6 dd ac 3a 29 df 59 b9
       -0.0062942402 -0.00085205014 0.0013188671 -0.00020777866
0003a0 d7 36 ad bb 27 05 e3 b9 de 5e a6 3b 45 f1 84 bb
       -0.0052860784 -0.00043300653 0.005077227 -0.004057082
0003b0 28 55 86 39 3d 09 41 bc 5a cc fb bb 3d a8 d2 bb
       0.00025621918 -0.011781988 -0.0076842727 -0.006428747
0003c0 e2 1d b3 39 43 ac 96 ba 3c 83 a6 bb 7c 49 64 bb
       0.00034163805 -0.001149543 -0.0050815623 -0.003483384
0003d0 eb e1 65 3c 1c 55 d6 38 6e 44 0e bc b0 45 39 3c
       0.014030914 0.00010220168 -0.008683307 0.011308119
0003e0 93 d6 d6 3b 2a 73 a7 3b d8 a2 20 bc d7 ad ad 3b
       0.006556341 0.005110164 -0.00980445 0.0053002643
0003f0 d0 34 69 3b 3c 9b 8d bc 36 47 70 3c ad 37 d2 3a
       0.0035584457 -0.017285936 0.0146654155 0.0016038321

action_model._discrete_distribution.branches.0.bias f4 [7]
000000 b0 68 71 3b 21 4b 92 3b 00 3c 1b 3c ae 04 53 3c
       0.003683608 0.0044645225 0.009474754 0.012879534
000010 63 64 ef 3b 64 d5 8d bc ef 05 82 bc
       0.007305668 -0.017313667 -0.01587197

onnx::Div_70 f4 [37]
000000 fa 8d 5a 41 e9 55 6b 3d 53 9b 61 41 09 cf 7c 3b
       13.659662 0.057454977 14.100421 0.003857555
000010 ce da 95 3e 09 cf 7c 3b aa f5 9d 41 48 c1 b2 3b
       0.29268497 0.003857555 19.744953 0.00545517
000020 34 95 9a 41 09 cf 7c 3b 23 60 92 3e 09 cf 7c 3b
       19.322853 0.003857555 0.28588971 0.003857555
000030 70 85 82 3c f2 86 6d 3c 09 cf 7c 3b 09 cf 7c 3b
       0.015932769 0.0144975055 0.003857555 0.003857555
000040 09 cf 7c 3b 52 c3 b2 3b e7 66 38 42 b8 f9 15 3d
       0.003857555 0.005455413 46.10049 0.036615103
000050 09 cf 7c 3b 7d 09 52 3e 70 a4 34 3f 41 41 7e 3b
       0.003857555 0.20511432 0.7056341 0.0038796219
000060 c3 a2 34 3f eb d1 93 3e 94 47 83 3e 9e 47 83 3e
       0.70560855 0.28871092 0.25640547 0.25640577
000070 4c 5b 7e 3e 2d 5b 7e 3e 09 cf 7c 3b 43 2d 31 3f
       0.24839514 0.24839468 0.003857555 0.6920969
000080 a0 d2 8f 3e 65 c5 31 3f bf 54 6b 3d 03 a5 46 41
       0.28090382 0.69441825 0.057453867 12.415286
000090 ea d1 93 3e
       0.2887109
