results/NewTest13/BoxingAgent.onnx (onnx, 316476 bytes, 11 tensors)

network_body.observation_encoder.processors.0.normalizer.running_mean f4 [33]
0	0xbf150db0	-0.5822401
1	0x416d81c9	14.844186
2	0xc13fdfe8	-11.992165
3	0xb29ba62f	-1.8119946e-08
4	0x3efc3b1d	0.4926385
5	0x32982493	1.7711761e-08
6	0x3f09574a	0.5364882
7	0x381ab6dc	3.6886762e-05
8	0xc0294c89	-2.6452963
9	0xb2735c05	-1.4165384e-08
10	0x3efa50b0	0.48889685
11	0xb299120e	-1.7819755e-08
12	0x3f6e2f72	0.93041146
13	0x3f6f9d60	0.9359951
14	0x3c697e42	0.014251294
15	0x3ea592a5	0.32338443
16	0x3f79f4a4	0.97638917
17	0x3f7c593e	0.9857367
18	0xbb329606	-0.0027250065
19	0x00000000	0.0
20	0x3b280f97	0.0025644058
21	0x3d1e4802	0.03864289
22	0x3604f270	1.981065e-06
23	0xbdc073ce	-0.09397088
24	0x3ef2efc2	0.47448546
25	0x3ee90166	0.4550888
26	0x3f0b7e82	0.5448991
27	0x3ef60fa8	0.4805882
28	0x3f04f75c	0.5193994
29	0x3bb66ef0	0.005567424
30	0x3f155c22	0.5834371
31	0x3c5d4d3e	0.0135071855
32	0x41cc175c	25.511406

network_body._body_endoder.seq_layers.0.weight f4 [256, 33]
0	0xbda0a3eb	-0.07843765
1	0x3d802c3a	0.062584355
2	0x3e64d286	0.22345933
3	0xbe0f9904	-0.14023215
4	0xbd6273db	-0.05528627
5	0xbc96cb3e	-0.01840746
6	0xbdb3be25	-0.087765016
7	0x3e2c3482	0.16816905
8	0xbcab8ede	-0.020942148
9	0xbe30e7aa	-0.17275873
10	0x3e87e7ce	0.2654404
11	0xbd543272	-0.05180592
12	0xbe0e2d99	-0.13884582
13	0xbe289766	-0.16464004
14	0x3dcaaae8	0.09895879
15	0x3d82913b	0.06375357
16	0xbe96035d	-0.2929944
17	0xbd23d322	-0.039996274
18	0xbe163cf5	-0.14671691
19	0x3e6cd099	0.23126449
20	0x3d190c69	0.03736535
21	0xbd7b9273	-0.06141896
22	0xbe0d77ea	-0.13815275
23	0xbe4e19fc	-0.201271
24	0xbd321cc7	-0.043484475
25	0xbeab49c6	-0.33454722
26	0xbee0b4e9	-0.43888023
27	0x3e4c9532	0.19978788
28	0xbe29d1f4	-0.16583997
29	0x3dd1264c	0.10212383
30	0x3c30cc47	0.010790891
31	0x3d51de75	0.051237542
32	0xbd035529	-0.032063637
33	0xbe9b424e	-0.30324024
34	0xbe40669e	-0.18789145
35	0xbe41530d	-0.18879338
36	0xbe2a5a2d	-0.16635962
37	0xbe1a995a	-0.15097561
38	0x3c7aa656	0.015298447
39	0x3ce239ed	0.027615512
40	0x3e27c515	0.16383775
41	0x3dfa201a	0.12213154
42	0xbdbe4600	-0.09290695
43	0x3daf2843	0.08552601
44	0xbaee4b34	-0.0018180371
45	0xbbdfc5ea	-0.006829013
46	0x3e33c1e3	0.1755443
47	0x3c3a8511	0.011384265
48	0x3e27ae6a	0.16375127
49	0x3e402d9a	0.18767396
50	0xbc8bcdc0	-0.017065883
51	0x3e8a9b2b	0.2707151
52	0xbdb06c76	-0.08614437
53	0xbd86f6d8	-0.065900505
54	0x3d2de789	0.042457137
55	0xbdaa3f02	-0.08312799
56	0xbd82a520	-0.06379151
57	0xbc0877d7	-0.008329353
58	0x3d3db426	0.04631438
59	0xbe0a25e5	-0.13491018
60	0xbdd468f8	-0.10371584
61	0x3e0a890e	0.13528845
62	0x3dd4cccb	0.10390624
63	0x3ed7901a	0.42102128
64	0x3e113d86	0.14183626
65	0xbe840af7	-0.25789616
66	0x3df19bfc	0.1179733
67	0x3e8fe0b9	0.28101137
68	0x3d9d92c9	0.07694013
69	0xbd978b06	-0.073995635
70	0xbe0f21b4	-0.139777
71	0x3bc30cba	0.005952445
72	0x3e8d06f2	0.2754436
73	0x3efa4edb	0.48888287
74	0xbba7332c	-0.0051025357
75	0x3e64c8be	0.22342202
76	0x3d2431cc	0.040086553
77	0x3ee10584	0.4394952
78	0xbcf911d7	-0.030404015
79	0xbcd2f3e8	-0.02575107
80	0x3eb01269	0.34389046
81	0x3e5bc6a2	0.21462491
82	0x3ec4d868	0.38446355
83	0x3d277e0b	0.04089169
84	0xbdd48f41	-0.10378886
85	0xbda34d68	-0.079737484
86	0x3d3f900d	0.046768237
87	0xbd307c9f	-0.043087598
88	0xbdb665a6	-0.08906107
89	0xbea5642e	-0.32302994
90	0x3cee1ebc	0.02906739
91	0x3dea4ac6	0.11440043
92	0xbdf0d810	-0.11759961
93	0xbe2a5dc3	-0.1663733
94	0x3e9daf1d	0.30797663
95	0x3d94ce4f	0.07265913
96	0xbdcd641c	-0.1002886
97	0xbe6f6428	-0.2337805
98	0x3d542528	0.051793247
99	0x3e2e223d	0.17005248
100	0xbdb8da37	-0.09025996
101	0xbe441da9	-0.1915194
102	0xbda5f3a7	-0.081031136
103	0x3ec788bb	0.38971505
104	0xbe36e4bf	-0.17860697
105	0x3d9068d2	0.07051243
106	0xbe823023	-0.2542735
107	0xbdb60544	-0.08887723
108	0x3dab1661	0.08353878
109	0xbc85c380	-0.016328573
110	0x3d868d1e	0.06569885
111	0x3d8fa449	0.07013757
112	0xbd80feb6	-0.06298582
113	0x3ce2e783	0.027698284
114	0x3e1152e8	0.14191782
115	0x3db126da	0.086499885
116	0xbe019dc1	-0.12657835
117	0x3de351d3	0.11099591
118	0x3ce61226	0.028084826
119	0x3751cf20	1.2505596e-05
120	0x3d9b6a8d	0.07588682
121	0xbdde1311	-0.108434804
122	0x3ddb56e0	0.107099295
123	0x3e02ba5b	0.12766401
124	0xbd83a7e5	-0.06428508
125	0xbd896fe9	-0.06710798
126	0xbdb27eba	-0.087155774
127	0x3bb24e0d	0.0054414333
128	0xbdf9a761	-0.12190128
129	0x3c19970a	0.009374389
130	0xbdb904d0	-0.09034121
131	0xbe5a342e	-0.21308967
132	0xbd5dee8a	-0.054182567
133	0xbd831840	-0.0640111
134	0xbde628b6	-0.11238234
135	0xbda46a28	-0.0802806
136	0xbd23d2d1	-0.039995972
137	0x3ca1c253	0.019745981
138	0xbe25af42	-0.16180137
139	0xbc15fda8	-0.009154715
140	0x3e02189d	0.12704702
141	0x3d760e2c	0.06007211
142	0x3d4549c6	0.04816606
143	0x3ea59035	0.32336584
144	0x3d82469e	0.063611254
145	0x3dc148c5	0.09437708
146	0x3da5a48c	0.080880255
147	0x3ee47650	0.44621515
148	0x3d08babe	0.033381216
149	0x3e3fff51	0.18749739
150	0x3ea8d3eb	0.3297418
151	0xbdd061a7	-0.10174876
152	0xbe9f437e	-0.3110618
153	0xbe47b028	-0.19500792
154	0x3e2e2f56	0.17010245
155	0xbeb57304	-0.35439312
156	0xbe548858	-0.20755136
157	0xbe9e12e4	-0.30873787
158	0xbd5866b9	-0.05283234
159	0xbe9f5d8c	-0.31126058
160	0xbe46b2eb	-0.1940419
161	0x3e4f4960	0.20242834
162	0xbcee6d3d	-0.029104823
163	0x3d9977a8	0.07493526
164	0x3e6da8d4	0.23208934
165	0x3ed17485	0.4090921
166	0xbe7f2017	-0.24914585
167	0x3e38c3da	0.18043461
168	0x3e8b7463	0.27237234
169	0x3dd1006a	0.10205157
170	0x3d38621a	0.045015432
171	0x3d8f1d78	0.069880426
172	0x3d258fc4	0.04042031
173	0x3db4acc7	0.08822017
174	0xbe2bcafb	-0.1677665
175	0x3e1d381a	0.15353432
176	0xbe30f0c1	-0.1727934
177	0x3ebf733e	0.3739261
178	0xbd7fb4c9	-0.06242827
179	0x3e07d32f	0.13264154
180	0xbda19c1a	-0.07891102
181	0xbd2142eb	-0.03937046
182	0xbe322bef	-0.17399572
183	0xbd56e9f5	-0.052469213
184	0xbe323e9a	-0.17406693
185	0xbcf8b31c	-0.030358844
186	0xbe33ff20	-0.17577791
187	0x3db3732f	0.08762204
188	0x3d8282b4	0.06372586
189	0x3e89c10b	0.26905093
190	0xbba0371c	-0.004889382
191	0xbec90b29	-0.39266327
192	0xbe76eaa2	-0.24112943
193	0xbe9fc62e	-0.31205887
194	0xbd89439e	-0.0670235
195	0x3dbaf39b	0.09128495
196	0xbea9c791	-0.3316007
197	0x3c17be2a	0.009261647
198	0xbd4275a7	-0.047475483
199	0xbe2026e7	-0.1563984
200	0x3dfffa93	0.12498965
201	0x3df9eb55	0.12203089
202	0xbe1938c4	-0.1496306
203	0x3e9e3d33	0.30906066
204	0xbe93f2fa	-0.28896314
205	0x3e2757ca	0.16342083
206	0xbe3b09d0	-0.18265462
207	0x3e063ce1	0.13109161
208	0x3d67ec2a	0.056621708
209	0x3e7f353e	0.24922654
210	0xbe12d63d	-0.14339538
211	0x3ea73eec	0.32665193
212	0x3e464a76	0.19364342
213	0x3cce9f3e	0.025222417
214	0x3ec5f4ef	0.38663432
215	0x3d32feec	0.043700144
216	0xbe845708	-0.2584765
217	0xbdc3131b	-0.095251285
218	0x3dcddd6c	0.100519985
219	0xbd5f1f3f	-0.054473158
220	0xbdf18b6a	-0.11794169
221	0xbde25a43	-0.11052372
222	0xbd356b35	-0.044291694
223	0x3a6be404	0.00089985156
224	0xbd83c5a0	-0.06434178
225	0x3e58a961	0.21158363
226	0x3e20ca35	0.15702136
227	0xbc1a9f61	-0.009437413
228	0xbd169893	-0.0367666
229	0x3cb294fc	0.021799557
230	0x3e1fecab	0.15617625
231	0x3d1da283	0.03848506
232	0x3d04c1e8	0.032411486
233	0x3ca4153b	0.020029655
234	0x3d878df3	0.066188715
235	0x3dea37f0	0.114364505
236	0xbdb40eb2	-0.087918654
237	0x3e53a50b	0.20668428
238	0x3e99afab	0.30016837
239	0x3dfb9afe	0.12285422
240	0xbe21222b	-0.1573569
241	0x3c63eed2	0.01391192
242	0x3eb36df1	0.35044816
243	0x3d89a28b	0.06720456
244	0xbe15f4f3	-0.14644222
245	0xbb982ed0	-0.0046442524
246	0x3dcccbf8	0.099998415
247	0xbd688170	-0.056764066
248	0x3e1105da	0.14162388
249	0x3e29a588	0.16567051
250	0x3e9e2988	0.3089106
251	0x3c46180b	0.012090693
252	0x3d4f9c63	0.05068625
253	0xbe0c22f7	-0.13685213
254	0x3e0e6fa2	0.13909772
255	0xbca674c4	-0.02031935

network_body._body_endoder.seq_layers.0.bias f4 [256]
0	0xbb8923c0	-0.00418517
1	0x3bd2b2ee	0.0064300215
2	0x3b21a5d3	0.002466549
3	0xbb75fae5	-0.0037533578
4	0xbbdc973a	-0.006731895
5	0x3a979273	0.0011564031
6	0x3afc45d6	0.0019246887
7	0x3b0f8325	0.0021898237
8	0x3b6e9d4e	0.003640968
9	0xbb5ea9a0	-0.0033975616
10	0x3b725c5f	0.0036981327
11	0x395755db	0.00020535981
12	0xbc39dd1a	-0.011344219
13	0x3b41f0f1	0.0029593075
14	0x3ac113e9	0.0014730665
15	0xbb883574	-0.0041567627
16	0xb95d9c8e	-0.00021134524
17	0x3b9d3e18	0.004798662
18	0x3b83acc7	0.0040183994
19	0x3b32bc26	0.002727279
20	0xbb88dfb4	-0.004177058
21	0x3b233b24	0.0024907077
22	0x3b49542d	0.0030720339
23	0x3ac69297	0.0015149888
24	0xb9ca02d8	-0.0003853056
25	0xbafc4cc3	-0.0019248951
26	0x3b76ae85	0.0037640643
27	0x3b5028b2	0.0031762538
28	0x3b023cf0	0.0019872747
29	0x3be670ab	0.007032474
30	0xbb6d01c5	-0.0036164385
31	0xbaf3a106	-0.0018587417
32	0x3b3a7961	0.0028453695
33	0x3b5d8f99	0.0033807515
34	0x3b35ac3a	0.0027721063
35	0xbb0d750a	-0.0021584653
36	0x3900fc92	0.00012301121
37	0x3b555c39	0.003255619
38	0x3b743825	0.003726491
39	0x3aaf7370	0.0013385843
40	0xbbb605a1	-0.0055548702
41	0x3a70aa5f	0.00091806607
42	0x3b891535	0.0041834363
43	0xbb524e42	-0.0032090102
44	0xbbb25443	-0.0054421737
45	0xbb54cae6	-0.003246957
46	0xbc1fd944	-0.00975639
47	0x3b407363	0.002936565
48	0x3bf14720	0.007363215
49	0xbb61e955	-0.0034471352
50	0x37305a70	1.0511474e-05
51	0xbbf3f0f6	-0.0074444963
52	0xbbd5f1b9	-0.0065290597
53	0xbaf74e1a	-0.001886788
54	0x3ada7249	0.001666614
55	0xbaa4e744	-0.001258113
56	0xbc056ce1	-0.008143635
57	0xbbe72480	-0.0070539117
58	0x3b9213c7	0.004457924
59	0x3b2d95e0	0.0026487038
60	0x3c1481db	0.009064163
61	0x3a74c243	0.00093368086
62	0x3b8bca6a	0.004266073
63	0x3a28efa8	0.0006444403
64	0x3b9bf500	0.004759431
65	0x3be5d7b3	0.0070142387
66	0xbaff6582	-0.0019485208
67	0x3b082ba8	0.0020777974
68	0xbb1cdbca	-0.0023934715
69	0xb88fdc57	-6.859813e-05
70	0xbbce200f	-0.006290443
71	0x3b181885	0.0023207974
72	0x3a8f7d07	0.0010947295
73	0xbacfed91	-0.0015863647
74	0x3b819c83	0.003955425
75	0x3ba0117c	0.004884897
76	0xb9211914	-0.00015363499
77	0xba0cd2f6	-0.0005372012
78	0xbb076ea2	-0.0020665308
79	0xbbb58030	-0.005538963
80	0x3bb80918	0.0056163184
81	0x3aeb6041	0.0017957763
82	0xbaf4f597	-0.0018688914
83	0xba8af009	-0.00106001
84	0xbbb5011a	-0.005523813
85	0xbb0535fe	-0.0020326371
86	0xba47051a	-0.0007592008
87	0x3c075cde	0.008261887
88	0xba9af99d	-0.0011823658
89	0xbbb36023	-0.005474107
90	0x3b966e78	0.0045908056
91	0x3ba4b1bd	0.005026071
92	0xbb2ff715	-0.0026850153
93	0x3b6e60e5	0.0036373672
94	0x3b004534	0.0019572498
95	0xbbf4ed57	-0.007474582
96	0xbb646b67	-0.0034854056
97	0x3bb32209	0.005466704
98	0xbc0b72d2	-0.008511262
99	0x3b83e864	0.004025506
100	0x3b6005fb	0.0034183252
101	0xbb91b63b	-0.0044467724
102	0xbb6c9d6b	-0.003610457
103	0xbba11939	-0.004916337
104	0x3be25c1f	0.0069079543
105	0x3bc53225	0.0060179406
106	0x38ee226d	0.00011355137
107	0xbb9b6f54	-0.004743496
108	0xbb65c8ae	-0.0035062241
109	0x3b6e579a	0.0036368133
110	0x3a89257d	0.0010463443
111	0x3b6db2c5	0.0036269885
112	0x3bb30d9b	0.0054642684
113	0xbb1e30d6	-0.0024137995
114	0x3b7c556f	0.003850307
115	0xbc104824	-0.008806262
116	0xbae2e9c7	-0.0017312103
117	0xbaffaaed	-0.0019505896
118	0x3a93e605	0.0011283761
119	0x3bbd751a	0.005781782
120	0x3b9a933c	0.0047172587
121	0xba91da38	-0.0011127656
122	0x3bcaa375	0.0061840364
123	0x3adeb93d	0.0016992461
124	0x3b8441fb	0.004036186
125	0xba271692	-0.00063739077
126	0x3c0cf15c	0.008602466
127	0xbac6ded5	-0.001517261
128	0x3acb5f99	0.0015516161
129	0xbaacfa80	-0.0013197213
130	0xbb986321	-0.004650489
131	0xba4f79be	-0.00079145643
132	0xba2568f3	-0.0006309889
133	0xba9199fc	-0.0011108513
134	0xba2e738b	-0.00066547905
135	0xbbd6fb7d	-0.0065607415
136	0xbacf4344	-0.0015812893
137	0xba35a085	-0.00069285213
138	0x3bddebca	0.006772493
139	0xbbd510f9	-0.0065022674
140	0xbb6b7983	-0.003593058
141	0xbb39f9ff	-0.002837777
142	0x3ac50302	0.0015030804
143	0x3aadbcd2	0.0013255125
144	0x3b1efc54	0.0024259286
145	0x3ad5bdc5	0.0016307166
146	0x3a662f6c	0.000878087
147	0x3a3be99a	0.0007168293
148	0xba75acf3	-0.000937178
149	0xbabf5391	-0.0014597048
150	0xb96e6e3e	-0.00022738517
151	0x3a85f53a	0.0010220178
152	0x3ba96e2d	0.0051706047
153	0x3b0576a9	0.0020364916
154	0xb8c18ee5	-9.229573e-05
155	0x3b12a7f3	0.0022377938
156	0x3a8dff4c	0.0010833531
157	0xbbcc0b76	-0.006226952
158	0xbb9a94d2	-0.004717448
159	0xbbdc40f7	-0.0067216116
160	0x3bb4ec90	0.0055213645
161	0x3b1777e7	0.002311224
162	0x3bc09c8c	0.005878037
163	0xba811a13	-0.000984969
164	0xbb79130e	-0.0038005742
165	0x3aad7b66	0.0013235628
166	0x3b8b42b6	0.004249896
167	0xbb0ba99a	-0.0021310807
168	0xbb1bd8e9	-0.0023780412
169	0xbc06b3e7	-0.008221603
170	0x3a530d1c	0.00080509647
171	0x3941c23f	0.00018478277
172	0xbb3131dc	-0.0027037775
173	0x3addc431	0.0016919432
174	0x3bb2acea	0.005452742
175	0x3c02e77f	0.007989763
176	0xbb190e8b	-0.0023354616
177	0x3c170a4b	0.009218763
178	0xbbcf007b	-0.006317196
179	0xba829f2f	-0.0009965653
180	0xbb5ba547	-0.003351526
181	0x3bc3a180	0.00597018
182	0xbabe7c68	-0.0014532926
183	0x3b31fb38	0.0027157795
184	0xbc1def7e	-0.009639619
185	0xbbab6c99	-0.0052314517
186	0xbb859206	-0.0040762452
187	0xba9bfb88	-0.0011900524
188	0x3b619fb9	0.0034427478
189	0xbb30889a	-0.002693689
190	0xb9e1c6eb	-0.0004306355
191	0x3b8d636e	0.0043148315
192	0xbbaa5f4f	-0.00519935
193	0xbb2a898d	-0.0026021928
194	0xbb013253	-0.0019713833
195	0xbb10f142	-0.0022116457
196	0xbafb6d46	-0.0019182346
197	0xbbe0a66f	-0.006855778
198	0x3bb0d5be	0.005396574
199	0xbbfc0170	-0.007690601
200	0x3bb6075c	0.0055550765
201	0xbbc93e3b	-0.0061414517
202	0x3b54d263	0.0032474033
203	0x3b476df2	0.0030430523
204	0x3b47d9ec	0.0030494882
205	0xbb139331	-0.0022518153
206	0xb91492b1	-0.00014169027
207	0xbbb2a169	-0.0054513705
208	0x3aa72869	0.0012753132
209	0xba1101c4	-0.0005531574
210	0x3a889aa1	0.001042206
211	0xbb456d87	-0.0030125098
212	0x3b0422be	0.002016231
213	0x3a2d2044	0.0006604234
214	0x3adf2ead	0.001702746
215	0x3b9e1c58	0.004825156
216	0xb9ed2d8a	-0.00045238092
217	0x3bf15d12	0.007365831
218	0x3bd896bc	0.006609766
219	0xbb34ea10	-0.0027605332
220	0xbb52b3c8	-0.0032150615
221	0xb9cdfd28	-0.00039289263
222	0x3b846b0a	0.0040410804
223	0x3b90ac1c	0.0044150483
224	0xbb4178e9	-0.002952153
225	0x3acd0dec	0.0015644408
226	0xbb3f216f	-0.0029164215
227	0xbbc37ae9	-0.0059655798
228	0x3ac3bae4	0.0014933017
229	0xbc073e55	-0.008254607
230	0x3ae3da47	0.0017383777
231	0x3bca8adc	0.006181104
232	0xba4ab986	-0.00077333336
233	0xbbab0e00	-0.005220175
234	0xbb3e25db	-0.0029014263
235	0x3b626f96	0.0034551374
236	0x3ba939d2	0.0051643634
237	0xb844861a	-4.6854933e-05
238	0x3adddd7c	0.0016926969
239	0xbab4b5d2	-0.0013787097
240	0x3b845d29	0.004039426
241	0x3bc031ee	0.005865327
242	0xbba13852	-0.004920044
243	0x39f01542	0.00045792205
244	0x392566ec	0.00015773968
245	0xbb037ce4	-0.0020063454
246	0x3bfe848f	0.007767267
247	0xba4e3908	-0.00078667747
248	0x3b955d32	0.004558229
249	0xbafc9e00	-0.0019273162
250	0x3be2ff47	0.006927404
251	0x3b390ac0	0.0028235167
252	0xbb631160	-0.0034647807
253	0x3b9c9a4c	0.004779136
254	0x3a75fc09	0.00093835645
255	0x3bff4e16	0.007791291

network_body._body_endoder.seq_layers.2.weight f4 [256, 256]
0	0xbd433f91	-0.047668044
1	0x3c69e5ee	0.014276011
2	0x3c218b85	0.009859924
3	0xbcd9797e	-0.02654719
4	0xbd3c387c	-0.045952305
5	0xbc78095e	-0.015138952
6	0x3cff08d3	0.031132137
7	0x3da8c87d	0.08241365
8	0x3d09c6ae	0.03363674
9	0xbd1ac19f	-0.037782308
10	0x3deaeecc	0.11471328
11	0x3cd149a4	0.02554781
12	0x3caac9a8	0.02084811
13	0xbd08d297	-0.03340396
14	0x3c42be0d	0.011886132
15	0xbcf75c7a	-0.030195463
16	0xbd495c9b	-0.04916058
17	0xbce99156	-0.028511684
18	0x3d794b16	0.060862623
19	0x3b3bb86c	0.002864386
20	0xbdc2d217	-0.09512728
21	0xbc75a739	-0.014993482
22	0x3da6d614	0.08146301
23	0xbcd4751c	-0.025934748
24	0xbca0ff86	-0.019653093
25	0x3d5c2b98	0.05375251
26	0x3d3d734b	0.04625253
27	0xbd1834be	-0.037159674
28	0x3ce89468	0.028391078
29	0x3d123e5a	0.035703994
30	0xbd40d7c8	-0.047080785
31	0xbd1ef457	-0.03880724
32	0xbd90215e	-0.07037614
33	0xbd9dadcd	-0.076991655
34	0xbdb0fa19	-0.08641452
35	0xbdec76d6	-0.11546104
36	0xbd1567a0	-0.036475778
37	0xbb31494f	-0.0027051752
38	0x3d64cf1f	0.05586159
39	0xbc2c6c08	-0.0105238035
40	0xbd9420ae	-0.07232796
41	0xbdaee730	-0.08540189
42	0x3d00a833	0.031410407
43	0xbd1e1210	-0.038591444
44	0x3d71effb	0.059066754
45	0x3d071164	0.03297557
46	0x3b6cfb2a	0.0036160448
47	0x3d77f1ef	0.06053346
48	0xbc366705	-0.01113296
49	0xbd2c1bcf	-0.042018708
50	0x3d614020	0.054992795
51	0xbcaeeb82	-0.021352533
52	0x3d0518ad	0.032494236
53	0x3d98fd7f	0.074702255
54	0xbd6121ea	-0.054963984
55	0x3c8951fc	0.016762726
56	0x3b9d704a	0.0048046457
57	0x3d6fe5dc	0.05856882
58	0x3d23ce66	0.03999176
59	0xbc4aebeb	-0.012385349
60	0x3d868fa7	0.06570368
61	0x3d851265	0.06497649
62	0x3d1da5f3	0.03848834
63	0xbdd6ac34	-0.10482064
64	0xbdce44e8	-0.100717366
65	0xbc81aa31	-0.015828224
66	0x3ce02cf2	0.027365182
67	0xbcfd2c0f	-0.030904798
68	0xbcf1bcc2	-0.029508952
69	0x3d777673	0.060415696
70	0xbd1aedcd	-0.03782444
71	0xbd61a19f	-0.055085775
72	0x3cde33df	0.027124343
73	0x3d216ff6	0.039413415
74	0xbdb7bf14	-0.08971992
75	0x3d1feb0c	0.039042518
76	0xbd4d57ff	-0.050132748
77	0x3d2708c0	0.04077983
78	0xbd87e9e9	-0.06636412
79	0x3d394ff9	0.045242283
80	0x3d1f7eac	0.038939163
81	0xbc8f7b68	-0.0175149
82	0x3d31a906	0.043374084
83	0x3d4caab2	0.049967475
84	0xbd2eea4c	-0.04270391
85	0x3b9f71b2	0.0048658485
86	0xbbf3912f	-0.0074330787
87	0xbc28d50d	-0.0103047015
88	0x3c8404e6	0.016115617
89	0x3da50c21	0.08058954
90	0x3d03ed94	0.032208994
91	0x3cbf7a6d	0.023373807
92	0x3d606c4e	0.054790787
93	0x3db935f6	0.09043495
94	0xbd39b0b7	-0.045334544
95	0xbb8587a0	-0.0040750057
96	0xbcf17dd9	-0.029478954
97	0xbd4b7f61	-0.049682025
98	0x3d949098	0.072541416
99	0x3de24a9e	0.11049388
100	0x3d5b9439	0.053608153
101	0xbc842936	-0.016132932
102	0xbd69ebe6	-0.057109736
103	0xbd15f296	-0.0366083
104	0xbd853625	-0.06504468
105	0x3d922421	0.07135797
106	0x3d2658f4	0.040612176
107	0x3ddd257f	0.107981674
108	0xbbef4cb1	-0.0073028435
109	0xbd109d4c	-0.03530626
110	0x3dad4286	0.08459954
111	0x3d61ff33	0.055175018
112	0xbc136e6f	-0.008998497
113	0xbcd3c0f0	-0.025848836
114	0x3d03b570	0.032155454
115	0xbd8c7d1a	-0.06859799
116	0x3cd22b8a	0.025655527
117	0x3c9a2175	0.018814782
118	0xbc181e1a	-0.0092845205
119	0x3c50c45a	0.012742126
120	0xbd72f7a7	-0.05931821
121	0x3db0aa05	0.08626179
122	0x3d8cec7d	0.06881044
123	0x3c443af2	0.011976944
124	0xbd2ab638	-0.041677684
125	0x3c749a3a	0.014929349
126	0xbd454daa	-0.04816977
127	0xbc832383	-0.016008144
128	0xbce94c4d	-0.028478766
129	0xbcaa3657	-0.020777864
130	0xbd2a50f8	-0.041581124
131	0x3d908cbc	0.07058093
132	0x3cc33fe3	0.023834174
133	0xbcdfe141	-0.02732909
134	0x3cf375bd	0.029719228
135	0x3c1e01c3	0.009643975
136	0xbccb2ca0	-0.024801552
137	0x3d4d1d0b	0.050076526
138	0xbc9a55ce	-0.018839743
139	0xbcebc337	-0.02877961
140	0xbccd630d	-0.025071645
141	0x3d29a129	0.04141346
142	0x3dd0e814	0.102005154
143	0xbcd6b634	-0.026209928
144	0x3b78dd91	0.003797386
145	0x3daa0d34	0.083032995
146	0xbdfdffbc	-0.12402293
147	0xbbefe60c	-0.007321125
148	0x3cb975e9	0.022639232
149	0x3d54c621	0.051946763
150	0x3bf1548d	0.0073648156
151	0xbd62b764	-0.055350676
152	0xba26ad4b	-0.000635822
153	0x3d886de9	0.06661589
154	0x3da69061	0.08133007
155	0xbd86395b	-0.065539084
156	0xbd45b844	-0.048271433
157	0xbd99f9aa	-0.07518323
158	0x3d378f66	0.04481449
159	0x3d08cbf2	0.033397622
160	0x3d21d54d	0.03951006
161	0xbd9214bd	-0.07132862
162	0xbd9bd73d	-0.07609413
163	0x3cfab65c	0.030604534
164	0x3d8c576a	0.068526104
165	0xbcae47a8	-0.021274403
166	0x3d4d48ab	0.05011813
167	0x3ba13ea6	0.0049207984
168	0xbbf79a3f	-0.0075562294
169	0xbd03b82c	-0.03215806
170	0xbd8b5120	-0.06802583
171	0xbd44c9d7	-0.048044052
172	0x3d59d31d	0.05317985
173	0xbd802b76	-0.062582895
174	0x3d858044	0.06518605
175	0x3c1e56a2	0.00966421
176	0xbd98cca8	-0.0746091
177	0x3da08450	0.078377366
178	0xbda1ac85	-0.078942336
179	0x391d50de	0.00015002812
180	0x3d12ec5d	0.035869945
181	0xbd21a594	-0.03946455
182	0xbd3ba8b1	-0.045815174
183	0xbd9587cb	-0.07301291
184	0x3d3cdc2f	0.04610842
185	0xbd5643fc	-0.05231093
186	0x3d650419	0.05591211
187	0x3dee6f04	0.11642268
188	0xbd71aaed	-0.0590009
189	0x3ce965c8	0.028490916
190	0xbcb70bff	-0.022344587
191	0x3c22221b	0.009895827
192	0x3dbebfb1	0.09313906
193	0xbd694ef1	-0.05696005
194	0x3d0dbdec	0.03460495
195	0xbdbbf5ab	-0.09177717
196	0xbd9710b8	-0.07376236
197	0xbd9be870	-0.07612693
198	0x3d9b9968	0.07597619
199	0x3d565ad7	0.052332725
200	0xbc93fd3a	-0.018065084
201	0xbd8a6c2e	-0.06758915
202	0xbd6f3475	-0.058399636
203	0x3cbb9ffe	0.022903439
204	0x3c33b751	0.010968999
205	0x3d96732e	0.073461875
206	0x3cf53caf	0.029936163
207	0x3c068420	0.008210212
208	0xbda2be70	-0.07946479
209	0x3d6f0ea8	0.058363587
210	0x3c0f6652	0.008752422
211	0xbd069702	-0.032858856
212	0xbccccaa1	-0.024998965
213	0xbc930598	-0.017947003
214	0xbda7b172	-0.08188142
215	0xbc0ffddd	-0.008788553
216	0xbd9cde65	-0.07659606
217	0x3d126a2d	0.03574579
218	0xbe1a0c45	-0.15043743
219	0x3d4095d8	0.047017902
220	0xbd84f229	-0.06491501
221	0x3d0a9abb	0.03383897
222	0x3d9afd01	0.07567788
223	0xbd8def66	-0.06930427
224	0x3ca51552	0.020151768
225	0x3abb259d	0.0014278177
226	0x3c74d702	0.01494384
227	0xbc0f7152	-0.008755045
228	0xbd3a0323	-0.045413148
229	0xbdc04e04	-0.0938988
230	0xbe2c5ca7	-0.16832219
231	0xbd0aa43a	-0.033848025
232	0xbd16cb90	-0.036815226
233	0xbdd9f03b	-0.106415235
234	0x3c9c601c	0.019088797
235	0x3d224743	0.03961874
236	0xbdc62ee5	-0.09676913
237	0xbbab44a0	-0.0052266866
238	0xbd91fbe1	-0.0712812
239	0xbd8146cb	-0.06312331
240	0xbd5215ab	-0.051290195
241	0xbd62750f	-0.055287417
242	0xbda366ac	-0.079785675
243	0xbcec2224	-0.028824873
244	0xbd69eeeb	-0.057112616
245	0x3d96db78	0.07366079
246	0xbc1690cb	-0.009189795
247	0x3bc43779	0.005988058
248	0xbdab8d89	-0.08376605
249	0xbd705f9f	-0.05868494
250	0x3d66b7c5	0.0563276
251	0x3d998db3	0.0749773
252	0xbd077c72	-0.033077665
253	0xbdca277a	-0.09870811
254	0xbd95efda	-0.07321139
255	0xbdd2051f	-0.10254883

network_body._body_endoder.seq_layers.2.bias f4 [256]
0	0xba9b5b64	-0.0011852798
1	0x3b9002fd	0.0043948875
2	0xbb9e42cb	-0.0048297397
3	0xba0c8648	-0.00053605856
4	0xbbb51545	-0.005526217
5	0x3a2609b2	0.0006333842
6	0xbb60c78b	-0.0034298624
7	0x3c018dbb	0.007907326
8	0xbbefe90e	-0.0073214835
9	0xbbc88ea4	-0.0061205197
10	0x3b91594f	0.0044356952
11	0x3b900c1d	0.0043959753
12	0xbb45f833	-0.0030207753
13	0x3bd8f7da	0.006621343
14	0xbb367f91	-0.0027847032
15	0x3bd8f009	0.0066204113
16	0x3bf17461	0.00736861
17	0xbc04b66c	-0.008100133
18	0x3bf3aa3e	0.007436066
19	0xbb9aeeb6	-0.0047281636
20	0xbb888f34	-0.004167462
21	0x3ad233ec	0.0016037202
22	0x3bb5adeb	0.0055444143
23	0xbb312772	-0.0027031568
24	0x3b9efbad	0.0048517794
25	0xbac97fba	-0.0015373148
26	0x3b867e90	0.004104443
27	0x3a6ad0a4	0.00089574815
28	0x3ad7f6e3	0.0016476776
29	0xbba11298	-0.0049155466
30	0xbb85c977	-0.0040828544
31	0xbb16daf7	-0.0023018697
32	0x3baba6e6	0.0052384017
33	0x3a62bc4d	0.0008649275
34	0xbbaf0817	-0.0053415406
35	0x39e4e7bf	0.00043660213
36	0x3b8e1f4f	0.0043372284
37	0xba70da11	-0.0009187768
38	0xbb49e7c0	-0.00308083
39	0x37a80d5f	2.0033387e-05
40	0xbad4697a	-0.0016205751
41	0xbb60613b	-0.0034237641
42	0x3bd0d3f2	0.006372922
43	0x3b2828f4	0.0025659176
44	0x3bb76007	0.005596164
45	0xbc14c0f3	-0.009079206
46	0xbbc4ae10	-0.006002195
47	0xbb92f30f	-0.0044845412
48	0x3b0566d1	0.0020355473
49	0x3ba3515d	0.0049840645
50	0x3b1c83fb	0.0023882377
51	0x3b1ae156	0.0023632846
52	0xbad365b4	-0.0016128332
53	0x3aa1094a	0.0012286094
54	0xbb6b182c	-0.0035872562
55	0x3b2227c6	0.0024742945
56	0x3adff354	0.0017086067
57	0xbb4d90e5	-0.0031366881
58	0xba58650d	-0.0008254804
59	0xbb99ce86	-0.004693809
60	0x3bc23a70	0.0059273764
61	0xbb72d9b9	-0.0037056042
62	0xba8a96fa	-0.0010573559
63	0x3c2a7731	0.010404394
64	0xbb7a1b67	-0.0038163306
65	0x3bd23ec6	0.0064161746
66	0xbacc40f2	-0.001558332
67	0xba608a87	-0.0008565564
68	0x3b59a428	0.0033209417
69	0x3a5b9276	0.00083760114
70	0xbbcb1a65	-0.006198215
71	0xbbde1a34	-0.006778026
72	0xbb898352	-0.004196563
73	0xbab45038	-0.0013756817
74	0xbb70a11e	-0.0036717127
75	0xbbde7bd9	-0.006789666
76	0x3bddc66a	0.0067680376
77	0xbb4c1304	-0.0031139264
78	0x3c0c64b7	0.008568934
79	0xbb92d877	-0.004481371
80	0xbb3aa9c5	-0.0028482538
81	0xbbea68e3	-0.0071536168
82	0x3b0ca572	0.0021460918
83	0xbb9a7fe2	-0.004714952
84	0xbb63fcea	-0.00347882
85	0xbc012e17	-0.007884524
86	0xbbd4fb17	-0.006499659
87	0xbb059d16	-0.002038782
88	0xbbe465c4	-0.006970139
89	0x3b96d4dd	0.004603012
90	0xbb141fbf	-0.002260193
91	0x3bb53b6a	0.0055307643
92	0xbb38e723	-0.002821394
93	0xbbbf78e5	-0.005843269
94	0xbbc71e9e	-0.006076648
95	0x3979e9f0	0.00023833639
96	0xba5ed309	-0.00085000746
97	0xbb576f83	-0.0032872863
98	0xbba8712f	-0.0051404457
99	0x3b923814	0.0044622514
100	0xbad9b2b0	-0.0016609039
101	0x3b011e38	0.001970185
102	0x3acfabce	0.0015844048
103	0xbb9ce359	-0.004787844
104	0xbbfaefa5	-0.0076579624
105	0x3b0b34c2	0.0021241163
106	0xbb313bb3	-0.002704364
107	0xbb3e76bc	-0.002906247
108	0x3bdaae30	0.006673597
109	0xba1427f2	-0.0005651704
110	0xbb42866d	-0.0029682175
111	0x3c230809	0.009950646
112	0x3bc12dda	0.0058953585
113	0xbb9f8612	-0.0048682773
114	0x3ab7739a	0.0013996244
115	0x3bba04fa	0.005676863
116	0xba985e14	-0.0011624717
117	0xbbc93716	-0.0061406
118	0xbb5d6823	-0.0033783994
119	0x3b68d981	0.0035530033
120	0x3b03f9ac	0.002013783
121	0xbbf612ca	-0.007509564
122	0x3b895417	0.0041909325
123	0xbb0b6655	-0.0021270711
124	0x3b35e375	0.0027753983
125	0xbc003016	-0.007823965
126	0xbb2bdb5c	-0.0026223278
127	0xbbe5bb7b	-0.007010875
128	0x3badde84	0.005306067
129	0xba58e885	-0.0008274394
130	0x3be91430	0.0071130022
131	0xbbb805c0	-0.00561592
132	0xbb880c2a	-0.0041518407
133	0x3c0be839	0.008539253
134	0x3bdf929e	0.006822898
135	0xbb24486a	-0.0025067576
136	0x3b345cda	0.0027521164
137	0x3aafa259	0.0013399824
138	0x3a4c05ac	0.00077828276
139	0xbbc77ea5	-0.0060880953
140	0x3bd2fd1d	0.006438865
141	0x3be65b19	0.0070299027
142	0x3b52e78e	0.0032181474
143	0xbb1d56c2	-0.002400801
144	0xb9a12cba	-0.00030741637
145	0x3c17851b	0.009248043
146	0x3963418d	0.00021672827
147	0x3b9e787b	0.0048361397
148	0x3b6b72f4	0.0035926672
149	0x3bcb1d98	0.006198596
150	0xbab3ae57	-0.0013708574
151	0xb9ac2105	-0.00032830998
152	0x3a3c9157	0.0007193288
153	0x3b91942c	0.0044427123
154	0xbba16faf	-0.004926644
155	0xbb95f8a9	-0.0045767617
156	0x3bce31d6	0.006292562
157	0xbae01aa9	-0.0017097789
158	0x3b9490d3	0.004533866
159	0x3b466230	0.0030270927
160	0xbab812fa	-0.0014043741
161	0x3b38589e	0.0028128992
162	0xba54f273	-0.0008123286
163	0x3781b21c	1.5460937e-05
164	0x3b80765e	0.0039203605
165	0x3bcaf79b	0.0061940677
166	0x3bb5499c	0.0055324566
167	0x3bd2e4ba	0.0064359577
168	0x3af19355	0.0018430749
169	0xbbd75cf4	-0.00657236
170	0x39c05533	0.00036684572
171	0xba9975ef	-0.0011708121
172	0x3b22255a	0.0024741502
173	0x39aee100	0.00033355504
174	0x3b70d5ab	0.003674845
175	0x39b37ade	0.00034233084
176	0xbbabd684	-0.005244078
177	0xba13569c	-0.0005620511
178	0x3b8de822	0.004330651
179	0x3b7a4c90	0.0038192607
180	0xbbbf4323	-0.0058368607
181	0xbaf17e35	-0.0018424453
182	0x3b4c1465	0.0031140086
183	0x3b7104d1	0.0036776552
184	0x3bfbd464	0.007685231
185	0x3c0e2e95	0.008678098
186	0x3af59d1b	0.0018738838
187	0xba15f08b	-0.00057197426
188	0x3b386957	0.002813896
189	0x3c14c053	0.009079057
190	0x3ae10b64	0.0017169532
191	0x3b04e7d3	0.002027978
192	0xbb02d8dc	-0.0019965684
193	0xba854af0	-0.0010169428
194	0x3b9ab2ae	0.0047210073
195	0x3bf7339b	0.0075439936
196	0x3b3c3b39	0.0028721823
197	0xbb17f76c	-0.0023188246
198	0xbbdba86d	-0.0067034275
199	0x3bb432ae	0.0054992056
200	0x3af42b07	0.0018628546
201	0x395367ff	0.0002016127
202	0xb9b1e7d6	-0.00033932802
203	0x3b80c126	0.003929275
204	0xbb359f67	-0.002771342
205	0x3a2d0273	0.0006599791
206	0x3b999990	0.0046874955
207	0xbb89c321	-0.0042041694
208	0x3bfa1631	0.00763204
209	0xb9bd82a8	-0.00036146236
210	0xba69ab1e	-0.0008913743
211	0xbb43f680	-0.0029901564
212	0xb9801d5a	-0.0002443593
213	0x3b1ab8e8	0.0023608748
214	0xbba68f65	-0.005083012
215	0xbc0ee8f2	-0.008722531
216	0x3b0f4a6a	0.0021864423
217	0xb9279766	-0.00015982761
218	0xbb10d37b	-0.0022098708
219	0xbbca38b5	-0.006171311
220	0x3b1a6d25	0.002356359
221	0xbbb20595	-0.0054327943
222	0xbb234491	-0.0024912695
223	0x3b9634c1	0.0045839255
224	0x3b8e0272	0.0043337876
225	0x3ac7ac66	0.0015233874
226	0xb99da982	-0.00030071667
227	0x3bcdc214	0.0062792394
228	0xbc0ffef4	-0.008788813
229	0x3b77bd6b	0.003780211
230	0x3b6f3592	0.0036500436
231	0x3b71861c	0.0036853617
232	0x3b0c4bae	0.0021407413
233	0x3c0cf27c	0.008602735
234	0x3bda373d	0.006659417
235	0xb9a37d9a	-0.00031183363
236	0xba430eb9	-0.00074408535
237	0xbabb352a	-0.0014282812
238	0xbb8b940a	-0.004259591
239	0xbb631e6f	-0.003465559
240	0x3b327148	0.0027228165
241	0xba175589	-0.00057729386
242	0x3b0d7a28	0.0021587703
243	0xbbdaae0a	-0.006673579
244	0x3c16c557	0.009202323
245	0x3b8e65a2	0.0043456117
246	0x3b4cee72	0.0031270054
247	0xbb7cb09b	-0.0038557413
248	0xbb8d1bf2	-0.00430631
249	0xbb6324d5	-0.0034659405
250	0xbb97b697	-0.0046299207
251	0x3bd39de1	0.0064580296
252	0xba269d18	-0.0006355806
253	0x3a89c4f7	0.0010510971
254	0xbbbfde50	-0.005855359
255	0xbb9bf796	-0.004759739

action_model._continuous_distribution.log_sigma f4 [1, 3]
0	0x3c040058	0.008056723
1	0x3be06ecf	0.006849147
2	0xba3100a4	-0.00067521096

action_model._continuous_distribution.mu.weight f4 [3, 256]
0	0xbbf93150	-0.0076047555
1	0x3cc1b301	0.023644926
2	0xb981cd9f	-0.00024757997
3	0x3c7bf26f	0.015377625
4	0xbae8c5f8	-0.0017759195
5	0xb95a4abc	-0.00020817941
6	0xbc833f83	-0.016021496
7	0xbaf78687	-0.0018884697
8	0xbc87f2a4	-0.016595192
9	0xbc93e54f	-0.018053679
10	0x3cbbdec9	0.02293338
11	0xb7d220a1	-2.5049145e-05
12	0xbc5fd3ab	-0.013661305
13	0x3c454cd4	0.012042243
14	0xbc269ea1	-0.010169656
15	0x3c493668	0.012281038
16	0x3ca53c68	0.020170406
17	0xba51e8a5	-0.0008007384
18	0xbc12e946	-0.0089667495
19	0x3c2152e8	0.009846427
20	0xb8c0422d	-9.1676e-05
21	0xbbb77974	-0.005599195
22	0x3aa34494	0.0012456351
23	0x3c880e94	0.016608514
24	0x3ba79c37	0.005115058
25	0xbc1b8055	-0.009491046
26	0x3cb4dd9c	0.022078328
27	0xbc317fc1	-0.010833682
28	0x3bf5fccd	0.007506943
29	0xbb66ee8c	-0.00352374
30	0xbc4da8e4	-0.012552474
31	0x3ba6bbe2	0.0050883153
32	0xbba354ec	-0.0049844887
33	0xbcb9d105	-0.022682676
34	0xbc4ab626	-0.012372529
35	0xbb4967b7	-0.0030731985
36	0x3cbdcd28	0.023169115
37	0x3a6e33bd	0.0009086689
38	0xbc0db299	-0.008648538
39	0x3c8f0a3c	0.017460935
40	0x3c22ba4e	0.009932114
41	0xbc3fcdcf	-0.011706783
42	0x3c08b1b2	0.008343147
43	0x3c276f99	0.010219478
44	0x3c408442	0.011750283
45	0xbb12291d	-0.0022302337
46	0x3b4ea0ff	0.0031529067
47	0x3a7afa55	0.00095740455
48	0xbbdfe2ac	-0.0068324413
49	0x3a425db1	0.0007414474
50	0xbba05e0a	-0.004894023
51	0x3ad35bb9	0.0016125358
52	0xbc15d3af	-0.009144708
53	0xbc117fc4	-0.008880559
54	0xbc83098f	-0.015995769
55	0xbd224164	-0.039613143
56	0x3bddd614	0.006769905
57	0x3c317ca6	0.010832941
58	0xba92a1bb	-0.0011187115
59	0x3bdc78ed	0.0067282827
60	0x3b282071	0.0025654102
61	0x3caf4426	0.0213948
62	0x3b648f75	0.0034875546
63	0x3ba4792d	0.005019328
64	0x3c0c6bbe	0.00857061
65	0x3cb32487	0.021868004
66	0x3a8665a5	0.0010253681
67	0x3cac5c8e	0.021040227
68	0xbb316b3e	-0.0027071978
69	0x39d0fbb8	0.00039860397
70	0xbc073285	-0.008251791
71	0xbcbb30cd	-0.022850418
72	0xbbb1e6da	-0.005429131
73	0x3c4758b1	0.012167142
74	0x3c2176d6	0.009854993
75	0xbb8adffe	-0.0042381277
76	0x3b4516c1	0.0030073377
77	0xbcc51ea7	-0.024062468
78	0x3bb63aab	0.005561193
79	0xbb90e910	-0.0044223145
80	0xb9a4c186	-0.00031424704
81	0x3a0c8a58	0.0005361191
82	0x3cb86ef9	0.022513853
83	0xbbfd6fad	-0.00773426
84	0x3a5e7940	0.00084866956
85	0xbba15777	-0.0049237567
86	0xbbcf1709	-0.0063198847
87	0xbc6146ca	-0.013749788
88	0xbbd7792c	-0.006575724
89	0x392d11d4	0.00016505207
90	0xbc4de786	-0.0125674065
91	0x3c134106	0.008987671
92	0x3ba03216	0.004888783
93	0xbb43019c	-0.0029755598
94	0xbbc234f0	-0.005926721
95	0x3c7f1c94	0.015570778
96	0x3c30c0e1	0.010788173
97	0x3c9ee4c7	0.019396199
98	0xbc0b8faf	-0.008518144
99	0xbc2e3d97	-0.010634801
100	0xbc1aa0e8	-0.009437777
101	0xbc121d7d	-0.008918163
102	0x3c932435	0.0179616
103	0xbc3129b8	-0.010813169
104	0xb9b67e8f	-0.0003480804
105	0xbc221d2e	-0.009894652
106	0x3c7e6ef9	0.015529388
107	0xbbebc945	-0.007195624
108	0x3a74301e	0.00093150313
109	0x3bc076fb	0.0058735586
110	0xbbc368da	-0.005963427
111	0x3bce8aaa	0.006303151
112	0x39bffefb	0.00036620334
113	0x3c4f054f	0.012635543
114	0xbbc9761a	-0.006148112
115	0x3cb283e7	0.021791412
116	0xbd106065	-0.03524818
117	0xbca964ba	-0.020677913
118	0x397e77e6	0.00024267993
119	0x3c5630a2	0.013073118
120	0xbc9a3c14	-0.018827476
121	0x3c92ddcf	0.017928032
122	0x3c109708	0.008825071
123	0x3c79391f	0.015211373
124	0xbb031735	-0.0020002846
125	0xbbea68ce	-0.007153607
126	0xbbd3de6f	-0.006465725
127	0xbb0a5768	-0.0021109227
128	0x3b5ba403	0.0033514507
129	0xbc207125	-0.009792601
130	0xbbe6a422	-0.007038609
131	0x3bbafbe4	0.0057062972
132	0xbc02c436	-0.007981351
133	0x3c0e2e06	0.008677965
134	0x3a2dcef1	0.0006630263
135	0xbc86343f	-0.016382335
136	0xbbf8987d	-0.0075865374
137	0x3b58930d	0.0033046633
138	0xbc892520	-0.016741335
139	0x3bb5732e	0.005537412
140	0xbc097ce1	-0.00839159
141	0xbbe89d15	-0.0070988038
142	0x3adcf20c	0.0016856804
143	0x3c1dc879	0.009630316
144	0x3b4513c9	0.0030071607
145	0xbbc059c0	-0.005870074
146	0x3cb9597e	0.022625681
147	0xbc2c6f7d	-0.010524628
148	0x3c9eb412	0.019372974
149	0x3cba92d1	0.022775086
150	0x3c3ebcb0	0.011641666
151	0xbc8362bc	-0.016038291
152	0x3c642aa8	0.013926186
153	0xbae6352b	-0.0017563453
154	0x3b6f299e	0.0036493312
155	0xbbb8873f	-0.005631357
156	0x3c241c7a	0.010016555
157	0x3c395c7b	0.011313553
158	0xbcab5658	-0.020915195
159	0xbcc90a08	-0.024540916
160	0x3b87b0bc	0.0041409414
161	0xbb8f134f	-0.0043663154
162	0xbbd4a40d	-0.006489283
163	0x3c03ef5c	0.008052673
164	0x3c5dcf29	0.01353816
165	0x3c1db9f1	0.009626851
166	0xbca762bf	-0.020432828
167	0xbc9867f6	-0.01860426
168	0x3c106879	0.008813971
169	0xbb43ce5b	-0.0029877636
170	0xbc8bbf7b	-0.017059078
171	0xbc8530cf	-0.016258625
172	0xbc412a00	-0.011789799
173	0x3c6372ce	0.013882352
174	0x3c30129f	0.010746627
175	0x3b690d89	0.0035561046
176	0xbc2575b8	-0.010098867
177	0xbbfb8b71	-0.007676535
178	0xbb617f14	-0.003440802
179	0xbc12e204	-0.008965019
180	0xbc7f0979	-0.015566223
181	0x3c167011	0.009181992
182	0x3d1bb36a	0.0380129
183	0x3ccf0ad4	0.025273718
184	0xbc46f6ee	-0.012143834
185	0x3c8648ca	0.01639213
186	0x3c1fe78b	0.009759794
187	0x3b3be0cb	0.0028667923
188	0xbc7d4a33	-0.015459585
189	0x3bb949e0	0.0056545585
190	0x3cd1f37b	0.025628796
191	0x3c3064ad	0.0107661905
192	0xbc797471	-0.015225516
193	0xbc8743ea	-0.016511876
194	0x3c402d35	0.011729528
195	0x3be5533c	0.0069984477
196	0xbbf8f9b1	-0.007598125
197	0xb9f10976	-0.0004597415
198	0xbc6c14f7	-0.014409295
199	0x3c3d755c	0.011563625
200	0x3bb82fd0	0.005620934
201	0xbc74934f	-0.014927699
202	0xbc837007	-0.01604463
203	0xbc80eec3	-0.01573885
204	0xbc46ee78	-0.012141816
205	0x3cd88c52	0.026434097
206	0xbbaabd04	-0.0052105207
207	0xbccfb472	-0.025354598
208	0x3cbf1a64	0.023328014
209	0xbb527800	-0.0032114983
210	0xbc8c4209	-0.017121332
211	0x3af7fbad	0.001891961
212	0xbcacfe38	-0.021117315
213	0x3c33a4ac	0.010964554
214	0xbc9f7123	-0.019463127
215	0xbb0e3fad	-0.0021705434
216	0x3c02efcf	0.007991745
217	0x3cbe37c8	0.023219958
218	0xbc262acb	-0.010142039
219	0xba338c52	-0.00068492175
220	0xbcb5b488	-0.02218081
221	0xbc4dc9f7	-0.012560359
222	0x3a962165	0.0011454044
223	0xbc8b62ba	-0.01701485
224	0xbc606f65	-0.0136984335
225	0x3bc46fc9	0.005994771
226	0x3bf0bfd8	0.0073470883
227	0x3abc3389	0.001435862
228	0xbba006b5	-0.004883612
229	0x3cb40c57	0.02197854
230	0xbced3b6f	-0.028959004
231	0xbc16fe24	-0.009215865
232	0x3a4322f7	0.000744387
233	0x3c9cb7bb	0.019130578
234	0x3b601252	0.0034190607
235	0x3c257c24	0.010100398
236	0xbc10434d	-0.008805108
237	0xbc7c60a7	-0.015403903
238	0x3ba257b1	0.0049543013
239	0x3c326864	0.0108891465
240	0xbc29839a	-0.010346318
241	0x3c20fbb3	0.009825635
242	0x3cbce9e1	0.02306074
243	0xbb83dea6	-0.0040243445
244	0x3c21af3f	0.009868442
245	0x3c83851d	0.016054684
246	0xbc7b4c19	-0.015337967
247	0x3c89563f	0.016764758
248	0x3a06f094	0.0005147543
249	0x3c29b211	0.010357396
250	0x3a5f73dc	0.00085240393
251	0x3cfc0939	0.030766116
252	0x3c12c5e1	0.008958311
253	0xbc6fa5e8	-0.0146269575
254	0xba686d28	-0.0008866363
255	0x3b32410f	0.0027199422

action_model._continuous_distribution.mu.bias f4 [3]
0	0x3b2248e9	0.0024762696
1	0x3bea0fe2	0.0071430067
2	0xb8ac44ce	-8.214415e-05

action_model._discrete_distribution.branches.0.weight f4 [7, 256]
0	0x3bac73f4	0.005262846
1	0xbc0a002f	-0.008422895
2	0x3a91b790	0.0011117328
3	0xb91e1298	-0.00015074981
4	0x3bc1956a	0.005907704
5	0xbc1df4d7	-0.009640894
6	0x3a919c09	0.0011109124
7	0xbc18adee	-0.009318812
8	0x3b77437c	0.0037729433
9	0xbaa3ddf8	-0.0012502065
10	0xbbf33a84	-0.007422747
11	0xbc533110	-0.012890115
12	0xbbc62e3a	-0.006047991
13	0x3c0879cf	0.008329823
14	0xbb029b1a	-0.0019928874
15	0xbc4782e8	-0.012177207
16	0x3b7611c0	0.00375472
17	0x3aff7665	0.001949024
18	0xbbb4c401	-0.0055165295
19	0x3a39bc06	0.00070852076
20	0x3bebcb83	0.0071958913
21	0xbc127523	-0.00893906
22	0x3b793899	0.003802812
23	0xbbc526ec	-0.0060166027
24	0xbb56457e	-0.003269523
25	0xbc18797b	-0.009306307
26	0xbbcc992e	-0.0062438464
27	0xbbae9fa4	-0.0053290892
28	0xbbd711b7	-0.006563391
29	0x3b0522a9	0.0020314849
30	0xbb94362e	-0.0045230603
31	0xbc2b5367	-0.010456896
32	0xbc0bfb6f	-0.008543833
33	0xbb54e687	-0.0032486038
34	0x3b4d4aac	0.0031325025
35	0x3b6fdd0c	0.003660026
36	0x3b903c5f	0.004401728
37	0x3b21b1d4	0.0024672644
38	0x3bbc8daf	0.0057541947
39	0xbbb2823b	-0.0054476536
40	0x3c4654b6	0.012105158
41	0xbbf45f97	-0.0074576843
42	0x39904ac4	0.00027521525
43	0x3beda49b	0.0072522885
44	0xbc1ea95a	-0.009683931
45	0x3bb65345	0.0055641257
46	0x39c1fca4	0.0003700006
47	0xbb12d4da	-0.0022404701
48	0x3c1df363	0.009640547
49	0x3b3e7355	0.0029060442
50	0xbb6d7bb6	-0.0036237068
51	0xba3cfae8	-0.0007209019
52	0x3ba639cc	0.005072808
53	0x3bbbfac7	0.005736682
54	0x3b739f41	0.003717378
55	0xbc9e8e12	-0.019354854
56	0x3bd16413	0.0063901036
57	0x3bdc1fb0	0.0067176446
58	0x3b35218d	0.0027638406
59	0x3bdba342	0.0067028115
60	0x396a0406	0.00022317478
61	0x3b623be2	0.0034520556
62	0xbba5af8d	-0.0050563277
63	0x3beda43b	0.007252244
64	0xbc0abe2f	-0.008468195
65	0x3af49d2b	0.0018662562
66	0x3c7caaaf	0.0154215535
67	0xbc14a729	-0.009073057
68	0x399f9a7a	0.00030441937
69	0x3c0bcd26	0.008532798
70	0x3b930657	0.0044868398
71	0x3bac9600	0.005266905
72	0xbbcde68a	-0.006283586
73	0x3a845d19	0.0010098546
74	0x3bd9700a	0.0066356706
75	0xbb2f5391	-0.002675269
76	0x3b0207b7	0.0019841024
77	0xbbefc69c	-0.0073173773
78	0xba9c70c9	-0.0011935468
79	0x3887c398	6.473734e-05
80	0xba990842	-0.0011675435
81	0xbb8a1cd7	-0.0042148638
82	0xbc1c49f1	-0.009539113
83	0x3b6c4a1f	0.0036054922
84	0x3c51a6e5	0.012796138
85	0xbb45b5b5	-0.003016812
86	0x3c1c3ae9	0.00953553
87	0xbc1f9275	-0.009739508
88	0xbae09e6e	-0.001713706
89	0xbb020f78	-0.0019845646
90	0xbbf24304	-0.007393243
91	0xbbf59c42	-0.007495434
92	0xbc5c00fc	-0.013427969
93	0xbc55b681	-0.013044001
94	0x3b62c2b1	0.0034600908
95	0xbc56a1f2	-0.013100134
96	0xbb6343f2	-0.003467795
97	0x3c573716	0.013135692
98	0xbc53d425	-0.012928997
99	0xbb1a10b4	-0.002350849
100	0xbc7cb337	-0.0154235875
101	0xbaf99a98	-0.0019043265
102	0xbc24f36d	-0.010067803
103	0x3c066ca7	0.008204616
104	0x3bc5b9cf	0.006034113
105	0x3c53062b	0.0128798885
106	0x3b938696	0.004502128
107	0xbb0f6e42	-0.0021885787
108	0xbbcdc850	-0.0062799826
109	0x3add2edc	0.0016874927
110	0xbc067bd6	-0.008208236
111	0x3b63447b	0.0034678269
112	0xbbad91cc	-0.0052969214
113	0xbb666bd1	-0.0035159478
114	0x3b843c2e	0.0040354943
115	0x3b975e65	0.004619407
116	0xbc1972c2	-0.009365739
117	0xbc324dab	-0.010882775
118	0x3c870d28	0.016485766
119	0xba1924b2	-0.0005841955
120	0x396fea5e	0.00022880125
121	0x3c20c45d	0.009812442
122	0xba5e049b	-0.0008469314
123	0x3b3c51ea	0.0028735348
124	0x3a8fee86	0.001098112
125	0x3c2b17cc	0.010442685
126	0xbc021b28	-0.007941045
127	0x3c8dc678	0.017306551
128	0xbc523efd	-0.0128324
129	0x3b7de789	0.0038742742
130	0x3b6a25b5	0.0035728042
131	0xbbe981d0	-0.0071260706
132	0xbbac71b2	-0.005262577
133	0xbcdcebd8	-0.026967928
134	0x3ba9d414	0.0051827524
135	0x3a9f2f76	0.0012144882
136	0x3ad25ab4	0.001604876
137	0xbbf8bd01	-0.0075908904
138	0xbb6d1a70	-0.0036179088
139	0x3b8f4ba7	0.004373032
140	0xbbce2919	-0.0062915203
141	0x3a00e8fc	0.000491753
142	0xbc35d697	-0.0110985255
143	0xbbfcb705	-0.0077122473
144	0xbc1437de	-0.009046523
145	0xbb8747a3	-0.004128413
146	0x3c785cf2	0.015158879
147	0x3b9c83c9	0.004776452
148	0xbbbe6dfd	-0.0058114515
149	0xbc55c38b	-0.013047109
150	0x3c4f3d8f	0.012648954
151	0xbb971bc2	-0.0046114633
152	0xbbce71ec	-0.0063002016
153	0xbc376936	-0.011194518
154	0x3c508fe2	0.012729617
155	0x3b11acd3	0.0022228255
156	0x3b38067a	0.0028080032
157	0xbbeed28e	-0.0072882837
158	0xbc029c03	-0.007971766
159	0xbc0d831a	-0.008637214
160	0xbaa90365	-0.0012894688
161	0xbb882b52	-0.004155555
162	0xbb9a3ada	-0.0047067227
163	0xba974a27	-0.0011542485
164	0xba344cf1	-0.000687792
165	0x3b80dc56	0.003932516
166	0xbb866930	-0.004101895
167	0xbbe08124	-0.0068513323
168	0x3b1588ee	0.0022817212
169	0xbb77bf35	-0.0037803177
170	0x3ba3ad3e	0.0049950173
171	0x3b2d1221	0.002640851
172	0xbb76e609	-0.0037673733
173	0x3bf7cf8e	0.0075625842
174	0xb9e02080	-0.00042748824
175	0xbc10494d	-0.008806539
176	0xbb21aa0d	-0.0024668009
177	0x3a9d0c29	0.0011981773
178	0xbb1748a6	-0.0023084073
179	0xbc3edae4	-0.011648867
180	0x3be673dd	0.007032855
181	0xbbb70749	-0.0055855853
182	0x3b1d8630	0.002403628
183	0xbbacd46f	-0.0052743475
184	0xbc5b8074	-0.013397325
185	0xbc60c7d9	-0.013719522
186	0xba2ffb65	-0.0006713181
187	0xbb9d5a07	-0.004801992
188	0x3c9a7318	0.01885371
189	0xbc1108f2	-0.00885223
190	0xbaaa643a	-0.001299984
191	0xbae803be	-0.001770131
192	0xbba57247	-0.0050490233
193	0x3bccded4	0.006252149
194	0x3b4ece4e	0.0031556073
195	0xba444c87	-0.000748821
196	0x3b699244	0.003564016
197	0xb97f2d13	-0.00024335487
198	0x3b4ae119	0.0030956923
199	0x3c19dc92	0.009390967
200	0x385e6d46	5.3030693e-05
201	0xbba293c6	-0.0049614636
202	0x3ae6e5fc	0.0017616148
203	0xbb67594f	-0.0035301035
204	0xbc2413fe	-0.010014532
205	0x3c37ec45	0.011225765
206	0xbb76f4bd	-0.0037682496
207	0x3c3f9de6	0.011695361
208	0x3a75a5d8	0.0009370721
209	0xbc7d41a0	-0.015457541
210	0x3c4a9615	0.012364884
211	0xbb8a0dfc	-0.004213093
212	0x3b42ece9	0.002974326
213	0xbc073462	-0.008252235
214	0x3b507156	0.0031805835
215	0xbb341a9b	-0.0027481678
216	0x3af076f4	0.0018345998
217	0xbbd7efe4	-0.0065898765
218	0x3a9136a2	0.0011078904
219	0x3acb255f	0.0015498808
220	0xbb2e55ca	-0.0026601427
221	0xbc89c1a7	-0.016815973
222	0xbc975f78	-0.01847814
223	0x3b5b192b	0.003343175
224	0x3bc32c3c	0.005956201
225	0xbc024633	-0.007951307
226	0x3be38634	0.0069434885
227	0xbc029b6c	-0.007971626
228	0x3b8a6d14	0.004224429
229	0xbc6ea78a	-0.014566312
230	0x3b11607e	0.0022182758
231	0xbb4cacaa	-0.0031230845
232	0xbc44ada8	-0.0120042935
233	0xbc133960	-0.008985847
234	0x3bf2f96f	0.0074149887
235	0xbbcb64c7	-0.006207082
236	0x3b2167ae	0.0024628448
237	0x3c76a72b	0.015054504
238	0x3ba3b01b	0.0049953586
239	0xbc854663	-0.016268915
240	0xbbe1e582	-0.0068938145
241	0x3c0d3705	0.008619075
242	0x3c4305ed	0.011903268
243	0xbc1ff880	-0.009763837
244	0xbc592752	-0.013254004
245	0xbacc46f6	-0.0015585113
246	0x3b970eef	0.0046099345
247	0xbbd09ca2	-0.0063663283
248	0xbada8023	-0.0016670268
249	0x3c3fac34	0.011698771
250	0xbac8fc9c	-0.0015334073
251	0x3beb6a9c	0.0071843397
252	0x3bccf1e1	0.00625442
253	0x3b06002d	0.0020446882
254	0xbb809fde	-0.0039253077
255	0x3c3a05c6	0.011353916

action_model._discrete_distribution.branches.0.bias f4 [7]
0	0xbbbe452f	-0.005806587
1	0xba31d76d	-0.0006784115
2	0x3ab9bb3a	0.0014170178
3	0xba7e957d	-0.00097116065
4	0xbaac615b	-0.0013151573
5	0x3abb7c89	0.0014304082
6	0x3b955fc4	0.0045585353

onnx::Div_70 f4 [33]
0	0x415166d0	13.087601
1	0x3d541584	0.05177833
2	0x41534c73	13.206164
3	0x3b640b4a	0.0034796768
4	0x3e8b62c5	0.27223793
5	0x3b640b4a	0.0034796768
6	0x419b1a33	19.387793
7	0x3b6cb9c2	0.0036121462
8	0x419f8777	19.941145
9	0x3b640b4a	0.0034796768
10	0x3e9328b9	0.28742006
11	0x3b640b4a	0.0034796768
12	0x3e278500	0.16359329
13	0x3e27f3a6	0.16401538
14	0x3df2d80b	0.11857613
15	0x3eef80fd	0.46778098
16	0x3e1b84b2	0.15187338
17	0x3df2f20b	0.11862572
18	0x3e673c02	0.22581485
19	0x3b640b4a	0.0034796768
20	0x3d2c6c4d	0.04209547
21	0x3f3491fa	0.7053524
22	0x3b641514	0.0034802603
23	0x3f33987b	0.7015454
24	0x3e93d2c6	0.28871745
25	0x3e75e798	0.24014127
26	0x3e75e82f	0.24014352
27	0x3e73b30b	0.23798768
28	0x3e73b34e	0.23798868
29	0x3d9e118b	0.0771819
30	0x3e9336d4	0.28752768
31	0x3f32c461	0.698309
32	0x41366b9f	11.401275
