results/NewTest/BoxingAgent.onnx (onnx, 320604 bytes, 11 tensors)

network_body.observation_encoder.processors.0.normalizer.running_mean f4 [37]
0	0x3f2fccfe	0.6867217
1	0x416d8637	14.845267
2	0xc14d9ad4	-12.8503
3	0x00000000	0.0
4	0x3f002078	0.50049543
5	0x00000000	0.0
6	0xbd0423ad	-0.032260586
7	0x00000000	0.0
8	0xbfe4c2bc	-1.7871928
9	0x00000000	0.0
10	0x3f00561a	0.5013138
11	0x00000000	0.0
12	0x3f57fb06	0.84367406
13	0x3f5ae728	0.85508966
14	0x3e89bec9	0.2690337
15	0x3e8fc10c	0.2807697
16	0x3ea265ef	0.31718394
17	0x3f3b1fa1	0.73095137
18	0x3f36fb42	0.7147714
19	0xbbc75e8e	-0.00608427
20	0x00000000	0.0
21	0x3dd77d99	0.10522003
22	0xbb96d8db	-0.004603488
23	0x00000000	0.0
24	0xbd940aa6	-0.072285935
25	0x3eec6702	0.4617234
26	0x3ef0fe59	0.47069052
27	0x3f077fdc	0.5292947
28	0x3f00efcf	0.5036592
29	0x3efe1e75	0.49632612
30	0x3d492fed	0.04911797
31	0x3e4ae5a5	0.19814165
32	0x3f176343	0.59135836
33	0x3e18f76a	0.14938131
34	0x416d8637	14.845267
35	0x41cb064e	25.378078
36	0x3f00f61c	0.50375533

network_body._body_endoder.seq_layers.0.weight f4 [256, 37]
0	0xbdf9337e	-0.121680245
1	0x3f00360e	0.5008248
2	0x3d876983	0.06611922
3	0xbc870df9	-0.016486155
4	0x3d8563a7	0.06513148
5	0x3ebf4b75	0.37362257
6	0x3e5d22ab	0.21595256
7	0xbeb04272	-0.34425694
8	0x3e884777	0.26617023
9	0xbd360ae0	-0.044443965
10	0x3d6655a7	0.05623403
11	0xbe78073a	-0.24221507
12	0xbdf26068	-0.11834794
13	0x3da09229	0.07840378
14	0xbd35e038	-0.044403285
15	0x3d8f1ce8	0.06987935
16	0xbd8ae0a7	-0.0678113
17	0x3dc6fcdc	0.09716198
18	0x3deb2384	0.114813834
19	0x3e099142	0.13434318
20	0x3dd43570	0.10361755
21	0xbe5724ae	-0.21010086
22	0x3ddfa0d6	0.10919349
23	0x3eb9b356	0.36269635
24	0xbe77d357	-0.24201714
25	0xbe09a857	-0.13443123
26	0xbd5f70b8	-0.054550856
27	0xbd3ee5e6	-0.046605967
28	0xbea9ae9b	-0.33141026
29	0xbe2bdc8c	-0.1678335
30	0xbe2deb28	-0.16984236
31	0x3d67d801	0.05660248
32	0x3a8d6473	0.0010787382
33	0x3cd603b2	0.026124809
34	0x3e292eff	0.16521834
35	0xbe88da0f	-0.26728866
36	0xbe95b3aa	-0.29238635
37	0x3ea968b1	0.33087686
38	0xbd923771	-0.07139481
39	0xbcc06e9f	-0.023490248
40	0xbe444e3b	-0.19170468
41	0xbe70c95d	-0.23514314
42	0x3e2b7a36	0.16745839
43	0xbe057acc	-0.13035125
44	0x3e65c631	0.22438885
45	0x3d98ffbc	0.074706525
46	0x3d540383	0.05176116
47	0xbd2614dd	-0.04054724
48	0xbd3a1d3d	-0.04543804
49	0xbd398820	-0.045295835
50	0x3e0507c1	0.12991239
51	0x3e0f054d	0.13966866
52	0xbd6d6061	-0.057953242
53	0xbd0172bf	-0.03160357
54	0x3c0d7e34	0.008636046
55	0xbe602ea8	-0.21892798
56	0x3e671a6e	0.22568676
57	0x3dad695a	0.0846736
58	0x3dbc1048	0.09182793
59	0xbdac260a	-0.08405693
60	0xbe365017	-0.1780399
61	0xbd218c46	-0.039440416
62	0xbe83ae09	-0.25718716
63	0xbd728d3d	-0.059216727
64	0xbdf19f02	-0.117979065
65	0x3c522b1b	0.01282766
66	0x3d62ea8c	0.055399463
67	0x3dcab4a0	0.09897733
68	0xbd17bce8	-0.03704539
69	0x3e7762a7	0.24158727
70	0x3eaa793f	0.33295628
71	0xbe18bf75	-0.14916785
72	0x3e233a5a	0.15940228
73	0xbdd25733	-0.10270538
74	0xbdca964a	-0.098919466
75	0xbdfa9cb6	-0.122369215
76	0x3d47043d	0.048588026
77	0x3e236b7f	0.15958975
78	0xbded397c	-0.1158323
79	0x3e2b1d5e	0.16710421
80	0x3e3b1f02	0.18273547
81	0xbc68dbbf	-0.014212548
82	0x3d6726e0	0.05643356
83	0x3e1c6243	0.15271859
84	0xbd03034e	-0.031985573
85	0x3d91fd9e	0.07128452
86	0xbdacbf2b	-0.084349
87	0x3d14ee76	0.036360227
88	0x3d428691	0.047491614
89	0xbdb56a0e	-0.08858119
90	0x3e288094	0.16455299
91	0xbe550615	-0.20803101
92	0xbe7ec17e	-0.24878499
93	0xbe0c9347	-0.13728057
94	0xbe3b790d	-0.18307896
95	0xbdb06072	-0.086121455
96	0x3d93b715	0.072126545
97	0xbd11da34	-0.035608485
98	0x3e56d0e3	0.20978121
99	0x3dfd6ee2	0.12374665
100	0xbd88645f	-0.06659769
101	0xbca14900	-0.01968813
102	0xbe516803	-0.20449834
103	0xbd4bf70f	-0.04979616
104	0xbe0fdf85	-0.1405011
105	0xbde07fc3	-0.109618686
106	0xbd255617	-0.040365305
107	0xbdcc30d9	-0.099702545
108	0xbe1e79b8	-0.1547612
109	0x3d20a867	0.0392231
110	0xbdb4375e	-0.08799623
111	0x3de2f9ba	0.11082788
112	0x3e3e7ba2	0.1860185
113	0xbdd83fc1	-0.10559035
114	0x3e4d8947	0.20071898
115	0xbef2de79	-0.47435358
116	0xbf17e846	-0.59338796
117	0x3e55c0d2	0.20874336
118	0xbe237997	-0.15964352
119	0x3b375981	0.0027976932
120	0xbe0be76e	-0.13662502
121	0xbe90354b	-0.2816566
122	0x3cde4937	0.027134521
123	0x3e081522	0.13289312
124	0xbe25ee1b	-0.16204111
125	0x3debbc19	0.11510486
126	0xbe044616	-0.1291736
127	0x3d7cbbd8	0.06170258
128	0x3df06436	0.11737864
129	0xbdd75548	-0.10514313
130	0x3d5c5f2c	0.0538017
131	0xbb9d4a50	-0.0048001185
132	0xbe159f01	-0.14611436
133	0xbe29b910	-0.16574502
134	0x3e00387f	0.12521552
135	0xbd6afbe0	-0.057369113
136	0xbe3eb405	-0.1862336
137	0x3e5d9a3b	0.21640866
138	0x3e8b622d	0.2722334
139	0x3e279d19	0.16368522
140	0x3e034136	0.12817845
141	0x3ca3dfbd	0.020004148
142	0x3e8f73ed	0.28018132
143	0x3d9dd8ca	0.07707365
144	0x3d649112	0.055802412
145	0x3d6e4879	0.058174584
146	0x3e5d28a1	0.2159753
147	0xbe832d6c	-0.25620592
148	0x3d187959	0.0372251
149	0xbb354a75	-0.0027662788
150	0xbe2567ff	-0.16152953
151	0x3e46d697	0.19417797
152	0xbce40216	-0.027833026
153	0x3d06744d	0.032825757
154	0x3e440676	0.1914309
155	0x3d7a37c6	0.061088346
156	0x3e2294c2	0.15877059
157	0x3c9862d3	0.01860181
158	0xbd1232dc	-0.035693035
159	0xbebad126	-0.36487693
160	0xbe511497	-0.2041801
161	0x3c269fc2	0.010169925
162	0xbe04b6a2	-0.12960294
163	0x3e17c095	0.14819558
164	0x3e40dafc	0.18833536
165	0xbd962483	-0.07331183
166	0xbd5a0fc9	-0.05323771
167	0xbe5570c9	-0.20843805
168	0xbcbf7dd6	-0.023375433
169	0xbd8d8734	-0.069105536
170	0xbddd66b0	-0.10810602
171	0x3de7ca6c	0.11317906
172	0xbe621bd0	-0.22080922
173	0xbd0e029e	-0.034670465
174	0xbe971ca2	-0.29514033
175	0x3e549f5e	0.20763919
176	0xbdc34b53	-0.09535851
177	0xbe1f244f	-0.15541194
178	0x3d98abfd	0.07454679
179	0x3d24a58b	0.040196937
180	0xbdb7c220	-0.08972573
181	0xbe486424	-0.1956945
182	0x3e32efcb	0.17474286
183	0x3ca7bb94	0.020475186
184	0xbd7f706f	-0.062363084
185	0xbdfdcd81	-0.123927124
186	0x3e4bdcce	0.19908449
187	0x3c242803	0.010019305
188	0x3e22231e	0.15833709
189	0x3db7aa93	0.08968081
190	0x3e29304e	0.16522333
191	0x3ea7eca0	0.32797718
192	0x3d9e481e	0.07728599
193	0xbe904722	-0.2817927
194	0xbe2b5029	-0.16729797
195	0xbea7c5ee	-0.32768196
196	0x3e83fa25	0.25776783
197	0x3e2f0548	0.17091858
198	0xbe2f239c	-0.17103428
199	0x3df8b229	0.12143356
200	0x3e6b44ce	0.22975466
201	0x3e18f4fd	0.14937206
202	0xbdcddded	-0.100520946
203	0xbd9c08ab	-0.07618841
204	0x3ddbe07f	0.107361786
205	0x3e3a93c4	0.1822043
206	0x3e54ab3b	0.20768444
207	0x3ea2345e	0.31680578
208	0xbdc82fa7	-0.09774714
209	0xbd952211	-0.07281888
210	0x3cf8069e	0.030276593
211	0x3e176aba	0.14786807
212	0xbd174a8c	-0.036936328
213	0xbe0ab02f	-0.13543771
214	0x3e03789c	0.12838978
215	0x3da2c91e	0.07948516
216	0xbcf1a9f8	-0.029499993
217	0x3d288135	0.041138846
218	0xbe285f34	-0.16442567
219	0x3ee24289	0.44191387
220	0xbe07f983	-0.13278775
221	0x3df761e7	0.1207922
222	0xbd64570e	-0.055747084
223	0xbd1f56fd	-0.038901318
224	0xbe549d34	-0.20763093
225	0xbd27647b	-0.04086731
226	0x3d9bf98c	0.07615957
227	0x3dbcd47d	0.092202164
228	0x3d3956f0	0.045248926
229	0x3e137cca	0.14403072
230	0x3c28c09a	0.010299826
231	0x3cf86cc7	0.030325307
232	0xbdfe1fc6	-0.12408404
233	0x3ec768e4	0.38947213
234	0xbe0bd40d	-0.1365511
235	0xbe20d035	-0.15704425
236	0xbed2e38d	-0.41189232
237	0x3e60a577	0.2193812
238	0x3e115e19	0.14196052
239	0x3d536e7f	0.05161905
240	0x3e0250da	0.12726155
241	0xbdbda358	-0.09259671
242	0x3e2a241c	0.16615337
243	0x3e3389f4	0.17533094
244	0xbd189da6	-0.03725972
245	0x3c8203fc	0.01587104
246	0xbbc766b3	-0.0060852407
247	0xbde3ae1e	-0.111171946
248	0x3d34ee4d	0.044172574
249	0x3d553b10	0.05205828
250	0xbe1a0ff8	-0.15045154
251	0xbe04308f	-0.12909149
252	0xbd817d21	-0.063226946
253	0x3d144e09	0.036207233
254	0xbd168d05	-0.03675558
255	0x3d13a9ba	0.036050536

network_body._body_endoder.seq_layers.0.bias f4 [256]
0	0x3c7617a4	0.015020285
1	0x3c201db9	0.009772711
2	0x3c8dde46	0.017317902
3	0x3c7e046a	0.015503982
4	0x3c46fc85	0.012145166
5	0x3c27adcb	0.010234307
6	0x3c21f78e	0.009885682
7	0x3be4aaa9	0.006978352
8	0x3b0f3870	0.0021853708
9	0x3c529318	0.012852453
10	0x3b2c85d7	0.0026324892
11	0xbaa5df1f	-0.0012654996
12	0x3ba6f1fc	0.0050947648
13	0x3c6f2415	0.014596005
14	0xbacdf56b	-0.0015713399
15	0x3c809e81	0.01570058
16	0x3bf2bb07	0.0074075493
17	0xbba96daa	-0.0051705437
18	0xbc25a187	-0.010109312
19	0x37cc48c0	2.4352572e-05
20	0x3bf78342	0.007553489
21	0x3c64bea8	0.013961472
22	0x3c1c5ccf	0.009543612
23	0x3bb5fe6e	0.005554012
24	0x3ca83e83	0.02053762
25	0x3c42163f	0.011846124
26	0x3b8a9e31	0.0042302837
27	0xbb92359f	-0.0044619585
28	0x3c5e424d	0.013565612
29	0x3c3b09e4	0.011415932
30	0xbba5893c	-0.00505176
31	0xbb88c39f	-0.0041737105
32	0x3c8449cd	0.016148472
33	0x3c0eafce	0.008708907
34	0x3c77b8c6	0.015119737
35	0x3b6b9c08	0.0035951156
36	0x3c826717	0.015918298
37	0x3c6f6c7d	0.014613268
38	0x3b8cbad2	0.0042947317
39	0xbb7a7f9b	-0.0038223031
40	0x3af231b6	0.001847795
41	0x3c302ae7	0.010752416
42	0x3c511ed8	0.012763701
43	0xbb98941c	-0.004656328
44	0x3c390f57	0.011295161
45	0xbbf42848	-0.007451091
46	0x3ca3e13f	0.020004867
47	0xbc5627bd	-0.013070998
48	0x3c52e6e6	0.012872433
49	0x3c4f4330	0.012650296
50	0xb90ad38c	-0.00013239513
51	0x3c19c928	0.009386338
52	0x3c7c859b	0.015412713
53	0xbbd98f28	-0.00663938
54	0x3c9a0eaa	0.01880582
55	0x3a037cf4	0.0005015873
56	0x3c5919af	0.013250752
57	0x3b6c8407	0.0036089437
58	0x3c833d34	0.016020395
59	0x3adc74eb	0.0016819512
60	0x3bbfed61	0.005857155
61	0x3abc5781	0.001436934
62	0x3c7a85de	0.0152907055
63	0x3aed21c6	0.001809173
64	0x3c291713	0.010320443
65	0x3c4f35a5	0.012647067
66	0x3c925b7b	0.017865887
67	0xba48c961	-0.00076594023
68	0x3c8be4a0	0.01707679
69	0x3c51e4d4	0.0128109045
70	0x3c86323c	0.016381375
71	0xbc06c78a	-0.008226285
72	0x3b6ca8af	0.0036111285
73	0x3ab972ee	0.0014148632
74	0x3b83e1b8	0.0040247105
75	0x3b140c93	0.0022590503
76	0x3c0e79c7	0.008696026
77	0x3c3cc2be	0.0115210395
78	0xbb40d2b8	-0.0029422473
79	0x3c9e81ed	0.019349063
80	0x3c68cdb5	0.014209201
81	0x3c3d1071	0.0115395645
82	0x3c8a72e6	0.016900491
83	0x3c1cd775	0.009572853
84	0x3a2d8066	0.0006618559
85	0x3b59eb2f	0.0033251753
86	0xbaa62c6a	-0.0012678031
87	0x3ca75f40	0.02043116
88	0x3ad4e809	0.0016243468
89	0xbbcdeed8	-0.006284576
90	0x3bfcb840	0.007712394
91	0x3c586a32	0.013208913
92	0x3c8f4c1e	0.01749235
93	0x3c661cb6	0.014044931
94	0x3c97425d	0.018464262
95	0x3c49a873	0.012308228
96	0xbc0e806e	-0.008697612
97	0x3cc2a2dd	0.0237593
98	0x3c5ce417	0.013482115
99	0x3ca7c043	0.02047742
100	0x3bb03300	0.0053771734
101	0x3bd8fe2d	0.006622097
102	0x3c1dd929	0.009634295
103	0xbc0f4719	-0.008744978
104	0x3b76fc64	0.0037687058
105	0xbbf3b4ab	-0.007437309
106	0x3bb179a0	0.00541611
107	0xbb775dac	-0.0037745042
108	0x3c8eaf3b	0.01741754
109	0x3c808d62	0.015692417
110	0x3c91c8ef	0.017796008
111	0x3c236fd1	0.00997539
112	0x3b881b16	0.0041536195
113	0x3c5b0774	0.013368476
114	0x3ba03491	0.004889079
115	0x3b712061	0.003679298
116	0x3b1c15a7	0.0023816617
117	0xbc578d25	-0.01315621
118	0x3c33be62	0.010970684
119	0x3c191c8f	0.009345188
120	0x3c34df26	0.011039531
121	0x3c649c4f	0.0139532825
122	0xbb13a094	-0.0022526132
123	0x3c895bcd	0.016767407
124	0xbbb02acd	-0.005376196
125	0x3c2eb739	0.010663801
126	0xbc38c3bc	-0.011277135
127	0x3c842574	0.01613114
128	0x3c774f48	0.015094586
129	0x3b8bd84b	0.0042677275
130	0x3c8bafd5	0.017051617
131	0x3c0117a7	0.007879174
132	0xbb206364	-0.0024473304
133	0xbc04ca18	-0.0081048235
134	0x3c614965	0.013750409
135	0xbaecf7c3	-0.001807921
136	0x3b3c5366	0.0028736233
137	0x3bf8e614	0.007595787
138	0x3c519a45	0.012793128
139	0x3c8bbf62	0.017059032
140	0x3c5bc0f2	0.013412701
141	0x3ca7ff60	0.020507514
142	0x3be86e6b	0.007093241
143	0x3ac5ce8b	0.0015091462
144	0x3bc54fcb	0.006021475
145	0xbc7a8cbc	-0.015292343
146	0xbb4f1230	-0.0031596534
147	0x3ca2865e	0.019839462
148	0x3aa5a784	0.0012638425
149	0xbbffcd32	-0.0078064436
150	0x3bcf0358	0.0063175373
151	0x3c3d89f3	0.011568534
152	0x3c455e36	0.012046387
153	0x3c9f9dac	0.019484363
154	0x3c5c09d9	0.013430082
155	0x3c4bcf34	0.012439538
156	0x3c7bf28f	0.015377655
157	0x3c0e5f6d	0.0086897435
158	0x3ca9688d	0.020679737
159	0x3c2563c4	0.010094587
160	0x3c2d18f5	0.010565032
161	0x3c4623fa	0.012093538
162	0x3a6d6b0c	0.0009056784
163	0x3c524bbf	0.012835442
164	0x3c934b59	0.017980264
165	0xbb2c8761	-0.002632581
166	0x3bfed407	0.0077767405
167	0x3c4000df	0.011718958
168	0x3c3ad0de	0.011402337
169	0x3be924d1	0.0071149846
170	0x3c61d9aa	0.013784805
171	0x3c45cc06	0.012072569
172	0x3c3f0ad6	0.011660298
173	0x3c0b2212	0.00849201
174	0x3c334e77	0.010944
175	0x3b0cc298	0.0021478292
176	0x3c21ac13	0.009867686
177	0x3bbacf76	0.005701001
178	0x3c8e69a7	0.017384363
179	0x3c8988e9	0.016788917
180	0x3cbc3f58	0.022979423
181	0x3c9ff9f3	0.019528365
182	0x3bcd804a	0.0062713968
183	0x3cce875c	0.025211029
184	0x3c82f65f	0.01598662
185	0x3c8ff2df	0.017571865
186	0x3c33db0c	0.010977518
187	0x3c9b9c34	0.018995382
188	0x3c48fddb	0.012267555
189	0x3b71e056	0.0036907396
190	0x3bd8efb1	0.0066203703
191	0x3c897bda	0.01678269
192	0x3c00aa9c	0.007853176
193	0xbc86d7bb	-0.01646029
194	0xbb2529a2	-0.0025201817
195	0x3c92ac23	0.017904347
196	0x3bf8ff3c	0.0075987857
197	0x3c8f4eb1	0.017493578
198	0x3c2e20f6	0.010627976
199	0x3c2e517d	0.0106395455
200	0x3c9eb91f	0.019375382
201	0x3c4d69ee	0.012537463
202	0x3c1e34f6	0.009656182
203	0x3c5f6b4b	0.0136364205
204	0xba3eb3f9	-0.0007274743
205	0x3c163547	0.009167976
206	0x3c23a9a0	0.009989172
207	0x3c153103	0.009105924
208	0xbbfc6f89	-0.0077037257
209	0xbc2b6cda	-0.010462964
210	0xbb270e30	-0.0025490634
211	0x3bd53db7	0.006507601
212	0x3b5c8e42	0.0033654128
213	0xbc48a617	-0.01224663
214	0x3c1d9e52	0.009620266
215	0x3c5cfbf4	0.013487805
216	0x3c160ed4	0.009158809
217	0x3be8adc6	0.0071007935
218	0x3af85d99	0.0018948793
219	0x3c0e5f4b	0.008689712
220	0x3bc2ad0c	0.005941039
221	0x3c05dc7e	0.008170245
222	0x3c800c90	0.01563099
223	0x3bb01fc3	0.00537488
224	0x3c30900f	0.010776534
225	0x3c15029a	0.009094859
226	0x3adef4c8	0.0017010206
227	0x3c341830	0.010992095
228	0x3c01b452	0.007916527
229	0x3cbf878d	0.023380065
230	0xbb3bf003	-0.0028676994
231	0x3ca0293e	0.019550916
232	0x3c34409f	0.011001735
233	0x3b9935cd	0.004675603
234	0x3c343064	0.010997865
235	0x3b15caef	0.0022856554
236	0xba6bf39a	-0.0009000838
237	0xbbb532dc	-0.0055297446
238	0x3c03ba68	0.008040048
239	0x3c593245	0.013256614
240	0x3bccc924	0.006249564
241	0x3c885037	0.016639812
242	0x3c9d80c5	0.019226441
243	0x3c957e12	0.018248592
244	0x3c83bbf0	0.016080827
245	0x3c3ec255	0.011643012
246	0x3b8fd1ab	0.004389008
247	0xbb170663	-0.0023044578
248	0xbbbe9e66	-0.0058172224
249	0x3c160703	0.009156945
250	0x3c0f3d6e	0.008742673
251	0x3c94c3fe	0.018159863
252	0x3c6c1cd4	0.01441117
253	0xbc2936ee	-0.010328038
254	0x3bce410b	0.006294375
255	0x3c20301d	0.009777096

network_body._body_endoder.seq_layers.2.weight f4 [256, 256]
0	0x3a59e207	0.0008311574
1	0x3d887f2e	0.066648826
2	0x3dca6d91	0.098841794
3	0x3d06f356	0.032946907
4	0xbc1bf7c4	-0.009519521
5	0x3de15ccc	0.11004028
6	0xbb9711b3	-0.004610264
7	0x3d57b6f8	0.052664727
8	0xbb54fcd3	-0.0032499328
9	0xbdb7d8e8	-0.089769185
10	0x3d8aceab	0.067777
11	0x3c12f67c	0.008969899
12	0xbd4c056d	-0.049809862
13	0xbc820d23	-0.015875405
14	0xbda5733f	-0.08078622
15	0xbd03c48d	-0.032169867
16	0xbd225eeb	-0.039641302
17	0x3db9e216	0.090763256
18	0xbd64c0c3	-0.055847894
19	0xbba83e9e	-0.0051344177
20	0x3d65ca03	0.056100857
21	0xbcb27c15	-0.021787683
22	0x3ddad9b9	0.106860586
23	0xbd85f289	-0.065404005
24	0xbce89f70	-0.028396338
25	0xbc4ef718	-0.012632154
26	0x3c04c130	0.0081027
27	0x3da19e62	0.07891537
28	0xbd36f463	-0.04466666
29	0xbc9bc786	-0.019016039
30	0xbd870327	-0.06592398
31	0x3d6a9a2d	0.05727594
32	0xbde6c524	-0.1126807
33	0xbde78efe	-0.113065705
34	0xbd0108c9	-0.03150252
35	0x3ce36379	0.027757393
36	0x3c930707	0.017947687
37	0xbc02e66b	-0.007989506
38	0xbda16163	-0.07879903
39	0x3d9ca2c9	0.07648236
40	0x3b9e9d65	0.0048405402
41	0x3d2a9b66	0.041652106
42	0xbc916897	-0.017750068
43	0x3d8c183a	0.06840558
44	0xbddcb502	-0.10776712
45	0x3dcdd6d9	0.100507446
46	0xbd3fb6f5	-0.04680534
47	0x3d2dc2ae	0.04242199
48	0x3d47463e	0.048650973
49	0xbd413bd4	-0.047176197
50	0x3e084ee9	0.13311352
51	0xbc65898b	-0.014009844
52	0xbdb06632	-0.08613242
53	0xbd1c8b56	-0.03821882
54	0xbcbab88c	-0.022793077
55	0xbd2aeae7	-0.041727927
56	0xbd2df022	-0.042465337
57	0xbd55bd0a	-0.052182235
58	0x3cbf97f2	0.023387883
59	0x3bbc5a13	0.0057480424
60	0x3c5f5f7a	0.013633603
61	0xbc646372	-0.013939725
62	0x3d94d8a9	0.07267887
63	0xbdb5a76a	-0.08869822
64	0x3cc63c60	0.02419871
65	0xbd5eec45	-0.054424543
66	0x3d299c45	0.041408796
67	0xbd1d1d0e	-0.038357787
68	0xbdca1040	-0.09866381
69	0xbcc67157	-0.024223967
70	0xbd5bb184	-0.05363609
71	0x3cbec385	0.02328659
72	0xbd741b47	-0.059596326
73	0xbe166982	-0.14688686
74	0x3d99d066	0.07510452
75	0x3c42fdf4	0.011901367
76	0x3cd9ae91	0.026572498
77	0x3e1bd592	0.1521819
78	0x3d8551bc	0.0650973
79	0xbcc1cf1e	-0.023658331
80	0x3da4119b	0.080111705
81	0xbd3d82f1	-0.046267454
82	0xbcc42f4a	-0.02394833
83	0xbc8f8411	-0.017519029
84	0x3e07b36b	0.13252036
85	0x3deac49e	0.11463283
86	0x3e2193e3	0.1577907
87	0xbd003318	-0.031298727
88	0x3c65db5e	0.014029352
89	0x3d7493a7	0.059711125
90	0x3c7ffb5a	0.015623892
91	0x3db01561	0.08597828
92	0xbe055e0d	-0.13024159
93	0xbd9ed6ea	-0.07755835
94	0x3d38659b	0.045018774
95	0x3db1cf31	0.08682097
96	0xbdbe1c02	-0.09282686
97	0x3d701003	0.05860902
98	0xbcebae16	-0.028769534
99	0x3b345c7a	0.002752094
100	0xbbdc2268	-0.0067179687
101	0xbc34c2c9	-0.0110327685
102	0xbe15c7f0	-0.14627051
103	0x3c1a4676	0.009416213
104	0x3d366e39	0.04453871
105	0xbdf5d9a0	-0.12004399
106	0xbd7ac1b7	-0.061219897
107	0x3dc0f9b6	0.094226286
108	0xbc12d8bc	-0.008962806
109	0x3bd6619a	0.0065423967
110	0xbd98bc1c	-0.07457754
111	0xbc9f90f5	-0.0194783
112	0x3a03c067	0.00050259236
113	0x3d382f88	0.044967204
114	0x3d41b8b2	0.04729528
115	0xbe12ba0e	-0.14328787
116	0x3b4a42ce	0.0030862573
117	0x3dd58263	0.1042526
118	0xbd81a807	-0.06330877
119	0xbd0e3196	-0.034715258
120	0x3d41168e	0.04714065
121	0xbd7345d4	-0.059392765
122	0xbdd64f88	-0.10464388
123	0xbcaea15c	-0.021317177
124	0xbc9702ac	-0.018433891
125	0xbd451dea	-0.04812423
126	0x3b279416	0.0025570444
127	0x3ce1df0a	0.027572174
128	0x3c84145b	0.016122987
129	0xbd13aa14	-0.03605087
130	0xbc84f233	-0.01622877
131	0x3d505f0e	0.0508719
132	0xbd6166b8	-0.0550296
133	0xbc497eec	-0.012298327
134	0xbc9dbf1b	-0.019256165
135	0x3d07810e	0.03308206
136	0xbd61efc4	-0.0551603
137	0xbd87dc50	-0.06633818
138	0xbddada15	-0.10686127
139	0x3d8cd488	0.068764746
140	0x3d62864e	0.055303864
141	0xbc2fbe88	-0.0107265785
142	0xbdb92f48	-0.09042221
143	0x3d0f2c20	0.03495419
144	0xbe15349c	-0.1457085
145	0xbd93c1c4	-0.07214692
146	0x3b087432	0.002082121
147	0x3e3779a6	0.17917499
148	0x3d51723c	0.051134333
149	0xbd03ab44	-0.032145754
150	0x3d29200a	0.04129032
151	0x3d24e103	0.04025365
152	0xbdf7bccd	-0.12096558
153	0xbd8933ac	-0.06699309
154	0x3dadaf22	0.084806696
155	0x3de3c787	0.11122041
156	0xbc9b0b91	-0.018926414
157	0xbccab21b	-0.02474313
158	0x3a00d168	0.00049140165
159	0x3cf144e8	0.029451802
160	0x3d3f5691	0.046713416
161	0x3d4aa663	0.049475085
162	0xbcd8a05b	-0.026443651
163	0x3dc1e6ef	0.09467875
164	0x3dbd10cf	0.092317216
165	0x3c354783	0.011064413
166	0xbe0fdf67	-0.14050065
167	0x3dd2f871	0.10301293
168	0xbcc55e16	-0.024092715
169	0x3c53c1ee	0.012924654
170	0xbd57cfa5	-0.05268826
171	0xbd5ad77b	-0.053428154
172	0xbcf4d8a4	-0.029888459
173	0xbda12e61	-0.07870174
174	0x3d597253	0.053087544
175	0xbc20f94f	-0.009825065
176	0x3de163e7	0.11005383
177	0xbca6f02b	-0.020378193
178	0xbd3edb15	-0.04659565
179	0xbdc8db2c	-0.09807429
180	0x3d8e604c	0.06951961
181	0xbd528aeb	-0.051402014
182	0x3d055c32	0.032558627
183	0xbd892d1b	-0.06698056
184	0xbc203a73	-0.00977956
185	0x3d71236b	0.058871668
186	0xbcd9d01f	-0.026588498
187	0x3d8447cd	0.064590074
188	0xbd20bfe9	-0.03924552
189	0x3d078ac7	0.033091333
190	0x3dc47b51	0.09593833
191	0xbc4fc159	-0.012680375
192	0x3c3bef9d	0.0114707025
193	0x3e1f47b3	0.15554695
194	0xbc85ff56	-0.016357105
195	0xbdd1f36a	-0.10251506
196	0xbd57cf15	-0.052687723
197	0x3cd1798b	0.025570652
198	0xb98955e4	-0.0002619467
199	0xbdc43455	-0.09580294
200	0xbc2e3d06	-0.010634666
201	0x3dd62319	0.10455913
202	0xbdb039ff	-0.08604812
203	0xbd919ba4	-0.07109764
204	0x3d6375aa	0.055532135
205	0x3e199fa5	0.15002306
206	0x3dd235ff	0.10264205
207	0xbd8db421	-0.069191225
208	0x3db1aeb6	0.086759016
209	0xbac54d6b	-0.001505298
210	0x3d051665	0.03249206
211	0x3c0c70da	0.008571828
212	0x3cc8ed66	0.024527263
213	0xbdf1dbf9	-0.118095346
214	0xbdbe02fa	-0.092779115
215	0x3d282d15	0.04105862
216	0xbd34b3f8	-0.044116944
217	0x3d661c18	0.056179136
218	0x3ce8f808	0.028438583
219	0xbcb77a78	-0.022397265
220	0xbcc27088	-0.0237353
221	0xbb761c95	-0.0037553657
222	0x3a358769	0.000692478
223	0xbdae01b9	-0.08496422
224	0x3d4251c3	0.047441255
225	0xbd945ffd	-0.07244871
226	0xbe044570	-0.12917113
227	0xbc094ee1	-0.008380623
228	0x3d79f1a6	0.06102147
229	0x3defd5b5	0.11710683
230	0x3ca0c595	0.019625464
231	0xbdc5faf8	-0.09667009
232	0x3d7e6a0c	0.062112853
233	0x3de2d567	0.110758595
234	0xbdcf2980	-0.10115337
235	0x3d07546d	0.0330395
236	0xbc538d92	-0.012912171
237	0xbc05cf40	-0.008167088
238	0x3dc1d23a	0.09463926
239	0x3d68777f	0.056754585
240	0xbd5c14fe	-0.053730957
241	0xbc7cc3f0	-0.0154275745
242	0xbd9cd15d	-0.076571204
243	0xbd4a5f1b	-0.049407106
244	0xbc63c40a	-0.01390172
245	0xbb47fdc4	-0.0030516246
246	0x3c4a229f	0.012337356
247	0xbd31fd53	-0.04345448
248	0x3d948d3e	0.07253502
249	0xbd01b8c9	-0.031670365
250	0xbdb262a7	-0.08710223
251	0x3c705879	0.014669531
252	0xbd14c8c9	-0.036324296
253	0x3cfd4b96	0.030919831
254	0x3dad55d9	0.0846364
255	0x3d3b0588	0.045659572

network_body._body_endoder.seq_layers.2.bias f4 [256]
0	0xbb97690b	-0.0046206764
1	0x3bd8aaab	0.006612142
2	0x3aa90bc0	0.0012897179
3	0xbc80fb81	-0.015744926
4	0x3ab0a5e1	0.001347717
5	0x3bc733f1	0.00607919
6	0xbb8aab6c	-0.004231861
7	0x3c18e099	0.009330892
8	0xbb0d8e92	-0.002159987
9	0x3ccdd7b7	0.025127275
10	0x3bb58e90	0.0055406764
11	0x3c28ba99	0.010298395
12	0x3c9e8878	0.019352183
13	0xbc34a51a	-0.011025691
14	0x3c71918f	0.0147441765
15	0xbba271d9	-0.0049574194
16	0xbbfbd840	-0.007685691
17	0x3c5d2775	0.013498177
18	0xbb8091fe	-0.0039236536
19	0x3bda91e1	0.006670222
20	0x3bedaa73	0.007252985
21	0xbbb92af6	-0.0056508733
22	0x3c325b2a	0.010885993
23	0x3b0da3ae	0.0021612453
24	0x3cbcbc33	0.02303896
25	0x3c2281da	0.009918654
26	0xbc15bb1d	-0.00913885
27	0x3c071733	0.008245277
28	0xbc11e2f0	-0.008904204
29	0xbc5056ff	-0.012716054
30	0x3c42b188	0.011883147
31	0xbb9c434e	-0.0047687655
32	0x3c69355a	0.014233911
33	0x3c172572	0.009225236
34	0x3c896f3a	0.01677667
35	0x3c7cdd7f	0.015433668
36	0xbc75eebf	-0.015010535
37	0xbc600d1c	-0.0136750005
38	0xbc630316	-0.013855716
39	0xb9e24ec3	-0.0004316476
40	0xbc4da6cd	-0.012551975
41	0x3c44eab1	0.012018845
42	0xbc78ecff	-0.015193223
43	0xbc1dbbf5	-0.009627332
44	0x3c485b0f	0.012228741
45	0x3c510b9e	0.012759117
46	0xbaa60b7b	-0.0012668216
47	0xbac7d9e8	-0.0015247436
48	0xbb716e3d	-0.0036839389
49	0x3c5df131	0.013546274
50	0xbb4bbe1a	-0.003108865
51	0xbc62a9f2	-0.013834463
52	0x3c178878	0.009248845
53	0xbac18680	-0.0014764816
54	0x3c0e32d3	0.00867911
55	0x3bce1092	0.0062885964
56	0x3bc6a88a	0.006062572
57	0xbb9d26fa	-0.004795906
58	0x3cbbdf00	0.022933483
59	0xbc342bf6	-0.010996809
60	0xbb56584b	-0.0032706435
61	0x3b8b0980	0.004243076
62	0x3c3cc240	0.011520922
63	0xb9c2a451	-0.0003712499
64	0x3bcb67eb	0.0062074563
65	0xb9735db9	-0.000232092
66	0xbc5fbd24	-0.0136559345
67	0x3c64d98e	0.013967885
68	0x3c4e1508	0.012578256
69	0xbaa7c186	-0.0012798763
70	0x3c161f35	0.009162714
71	0xbbc25890	-0.0059309676
72	0xbb7df12b	-0.0038748484
73	0x3cceb7e8	0.025234178
74	0xbb835cab	-0.0040088496
75	0x3c4cbd66	0.012496328
76	0xbb150a13	-0.00227416
77	0xbad6f6ab	-0.0016400417
78	0x3b0055eb	0.001958246
79	0xbc2dc160	-0.010605186
80	0x3c4ebbc7	0.012618012
81	0x3ca93894	0.020656861
82	0x3b54322f	0.0032378545
83	0xbb290ecb	-0.002579617
84	0x3c6adfc9	0.014335581
85	0x3c2f2156	0.0106891
86	0x3bbc1a08	0.005740408
87	0xbc3dfd6a	-0.011596063
88	0x3cb1a050	0.021682888
89	0xbbc7eafd	-0.006101011
90	0x3b3fd9c6	0.002927409
91	0x3c58a496	0.013222834
92	0x3bdef517	0.0068041193
93	0xbc014410	-0.0078897625
94	0x3b4108a4	0.0029454613
95	0xbbf82022	-0.00757219
96	0xbc6b393c	-0.014356907
97	0xbc5d36cd	-0.013501835
98	0xbbb1851d	-0.0054174797
99	0x3c3615dd	0.011113611
100	0x3c8b28d8	0.01698725
101	0xbc3fa86e	-0.011697872
102	0x3c1a5dca	0.009421775
103	0x3b32f1ae	0.0027304697
104	0x3c93dc1d	0.018049294
105	0x3b8e206a	0.00433736
106	0x3c3c184e	0.011480404
107	0x3b332f76	0.0027341521
108	0xbc96e239	-0.018418418
109	0xbb279834	-0.0025572898
110	0xbb00c9c9	-0.0019651523
111	0x3c3f5bab	0.01167957
112	0x3c5e7c98	0.01357951
113	0xbb80fafa	-0.0039361687
114	0x3c543f53	0.012954551
115	0x3c5f95af	0.013646527
116	0xba8278d2	-0.000995422
117	0x3c5f8500	0.0136425495
118	0xbb247218	-0.002509242
119	0xb96aebb0	-0.0002240378
120	0x3c034214	0.00801136
121	0xbc104f51	-0.008807973
122	0x3c515a26	0.012777841
123	0xba5da563	-0.00084551255
124	0x3c3e1681	0.011602045
125	0x3c6164d8	0.013756953
126	0x3c90b2d9	0.017663406
127	0x3c1e7d57	0.009673438
128	0x3c18474a	0.00929434
129	0x3c853d6f	0.016264645
130	0xbc66273c	-0.01404744
131	0x3c38d2e6	0.011280751
132	0x3aa54cf5	0.0012611436
133	0x3c683321	0.014172346
134	0xbcade037	-0.021225078
135	0xbb67fb1e	-0.003539748
136	0x3b9f5adb	0.0048631257
137	0xba24a993	-0.0006281372
138	0xbc290f44	-0.010318581
139	0xbc0b6e77	-0.008510224
140	0x3c693e60	0.014236063
141	0x3bccca64	0.006249713
142	0x3af7c9a6	0.00189047
143	0xbba544c7	-0.0050435993
144	0x3c683cb4	0.014174629
145	0x39ff74d7	0.00048724443
146	0x3c619a7b	0.013769741
147	0xbc411a00	-0.011785984
148	0xb9cab6cc	-0.00038664637
149	0xbb4c7689	-0.0031198582
150	0x3b901213	0.004396686
151	0x3c3938aa	0.011305014
152	0x3c306d05	0.01076818
153	0xbb7eb8f6	-0.003886757
154	0x3bcc6dc0	0.006238669
155	0x3c123a45	0.008925025
156	0x3b16b18c	0.002299401
157	0x3c8145b2	0.015780304
158	0xbb686320	-0.0035459474
159	0x3bccd470	0.0062509105
160	0xbb86062b	-0.0040900907
161	0x3c019d38	0.007911019
162	0x3b7fdca8	0.0039041433
163	0xbb4a58f3	-0.0030875772
164	0x3c0e6b05	0.008692508
165	0xbbc3c811	-0.0059747775
166	0xbbf041f5	-0.0073320814
167	0x3bd2fd6e	0.0064389026
168	0xbc41a19f	-0.011818319
169	0x3c4fef4b	0.012691329
170	0xbc1dafd8	-0.009624444
171	0xbc242c39	-0.010020309
172	0x3c0e931e	0.008702068
173	0x3c250f56	0.010074457
174	0x3ba688e6	0.0050822375
175	0xbb4fa517	-0.0031684095
176	0x3c27b68e	0.0102363955
177	0x3b5f9b62	0.0034119715
178	0xbaf28405	-0.001850248
179	0x3b6925c7	0.0035575496
180	0x3bb8fd13	0.005645403
181	0x3cadbf3a	0.021209348
182	0xbbad369a	-0.00528605
183	0x3c8a528d	0.016885066
184	0x3b75a243	0.0037480749
185	0x3c470b6b	0.012148718
186	0xba29fe87	-0.0006484766
187	0x3c4d0604	0.012513641
188	0x3bfeaf3d	0.007772355
189	0xbc1322f3	-0.0089805005
190	0x3c38becb	0.011275957
191	0x3ca12c1b	0.019674351
192	0x3c6da44e	0.014504505
193	0x3c67e2f4	0.014153231
194	0x3c7f84a8	0.015595593
195	0x3c4d4916	0.012529632
196	0x3c80f2a4	0.0157407
197	0x3be23b12	0.0069040144
198	0x3b8038d2	0.0039130235
199	0xbb6c88db	-0.0036092314
200	0x3c6c11d3	0.0144085465
201	0x3bd9c39f	0.0066456343
202	0x3c93d941	0.01804793
203	0xbc58186f	-0.013189419
204	0xbbe5c842	-0.007012398
205	0x3c034b07	0.008013493
206	0x3c6c4137	0.014419845
207	0x3c93c8dd	0.018040115
208	0xbc0756b8	-0.008260421
209	0x3c3eedfa	0.011653418
210	0x3b796721	0.0038055854
211	0x3c564d43	0.013079944
212	0xbb8603e9	-0.0040898216
213	0x3ca05be8	0.019575074
214	0x3a55e234	0.0008159012
215	0xbb57d373	-0.003293243
216	0x3c749ee7	0.014930463
217	0xbbff0e10	-0.007783659
218	0x3ca6faf6	0.02038334
219	0x3a67d6b7	0.00088439457
220	0xbbc08cf9	-0.0058761803
221	0x3c97d4a3	0.01853401
222	0x3c006de3	0.007838699
223	0xbc788f8d	-0.015170944
224	0xbbc67aa0	-0.0060570985
225	0xbbe058df	-0.0068465318
226	0x3c02918e	0.007969273
227	0x3ba3a044	0.0049934704
228	0x3c1e59eb	0.009664993
229	0xbb9343c5	-0.0044941627
230	0x3c305682	0.010762813
231	0xbc080439	-0.008301788
232	0x3b7392d2	0.003716637
233	0xbbda83ea	-0.0066685574
234	0xbb9d56d9	-0.004801613
235	0x3c377304	0.011196855
236	0xbc075d5f	-0.0082620075
237	0x3c137056	0.008998951
238	0xbc3a2a9a	-0.011362696
239	0x3a743aad	0.00093166047
240	0x3b64f29c	0.0034934646
241	0x3c48e688	0.012261994
242	0x3c277bde	0.010222403
243	0x3c047a24	0.008085761
244	0x3c2712aa	0.010197321
245	0xbb5cbf72	-0.0033683446
246	0x3c7cacc3	0.015422049
247	0xbc3c9b80	-0.011511683
248	0x3bab7f45	0.0052336776
249	0x3c866e46	0.016410004
250	0x3cbecd75	0.023291329
251	0x3c01ec9d	0.007929948
252	0x3c90ceb2	0.017676685
253	0x3b9633d6	0.004583816
254	0x3bdeb990	0.006797023
255	0x3a58268d	0.00082454906

action_model._continuous_distribution.log_sigma f4 [1, 3]
0	0x3bc11844	0.0058927853
1	0x3b4ffc05	0.0031735909
2	0x3ad64eb4	0.001635036

action_model._continuous_distribution.mu.weight f4 [3, 256]
0	0xbcd653db	-0.026163032
1	0xbb9e3918	-0.0048285834
2	0xbc830ecb	-0.015998265
3	0xbb9a37bf	-0.0047063525
4	0x3cb71df7	0.022353156
5	0x3c0f8deb	0.008761863
6	0x3c4d72dc	0.012539592
7	0x3d075a86	0.033045314
8	0x3b832729	0.004002471
9	0x3bd664e8	0.0065427907
10	0xbc7d88e8	-0.0154745355
11	0x3aad6bfa	0.0013231032
12	0x3bd9dec3	0.0066488697
13	0xbc16473b	-0.009172256
14	0x3b7fb114	0.003901546
15	0xbc03dd18	-0.008048318
16	0xbc6cfd6c	-0.014464717
17	0x3c672c67	0.014109707
18	0xbc7c5094	-0.015400071
19	0x3c8b7a38	0.017026052
20	0x39243da1	0.00015663217
21	0xbcfa732a	-0.030572493
22	0x3ca9918b	0.020699283
23	0x3c211c1e	0.009833364
24	0xb932f450	-0.00017066416
25	0x3c8ecd34	0.017431833
26	0xbcbc3070	-0.022972316
27	0x3c25e8c8	0.0101263
28	0xbb93af3d	-0.004506974
29	0xbc3064a9	-0.010766187
30	0x3c8209cd	0.015873814
31	0x3c1f5c2b	0.009726564
32	0x3c9226a4	0.01784069
33	0xbbea1634	-0.00714376
34	0x3c05400a	0.008132944
35	0x3cb2d21a	0.0218287
36	0xbc5e5bae	-0.013571663
37	0xbc84e99d	-0.016224677
38	0xbc45cdaa	-0.01207296
39	0x3c2a9a0b	0.010412703
40	0xbc811518	-0.015757129
41	0x3cb26204	0.021775253
42	0xbc4930f9	-0.012279742
43	0xbd3d1fa9	-0.04617277
44	0xbbc3edb4	-0.005979264
45	0xbc4d4854	-0.012529451
46	0x3c1cd2de	0.009571759
47	0x3b9cce1a	0.0047853114
48	0xbb2e79ce	-0.0026622894
49	0xbb597dd0	-0.0033186562
50	0xbbf04522	-0.00733246
51	0xbc80119a	-0.015633393
52	0x3b956139	0.004558709
53	0xbc0b6219	-0.008507275
54	0x3d052880	0.032509327
55	0x3cbb82c3	0.0228895
56	0x3b56247b	0.0032675553
57	0xbc60a108	-0.013710268
58	0x3bf49098	0.007463526
59	0xba82c26d	-0.0009976156
60	0xbc138d9b	-0.009005929
61	0xbbf5dd1a	-0.007503164
62	0x3b5d29e7	0.00337469
63	0x3bd9d1dc	0.0066473316
64	0x3cbc27ae	0.02296814
65	0x3b8fe9de	0.004391893
66	0xbc90dc44	-0.017683156
67	0x3cca31bf	0.024681924
68	0x3c2b0baa	0.010439793
69	0xbb0a2d91	-0.0021084289
70	0x3c3bc598	0.011460684
71	0x3b94542b	0.004526635
72	0xbc1f6c38	-0.009730391
73	0x3b9f7f74	0.0048674885
74	0xb8b28607	-8.512666e-05
75	0x3c40b56a	0.0117620025
76	0x3bf6f748	0.0075368024
77	0xbc9a4d8c	-0.018835805
78	0x3bbf9adb	0.0058473176
79	0x3b35d1a0	0.0027743354
80	0x3bee5e3e	0.007274418
81	0x3bf5c2dc	0.0075000357
82	0x3c9260ba	0.017868388
83	0xbc2a5012	-0.010395067
84	0x3b2828cf	0.002565909
85	0x3c94a271	0.018143864
86	0xbc7927c3	-0.015207234
87	0xbc959756	-0.01826064
88	0x3bf95e4e	0.007610119
89	0x3b959283	0.0045645847
90	0xbb47b76d	-0.003047432
91	0x3c33ebf4	0.010981549
92	0x3c8e106c	0.017341815
93	0x3b5dedf1	0.0033863748
94	0xbc354234	-0.011063147
95	0xbc1d9cdf	-0.0096199205
96	0xbcb71751	-0.022349985
97	0xbbbf6292	-0.005840608
98	0xbcbaaeaf	-0.022788374
99	0x3be3c148	0.006950531
100	0x3c058a26	0.008150613
101	0x375ca434	1.3151253e-05
102	0x3b99b471	0.0046906997
103	0x3d04ac84	0.032391086
104	0x3c952ff7	0.018211348
105	0xbbdf7d46	-0.0068203537
106	0x3c18ddb0	0.009330198
107	0x3c1c9e06	0.00955916
108	0xbbe8d022	-0.0071048895
109	0x3b5e9fc3	0.0033969737
110	0xbc06c27e	-0.0082250815
111	0x3cf67371	0.030084344
112	0x3bc3f812	0.0059805
113	0xbc08be33	-0.008346128
114	0xbbc732f5	-0.0060790726
115	0x3c0339bb	0.0080093695
116	0xbb0b8dad	-0.0021294162
117	0x3cad103b	0.021125903
118	0x3aa5371a	0.0012604923
119	0x3b9bd546	0.004755649
120	0x3c9f6e2a	0.01946171
121	0xbb744105	-0.00372702
122	0x3bc2f1a9	0.0059492183
123	0xbc0df347	-0.008663959
124	0xbbc6559e	-0.006052687
125	0x3cdf6aad	0.027272547
126	0x3c6a3ead	0.01429717
127	0x3cb7c1d7	0.022431297
128	0x3c84396e	0.016140666
129	0x3b164e0e	0.0022934708
130	0xbbb4dada	-0.005519253
131	0x3c6c273c	0.014413651
132	0xbc4db2fd	-0.012554881
133	0x3b9acacf	0.0047238837
134	0xbab23aa2	-0.0013597796
135	0x3c70d067	0.0146981245
136	0x3bd6a53a	0.0065504583
137	0x3cdc9c26	0.026929926
138	0x3ab8797d	0.0014074292
139	0xbc2d1677	-0.010564438
140	0x3bafa3f5	0.0053601214
141	0x3a8e7d02	0.0010870995
142	0xbbec9560	-0.0072199553
143	0xbc49dff6	-0.012321463
144	0x3c6a3445	0.014294689
145	0x3be4aa74	0.0069783274
146	0x3c40cf7b	0.011768217
147	0xbc159b0c	-0.009131204
148	0xbbf92592	-0.0076033557
149	0xbbcce782	-0.006253184
150	0xbc2e0bd0	-0.0106229335
151	0x3cd1a3e0	0.025590837
152	0x3c469f58	0.012122951
153	0xbc4eea0d	-0.012629044
154	0x3c8b7dca	0.017027754
155	0xbb8c5337	-0.004282381
156	0x3cd518ad	0.026012743
157	0x3cc44194	0.023957051
158	0xbbdfa9e1	-0.006825671
159	0xbbbaa68d	-0.005696124
160	0x3b89a9fa	0.004201171
161	0xbc54b235	-0.012981941
162	0xbc081de0	-0.008307904
163	0xbcc3cb5b	-0.023900678
164	0xba433f98	-0.0007448136
165	0xbc55bce3	-0.013045522
166	0xbd26b547	-0.040700223
167	0x3cbe45da	0.023226667
168	0xbbc7441c	-0.0060811173
169	0x3cd87e10	0.026427299
170	0xbb58e8a4	-0.003309765
171	0xb93d8954	-0.00018075603
172	0x3cd633d9	0.02614777
173	0x3cc4b8b4	0.024013855
174	0xbc555f04	-0.013023142
175	0xbbaba7a6	-0.005238491
176	0x3b473fe1	0.0030403065
177	0x3b7dfc42	0.0038755094
178	0xbc8caa37	-0.017171009
179	0xbc1ffddd	-0.009765116
180	0x3d22e704	0.039771095
181	0x3c10acdf	0.008830278
182	0xbc3497b5	-0.011022498
183	0x3c05638d	0.008141411
184	0xbc2c15b6	-0.010503223
185	0xbbb2a980	-0.005452335
186	0xbb7d5ec3	-0.0038661219
187	0x3c1f537f	0.009724497
188	0xbaba4d00	-0.0014213622
189	0x3c21a7fe	0.009866713
190	0x3bf3f605	0.0074450993
191	0x3bdb912b	0.006700655
192	0x3bbbd2f6	0.0057319356
193	0x3b94cd02	0.0045410404
194	0x3c1a69fe	0.009424685
195	0x3c31cea8	0.010852493
196	0xbaf22d84	-0.00184767
197	0x3c9d7e6f	0.019225327
198	0xbc8ae7bc	-0.016956203
199	0xbb8a5e0e	-0.004222638
200	0x3c1798fd	0.009252784
201	0x3bcd6442	0.006268055
202	0x3b214e22	0.0024613221
203	0xbca788fc	-0.020451061
204	0xbbeeecad	-0.0072913975
205	0x3c75799b	0.014982606
206	0x3a77c421	0.0009451528
207	0x3bc23c6b	0.0059276125
208	0xbb1b140c	-0.0023663072
209	0x3c9fde7f	0.019515274
210	0x3ca07d17	0.019590897
211	0x3ccaeb11	0.024770292
212	0x3bab344a	0.005224739
213	0x3c74ee8d	0.014949453
214	0x3c545759	0.012960278
215	0xbc838504	-0.016054638
216	0x3ca379d0	0.019955546
217	0xb8b805e6	-8.7749024e-05
218	0xbc1d43a1	-0.0095986435
219	0x3b7a92a6	0.0038234382
220	0xbc175bd2	-0.0092382
221	0x3c3e68a0	0.011621624
222	0x3bef2645	0.0072982633
223	0xbc963987	-0.018337978
224	0xbb1031c4	-0.002200232
225	0xbc9e3168	-0.019310668
226	0x3be84c9f	0.007089212
227	0x3c297d7c	0.010344859
228	0x3cdadd2f	0.026716797
229	0xbc113239	-0.008862072
230	0x3c9768f7	0.018482668
231	0xbb3b40aa	-0.0028572478
232	0xbbbcaae9	-0.0057576788
233	0x3aec2123	0.0018015247
234	0x3b431edf	0.002977304
235	0x3ceecd7c	0.029150717
236	0xbbfb2434	-0.007664228
237	0x3c796fcb	0.015224407
238	0xbbb2b803	-0.005454065
239	0x3bbfd625	0.0058543854
240	0x3c20ec9b	0.009822036
241	0x3c4dde52	0.012565212
242	0xbbb8e25c	-0.0056422185
243	0xbbee89a3	-0.007279591
244	0x3c5fde7c	0.013663884
245	0xbb92e27a	-0.0044825645
246	0xbb6a2d7c	-0.0035732677
247	0x3b1299ff	0.002236962
248	0xbbb82bc1	-0.0056204502
249	0x3bba2393	0.0056805103
250	0x3bfd7f30	0.007736109
251	0x39bfb9f8	0.00036568916
252	0x3b6253de	0.0034534852
253	0x3caae37e	0.02086043
254	0x3c9aa23b	0.018876186
255	0xbc243654	-0.010022718

action_model._continuous_distribution.mu.bias f4 [3]
0	0x3ba2ef97	0.004972409
1	0xbb877ea7	-0.004134971
2	0xbbd3f90c	-0.0064688977

action_model._discrete_distribution.branches.0.weight f4 [7, 256]
0	0xbc0e0e01	-0.008670331
1	0x3bf478ef	0.0074607055
2	0x3b9de611	0.004818686
3	0xbc6983d0	-0.014252618
4	0x3c1620cd	0.009163094
5	0x3ae61043	0.0017552454
6	0xbc268290	-0.010162964
7	0x3be77b8c	0.0070642885
8	0x3aefc89b	0.0018294038
9	0x3cce771a	0.025203276
10	0x3c26c6ac	0.010179203
11	0x3b0467ca	0.0020203465
12	0x3c4636c9	0.012098023
13	0xb8c594aa	-9.421383e-05
14	0x3c2a4f04	0.010394815
15	0xbc365e7a	-0.011130923
16	0xbab3d234	-0.0013719262
17	0x3cc29509	0.023752706
18	0x3b27db9c	0.0025613075
19	0x3c5c266a	0.013436893
20	0x3bdf5808	0.006815914
21	0xbc7af531	-0.015317247
22	0x3c70e682	0.014703395
23	0x3c89c320	0.016816676
24	0x3b291292	0.0025798422
25	0x3a3fa49b	0.00073106
26	0xbbe2b83e	-0.006918936
27	0x3b83b4f8	0.004019376
28	0x3b480c03	0.0030524738
29	0xbca5ca8c	-0.020238183
30	0xba29fb7c	-0.00064843125
31	0xbc532194	-0.012886424
32	0x3b2864be	0.0025694813
33	0x3cd7ea84	0.026356943
34	0x3b8345bf	0.004006117
35	0x3c6f8d9d	0.014621166
36	0xbc67b2c0	-0.014141738
37	0xbc83b98e	-0.01607969
38	0xbbecb910	-0.0072242096
39	0xbbd9900e	-0.006639487
40	0xbbeccc31	-0.00722649
41	0x3bf9f01f	0.0076275016
42	0xbca6031c	-0.020265155
43	0xbc5529fe	-0.0130105
44	0xba4632db	-0.00075606786
45	0x3cf3186f	0.029674737
46	0xbc714ca8	-0.014727749
47	0xbc850137	-0.01623593
48	0xbc718326	-0.014740741
49	0x3c230295	0.009949346
50	0xba0932d2	-0.0005233708
51	0xbc59137b	-0.013249273
52	0x3c1c3a76	0.009535423
53	0x3bebc676	0.0071952892
54	0x3c96ba22	0.018399302
55	0x3ac02bcd	0.0014661491
56	0xbc2e2f8e	-0.010631455
57	0xbb86a5e3	-0.0041091307
58	0x3c46264a	0.01209409
59	0x3be17172	0.006879979
60	0xbc011c58	-0.007880293
61	0x3bdaf703	0.006682278
62	0x3c38f705	0.011289363
63	0x3c0ea339	0.0087059075
64	0x3c2f16a1	0.0106865475
65	0xbbaf2670	-0.0053451583
66	0xbcad4aa2	-0.021153752
67	0x3ca71c8b	0.020399353
68	0x3c91f18b	0.017815372
69	0x37c9ea70	2.4070236e-05
70	0x393448ea	0.000171933
71	0xba653092	-0.0008742894
72	0x3be4c5f6	0.0069816066
73	0x3ca977a1	0.020686926
74	0x3c3cedb8	0.011531286
75	0x3b2fefd3	0.0026845827
76	0x3b2af783	0.002608747
77	0x3baf745e	0.005354448
78	0x3b9b135d	0.004732533
79	0xbbb99f7b	-0.0056647635
80	0x3c8fda41	0.017560126
81	0x3c76acfb	0.01505589
82	0xbbc1e28d	-0.0059168995
83	0x3c928774	0.017886855
84	0x3bd2b302	0.006430031
85	0x3c2b246a	0.0104456935
86	0x3c1f6d2d	0.009730619
87	0xbc0b2515	-0.008492728
88	0x3c17a263	0.009255025
89	0xbbcdb533	-0.006277704
90	0x3c55ec1e	0.013056783
91	0x3bd37ee2	0.0064543346
92	0x3bdbb293	0.0067046373
93	0xbb5a034d	-0.0033266128
94	0x3bf4b83b	0.007468251
95	0xb9d0587f	-0.00039738786
96	0xbc6cbdd3	-0.0144495545
97	0x392d3afd	0.0001652054
98	0xbbb88693	-0.005631277
99	0x3b293a7e	0.0025822218
100	0x3c25ed1c	0.010127332
101	0xbc58cdfd	-0.013232705
102	0x3c084cb0	0.008319065
103	0x3b0a618b	0.002111527
104	0x3bddff5c	0.006774826
105	0x3bad1bb6	0.0052828444
106	0x3c10c77a	0.008836621
107	0x3b96a84e	0.0045977
108	0xbc9941b2	-0.018708084
109	0xbc0858e4	-0.008321974
110	0x3ac55b1f	0.0015057063
111	0x3c5071c0	0.012722433
112	0x3b948428	0.004532356
113	0xbc1aba79	-0.009443873
114	0x3bff21e3	0.007786022
115	0x3c3b18c2	0.011419477
116	0x3bc89c73	0.006122166
117	0x3b87e27b	0.0041468716
118	0x3b568342	0.0032732044
119	0xbbfe2251	-0.0077555557
120	0x3c2e8210	0.0106511265
121	0x3b3c5fb8	0.0028743576
122	0x3c473b72	0.012160169
123	0x3c864528	0.016390398
124	0x3d01cbdb	0.031688552
125	0x3cc77fab	0.024352869
126	0x3c8a54f7	0.016886218
127	0x391b8e2c	0.00014834915
128	0x3c5bdcce	0.013419343
129	0x3c13ee7b	0.009029026
130	0xbbd4f164	-0.0064985026
131	0x3c68d5ff	0.014211177
132	0x3c25fd01	0.010131122
133	0x3c65601a	0.013999963
134	0xbcbaa931	-0.022785755
135	0xbae7fb17	-0.0017698732
136	0x38960366	7.1531904e-05
137	0xba86b698	-0.0010277806
138	0xbba4da87	-0.0050309333
139	0x3b1acaba	0.002361937
140	0x3cafba97	0.021451278
141	0x3b610095	0.0034332622
142	0x3b730b25	0.00370855
143	0x3b0ec87f	0.0021786985
144	0x3cbf869e	0.02337962
145	0x3a78a8d2	0.00094856054
146	0x3cbfd386	0.023416292
147	0xbb944339	-0.004524615
148	0x3b9fb021	0.004873291
149	0xbc9e4240	-0.0193187
150	0xbc7a336b	-0.015271048
151	0x3ba15aca	0.004924153
152	0xba2254f4	-0.00061924686
153	0x3b071137	0.0020609626
154	0x3bd0981d	0.0063657896
155	0xbc3c4b51	-0.011492566
156	0xbbc486bb	-0.0059975064
157	0x3c904cd0	0.017614752
158	0x3bc64794	0.0060510132
159	0x3bb225d1	0.005436637
160	0x3c48f491	0.01226534
161	0x3b01b0fc	0.0019789329
162	0x3c64c574	0.013963092
163	0x395eca6a	0.00021246975
164	0x3a8c8c92	0.0010723046
165	0x3c6311b4	0.013859201
166	0xbc8ee53e	-0.017443296
167	0xbbd74bcd	-0.0065703155
168	0x3be4bb6b	0.00698035
169	0x3ba88571	0.0051428606
170	0xbac206c3	-0.001480304
171	0xbc68cac5	-0.0142085
172	0x38ad9f95	8.279007e-05
173	0x3853f346	5.0532886e-05
174	0xbaaab3a5	-0.0013023509
175	0x3c0b58d2	0.008505063
176	0x3ac2a827	0.0014851139
177	0xbbe2a0d9	-0.006916147
178	0x3a2b0293	0.0006523516
179	0x3b9e00b7	0.0048218626
180	0x3c760c2a	0.015017549
181	0x3cc96e4a	0.024588723
182	0x3a22edf1	0.00062152656
183	0xbaf8cff2	-0.0018982871
184	0x3c4beb4d	0.012446237
185	0x3c80fc9f	0.01574546
186	0x3ace417b	0.0015736067
187	0x3b0f5715	0.0021871973
188	0x3c465a0a	0.012106428
189	0xb9039a20	-0.0001255055
190	0x3c0d2a0e	0.008615984
191	0x3b2b6c58	0.0026157107
192	0x3c553948	0.013014145
193	0x3c7c38c0	0.01539439
194	0x3cf45975	0.029827813
195	0x39a31683	0.00031106555
196	0x3c920352	0.017823849
197	0x3c0ec452	0.008713799
198	0x3c712d3e	0.014720259
199	0xbb640d38	-0.0034797918
200	0x3984c8bf	0.0002532657
201	0x3c93c288	0.018037096
202	0x3b73154b	0.003709155
203	0xbba49baa	-0.0050234394
204	0xbb49886c	-0.003075148
205	0xbb8ba859	-0.004262012
206	0x3ad05b06	0.0015896268
207	0x3bd1b7f1	0.0064001014
208	0xbc7bdcf0	-0.0153725
209	0x3c06df12	0.008231895
210	0x3bf14b97	0.0073637473
211	0x3b96ba20	0.0045998245
212	0xbc8f3157	-0.017479582
213	0x3ccb133b	0.024789443
214	0xba74b827	-0.0009335302
215	0xbbe3984a	-0.0069456445
216	0x3c23e617	0.010003588
217	0xba56b0b6	-0.0008189784
218	0x3c66f429	0.014096298
219	0xbbbfdd3a	-0.0058552297
220	0x3bc17b3c	0.0059045833
221	0x3cc234ab	0.023706755
222	0x3b102294	0.0021993266
223	0xbc93f39e	-0.018060502
224	0xb9efac0a	-0.0004571381
225	0x3ba6894d	0.0050822855
226	0x3bdd0ca2	0.0067458907
227	0xbaf1622f	-0.0018416102
228	0x3b14c0be	0.002269789
229	0xbc0f5052	-0.008747177
230	0x3ac49534	0.0014998079
231	0x3b71c109	0.003688874
232	0xb9c3b654	-0.00037329143
233	0xbbbcd122	-0.0057622353
234	0xbc5418bc	-0.01294535
235	0x3c87e43e	0.016588327
236	0xbbab438f	-0.0052265595
237	0x3c59bbf5	0.013289441
238	0x3b8223e0	0.003971562
239	0x3bfaa66b	0.007649233
240	0xbbe32994	-0.0069324467
241	0x3c0585df	0.008149593
242	0x3c93d3e0	0.018045366
243	0x3c835366	0.016030978
244	0x3c2c5cd4	0.010520179
245	0xbc45d46e	-0.012074573
246	0x3af37cd2	0.0018576628
247	0xbc939278	-0.018014178
248	0x3c7c65c1	0.015405119
249	0x3c92ae59	0.017905401
250	0x3ccc1a06	0.024914753
251	0x39f0476d	0.00045829584
252	0x3bf376dc	0.0074299406
253	0x3adc28df	0.0016796849
254	0x3bb167be	0.0054139784
255	0x3b6b003b	0.0035858292

action_model._discrete_distribution.branches.0.bias f4 [7]
0	0x3c71c6db	0.0147568835
1	0xbc81cc7f	-0.015844582
2	0xbc7538e5	-0.014967178
3	0xbc671d40	-0.014106095
4	0xbc4e9a85	-0.0126100825
5	0x3ca84a70	0.020543307
6	0x3c9ce726	0.019153189

onnx::Div_70 f4 [37]
0	0x415d7f0a	13.843515
1	0x3d6b328b	0.05742125
2	0x4156fa23	13.436069
3	0x3b7cea80	0.0038591921
4	0x3e9250a2	0.28577143
5	0x3b7cea80	0.0038591921
6	0x419b672d	19.425379
7	0x3b7cea80	0.0038591921
8	0x41a007af	20.003752
9	0x3b7cea80	0.0038591921
10	0x3e93e832	0.28888088
11	0x3b7cea80	0.0038591921
12	0x3e31f71a	0.17379418
13	0x3e2fee66	0.17180786
14	0x3ee30f12	0.44347435
15	0x3ee616ad	0.44939175
16	0x3eee485c	0.4653958
17	0x3ee31015	0.44348207
18	0x3fbfecdb	1.4994158
19	0x40c135db	6.037824
20	0x3b7cea80	0.0038591921
21	0x40c0ec7e	6.0288687
22	0x3f31df7b	0.6948163
23	0x3b7cea80	0.0038591921
24	0x3f372daf	0.7155408
25	0x3e933ad2	0.28755814
26	0x3e7a310a	0.2443277
27	0x3e7a3182	0.24432948
28	0x3e80e3b9	0.2517374
29	0x3e80e3b1	0.25173715
30	0x3e0c8113	0.13721113
31	0x3f7aa266	0.9790405
32	0x3e9230f6	0.2855298
33	0x3f32ff23	0.6992056
34	0x3d6b3238	0.05742094
35	0x413b0816	11.689474
36	0x3e93d77a	0.28875333
