results/test11/BoxingAgent/BoxingAgent-85111.onnx (onnx, 409187 bytes, 13 tensors)

network_body.observation_encoder.processors.0.normalizer.running_mean f4 [84]
00000000: 0000 0000 395b 3f3f b34e 373e 80ab 353f
00000010: 0000 0000 f713 3e3f 4fa9 3c3e 7c07 373f
00000020: 0000 0000 e141 413f 8401 2f3e 0c3f 343f
00000030: 0000 0000 b057 3c3f 6b72 433e 3835 383f
00000040: 0000 0000 3efc 433f f2bb 223e 20c4 323f
00000050: 0000 0000 06e8 3b3f b158 463e bc8a 393f
00000060: 0000 0000 4064 463f e90c 183e a866 313f
00000070: 0000 0000 4239 3b3f 9695 483e 88dc 3a3f
00000080: 0000 0000 7294 493f 466d 0d3e a678 303f
00000090: 0000 0000 5d73 3a3f 88f0 4c3e 8896 3c3f
000000a0: 0000 0000 04d9 4b3f 2423 053e 557c 2f3f
000000b0: 0000 0000 a7ea 383f 7fb3 533e 1b77 3e3f
000000c0: 0000 0000 17f7 4d3f 3f22 ff3d 5602 2f3f
000000d0: 0000 0000 c2c6 353f dbca 5f3e 136e 403f
000000e0: 0000 0000 96ad 4e3f f68a ff3d 3bd9 2e3f
000000f0: 0000 0000 abbc 313f 8a7d 713e 71b7 423f
00000100: 0000 0000 df2b 4f3f ed49 003e 03e9 2e3f
00000110: 0000 0000 d278 2d3f dd75 823e f4fd 443f
00000120: 0000 0000 2b8a 4e3f 8523 043e 4220 2f3f
00000130: 0000 0000 a9ac 283f a681 8c3e ad0d 473f
00000140: 0000 0000 108c 4d3f 5b53 083e 638c 2f3f
0.0 0.7474857 0.17901115 0.70964813 0.0 0.74249214 0.18423961 0.71495795
0.0 0.7549115 0.17090422 0.704087 0.0 0.735713 0.19086616 0.71956205
0.0 0.76556766 0.15892008 0.69830513 0.0 0.73400915 0.1936977 0.72477317
0.0 0.7749672 0.14848675 0.69297266 0.0 0.73134243 0.19588313 0.72992754
0.0 0.78742135 0.13811216 0.68934095 0.0 0.7283228 0.2001363 0.7366719
0.0 0.79628015 0.13001686 0.6854909 0.0 0.7223305 0.20673941 0.7440049
0.0 0.80455154 0.12457704 0.6836294 0.0 0.71006405 0.21854727 0.7516796
0.0 0.8073362 0.124776766 0.6830022 0.0 0.6942851 0.23583046 0.7606116
0.0 0.80926317 0.125282 0.683243 0.0 0.6776248 0.25480548 0.7695
0.0 0.8067958 0.12904175 0.68408597 0.0 0.6588846 0.27442664 0.7775524
0.0 0.80291843 0.13313048 0.6857359

network_body.observation_encoder.processors.2.normalizer.running_mean f4 [37]
00000000: f8e2 4b3f b182 6d41 1986 6ac1 3289 d9b1
00000010: 78c3 043f 1cc9 ad31 26f0 333e d6c0 4939
00000020: 7199 853e e535 49b0 397f 043f cb3f ee31
00000030: 21a2 5f3f 8c60 613f 6f5b 583e 37c5 c43e
00000040: 5038 643e 5fe8 493f fcd7 c03f 165b ddbc
00000050: 0000 0000 21d1 253c b5bc 683a 205f a737
00000060: 4940 d63a 9f3d ec3e 9590 013f 4cdd fc3e
00000070: 4d7d 023f e103 fb3e d429 1e3d a2f0 5d3e
00000080: 34ac 2a3f 9510 93bd b182 6d41 289f 3e41
00000090: 4418 013f
0.796432 14.844407 -14.657739 -6.3311285e-09 0.5186076 5.057826e-09 0.17572078 0.00019240691
0.2609363 -7.319996e-10 0.51756626 6.933964e-09 0.87356764 0.88037944 0.21128629 0.38431713
0.22287107 0.78870195 1.5065913 -0.027020972 0.0 0.010120661 0.0008878217 1.9952247e-05
0.0016346063 0.46140763 0.5061124 0.49387586 0.50972444 0.49026397 0.03861411 0.21673825
0.6666901 -0.07180897 14.844407 11.9138565 0.5042765

network_body._body_endoder.seq_layers.0.weight f4 [256, 121]
00000000: a887 823d 9e2b fd3d 3fda fabd 3e51 6e3c
00000010: f007 e83d d228 0e3d 7008 dbbc f8f3 a9bc
00000020: 6da6 0e3e 64a2 a63d f487 1f3d 536a cabb
00000030: 2291 f1bb 4078 f4bc 69c9 97bd 17a3 a0bc
00000040: 35f3 553c 098a 45be 89b5 ba3d adef ae3d
00000050: 0eb8 8e3d e907 eb3d e9e6 da3d f4da c03c
00000060: ba77 84bd 5b15 abbd 3495 85bd 0e27 cc3d
00000070: cc0f 29bd a4a4 a3bd b56d 82bd 0bd6 823d
00000080: 65ed 3b3d 74e0 8a3d b69c cb3d 8a97 683d
00000090: 0c25 143c 8de1 2ebd 7d5e e4bc 1785 983d
000000a0: 8932 69bd 12d0 1d3d f79d 9e3d 795e 6dbb
000000b0: 1346 d13b a86c 1b3e 879f e9bb 9b4a 08be
000000c0: d8d4 1f3e 2ee3 d23d b333 c9bc ce5e ecbd
000000d0: 4b08 55bc b82e ad3c dee3 20bd 029d 663d
000000e0: 6fe7 e63c 8461 a53d 6130 403d fb9b 7d3c
000000f0: 2635 053e 3813 923d 697f 30bd 0705 01be
00000100: b618 263a ee75 84be 5a9e 403d d5ec e53d
00000110: 1dfe cebd d2dc 593e 5340 013d d4a4 f33d
00000120: e83e 193e f95f 38bd 3fb1 773b 3c22 04be
00000130: 8f4d 13bd 543c 073e 5d7d a13c 9c67 c1bc
00000140: 0e20 de3c b1a8 413d 2b60 1ebc 61eb 0e3c
00000150: 3fda 723d 2bb9 983d 252c 06be b660 c8bc
00000160: 44b4 98bd a8a4 4abe b604 763c 2616 2d3c
00000170: ebcf 21be 4b07 ef3d 132f afbd dea2 9bbd
00000180: 5475 75bd 7514 91bd 303a c7bd c13a 1fbe
00000190: 0f46 00be a470 c8bb b639 e6bc 8d69 ce3d
000001a0: b5a0 e3bd e12c ca3d 0fb7 71bd 8016 9fbd
000001b0: b24f 22bb 8b65 85bd 00ba 48bd fe95 f13d
000001c0: 8eb1 36be 35f7 8dbc ac3d 58bd ca72 09bd
000001d0: 7cbc 6a3d a1e9 0ebe 8495 8b3d 38d3 01be
000001e0: cdc8 7abd 3b8e cc3b 07bf 3abe 35c3 8bbd
000001f0: e342 253e 751b c3bd 2e22 0c3e bdd9 c5bd
00000200: c5da a93b 7e85 35bd 5bba e2bc 5538 973d
00000210: de52 16bd ec5d 613d 3a97 f73b 8b65 0abd
00000220: c064 31be 16ee abbd 65bd dbbc cab9 123d
00000230: b1f3 af3d 1049 b33c 8b74 9e3c 4203 ea3d
00000240: 3cba b03a b83e 86bd 7887 5bbe c931 01be
00000250: 00fa 0cbd cea4 f53d 488e d83b a851 0e3e
00000260: d342 463c 38a1 1ebc 9cf5 39bd ecb0 dabb
00000270: 3898 2b3c dbcc ec3d c5e0 0dbd 4df0 2b3d
00000280: 6b88 133e 4a25 2ebe 8541 b63d 04aa 4d3e
00000290: 3004 233e 7502 423d 3476 92bd bd99 02bc
000002a0: b792 023e 2f1d 703d 0da2 fe3c ace9 4bbd
000002b0: 59d1 72bb ee0a 823d 8f20 bf3d 731d 993d
000002c0: af5a b7bc e239 e4bd f589 893d 2b9a ae3d
000002d0: b38d cd3d 0853 82bc 7504 f5bd f2be 753e
000002e0: f41e 253d 2b56 3fbe 30ea 87bd 3594 01bd
000002f0: 7343 79bd 3cd9 cfbc 8940 65bc a413 b7bd
00000300: f0f3 f23d bd90 05bd 4350 133e e081 ebbd
00000310: 932e 70bd 885b 063d c877 e7bd 50a7 a7bd
00000320: d4cc 923d 4ca0 bdbc 89ef 40bd 34af d7bc
00000330: 4649 6d3d e97f af3d 1288 2f3d 0e2c 273d
00000340: db8d 87bc a477 dc3a ee3f 1f3e c7f1 1bbd
00000350: 7ddc 623e ecfb 12bc 17a6 4ebd 19ac 56be
00000360: 1b2a 013e bf76 233d c703 803d b67e 53be
00000370: 39e7 dfbd 8c8d e5bd 2ee0 ae3d e194 febc
00000380: 0dcf 48be 1e0d 593e de71 f5bd 49cc ff3c
00000390: 2f8b b1bb ad1c 1e3e 7ac6 2f3e f90a 0abe
000003a0: 9967 81bd 2b4f 07bc 521b f23a 64c2 7cbc
000003b0: 9f36 ddbd d1fd 193e c591 a6bd a6eb 67bd
000003c0: 15cc ef3c e6c3 4bbc 3ac9 0e3e 06d6 c83d
000003d0: 5af4 dbbd 35a6 3b3d c31a babc 4e44 ecbd
000003e0: 6bdf 18be 4a73 613d 4c03 b8bd bc99 cabd
000003f0: 5b62 e83d f875 1e3d 4bec b5bd cd2f 6cba
0.063735306 0.12361835 -0.122486584 0.014545737 0.11329639 0.034706898 -0.026737422 -0.020746216
0.13930674 0.08136442 0.038948014 -0.0061772256 -0.0073720375 -0.029842496 -0.07411463 -0.019609017
0.013058473 -0.19290937 0.09116656 0.08541808 0.069686994 0.11476118 0.10688574 0.023541905
-0.064681485 -0.083536826 -0.06522599 0.099683866 -0.04127483 -0.07990387 -0.06368581 0.06388482
0.045880694 0.06781092 0.099419996 0.056785144 0.009042036 -0.04269557 -0.027877087 0.0744726
-0.05693296 0.03852851 0.07744973 -0.003621964 0.0063865273 0.15178168 -0.007129613 -0.1330971
0.15608537 0.10297237 -0.024560785 -0.1154152 -0.0130024655 0.021140441 -0.03927981 0.056302078
0.028186528 0.0807524 0.046921138 0.015479083 0.13008556 0.07132572 -0.043090258 -0.12599574
0.00063360797 -0.25871223 0.047026016 0.11226813 -0.10107062 0.21275643 0.031555485 0.11896673
0.14965403 -0.0450134 0.0037794856 -0.12903684 -0.035962638 0.13206607 0.019713098 -0.023608975
0.027114894 0.047280017 -0.009666483 0.008723111 0.059290167 0.07457193 -0.13102777 -0.024460178
-0.07456258 -0.19789374 0.015015772 0.010564363 -0.1580197 0.11671313 -0.085539006 -0.07599424
-0.059926346 -0.0708398 -0.09727895 -0.15549757 -0.12526725 -0.0061169434 -0.02810369 0.10078726
-0.11114637 0.09871841 -0.05901247 -0.077679634 -0.002476674 -0.065135084 -0.04900551 0.11796187
-0.17841169 -0.017329792 -0.05279319 -0.033556737 0.05730866 -0.1395631 0.06815627 -0.1267823
-0.061226655 0.006242541 -0.18236934 -0.06824342 0.16138797 -0.095267214 0.13684914 -0.09660671
0.00518355 -0.04431676 -0.027676752 0.07383791 -0.036700122 0.05502121 0.0075558694 -0.033788245
-0.1732359 -0.08395021 -0.026823709 0.035821714 0.08591402 0.021885425 0.019342681 0.11426403
0.0013483237 -0.065549314 -0.21438396 -0.12616648 -0.034418106 0.119943246 0.006608758 0.13898337
0.012100893 -0.009681992 -0.045400247 -0.0066739228 0.0104733035 0.115625106 -0.034638185 0.041977216
0.14407508 -0.17006412 0.088992156 0.20084387 0.15919566 0.047365624 -0.07151452 -0.007971224
0.1275128 0.05862158 0.031083131 -0.049783394 -0.003705105 0.06349741 0.09332382 0.0747632
-0.022382108 -0.11143853 0.06715766 0.08525499 0.100367926 -0.015908733 -0.11963741 0.23998621
0.040312722 -0.18685214 -0.066364646 -0.031635482 -0.06085534 -0.02537214 -0.013992437 -0.08939293
0.11862934 -0.032608736 0.14386086 -0.11499381 -0.058638167 0.032802135 -0.11302143 -0.08186209
0.07167974 -0.023147725 -0.04710344 -0.02632866 0.057931207 0.08569319 0.042854376 0.0408135
-0.016547134 0.0016820324 0.15551731 -0.038072374 0.22154422 -0.008971196 -0.050451364 -0.20964088
0.12613718 0.039908167 0.062507205 -0.20653805 -0.10932774 -0.112086385 0.08538853 -0.03107685
-0.19610234 0.2119641 -0.11984609 0.03122534 -0.0054182033 0.15440626 0.17165557 -0.13480748
-0.06318588 -0.008258621 0.0018471277 -0.015427206 -0.10801434 0.1503823 -0.08133272 -0.056621216
0.029272119 -0.012436843 0.1394395 0.09806447 -0.10739966 0.045812804 -0.02271784 -0.115364656
-0.14928977 0.05504159 -0.08985004 -0.09892604 0.11346885 0.038686723 -0.0888296 -0.00090098084

network_body._body_endoder.seq_layers.0.bias f4 [256]
00000000: 1811 8e3c c24b f43c 37f6 08bb 61b8 593c
00000010: 5dfe 783c ddd3 af3c fe05 083d c837 773b
00000020: dbce 033d 6f7f ab3c a408 813c 47e4 023c
00000030: 811a 1cbc 652d d53c 6f3b 903c 396f f03c
00000040: 599d 7a3c d522 623c 1587 a43c a14c 083c
00000050: e218 dc3b 1669 023d c24f 823c ed73 c73c
00000060: baf9 aa3b 91df ac3c a3bc 7b3c d671 883b
00000070: 5240 da3c 55c6 0abc 441b a13c 00c9 ef3c
00000080: 318e 243c dcc0 d73c ad18 d33c 2229 a83c
00000090: 18f4 8f3c 23b7 c73c 6fd2 debb f1e5 d43c
000000a0: 7b11 343c 756b d73c 4c62 de3c 12a0 e03c
000000b0: bfcd 923c 3da9 e53c 347f dd3c b49b d839
000000c0: 2f9b e13c bed1 a63c 9c65 ca3c a272 383b
000000d0: 9ea1 4ebc 7748 ba3c fa41 f43b 02f3 a2bc
000000e0: aec5 193c 60a6 cc3c 3f38 b93c fe28 913c
000000f0: b7f2 bf3c 407f f7bc 2265 9e3c b629 afbc
00000100: 2698 853c c801 d03c e329 d73c 76b3 ef3c
00000110: 9b1a 853c 9a5c e53c 2fc0 8d3c ed9b acbc
00000120: b7fd 473c df58 b53c 2008 d13c 1c92 a63c
00000130: 050e d33c 645d ad3c 58f6 cd3c b9b0 bfbc
00000140: 9bfd 003c 9195 3d3c 1a16 9ebb ec16 a63c
00000150: 8a90 37bb 466f eb3c bf16 8f3c 027f b03c
00000160: 15ef 9dbb fcca b83c c10c bf3c a27b 9d3c
00000170: b7ab c03b 4e84 d4bb 021a c63c 7df4 f23c
00000180: e57b a73c b807 043d 2ae8 d3bb 9972 873c
00000190: b396 683c 0875 bf3c 9c43 5c3c 6632 d43c
000001a0: f7f6 af3b 5315 b23c 982b 2b3c 4e8a 373b
000001b0: 0735 a23c 51db a53c 083b 003d 2384 99bc
000001c0: bf25 d23c 26c0 0a3d ecc2 6c3b 4178 7e3c
000001d0: 63dc 82bb c63e d43b df41 053d 4528 553c
000001e0: f066 e03c 23ff 8d3b 7017 c33c a5ec fa3a
000001f0: d6d2 7abb 850a a53c 35c8 ca3c 0c7d 853c
00000200: 344e 443c c933 823c 34bc 463c 2e9f ed3b
00000210: 3c1c c83c 3166 d53c a207 2fbc 2633 bc3c
00000220: 4a68 a73c 2fa8 dd3c 8188 a63c d068 9dbc
00000230: 3ae9 b53c 1612 b13c d4a4 87bb 31a5 883c
00000240: d827 ad3c c4af 4c3c 81b5 1e3c 19e4 ad3c
00000250: 071b 683c 1fa0 cc3c 6a89 8d3c e8d0 b33c
00000260: 002b 913c 0cc1 e43c 71f9 1b3c 08bd 483c
00000270: 4bce d23c 51dd ff3b bb84 a53c 21e6 85bc
00000280: c384 513c e2ad bd3c 90f0 f53c 8918 bf3c
00000290: 8fb3 79bc 5760 c339 d1e7 e13c 08eb d03c
000002a0: d637 853c 9586 b13c 2441 02bc 92c9 5e3c
000002b0: 252d 1d3c 6a16 7c3c af08 923c 5507 f33c
000002c0: b312 873b a489 84bc bec6 903c 40c5 e23b
000002d0: ae7f f23c 0cf6 c3bb bd33 ac3c 83e6 d23c
000002e0: 2d65 ea3c 2075 d03c 2633 073d b715 a73c
000002f0: 1e3a b43c e382 d6ba d122 9d3c 9672 023d
00000300: ffaa 1c3c dcf0 be3c 2b99 7a3c 1b27 c83c
00000310: 5e51 4c3c 9f6a bc3c 8a8d 0d3a 8494 413c
00000320: 36a6 323c aa1b 843c 6228 cf3c d12c 8b3c
00000330: e936 b63b abb1 0e3d 4c0e 643c 61ee 953c
00000340: f98d 8f3c 3f14 983c eb76 0c3d cb3c d03c
00000350: 13dd 793c 280e d83c bdd0 d43c 1d7c 973c
00000360: 45c3 773c 395b d33c b21f db3a 7a2a 75bc
00000370: a911 223c f2e3 b4bc f6b1 e13c 0136 ba3b
00000380: 2e2e 5c3c f721 f23c c7dd b2bb 9df3 34bb
00000390: cae9 443c 8478 3abc 45cf 553c 12f4 8bbc
000003a0: 5902 23bb 8cc3 653c b945 de3c bc69 533c
000003b0: 6c73 3abc c451 93ba 31b7 423c caf9 833c
000003c0: 7f49 d9bb 97c0 bd3c b6ba 0bbc 9dff 363c
000003d0: b192 beb9 0968 0b3c c42c 7f3c 9030 cf3c
000003e0: 3582 973c 83b3 423c 8682 86bb 4815 a93c
000003f0: 45bc bf3c 4632 f53c d41c 423c f4ca 8dbb
0.017342135 0.02982128 -0.0020898709 0.013288588 0.015197364 0.021463329 0.03320884 0.0037722457
0.032179695 0.020934789 0.01575119 0.007988996 -0.009527803 0.026022622 0.017606465 0.02934991
0.015296304 0.01380225 0.020083943 0.008319051 0.0067168334 0.0318385 0.015907172 0.02434727
0.005217758 0.021102699 0.015364799 0.004163961 0.026641998 -0.008470138 0.019666322 0.029270649
0.010043667 0.02633708 0.025768602 0.020527426 0.017572448 0.024379319 -0.006799988 0.02598855
0.010990496 0.026296357 0.027146481 0.027420077 0.017920373 0.0280348 0.027038194 0.00041314738
0.027539818 0.020363685 0.024706654 0.0028144498 -0.012611775 0.022739632 0.007454154 -0.019891266
0.009385509 0.024981678 0.022609828 0.017719742 0.023431165 -0.030212045 0.019335333 -0.021382194
0.016307902 0.025391474 0.02626509 0.029260378 0.016248038 0.027998257 0.017303554 -0.021070445
0.012206486 0.022137104 0.02551657 0.020333342 0.025763521 0.021162696 0.02514188 -0.023399698
0.007872964 0.011571304 -0.004824412 0.020274602 -0.0028009736 0.028739583 0.0174669 0.021544937
-0.0048197606 0.022557728 0.023321511 0.019223992 0.005879845 -0.0064854985 0.024182323 0.029657597
0.02044482 0.032233924 -0.006466885 0.016534137 0.014196086 0.023371235 0.013443854 0.025902938
0.0053700167 0.021738684 0.010447405 0.002800602 0.019800676 0.02024618 0.031306297 -0.018739766
0.025652764 0.033874653 0.0036126925 0.0155316 -0.0039935573 0.0064772097 0.032533523 0.013010089
0.027392834 0.004333393 0.023814887 0.0019144012 -0.003827264 0.020146618 0.02475367 0.016294979
0.011981536 0.015893834 0.012129832 0.0072516417 0.024427526 0.026049705 -0.010682972 0.022973608
0.020435471 0.027057735 0.020328762 -0.019215018 0.022205938 0.02161507 -0.004139522 0.016680332
0.021137163 0.012493078 0.009686829 0.02122693 0.0141666 0.024978695 0.017277438 0.0219502
0.0177207 0.027924083 0.009519921 0.0122521 0.025733134 0.0078083654 0.020204892 -0.016345086
0.0127880005 0.023154203 0.030021936 0.023327129 -0.015240564 0.00037265077 0.027576359 0.025502697
0.016261976 0.021670619 -0.007950101 0.013597863 0.009593283 0.015386203 0.017826406 0.029666582
0.004122102 -0.016178913 0.017672893 0.0069204867 0.029601898 -0.005980259 0.021020764 0.025744682
0.028612697 0.025446475 0.033007763 0.020396097 0.022000369 -0.0016365912 0.01918164 0.03184756
0.009562253 0.02330821 0.015295307 0.02443271 0.012470571 0.02300006 0.0005399814 0.011815194
0.010903886 0.016126473 0.02528781 0.016989144 0.005560745 0.034837406 0.013919424 0.018302144
0.017523753 0.018564342 0.034293097 0.025419613 0.015250462 0.026373938 0.02597844 0.018491799
0.0151222395 0.025800334 0.001671782 -0.0149637405 0.009891906 -0.022081349 0.027550679 0.0056827073
0.0134387445 0.029557211 -0.005458567 -0.0027611025 0.01201863 -0.011381272 0.013049905 -0.017084155
-0.0024873225 0.014023673 0.027132856 0.012903627 -0.011380058 -0.0011239578 0.011884497 0.01611032
-0.006631076 0.023163123 -0.008528402 0.011169341 -0.00036348918 0.008508691 0.015574638 0.025291711
0.018494705 0.011883619 -0.004104915 0.02064003 0.023405204 0.029931199 0.0118476935 -0.0043271724

network_body._body_endoder.seq_layers.2.weight f4 [256, 256]
00000000: e7d1 33bd bd2a d8bc 08ba aabc 477d 03bd
00000010: 21cc 2abd 98c3 0fbc cbd0 2f3a b4a6 a7bc
00000020: 71b0 dc3b fc79 3abd 87f4 0a3d 7222 f63c
00000030: ce3d abbd 27b0 b2bd bf05 1ebd 2a1b 81bd
00000040: ad87 2ebd ccf6 53b9 c113 c83c 403c 60bd
00000050: a45f c0bb dd6d 5b3d 1be8 b5bd 62d2 a23d
00000060: 0a76 bb3a 2ac4 b3bd 986e d73c 62db 92bd
00000070: 939f b53c b839 1abe f82b b7bd 127f 85bd
00000080: ade0 70bd a98c 363d 2176 fbbd 1086 40bd
00000090: 2ec4 6c3d 319e b3bd c111 f1bc 668c 623d
000000a0: 771b b13d 53a5 303d 1de6 433d eccd 41bd
000000b0: e43e 043d f9cf fdbc 4989 02bd 42df 4cbd
000000c0: 4dc4 693d fb1f 39bd 2012 25be 1708 a3bd
000000d0: bbde 043d 7580 ae3a 31be d73d a8db 953d
000000e0: 60ce 50bd 865b c4bd df3b 533c a685 503c
000000f0: 6a52 b3bd 66ec aa3d 5781 edbc 0daa 80bc
00000100: 657b 133e 7efc 09bd 4aac 38bd f1f8 4dbc
00000110: 062f 0dbd c38a 6d3d 4522 1bbe c8ab c23c
00000120: 797c 1c3e df8a bbbd 9f2b 69bd 8e20 043e
00000130: 3dc3 18bd 31cf 58be b4bc 983d bf81 7abd
00000140: 3763 06bd 2dae dd3c 75ff fcbc d8ea c63b
00000150: 6850 093e 4813 b8bd 66fd 5dbc d5de 343d
00000160: 47d7 34bc a18f 113d 77ba 853d 4031 0ebd
00000170: 6ccd 7f3d 64b4 b5bd 41b2 77bd 200b 303d
00000180: cf50 53bd f82c ca3b ce93 4a3d 4689 53bc
00000190: 7f0a 1f3c 0337 133d cd79 e2bc 5f84 d8bd
000001a0: 5260 153e 47ee 08bd cbae 32bd e62c 673d
000001b0: bec2 ecbc 96f4 20bd 61d4 da3c e2a6 e7bc
000001c0: fbd7 95bc 4f06 6fbc 30b4 c7bd 5d7d 2a3d
000001d0: c984 913d e2ff f43b a351 47bc 0ae1 8cbc
000001e0: d235 bfbd 5e02 fc3b 8065 cebc 1bc6 83bd
000001f0: 375f 52bd a30b 76bd ddcd a83c ff33 163b
00000200: ea92 bb3d b1ac 01be eacd 34bd 7a14 00bd
00000210: 8554 553d dea9 a0ba d59a be3c 273b e0bd
00000220: 0cb6 ff3d fd61 b2bd 8b25 91bd a67a ecbc
00000230: 9198 35bd 9427 343c d7f8 453d d009 113d
00000240: c6f7 833c 21d2 3a3d 0af8 8e3c 5abe 00bd
00000250: 1327 ee3c 34b3 a6bb 1a9a e8bd 3987 71bd
00000260: 7e83 023e 5205 0abd 21d6 b6bd 40ed 753d
00000270: e71f 4abd f811 523d 31ee 5c3d 6ed7 0bbd
00000280: b94c adbd 65ce 03bd 96f0 05bd d520 49bc
00000290: 9281 f23d dbb2 673c 35ce dcbb 7211 9d3c
000002a0: 3dee 423d 9203 963d 74ec 2abd 9691 583d
000002b0: c9bd 92bd 0c70 2fbb 6b05 003e 1382 54bc
000002c0: 356c 9a3c 87f8 89bc bb00 393c 8588 a0bc
000002d0: 3483 7b3b 8815 d4bc df20 6ebd 1eb7 fe3c
000002e0: bfad 1d3e 77aa d43d ee9c b83c ed18 66bc
000002f0: 8374 c8bd 5a6f c2bd 69c0 96bd 929f 68bd
00000300: 3bd9 d53d 50b2 50bb e06a 673c 899b 21bd
00000310: bd2d 803a 4d96 593d 9f9e 2fbd 8442 b2bd
00000320: 4a05 d0bc 76bc 82bd 0869 acbb 74d4 ccbd
00000330: 65bb dabd 0286 03bc fe4c a0bd 3a9c 88bc
00000340: 62a4 c6bd 47b0 6c3d 3d97 0cbc 02b0 81bd
00000350: 72ea 0bbe 9ed3 e0bc 3828 adbc 8270 edbc
00000360: 6ce0 8bbd 2f59 7abd 077e 2a3d c173 42bc
00000370: edcb 4e3d 019d bcbd 660e 9abd 9892 86bd
00000380: d2ab 90bb 7a39 7bbd 4692 543e ad78 3cbe
00000390: fa3c 6abd 9641 4c3c 420d c1bc 0456 91bd
000003a0: 5f5b 40bd ec64 cf3c c25f 3a3c c82d 47bd
000003b0: a0e4 ea3d a32a a03c 125f 88bd dd7f 88bd
000003c0: 6bca 4b3d b79d e6bb 9b98 a83c 811b cdbc
000003d0: 4a8d 80bc 0e2d d03d 7f53 6dbd d50b aabc
000003e0: 17bc 88bd 2cc0 4f3d 12be d8bc 187d c83c
000003f0: a367 b1bc 1604 3cbc 2ec3 603d c94a 163d
-0.04390135 -0.026387567 -0.02084066 -0.032101896 -0.04169858 -0.0087746605 0.0006706833 -0.020465232
0.0067349006 -0.04552649 0.033924606 0.030045722 -0.08361398 -0.08725005 -0.0385797 -0.06304009
-0.04260986 -0.00020214467 0.024423482 -0.05474496 -0.0058707763 0.05357157 -0.08882161 0.079502836
0.0014302146 -0.0877765 0.026297852 -0.0717075 0.022170817 -0.1506108 -0.08943933 -0.06518377
-0.058808018 0.044567738 -0.12278391 -0.047002852 0.05780428 -0.08770407 -0.029427411 0.055309676
0.08647817 0.043126415 0.047826875 -0.047315523 0.03228654 -0.030982958 -0.031869207 -0.050017603
0.057071973 -0.045196515 -0.16120195 -0.079605274 0.032438975 0.001331343 0.10534323 0.07317287
-0.050978065 -0.09587769 0.012892692 0.012727177 -0.087559536 0.08345871 -0.028992338 -0.015706087
0.1440254 -0.03368806 -0.045086183 -0.012571559 -0.034468673 0.05799366 -0.15149792 0.023763552
0.15281858 -0.09157347 -0.056926366 0.12903044 -0.03729557 -0.21172787 0.07457867 -0.06115889
-0.032809462 0.027060593 -0.03088353 0.006070476 0.13409579 -0.089880526 -0.013549184 0.04415782
-0.011037654 0.035537366 0.06529706 -0.034714937 0.062451765 -0.088722974 -0.06047273 0.04297936
-0.051590737 0.0061699115 0.049457364 -0.0129111465 0.009707092 0.035941135 -0.02764597 -0.10572123
0.14587525 -0.033430364 -0.043623727 0.056439303 -0.028901454 -0.039295755 0.026712598 -0.028277818
-0.018291464 -0.014588906 -0.09751165 0.041623462 0.07105405 0.0074767927 -0.01216546 -0.01719715
-0.09336437 0.007690712 -0.025194883 -0.0643427 -0.051360335 -0.06006969 0.020605976 0.0022919176
0.09158881 -0.12663533 -0.044141687 -0.031269528 0.052082557 -0.0012257656 0.023267189 -0.109487824
0.124858946 -0.08710096 -0.07087239 -0.028867077 -0.04433495 0.010995764 0.048333015 0.03540975
0.016109359 0.04561055 0.017452259 -0.031431533 0.029071366 -0.0050872806 -0.113575175 -0.05896685
0.12745473 -0.03369648 -0.089275606 0.060040712 -0.04934683 0.051286668 0.053938095 -0.034140997
-0.08461899 -0.032179255 -0.032700144 -0.012275894 0.1184112 0.014141764 -0.006738449 0.019173358
0.047590483 0.073249 -0.041729406 0.052873217 -0.07165105 -0.0026769666 0.12502067 -0.012970465
0.018850425 -0.01684214 0.011291678 -0.019596348 0.0038377764 -0.025889173 -0.058136817 0.031093176
0.1539831 0.10384076 0.022535767 -0.014044029 -0.09787848 -0.09493895 -0.07360918 -0.056792803
0.10441824 -0.0031844564 0.014124602 -0.03945497 0.0009779256 0.053121854 -0.042875882 -0.08704093
-0.025393147 -0.06383602 -0.005261544 -0.1000146 -0.10680274 -0.008027555 -0.07827185 -0.016676057
-0.09699322 0.0577853 -0.00858098 -0.06332399 -0.13663653 -0.027444657 -0.021137342 -0.028984312
-0.068299145 -0.06112021 0.041624095 -0.011868418 0.050487448 -0.092096336 -0.075222775 -0.06570929
-0.004415014 -0.06133411 0.20758924 -0.18405409 -0.057187058 0.012466809 -0.023565892 -0.07096484
-0.04696214 0.025316678 0.0113753695 -0.048627645 0.11469388 0.01955158 -0.06658758 -0.06665013
0.049753588 -0.007037844 0.02058058 -0.025037529 -0.015692372 0.101648435 -0.057940956 -0.020757595
-0.066765 0.05072038 -0.02645782 0.024473712 -0.021655863 -0.011475584 0.054873638 0.036692414

network_body._body_endoder.seq_layers.2.bias f4 [256]
00000000: 893c 93bc 3062 c33c 8a87 2a3c e7c3 41bc
00000010: 14d7 c23c 3562 aa39 de46 0a3c 5b8c a3bc
00000020: f344 e43c 1738 3a3c fa03 39bc db0e 813c
00000030: 40e9 d2bb 21d0 99bc 6997 123b e281 a13c
00000040: d639 a03b 2a67 533c aa98 8dbc b169 ca3a
00000050: 3ad5 3a3c a8ed 5cbb 93ef ce3c ad19 aa3c
00000060: 3eec b3bc 6cf3 85bc 4e77 bd3c 29f8 dc3c
00000070: 9cd4 013d 1c5b 5abb 4539 8b3c b8af 9f3c
00000080: 5a97 763c 41af c2bc c01d 923b 9b6b be3c
00000090: acd3 00bc 8abb b73c 5118 a8bb b856 013d
000000a0: 6b31 213c b154 a1bb 324a 2cbb b543 5bbc
000000b0: 2601 f53c 92f4 c6bc f723 a83c f3d4 7f3c
000000c0: 3271 d53c bce0 73bc 95d3 3ebc 3114 b83c
000000d0: 4ad7 43bc f79f cc3c d55f dbbb 878a d7bc
000000e0: b201 79bc 75bb 093c 3b3e 323c 124c 753c
000000f0: 86f6 e53c 9584 4e3b b4a5 3eba 4f94 b03c
00000100: f32a 4ebc f8cc 46bc 69ab 1dbc 2d80 be3b
00000110: 6018 82bc 5e2e 89bb e849 4a3c dcf4 b73c
00000120: 7671 b03c 2f49 dc3a 3ded fa3a 2533 a63c
00000130: 7418 cf3c d972 003d 733c c13c 990f 403c
00000140: 34fc 18bc e46f 8ebc 31cc 95bb 1c81 913c
00000150: 0595 a2bc e88f b93c 4002 623c c96c 533c
00000160: 1da0 d2bc 8f6c be3b ba31 95bc f69c 6f3c
00000170: b13e b83c fa73 563b 4f1b 3cbc c008 0a3c
00000180: 6c18 ce3c 804a 803c 05ab bcbc 7ce0 7cbc
00000190: 0959 143b be11 abba fed0 b73c 65de aebb
000001a0: e77e 3bbc 05ca a6bb fb71 8a3b 2445 8e3c
000001b0: cb37 61bb 1d8e 6f3c cee3 c2bc cd83 dabb
000001c0: f240 593c b7a5 493c 1121 833c f6d9 83bb
000001d0: 4c33 6bbb 16bf 50bc b71a fdbb 6162 da3c
000001e0: 3224 833c 7efa b23c 4bbd 7d3b 9fee 033b
000001f0: 99a5 3b3c 6e46 bfbc 457c c43c bcbe 8f3a
00000200: 9570 63bc ba3f ddbb 5ae1 a03c d08e b23c
00000210: f456 4b3c 8337 4abb 4e8d 113c 84b2 883c
00000220: ea4c a53c ae3a 123a 5025 b63c 9521 783c
00000230: 9478 f03c 843b da3c 399c 523c 5e5e 943b
00000240: fcd7 ec3b 26c0 093c 680f 003d 10a8 f93b
00000250: 5b45 213c 43eb 8cbc b728 373c 06ea 83bc
00000260: 1f39 6ebc 3458 623c 6d83 88bc 05fa 49ba
00000270: 8b17 80bb 664b 8cbc bd2d 92bb cd59 b33c
00000280: faf5 d53c e227 0f3c eaf0 93bc b77d e9bc
00000290: 9ca3 de3c d4b7 0abc 3fb9 9f3c 8e09 a3bc
000002a0: 84b2 783c 2278 89bc 6dd8 4d3c d571 93bc
000002b0: 09f1 323c 2942 0e3c f74e 3b3c d18f fdbb
000002c0: 77ae 323c 7ba8 073c 44e1 573c 0ada f83c
000002d0: 8e49 c2bc 72f6 bd3c ecd6 9fbc 3e25 0bbc
000002e0: 9995 7d3c ae9e e138 9cc5 7abc c75a 133c
000002f0: ff1e ab3c 34b3 c73c 0820 b33c a3ae 483c
00000300: d3a7 8cbb 4c46 a03c cac2 5d3b 0ddb fcba
00000310: 2f94 90bc a200 b9bc f93a 353c 4f6d da3c
00000320: 7212 3f3c fef7 eb3b 65e2 c9b9 0c69 96bc
00000330: 23e3 97bb b046 bebb 7884 273a 75e6 60bc
00000340: 38f1 4b3b 5c2e a7ba f2e4 a13c 5e3f 863c
00000350: 6253 cf3c a674 7d3c 42ed 9f3c ea89 56bc
00000360: 057c 653c b143 9c3b 6726 a9bc 05a3 bd3c
00000370: 06e5 40bc c54f 3fbc ceb4 ee3b 6f3d b4bc
00000380: c6d1 22bc 63c8 d23b bda8 513c 7a43 ce3c
00000390: 824a 4b3c c8e0 fd3c 5c48 16bc bd3e 143c
000003a0: 9620 3a3c b31b a5bc 3b07 d33c fa74 4cbc
000003b0: 65f0 73bc 521b d03b 0f6b ccbc 441d cc3b
000003c0: d1c0 6e3c 0702 783c c93f 303c 6eb9 863c
000003d0: 5f9f 7abc b76e c6bc 84d1 c23c 2d2e 9dbc
000003e0: b01b 84ba 3fc0 713b a776 9b3c ce27 783c
000003f0: e29a 6f3c 0f7f ce3b eda9 d7bc 2edd 10bc
-0.017973201 0.02385053 0.010408292 -0.011826492 0.023784198 0.00032498097 0.008439748 -0.019964388
0.027864909 0.011365912 -0.011292452 0.015754154 -0.006436497 -0.018776001 0.002236808 0.019715253
0.004889707 0.012903014 -0.01728471 0.0015442875 0.011403376 -0.003371099 0.025260722 0.020764196
-0.021963235 -0.016351424 0.023128178 0.0269738 0.0316969 -0.0033318466 0.016995082 0.019492969
0.015050733 -0.023765208 0.004459113 0.02324467 -0.0078629665 0.022428293 -0.005129852 0.031576842
0.009838442 -0.004923426 -0.002628934 -0.013382842 0.029907774 -0.024286542 0.020524962 0.015614736
0.026054952 -0.014885124 -0.011647125 0.022470566 -0.011953184 0.024978621 -0.0066947737 -0.026311172
-0.015198158 0.00840651 0.010879095 0.01497175 0.028071653 0.003151213 -0.00072726165 0.021555094
-0.012583482 -0.012133829 -0.009623387 0.0058136196 -0.015880764 -0.0041864356 0.012346722 0.022455625
0.021538477 0.0016806478 0.0019144189 0.02028806 0.025280215 0.031359527 0.023588395 0.011722469
-0.009337474 -0.017387338 -0.0045714607 0.01776176 -0.019846449 0.022651628 0.013794482 0.012904354
-0.025711114 0.005811281 -0.018212188 0.014624825 0.022490831 0.0032722936 -0.01148112 0.008424938
0.02515813 0.015660524 -0.023030767 -0.015434381 0.0022636077 -0.0013051552 0.022438522 -0.00533657
-0.01144383 -0.0050900006 0.0042250133 0.017366953 -0.003436553 0.014621285 -0.023790266 -0.006668544
0.013260113 0.012307576 0.016006978 -0.0040237857 -0.003588873 -0.012740871 -0.007724132 0.026658239
0.01600847 0.02184796 0.0038717564 0.0020131243 0.011453056 -0.023349013 0.023985038 0.0010966877
-0.013881822 -0.0067519816 0.019638706 0.021796614 0.012410868 -0.0030855841 0.008883787 0.016686685
0.020178277 0.0005578202 0.022234589 0.015144725 0.029354371 0.026639707 0.012854629 0.004527851
0.007227896 0.008407628 0.031264693 0.0076189116 0.009843196 -0.017202025 0.011179141 -0.016102802
-0.014539986 0.013814975 -0.016664231 -0.00077047973 -0.0039090565 -0.017125797 -0.004461019 0.021893406
0.026118267 0.008737536 -0.018059213 -0.028502328 0.027177624 -0.00846668 0.019497512 -0.019902017
0.01517928 -0.016780917 0.012563807 -0.017998615 0.010921725 0.008682766 0.011432401 -0.0077380915
0.0109058535 0.008279915 0.013176266 0.030377407 -0.023716714 0.023188803 -0.019511662 -0.008492766
0.015477561 0.000107583925 -0.015305903 0.008993811 0.020888804 0.024377443 0.02186586 0.012248668
-0.004292467 0.01956477 0.0033838027 -0.0019291356 -0.017648784 -0.02258331 0.011061423 0.02666345
0.011662113 0.007201194 -0.00038506385 -0.018360637 -0.004635231 -0.0058067665 0.0006390284 -0.01372682
0.003111912 -0.0012754905 0.01976249 0.016387638 0.025308315 0.015469706 0.019522313 -0.013094405
0.014006619 0.0047688116 -0.020648194 0.023149023 -0.011773353 -0.011676733 0.007284737 -0.02200195
-0.009937709 0.0064325794 0.012796578 0.02517866 0.012407901 0.030990973 -0.009172525 0.009048161
0.011360308 -0.02015481 0.025760284 -0.012479061 -0.0148888575 0.006350913 -0.024953393 0.0062290747
0.014572338 0.015137202 0.010757395 0.016445842 -0.015296786 -0.024222715 0.023781545 -0.019187057
-0.0010079052 0.003688827 0.018977476 0.015146209 0.014624329 0.0063017677 -0.026326144 -0.008841796

action_model._continuous_distribution.log_sigma f4 [1, 3]
00000000: 4085 24bc b859 7bbb 24f1 06bb
-0.010041535 -0.0038353037 -0.0020590508

action_model._continuous_distribution.mu.weight f4 [3, 256]
00000000: 8b5d 5c3c 3fbe 293c dde1 c4bb 4901 4dbc
00000010: d705 063b 4b0a 7e3c c006 8a3c c2e3 86bb
00000020: 64f5 ac3b 3fb5 d53c 5c80 4b3c 6530 413c
00000030: f61a 91bc f8b3 7bbb 2da0 03bc 8649 16bc
00000040: 67d8 8cbc c27d 78ba f234 973c 7f50 393c
00000050: ccef b1bc b9a8 72bc 874e 983c 4d4e 2dbc
00000060: d222 fa3a 2fdf b53b 33e1 9dbb 19ea c43a
00000070: 95cd c6ba fd8c 00bd a422 bd3b a5fe fe3b
00000080: af2c 423c 4a3f 54bc 57f7 44bc 69e7 1ebb
00000090: 2124 903c 7e16 72bc bbab 333c 1cd5 9e3b
000000a0: dafd 343c b82a e43b 55ba 8f3c 00fc 9b3c
000000b0: 8ddc 26bc 040a 6ebb bd7c c4bc 9a5d 683c
000000c0: 824b 963a cb3b 0f3a 8f22 63bb 5400 8d39
000000d0: e61c 07bc bbb3 2f3b cbd0 ef3a a5b1 f33a
000000e0: a8fa 003c 3ae7 b2bc 37ff 7fbc f582 0a3d
000000f0: a406 80bc 2b9f 553b 096b 6cbc 2408 8fbb
00000100: dffa fcbc 72c8 013c 4117 8dbc 1672 49bc
00000110: 7609 833c 5791 5cbc 15d0 96bb 0e1d 88bc
00000120: e2ef 34bc a464 803a 738b 12bc 5084 183b
00000130: 9414 c8b8 1be5 3eba f9d1 8bbb 2b22 e9bb
00000140: 2171 283b 4683 2ebc 80a0 7fbc ff22 4f3c
00000150: a6d0 813b 7cd6 b43b 137c 71bc 9173 f7bc
00000160: 28c6 313c 6259 373c d8dc 31bc 6468 6ebc
00000170: 9278 36bb 5f71 bfbc d037 313c 7704 a43b
00000180: 5cb8 8b3c b75d 353c 7f0c a63b e54a 943b
00000190: 4c43 a73c 615b ab3c 982a f839 2fd7 1b3c
000001a0: b2f7 d93c 8a17 82bc a248 a6bb 00f7 d03c
000001b0: 4b61 7b3c ffd3 93bc e3eb 05bc 01e9 00bd
000001c0: 91f8 49bb 1673 b63c 51cb 49bc 3c48 513b
000001d0: c346 8bbb ebc3 cf3c fb6d b7bc 1342 82bc
000001e0: dd10 44bc 4a09 2ebb c5d9 833c f525 d4bc
000001f0: 5dcf 863b 78b0 10bc 30a1 4a3c d7a2 4a3a
00000200: 1cf2 a43c 618f a6bc b22c b3bb e20a 5a3c
00000210: 5cee f03c 559c 643c 8494 e3bc d342 143c
00000220: 4544 b0bc b280 eebc 3e47 a53b 95ca 70bb
00000230: 365f 45bc 3076 533c b9e1 a3b8 02df bfbc
00000240: 8a09 44bb 457e adbc 65c2 28bc 4840 edbc
00000250: 86dc 1a3c a687 ea3b 9552 c83c 4e29 d33b
00000260: f2a5 e63c 60fa 773c d3cd ecbc 841a b4bc
00000270: 6a81 02bc 0629 063b 1174 173d c5ad c83c
00000280: 29da 453c 322e 26bc aa41 9ebb 2726 afba
00000290: 6e2d e239 d107 963b 5624 b03b c037 163c
000002a0: 0c5a b7bc bc86 ca3a d128 8bba 074c b13c
000002b0: 54e8 91bb 73d2 edbb 4201 0d3c 98d2 c3bb
000002c0: e8b0 eabb 9a98 d1bc 1be8 be3c 6531 e9b9
000002d0: 419c ed3b 3a53 09bc 52b5 b6bb 8e7a d13b
000002e0: e1c4 833c d75a 81bc 79e8 3b3c 3b81 cb3c
000002f0: a299 edbb 72f9 373c eaa9 8d3b a272 9d3c
00000300: ac0d 81bc 9cee fdbc ac1f c43a 8781 60bc
00000310: a487 083b 1a30 283b a576 7abb 7d34 133c
00000320: 3c1c 43bc 6d60 9b3c e1c3 0a3c ed55 f03b
00000330: fb97 993c 75cf 67bc 02c4 03bc 03bc 043c
00000340: e39b 96bc 2d58 9fbc 46da 01bd 5134 79bc
00000350: 31f5 f03b bc6a ce3b a1e1 903c 4a95 b3bc
00000360: f627 90bc f814 afbc 75ea a8ba 4fdb acbb
00000370: 30be 4b3c 9d87 af3b c006 c539 767c 71bb
00000380: ea52 8e39 6c7e bc3b 04a8 c6bc f53e bfbb
00000390: a4fb e3bc 8dc9 e13b 267f 2d3c 395e 7e3c
000003a0: c12d b63c 42e3 383c a770 94bc a8bd bdbb
000003b0: 6d54 0a3d 4191 2d3c a72f 4f3c 2399 313c
000003c0: 4402 e1bc fdb2 cf3a eb3b 203c 7c4e 1dbc
000003d0: b635 5bbc b0f3 083c 16d9 ef3a 91fc cc3b
000003e0: 16a7 1abc cca8 27bc 74a8 91bc fa1f 903c
000003f0: 7d4c 12ba 9e98 6bbc 66ad 8f3a 837b 5a3a
0.013450037 0.0103603 -0.0060083703 -0.012512513 0.0020450258 0.015505384 0.016848922 -0.0041165063
0.0052782763 0.026087401 0.01242074 0.011791323 -0.017713051 -0.003840683 -0.008033794 -0.009172803
-0.017193032 -0.00094791886 0.018457863 0.011310696 -0.02172079 -0.014810734 0.018592132 -0.01057775
0.0019083864 0.005550287 -0.0048181056 0.001502338 -0.0015167469 -0.031384457 0.0057719517 0.007781821
0.011851474 -0.012954542 -0.012021861 -0.0024246818 0.017595353 -0.01477587 0.010966237 0.004847182
0.011046851 0.0069631003 0.017544905 0.019041061 -0.010184419 -0.0036321888 -0.023985261 0.014182473
0.0011466595 0.0005463927 -0.003465805 0.0002689386 -0.008246636 0.0026810009 0.0018296478 0.0018592371
0.007872261 -0.021838773 -0.015624813 0.033816297 -0.015628166 0.0032596092 -0.014429816 -0.004364984
-0.030881343 0.007921325 -0.017223002 -0.012295267 0.015995722 -0.013462386 -0.004602442 -0.016615417
-0.011043521 0.0009795618 -0.00894438 0.0023272224 -9.540576e-05 -0.0007282064 -0.004266974 -0.007114669
0.0025702196 -0.010651415 -0.015602231 0.012642621 0.0039616404 0.0055187326 -0.014739054 -0.030206474
0.010850467 0.011190744 -0.010855876 -0.014551256 -0.0027842862 -0.02336949 0.010816529 0.005005415
0.017055683 0.011069707 0.0050674076 0.0045255297 0.020417832 0.020917596 0.0004733398 0.009511753
0.026607368 -0.015880365 -0.0050745765 0.025508404 0.015343021 -0.018045424 -0.008173916 -0.03147221
-0.0030818323 0.022271674 -0.012316541 0.0031933924 -0.004250379 0.025361976 -0.02239131 -0.015900647
-0.011966911 -0.002655583 0.016095052 -0.025897006 0.004114075 -0.008831136 0.012367532 0.00077299535
0.020134978 -0.02033204 -0.0054679746 0.013308259 0.029410534 0.013953288 -0.027780779 0.009049135
-0.021516928 -0.029114101 0.005043893 -0.0036741842 -0.012046626 0.012906596 -7.81449e-05 -0.023421768
-0.0029912912 -0.021178374 -0.0103002535 -0.028961316 0.009451991 0.007157284 0.02445344 0.006444133
0.0281553 0.015135378 -0.028906738 -0.0219853 -0.007965425 0.002047123 0.036975924 0.024496922
0.012075939 -0.01014285 -0.004829605 -0.0013362811 0.00043139927 0.0045785685 0.0053754253 0.009168565
-0.022381805 0.0015451531 -0.0010617023 0.021642698 -0.0044527445 -0.0072577535 0.008606257 -0.0059760325
-0.007162202 -0.025585461 0.023304036 -0.00044478025 0.007251293 -0.008381659 -0.0055758143 0.0063927835
0.01608509 -0.015790386 0.011469 0.024841895 -0.0072509805 0.011228906 0.004323234 0.0192197
-0.01575359 -0.030997567 0.0014963052 -0.013702757 0.0020832801 0.0025663436 -0.003821769 0.008984682
-0.011908587 0.018966878 0.008469553 0.007334462 0.018749228 -0.014148583 -0.008042337 0.008101466
-0.01838488 -0.019451225 -0.031702302 -0.015210227 0.007353448 0.006299345 0.017685713 -0.021921773
-0.01759718 -0.021372303 -0.0012887256 -0.005275167 0.012435481 0.0053567425 0.00037579797 -0.0036847866
0.00027146126 0.0057523753 -0.024250038 -0.0058363625 -0.027829953 0.006890482 0.010589397 0.015525394
0.022238614 0.011284651 -0.018120123 -0.005790431 0.03377192 0.010593713 0.012645639 0.010839733
-0.0274669 0.0015846189 0.009779911 -0.009601232 -0.013379505 0.008358881 0.001829895 0.006255694
-0.00943925 -0.010233115 -0.01778052 0.017593373 -0.00055808556 -0.0143796485 0.0010961711 0.0008334445

action_model._continuous_distribution.mu.bias f4 [3]
00000000: 5e09 5d39 9e82 d7b9 1117 3abb
0.00021079692 -0.00041105313 -0.0028395096

action_model._discrete_distribution.branches.0.weight f4 [7, 256]
00000000: 9be9 2bbc 102a cf3c 2696 773c 720c 43bc
00000010: e879 bc3b d9f8 1f3c 78b3 c6b9 bf04 86bc
00000020: 4bbc 803c f1df 1b3c 02ed 50bc 4bed d03b
00000030: 27a8 7fbc fdad c4bc 2ac5 1f3c 2ee9 a73c
00000040: a40e 063c c0d2 d93b afa0 e6bc be7e 97bc
00000050: 4451 a83b 6471 5bbb 4dca c53c 0d92 413b
00000060: 660f 8dbc 7beb 13bc ddb0 3d3c e91d 9b3c
00000070: 3589 c93c 52df 4f3a 9955 873c f719 acbb
00000080: 5b5c 103c ed55 b7bc 975b 3c3c 961f 9b3c
00000090: 5101 903b e31c 693c 7115 77bc 6653 d03c
000000a0: 1eb4 0f3c efa9 20bb c903 3dbc 4924 29bc
000000b0: a7a8 1c3c ca55 c0bc 9a3a 413c 8211 ad3c
000000c0: aecf 243c cb03 1bbc f7ee a0bb 5b55 ca3c
000000d0: 6266 c1b9 da5f a139 a693 02bc 2e8f 84bc
000000e0: 72e9 5bbc ec8a 9d3b fcb4 d6ba ab0b 8e3c
000000f0: 52cc da3b b92b 003b c6af 53bb 47d4 333c
00000100: f312 30bc 3c4d bebc 680d 12bb 05cd 4fbc
00000110: dad6 acbc 62ba e1bb 1f87 2e3c a881 a13c
00000120: 6681 ce3b 5a70 feba 4142 b23b 99b1 643c
00000130: 1078 a83c f78a 9a3c 4d47 473b e362 a2ba
00000140: 53db 2cbc 645b 5dbc 0de9 1a3b 50c7 5e3c
00000150: 1eb6 9ebc 105e 523c 582a 9eb9 b26c 813c
00000160: f427 e3bc 7c2f 7e3b 347a d8bc ce5e 693c
00000170: 2b1d 7b3c 7bd3 a13c 8748 47bc 391b 253b
00000180: 7cc2 f23c b9ef d8ba 59be a8bc bec7 4fbc
00000190: 3a1a d3bb 034b 723b 6d7d 983c 148f dfb8
000001a0: d231 0dbd 91a3 65bb 6a2d 2e3b 5105 5d3c
000001b0: a3b7 76bb a71a 1d3c 7d0c 4abc dddc fe3a
000001c0: 3472 87ba d3c7 5f3a dcc0 11bb 0c9d cc3a
000001d0: f18e 253b 6778 58bb df7f cbbb 55fe d33c
000001e0: 2451 b53b 5b7d 083d 5186 d53c 96a8 ebba
000001f0: 8232 063d ec4f 6bbc 1bff ca3c fd30 94bb
00000200: a68a 34bc bd0c 45bc a55e cd3c 8c87 8e3c
00000210: 3a54 ba3c 16a7 86bc 8342 733c c744 0a3c
00000220: d052 3b3b 1e8a 9ebb bfd4 a9bb 1c47 d33c
00000230: bb72 ee3c 87f3 a13c 7265 b73b 37a2 b03a
00000240: 69ce 183c c036 aeba 459b 993c dd82 0e3c
00000250: 9a76 243b 887c c2bc 4121 753c fec5 0e3c
00000260: 8de1 86bc 924b 763b a008 b2bc 49b9 623b
00000270: 7f42 7bbb 5080 ffbb 6b42 81bc ecd7 543b
00000280: 1df0 513c 055f 2c3c 801b 46bc 16e8 efbc
00000290: daf8 8b3c a3ee 70bc 0254 dd3c a634 a9bc
000002a0: 93ce bc3a 2dfb 6ebc e4be 18bc dd7c d1bc
000002b0: 4781 4b3c fecb 363c 23e6 903c 1800 3bbc
000002c0: 1412 2abb a7a4 0a3c 71fd 253c 0033 ab3c
000002d0: 44ad 9abc f0af 143b 1ad3 75bb 6550 97bc
000002e0: b1c0 363c bec9 b3bb da20 16bc 46f9 0b3a
000002f0: fcc1 173c df34 a23c 0871 f73b 888a 24bb
00000300: 25ee 44bb d83a 7d3c c3fb f1bb a121 713b
00000310: 3c6b a3bc 512c 8cbc a45a a63c 4253 a63c
00000320: 216f 043c 835e 4a3b 3b33 ba3a 02d9 c4bc
00000330: ca66 31bc 4c1d 85bc 63c7 80ba 8d7c 91bb
00000340: aecd 58bb f4ca 9ebb 496e 433c b481 173c
00000350: 2c10 b33c afce 4e3c 7163 8a3b e7d1 99bc
00000360: 8ebd 463c 0417 793a e11f f9bc 9249 983c
00000370: f3e9 f0bc 1b34 e3bb 5bb3 5f3c b729 e9bc
00000380: b6ae 40bc 025d c439 6434 cdba 0baf 923c
00000390: 1850 1d3c 429f 823c 622b c038 d9da 4d3b
000003a0: a822 0f3b 2a25 95bc a7d9 4d3c 02a9 44bc
000003b0: f4e1 ccbc cf0b 3f3c 320d f0bc 2256 9cba
000003c0: 36c2 f73b 6c13 9d3c a885 bb3b 8449 db3b
000003d0: 0de6 53bc 4ce6 b9bc fc30 c63c df1d 7ebc
000003e0: 5b73 9a3c c383 d13b 1e0b 833c 8299 3a3c
000003f0: 9ab1 943b d4b1 4bba 815b d3bc 0c76 0dbc
-0.010492708 0.025288612 0.015111482 -0.011904823 0.005751837 0.00976392 -0.00037899218 -0.016359685
0.015714785 0.009513841 -0.01275182 0.006375944 -0.0156040555 -0.024008745 0.009751597 0.02049693
0.008182202 0.006647438 -0.028152792 -0.018493053 0.0051366407 -0.0033484334 0.024144316 0.0029536516
-0.017219257 -0.009028311 0.011577812 0.01893516 0.024601558 0.00079297007 0.016520308 -0.0052521187
0.008811082 -0.02237984 0.011496446 0.01893596 0.004394688 0.014228079 -0.015080796 0.025430392
0.008770971 -0.002451535 -0.011536547 -0.010323592 0.009561694 -0.023478407 0.011793757 0.021126512
0.01005928 -0.0094613535 -0.0049112993 0.024698904 -0.0003688811 0.00030779728 -0.007969772 -0.016181555
-0.013422357 0.0048078205 -0.0016380842 0.017339548 0.006677189 0.001955731 -0.0032300814 0.010975904
-0.010746705 -0.023230188 -0.0022285823 -0.012683158 -0.021098543 -0.0068886736 0.010652333 0.019715145
0.0063020466 -0.0019412145 0.005440027 0.013958358 0.020565063 0.018865092 0.0030407489 -0.001238909
-0.010550338 -0.013510559 0.0023637444 0.0135973245 -0.01937395 0.012839809 -0.00030167657 0.0157989
-0.027729012 0.0038785627 -0.026425458 0.014243795 0.015326778 0.019754162 -0.012163288 0.0025193228
0.029633753 -0.0016550935 -0.020598577 -0.0126819 -0.0064423354 0.003697098 0.018614495 -0.00010660119
-0.03447134 -0.003504012 0.0026577362 0.013490037 -0.0037646077 0.009588874 -0.012332079 0.0019444484
-0.0010333718 0.0008536551 -0.0022240197 0.0015610768 0.0025262202 -0.003303075 -0.006210312 0.02587811
0.0055333544 0.033322673 0.026065024 -0.001797932 0.03276301 -0.014362317 0.024779847 -0.0045224414
-0.0110193845 -0.012026963 0.025069544 0.017398618 0.02274524 -0.016437095 0.014847401 0.008439249
0.0028583296 -0.004838242 -0.005182832 0.025790744 0.029107442 0.019769443 0.00559681 0.0013476078
0.009326556 -0.0013291463 0.018750796 0.008698192 0.0025095106 -0.023741022 0.014961542 0.008714197
-0.016464973 0.0037581665 -0.021732628 0.0034595302 -0.0038339195 -0.0077972785 -0.01577874 0.0032477332
0.012813595 0.010520701 -0.012091517 -0.029285472 0.017086435 -0.014705333 0.027017597 -0.020654988
0.0014404826 -0.014586252 -0.009322856 -0.025572235 0.012420959 0.011157034 0.017687863 -0.011413597
-0.0025950717 0.008462108 0.010131226 0.020898342 -0.018881448 0.0022687875 -0.003750986 -0.018470952
0.01115434 -0.005486696 -0.009163106 0.0005339574 0.009262558 0.019800602 0.007551316 -0.0025106985
-0.0030049172 0.015455924 -0.0073847487 0.0036793726 -0.019948594 -0.017110975 0.020306893 0.020303372
0.008083136 0.0030879087 0.0014205942 -0.024029259 -0.0108277295 -0.016249321 -0.0009825047 -0.0044398964
-0.003308158 -0.0048459712 0.0119281495 0.009247232 0.021858297 0.012622519 0.00422328 -0.018776847
0.012130154 0.0009502026 -0.030410709 0.018589769 -0.02940843 -0.0069337017 0.0136536015 -0.028462274
-0.011760404 0.0003745333 -0.0015655872 0.017905733 0.009601615 0.01594508 9.163354e-05 0.003141096
0.0021840725 -0.018206198 0.012564099 -0.012003185 -0.025010087 0.01166053 -0.029303167 -0.0011927525
0.0075609935 0.0191743 0.00572272 0.0066921134 -0.012933266 -0.022692822 0.02419328 -0.0155100515
0.018853834 0.006393881 0.015996512 0.011389138 0.0045377733 -0.0007770334 -0.025800468 -0.008634102

action_model._discrete_distribution.branches.0.bias f4 [7]
00000000: c264 af3c cf49 aebc c05e b4bc e599 c7bc
00000010: b70b babc ca03 c43c d12c c53c
0.02141035 -0.021275429 -0.022017837 -0.024365375 -0.022710664 0.023927588 0.024069222

onnx::Div_90 f4 [84]
00000000: 80a3 603b 9c72 de3e fc49 c43e 538d 7b3e
00000010: 80a3 603b 7ce2 df3e ea7f c63e dbc6 7a3e
00000020: 80a3 603b 123d dc3e dbbc c03e 1dd2 7b3e
00000030: 80a3 603b 50c6 e13e 2237 c93e ccce 793e
00000040: 80a3 603b a0e9 d83e 3a32 bb3e 2e35 7b3e
00000050: 80a3 603b 1f3d e23e eb58 ca3e ee07 783e
00000060: 80a3 603b 09d2 d53e fd10 b63e 73f5 793e
00000070: 80a3 603b eaf4 e23e a635 cb3e bf23 763e
00000080: 80a3 603b a47b d13e 63a8 b03e 8110 783e
00000090: 80a3 603b c2c1 e33e 20dc cc3e 013d 743e
000000a0: 80a3 603b dc38 ce3e af34 ac3e 3775 763e
000000b0: 80a3 603b 3d4e e53e bb59 cf3e 7b6e 723e
000000c0: 80a3 603b f409 cb3e 6017 a93e ec26 753e
000000d0: 80a3 603b 4b51 e83e c498 d33e b986 713e
000000e0: 80a3 603b 9aef c93e 2035 a93e cb1e 743e
000000f0: 80a3 603b c6e3 eb3e 125c d93e 37cb 703e
00000100: 80a3 603b ce29 c93e 3280 a93e 1eb5 733e
00000110: 80a3 603b d74e ef3e a11c df3e 8a63 703e
00000120: 80a3 603b bb26 ca3e aca7 ab3e f2b4 733e
00000130: 80a3 603b c1bc f23e 5079 e43e 9ca4 6f3e
00000140: 80a3 603b a2ad cb3e 7bf1 ad3e cc8d 733e
0.003427714 0.43446815 0.38337696 0.2456563 0.003427714 0.4372748 0.38769466 0.2448992
0.003427714 0.43015343 0.37644085 0.2459187 0.003427714 0.44096613 0.39299875 0.24395293
0.003427714 0.42365742 0.36561757 0.24532005 0.003427714 0.44187257 0.39520964 0.24221775
0.003427714 0.41761807 0.35559836 0.24410038 0.003427714 0.4432748 0.39689368 0.24037074
0.003427714 0.40914643 0.3450347 0.24225046 0.003427714 0.44483763 0.40011692 0.23851396
0.003427714 0.40277755 0.33633944 0.24068151 0.003427714 0.44786254 0.40498146 0.23674957
0.003427714 0.3965603 0.33025646 0.23940629 0.003427714 0.45374522 0.41327488 0.23586549
0.003427714 0.39440614 0.33048344 0.23839872 0.003427714 0.46072215 0.42453057 0.2351502
0.003427714 0.39289707 0.33105618 0.2379956 0.003427714 0.46739838 0.4357653 0.23475471
0.003427714 0.39482674 0.3352636 0.23799494 0.003427714 0.47409633 0.44623804 0.23402637
0.003427714 0.3978091 0.33973297 0.2378456

onnx::Div_96 f4 [37]
00000000: 85f3 c640 b2ec 503d e82a c640 80a3 603b
00000010: 3f17 993e 80a3 603b 547f 1641 e21e 6c3b
00000020: 3799 1541 80a3 603b 041d 973e 80a3 603b
00000030: 3bda 6c3e 4fdf 663e 3a04 d13e 620f f93e
00000040: 6a16 d53e 5005 d13e a1a8 7a40 4c37 bf3f
00000050: 80a3 603b a3b1 b73f 83a2 353f d4e5 603b
00000060: 3967 343f ae47 923e 3733 463e 1e33 463e
00000070: 79fd 463e 52fd 463e 6dbd 0c3e 419b 793f
00000080: 5b5f 943e a420 373f 87ed 503d 18bd ba40
00000090: 4bc4 933e
6.2172265 0.05100698 6.1927376 0.003427714 0.29900548 0.003427714 9.406086 0.003602915
9.349906 0.003427714 0.29514325 0.003427714 0.23130123 0.22546123 0.40823537 0.4864455
0.41618663 0.40824366 3.9165423 1.493875 0.003427714 1.4351085 0.709511 0.0034316676
0.70470005 0.28570312 0.19355474 0.19355437 0.1943263 0.19432572 0.13744135 0.97502524
0.28979 0.7153418 0.051007774 5.8355827 0.28860697
