results/BoxingTraining/BoxingAgent/BoxingAgent-0.onnx (onnx, 388657 bytes, 12 tensors)

network_body.observation_encoder.processors.0.normalizer.running_mean f4 [68]
00000000: 0000 0000 0000 0000 0000 0000 0000 0000
00000010: 0000 0000 0000 0000 0000 0000 0000 0000
00000020: 0000 0000 0000 0000 0000 0000 0000 0000
00000030: 0000 0000 0000 0000 0000 0000 0000 0000
00000040: 0000 0000 0000 0000 0000 0000 0000 0000
00000050: 0000 0000 0000 0000 0000 0000 0000 0000
00000060: 0000 0000 0000 0000 0000 0000 0000 0000
00000070: 0000 0000 0000 0000 0000 0000 0000 0000
00000080: 0000 0000 0000 0000 0000 0000 0000 0000
00000090: 0000 0000 0000 0000 0000 0000 0000 0000
000000a0: 0000 0000 0000 0000 0000 0000 0000 0000
000000b0: 0000 0000 0000 0000 0000 0000 0000 0000
000000c0: 0000 0000 0000 0000 0000 0000 0000 0000
000000d0: 0000 0000 0000 0000 0000 0000 0000 0000
000000e0: 0000 0000 0000 0000 0000 0000 0000 0000
000000f0: 0000 0000 0000 0000 0000 0000 0000 0000
00000100: 0000 0000 0000 0000 0000 0000 0000 0000
0.0 0.0 0.0 0.0 0.0 0.0 0.0 0.0
0.0 0.0 0.0 0.0 0.0 0.0 0.0 0.0
0.0 0.0 0.0 0.0 0.0 0.0 0.0 0.0
0.0 0.0 0.0 0.0 0.0 0.0 0.0 0.0
0.0 0.0 0.0 0.0 0.0 0.0 0.0 0.0
0.0 0.0 0.0 0.0 0.0 0.0 0.0 0.0
0.0 0.0 0.0 0.0 0.0 0.0 0.0 0.0
0.0 0.0 0.0 0.0 0.0 0.0 0.0 0.0
0.0 0.0 0.0 0.0

network_body.observation_encoder.processors.1.normalizer.running_mean f4 [35]
00000000: 0000 0000 0000 0000 0000 0000 0000 0000
00000010: 0000 0000 0000 0000 0000 0000 0000 0000
00000020: 0000 0000 0000 0000 0000 0000 0000 0000
00000030: 0000 0000 0000 0000 0000 0000 0000 0000
00000040: 0000 0000 0000 0000 0000 0000 0000 0000
00000050: 0000 0000 0000 0000 0000 0000 0000 0000
00000060: 0000 0000 0000 0000 0000 0000 0000 0000
00000070: 0000 0000 0000 0000 0000 0000 0000 0000
00000080: 0000 0000 0000 0000 0000 0000
0.0 0.0 0.0 0.0 0.0 0.0 0.0 0.0
0.0 0.0 0.0 0.0 0.0 0.0 0.0 0.0
0.0 0.0 0.0 0.0 0.0 0.0 0.0 0.0
0.0 0.0 0.0 0.0 0.0 0.0 0.0 0.0
0.0 0.0 0.0

network_body._body_endoder.seq_layers.0.weight f4 [256, 103]
00000000: 4dab aa3d bf47 e4bc 3ca7 40bd d2dd 7fbd
00000010: 8fe0 2a3e bedd 81bc ea45 993b 0609 00bd
00000020: ca74 86bd 7609 ec3d b89c 873d c542 9e3d
00000030: 1b65 52bd 799a 213e 66f6 f4bd 9536 c0bd
00000040: 0dfd cc3d 28cd 913d 5db2 2f3d 120d 00bc
00000050: 755d cc3d 963a 393c f9dc 683e 4bf7 c8bd
00000060: 078e 1d3d e784 dcbd aa7e d6bc c24c 1fbe
00000070: b3a4 bcbd b8c5 0b3e db28 58be 642c 1d3e
00000080: ecf6 6f3e 79af 2abd 7f55 863d 33df d2bd
00000090: e2ab ffbd 2f32 e8bc 7c07 ce3d 380d b23d
000000a0: 590b 1cbd 4ec1 bbbd 9960 e0bd 5db4 d33d
000000b0: 185b c33c 0500 e33d 5e9e 643d 24f8 fcbc
000000c0: fe2e 183d 7b10 1f3c 57d4 9fbd a873 c9bd
000000d0: b9ff 68bd 07ca 293d 0b88 be3b 6693 08bd
000000e0: 1203 d83d 462c 863d c1e5 4d3d 3446 0cbe
000000f0: f7d4 e7bc a495 e4bd 4521 573d 6571 9bbd
00000100: 404c db3c 20d3 05be cd8a cabd 2567 c0bd
00000110: 960c 943d c2cf 3b3c 48ec 44bd 1a0a 29bd
00000120: f07c 04bd e0a8 01be b599 033e 715d a3bd
00000130: 1af7 53be 37c4 07bd 3bff cf3c dfdf 83bd
00000140: fa7f 183e 4de9 9f3d 4f12 543d 0277 c83d
00000150: 1bed 773d 04fe cc3d 9b03 c53d 1798 8d3d
00000160: 6034 1fbe 7723 2a3e e334 4cbd 09ae bb3d
00000170: 9742 803d b62d cc3d a127 2c3d de77 eabd
00000180: 2c96 cebd bd72 babd 31db cd3d f4f3 8f3d
00000190: 9ee0 3dbe eecb 1b3d 4c8c 0a3c 8882 ac3b
000001a0: d37f e03d 55a3 6a3d 4821 23be af48 b53c
000001b0: 33b1 a83d f2d7 f43c 9b12 79bc 02a6 993d
000001c0: 8c73 77bd b738 9abd 6d34 4f3d e38e 453c
000001d0: e033 05be 27fa 0e3c 1b23 3dbd f652 1ebe
000001e0: de35 643d 714d 833d aeb0 b73d bf53 85bc
000001f0: 45f9 8c3c 24aa 4c3d 5366 a3bd bca2 383e
00000200: abee 033d f7fe c4bb 4b75 f8bd e2f7 0dbd
00000210: 95aa c73b f3c4 893c de16 583c 5fad a83d
00000220: e155 98bc 5b75 013e f6be c53c ce2f 0d3e
00000230: 38dc 3bbe 3936 eebd 02c2 003e 7337 813d
00000240: 2ce4 5b3d ae01 763d 0e7e bbbd 0c3b a9bb
00000250: 08ab 513e 2867 18be 58ab 5c3e e77f 813d
00000260: 1e4d 32be 788e 973d d819 1abd 3bfc 683c
00000270: 39cd c8bd c41d 003d 9693 84bd dc71 e23d
00000280: 747e 38bc d4f1 acbd 882e 003e b926 c2bd
00000290: e510 583e 68e8 d9bc b7a4 a7bb 0236 dabd
000002a0: 6e7c 133e 5eaa ae3d d2aa 213d 231a 543e
000002b0: ac82 533e 59ac 653d adfc 0dbe eb86 7a3d
000002c0: 40c6 263d de7a 593d db7f 53bd 79ed c4bc
000002d0: 5cb1 c93d 056b 0e3e 2ed0 113d 629a 96bd
000002e0: 6cbc 043e bd28 383e 3d63 933e aa9e 923d
000002f0: 949c 74bd 6e8d 013e 91aa ffbd fc13 ce3c
00000300: 9f92 7c3d 13de 043c 595b 47be a3b4 40be
00000310: 7706 62bd a3f2 8bbc efff b13d 9b77 093e
00000320: 6d89 8c3d a03e 873d 1d06 823d 6f64 54bd
00000330: 55da 35bb 0b6e 1a3d 8615 dd3d 4b6f 88bd
00000340: 0809 c13d 9946 e93d 660d d9bd aed6 2cbc
00000350: 1c4b b6bd 51ef f1bd 5cc9 583d 9ca2 28bd
00000360: 31a1 10be 8a54 30bb 3fb3 ee3d 8832 d93c
00000370: 4e9a 2cbe f5f6 a6bd eafe ac3c 34bd 643d
00000380: 973f 6ebd 3d05 36be b7f1 8b3d eb46 fcbd
00000390: ee3f 293d 879a 7bbd 313e 303e e6aa 753d
000003a0: ce23 96bd ed17 b5bc e8e9 c2bd 7f29 2cbd
000003b0: 9540 29be 9882 dd3d 605b c93d 68ac 31bc
000003c0: 3108 49ba 466f a03d 91da 84bc 5cc9 d53d
000003d0: 18ce 91bd b017 733b 2932 c4bc ff3a 013e
000003e0: fbd4 e43d f9dd c73d b084 9e3d fe19 aebd
000003f0: 4066 db3c d63a aabd 8c35 223d b2c2 a53d
0.08333454 -0.027866242 -0.047034487 -0.062467404 0.16687225 -0.015852805 0.004677524 -0.031258605
-0.065652445 0.11525242 0.066216886 0.07727579 -0.051365953 0.15781583 -0.11961059 -0.09385411
0.10009203 0.071192086 0.04289471 -0.007815616 0.09978763 0.011305472 0.22740544 -0.098127924
0.038465526 -0.107675366 -0.026183445 -0.15556625 -0.092111014 0.13649642 -0.21109335 0.15348965
0.23434037 -0.04167125 0.06559276 -0.10296478 -0.12483956 -0.028344242 0.10060021 0.086939275
-0.03809676 -0.09167729 -0.109559245 0.10337136 0.023847148 0.11083988 0.055815093 -0.030880041
0.03715419 0.009708519 -0.078041725 -0.09836513 -0.0568845 0.041452434 0.0058145574 -0.033343695
0.105474606 0.06551413 0.05026794 -0.13698655 -0.028299792 -0.11161354 0.052521963 -0.07589988
0.026769757 -0.13068819 -0.098897554 -0.09394673 0.07228963 0.011463108 -0.048076898 -0.0412694
-0.032345712 -0.12662077 0.12851603 -0.07976807 -0.2069973 -0.03314611 0.025390258 -0.064391844
0.14892569 0.078081705 0.051775273 0.09788324 0.060528856 0.10009387 0.09619828 0.069137745
-0.15547323 0.16615091 -0.049855124 0.09164054 0.06262701 0.09969656 0.04202998 -0.11448644
-0.10087237 -0.09103916 0.10051573 0.07028952 -0.18542716 0.03803628 0.008456301 0.005264584
0.109618805 0.05728467 -0.15930665 0.022129385 0.08236923 0.029888127 -0.01520219 0.075023666
-0.06041293 -0.07530349 0.050587106 0.012057993 -0.1300807 0.008726633 -0.046176057 -0.15461335
0.055715434 0.06411255 0.08969246 -0.016275285 0.017208705 0.049966946 -0.07978501 0.18030828
0.032210033 -0.0060118395 -0.12131747 -0.034660228 0.006093333 0.016817546 0.013189046 0.08236193
-0.018595638 0.12642424 0.024138909 0.13787767 -0.18345726 -0.11631436 0.12574008 0.06309404
0.0536844 0.060060196 -0.091549024 -0.0051645096 0.204754 -0.14883101 0.21549737 0.063232236
-0.1741223 0.07400221 -0.037622303 0.014220293 -0.09804768 0.031278387 -0.06473462 0.11056873
-0.0112606175 -0.084445626 0.1251775 -0.09480042 0.21100195 -0.026600078 -0.005116071 -0.106548324
0.14402935 0.08528589 0.039469548 0.20713095 0.20655316 0.056072567 -0.1386592 0.061163824
0.04071641 0.05309569 -0.051635604 -0.024039017 0.09848282 0.13908012 0.035598926 -0.07353665
0.12962502 0.1798429 0.2878665 0.07159169 -0.059719637 0.12651607 -0.12483705 0.025156014
0.061663266 0.008109587 -0.1946844 -0.18818907 -0.055181947 -0.017083472 0.086913936 0.13424532
0.068621494 0.06603742 0.06348822 -0.051853593 -0.0027748544 0.0377026 0.10795121 -0.066618524
0.09425551 0.113904186 -0.10598259 -0.0105492305 -0.08901045 -0.11813224 0.052926406 -0.0411707
-0.1412399 -0.0026905858 0.11655282 0.026513353 -0.16855738 -0.08152572 0.021117646 0.0558445
-0.058166113 -0.17775436 0.06833213 -0.12318214 0.041320734 -0.061426666 0.17211224 0.059977435
-0.07331048 -0.022106135 -0.0951727 -0.04203176 -0.16528542 0.108159244 0.098318815 -0.0108443275
-0.0007668762 0.07833724 -0.016217502 0.10438797 -0.071193874 0.0037092976 -0.0239497 0.12620161
0.11173435 0.09759135 0.07740152 -0.08501051 0.026782155 -0.08312003 0.039601848 0.08093776

network_body._body_endoder.seq_layers.0.bias f4 [256]
00000000: 0000 0000 0000 0000 0000 0000 0000 0000
00000010: 0000 0000 0000 0000 0000 0000 0000 0000
00000020: 0000 0000 0000 0000 0000 0000 0000 0000
00000030: 0000 0000 0000 0000 0000 0000 0000 0000
00000040: 0000 0000 0000 0000 0000 0000 0000 0000
00000050: 0000 0000 0000 0000 0000 0000 0000 0000
00000060: 0000 0000 0000 0000 0000 0000 0000 0000
00000070: 0000 0000 0000 0000 0000 0000 0000 0000
00000080: 0000 0000 0000 0000 0000 0000 0000 0000
00000090: 0000 0000 0000 0000 0000 0000 0000 0000
000000a0: 0000 0000 0000 0000 0000 0000 0000 0000
000000b0: 0000 0000 0000 0000 0000 0000 0000 0000
000000c0: 0000 0000 0000 0000 0000 0000 0000 0000
000000d0: 0000 0000 0000 0000 0000 0000 0000 0000
000000e0: 0000 0000 0000 0000 0000 0000 0000 0000
000000f0: 0000 0000 0000 0000 0000 0000 0000 0000
00000100: 0000 0000 0000 0000 0000 0000 0000 0000
00000110: 0000 0000 0000 0000 0000 0000 0000 0000
00000120: 0000 0000 0000 0000 0000 0000 0000 0000
00000130: 0000 0000 0000 0000 0000 0000 0000 0000
00000140: 0000 0000 0000 0000 0000 0000 0000 0000
00000150: 0000 0000 0000 0000 0000 0000 0000 0000
00000160: 0000 0000 0000 0000 0000 0000 0000 0000
00000170: 0000 0000 0000 0000 0000 0000 0000 0000
00000180: 0000 0000 0000 0000 0000 0000 0000 0000
00000190: 0000 0000 0000 0000 0000 0000 0000 0000
000001a0: 0000 0000 0000 0000 0000 0000 0000 0000
000001b0: 0000 0000 0000 0000 0000 0000 0000 0000
000001c0: 0000 0000 0000 0000 0000 0000 0000 0000
000001d0: 0000 0000 0000 0000 0000 0000 0000 0000
000001e0: 0000 0000 0000 0000 0000 0000 0000 0000
000001f0: 0000 0000 0000 0000 0000 0000 0000 0000
00000200: 0000 0000 0000 0000 0000 0000 0000 0000
00000210: 0000 0000 0000 0000 0000 0000 0000 0000
00000220: 0000 0000 0000 0000 0000 0000 0000 0000
00000230: 0000 0000 0000 0000 0000 0000 0000 0000
00000240: 0000 0000 0000 0000 0000 0000 0000 0000
00000250: 0000 0000 0000 0000 0000 0000 0000 0000
00000260: 0000 0000 0000 0000 0000 0000 0000 0000
00000270: 0000 0000 0000 0000 0000 0000 0000 0000
00000280: 0000 0000 0000 0000 0000 0000 0000 0000
00000290: 0000 0000 0000 0000 0000 0000 0000 0000
000002a0: 0000 0000 0000 0000 0000 0000 0000 0000
000002b0: 0000 0000 0000 0000 0000 0000 0000 0000
000002c0: 0000 0000 0000 0000 0000 0000 0000 0000
000002d0: 0000 0000 0000 0000 0000 0000 0000 0000
000002e0: 0000 0000 0000 0000 0000 0000 0000 0000
000002f0: 0000 0000 0000 0000 0000 0000 0000 0000
00000300: 0000 0000 0000 0000 0000 0000 0000 0000
00000310: 0000 0000 0000 0000 0000 0000 0000 0000
00000320: 0000 0000 0000 0000 0000 0000 0000 0000
00000330: 0000 0000 0000 0000 0000 0000 0000 0000
00000340: 0000 0000 0000 0000 0000 0000 0000 0000
00000350: 0000 0000 0000 0000 0000 0000 0000 0000
00000360: 0000 0000 0000 0000 0000 0000 0000 0000
00000370: 0000 0000 0000 0000 0000 0000 0000 0000
00000380: 0000 0000 0000 0000 0000 0000 0000 0000
00000390: 0000 0000 0000 0000 0000 0000 0000 0000
000003a0: 0000 0000 0000 0000 0000 0000 0000 0000
000003b0: 0000 0000 0000 0000 0000 0000 0000 0000
000003c0: 0000 0000 0000 0000 0000 0000 0000 0000
000003d0: 0000 0000 0000 0000 0000 0000 0000 0000
000003e0: 0000 0000 0000 0000 0000 0000 0000 0000
000003f0: 0000 0000 0000 0000 0000 0000 0000 0000
0.0 0.0 0.0 0.0 0.0 0.0 0.0 0.0
0.0 0.0 0.0 0.0 0.0 0.0 0.0 0.0
0.0 0.0 0.0 0.0 0.0 0.0 0.0 0.0
0.0 0.0 0.0 0.0 0.0 0.0 0.0 0.0
0.0 0.0 0.0 0.0 0.0 0.0 0.0 0.0
0.0 0.0 0.0 0.0 0.0 0.0 0.0 0.0
0.0 0.0 0.0 0.0 0.0 0.0 0.0 0.0
0.0 0.0 0.0 0.0 0.0 0.0 0.0 0.0
0.0 0.0 0.0 0.0 0.0 0.0 0.0 0.0
0.0 0.0 0.0 0.0 0.0 0.0 0.0 0.0
0.0 0.0 0.0 0.0 0.0 0.0 0.0 0.0
0.0 0.0 0.0 0.0 0.0 0.0 0.0 0.0
0.0 0.0 0.0 0.0 0.0 0.0 0.0 0.0
0.0 0.0 0.0 0.0 0.0 0.0 0.0 0.0
0.0 0.0 0.0 0.0 0.0 0.0 0.0 0.0
0.0 0.0 0.0 0.0 0.0 0.0 0.0 0.0
0.0 0.0 0.0 0.0 0.0 0.0 0.0 0.0
0.0 0.0 0.0 0.0 0.0 0.0 0.0 0.0
0.0 0.0 0.0 0.0 0.0 0.0 0.0 0.0
0.0 0.0 0.0 0.0 0.0 0.0 0.0 0.0
0.0 0.0 0.0 0.0 0.0 0.0 0.0 0.0
0.0 0.0 0.0 0.0 0.0 0.0 0.0 0.0
0.0 0.0 0.0 0.0 0.0 0.0 0.0 0.0
0.0 0.0 0.0 0.0 0.0 0.0 0.0 0.0
0.0 0.0 0.0 0.0 0.0 0.0 0.0 0.0
0.0 0.0 0.0 0.0 0.0 0.0 0.0 0.0
0.0 0.0 0.0 0.0 0.0 0.0 0.0 0.0
0.0 0.0 0.0 0.0 0.0 0.0 0.0 0.0
0.0 0.0 0.0 0.0 0.0 0.0 0.0 0.0
0.0 0.0 0.0 0.0 0.0 0.0 0.0 0.0
0.0 0.0 0.0 0.0 0.0 0.0 0.0 0.0
0.0 0.0 0.0 0.0 0.0 0.0 0.0 0.0

network_body._body_endoder.seq_layers.2.weight f4 [256, 256]
00000000: 1e92 0bbe 90f9 54bd c3a5 363c e638 afbc
00000010: 4282 c43c fbca 20be fb84 f73d 4cde 8b38
00000020: e0f8 2abc 1b75 1ebd 8efd b83d fead 66bd
00000030: 9bd6 9d3d 2d1d 83ba e424 f53d 1aba dcbc
00000040: 0454 4c3e be0f bebd cd87 9d3d 71ec 80bd
00000050: 3cb5 e13d 0032 02bd 38d8 8e3d c8a8 dc3c
00000060: a24d 1a3e 1e49 16bc 2de5 b03c 4126 3ebd
00000070: 7b04 34bd 3fcf 84bc fa64 6c3d adf3 f73d
00000080: f266 5abd a724 64bd 2fa1 9bbd 007f 50bd
00000090: 103a 18bd 0071 f6bc 7f5b eabd 2519 c63c
000000a0: 65a7 86bc e89c efbd 6dff 84bd edf5 d93b
000000b0: 5ed0 e53c 33d2 56bd 7664 aa3c 65e9 faba
000000c0: 76ee 2c3d 305f 05bd d19c 0f3c 4675 8bbd
000000d0: 7169 473b 5b2e 48bd c9f0 7dbd 5563 d23d
000000e0: 5383 843c dbf4 68bc 77b8 543d 8c93 223d
000000f0: a62d 35bd 152f f43c 5da2 e3bc 6c1e febb
00000100: 8262 afbb 186d 8cbd eebf f4bd a4bf 31bc
00000110: 3f6a 8ebd 70b9 2ebd 5d2d 943d cbfb 703c
00000120: b7bb 5d3d 1b88 ba3d 43fc c9bc 6607 473c
00000130: 97c1 063c fad6 0fbc 1c98 163c bcd5 4a3b
00000140: 2f16 bcbc 31b8 ff3c 76a8 1d3c 1c86 87bd
00000150: c9ba 98bb c6f3 283d 2bd8 fabc cb80 94bc
00000160: a73c ec3c be50 143c 2a55 0e3d 55bb 5b3d
00000170: 1f6e 073d 2dca 063e fa9b 5b3d a9a2 5e3d
00000180: 3f43 32bd 8289 8c3d a807 1dbd f0b0 7c3b
00000190: 1986 913d eeff 69bc ccb5 58bc 62c6 743d
000001a0: d2de 45bc 306a 21bd 6f97 0e3e b00f 413d
000001b0: 8dac 873c e665 26bd ae45 183d a60e 9a3d
000001c0: ebbe e13b 5605 c9bc de32 16be d2ba 87bd
000001d0: 076d d7bd 707d c23d 877c 9ebd 323a f93c
000001e0: 6583 ab3d 206b b6bd b875 4b3d 7fbf 3bbd
000001f0: 1b69 a53c 3695 d43c e456 693d 5fef d13c
00000200: af2b 493a 244d 883d a0da 0cbc fd4c 043d
00000210: c474 0dbd c9c7 803d 50a7 32bc 85de 853c
00000220: afd2 9fbd f12d 62bd 1931 3a3b 5a73 bc3c
00000230: a34f 7dbd 1d47 753b f9d9 70bc cafb c8bb
00000240: 2288 483d bc06 823d c43c c5bc eb5e c4bd
00000250: 26f8 043c 46ca 653d 02ba 71bd a023 55bd
00000260: 80b4 1d3d 7dac 5ebd 27a2 e5bc 6a86 65bd
00000270: c4a6 26bc b772 67bd 5fe7 c7bd 16a2 8f3d
00000280: a9fe 123d e1fe 813c 31e8 1b3d 1a9b 6e3d
00000290: f252 93bc 54b9 21bc 58eb 3cbd 27dc ed3c
000002a0: 5927 4e3d b017 8dbc 83e0 533c 7724 e5bd
000002b0: 8740 423d 59b7 02bd 5f19 fa3d 5c5a 033c
000002c0: 6d78 863d 9cb4 a13c 9f16 56bd 469b 90bd
000002d0: 0f3c 46bd 3e4a bebc 1e76 03bd 9374 9cbd
000002e0: 6005 8dbd 0870 d2ba 6a60 20bd ca17 60bd
000002f0: 707c 04bc 2e44 a8bc 6de9 3c3d 6804 66bd
00000300: f83e 80bd 3583 b33c 5fbc f0bc b3dc 7b3c
00000310: 3999 2e3d 3bda 1abd 60bb 14bd 341f d9bd
00000320: ca3f ed3c 60c0 7f3c a3e2 493c c737 c43d
00000330: 83e5 e8bd 68c4 043e 3e56 193d 3683 6fbd
00000340: 1f66 31bd 9d63 5d3d 6897 a93d ba02 a2bc
00000350: ca49 51be d260 2a3d 5948 01be 03fb 173d
00000360: 5198 8b3c f7ad 2a3d 9c14 d53d 6614 fdbb
00000370: 0e06 783b 2573 82bb bd7a 06bc e046 5e3d
00000380: 85a3 643d 39dc 7b3d 493a 3e3d 4fa5 203c
00000390: ddc3 17bc 6af5 7f3d f987 bc3c 5188 7d3d
000003a0: 0cf9 24bd e42f 0ebd 0225 c3bc b6be dc3b
000003b0: 77e5 1b3d 8b1a c63d 4937 08bd 4140 babc
000003c0: 09ae 3abd 086d 683d 7d0b a43d 246d ca3d
000003d0: 7998 cb3d 984b b93d cb0f cc3c daaa 93bb
000003e0: 783e aa3c e28a a4bd 1f1d 15bd fab7 8f3c
000003f0: eceb 1abd fea6 58bd 5c69 8d3d 5b36 d03c
-0.13629958 -0.051995814 0.011147919 -0.021389436 0.023987893 -0.15702431 0.12085911 6.6694425e-05
-0.010435313 -0.0386859 0.09032737 -0.056318276 0.07706948 -0.0010003202 0.11969927 -0.026944209
0.19953924 -0.09280346 0.076919176 -0.062950976 0.11020896 -0.031785965 0.06974834 0.02693595
0.15068677 -0.009172706 0.021593655 -0.0464232 -0.043949585 -0.016212104 0.057713486 0.12107024
-0.053320833 -0.055699017 -0.07599103 -0.050902367 -0.037164748 -0.03008318 -0.11443233 0.024181912
-0.016437242 -0.11699849 -0.06494031 0.006651631 0.028053459 -0.052446555 0.020799857 -0.0019143043
0.0422196 -0.03256148 0.008765415 -0.068094775 0.0030427838 -0.048872333 -0.06199721 0.10272852
0.016175902 -0.014218534 0.051933732 0.039691493 -0.044232987 0.029807607 -0.027787382 -0.0077550914
-0.005352319 -0.068567455 -0.1195067 -0.010848913 -0.069538586 -0.042657316 0.07235215 0.01470847
0.054134097 0.09107991 -0.02465642 0.01214776 0.008224866 -0.008779282 0.009191539 0.003095015
-0.022959797 0.031215759 0.009622684 -0.06617376 -0.0046609384 0.041248105 -0.030620655 -0.01812782
0.028837515 0.009052454 0.034749188 0.05364545 0.033064004 0.13163061 0.053615548 0.054354344
-0.043521162 0.06862165 -0.03833738 0.0038557611 0.07105655 -0.01428221 -0.0132269375 0.059759505
-0.01207705 -0.03940791 0.13924955 0.0471341 0.01656177 -0.04062452 0.037175827 0.07522325
0.0068892143 -0.024538677 -0.14667842 -0.0662743 -0.10518842 0.094965816 -0.077385955 0.030423257
0.08374671 -0.08907151 0.049672812 -0.04583692 0.02019172 0.025950056 0.05696763 0.025626836
0.0007674051 0.066553384 -0.008597046 0.032299984 -0.034535185 0.06288106 -0.010904148 0.016341457
-0.078038566 -0.055219594 0.0028410612 0.023004223 -0.061843526 0.003742642 -0.014700406 -0.006133531
0.04895795 0.06348941 -0.024076827 -0.09588417 0.008115804 0.056101106 -0.05901528 -0.052035928
0.038502216 -0.054363716 -0.028031422 -0.05603639 -0.010171596 -0.056505885 -0.097609274 0.07013337
0.035887394 0.015868606 0.03806323 0.058253385 -0.017983887 -0.009870846 -0.04612288 0.02903564
0.050330494 -0.01722321 0.012931946 -0.11188596 0.04742482 -0.031913135 0.122118704 0.008017149
0.06565938 0.019739442 -0.052267667 -0.07060866 -0.04839712 -0.02322876 -0.032095067 -0.07639422
-0.06885791 -0.0016055116 -0.039154448 -0.054710187 -0.008086309 -0.020540323 0.04612105 -0.056156546
-0.0626201 0.02191315 -0.029386697 0.015372443 0.042626593 -0.037805777 -0.036311507 -0.10601655
0.028961081 0.015609831 0.012322101 0.09580951 -0.11371901 0.12965548 0.037435763 -0.058474742
-0.04331028 0.054050077 0.082808316 -0.01977669 -0.20438305 0.04159624 -0.12625255 0.037104618
0.017040404 0.041669812 0.104043216 -0.007723379 0.0037845406 -0.0039810115 -0.008207974 0.05426681
0.055820007 0.061489318 0.046442304 0.009805038 -0.009263006 0.062489904 0.023014056 0.06189758
-0.040276572 -0.03471364 -0.023821358 0.0067366017 0.03806063 0.096730314 -0.03325585 -0.022735717
-0.04557613 0.056744605 0.08010004 0.09884098 0.09941191 0.090476215 0.024909874 -0.004506451
0.02078174 -0.08034302 -0.036404725 0.017543782 -0.03782265 -0.05289363 0.06904861 0.025416544

action_model._continuous_distribution.log_sigma f4 [1, 3]
00000000: 0000 0000 0000 0000 0000 0000
0.0 0.0 0.0

action_model._continuous_distribution.mu.weight f4 [3, 256]
00000000: ab15 a5bc a7af 74bc b05e 02bc 2375 7a3b
00000010: e3f7 113c 14b3 25bc 642f 023c 278e 8e3c
00000020: 49a1 943b 9252 c33c 08ec d23a 0072 dcbb
00000030: bdea c33c 0eb5 a7bc f03f 72bb 22e2 163c
00000040: 6b63 e53b 1fff 213c 8372 b239 d393 15bb
00000050: 4122 233b a894 513b 50c6 0abc 7ca5 9bbc
00000060: 1a14 56bb 716f bd3b 0be4 8f3c b034 5b3c
00000070: 2329 98bb f9cc 10bc f9de 95bb 5861 d4bb
00000080: 3c32 a3ba 0e13 b43c 7643 893c 4a5c 303b
00000090: 2351 adbc 55d5 c43a bb9b 91bc 5ba8 79bc
000000a0: fae2 afbc 5b58 573c 604a 1ebd d1b1 3dbc
000000b0: 474c 863b ddf2 9b3c 99b9 85b9 72f0 713c
000000c0: 2feb 63bb 3384 afbb 959d 48bb 8366 3f3a
000000d0: f276 f1bb 97e8 193b aefb 00bd 3f7a 003c
000000e0: 7057 12bc 25ff bb3b e750 b53a 3f66 8a3a
000000f0: 103a a73c 1156 c73b 8d2f 2d3c cce1 2d3c
00000100: 3897 47bc fffd 723b a8ed bb3c 2b84 073c
00000110: 7f2c 2ebc d833 6839 f45d 1fbc 6dcd 70bc
00000120: 3003 d5bb ca7f 643c d30f 50bb ba21 663c
00000130: 0253 693c c7d1 803c 2b3d e03b 4365 40bb
00000140: bf89 e03b 200f ee3c e0d4 413c e5dd 6d3c
00000150: 6ac2 e03b c37d 12bc 5be0 73bc 955d 523c
00000160: 7a64 0abb c075 ddba f775 e337 e09d f2bb
00000170: 681f 883c 4b6f 863b b847 24ba 8809 dfbb
00000180: eb94 6bbc faa9 a1bc 62b3 09bc 73ad cc3b
00000190: 43c4 62bc 6132 35bb 1a58 5e3c bbf6 6abc
000001a0: 955e e9ba 9f06 9e3b 6dbb fbba 6552 653c
000001b0: 1400 9d3c 94d6 453c dd6a 9abb e753 dc3a
000001c0: 016b 08bc 727f 5e3b 6b52 9b3c 1ba6 a6bb
000001d0: 639e 3b3b 2ce2 b33c db35 5d3a fe98 073a
000001e0: 64b4 c63b 2d1d 97bc 9b46 50bc 7466 07bc
000001f0: 4b6a d63b b8eb b3bc c5d6 a33b 15d1 e9bb
00000200: 977b 14bb 3e6a 9ebc 330c 91bc 8d7a 03bc
00000210: 0238 443b 57eb d6bb b896 ed3b aac5 4abc
00000220: a573 7aba 430b 21bc cc52 bb3c e5ab 593c
00000230: 54c6 ad3b 6aa4 a5bc 17dc 82bc 6dbe 3d3c
00000240: e2e1 093c 24e1 323b 85be 95bc 4778 88bc
00000250: 48ff ea3c 931d 7c3c ef58 2b3c fd36 2ebc
00000260: f584 9b3c 8f3c 463c 7f0d 95bb 37b7 56bc
00000270: 0563 cd3b 4ad8 61b9 afa9 c93b b705 dbbb
00000280: 8de0 923c c6ed 903c 7dda b83b 06ec c8bb
00000290: 2832 e1bb fb05 bfbc 0306 d43b 5a44 d53c
000002a0: 0755 2a3c 041c 8739 4c17 27bc 47ca d53b
000002b0: 0766 d0bb 5f0f edbb 0513 d33c e03f 243a
000002c0: 8b31 9e39 6288 783c fa80 78bc bef3 87bc
000002d0: 8e06 92bc b5b1 eb3b b5ec 2e3c c28f 203c
000002e0: 3b04 ee3a 3fde 243b 02b2 783b bcb0 bf3a
000002f0: a9a6 07bc 5d01 6b3c a0f4 e8bb 6d1f 593c
00000300: e823 65bc db72 8a3c 251e 97bb 6580 693c
00000310: f092 1d3c bdc1 d6bb 97b2 b1bb 9ade 663c
00000320: 7d71 053c 364a 41ba aa57 c93c adcd 45bc
00000330: 8db0 4dbc 5d3e 153a 64dd c5ba 73ca 23bc
00000340: 6882 8cbb 9875 e6bc 8b4a 3bbc ec42 b4bc
00000350: c508 28bb 48b6 493c bcae 9fbc d7c3 d13b
00000360: 4329 5a3b f39a 5e3a ebf2 a5bc 1f23 9f3c
00000370: 8bea cc3b 41d6 85bb f832 e9bb c3d1 6dba
00000380: c15b 8e3c 8a24 5cbb 8087 68b9 285c 67ba
00000390: 0ff9 58bb 03e2 ceba 8b80 2c3c a3f4 49bc
000003a0: 1097 613b 8045 cabb d80f eabb 930e b93c
000003b0: 8edb 883b 574a f0bb 1242 8ebb 6c01 29bc
000003c0: 35e5 0bbc 837d 513c 23e7 8abc 97f0 a1bb
000003d0: a788 51bb 2bba b6bc 4838 013c 63c2 55bc
000003e0: 081a 48bb 0576 313c 5f1b a6bb 73e0 543a
000003f0: bd1c 51bb d509 853b 98e5 89bc b34c d6ba
-0.020151934 -0.014934457 -0.007957146 0.0038216792 0.008909198 -0.010113496 0.007945869 0.017401768
0.0045358283 0.023843084 0.0016092071 -0.006727457 0.023915643 -0.020472076 -0.003696438 0.009209188
0.007000377 0.009887486 0.00034036124 -0.0022823706 0.0024892243 0.0031979475 -0.008470133 -0.018999808
-0.003266579 0.005781107 0.017564794 0.013379261 -0.0046435758 -0.008837932 -0.0045736996 -0.006481331
-0.0012450884 0.021981742 0.0167558 0.0026910477 -0.021156853 0.0015017191 -0.017774453 -0.015237893
-0.021470536 0.013143624 -0.03864515 -0.011578039 0.0040984484 0.019036705 -0.00025506018 0.014766799
-0.0034777632 -0.0053563355 -0.0030611504 0.0007301347 -0.0073689157 0.0023484582 -0.03149002 0.007841646
-0.00893198 0.0057372027 0.0013833315 0.0010559036 0.020413429 0.006083258 0.010570419 0.010612916
-0.012182049 0.0037077663 0.022940472 0.008271257 -0.010630726 0.00022144557 -0.00972699 -0.014697415
-0.006500624 0.013946483 -0.0031747713 0.014046127 0.014240982 0.01572503 0.0068432293 -0.0029357232
0.006852358 0.029059947 0.0118305385 0.014518236 0.0068591135 -0.008941117 -0.0148850335 0.0128396945
-0.0021117018 -0.0016896054 2.711544e-05 -0.007404074 0.016616538 0.0041026226 -0.00062667904 -0.006806556
-0.0143787665 -0.019734371 -0.008404585 0.0062462627 -0.013840738 -0.0027648436 0.01357081 -0.014341052
-0.0017804677 0.0048225666 -0.0019205638 0.013996695 0.019165076 0.012075085 -0.004712446 0.0016809673
-0.008326293 0.0033950475 0.018960198 -0.0050857193 0.0028628341 0.021958433 0.0008438506 0.0005172639
0.0060639847 -0.01844653 -0.012712146 -0.008264173 0.006543433 -0.021962985 0.0049999678 -0.00713552
-0.0022656673 -0.01933777 -0.017706012 -0.008024824 0.002994061 -0.0065588164 0.007250633 -0.012376228
-0.00095539755 -0.009829345 0.022866629 0.013285612 0.0053031836 -0.02022 -0.015974088 0.011581046
0.008415671 0.0027294839 -0.018279323 -0.016658915 0.02868618 0.01538791 0.010458215 -0.010633227
0.018984297 0.012099399 -0.004548728 -0.013105205 0.0062679076 -0.00021538246 0.006154261 -0.006684031
0.01792934 0.017691504 0.00564128 -0.006131652 -0.006872434 -0.023318281 0.006470443 0.02603357
0.010396249 0.0002577008 -0.0101984255 0.0065243575 -0.006359819 -0.0072344984 0.025765905 0.00062656216
0.0003017302 0.015169235 -0.015167469 -0.016595718 -0.017825391 0.007192815 0.010676553 0.0097998995
0.001815922 0.0025156883 0.0037947898 0.0014624815 -0.008279481 0.014343587 -0.0071092397 0.013252121
-0.0139856115 0.01690047 -0.004611748 0.014251803 0.009617552 -0.006553857 -0.005422901 0.014091158
0.0081447335 -0.0007373424 0.024577934 -0.012072963 -0.0125543 0.0005693192 -0.0015095887 -0.009996998
-0.0042880066 -0.028132245 -0.011431347 -0.022004567 -0.0025639993 0.012311526 -0.0194925 0.0064015198
0.0033288754 0.0008491717 -0.020257434 0.019425927 0.0062535456 -0.004084379 -0.0071166717 -0.00090720895
0.017377736 -0.0033591115 -0.00022175722 -0.0008825683 -0.0033107435 -0.001578391 0.010528694 -0.012326392
0.0034422316 -0.006172836 -0.007143002 0.022589957 0.0041765636 -0.0073330807 -0.0043413723 -0.01031528
-0.008538534 0.012786272 -0.016955918 -0.0049420106 -0.003197232 -0.022305569 0.007886954 -0.013046834
-0.0030533094 0.010831361 -0.005069181 0.0008120604 -0.0031907998 0.00406001 -0.016833112 -0.0016349762

action_model._continuous_distribution.mu.bias f4 [3]
00000000: 0000 0000 0000 0000 0000 0000
0.0 0.0 0.0

action_model._discrete_distribution.branches.0.weight f4 [7, 256]
00000000: b313 1d3b 58ee 6c3b b8a3 bab8 40a1 e13a
00000010: 6b32 4abc 0c39 1bbc c85c f93b dda9 f238
00000020: a84e 1eba f393 33b9 e735 f5ba 88db ddba
00000030: 3008 acbb 9736 4db8 991f b03b 0002 363a
00000040: 0283 6ebb 7670 acbb 27f7 4cba 996d 0ebc
00000050: 2777 5b3a d832 6fba 24ae 2bbc 51df c6bb
00000060: daf1 fb3b 7ccd 823b 61e3 9d3b da7a 0f3b
00000070: 3213 39bc 8fdc 9e3b 8ad4 29b8 97e9 4e3c
00000080: ffd2 08bb 5924 953b 2c62 c43a 8fe5 a1bb
00000090: ea89 bdbb 8f47 c039 bbbb 77bb 9d9f f03b
000000a0: 37d3 b0ba 4711 d93b b23d 753b 504f 10bc
000000b0: 7ba8 4bbb f728 98ba af43 b23b f4ab 2ebc
000000c0: 807c ba3a e249 b9ba 2f41 79bb d8ca 973c
000000d0: 4356 923b 3684 c4bb e77d b238 2574 513a
000000e0: 4ffe 293a 6f41 3b3b 01ae c13a 23e5 3dbc
000000f0: d658 3d3b c889 2c3c 5ebd 343c 7f3c 6b3b
00000100: bbc5 203b 624a f73b d905 2ebb b2c1 a4ba
00000110: 1d5c eeb8 e869 f33b 9b8d 30bb 22db e83a
00000120: b288 c03b 10e5 c5bb 4a96 26bb 7ba8 4dbb
00000130: b0bf 5e3c 0382 bcbb cba0 e33a e549 ab39
00000140: eaa7 983b 2b5d 1b3c 8faf 25bc 4065 d8bb
00000150: cc5c bbba 48b1 f13b c29b a0ba 25bc 603b
00000160: 27e5 1f3c 13f2 293b 9022 4d3b 9dac 8dbb
00000170: dd1f 10bb 9d39 e5bb 7430 ccbb ad06 bd3b
00000180: a0e2 183a 8751 d13b ddaa 043c f333 db3a
00000190: 6a6d 123b ed3b 6c3a 98db 733c 09c5 38ba
000001a0: 1cc2 303c 33c8 cabb 5815 4bbc eba1 dcbb
000001b0: 9427 443b 07d8 71bb 6f12 0f3b e753 073c
000001c0: 5671 a4ba 592a 2b3a bb1f 76bb 2152 2dbb
000001d0: fbbb c13b c1e5 03ba 723d a6bb 4a4c aa3b
000001e0: 8b6d 683b 2793 9aba 0a74 b3bb 1a90 8ebb
000001f0: fb80 09bb e79b 10bb b891 97bb b952 87bb
00000200: bbe6 37bb 0841 563b 7e8e 153b 6fad 823b
00000210: 5697 c93b 6b8b a93b fa5d 89bb 6b77 123b
00000220: 7bc8 653b 421a fcbb 0b15 6cbb 6f20 87bb
00000230: 956d 653b 3b58 023c b5d1 cebb 2b32 323b
00000240: dfb9 503a 23c9 7eb7 a016 56bc d8e1 6abb
00000250: 1a00 b3bb 2a0d 2eba 27a5 57ba 5262 453c
00000260: 9c25 3fbb 5d24 183b ad63 083c 1a2b 05bc
00000270: 417e 13bc a71c e23b 4a1f b0b9 ff7c 223a
00000280: 7790 0f3b 5fa9 74bb 9082 6cbb 74f3 c1ba
00000290: 83a9 40bc 8d7b 013c 8ab2 5c3b b243 14bc
000002a0: 8799 cf39 0e74 27bc 679b d13a e7c6 913a
000002b0: 7341 b2bb c8be af38 327b 0d3c ca5c d9bb
000002c0: b4c0 053c 96f7 9c3a d5b7 24bc ba2d d1bb
000002d0: fe4d 873b 0b32 783a 8437 883b 7b3f 56bb
000002e0: 077d 22bb cf61 38bb 1a15 3dba fd36 043b
000002f0: 47df 98bb 7a0c a0b9 e951 a4bc 671b b8bb
00000300: d7cd d43b d954 c53a 5d43 c53b c2cd f23b
00000310: ebf8 ab3b 07fa 1b3c d2d1 c3bb bd23 31bb
00000320: 3732 feb9 38b2 c5bb 8ba5 15bb 47f9 eeba
00000330: 6cc1 203c 9dd5 9cba 1d0c 63bb 6d93 71bb
00000340: c0eb 43bc d8f7 523a 2b36 4eba 0b1b 3bbc
00000350: 4597 643a 6f1e ddba 3bbc 573b 6e9f 393c
00000360: 1e01 103c 562f 833b 2f06 903b 6261 02bc
00000370: d614 abbb 25f9 983b e757 503b fac9 dd3a
00000380: 9535 b03b c7c2 bbba 93b3 5f3a bd24 ff3b
00000390: bec4 403c 3382 04bc b4c4 3b3b 8751 d8bb
000003a0: e8dc c33a df59 fd3b b8e9 4eb9 125b 4d3c
000003b0: 5911 b63b a7ab 033c e9fe 09ba 0782 153c
000003c0: 50c6 44bb 1fcf 7cba 58c8 f7bb 9fbf 2e3b
000003d0: 444d 2d3b 6056 18bb c99f 183c 87c9 f03a
000003e0: c0b9 063c 9167 093b 3588 af39 933e d9bb
000003f0: 6d8c 42bb 66f6 2fbb 4ab0 9abb 6bb7 bebb
0.002396804 0.0036152806 -8.899666e-05 0.0017214194 -0.012341122 -0.00947405 0.0076099373 0.00011571099
-0.00060389424 -0.00017125886 -0.0018708081 -0.0016926387 -0.0052499995 -4.892665e-05 0.0053748605 0.0006943047
-0.0036394005 -0.00526243 -0.0007818811 -0.008693122 0.0008371942 -0.0009124703 -0.01047853 -0.006069102
0.007688743 0.003991781 0.0048183654 0.0021893294 -0.01129608 0.00484807 -4.0490682e-05 0.012628934
-0.0020877717 0.004551452 0.0014982871 -0.0049406956 -0.005784263 0.0003667441 -0.0037801105 0.007343246
-0.0013490681 0.006624374 0.0037420806 -0.008807972 -0.0031075764 -0.0011608888 0.0054401974 -0.010661114
0.0014227778 -0.0014136399 -0.0038033237 0.01852934 0.0044658496 -0.005997206 8.5111526e-05 0.0007990024
0.00064847333 0.0028572937 0.0014776589 -0.011590275 0.0028892062 0.0105308965 0.011031477 0.0035894213
0.002453192 0.007546709 -0.0026553778 -0.0012569933 -0.00011365882 0.0074283965 -0.0026939872 0.0017765502
0.0058756704 -0.0060392693 -0.002541917 -0.003138094 0.013595507 -0.0057528033 0.0017366646 0.00032670717
0.004658689 0.009482662 -0.010112657 -0.006603867 -0.0014294623 0.00737587 -0.0012253451 0.003429183
0.009759224 0.002593164 0.0031301118 -0.0043235556 -0.0021991648 -0.0069953934 -0.006231362 0.005768618
0.00058321096 0.0063878926 0.008097378 0.0016723856 0.0022343048 0.0009011615 0.014883898 -0.00070484035
0.010788467 -0.0061884164 -0.012395225 -0.0067331693 0.0029930817 -0.0036902444 0.0021831056 0.00825975
-0.0012545984 0.00065294426 -0.0037555534 -0.0026446658 0.0059123016 -0.00050314894 -0.005073243 0.0051970826
0.0035465683 -0.0011793122 -0.0054764794 -0.0043506743 -0.002098142 -0.0022065581 -0.0046255253 -0.0041297344
-0.002806111 0.003269257 0.0022820528 0.00398796 0.006152074 0.0051740906 -0.004192111 0.002234901
0.0035062123 -0.00769356 -0.0036023285 -0.0041237394 0.0035007943 0.007955606 -0.00631162 0.0027190547
0.0007962267 -1.5186411e-05 -0.013066918 -0.003584018 -0.0054626586 -0.0006639535 -0.0008226209 0.012047367
-0.0029166704 0.0023215034 0.008324546 -0.008127952 -0.009002269 0.0069003883 -0.00033592648 0.00061984354
0.0021906176 -0.0037332398 -0.0036088564 -0.0014797286 -0.011759165 0.007902992 0.0033675754 -0.009049343
0.00039596503 -0.010220541 0.0015991748 0.00111219 -0.005439931 8.380186e-05 0.008635329 -0.006633376
0.00816362 0.0011975642 -0.010053595 -0.006383625 0.0041291704 0.0009467906 0.0041570086 -0.0032691646
-0.002479376 -0.002813447 -0.0007212922 0.0020174377 -0.0046652886 -0.00030526874 -0.020058589 -0.005618501
0.0064942646 0.0015055194 0.006019993 0.007409782 0.005248179 0.00952006 -0.0059759403 -0.0027029358
-0.00048484068 -0.006033208 -0.0022834267 -0.001823225 0.00981174 -0.0011965517 -0.0034644671 -0.0036861554
-0.011958063 0.0008047796 -0.0007866348 -0.011420022 0.00087200507 -0.0016870032 0.003291859 0.011329515
0.008789329 0.0040034456 0.0043952684 -0.007957788 -0.0052209897 0.004668372 0.0031790675 0.0016921156
0.005377481 -0.0014325016 0.00085335335 0.007786362 0.011765657 -0.008087683 0.002865118 -0.0066015157
0.0014943155 0.0077316607 -0.00019732758 0.01253392 0.005556267 0.008036531 -0.000526412 0.009125239
-0.003002543 -0.00096439006 -0.0075617246 0.0026664508 0.002644376 -0.0023244843 0.0093154395 0.0018370607
0.008222997 0.0020966271 0.00033480083 -0.006629774 -0.002968575 -0.0026849746 -0.0047207223 -0.005820205

action_model._discrete_distribution.branches.0.bias f4 [7]
00000000: 0000 0000 0000 0000 0000 0000 0000 0000
00000010: 0000 0000 0000 0000 0000 0000
0.0 0.0 0.0 0.0 0.0 0.0 0.0

onnx::Div_80 f4 [68]
00000000: 0000 803f 0000 803f 0000 803f 0000 803f
00000010: 0000 803f 0000 803f 0000 803f 0000 803f
00000020: 0000 803f 0000 803f 0000 803f 0000 803f
00000030: 0000 803f 0000 803f 0000 803f 0000 803f
00000040: 0000 803f 0000 803f 0000 803f 0000 803f
00000050: 0000 803f 0000 803f 0000 803f 0000 803f
00000060: 0000 803f 0000 803f 0000 803f 0000 803f
00000070: 0000 803f 0000 803f 0000 803f 0000 803f
00000080: 0000 803f 0000 803f 0000 803f 0000 803f
00000090: 0000 803f 0000 803f 0000 803f 0000 803f
000000a0: 0000 803f 0000 803f 0000 803f 0000 803f
000000b0: 0000 803f 0000 803f 0000 803f 0000 803f
000000c0: 0000 803f 0000 803f 0000 803f 0000 803f
000000d0: 0000 803f 0000 803f 0000 803f 0000 803f
000000e0: 0000 803f 0000 803f 0000 803f 0000 803f
000000f0: 0000 803f 0000 803f 0000 803f 0000 803f
00000100: 0000 803f 0000 803f 0000 803f 0000 803f
1.0 1.0 1.0 1.0 1.0 1.0 1.0 1.0
1.0 1.0 1.0 1.0 1.0 1.0 1.0 1.0
1.0 1.0 1.0 1.0 1.0 1.0 1.0 1.0
1.0 1.0 1.0 1.0 1.0 1.0 1.0 1.0
1.0 1.0 1.0 1.0 1.0 1.0 1.0 1.0
1.0 1.0 1.0 1.0 1.0 1.0 1.0 1.0
1.0 1.0 1.0 1.0 1.0 1.0 1.0 1.0
1.0 1.0 1.0 1.0 1.0 1.0 1.0 1.0
1.0 1.0 1.0 1.0

onnx::Div_83 f4 [35]
00000000: 0000 803f 0000 803f 0000 803f 0000 803f
00000010: 0000 803f 0000 803f 0000 803f 0000 803f
00000020: 0000 803f 0000 803f 0000 803f 0000 803f
00000030: 0000 803f 0000 803f 0000 803f 0000 803f
00000040: 0000 803f 0000 803f 0000 803f 0000 803f
00000050: 0000 803f 0000 803f 0000 803f 0000 803f
00000060: 0000 803f 0000 803f 0000 803f 0000 803f
00000070: 0000 803f 0000 803f 0000 803f 0000 803f
00000080: 0000 803f 0000 803f 0000 803f
1.0 1.0 1.0 1.0 1.0 1.0 1.0 1.0
1.0 1.0 1.0 1.0 1.0 1.0 1.0 1.0
1.0 1.0 1.0 1.0 1.0 1.0 1.0 1.0
1.0 1.0 1.0 1.0 1.0 1.0 1.0 1.0
1.0 1.0 1.0
